src/siMLPe/exps/baseline_amass/log/snapshot/model-iter-35000.pth (torch, 604338 bytes, 196 tensors)

motion_mlp.mlps.0.fc0.fc.weight f4 [50, 50]
00000000: c6f7 e3bc aa89 93bd 51ae f43c 3be1 1cbd
00000010: b8d5 8e3c 4312 75bc 6e06 e13c 32d1 f1bc
00000020: 65f1 68bb 6220 71bc c611 87bc e2aa a3bc
00000030: 9ab3 2cbc a0a9 96bc 0f11 4dbc ee18 dfbc
00000040: c08a 58bc 6139 bbbc 76e0 3cbc 5c03 debc
00000050: 7bfb 38bc 4034 bfbc 7ce5 3ebc 4517 fdbc
00000060: b7f6 d6bb a278 debc 73e8 4bbc eae8 acbc
00000070: 2f45 52bc ed2e 8fbc 067b 94bc 3902 2abc
00000080: 21c7 8cbc 955a 00bc 23da 9bbc 164f 96bb
00000090: 3111 98bc 9f56 80bb 332f 8fbc d383 75ba
000000a0: dfa1 82bc 69c1 56ba 7ca2 71bc b251 3eb8
000000b0: 86f1 22bc b13e f2ba 6f45 0dbc 1a01 c8ba
000000c0: 1eba cfbb a165 77bb fbda 2b3c 0413 e6bc
000000d0: 5a33 593b b669 dcbb 9985 8fbc df01 70bc
000000e0: 9dcd f5bc 882b 523c bd80 62bb 6e06 96bc
000000f0: 39bd b73b addc 5bbb 37b5 543b 1404 e33a
00000100: a09b 56bb 235d 343c a7f0 8cbb 5ee1 e03a
00000110: ade0 c8ba 2591 f6ba 189f 57bb a5ad 0fbc
00000120: 12b4 27bb 8e1b 08bc 58c3 15bb 3d45 3bbc
00000130: 23e1 9ebb ed58 1bbc dab3 d9bb d0e7 2abc
00000140: 4248 37bc fddc debb 16f4 67bc 5274 17bc
00000150: 18f1 73bc 4c4c 0cbc 0c3d 95bc cd59 0dbc
00000160: cb9e 99bc b6e7 19bc 1df1 93bc 720b 20bc
00000170: 247a 91bc 6d6f 38bc 9219 8ebc e765 4bbc
00000180: 3db0 89bc 84e5 58bc 5ab4 87bc 4542 77bc
00000190: c2a8 acbb e567 cfbc a289 ca3c 4d01 37bc
000001a0: 1123 afbb 04a7 eebc 5b1f 183c 2bc6 353b
000001b0: c814 263c c7e7 43bc d74f 8d3c fae2 3dbc
000001c0: 13eb b73c 282f 8b3a 7f09 643c 487c ac3c
000001d0: d3e2 963c 0960 ca3c 3fe9 d73c 1371 af3c
000001e0: 064d e33c 5a94 a23c fd8c bc3c dcc6 a23c
000001f0: 1f4e f63c 690f 463c 66a1 d03c 8977 613c
00000200: 67d1 ba3c 3df7 bc3c 0af8 873c 3831 c43c
00000210: a2cc 8b3c b57e cb3c 25bd 573c 1ade e03c
00000220: 01f2 453c 7ab2 e53c fc43 5d3c 00b7 ea3c
00000230: f655 433c 99ee dc3c 3df2 6c3c 5324 d83c
00000240: d5fa 873c 2f18 c93c dabb 8e3c dfcb c83c
00000250: eebd a03c 1153 ba3c 6b4b 0dbc 8810 d03c
00000260: 6eb5 8dbc 25b2 ca3c c28c cbbc c5d8 ab3c
00000270: b7ca babc f5a9 4c3d 0908 f0bc af94 413d
00000280: cb20 88bc 3c2f f63c d8db dd3b 3779 d73c
00000290: 71c3 7f3b bd28 d43c c8e9 2a3c 41f0 e83c
000002a0: 5326 033c 91d4 173d cd56 613c 54a2 f93c
000002b0: da02 8b3c 60c3 d83c c9d7 a93c 0f93 ee3c
000002c0: 129e a73c 617d c93c 9013 a93c 4a20 d23c
000002d0: cf6d ac3c 3a6a c83c c89d a43c 1dda c33c
000002e0: 706f ab3c 8367 b93c a124 9a3c c1f6 b23c
000002f0: 4de2 923c 4291 a83c 5c86 9c3c 0d74 a23c
00000300: c566 a03c f619 963c 2ffe 953c a6d0 983c
00000310: 965f 8a3c c9f0 8a3c 9ffc 8f3c 379e 8c3c
00000320: 82a6 823a a386 bfbc b031 aa3c 5977 643c
00000330: e1c4 82bd 8abb bbbc 9079 e7bb ec4d c6bc
00000340: 9723 f9b8 dcc2 86bc 8775 05bc 8723 8fbc
00000350: f72b b5bc d207 c1bc fd89 c4bc de5b 5bbc
00000360: 0a06 d8bc b761 52bc 91a0 87bc 9919 573b
00000370: e2f6 dbbc bb4b 283c 03a5 6cbc 58b6 ce3b
00000380: e7da 53bc 75d8 3c3c afdc 08bc 70e7 603c
00000390: 4ede 93bb d786 1a3c f421 143b 07af 0a3c
000003a0: ee6d 5e3b fc29 2e3c 9586 c93b 0ec4 203c
000003b0: 6797 293c 7dfc 123c fab4 443c 214c 2b3c
000003c0: c80e 3c3c 8c45 163c 15a9 503c 481b 403c
000003d0: 1d6b 653c 12df 2a3c 5fe3 6c3c 0d1e 493c
000003e0: 6cfc 5f3c 6b5f 6e3c 547f 083b 0679 4bba
000003f0: bd87 fa3b 4f19 c73b 1b4c a0ba c7ec 4abc
-0.027828109 -0.07203992 0.029868277 -0.038300734 0.017435893 -0.014957967 0.027468886 -0.029518697
-0.0035544273 -0.014717193 -0.016487967 -0.019978944 -0.010540867 -0.01839143 -0.012516274 -0.027233567
-0.013216674 -0.022854509 -0.011528125 -0.027101211 -0.011290426 -0.023340344 -0.011651393 -0.030894885
-0.0065601724 -0.027157132 -0.012445557 -0.021107156 -0.0128338775 -0.01747843 -0.018125068 -0.0103765065
-0.017184796 -0.007834096 -0.019024914 -0.0045870645 -0.018562885 -0.003916576 -0.017478561 -0.00093656516
-0.015946327 -0.00081922725 -0.014748212 -4.5375615e-05 -0.009945279 -0.0018481818 -0.008622511 -0.0015259117
-0.0063393256 -0.0037749785 0.010489221 -0.02808524 0.003314218 -0.006726469 -0.017519759 -0.014648884
-0.03000527 0.0128277615 -0.0034561597 -0.018313613 0.005607274 -0.003354828 0.0032456645 0.0017319941
-0.0032746568 0.011008534 -0.004301149 0.0017157008 -0.0015325748 -0.0018811567 -0.0032901224 -0.008769427
-0.0025589508 -0.008307351 -0.002285203 -0.011430082 -0.0048486157 -0.009481651 -0.0066437544 -0.010431245
-0.011186661 -0.006801246 -0.014157316 -0.0092440415 -0.014889024 -0.0085631125 -0.018217586 -0.008627367
-0.018752476 -0.009393623 -0.018059308 -0.009768354 -0.017758437 -0.011257035 -0.017346177 -0.012414432
-0.01680767 -0.013238315 -0.01656549 -0.0150914835 -0.005269141 -0.025318095 0.024723832 -0.011169744
-0.0053447564 -0.029132374 0.0092848195 0.0027736526 0.010136791 -0.0119571155 0.017249985 -0.01158976
0.02245096 0.0010618912 0.01391828 0.021055356 0.018418705 0.024703996 0.026356338 0.021416223
0.027746689 0.01984613 0.023016447 0.019870214 0.030066548 0.012088635 0.025467586 0.01376141
0.022804929 0.023067111 0.016597766 0.02394925 0.01706535 0.024840692 0.013167654 0.027449656
0.012081624 0.028039206 0.013504978 0.028651714 0.01192235 0.026969241 0.014462051 0.026384508
0.016599098 0.024547664 0.017423559 0.024511276 0.019621816 0.022744687 -0.008623938 0.025398508
-0.017298426 0.024743149 -0.024847392 0.020977387 -0.02280174 0.04996677 -0.029300706 0.047260936
-0.0166172 0.03005182 0.006770592 0.026302917 0.0039026404 0.025898332 0.010431714 0.028434874
0.008004743 0.037067953 0.013753605 0.030472912 0.016969133 0.02646035 0.020732777 0.029122857
0.020461116 0.024595918 0.020639211 0.025650162 0.021048455 0.024464715 0.020094767 0.023907715
0.020927161 0.022632366 0.018816294 0.021846177 0.017930174 0.020577077 0.019107036 0.019830728
0.019580254 0.018322926 0.01830968 0.018654179 0.016891282 0.016960518 0.017576514 0.017165286
0.0009967836 -0.02337963 0.020775646 0.01394447 -0.06385208 -0.022916574 -0.007064052 -0.024207078
-0.000118798744 -0.016450338 -0.0081456965 -0.017472995 -0.02211569 -0.0235633 -0.02399158 -0.013388602
-0.026370067 -0.01284068 -0.016556056 0.0032821654 -0.026851121 0.010271962 -0.014443639 0.006308358
-0.012930608 0.011526217 -0.008353396 0.013727054 -0.004512585 0.009431562 0.0022603245 0.008464581
0.0033940035 0.010630127 0.0061500766 0.009812368 0.010351039 0.008971331 0.012006039 0.010455162
0.0114781335 0.009171855 0.012735625 0.011725254 0.014002589 0.010429161 0.014458506 0.012275231
0.013671022 0.014549117 0.0020827847 -0.00077618693 0.007645576 0.006076015 -0.0012229712 -0.012385554

motion_mlp.mlps.0.fc0.fc.bias f4 [50]
00000000: a376 1eb8 3756 3137 9638 43b8 a7fd 8237
00000010: 9e6d 51b7 8df8 53b8 ceed eb37 1af8 bd36
00000020: 7dd6 e9b8 fe4a 0438 4143 5037 c418 8538
00000030: 574f 1138 97e5 5fb7 9db1 c3b6 8bb6 5e38
00000040: 8754 1738 9cca 12b8 fe7f a036 e69e 06b7
00000050: ad07 c2b8 4ad5 4cb7 ba20 00b9 4fd0 9fb7
00000060: 993d 67b7 d7c6 2637 4335 3eb5 0c13 7238
00000070: baf5 b9b7 e436 24b8 9532 2fb8 75a6 60b7
00000080: 4c9e b4b7 ba2d 4837 20f7 0b37 20ef ac38
00000090: 7889 5139 ac4c 5eb7 e96a 8d37 14dd 6537
000000a0: 99ca b1b7 e403 9036 c658 92b6 1d1d 9f37
000000b0: 94eb 21b8 6870 ceb7 d068 1d38 ad27 a2b6
000000c0: 320e f0b7 928a 4cb7
-3.7780625e-05 1.0570096e-05 -4.6544323e-05 1.5615324e-05 -1.2482893e-05 -5.05378e-05 2.812492e-05 5.6615218e-06
-0.00011150257 3.1541094e-05 1.2413425e-05 6.346547e-05 3.4644585e-05 -1.3345291e-05 -5.83213e-06 5.309893e-05
3.6079928e-05 -3.4997807e-05 4.783272e-06 -8.024019e-06 -9.2520706e-05 -1.2209008e-05 -0.00012219223 -1.9051278e-05
-1.3783015e-05 9.940667e-06 -7.085802e-07 5.7715035e-05 -2.2168144e-05 -3.9151768e-05 -4.177036e-05 -1.3390197e-05
-2.1531385e-05 1.19315755e-05 8.342584e-06 8.2461396e-05 0.00019983004 -1.3250083e-05 1.6858294e-05 1.3700937e-05
-2.1194386e-05 4.2919874e-06 -4.3614737e-06 1.8967834e-05 -3.860479e-05 -2.4609457e-05 3.752933e-05 -4.832595e-06
-2.861684e-05 -1.2191611e-05

motion_mlp.mlps.0.norm0.alpha f4 [1, 54, 1]
00000000: 1aa6 353e ee68 273e e486 573e 20f7 233e
00000010: 6cdc 453e 8c4d 0f3e 9345 423e 20c8 1f3e
00000020: 94fb 703e 3ec1 863e 5db3 523e 1707 433e
00000030: 5f33 473e 27cf 163e 801b 2a3e 2850 613e
00000040: aa25 403e 054d 333e 6d72 5a3e 4365 a33e
00000050: b945 463e 6dfb 3b3e 850d 553e 0419 393e
00000060: b7b1 3b3e 04fb 553e 2ee4 503e 0dfc 3c3e
00000070: 3958 853e fa20 393e a379 4a3e 376b 72bb
00000080: 302b 353e 0734 383e dd1e 453e d7a1 243e
00000090: f7c9 363e e429 9b3e 24e7 413e f22f 0e3e
000000a0: cd41 3f3e 6ba4 233e 292b 503e 4b68 293e
000000b0: 3c4b 693e 7f46 513e b85a ae3e 4fe0 203e
000000c0: 040a 213e 782f 5e3e 15ac 4b3e cce0 233e
000000d0: 6984 4b3e 5820 723e
0.17739144 0.16348621 0.2104755 0.1601224 0.19322366 0.13994426 0.18971853 0.15603685
0.2353347 0.26319307 0.20576234 0.19045673 0.1945319 0.1472746 0.16612053 0.22003233
0.18764368 0.1750985 0.21332712 0.31913194 0.19362535 0.1835763 0.20805939 0.18075949
0.18329512 0.20896536 0.20399544 0.18455525 0.2604387 0.18078986 0.19772963 -0.0036990175
0.17692256 0.17988597 0.19250055 0.16077362 0.17850481 0.30305398 0.1893583 0.13885477
0.18677445 0.15980689 0.20328964 0.16543691 0.22782606 0.20437048 0.34053588 0.15710567
0.15726477 0.21697795 0.19889863 0.16003722 0.19874729 0.2364515

motion_mlp.mlps.0.norm0.beta f4 [1, 54, 1]
00000000: 2cea 71ba 4a97 42b8 1812 093c ed6f e13a
00000010: cafb dbb9 27d4 c43a a69a 223a 9155 903a
00000020: 00f0 8c3a f7b1 ffb9 b6d6 eb3b fe92 f538
00000030: ba46 dcb9 081a 65bb 2263 89ba 14d5 963a
00000040: 5ad2 6e3a 1d8f cc37 6b3e c83a ab6a 253b
00000050: 81a9 a3ba 6cf8 d6ba 851f 87ba 523c fbb9
00000060: 4a80 69bb c7dd 0abb deaa b63a 1d02 943a
00000070: 33a8 653a 255d 44b8 ad03 8ab8 13fb 893d
00000080: f70b b73a 4122 5eb9 5dda 41bb 082d d1ba
00000090: ff13 54ba 7e74 ccba cba1 14ba 99a7 563b
000000a0: 99dd 1bba 20f6 833a 4822 aeba 78f9 28ba
000000b0: 6528 e6b9 2691 2e3b 4bcc 843a 3ff9 68bb
000000c0: 6249 d538 86c0 bdbb 5341 bd39 0ef7 bf3a
000000d0: d9d2 17b9 ec73 c7b9
-0.0009228315 -4.6394103e-05 0.00836613 0.0017199494 -0.00041958533 0.001501684 0.0006202854 0.0011011829
0.0010752678 -0.00048769984 0.0071972264 0.0001170989 -0.00042014365 -0.0034958143 -0.0010481814 0.0011507594
0.00091103243 2.4385337e-05 0.0015277391 0.002524058 -0.0012486429 -0.001640094 -0.0010309076 -0.00047919393
-0.0035629445 -0.0021189319 0.001393642 0.0011292134 0.00087607204 -4.681679e-05 -6.5810375e-05 0.06737342
0.0013965358 -0.0002118433 -0.0029579618 -0.0015958855 -0.0008090138 -0.0015598682 -0.0005669861 0.0032753705
-0.00059458014 0.0010067858 -0.0013285363 -0.0006445865 -0.00043899115 0.0026636808 0.0010131685 -0.0035548953
0.000101703 -0.005790773 0.0003609756 0.0014645772 -0.00014479029 -0.00038042606

motion_mlp.mlps.1.fc0.fc.weight f4 [50, 50]
00000000: a783 edbc dc0f a7bc bf56 453d 7606 a3bc
00000010: 311c be3b 2376 b5bc 7d2d 4dba 3b0d db3b
00000020: bb1d 0b3c 9f88 ddbc 6c34 213c 3fe8 b53c
00000030: 29de 663c 11ea 223c ebb8 57bb 7d97 0cbc
00000040: e46a 0fbb 2a67 48bc 454a aebc 1b93 5fbc
00000050: db9a 50bd 6f66 57bd 9042 08bd 8787 c43a
00000060: 4288 01bb 0f62 16bc 6707 883c 834e 433a
00000070: 2eaa 39bb 3c96 553c d429 113c 9ab2 42bc
00000080: 3bff c3bc 95c0 e1bc 1205 96bc 81d3 82bc
00000090: 9a1f 0bbd 8f0e bc3c 6d8f babc b93f 07ba
000000a0: 2d08 0fbc 68ed b83b ea9e 34bc 97ac b1bc
000000b0: 573f 983c d21b 13bd 6ae4 eabc 023c 11bd
000000c0: 6d3a e83c 204b 4dbc f313 233b eb05 0cbd
000000d0: cd4d 983d 8aaf b5bc 1b6e 87bc 64c2 803b
000000e0: a628 7ebd f6b4 a3bb ff82 273b 3eec 99bc
000000f0: 78b1 f539 e380 143d aee2 4bbb 2f83 2b3c
00000100: 89d9 0d3d 37d1 55bc c9c9 f13a d5f8 e13c
00000110: 4975 843b 0786 54bc 4798 393d c400 933b
00000120: fa82 2b3d b69f 3dbc a099 673b a16d 743b
00000130: 24f6 1d3d 737f d63c d2cb e13b 6f93 8aba
00000140: 9bca 64bc 1c50 7ebc 6f1f e7bb d3b0 6f3c
00000150: 8d0f 8cbc dfee 8d3c 132e ba3c 3351 13bb
00000160: dc11 123b 522d 253c a19c e43c af69 e6bb
00000170: b5f2 303c 4f2f 5abc 1eb2 9a3d f2e9 2b3c
00000180: 07af 3ebc 3daf 69bc 8880 cb3c 7320 49bc
00000190: 10da d83a 7084 33bb 6af9 8abc 05e5 2ebc
000001a0: fc5f 983b 5e6e 86bc 82c3 a2bc 72b1 4e3a
000001b0: 9e3c 70bc c8e3 c43c 4fff f23b a345 6abc
000001c0: 3ac3 22bc 4791 613b 870c d13b 9509 63bc
000001d0: b438 47ba ac77 743b f2e8 84bb 2a47 e5bb
000001e0: 363b b2bd c6b5 d33c 6979 59be d9c2 733c
000001f0: aef0 1bbc 0c76 363c 2926 d8bc 286f 36bc
00000200: 7a25 08bb 78c6 eeba 0f66 fbbc 4b47 823b
00000210: 6c1f de3b 270a 4d3c 2acf 39bb d63f a5bd
00000220: f874 5fbc 9dee de3a 0286 833b 96a4 e9bb
00000230: 1884 7ebc 879d e7bc 1de0 553c c1a2 503c
00000240: 13de 42bc 3b29 c13b bcab bb39 37a6 e03b
00000250: 42fd 213b 9dbd 1a3c 78a6 f73b 3029 ef3b
00000260: ef63 153d 7517 df3c 5421 353d 9fde c83c
00000270: e633 60bd c065 cabc 794d 773c 665b aa3c
00000280: 9a69 4938 7132 5d3c 2194 0b3c 8aae c6bc
00000290: a8ea 4a3d d255 afbc f91f 69bc 466a 633c
000002a0: 976f f73b 0776 8cbb 4287 02bd 3e74 a63c
000002b0: 7fd1 3ebd c96c 0dbc 078d a73b ae2e e53b
000002c0: 80eb 8cbb 5601 bb3b 3c8b 04bc 12df 8dbc
000002d0: 9693 3e3c a576 673c 7129 a53c fb0e 023d
000002e0: b0d6 58bc 3a09 00bd d64a 2d3d e758 31bc
000002f0: e9d2 edbb 15e3 69bc 1716 213b 0808 453c
00000300: 692c 24bc a421 943b 9cfa 0bbd 7e0d a73c
00000310: 364d 173d 38df de3c 9c49 f2bb 6567 083c
00000320: e8c4 afbc 0210 243c 3541 d5bc 4118 01bd
00000330: d035 5cbd 94aa 923a 2d05 7d3d 519c d73c
00000340: a303 74bd d750 bcbb 1ea6 793c fb01 253b
00000350: 0f5f 25bc 8347 ae3c 25ca 173c 28b1 c03c
00000360: 9f02 8dba d19d 37bb ec74 da3a ee0e 71bc
00000370: 791f 35bc d41d 253b 9eea 18bc 4e5d 9dbc
00000380: 2320 c43c 7466 033d 8a39 1cbd afb0 1dbd
00000390: fad0 c33c 1789 2c3d 6f7b 05bd 05ad 2ebc
000003a0: eb8d a5bc c3d2 28bb 3bed d3bc de3f d8bc
000003b0: ec9c a1bc 4fbc 703c 5250 12bb fffb 0d3d
000003c0: d430 3e3d c4ba 5e3d 106e 80ba 81e9 15bb
000003d0: 2e94 203c e5ba 2b3c 625d c4bc 3859 1fbd
000003e0: 7ae1 9fbc 6255 2b39 d4ef d03c 00cb 423c
000003f0: f9f1 32bc 6b0a 893c 36db c93b 591f 1fbd
-0.02899344 -0.020393305 0.04817843 -0.019900542 0.0058017005 -0.022151059 -0.00078269077 0.006684927
0.008490975 -0.027042685 0.0098391585 0.02220547 0.014091053 0.009943501 -0.0032916616 -0.0085810395
-0.002188378 -0.0122316275 -0.021275649 -0.0136459125 -0.05092893 -0.052587923 -0.033266604 0.0014994004
-0.0019765054 -0.009178652 0.016605092 0.0007450359 -0.0028330195 0.013036307 0.00886007 -0.011883402
-0.023925414 -0.02755765 -0.018312965 -0.015969994 -0.033965684 0.02295616 -0.022773469 -0.0005159337
-0.008729977 0.0056435354 -0.011024216 -0.021688743 0.01858489 -0.035915203 -0.02867337 -0.03545762
0.028348172 -0.012530118 0.0024883717 -0.03418533 0.07436714 -0.02217843 -0.016531995 0.003929423
-0.062050484 -0.0049959375 0.0025560257 -0.018789407 0.00046862266 0.03625573 -0.0031110453 0.010468288
0.034631286 -0.013050369 0.0018446977 0.027584473 0.004042302 -0.012971408 0.04531124 0.0044861753
0.041872956 -0.011573723 0.003533937 0.003729679 0.038564816 0.02618382 0.0068907524 -0.0010572503
-0.0139643205 -0.015522029 -0.0070533077 0.0146295605 -0.017097259 0.017325817 0.022727048 -0.0022478818
0.0022288477 0.010081606 0.027906718 -0.0070316414 0.010800053 -0.013316943 0.075535044 0.010492789
-0.011638409 -0.0142629715 0.024841562 -0.012275803 0.001654448 -0.0027392171 -0.016964633 -0.01067472
0.004650114 -0.016410049 -0.019868616 0.0007884718 -0.01466289 0.024034396 0.007415689 -0.014298829
-0.009934241 0.0034418867 0.006379667 -0.013857265 -0.0007599697 0.0037302775 -0.0040560896 -0.006997009
-0.087027 0.025843512 -0.2123772 0.014877998 -0.009517832 0.011136543 -0.026385384 -0.0111349
-0.002077429 -0.0018217107 -0.030688314 0.003975784 0.006778648 0.012514628 -0.002835224 -0.08068816
-0.013638727 0.0017008368 0.0040137777 -0.007130216 -0.015534423 -0.028273357 0.013053921 0.012734116
-0.011893767 0.0058948076 0.00035795372 0.006855752 0.0024717604 0.009444621 0.0075576864 0.007298611
0.036472257 0.027232865 0.044221237 0.024520217 -0.054736994 -0.024706721 0.0150941545 0.020795535
4.8020484e-05 0.013500796 0.008519203 -0.024253149 0.049540192 -0.021403227 -0.014228814 0.013880318
0.0075511443 -0.004286531 -0.031867273 0.0203191 -0.04658651 -0.008631893 0.0051132473 0.00699409
-0.0043005347 0.0057069464 -0.008089837 -0.017318282 0.011631867 0.014127408 0.020161362 0.031752568
-0.013234779 -0.0312588 0.042307697 -0.010824419 -0.0072578085 -0.014275332 0.0024579817 0.012025841
-0.010020354 0.004520612 -0.034174547 0.020392176 0.03693887 0.027206048 -0.007394029 0.008325432
-0.021456197 0.010013582 -0.02603207 -0.03151727 -0.053762257 0.0011189752 0.061772514 0.026319655
-0.05957378 -0.0057469415 0.015237359 0.0025178182 -0.0100934645 0.021274334 0.009264504 0.023521975
-0.0010758227 -0.002801765 0.0016666926 -0.014713032 -0.011054867 0.002519478 -0.009333281 -0.01920953
0.023941105 0.03208013 -0.03814081 -0.038498577 0.023903359 0.042122927 -0.03258842 -0.010661368
-0.020209273 -0.002576039 -0.025869956 -0.026397642 -0.019728146 0.014693334 -0.0022325707 0.03466415
0.046433285 0.054377332 -0.0009798426 -0.0022874775 0.009800954 0.010481571 -0.02397031 -0.038903445
-0.019516695 0.00016339638 0.025504984 0.011889219 -0.010921949 0.0167286 0.006160165 -0.038848255

motion_mlp.mlps.1.fc0.fc.bias f4 [50]
00000000: 0a31 7c36 42db 6336 a4b7 c136 79f7 2736
00000010: 5cde dcb6 5e25 3536 4954 15b6 509e 1db7
00000020: 9029 8c36 fb15 4836 def9 94b6 eec4 b3b6
00000030: dc62 cfb6 ed4b 6036 c299 bc35 0aff 8335
00000040: 4423 f336 1abe 0a37 1dd0 9b35 d4d9 8f36
00000050: 1443 4236 1b6e 9335 684b 3936 d3b6 34b6
00000060: d2bf b0b3 f623 66b6 7ede 58b4 0ce9 1037
00000070: 47d4 5936 06f1 cfb6 76b5 c936 63bc 36b7
00000080: b47d bdb3 a92e abb6 8ca6 72b6 435b 42b7
00000090: 2e8f 9536 2fde ddb6 7ef1 ffb6 0be4 e3b7
000000a0: 200e da35 b5f3 ea35 2080 8236 2dec 2737
000000b0: 8887 4435 7665 2135 c90d 3ab6 37ca 3736
000000c0: e322 8436 a1cf 04b5
3.757947e-06 3.395326e-06 5.773227e-06 2.5028987e-06 -6.582397e-06 2.6992852e-06 -2.225179e-06 -9.394789e-06
4.1771636e-06 2.9815117e-06 -4.439832e-06 -5.3575413e-06 -6.1805895e-06 3.3422796e-06 1.4051841e-06 9.834487e-07
7.24607e-06 8.269702e-06 1.1608969e-06 4.2870906e-06 2.8947297e-06 1.0984398e-06 2.761104e-06 -2.6928508e-06
-8.2305306e-08 -3.4293603e-06 -2.019751e-07 8.637329e-06 3.2459081e-06 -6.1971396e-06 6.0113916e-06 -1.0891908e-05
-8.8238636e-08 -5.101629e-06 -3.6157753e-06 -1.158455e-05 4.4572143e-06 -6.612179e-06 -7.6277056e-06 -2.71667e-05
1.6246377e-06 1.7505287e-06 3.8892176e-06 1.0008965e-05 7.3212914e-07 6.012482e-07 -2.7724184e-06 2.738683e-06
3.937968e-06 -4.947597e-07

motion_mlp.mlps.1.norm0.alpha f4 [1, 54, 1]
00000000: 1c9c 063e 7a20 da3d f506 913e a179 003e
00000010: 6326 d03d a624 173e 94c8 a43d 85a9 dd3d
00000020: 64c1 b43d 23fb 413e a8a8 743e 3f81 ac3d
00000030: 108e e93d beb6 f23d 9b43 ba3d bf2e 053e
00000040: 542e e53d d13a cc3d b6e2 f83d 4b35 9b3e
00000050: 8431 d63d 5b56 d83d 4af5 fb3d 5f91 af3d
00000060: 2809 1e3e f947 2b3e 8fa6 cf3d d2b6 d03d
00000070: b78a c33d 6d63 d63d 33f0 d13d b163 883a
00000080: 56dd 843d d14d ba3d b42d 2d3e cfb6 dd3d
00000090: a06b b13d b13c 293e 7438 d03d 9936 243e
000000a0: f902 ee3d ef27 ea3d 32c2 e83d 7f75 ca3d
000000b0: bcd5 0e3e 64a9 003e 394d a63e 2072 e23d
000000c0: f764 fd3d 2218 5d3e 1cf6 c13d 8bc1 053e
000000d0: ac73 d53d 33ce 303e
0.13145489 0.10650726 0.2832562 0.12546398 0.10163572 0.14760074 0.0804607 0.10823349
0.08825949 0.18943457 0.23892462 0.08423089 0.114040494 0.118512616 0.09094926 0.13006113
0.11190477 0.09972156 0.12152617 0.30314097 0.10458663 0.10563346 0.123026446 0.08572649
0.1543318 0.16726674 0.101391904 0.1019112 0.09547942 0.10468183 0.102508925 0.0010405687
0.06487529 0.090968736 0.16911966 0.108258836 0.08663106 0.16527058 0.101670176 0.16036452
0.11621661 0.11433398 0.11365165 0.09885692 0.1394872 0.12564617 0.3248079 0.11056924
0.12372773 0.21591237 0.0947077 0.13062112 0.10422453 0.17266159

motion_mlp.mlps.1.norm0.beta f4 [1, 54, 1]
00000000: 2095 a2bc a9c9 f43c 6a3c c93b 83cc 05bc
00000010: edf2 933b b327 a3bb c6d9 aeba 21be 13ba
00000020: 29f3 673b 41e3 27bd 53fa 693d a456 3abb
00000030: 26d7 083c 5394 19bc 6780 be3b 73dd 093d
00000040: 4972 523c cc60 c63a e18f 15bd b557 413b
00000050: 1721 d4bb 723f e7bb 13ba a0bb bf6e 2d3b
00000060: 799f 203c 35e0 2d3b d15b 66ba 8d37 303b
00000070: 4801 96bb 5258 0d3c 6c48 4ebb 94f9 70bb
00000080: d240 fbbc 2295 b0bb ce94 c7bc 3557 fcbb
00000090: 5160 2b3b e696 7e3d 5333 833b 3a27 f73c
000000a0: baa5 55bb 0a03 6fbb 428d d0ba 7012 e73b
000000b0: 1fe8 cdbb 2b04 073c d602 07bc 0240 b6bc
000000c0: 7b85 28bc 28c1 5e3c 6ed0 2b3b bb37 84bb
000000d0: 3020 8038 871c 99bc
-0.019846499 0.029881315 0.006141235 -0.008166435 0.004515043 -0.0049790978 -0.0013340048 -0.00056359364
0.0035392737 -0.04098821 0.057123493 -0.002843299 0.008352077 -0.009373742 0.0058136466 0.033658456
0.0128446305 0.0015135049 -0.036514167 0.002950174 -0.006473671 -0.007057124 -0.0049049943 0.0026463715
0.009803646 0.0026531343 -0.00087874854 0.002688858 -0.0045777895 0.008627014 -0.0031476272 -0.0036769854
-0.030670557 -0.0053888718 -0.024362948 -0.0077008256 0.0026149938 0.062155627 0.004003921 0.030170072
-0.0032600001 -0.0036470317 -0.0015911239 0.0070517585 -0.0062837745 0.00824074 -0.008240422 -0.022247318
-0.0102857305 0.013595857 0.0026216763 -0.004034964 6.109511e-05 -0.01869036

motion_mlp.mlps.2.fc0.fc.weight f4 [50, 50]
00000000: 6e24 70bc f950 6dbc d9c2 003c 157f e7bc
00000010: 96ef a23b cc8d ec3b 59a6 09bc 4132 a6bc
00000020: 2632 1c3c c14c 97bc 1e55 24bc 51ae 4a3b
00000030: e3ab 83bc a4b0 173c 7ced ab38 a57c 70bd
00000040: 774c 1dbb 8545 f7bc 3246 27bc ff86 5d3d
00000050: 0583 adbc 356c 77bc 0abd d6bc ef58 c5bc
00000060: b88d 0b3d f0c1 21bc fa1e 39bc 21c4 963c
00000070: aee6 eebc 9c19 34bc c0a9 edba 69e9 68bc
00000080: 569d b7bc efa4 e0bb 8c44 1dbd 52bb a2bc
00000090: 21f9 5abd 933c f1bc 7676 84bc da82 ddbc
000000a0: 2511 833b 27d0 dfbb c013 783c ae21 2fbc
000000b0: d4b5 6cbc d360 b0bb abc0 f33b 6d48 16bd
000000c0: f526 cb3c 0b79 64bc 62ca feba 7892 06bc
000000d0: 2110 64bb fa5d 8bbc d096 5bbc e40b aebb
000000e0: dba0 debc 387a a9bc c97f cdbb 863e acbc
000000f0: 93cc 5cbc d162 a6ba 51f2 39bd 522f ba3c
00000100: 3eea 00bd 68fa 40bd c655 1bbc 7697 d0bb
00000110: 27ee eeba 75bf 9d3c 7e7f bbbc fdfd 823b
00000120: 16ae 7dbc b57b b33c 3115 b1bb 3050 1cbc
00000130: 54dc c4bc ec6d 543c de1a d4bc 2ed1 87bc
00000140: 94c9 34bb b578 143c a20c 6dbc bfc8 17bc
00000150: d249 85bc e302 17bc 31a8 00bd 48dd 863c
00000160: 2e67 4cbc c1c3 1ebc eab9 3bbc 44fb 8e3c
00000170: ffbe bbbb 640d bfbb b0ec 06bc a574 83bc
00000180: 8deb 4abc 35b6 90bc a5e7 8f3c 83fe 55bc
00000190: 5cf5 8b3a 2a4a 35bc 3bd4 a43c 296a 08bc
000001a0: e55b 2fbc 536b 143d e45a 48bd 5233 5a3c
000001b0: 4c46 b3bb fd51 943c 5e99 abbc 7054 1b37
000001c0: 8f35 3b3b 6f82 9e3c 9b3a 17bb b67c 67bc
000001d0: 8602 1d3b dec2 71ba bb12 603c 5643 343c
000001e0: 4a7d 87bd d5ab 0fbc b2b6 1abd eda4 93b9
000001f0: 3c67 39bc 7ea7 2fbc a830 d4ba 4d22 ef3b
00000200: 1b80 bbbb 492f 933c 1620 2bbc ea2c 6bbc
00000210: 9eff a33c 1c22 d0bb 6635 ee3c 5153 49bd
00000220: a1db a9bc 6d5d f73b 103c 97bd 25bf c83d
00000230: 9bd1 66bc 4130 b63b 7da0 7e3c 1957 aa3c
00000240: d796 5bbb 24ab 1b3d bb41 e93b 057f fc3b
00000250: fad8 1b3c 45dd ac3c c231 843c 125b 7b3c
00000260: c913 f23b 692b 37bd 8e0f 7ebc 041c 48bc
00000270: 1467 983c 534a 673b b8a2 4e3c ddc1 943c
00000280: f3ea c33c 0986 57ba 54d7 babc b30e b1bc
00000290: c68f ee3c 86e8 5e3c 7f9b 4e3c bc54 443a
000002a0: add3 a23c 3310 cb3c 424f 93bb b085 85bb
000002b0: cfa1 35bc 72f8 653d eb21 75bc 02ff 9b3c
000002c0: e76a 0b3d 1695 abbb 2f5b bf3c 0a11 d63c
000002d0: 0bc1 183d f44d 88bb 5f52 183d ab92 1abc
000002e0: 9691 953c 48a9 d9bb 5609 0a3d 07c2 98bc
000002f0: 58fd bb3c a054 e63b b644 d0bb 344e a939
00000300: b7ca 7ebc c780 ec3b 1697 fdba f2ff a3bc
00000310: b5f4 e43c 6a7b 4a3c 46c4 963b a3f4 fd3c
00000320: f1e8 733c 08f5 083d f631 2bbb 44b1 b93c
00000330: 6bb6 4fbd d9aa 2dbd a95c 30bc 5a77 e1ba
00000340: caa0 803c daf8 bfbc c175 c1bb e9d0 3bbc
00000350: 3666 103d e4e3 ae3b 51ee 7cba d32c 813c
00000360: 28fa af3c 86a0 07bd 9d43 7dbc bb01 e33c
00000370: b348 98bc ee79 ba3b 9de2 43bd c234 c3bb
00000380: 99a2 843b aedb 9e3b 1b2d 663c cac8 ce3c
00000390: 07cb 943c d168 4abc c6a0 ecbb b0bd 223d
000003a0: 38ed b63c e9d1 203c 20ad 243c c43c 33bd
000003b0: 3792 75bc 3297 8bbc d24d 473c 5d1d 303c
000003c0: 6921 d8bb 281a 24bd 34b6 94bb 445d 8c3c
000003d0: bd12 263c d28e 173c 26ab 7abc 5312 ccbc
000003e0: 74c7 eb3b d0bd 83bb 2c07 8cbc 2740 98bc
000003f0: bee2 31bb 43bf ad3c 5cbc c13b f313 0fbd
-0.014657123 -0.014484637 0.007858955 -0.02825884 0.0049724085 0.007219052 -0.008401477 -0.020287635
0.009533441 -0.018469216 -0.010030059 0.0030926655 -0.016073173 0.009258423 8.19815e-05 -0.05871262
-0.0024001875 -0.030184517 -0.010209607 0.05408382 -0.021180639 -0.015101482 -0.026213188 -0.024090258
0.0340707 -0.009872898 -0.011298889 0.018404068 -0.029162731 -0.010992434 -0.0018132254 -0.014215806
-0.02241389 -0.006855599 -0.03839545 -0.019864712 -0.053460244 -0.02944783 -0.016169768 -0.027039934
0.0039998465 -0.0068302336 0.0151414275 -0.010689182 -0.014447648 -0.005382636 0.0074387393 -0.036690164
0.02479885 -0.0139448745 -0.0019438977 -0.008213632 -0.0034799653 -0.017012585 -0.013402656 -0.005311476
-0.027176311 -0.020688161 -0.0062713367 -0.021025907 -0.013476509 -0.0012694245 -0.045397107 0.022727642
-0.03147339 -0.047113806 -0.009480899 -0.006365712 -0.0018228934 0.019256333 -0.022887941 0.003997563
-0.0154834 0.021909574 -0.0054041375 -0.009540603 -0.024030842 0.012965661 -0.025891718 -0.016579237
-0.002758597 0.009061982 -0.014468344 -0.00926417 -0.016270552 -0.009216997 -0.0314104 0.016462937
-0.012475772 -0.009690226 -0.0114579 0.017453797 -0.0057295556 -0.0058304537 -0.008235142 -0.016046831
-0.012385261 -0.017665008 0.017566511 -0.013061169 0.0010677981 -0.011065045 0.02012073 -0.008326092
-0.010703062 0.036235165 -0.048914805 0.0133179 -0.0054710265 0.018105501 -0.020947155 9.25838e-06
0.002856586 0.019349305 -0.0023075703 -0.0141288545 0.0023957803 -0.0009222458 0.013676341 0.011002382
-0.06615694 -0.008768995 -0.037771888 -0.00028160904 -0.011316117 -0.010721086 -0.0016188817 0.00729779
-0.0057220585 0.017966883 -0.010444662 -0.01435397 0.020019349 -0.0063517224 0.029078197 -0.049151722
-0.02073461 0.007548979 -0.07384503 0.09802083 -0.01408806 0.0055599515 0.015541193 0.020793485
-0.0033506656 0.03800501 0.0071184314 0.0077055716 0.00951218 0.021101603 0.016137008 0.015341537
0.0073876125 -0.044719134 -0.015506638 -0.012213711 0.018603839 0.0035292103 0.012612037 0.018158847
0.023915743 -0.0008221572 -0.022807755 -0.021613454 0.02912129 0.013605243 0.012610315 0.0007489433
0.019876326 0.024787998 -0.0044955323 -0.0040747747 -0.011085941 0.05614514 -0.0149617 0.019042496
0.034037497 -0.0052362783 0.02335891 0.026131172 0.037293475 -0.0041596834 0.03718793 -0.009434382
0.018257897 -0.0066424944 0.03370031 -0.018647207 0.022947952 0.007029131 -0.006355847 0.00032292458
-0.015551261 0.0072175 -0.0019347395 -0.020019505 0.027948717 0.012358526 0.0046010343 0.031000441
0.0148870805 0.033436805 -0.0026122308 0.022667535 -0.050711077 -0.04239926 -0.010764279 -0.0017201707
0.01570167 -0.023434091 -0.00590393 -0.011463382 0.035253726 0.0053372253 -0.0009648549 0.015768444
0.021481588 -0.03311207 -0.015458015 0.027710786 -0.018589353 0.0056908047 -0.047823537 -0.005957217
0.0040477035 0.004847965 0.01404884 0.025242228 0.018163217 -0.012354092 -0.007221314 0.03973168
0.022329912 0.0098156715 0.010051042 -0.043759122 -0.014988474 -0.017039869 0.01216455 0.010749188
-0.0065957797 -0.040064007 -0.004538322 0.017134316 0.0101363035 0.00925036 -0.015299594 -0.024911081
0.0071954075 -0.00402043 -0.017093264 -0.018585278 -0.0027143206 0.021209365 0.0059123468 -0.034931134

motion_mlp.mlps.2.fc0.fc.bias f4 [50]
00000000: 0918 94b3 e95d 8535 4c50 09b7 f970 a9b5
00000010: a1e9 12b6 78f0 88b5 e011 36b6 6414 dcb5
00000020: 6016 9036 90ea b135 02c6 1036 e33f eb34
00000030: d1dd 68b5 639d 5c35 dea5 8ab5 5ad4 79b5
00000040: f5ca d835 23e2 d4b5 c49b c135 cab4 90b5
00000050: 3bcf 3736 5e63 8fb3 cfbd 73b6 007d 6db5
00000060: 91a3 8635 4106 3e35 6885 0335 e896 4836
00000070: 3154 cfb3 8152 7035 b2e4 5736 b943 0b36
00000080: 02b6 cbb4 9d45 61b5 a032 eb35 d3c5 62b5
00000090: 072e f8b5 d7d6 b2b6 f7ec d3b6 6253 2835
000000a0: 9aa4 1ab6 fcc8 2834 54b6 f435 9041 c6b5
000000b0: fabe 2736 0d11 a234 dae2 61b5 0579 0c36
000000c0: ae68 a434 aa65 f5b5
-6.896159e-08 9.936604e-07 -8.184532e-06 -1.2624361e-06 -2.1891685e-06 -1.0202775e-06 -2.7130518e-06 -1.6397212e-06
4.294139e-06 1.3255794e-06 2.1572928e-06 4.3818645e-07 -8.674952e-07 8.2185414e-07 -1.0330075e-06 -9.306874e-07
1.6152322e-06 -1.5861045e-06 1.4424954e-06 -1.0781453e-06 2.738975e-06 -6.677031e-08 -3.6320305e-06 -8.847128e-07
1.0031382e-06 7.0789616e-07 4.8995435e-07 2.9890161e-06 -9.654503e-08 8.9527026e-07 3.2170615e-06 2.0752034e-06
-3.7944125e-07 -8.392033e-07 1.7523598e-06 -8.4479433e-07 -1.8490836e-06 -5.329824e-06 -6.3158764e-06 6.2706215e-07
-2.30436e-06 1.5719337e-07 1.8232481e-06 -1.4771231e-06 2.4996102e-06 3.0187257e-07 -8.4149144e-07 2.0932068e-06
3.0623545e-07 -1.8283511e-06

motion_mlp.mlps.2.norm0.alpha f4 [1, 54, 1]
00000000: 079a d93d 3c42 aa3d 95ed f23d ffdb 9c3d
00000010: d7e3 d53c 8f50 973d 1add f93c 2483 3b3d
00000020: 594e 323d 4a9f db3d 42ea 003e 0120 0b3d
00000030: 6722 253d 54a8 683d 37c7 2d3d cbcf 873d
00000040: acb8 923d c7e8 053d 67ae a93d 239d 3a3e
00000050: b3f0 2c3d 31f7 313d 6028 283d 75de ea3c
00000060: ffcc c23d 195f dd3d 1760 1e3d fcdf 323d
00000070: 749c 1f3d 3788 213d af37 253d c75d febb
00000080: d2bc 303d 8566 a43d 94a2 a43d 7331 3c3d
00000090: dbbb 403d 262e d03d 10c4 243d ecb3 f53d
000000a0: 5a87 533d 7829 863d c0bc 803d 3769 233d
000000b0: ba51 893d 7687 4e3d a87a 393e ea4a 733d
000000c0: aec4 a93d 3c2e 1a3e aed9 233d 8481 df3d
000000d0: 67dd 0e3d 077d 983d
0.106250815 0.083134145 0.118617214 0.076591484 0.026109619 0.07388412 0.030500937 0.045779362
0.04353175 0.10723741 0.12589362 0.03396607 0.04031601 0.056801155 0.042426314 0.0663143
0.071641296 0.032692697 0.08285218 0.18224005 0.042221736 0.04344863 0.04105413 0.028670529
0.09511756 0.10809154 0.038665857 0.04367064 0.038967565 0.039436545 0.040336307 -0.007762644
0.043148823 0.080273665 0.08038822 0.045945596 0.047054153 0.10165052 0.040226042 0.11997208
0.051642753 0.06550878 0.06286001 0.039895263 0.06705041 0.050422154 0.18113196 0.059397615
0.08289467 0.150567 0.040002517 0.10913375 0.034879114 0.07445722

motion_mlp.mlps.2.norm0.beta f4 [1, 54, 1]
00000000: 2e50 04bd 6763 8cbc b15e 5e3d ce82 26bc
00000010: 6116 1b3c 98d2 0e3b f39b f73a 95e4 48ba
00000020: 6345 b2bb 3b05 9ebc 1342 413d 1b29 143b
00000030: 9a8d f4ba 65bb 1d3c cc24 63bb fca2 a6ba
00000040: 4d83 68ba cf21 abba f36f 0c3c 5a02 b5bc
00000050: 281c b53b 30ac ea3b c523 6b3b a9a5 f8bb
00000060: 11ed 6fbc 4890 1ebc 67d0 15ba fbec 7fbb
00000070: a290 60bc 21d6 57bb 69ad 783b d352 f0bb
00000080: ff5b 963c 4dee 43bb fcfb 2dbd a62e a8bb
00000090: 4ea3 3d3c b018 a43d e95a e6bb 5afe 8dbc
000000a0: 006b cb3b b8d7 943b d5e4 f93b 8fc9 04bb
000000b0: a4f1 693c 3394 e0bb ed86 403b 7b2a aa3c
000000c0: d1fc ca38 de06 d0bc e0d6 adbb 250e 46bc
000000d0: 65b0 643a 1e1f 743a
-0.032303028 -0.017137242 0.054289524 -0.010163022 0.009465785 0.0021793004 0.0018891081 -0.0007663456
-0.0054404004 -0.019289603 0.047182154 0.0022607509 -0.0018657923 0.009627198 -0.0034659384 -0.0012713368
-0.0008869663 -0.001305634 0.008571613 -0.022095848 0.005527038 0.0071616396 0.0035879475 -0.0075881076
-0.014643923 -0.009677954 -0.00057149533 -0.0039051163 -0.013706358 -0.0032934027 0.0037945157 -0.007334092
0.018354414 -0.0029896677 -0.04247664 -0.005132514 0.011574579 0.08012521 -0.0070298803 -0.017333198
0.0062078238 0.0045423172 0.007626156 -0.002026174 0.014278803 -0.006853604 0.0029377297 0.02077221
9.679201e-05 -0.0253939 -0.005305156 -0.012088333 0.00087237946 0.0009312498

motion_mlp.mlps.3.fc0.fc.weight f4 [50, 50]
00000000: 78be a8bb 5bd3 8cbc 553a 3f3d cd97 95bc
00000010: f4e2 623b 2e01 063c 114a 103d 5ebc 313c
00000020: 1b9e d43c a0f5 05bc 73c5 5939 23a9 74bc
00000030: db39 da3b 7c1e 803c b603 45bb bcc5 213d
00000040: 2eef 523c 7de3 bd39 22c5 0bbb 226a 1dbc
00000050: c8df f9bc 564f 36bc 4467 a2bc 3b72 49ba
00000060: f35a 2c3d 2eb5 813c 7822 e23b 486c c5bb
00000070: 0d8f 81bb 09a4 0f3c ba51 48bb c64d 9cbb
00000080: d8b4 e9bb 9681 e839 c0c4 d33c ad9b 8ebd
00000090: 1174 97bc 6873 213c 1283 18bd f8d0 453d
000000a0: f96a 8f3c 97ef b33c 8e7a 54bb 9d7d e83c
000000b0: 9f4a eebc 0a53 d7bb ca05 a9bc ad64 e93b
000000c0: af4f a8bc 0949 803a 9309 c3bb 12a4 37bd
000000d0: e6fb a13a 8d60 b0bc 8d3f b23c 1380 d6bb
000000e0: 4fdb 6f3c cb71 e0bc 6ab4 c53b 4d50 a6bc
000000f0: f1d0 ec3a 40de 2e3d 4807 6f3b 8235 073c
00000100: 91f1 83bc 4e8e 5d3c 2e25 193c c8aa a23c
00000110: 2671 33bc 91d2 0c3d ce46 6e3c 1376 fbbc
00000120: bf0d 46bc 9249 933c 0618 21bd f85a a13a
00000130: 0e13 b9bc edb0 79bb ea68 90bc 1cd1 813c
00000140: 8f28 13bd dd64 c4bc 5376 6a3c 4bb8 dabc
00000150: d8fb dabc 1a9a 52bc 3dbf c4bc d039 bdbc
00000160: 11f7 82bb c45d cdbc bb02 8dbc 283e c2bc
00000170: d87f 7b3c d534 b83b ebc7 37bb 7556 13bc
00000180: bf17 fc3b 3bf9 d0bc f8c7 f23c ba2d 6abb
00000190: 5db1 00bc c60f aa3a 15bd 99bd e2c9 173c
000001a0: a16e fbbb ff9f 2dba 8f38 c13c 7d9e d7bc
000001b0: e0db 21bb 8134 a0bc 4ac2 753c 968e c73c
000001c0: eeed 8c3a 5fa1 33bd 4319 0ebc 365c 9fbc
000001d0: 2cc5 00bb 149f 00bd 167b 8c3c 083a aebc
000001e0: 238a abbc e3ac 64bc 58f1 65bc 9b4b 2abd
000001f0: c04e 28bc d621 e8bc 8c49 033d 9182 8b3b
00000200: 9b46 a5bc 6be7 afba c867 113d 48e4 833c
00000210: a8c6 02bd 3eeb 063b 359d e4bb 1714 5fbc
00000220: 9b4e 86bc 1528 a4bc 518a fe3c 724d c3ba
00000230: 5217 6bbc 29e0 a7bb 0c8b b1bc 5a60 06bc
00000240: e26c 9e3a 3e59 bf39 88b6 083b ce01 acbc
00000250: 650d f3ba 6fd3 043c 01a3 a3ba 98f4 cc3c
00000260: 2fae 4ebc c6fb 353b bd2a 0c3d 9e51 d7b9
00000270: 5846 67bd 204b 6a3c ec3b b3bb 0019 133d
00000280: 5e24 923c df4e 8dbc ae86 f73c cb21 a1bc
00000290: e716 84bc 78cd f6bc a1da 743b d44b 273c
000002a0: 4b69 1bbb 2c82 acbc 0279 3dbc 0b60 09bc
000002b0: f680 813c 8326 2dbc c424 8c3c cf96 2e3c
000002c0: a565 57bc f284 90bd 1c22 4c3c 3b58 113d
000002d0: b9ba 73bb b584 e13c 66bd 453b 9f1c 4238
000002e0: fdba 633c 2f23 8a3c 2d4f 5e3c 4a6c 183c
000002f0: 9d44 37bd 6fed a3bb 362a 053c 05c1 88bc
00000300: 504a b9bb 4d64 85bc 661d 45bc ac1a 00bc
00000310: 9099 5b3c 7874 0439 51b8 c5bc 1476 1fbc
00000320: 5d6d b83b fa23 0ebd cbd5 acbc f66b 8bbb
00000330: fe7e 3f3d 8ec7 19bd 0c8e 613d f5ef f13c
00000340: ccd3 52bd f415 b2bc 0607 76bc 53a7 dfbc
00000350: 0570 d6bc 758e a23c ac6a 0dbc 4fa9 1a3c
00000360: 10c8 483d 92a8 8ebc 8a08 2dbb 220f 543c
00000370: 1d50 cd3c 4fe2 6dbc d6ba 50bc f15c a23b
00000380: 832c ad3c 5deb 01bd a0ac 353a 0d17 9e3c
00000390: 18f3 afbb 7e19 cdbc ac43 9ebc a4d3 0a3c
000003a0: abce 51bc 5d05 15bd 0b32 77bb 4797 adba
000003b0: 517b c8bc dd06 ea3b dfae 083c 3d56 c23c
000003c0: be70 0b3c c03c 293d 0cc0 15bc 6606 0bbc
000003d0: 5c3c 37bc 7f67 0c3c 0806 ccbb 0433 093d
000003e0: ef18 543b bd3d 7cbc 5c7b 833c 4be1 09bd
000003f0: 8a36 853b bfb3 36bc 74dd ddbc 3705 abbc
-0.005149659 -0.017190626 0.04668649 -0.01826086 0.0034620138 0.008178992 0.035226885 0.010848133
0.025954297 -0.008176237 0.00020768288 -0.014932903 0.006659729 0.015639536 -0.0030062026 0.039495215
0.012874408 0.0003621838 -0.0021327217 -0.009607824 -0.030502215 -0.011127314 -0.019824632 -0.0007684563
0.042078923 0.015833464 0.0069010817 -0.006024871 -0.0039538206 0.008767136 -0.003056629 -0.0047700135
-0.007132154 0.00044347037 0.025850654 -0.069632865 -0.018487962 0.009854175 -0.037234373 0.04829499
0.017507063 0.021964831 -0.003242168 0.02838021 -0.029088316 -0.0065711783 -0.020632643 0.007122597
-0.020545809 0.0009787391 -0.005952069 -0.044834204 0.0012358397 -0.021530414 0.021758819 -0.0065460294
0.01463969 -0.02739801 0.00603347 -0.020301962 0.001806764 0.042692423 0.0036472846 0.008252503
-0.016106399 0.013522698 0.009347243 0.019856825 -0.01095227 0.0343805 0.014543248 -0.03069595
-0.012088238 0.017979417 -0.03932955 0.0012310436 -0.022592094 -0.003809984 -0.017628152 0.015846781
-0.03592735 -0.023973877 0.014310437 -0.026699206 -0.026731417 -0.0128541235 -0.02401697 -0.023098856
-0.0039967378 -0.025069125 -0.017213216 -0.023711279 0.015350305 0.0056215324 -0.0028042744 -0.008992781
0.0076932604 -0.025509467 0.029636368 -0.0035732822 -0.007854787 0.0012974672 -0.07506768 0.009264441
-0.0076731 -0.00066232675 0.02358654 -0.02632069 -0.0024697706 -0.019556286 0.014999935 0.024359982
0.0010752061 -0.043855067 -0.008673015 -0.01945315 -0.0019648774 -0.03140171 0.017148536 -0.021267906
-0.020939892 -0.013957235 -0.014034592 -0.04157601 -0.010272682 -0.028336447 0.03205256 0.004257508
-0.020175269 -0.0013420408 0.035499364 0.016100064 -0.031927735 0.0020586993 -0.0069767484 -0.01361563
-0.016394904 -0.020038644 0.031071814 -0.00149004 -0.014348822 -0.0051231575 -0.021672748 -0.008201683
0.0012086893 0.0003649685 0.002086075 -0.020996954 -0.0018543421 0.00810705 -0.0012484492 0.025018975
-0.012614771 0.0027768477 0.034220446 -0.00041068805 -0.05646357 0.014300138 -0.0054697897 0.035912514
0.017839607 -0.017249523 0.030215587 -0.019669434 -0.016124202 -0.030127272 0.0037361758 0.01021095
-0.0023713883 -0.021058165 -0.011564495 -0.008384715 0.015808564 -0.010568264 0.017107375 0.010656073
-0.013146793 -0.07056607 0.012459304 0.035484534 -0.0037190153 0.0275291 0.0030172705 4.627986e-05
0.013899562 0.01686248 0.013568682 0.009303162 -0.04474317 -0.0050026695 0.00812774 -0.016693601
-0.0056546107 -0.016283179 -0.012030935 -0.007818859 0.013403311 0.00012631889 -0.02413574 -0.009732742
0.0056282715 -0.03470228 -0.021098038 -0.0042548133 0.04675197 -0.037543826 0.055067107 0.029533366
-0.051471516 -0.021738984 -0.015016323 -0.027301466 -0.026176462 0.01984332 -0.00863139 0.00943978
0.04901892 -0.017414365 -0.0026402795 0.012943061 0.025062615 -0.014519288 -0.012739858 0.004954927
0.021139389 -0.0317186 0.0006930325 0.0192981 -0.005369555 -0.02503657 -0.019319378 0.008473311
-0.012805621 -0.036382068 -0.0037719037 -0.0013243937 -0.024472864 0.0071419314 0.008342474 0.023722762
0.008510767 0.0413177 -0.009140026 -0.008485412 -0.011183824 0.008569597 -0.006226305 0.033495918
0.0032363494 -0.015395579 0.016050033 -0.03366212 0.0040653395 -0.011151253 -0.027083136 -0.02087651

motion_mlp.mlps.3.fc0.fc.bias f4 [50]
00000000: 0202 4cb6 07bb 8436 98e0 13b4 9502 4536
00000010: 5df4 83b5 6987 5834 8bcc bf36 03c2 c2b5
00000020: d324 7fb5 ed59 10b6 bd0d 0436 e895 dc35
00000030: e6e5 57b5 f0b8 29b6 071b 9b34 0209 9a35
00000040: 7375 83b4 3b88 acb4 a986 67b6 9300 1d36
00000050: 2e32 b4b3 13c8 cdb6 7ac4 7935 796b 4d36
00000060: 30c7 38b6 a051 8236 28cd a2b6 e41f c1b6
00000070: 887b 8936 4381 cab1 2927 ab35 2e73 7735
00000080: 9165 77b3 43ba 7536 69fb b1b4 a643 2a36
00000090: e7e6 4236 6492 b435 8593 2236 cd4f 83b5
000000a0: d7ad ceb5 8f81 5136 2ce8 6536 cd48 fd35
000000b0: 9ebe 0fb6 46e0 9ab5 d414 5e34 9df0 2936
000000c0: fcdd 8935 3b00 f735
-3.0399538e-06 3.9556794e-06 -1.3772149e-07 2.935679e-06 -9.83138e-07 2.016583e-07 5.7160555e-06 -1.4510591e-06
-9.504849e-07 -2.1510016e-06 1.967753e-06 1.6434906e-06 -8.042829e-07 -2.529061e-06 2.8890665e-07 1.1476516e-06
-2.4486107e-07 -3.2136617e-07 -3.4500065e-06 2.3395157e-06 -8.391031e-08 -6.132768e-06 9.304564e-07 3.0609938e-06
-2.753408e-06 3.8838043e-06 -4.8518596e-06 -5.755561e-06 4.097299e-06 -5.893669e-09 1.275189e-06 9.218228e-07
-5.7601543e-08 3.6616264e-06 -3.3151744e-07 2.537135e-06 2.9042656e-06 1.345365e-06 2.4225749e-06 -9.783486e-07
-1.539879e-06 3.121884e-06 3.42588e-06 1.8871157e-06 -2.1419614e-06 -1.1539166e-06 2.0682938e-07 2.5323018e-06
1.0271901e-06 1.8403001e-06

motion_mlp.mlps.3.norm0.alpha f4 [1, 54, 1]
00000000: 32cd cc3d 60b5 e43d c8f2 1c3e 7649 8a3d
00000010: b2b5 473d f76b 8a3d 1402 173d ac16 543d
00000020: 73c1 7f3d 2860 ce3d be05 313e 3f2b 4a3d
00000030: 071c 9f3d 048a 9f3d d2b1 9e3d b888 9b3d
00000040: 5674 943d a195 643d 35a3 9a3d f869 c73c
00000050: a6b2 a23d ba08 883d 09ad 6b3d a22d 7e3d
00000060: bfa9 d83d 4013 0c3e e142 823d d491 8a3d
00000070: 2ac7 df3c f4e8 953d 9f2f 4f3d 8584 093b
00000080: e9eb a53d baf2 ce3c 403e 163e aeb4 883d
00000090: 57e3 173d 1a3a 023e e939 a23d 7e97 d93d
000000a0: b822 b93d 7d67 a13d dddd 883d c025 963d
000000b0: 6a95 463d 66be 7d3c 1346 dc3c ce3e 783d
000000c0: 55fd a83d d393 373e c771 643d 19eb 013e
000000d0: 823c 9a3d 78b9 2f3d
0.100000754 0.11167407 0.15326989 0.06752293 0.048757263 0.06758874 0.036867216 0.051779434
0.062440347 0.10076934 0.17287347 0.04935765 0.07769018 0.07789996 0.0774876 0.075944364
0.07248752 0.05580676 0.075506605 0.024342522 0.07944231 0.066422895 0.057538066 0.062055238
0.105792515 0.13679218 0.063604124 0.06766096 0.027316649 0.07319823 0.050582524 0.0020983529
0.08101637 0.025262225 0.14672184 0.06675087 0.037082043 0.12717476 0.07921202 0.10624598
0.09039825 0.07881067 0.06682942 0.07331419 0.048482336 0.015487289 0.026888883 0.06060677
0.08251444 0.17927484 0.05577257 0.12687339 0.07531072 0.042901486

motion_mlp.mlps.3.norm0.beta f4 [1, 54, 1]
00000000: 03df b63c b332 6f3b e969 2d3d e6a6 7dba
00000010: 8512 85bc 7565 f139 afdc 0d3b 95d0 b3bb
00000020: 9b83 eaba 9e04 eabb aac8 7bbb 2c6b 13bc
00000030: f7c4 ebbb f786 fdbb c6db cdba 4e80 3d3c
00000040: 8046 b3bc ca0d d2bb cfc7 f53b 8266 b53b
00000050: 42b8 34ba 44ad c8bb e8df 73bb 4d97 0eba
00000060: 64ea 0fbd 0a38 a8bc 9b8d edba c7f7 173b
00000070: 8a87 2e3c 3d16 fdbb 80a6 9eba 9d26 b33b
00000080: a584 a13c a791 1b3c 4448 263d d069 dd3b
00000090: 7057 633b c4ed 3d3d 1b80 023b 5bbd 8e3c
000000a0: 09f1 9cbb a4ed 2dbb 7f1d 48bc 0404 31bb
000000b0: c107 84bc ecd1 bebb f4ee a53b 042d b4bb
000000c0: 9d7b 57bb dafe 08bd 9d5a 1cbb ed77 a13c
000000d0: 712f f23a ebe1 963a
0.022323137 0.0036498725 0.042337332 -0.0009676054 -0.016244182 0.00046042693 0.002164643 -0.0054875114
-0.0017892005 -0.0071416637 -0.0038419166 -0.00899772 -0.007195111 -0.0077370363 -0.0015705756 0.011566235
-0.021884203 -0.006410335 0.0075006257 0.0055359015 -0.00068939116 -0.0061241705 -0.0037212316 -0.00054394157
-0.03513564 -0.020534534 -0.0018123867 0.0023188458 0.010652432 -0.0077235983 -0.0012104064 0.0054672495
0.01971657 0.009495175 0.04059626 0.0067569986 0.0034689568 0.04636933 0.0019912783 0.017424276
-0.004789476 -0.002653935 -0.012214064 -0.002701045 -0.016116979 -0.0058233645 0.005063886 -0.0054985303
-0.0032880076 -0.03344617 -0.002385772 0.019710505 0.0018477273 0.0011511421

motion_mlp.mlps.4.fc0.fc.weight f4 [50, 50]
00000000: 6f48 c6bb c069 a43c 0aa7 31bc a89b 053d
00000010: cc2b 9a3b 6d22 643b f0b9 e5bd 9bf3 eabc
00000020: 99a5 6a3d 70bb 0bbc cb57 d1bb 39e9 24bc
00000030: 6973 313c e430 f73b a7a9 60bc 69f9 bdbc
00000040: f0fe ee3b 487a 213c 6137 f63a b611 e1bc
00000050: cfcb c1bc cd74 c13c 104a e73c ae73 8c3b
00000060: d0e9 07bd 8c9a c13b ca2b 753c 0005 ef3c
00000070: 684e a8bb 5e1c 303d 8350 12bb c1e6 c3bc
00000080: 0853 40bc fedd 403c 335e 6ebc 1609 d7bb
00000090: 99d1 673c c657 1a3d eab6 dfbc f66c 6bbc
000000a0: 7bd7 c03c 752c 77bc c731 453b 899c 19bb
000000b0: 0690 393c ae66 463c d948 d1bb abcb 203c
000000c0: 36ff 813c 7535 95bd fdf5 a03c 53fb efbc
000000d0: 712a e4ba 489e fcbc d7b2 2abc e703 0cbd
000000e0: de84 38bc 7e7d 3ebb 9df3 d63c 3183 b6bc
000000f0: 2e74 f83c 8f41 fc3b ba58 a8bc 2372 58ba
00000100: 22ba 9c3b 7cfe 013d 93fa 4bbc dd7b b5bc
00000110: b216 3f3c df99 80bc 1c58 963c 9299 a3bc
00000120: c745 4a3c 3326 903b 229d 00bc 2668 783c
00000130: 1606 51bc 2364 11bd 9050 71bc cc74 27bd
00000140: dce6 c6bb 83dc e1bc 2118 3e3b 6ab1 66bd
00000150: 9f0e 1d3d 43d3 b63b 60d8 75bd 9b4f 963c
00000160: 7f1a 593c 5533 46bc 2cda 0d3d da61 c93c
00000170: e501 6fbb 1274 adba 6a20 da3c 0d59 38bc
00000180: 603e ec3b d331 92bb 7cd1 98bc 9ae6 393c
00000190: dad2 0dbc 0076 ffba 027c 1d3c dce3 04bd
000001a0: 713f 50bb 927d 54bc e694 203d 8c77 223c
000001b0: b582 b33c ed38 16bb 8b34 783c c27f 903c
000001c0: dfc5 ce3c 2a7a 083d 8f96 2fba 62b6 d83b
000001d0: 1e6c 18bc 9405 4ebc ee53 ec3c 9a07 053a
000001e0: 8f5f 0e3d 85c7 2ebb e5f9 4d3c a42a 04bd
000001f0: 4058 aa3c 6f45 b63b 30b1 b63c fe53 cfbc
00000200: 275f 383d ff4a 9a3c 539d 6e3b 66b5 8fbb
00000210: 9f96 aa3c 3fbb 3ebb 49b8 04bc 57b9 9e3b
00000220: 82e3 83bb 27cd d1ba 26f5 1b3d 0f7c 563d
00000230: c975 2b3b a915 8fbc fffc e23b d94b 163b
00000240: 3b2b ccbc 1591 653a d02c 063d 2c24 223c
00000250: 0437 88bc 8faa 233c 5ba8 34bb 600d 063c
00000260: 1b2a 263c 7797 ddbc a7aa 42bd e7c0 b1bc
00000270: 36d5 d4bc 9136 28bd 1b19 303d 2592 dc3c
00000280: 1469 ae38 55e1 053d 0c3e e73a b6a7 5cbc
00000290: cc11 123c f5b5 98bc cc84 03bd ec68 e13c
000002a0: d19f 203c 8b70 b0bc 8973 24bb 92ed c93b
000002b0: e62a f2ba b6ed c93c f1ab a2bb 1c13 1e3c
000002c0: aa10 133d 5f94 213d 5776 bbbc 9fab 1c3c
000002d0: e10e 65bc 49ba 33bd 9c0d 26bc abbf 2d3d
000002e0: 73be 913c a924 a43c fb91 ac3c 0f70 ed3c
000002f0: 9349 3dbc 696d 4abc 1295 56bc 933a d33a
00000300: 742e 883b 2351 8dba cdd3 edbb cd11 3fbb
00000310: 2b06 453d 5ad9 ec3c 1c05 c3bb 2c81 e2ba
00000320: a9cd 05bd 1c03 4d3c 15ce 5b3b 4148 ee3c
00000330: 2e50 a9ba 2dbb 83bb 177b 223d 8be2 2c3c
00000340: 2bf5 20bc b1a5 a5bc 7bc2 733c 3426 d0bc
00000350: fc49 21bd 589f 553c bec9 df3b 2e6d 3abc
00000360: df02 09bd c68a 71bc 66f6 b53b cf05 81bc
00000370: 71c5 cd3b dd75 a8bb 1863 a2bc 25ed a03c
00000380: 662d 693b 4b03 6c3d 4f96 aabb d5af e3bc
00000390: 517b 34bd a667 74bc deea c4bc f1f4 8ebc
000003a0: 7e52 b33c 1801 943c 4bf3 26bb b7a1 bf3c
000003b0: e637 71bc 0d99 8c3c 3e3a 203b d526 933b
000003c0: 5bb3 7dbc 7c57 b0bb 7d69 46bd d99a 00bc
000003d0: deef 77bc 888e 27bd 5dbe 6ebc 61aa 82bb
000003e0: e46b 53bc 3a81 33bd be60 ef3c 3f0f bebc
000003f0: e5b4 a23b 60db b73c ad9c 91bb 5f3a 72bd
-0.006051115 0.020069957 -0.010843048 0.03261915 0.004704928 0.0034810558 -0.112171054 -0.028680613
0.057286832 -0.008528575 -0.0063886396 -0.01006537 0.010830739 0.00754367 -0.013712323 -0.023190217
0.0072935745 0.009855814 0.0018784815 -0.027474266 -0.023656754 0.023615265 0.028233558 0.004286251
-0.033181965 0.005908316 0.014964053 0.029177189 -0.0051363 0.042995803 -0.002232582 -0.023913743
-0.011738546 0.011771677 -0.014548826 -0.0065623624 0.014149093 0.037681364 -0.0273089 -0.01436924
0.02354025 -0.015086283 0.0030089484 -0.002343925 0.011325842 0.012109442 -0.006386858 0.009814183
0.015868764 -0.07285587 0.019648546 -0.029294645 -0.0017407668 -0.030837193 -0.010418615 -0.03418341
-0.011262147 -0.0029066498 0.02623921 -0.022279354 0.030328836 0.007698245 -0.02055012 -0.0008256754
0.004782931 0.031736836 -0.012449878 -0.02215379 0.011663126 -0.015698371 0.01835256 -0.019970689
0.012345738 0.004399085 -0.007849963 0.01516155 -0.012757799 -0.03549589 -0.01472868 -0.04088287
-0.006070001 -0.027570968 0.0029006081 -0.05632154 0.038344022 0.0055793836 -0.060020804 0.018348506
0.013250946 -0.012097199 0.034631893 0.024582792 -0.0036469635 -0.0013233444 0.026626784 -0.0112517
0.007209584 -0.004461506 -0.018654577 0.011346484 -0.008656228 -0.0019490123 0.009612085 -0.032443866
-0.0031776095 -0.012969391 0.0392045 0.0099161975 0.021912912 -0.0022922114 0.015149246 0.017639045
0.025240837 0.03331963 -0.0006698155 0.0066135386 -0.009303121 -0.012574572 0.028848615 0.000507468
0.0347591 -0.0026669216 0.0125717865 -0.032267228 0.020794034 0.0055624763 0.022301286 -0.025308605
0.04501262 0.018834589 0.003640969 -0.004385638 0.020823775 -0.0029103307 -0.008100578 0.0048438716
-0.004024924 -0.0016006575 0.03807559 0.052364405 0.0026162735 -0.017466383 0.006927132 0.0022933392
-0.024922958 0.00087572756 0.03275758 0.009896319 -0.016627796 0.009989395 -0.0027566168 0.0081819
0.010141875 -0.027049763 -0.047526028 -0.021698428 -0.025980573 -0.041067664 0.042992692 0.026925156
8.316539e-05 0.032685596 0.0017642393 -0.01346772 0.008915376 -0.018641451 -0.032109067 0.027515851
0.009803728 -0.02153804 -0.0025093278 0.006162354 -0.001847592 0.024649482 -0.0049643447 0.009648111
0.035904564 0.03944814 -0.022883577 0.009562402 -0.013980598 -0.043878827 -0.010135081 0.042419117
0.017791009 0.020037012 0.021065703 0.028984098 -0.011553186 -0.012355187 -0.013097065 0.0016115479
0.0041559283 -0.0010781627 -0.0072579146 -0.0029154897 0.048101585 0.028912235 -0.005951537 -0.0017280928
-0.032666836 0.012512948 0.0033539583 0.029087188 -0.0012917572 -0.004020116 0.03966817 0.010552059
-0.009824078 -0.02022061 0.014877911 -0.025408842 -0.039377198 0.013038479 0.0068294695 -0.0113785695
-0.033450004 -0.014742559 0.0055530546 -0.01574984 0.0062796404 -0.0051410035 -0.019822642 0.01964433
0.0035580038 0.057620328 -0.0052059065 -0.027793804 -0.044062916 -0.01491729 -0.024037775 -0.017450782
0.021889921 0.018066928 -0.0025474604 0.023392541 -0.0147228 0.017162824 0.0024448778 0.004490713
-0.015484656 -0.0053815227 -0.048440445 -0.007849419 -0.015132872 -0.040907413 -0.014571753 -0.003987596
-0.012904141 -0.043824412 0.029220935 -0.02320063 0.004965412 0.022443473 -0.004443726 -0.0591377

motion_mlp.mlps.4.fc0.fc.bias f4 [50]
00000000: bc42 8336 400c 4636 5a89 22b6 3f31 ec35
00000010: 968f 4136 4869 54b5 5e8b fb35 10eb ba35
00000020: e53d 3533 0d7a edb4 64cd 1ab4 7bf4 5e33
00000030: f693 8ab5 beca 85b5 5b76 edb5 7954 c635
00000040: 14d7 55b6 a4cd b435 712d d635 4e29 2035
00000050: 8a35 8e36 07b9 7235 851f b336 432d 80b5
00000060: 1368 cd35 761e 7e36 628b 6136 b7cb 16b3
00000070: b5d5 65b5 7c6d bab5 623f 9fb5 4dfa 31b5
00000080: 994d 3db6 bb72 3736 81fa 8635 c31b 01b6
00000090: 2e7f 1db6 56c5 a535 cf97 cab5 1bbb 5f36
000000a0: f09c 4d35 90f4 6eb6 6a63 22b6 3e77 e8b5
000000b0: 6fc8 c635 3aba 2db6 e50a 17b6 a9a5 cb35
000000c0: 636f 5736 e25d abb5
3.911873e-06 2.951143e-06 -2.421983e-06 1.7597703e-06 2.884282e-06 -7.912936e-07 1.8741518e-06 1.3926492e-06
4.219864e-08 -4.4233494e-07 -1.4417088e-07 5.1910757e-08 -1.0324864e-06 -9.968278e-07 -1.7692322e-06 1.4776734e-06
-3.1864665e-06 1.3470894e-06 1.5957468e-06 5.966475e-07 4.2381625e-06 9.0421275e-07 5.338285e-06 -9.549916e-07
1.530398e-06 3.786668e-06 3.3608744e-06 -3.5109874e-08 -8.562013e-07 -1.3889944e-06 -1.186487e-06 -6.6301874e-07
-2.8208362e-06 2.7335907e-06 1.0056684e-06 -1.9238657e-06 -2.3468851e-06 1.235089e-06 -1.5094355e-06 3.33385e-06
7.6596825e-07 -3.5607118e-06 -2.4197748e-06 -1.7320051e-06 1.4810483e-06 -2.5887407e-06 -2.2507095e-06 1.5172892e-06
3.2102332e-06 -1.2767816e-06
