src/siMLPe/exps/baseline_amass/log/snapshot/model-iter-95000.pth (torch, 604338 bytes, 196 tensors)

motion_mlp.mlps.0.fc0.fc.weight f4 [50, 50]
0	0xbd6ab268	-0.057299048
1	0xbdc5dcdf	-0.096612684
2	0x3cd81ed7	0.026381893
3	0xbd54c557	-0.05194601
4	0x3ccf41c8	0.025299922
5	0xbc86a140	-0.016434312
6	0x3d098d45	0.03358199
7	0xbd44d31b	-0.04805289
8	0x3af08d23	0.0018352609
9	0xbd0646fa	-0.032782532
10	0xba066eb3	-0.000512819
11	0xbd14ec53	-0.03635819
12	0x3b838f06	0.0040148525
13	0xbcccf545	-0.025019297
14	0xbbdf4f7f	-0.0068148966
15	0xbc798955	-0.015230496
16	0xbb664ebe	-0.003514215
17	0xbc7cf33a	-0.015438849
18	0xbc01a792	-0.007913487
19	0xbcbfeead	-0.02342924
20	0xbc6aaeff	-0.014323949
21	0xbc1cca5f	-0.009569733
22	0xbc2748ae	-0.010210199
23	0xbca47518	-0.020075366
24	0xbc03f59a	-0.008054161
25	0xbc7b0b77	-0.015322558
26	0xbc3bdde0	-0.011466473
27	0xbc531c65	-0.012885188
28	0xbc185e08	-0.009299763
29	0xbc147e8f	-0.009063377
30	0xbc1b616a	-0.009483675
31	0xbc03faae	-0.008055372
32	0xbbf00b85	-0.007325592
33	0xbbd03470	-0.0063539073
34	0xbc0a62ed	-0.008446437
35	0xbb992932	-0.0046741003
36	0xbc027477	-0.007962338
37	0xbb4beb44	-0.003111557
38	0xbc14b75f	-0.009076922
39	0xbaf05c65	-0.0018338083
40	0xbbd59a2a	-0.006518622
41	0xbab5a525	-0.0013858421
42	0xbbc81c8f	-0.00610692
43	0xbad0cbe7	-0.0015929908
44	0xbb7d460c	-0.0038646488
45	0xbad02154	-0.0015879073
46	0xbb3e81b3	-0.0029069006
47	0xba3c7ffa	-0.0007190701
48	0xbb12b709	-0.002238693
49	0xbad49122	-0.0016217569
50	0x3a629164	0.0008642881
51	0xbdaedd16	-0.085382625
52	0x3b30c777	0.002697436
53	0xbbb50876	-0.0055246903
54	0xbcc27872	-0.023739073
55	0xbb9522e5	-0.004551279
56	0xbd19a961	-0.037515048
57	0x3ba7737d	0.005110203
58	0xbc985795	-0.01859645
59	0xbcd83d47	-0.026396407
60	0x3aecd9d1	0.0018070285
61	0xbcaead72	-0.02132294
62	0x3b01177c	0.0019697836
63	0xbba15b4f	-0.004924215
64	0xbc39868b	-0.011323581
65	0xbb9a7733	-0.0047139167
66	0xbc10560f	-0.0088095805
67	0xbbb83c21	-0.0056224023
68	0xbbd46b68	-0.0064825304
69	0xbc3fd8c4	-0.011709396
70	0xbb1eca7d	-0.002422958
71	0xbc7072a9	-0.014675775
72	0xbbd5e67a	-0.006527719
73	0xbc44224d	-0.011971069
74	0xbb7399e8	-0.0037170593
75	0xbc3e93b6	-0.011631897
76	0xbbe908ab	-0.007111629
77	0xbc37c619	-0.011216664
78	0xbbf666d8	-0.007519584
79	0xbc1fbb0a	-0.009749183
80	0xbc02da42	-0.007986607
81	0xbbe89a2f	-0.0070984582
82	0xbc383ce7	-0.011244989
83	0xbc086061	-0.00832376
84	0xbc3a6473	-0.011376488
85	0xbc05c92f	-0.008165642
86	0xbc4c2452	-0.012459831
87	0xbbe0f20d	-0.006864792
88	0xbc4ad54d	-0.012379956
89	0xbbe173f5	-0.0068802782
90	0xbc436a94	-0.011927266
91	0xbbee2176	-0.0072671724
92	0xbc4039e9	-0.011732557
93	0xbc057823	-0.008146319
94	0xbc4174bb	-0.011807616
95	0xbc0eec15	-0.0087232785
96	0xbc287a91	-0.010283128
97	0xbc1349cd	-0.008989763
98	0xbc1a547e	-0.009419559
99	0xbc1e8d0f	-0.009677186
100	0xba568330	-0.00081830006
101	0xbd1925d7	-0.037389603
102	0x3c26903a	0.010166222
103	0xbc4bddec	-0.012443047
104	0x3bf400d2	0.007446387
105	0xbcf8cbb4	-0.03037057
106	0x3c819919	0.015820073
107	0x3b8f77cc	0.0043782946
108	0x3cb4fb7f	0.022092579
109	0xbc798f3b	-0.015231903
110	0x3ca2378b	0.019801876
111	0xbc29c272	-0.010361301
112	0x3ce7b105	0.028282652
113	0x3b9b8ccc	0.004747009
114	0x3d004493	0.031315397
115	0x3c7858ee	0.015157921
116	0x3cb843b2	0.022493217
117	0x3c86a4da	0.01643603
118	0x3d0aa10c	0.033844993
119	0x3c141a53	0.009039479
120	0x3d02d07e	0.031937115
121	0x3c24aad7	0.010050497
122	0x3ccf281c	0.02528768
123	0x3c4651cb	0.012104462
124	0x3cdafe67	0.026732637
125	0x3c21b9bf	0.0098709455
126	0x3cc12b62	0.023580257
127	0x3c7e1df5	0.015510072
128	0x3cadf9a6	0.021237206
129	0x3cb4d3f1	0.022073718
130	0x3c9683d3	0.018373406
131	0x3cbc1fa8	0.022964314
132	0x3cabab9f	0.020955859
133	0x3cd2ed5f	0.025747953
134	0x3c7a2664	0.015267942
135	0x3cef240e	0.029191997
136	0x3c893724	0.016749926
137	0x3ceb7f97	0.028747363
138	0x3c89a865	0.01680393
139	0x3cf5ea09	0.030018823
140	0x3c8f34bc	0.0174812
141	0x3cfca79a	0.030841637
142	0x3c989f27	0.018630577
143	0x3cfa67a7	0.030567003
144	0x3caed3fd	0.021341318
145	0x3ce8c4de	0.028414186
146	0x3cbdda73	0.023175454
147	0x3ce5a65d	0.02803343
148	0x3cd1f504	0.025629528
149	0x3ce32046	0.02772535
150	0xbc17ba2b	-0.0092606945
151	0x3d24e1d1	0.040254418
152	0xbcd5a4e5	-0.026079604
153	0x3cb9a384	0.022660978
154	0xbd1422b5	-0.03616591
155	0x3d404a5b	0.04694591
156	0xbcc78a79	-0.024358021
157	0x3d36a18a	0.04458765
158	0xbc664345	-0.014054124
159	0x3d3ebf2b	0.04656903
160	0xbc9ba3ca	-0.018999
161	0x3d4926b8	0.04910919
162	0xbbc01f07	-0.0058630737
163	0x3d11a223	0.035555016
164	0xba92d19b	-0.0011201383
165	0x3ce39879	0.027782666
166	0x3c1c418c	0.009537112
167	0x3cdda37e	0.027055498
168	0x3c2b3763	0.010450217
169	0x3d16cba3	0.036815297
170	0x3c308a60	0.010775179
171	0x3cfd34a5	0.030908892
172	0x3c73df56	0.01488479
173	0x3d0c2486	0.03421452
174	0x3c97c6bb	0.01852738
175	0x3d086a74	0.033304647
176	0x3ca310de	0.019905504
177	0x3ce222cd	0.027604485
178	0x3ca0eb9c	0.019643597
179	0x3cd12339	0.02552949
180	0x3ca56f29	0.020194607
181	0x3cbca73e	0.023028966
182	0x3ca2b2d0	0.019860655
183	0x3c9cac18	0.01912503
184	0x3ca5a6b9	0.020221101
185	0x3c97b5c9	0.0185193
186	0x3c8edddf	0.01743978
187	0x3c91893e	0.017765637
188	0x3c992354	0.018693604
189	0x3c79de6c	0.015250783
190	0x3c945a30	0.018109411
191	0x3c5b82ca	0.013397882
192	0x3c8e200e	0.01734927
193	0x3c59d01a	0.013294244
194	0x3c753585	0.014966373
195	0x3c562989	0.013071426
196	0x3c5700ac	0.013122719
197	0x3c45d5e8	0.012074925
198	0x3c5f829c	0.01364198
199	0x3c4f9508	0.012669809
200	0x3a908f43	0.0011029023
201	0xbcd0a8b0	-0.025471061
202	0x3caf6907	0.021412386
203	0x3c6039fe	0.013685701
204	0xbda3eb13	-0.08003821
205	0xbcc1db69	-0.023664193
206	0xbc760b57	-0.015017352
207	0xbcec4ac0	-0.028844237
208	0xbca6248a	-0.020281095
209	0xbc2d8ade	-0.010592191
210	0xbcca44a0	-0.024690926
211	0xbc8155e7	-0.015788032
212	0xbd046656	-0.032324158
213	0xbcaad948	-0.02085556
214	0xbd02554f	-0.031819638
215	0xbc92b2c2	-0.017907504
216	0xbcef1d14	-0.02918867
217	0xbc54bf7a	-0.012985105
218	0xbc1c7388	-0.009549029
219	0xbc3d8e0d	-0.011569512
220	0xbc866363	-0.016404813
221	0x3b3622f5	0.0027791832
222	0xbbc1c4eb	-0.005913367
223	0x3a930d52	0.001121918
224	0xbc16b353	-0.009198028
225	0x3bb11d26	0.005405086
226	0xbb7e8f76	-0.0038842834
227	0x3c441680	0.011968255
228	0xbabecb44	-0.0014556427
229	0x3c0b19e7	0.008490062
230	0x3a97026d	0.0011521109
231	0x3bd132b4	0.006384218
232	0x3b9ff2f2	0.0048812563
233	0x3c1777d9	0.0092448825
234	0x3bc2dd14	0.0059467647
235	0x3c125ac1	0.00893277
236	0x3c0062fd	0.007836101
237	0x3c13df5b	0.00902542
238	0x3c3848ae	0.011247797
239	0x3c3cf444	0.011532847
240	0x3c162152	0.009163218
241	0x3c376a02	0.011194708
242	0x3c3f242c	0.011666339
243	0x3c4d94c1	0.012547673
244	0x3c57fcbf	0.013182818
245	0x3c462afd	0.01209521
246	0x3c5bc816	0.013414403
247	0x3c613563	0.013745639
248	0x3c48ddf4	0.012259949
249	0x3c6be3e9	0.0143976
250	0x3b3d9dee	0.0028933245
251	0xbc5fdf51	-0.013664083
252	0x3c401441	0.011723579
253	0x3c1be7c4	0.009515706
254	0xbb620953	-0.003449042
255	0xbd75951a	-0.059956647

motion_mlp.mlps.0.fc0.fc.bias f4 [50]
0	0x37b5f831	2.1692455e-05
1	0xb8271749	-3.983759e-05
2	0xb75bb9d8	-1.3096687e-05
3	0xb7841bc6	-1.574856e-05
4	0xb8365b52	-4.347723e-05
5	0x37187118	9.086238e-06
6	0xb7b0ba92	-2.1067714e-05
7	0x37408c68	1.1476783e-05
8	0x3895b85e	7.139215e-05
9	0x36dd7ca8	6.600825e-06
10	0x378c557c	1.6729107e-05
11	0xb451d708	-1.954287e-07
12	0x3686d295	4.018026e-06
13	0xb79eddb5	-1.8938308e-05
14	0xb8205792	-3.822853e-05
15	0x36c98e54	6.006836e-06
16	0x376ac399	1.3993028e-05
17	0x37c253cd	2.3165625e-05
18	0xb782d357	-1.559562e-05
19	0x36c376bd	5.825276e-06
20	0xb9a34cf8	-0.0003114713
21	0x373ac93b	1.1133317e-05
22	0x390ffef7	0.00013732525
23	0xb7975e7e	-1.8044604e-05
24	0xb782b6b3	-1.5582284e-05
25	0xb874b255	-5.8340218e-05
26	0xb8829ef9	-6.228494e-05
27	0x38146d6b	3.5387853e-05
28	0x383b6d7d	4.4686243e-05
29	0x382e58ec	4.1567648e-05
30	0xb706e842	-8.041099e-06
31	0x37a97adc	2.020358e-05
32	0x37f0d013	2.8707122e-05
33	0xb75d577e	-1.3192997e-05
34	0x37b69fb1	2.1770453e-05
35	0x3894896d	7.0827875e-05
36	0xb798f891	-1.823556e-05
37	0x37bc8bb6	2.2476404e-05
38	0x36af3efe	5.2227397e-06
39	0xb727e6cc	-1.0007712e-05
40	0xb73e7c25	-1.1353787e-05
41	0xb8a272f0	-7.746171e-05
42	0x37e29abe	2.7013357e-05
43	0xb6d033b1	-6.2049007e-06
44	0x38318f49	4.2333533e-05
45	0xb74fe26d	-1.239088e-05
46	0xb6e91b74	-6.947137e-06
47	0x369a0781	4.590431e-06
48	0xb7b9fa6a	-2.2170327e-05
49	0x3701fd47	7.74797e-06

motion_mlp.mlps.0.norm0.alpha f4 [1, 54, 1]
0	0x3dce5c65	0.100762166
1	0x3de3a73f	0.11115884
2	0x3dc6c991	0.097064145
3	0x3ddc2801	0.10749818
4	0x3e1bacf2	0.15202692
5	0x3d89b7bc	0.06724498
6	0x3e056135	0.13025363
7	0x3dd880cf	0.10571443
8	0x3e0e3f7b	0.13891403
9	0x3e1b6c00	0.15177917
10	0x3dbefe02	0.09325792
11	0x3e243f6e	0.16039822
12	0x3e2eaa1a	0.17057076
13	0x3e0e209f	0.13879631
14	0x3df460d6	0.119325325
15	0x3e06ee54	0.13176852
16	0x3dee1847	0.11625724
17	0x3de1ba2b	0.11021837
18	0x3e1e9b13	0.15488844
19	0x3e216352	0.15760544
20	0x3e1eba12	0.15500668
21	0x3e256a24	0.1615377
22	0x3e24d1bc	0.16095632
23	0x3e2e5300	0.1702385
24	0x3dd9b54d	0.106302835
25	0x3dd5063d	0.104015805
26	0x3e5441f5	0.20728286
27	0x3e2dc5df	0.16970013
28	0x3e16ad22	0.14714482
29	0x3e197e8f	0.14989685
30	0x3e175158	0.14777124
31	0xb923a9db	-0.00015608167
32	0x3e0920e9	0.1339146
33	0x3db66011	0.08905042
34	0x3de6227b	0.112370454
35	0x3e05a932	0.13052824
36	0x3dcb9523	0.09940555
37	0x3e386cc6	0.18010244
38	0x3de79f2e	0.11309658
39	0x3dd00faf	0.101592414
40	0x3e07bedc	0.13256401
41	0x3ddded72	0.10836305
42	0x3e0c5aa0	0.13706446
43	0x3dee67d9	0.11640901
44	0x3e324bb5	0.17411692
45	0x3e021810	0.12704492
46	0x3e1fc945	0.15604122
47	0x3dd59a0c	0.10429773
48	0x3dd0fc31	0.10204352
49	0x3dd3ab44	0.10335401
50	0x3e3b9257	0.18317543
51	0x3dd77133	0.10519638
52	0x3e52eabe	0.2059736
53	0x3e119484	0.1421681

motion_mlp.mlps.0.norm0.beta f4 [1, 54, 1]
0	0xbae20d11	-0.0017246326
1	0x39f3b953	0.0004648665
2	0x3c43974a	0.011937926
3	0xba0cc4da	-0.00053699093
4	0x3a83501b	0.001001838
5	0xba572581	-0.00082071876
6	0xb724dc80	-9.826501e-06
7	0x39c26332	0.0003707647
8	0xb9d7295e	-0.00041038817
9	0xbab49cf6	-0.0013779688
10	0x3bff0a91	0.007783242
11	0xb9001540	-0.00012214947
12	0xb99e8d8c	-0.0003024157
13	0xb9ef4820	-0.0004563937
14	0xba855500	-0.0010172427
15	0x3a90825c	0.0011025178
16	0x3acacf21	0.0015473106
17	0xba14af2e	-0.0005671856
18	0x3acda0af	0.0015688146
19	0x3ac3c0d4	0.0014934787
20	0x393e80c5	0.00018167782
21	0xba00031f	-0.00048832776
22	0xb8d00a69	-9.920152e-05
23	0x39df0930	0.0004254072
24	0xbb595ac6	-0.0033165677
25	0xba998133	-0.0011711478
26	0x3b15bad4	0.0022846954
27	0x39a60264	0.00031663768
28	0x39c4552f	0.000374475
29	0x39c18657	0.0003691192
30	0x38c5a9c6	9.425315e-05
31	0x3db6a71f	0.089185946
32	0x3af03866	0.0018327355
33	0xbad9ed55	-0.0016626517
34	0xbb0c1923	-0.0021377287
35	0x388b64bf	6.646802e-05
36	0xb9946366	-0.00028302817
37	0xbb664fde	-0.003514282
38	0xba07e586	-0.0005184043
39	0x3ad60d2f	0.0016330833
40	0xb9bf3c36	-0.0003647522
41	0xbb0e11c0	-0.002167806
42	0xba70fbd8	-0.0009192801
43	0xb9ca8ea0	-0.00038634706
44	0x3a520df9	0.00080129463
45	0x3a35d97a	0.00069370086
46	0x39ddd4fa	0.00042311085
47	0xbb5b5dcd	-0.0033472658
48	0xba96f052	-0.0011515713
49	0xbc035dc5	-0.008017962
50	0x3a5e6ce1	0.0008484852
51	0xb9ca32e1	-0.0003856635
52	0x39eb2438	0.00044849678
53	0xba011684	-0.00049243146

motion_mlp.mlps.1.fc0.fc.weight f4 [50, 50]
0	0xbd6fb3fb	-0.058521252
1	0xbd38f6f4	-0.045157388
2	0x3d861a69	0.06548006
3	0xbd0a7734	-0.033805087
4	0x3c2d870f	0.0105912825
5	0x3c0e0b5b	0.0086697
6	0x3c70be31	0.014693783
7	0xbb95d90c	-0.004572993
8	0xbc2cfaef	-0.010557874
9	0xbd115516	-0.035481535
10	0xba6b94d4	-0.00089867157
11	0x3c8b4373	0.016999936
12	0x3c64ac3e	0.013957081
13	0xbb4b0fce	-0.0030984762
14	0xbc3c0ea7	-0.011478103
15	0xbc142518	-0.009042047
16	0xbc1c299e	-0.009531407
17	0xbcde0b85	-0.027105102
18	0xbcee272c	-0.029071413
19	0xbc9e8dc6	-0.019354712
20	0xbd825e67	-0.06365662
21	0xbd4b9b5e	-0.049708717
22	0xbca6c14a	-0.02035584
23	0xba9c57d5	-0.0011928031
24	0xbbe32abb	-0.006932584
25	0x3bd301a2	0.0064394036
26	0x3cc3d98c	0.023907445
27	0x3b158ae4	0.002281838
28	0xbbdc0748	-0.006714735
29	0x38a5d92a	7.908263e-05
30	0xbd1d44e2	-0.03839577
31	0xbca695ce	-0.020335104
32	0xbca8ff16	-0.020629447
33	0xbc9d32d0	-0.019189268
34	0xbcf4c0a4	-0.029877014
35	0xbce6053c	-0.028078668
36	0x3801552e	3.0835326e-05
37	0x3c9f00fa	0.019409645
38	0xbc894e70	-0.016761035
39	0xbaaed7e0	-0.0013339482
40	0x3ae9a02f	0.0017824228
41	0x3b2b4114	0.002613132
42	0x3bd21bba	0.0064119967
43	0xbcba32d8	-0.022729322
44	0x3c9ec7ba	0.019382346
45	0xbd0581dd	-0.03259455
46	0xbc755419	-0.014973664
47	0xbd2db6b4	-0.042410567
48	0x3ced0c80	0.028936625
49	0xbc3c03aa	-0.011475483
50	0xbae3ff1d	-0.0017394755
51	0xbc71ebd6	-0.0147657
52	0x3d9d4be1	0.076804884
53	0xbcc59310	-0.024117976
54	0xbce7d926	-0.028301787
55	0x3c8f3e04	0.017485626
56	0xbd71528c	-0.058916613
57	0x3b18178a	0.002320739
58	0x3b25ae39	0.0025280847
59	0xbcf99d06	-0.030470382
60	0x3aa5c7a2	0.0012647996
61	0x3c77f266	0.015133476
62	0xbc3ff65a	-0.01171645
63	0x3c84c415	0.01620678
64	0x3cc7b231	0.02437696
65	0xbc380e4f	-0.01123388
66	0x3bbe9fa9	0.005817373
67	0x3d01b332	0.031665035
68	0x3a1e993e	0.00060500565
69	0xbc583cc4	-0.013198081
70	0x3d8f3eee	0.06994425
71	0x3c5b1bcc	0.0133733265
72	0x3d36ab77	0.044597115
73	0xbd1961bb	-0.03744672
74	0xbcc5190b	-0.024059793
75	0x3b0b8feb	0.0021295499
76	0x3d63b241	0.055589918
77	0x3ca968f9	0.020679938
78	0xbc56c9bb	-0.01310962
79	0xbbd9679d	-0.006634666
80	0xbc9e9b0a	-0.019361038
81	0xbc882efe	-0.01662397
82	0xbb8d55d0	-0.004313208
83	0x3c03dacd	0.008047772
84	0xbbc01917	-0.005862366
85	0x3d02e36f	0.03195518
86	0x3b0b83d3	0.002128829
87	0xbc91b530	-0.017786592
88	0xbbc104d1	-0.0058904667
89	0xbbbb8d66	-0.005723643
90	0x3ce78fe0	0.028266847
91	0xbcd84048	-0.02639784
92	0x3ab192e8	0.001354781
93	0xbbf98d51	-0.007615723
94	0x3da211c4	0.07913545
95	0x3ccd8d81	0.025091888
96	0x3c2450f8	0.01002907
97	0xbc26be41	-0.010177196
98	0x3ce88fa2	0.028388802
99	0xbca474aa	-0.020075161
100	0xbaedb36d	-0.0018135138
101	0xbc51c262	-0.012802692
102	0xbbceabcb	-0.0063071004
103	0xbcdef055	-0.027214209
104	0x3be28003	0.006912233
105	0x3bafc082	0.005363525
106	0xbcb21113	-0.021736657
107	0x3aa6a515	0.0012713993
108	0xbcb7d285	-0.02243925
109	0x3c85fd11	0.016356023
110	0x3c2f52b5	0.010700871
111	0xbc600458	-0.013672911
112	0xbc227c5f	-0.009917348
113	0x3c4d083a	0.012514168
114	0x3c533ff6	0.012893667
115	0xbc833711	-0.016017469
116	0xbba17042	-0.0049267123
117	0x3c224e36	0.009906342
118	0xbb967cf4	-0.0045925323
119	0xbbe14e43	-0.0068757846
120	0xbcdc72c6	-0.026910197
121	0x3c8c8848	0.017154828
122	0xbe817cee	-0.25290626
123	0x3c7c4d59	0.0153993005
124	0xbc20a732	-0.0098054875
125	0x3ca5acc4	0.020223983
126	0xbcd0e563	-0.025500005
127	0xbbae9d9b	-0.0053288466
128	0xbcfdfe66	-0.031005096
129	0x3bd20495	0.0064092376
130	0xbcda1af1	-0.026624175
131	0x3c0151e4	0.007893059
132	0x3c8114c4	0.015756972
133	0x3b140eca	0.0022591823
134	0x3beabad6	0.007163386
135	0xbd6a21a8	-0.057161003
136	0x3dd3cbcd	0.10341606
137	0x3c42ba3c	0.011885222
138	0xbac91cfa	-0.0015343719
139	0xbb848f5b	-0.0040454096
140	0xbcc5d743	-0.024150496
141	0xbcd123fe	-0.025529858
142	0x3cce2376	0.025163393
143	0x3b7f2a15	0.0038934995
144	0xbb5f3768	-0.0034060124
145	0x3c026fb3	0.0079612015
146	0x3aa8bccd	0.001287365
147	0x3b5f67e8	0.0034089033
148	0x3b8507ad	0.004059753
149	0x3aecbf2e	0.0018062347
150	0xbccbd81d	-0.024883324
151	0x3d025c68	0.031826407
152	0x3d018ee2	0.031630404
153	0x3c55a5de	0.013040034
154	0x3c86906e	0.016426291
155	0x3d1302f4	0.03589149
156	0xbd586bf3	-0.052837323
157	0x3ba1f87e	0.0049429527
158	0x3c572836	0.013132146
159	0x3c3f129d	0.011662153
160	0x3a88f051	0.0010447596
161	0x3c1bf798	0.00951948
162	0x3ad3a320	0.0016146637
163	0x3bf64c75	0.0075164386
164	0x3d3bd864	0.045860663
165	0xbd392fd9	-0.045211647
166	0xbbc88df7	-0.006120439
167	0x3cd6129f	0.026131926
168	0xbb8588da	-0.004075152
169	0xbb640af7	-0.0034796575
170	0xbc455bb7	-0.012045792
171	0x3cac50dd	0.021034652
172	0xbd095548	-0.033528596
173	0xbcc9df08	-0.024642482
174	0xbc2b8f71	-0.010471211
175	0x398a8d9a	0.00026426913
176	0xbc22ba5c	-0.009932127
177	0xbc3b74cc	-0.011441421
178	0xbcec462a	-0.02884205
179	0xbd02f33f	-0.03197026
180	0x3d40c6b3	0.047064494
181	0x3d0178bf	0.031609293
182	0x3d14ffd2	0.03637678
183	0x3d1b2d15	0.03788479
184	0xbcfb736a	-0.030694682
185	0xbbca0118	-0.006164681
186	0x3ca0212c	0.019547068
187	0xbc9a2254	-0.018815197
188	0xbc43091c	-0.011904027
189	0xbcdaba5b	-0.02670019
190	0x3cf60cc7	0.03003539
191	0x3c1bf98e	0.009519948
192	0x3893ec10	7.053476e-05
193	0x3c7e7c11	0.015532509
194	0xbd2f9db2	-0.042875
195	0x3c59601c	0.013267543
196	0x3d3389bf	0.043832537
197	0x3d20a5c1	0.039220575
198	0xbb97caaf	-0.004632316
199	0xbaf4f014	-0.0018687272
200	0xbc9a9953	-0.018871939
201	0xbc78845a	-0.015168274
202	0xbc9ab843	-0.018886691
203	0xbcf80b83	-0.030278927
204	0xbd87221e	-0.06598304
205	0xbc828703	-0.01593352
206	0x3d9cc445	0.07654623
207	0xbb6faca5	-0.003657141
208	0xbd78884a	-0.06067685
209	0x3c0069b6	0.007837703
210	0x3c5c0bf0	0.0134305805
211	0x3ba8b17e	0.005148112
212	0xbb9db5f2	-0.0048129493
213	0x3c62a2c7	0.013832754
214	0x3cb2e141	0.021835925
215	0x3ca69c5d	0.020338232
216	0xbb8bec3e	-0.0042701056
217	0xbafd1f23	-0.0019311648
218	0x398553bc	0.00025430124
219	0xbd033db1	-0.032041255
220	0xbc60a147	-0.0137103265
221	0x3b08707c	0.0020819
222	0xbc09cf55	-0.008411248
223	0xbc834fc3	-0.016029244
224	0x3d17d692	0.037069865
225	0x3d2a0edb	0.041518074
226	0xbd227fe7	-0.03967276
227	0xbd30d532	-0.04317207
228	0x3cd91e9e	0.026503857
229	0x3d1141ef	0.03546327
230	0xbd0471fb	-0.032335263
231	0xb76d7058	-1.4152458e-05
232	0xbcb7c286	-0.022431623
233	0xbc5dc93b	-0.013536747
234	0xbce3dda2	-0.027815644
235	0xbcd8b487	-0.02645327
236	0xbad4a828	-0.0016224431
237	0x3c1118f8	0.008856051
238	0xbc0d5dc4	-0.0086283125
239	0x3d1dfa2e	0.038568668
240	0x3c88fa87	0.016721023
241	0x3d8da1bd	0.06915615
242	0xbc8e174d	-0.017345095
243	0xbb891068	-0.004182864
244	0x3d2df243	0.042467367
245	0x3c85ac5d	0.01631754
246	0xbc8ccb7b	-0.01718687
247	0xbd25b7dc	-0.040458545
248	0x3c6b8484	0.014374856
249	0x3c082d2d	0.008311552
250	0x3d243631	0.040090743
251	0x3cc51102	0.024055962
252	0xbd06490a	-0.0327845
253	0x3cf49cdb	0.02985995
254	0x3c4834b7	0.012219599
255	0xbd99981a	-0.07499714

motion_mlp.mlps.1.fc0.fc.bias f4 [50]
0	0xb67e0f44	-3.7857835e-06
1	0xb7038e8d	-7.841399e-06
2	0x378becd3	1.6680371e-05
3	0xb7037951	-7.836455e-06
4	0x377ebdc8	1.5183767e-05
5	0x371e4fdd	9.4361285e-06
6	0xb6f90489	-7.4213062e-06
7	0xb73d5fc0	-1.1287571e-05
8	0x36e66b15	6.867e-06
9	0xb553d81d	-7.891811e-07
10	0x36ad1a99	5.158898e-06
11	0x37342080	1.0736403e-05
12	0xb759ee31	-1.2989666e-05
13	0x371fe03a	9.529345e-06
14	0xb7498d90	-1.2013494e-05
15	0x365ce456	3.2915464e-06
16	0xb7091a12	-8.171906e-06
17	0xb584b4b3	-9.887357e-07
18	0x36cd1283	6.111631e-06
19	0xb609b504	-2.0519956e-06
20	0x374641ad	1.1817011e-05
21	0x3758ff54	1.29340515e-05
22	0x3780fd62	1.537678e-05
23	0x37032cd9	7.81865e-06
24	0x36f0750b	7.166183e-06
25	0x363294fa	2.6610783e-06
26	0x37210c21	9.599172e-06
27	0xb6b85da6	-5.4945294e-06
28	0x3534b79a	6.73224e-07
29	0xb7c0ea95	-2.299742e-05
30	0x36ab416a	5.1038123e-06
31	0x35844ef3	9.857744e-07
32	0x37218927	9.628281e-06
33	0xb705c444	-7.973114e-06
34	0x36818ad1	3.86066e-06
35	0x370ec9bb	8.510829e-06
36	0x3713abcb	8.801881e-06
37	0xb7149916	-8.8571305e-06
38	0x36edba85	7.084864e-06
39	0xb741c0af	-1.1548559e-05
40	0xb69c4111	-4.656737e-06
41	0xb3914b99	-6.76584e-08
42	0xb7226fcf	-9.681985e-06
43	0xb717d04b	-9.048798e-06
44	0xb6d7f13c	-6.4355827e-06
45	0xb733be0b	-1.0713479e-05
46	0x368a299b	4.117564e-06
47	0xb6cb7a35	-6.064098e-06
48	0xb7297652	-1.0100734e-05
49	0xb71cc5f4	-9.344414e-06

motion_mlp.mlps.1.norm0.alpha f4 [1, 54, 1]
0	0x3d8e52b2	0.06949367
1	0x3d73d269	0.059526835
2	0x3e177e4f	0.14794277
3	0x3d9395a2	0.072062746
4	0x3d82c5a0	0.0638535
5	0x3d9865ca	0.0744129
6	0x3d70f3fd	0.058826435
7	0x3d920efc	0.07131764
8	0x3d63d8ca	0.055626668
9	0x3dc57190	0.09640801
10	0x3dfb39ec	0.12266907
11	0x3d6ffeba	0.058592536
12	0x3d923fb0	0.07141054
13	0x3d8c56e7	0.06852513
14	0x3d437e14	0.04772766
15	0x3d9d3b1b	0.07677289
16	0x3d84e173	0.064883135
17	0x3d83e4a2	0.064400926
18	0x3d97cb80	0.074118614
19	0x3e2fde25	0.17174585
20	0x3d80e2a9	0.06293232
21	0x3d98425a	0.074345306
22	0x3d9b97f3	0.075973414
23	0x3d88ecdb	0.066858016
24	0x3dac301b	0.08407613
25	0x3d927eae	0.071530685
26	0x3d7cc758	0.061713547
27	0x3d4c2897	0.049843397
28	0x3d6a21b6	0.057161056
29	0x3d891d33	0.066950224
30	0x3d99f1c6	0.07516818
31	0x3cdf340f	0.027246503
32	0x3d17a5ce	0.037023358
33	0x3d5af43e	0.053455584
34	0x3dad1f48	0.08453232
35	0x3d64f697	0.05589923
36	0x3d7f6419	0.06235132
37	0x3dac7223	0.08420207
38	0x3d73faff	0.05956554
39	0x3daa6dd3	0.083217286
40	0x3d8bb7f9	0.068221994
41	0x3d908839	0.070572324
42	0x3d97d309	0.07413299
43	0x3d86d119	0.06582851
44	0x3d8dccd1	0.06923831
45	0x3d9df16e	0.07712065
46	0x3e3389ca	0.17533031
47	0x3d833f43	0.064085506
48	0x3d9c4cce	0.07631837
49	0x3de465fa	0.11152263
50	0x3d84e9c6	0.06489901
51	0x3d9001d9	0.070316024
52	0x3d6edaea	0.05831424
53	0x3dc63af3	0.096792124

motion_mlp.mlps.1.norm0.beta f4 [1, 54, 1]
0	0xbb986707	-0.0046509537
1	0x3c095d47	0.008384055
2	0x3aea6819	0.0017883807
3	0xbbbe7d99	-0.0058133123
4	0xbb0dc726	-0.0021633594
5	0xbbc5e451	-0.0060391803
6	0xbbae3b94	-0.005317161
7	0xbb4fa9a2	-0.0031686802
8	0xbb31b58d	-0.002711627
9	0xbce0ef52	-0.027457867
10	0x3c9f6d64	0.019461341
11	0xbb9136cc	-0.004431581
12	0xbb6e9dbf	-0.0036409942
13	0xbc21d5e1	-0.009877653
14	0x3b666cd7	0.0035160088
15	0x3cae8a78	0.021306261
16	0x3bc89228	0.006120939
17	0x3be043a4	0.006844001
18	0xbc8b3ff5	-0.01699827
19	0x3c28d1ab	0.010303895
20	0x3b07df65	0.0020732519
21	0xbb6f8fb9	-0.0036554171
22	0xbbd8e8e6	-0.0066195605
23	0xbc0d5eda	-0.008628571
24	0x3c686921	0.014185221
25	0x3c14a824	0.009073291
26	0xbbf6b777	-0.007529195
27	0xbafdd705	-0.0019366449
28	0x398d26cd	0.00026922525
29	0xbb7caa32	-0.0038553593
30	0x3aa5042e	0.0012589747
31	0x3bfe6ad7	0.007764201
32	0xbc9890ec	-0.018623792
33	0xb8dc0f90	-0.00010493316
34	0xbca27878	-0.019832835
35	0x3bae1b5c	0.00531332
36	0x3a6f14e9	0.00091202423
37	0x3d658cb8	0.056042403
38	0x3ab41542	0.0013739245
39	0x3cb7edac	0.022452198
40	0x399449f2	0.00028283853
41	0xbbae07de	-0.0053109964
42	0xbba4116d	-0.00500696
43	0xb9bde8a6	-0.00036222226
44	0xbb85cf24	-0.004083531
45	0xb7cf0d9d	-2.4682662e-05
46	0xb8e88950	-0.000110881985
47	0xbc574776	-0.013139596
48	0xbb63549e	-0.0034687887
49	0x3c925eb6	0.017867427
50	0xbb682bcb	-0.0035426493
51	0xbc727bae	-0.014799995
52	0x3c6380ce	0.01388569
53	0xbc4aed78	-0.0123857185

motion_mlp.mlps.2.fc0.fc.weight f4 [50, 50]
0	0xbc9f4f58	-0.019447014
1	0xbcce4132	-0.025177572
2	0x3becb886	0.0072241453
3	0xbd1adace	-0.037806325
4	0xbb67d305	-0.003537358
5	0xbbe67436	-0.0070328964
6	0xbd17f0ee	-0.037095003
7	0xbc23145b	-0.009953584
8	0x3ce290e5	0.027656982
9	0xbc91c40d	-0.01779368
10	0xbc89654e	-0.016771939
11	0x3b811610	0.0039393976
12	0xbc87c166	-0.016571712
13	0xbaefe48f	-0.0018302369
14	0xbc018069	-0.0079041505
15	0xbda148bf	-0.07875203
16	0x39107e08	0.0001377986
17	0xbd352050	-0.04422027
18	0x3c46bb8d	0.0121296765
19	0x3d8ca43e	0.06867264
20	0xbced66d4	-0.028979696
21	0xbc902027	-0.017593456
22	0xbcb03a28	-0.021512106
23	0xbc9261ff	-0.017868994
24	0x3cddfeca	0.027099032
25	0x3995a010	0.0002853875
26	0xbcd523c6	-0.026018035
27	0x3c991ba7	0.018689943
28	0xbca5e8cd	-0.02025261
29	0xbc92c8cb	-0.017918011
30	0x3c7f18d1	0.015569882
31	0xbce7daa6	-0.028302502
32	0xbb83e664	-0.0040252674
33	0x3b537cfe	0.0032270546
34	0xbcb3fc7a	-0.021970976
35	0xbbb81910	-0.005618222
36	0xbd33d938	-0.043908328
37	0xbc274849	-0.010210105
38	0xbc851551	-0.016245516
39	0xbc5dc24e	-0.013535095
40	0x3b4cea11	0.0031267444
41	0xbc31a845	-0.010843341
42	0x3ccc20cb	0.02491798
43	0xbb7909dd	-0.0038000264
44	0x3b25bca0	0.0025289431
45	0xbac1313a	-0.0014739402
46	0x3cddb22e	0.027062502
47	0xbc9bf7b6	-0.019039016
48	0x3cda6807	0.026660932
49	0xbcadd23b	-0.02121841
50	0x3b1df3df	0.0024101657
51	0xbce11cd5	-0.027479568
52	0x371a4c10	9.196825e-06
53	0xbd168215	-0.03674515
54	0xbc9e55dc	-0.01932805
55	0xbc30a72d	-0.010782045
56	0xbbba4ead	-0.0056856484
57	0xbcef6c4f	-0.02922645
58	0xbc7b8da5	-0.015353595
59	0xbcbaa52a	-0.022783834
60	0xbb827ed7	-0.0039824056
61	0x3a9d0cfd	0.001198202
62	0xbd337fa8	-0.043822914
63	0x3d1a21d5	0.03762992
64	0xbca22e9b	-0.019797614
65	0xbd11b7ac	-0.035575554
66	0xbc8bf18b	-0.01708295
67	0x3acb5094	0.0015511685
68	0xbc34de78	-0.011039369
69	0x3d24ef31	0.040267173
70	0xbc697a28	-0.014250316
71	0xba8323f3	-0.001000522
72	0xbd3a0aad	-0.045420337
73	0x3cc08d47	0.023504866
74	0xbc812b11	-0.015767606
75	0x3bb4ff1f	0.005523577
76	0xbd174aa4	-0.036936417
77	0xbbb58652	-0.005539694
78	0xbd0aad9b	-0.03385697
79	0xbc94d92a	-0.018169958
80	0xbb820ff4	-0.003969187
81	0x3ba7247c	0.005100785
82	0xbc1fbb9e	-0.009749321
83	0x3c9e8a32	0.019353006
84	0x3bd9e4a1	0.006649569
85	0xbb9f880f	-0.0048685144
86	0xbc9e7bfb	-0.019346228
87	0xbb136608	-0.0022491235
88	0xbc8adb19	-0.016950177
89	0xbc398133	-0.011322307
90	0xbcb1569e	-0.021647748
91	0x3c50a231	0.012733982
92	0xbceceae0	-0.02892059
93	0x3afc9bf1	0.0019272548
94	0x3b94f6d8	0.0045460276
95	0x3c855e72	0.016280387
96	0xbc24e15a	-0.010063494
97	0x3b4a190e	0.0030837688
98	0x3c42ff04	0.011901621
99	0xbaac710a	-0.0013156247
100	0xbb8e7011	-0.0043468555
101	0xbc3d8c39	-0.011569076
102	0x3b2f5a93	0.0026756867
103	0xbc6283ef	-0.013825401
104	0xbc280036	-0.010253957
105	0x3d112c56	0.035442673
106	0xbd4acd58	-0.049512237
107	0xbbeb9266	-0.007189083
108	0x3c0c0c69	0.008547881
109	0xbb857a37	-0.004073407
110	0xbcbdbb66	-0.023160648
111	0x3bc11a12	0.0058930004
112	0x3c1507e5	0.0090961205
113	0x3b85c0d0	0.004081823
114	0xbbe47901	-0.0069724326
115	0xbd3b5251	-0.0457328
116	0xbc62214f	-0.013801887
117	0x3b481969	0.0030532724
118	0x3c389e90	0.011268273
119	0x3c69a4b3	0.014260459
120	0xbdfbdb1d	-0.12297652
121	0xbc051427	-0.0081224805
122	0xbc9790e4	-0.018501706
123	0xbba9f801	-0.005187035
124	0xbb743a9a	-0.0037266375
125	0xbc37f1a4	-0.011227045
126	0xbb106d6c	-0.0022037877
127	0x3c6437eb	0.0139293475
128	0x3b653c78	0.003497867
129	0x3b79bfd4	0.0038108723
130	0x3b1dd484	0.0024082968
131	0xbc56520a	-0.013081083
132	0xbc3033b8	-0.010754518
133	0x3baa260d	0.0051925243
134	0x3c697d16	0.014251014
135	0xbd62690a	-0.055275954
136	0xbbb7d787	-0.0056104097
137	0x38af1d6b	8.35013e-05
138	0xbcb4c4b9	-0.02206646
139	0x3e1c7f38	0.15282905
140	0xbb0a6e45	-0.0021122855
141	0x3c9f9d17	0.019484086
142	0x3c3a9ca5	0.011389886
143	0x3ccc1303	0.02491141
144	0x3bde5eee	0.006786219
145	0x3cd6b231	0.026208015
146	0x3cc1f402	0.023675922
147	0x3c512db2	0.012767242
148	0x3b4ee087	0.0031566934
149	0x3cf55ad6	0.02995054
150	0x3c9d4bbe	0.019201156
151	0x3cdc3a03	0.02688313
152	0x3ca082e4	0.019593664
153	0xbd8caee6	-0.06869297
154	0xbd1ef736	-0.038809977
155	0xbc561272	-0.013065921
156	0x3cad229b	0.021134665
157	0xbb07342d	-0.0020630464
158	0x3ca876f0	0.020564526
159	0xbb1ed4d0	-0.0024235733
160	0x3c4c7ad9	0.012480461
161	0xbbb5cb1e	-0.005547895
162	0xbcf265e8	-0.029589608
163	0x3c8415fc	0.016123764
164	0x3c65316c	0.013988834
165	0x3a6d126b	0.0009043577
166	0x3b3a392c	0.0028415425
167	0xbc5889ed	-0.013216478
168	0x3bb46ab8	0.005505886
169	0x3c898278	0.016785845
170	0x3c7d6dbd	0.015468058
171	0xba2e911e	-0.00066591974
172	0xbca35b5e	-0.019941028
173	0x3d9ad296	0.07559697
174	0xbc9d07cd	-0.019168759
175	0x3d027bc3	0.03185631
176	0x3d0cc293	0.034365248
177	0xba9fa2c6	-0.0012179248
178	0xbb9fad15	-0.004872928
179	0x3ca81483	0.020517593
180	0x3ce12d21	0.02748734
181	0x3c282cb5	0.010264565
182	0x3c0949a2	0.008379372
183	0x3c46f450	0.01214321
184	0x3bd3df76	0.0064658476
185	0x3bb1b8e3	0.0054236515
186	0x3ca9ea2a	0.020741541
187	0x3c6e5951	0.014547662
188	0x3c348b48	0.011019535
189	0x3c89582f	0.016765682
190	0xbc9ba9ea	-0.01900192
191	0xbc439bd8	-0.0119390115
192	0xbc8abc5e	-0.016935524
193	0x3cc8ba29	0.02450283
194	0xbbd7b54e	-0.0065828925
195	0xbcea2d1b	-0.028585961
196	0x3c2a6994	0.010401148
197	0x3c0d7fb1	0.008636401
198	0x3b55a0ac	0.0032596989
199	0x3aef95b4	0.0018278868
200	0x3ccc0766	0.024905872
201	0x3adde3de	0.0016928872
202	0x3aa9c6f1	0.0012952966
203	0x39d87e24	0.00041292713
204	0xbc4f0070	-0.012634382
205	0xbd05b6ed	-0.032645155
206	0xbcad9e23	-0.02119357
207	0xbcd61908	-0.026134983
208	0x3cbd3f7f	0.023101566
209	0xbc666122	-0.014061244
210	0x3be07eb6	0.0068510426
211	0xbc0c4e92	-0.0085636545
212	0x3d4713bf	0.048602816
213	0x3c5e662c	0.013574164
214	0xbc9dea6a	-0.019276816
215	0xbaf51567	-0.0018698395
216	0x3bb218b2	0.005435073
217	0xbd074a5f	-0.03302991
218	0xbadd527f	-0.0016885548
219	0x3c4370bb	0.0119287325
220	0xbcf3dd42	-0.02976859
221	0x3bcf6aa2	0.0063298503
222	0xbd6a381a	-0.05718241
223	0xbcee0032	-0.029052828
224	0x3cb29abb	0.021802297
225	0x3bedb7ea	0.0072545903
226	0x3c204871	0.009782896
227	0x3ab87198	0.001407194
228	0x3bb82037	0.0056190747
229	0xbc075503	-0.0082600145
230	0x3c215c3c	0.009848651
231	0x3d9081e4	0.07056025
232	0x3c9aab84	0.018880613
233	0xbb7be2bf	-0.0038434712
234	0x3c5f57bc	0.013631757
235	0xbcdb15c3	-0.026743775
236	0xbc86678a	-0.016406793
237	0xbc4ba2bd	-0.012428937
238	0x3862f828	5.4113712e-05
239	0x3c9327b1	0.017963262
240	0x3bc73884	0.0060797352
241	0xbcf07fd8	-0.029357836
242	0x3c26c1f1	0.010178075
243	0x3c51faeb	0.012816171
244	0x3cd29f1b	0.025710633
245	0x3be5f769	0.007018019
246	0xbd0d99ca	-0.034570493
247	0xba1f26c2	-0.0006071144
248	0xbbb83962	-0.005622075
249	0x3b604612	0.0034221453
250	0xbc7270a5	-0.014797364
251	0xbd665faa	-0.056243576
252	0x38469ba4	4.735183e-05
253	0x3ca51b0f	0.020154504
254	0xba971a7b	-0.0011528278
255	0xbccaa999	-0.024739074

motion_mlp.mlps.2.fc0.fc.bias f4 [50]
0	0xb596eabe	-1.124419e-06
1	0x36900b30	4.292837e-06
2	0x370c07b7	8.3464465e-06
3	0xb6d73b19	-6.414379e-06
4	0x355433c9	7.905151e-07
5	0x35ce55fe	1.5373223e-06
6	0x36645705	3.40253e-06
7	0x365dc50a	3.3046258e-06
8	0x36120a3a	2.1761648e-06
9	0xb4901825	-2.6839658e-07
10	0x353381c9	6.687156e-07
11	0xb66e9bcd	-3.5555452e-06
12	0x362d7c4b	2.5851357e-06
13	0xb6817140	-3.8576836e-06
14	0x35242dfc	6.1161677e-07
15	0xb71a6363	-9.202256e-06
16	0xb673a25a	-3.6304323e-06
17	0xb688ceb1	-4.077178e-06
18	0x36b980cb	5.528423e-06
19	0x36b5d5d5	5.4191137e-06
20	0x34fdf7db	4.730526e-07
21	0xb52d56bc	-6.457374e-07
22	0xb42b38d4	-1.594629e-07
23	0x3631cdfd	2.6494956e-06
24	0xb6699bb7	-3.4810344e-06
25	0x36629485	3.3763074e-06
26	0x33fad69c	1.16805694e-07
27	0xb63095b3	-2.631318e-06
28	0xb5cefa34	-1.5421015e-06
29	0x356f6ce6	8.9192906e-07
30	0xb62c0041	-2.5630145e-06
31	0x3511cf85	5.431869e-07
32	0x35b2d266	1.3323267e-06
33	0xb2e27d37	-2.6366804e-08
34	0x34abe55e	3.201812e-07
35	0x35f5bdbd	1.8309144e-06
36	0x363f1db3	2.8478505e-06
37	0x353b93e2	6.9878126e-07
38	0xb623b776	-2.439568e-06
39	0x3621b622	2.4096885e-06
40	0x358d32cc	1.0520102e-06
41	0xb640057b	-2.861342e-06
42	0xb537cdb4	-6.847215e-07
43	0xb2a9721c	-1.972608e-08
44	0xb66c1f44	-3.518494e-06
45	0xb6bf3a1f	-5.6990098e-06
46	0xb5b756b1	-1.3659793e-06
47	0x35fb0f7a	1.8705462e-06
48	0xb6d9a46f	-6.4862465e-06
49	0xb68c3096	-4.1779813e-06

motion_mlp.mlps.2.norm0.alpha f4 [1, 54, 1]
0	0x3d7862bf	0.060641047
1	0x3d451e65	0.04812469
2	0x3d6f38b9	0.058403704
3	0x3d2dbf8d	0.042419005
4	0x3ccd05f3	0.02502725
5	0x3d1cf9f0	0.038324296
6	0x3ce1d909	0.02756931
7	0x3d06c27b	0.032900315
8	0x3d162e17	0.03666505
9	0x3d6bb24d	0.057543088
10	0x3d826725	0.063673295
11	0x3cf090a9	0.029365854
12	0x3d0e6625	0.03476538
13	0x3d12e0c1	0.035858873
14	0x3d1c47aa	0.03815428
15	0x3d2c40d0	0.042053998
16	0x3d3d39c8	0.046197683
17	0x3d00b1ac	0.03141944
18	0x3d49a7e2	0.04923237
19	0x3dd7aacd	0.105306245
20	0x3cf8c15c	0.030365638
21	0x3d132c0a	0.03593067
22	0x3d074ed0	0.033034146
23	0x3cef19bb	0.029187074
24	0x3d6e1643	0.0581267
25	0x3d7afc1a	0.06127558
26	0x3cfbe0ff	0.030746935
27	0x3d07a5d5	0.033117134
28	0x3d01503c	0.031570658
29	0x3d0ff671	0.035147134
30	0x3d11d91f	0.035607453
31	0x3b26a78c	0.0025429456
32	0x3cde076a	0.027103145
33	0x3d4a397f	0.04937124
34	0x3d18fc4f	0.037349995
35	0x3d249752	0.040183373
36	0x3d29ab76	0.041423284
37	0x3d6148ab	0.055000942
38	0x3d1c5277	0.038164582
39	0x3d8a2925	0.06746129
40	0x3d19e942	0.037575968
41	0x3d213454	0.039356545
42	0x3d41c181	0.04730368
43	0x3ce56114	0.028000392
44	0x3cfa87b1	0.03058228
45	0x3d247592	0.040151186
46	0x3dcfded0	0.1014992
47	0x3d38e86f	0.04514354
48	0x3d59452b	0.05304448
49	0x3da44c01	0.08022309
50	0x3ce62815	0.028095284
51	0x3d774c83	0.0603757
52	0x3c8be0de	0.017074998
53	0x3d433ad5	0.04766353

motion_mlp.mlps.2.norm0.beta f4 [1, 54, 1]
0	0xbcacccfd	-0.02109384
1	0xbaaa9547	-0.0013014459
2	0x3d3f2c48	0.04667309
3	0xb927edd4	-0.00016014959
4	0xbb3109a1	-0.0027013796
5	0x3bd52e6f	0.0065057795
6	0x3ba07e4e	0.004897869
7	0xbc0cfbcb	-0.008604954
8	0x3b554a3a	0.0032545463
9	0x3b481bb5	0.0030534093
10	0x3d45c568	0.048283964
11	0x3b2ba5f7	0.0026191452
12	0x3a9b5e6e	0.0011853704
13	0x3c03a5f4	0.008035172
14	0xbbd94855	-0.006630937
15	0xbc370377	-0.01117026
16	0xbc81d8e5	-0.015850494
17	0xbac79351	-0.0015226399
18	0x3c0edd74	0.008719791
19	0xbcac5712	-0.021037612
20	0xb9d18dd0	-0.00039969245
21	0xbaac2ded	-0.0013136246
22	0xbba9cd5b	-0.005181951
23	0xbae40a35	-0.0017398061
24	0xbc6d5f0f	-0.014487996
25	0xbbcd0eff	-0.006257891
26	0x3a8155ea	0.0009867523
27	0xbbc72792	-0.006077715
28	0xbbc195c0	-0.005907744
29	0x3b554d53	0.003254731
30	0xb8f42b47	-0.00011642888
31	0xbbbcddc8	-0.005763743
32	0x3c8ea43a	0.017412294
33	0x3b24c999	0.0025144576
34	0xbcc2ba9d	-0.023770625
35	0xbbce708c	-0.0063000377
36	0x3a012399	0.0004926264
37	0x3d2f30bc	0.042771086
38	0xbc0e25a0	-0.008675963
39	0xbbb7ab5d	-0.005605145
40	0xbbb04451	-0.0053792377
41	0x3be98ffa	0.007127759
42	0x3be404e4	0.006958591
43	0xba7c3fa0	-0.0009622518
44	0x3912274e	0.00013938287
45	0x3b319093	0.002709423
46	0x3bb896af	0.0056331973
47	0x3ba2fa0d	0.004973656
48	0xbb2ab8b8	-0.0026050042
49	0xbc3b865c	-0.011445608
50	0xb97c4bd1	-0.00024060837
51	0xbc991bdb	-0.01869004
52	0xbb8ead06	-0.004354122
53	0xbb90342b	-0.00440075

motion_mlp.mlps.3.fc0.fc.weight f4 [50, 50]
0	0xbacda4d4	-0.0015689381
1	0xbc99c9a2	-0.018772904
2	0x3d9397b1	0.07206667
3	0xbcc288f7	-0.02374695
4	0xbbc334d1	-0.005957224
5	0xbbe8c0ad	-0.007103047
6	0x3cdbe00c	0.026840232
7	0x39e74331	0.00044109815
8	0x3d1f70a6	0.03892579
9	0x3b96db58	0.0046037845
10	0x3b0ac268	0.0021173004
11	0xbccd6081	-0.02507043
12	0x3a944340	0.0011311546
13	0x3b41b92d	0.0029559836
14	0xbb130890	-0.0022435524
15	0x3d1dc9dd	0.03852259
16	0x3c2dc786	0.010606652
17	0x3cac8b26	0.021062445
18	0xbc8bc05c	-0.017059498
19	0xbc11bd8d	-0.00889529
20	0xbc88ca04	-0.016697891
21	0xbb8a3b13	-0.004218468
22	0xbd11547e	-0.03548097
23	0xbc0ec292	-0.008713381
24	0x3c8b209a	0.01698332
25	0x3c986c68	0.01860638
26	0x3bc5239b	0.0060162074
27	0xbac2393c	-0.0014818083
28	0x39793e6a	0.00023769742
29	0x3cb4736d	0.022027696
30	0xbc57fd11	-0.013182894
31	0x3b8b8e7d	0.0042589293
32	0x3c389ecb	0.011268328
33	0x3bce5fa9	0.0062980247
34	0x3cf87664	0.03032989
35	0xbd6f9b5d	-0.058497775
36	0x3bbdf906	0.005797508
37	0x3cae0dbb	0.021246782
38	0xbcc21f2b	-0.023696503
39	0x3d1384fb	0.036015492
40	0x3c508153	0.012726146
41	0x3c5fe5b9	0.01366561
42	0x3ce25872	0.027630065
43	0x3d0287a1	0.031867627
44	0xbcad629e	-0.021165188
45	0xbc838b3b	-0.016057601
46	0xbc738bd7	-0.014864883
47	0x39656472	0.0002187656
48	0xbca12c1f	-0.019674359
49	0xbbe92e47	-0.0071161124
50	0x3c064a4a	0.008196423
51	0xbd8a38e1	-0.0674913
52	0x3c7778e4	0.015104506
53	0xbd1f7872	-0.038933225
54	0x3c040a8b	0.008059154
55	0x3b88a30d	0.004169828
56	0x3ca5943c	0.020212285
57	0xbb14d16e	-0.0022707838
58	0x3c3cd691	0.011525766
59	0xbcf02f0c	-0.029319309
60	0xba3899d6	-0.00070419663
61	0x3d042845	0.032264967
62	0xbc9b610c	-0.018967174
63	0x3c63073d	0.013856706
64	0xba9b58f4	-0.0011852072
65	0x3ce3705f	0.027763544
66	0xbbd85fcc	-0.0066032168
67	0xbc005463	-0.007832619
68	0xbc22aa51	-0.009928302
69	0x3cd2f223	0.025750225
70	0x3c95685b	0.018238237
71	0xbc96e6ef	-0.018420665
72	0xbc79f491	-0.015256063
73	0x3d7601d8	0.060060352
74	0xbcdcacc1	-0.026937844
75	0xbb9eb812	-0.0048437202
76	0xbcd27202	-0.025689129
77	0x3b5cbc3e	0.0033681537
78	0x3b7ab9cd	0.0038257719
79	0x3bd1f3c1	0.0064072316
80	0xbd48b568	-0.049001127
81	0xbd6eeb95	-0.058330137
82	0x3be42ff1	0.006963723
83	0xbba677eb	-0.0050802133
84	0x3bad96ca	0.0052975165
85	0xbb2de0f5	-0.002653179
86	0xbc6fbfd6	-0.01463314
87	0xbceae493	-0.028673446
88	0x3c629894	0.013830323
89	0x3b2dd2da	0.0026523382
90	0xbb9fb147	-0.004873428
91	0xbc142b8e	-0.009043587
92	0xbb2b168c	-0.0026105968
93	0xbb0b355a	-0.0021241517
94	0xbd172731	-0.03690261
95	0xbcd34c91	-0.025793346
96	0x3cb163fe	0.021654125
97	0xbc78435f	-0.015152781
98	0x3b6543b8	0.003498299
99	0xbc97b089	-0.018516796
100	0x3b36823f	0.0027848629
101	0xbaa22e03	-0.0012373332
102	0xbd25a0d8	-0.040436596
103	0xbc5fd80d	-0.01366235
104	0xbb1df66a	-0.0024103173
105	0x3ccebdcb	0.025236985
106	0x3ca0084c	0.019535206
107	0xbd3cdd5d	-0.046109546
108	0x3a614e35	0.00085947226
109	0xbca5a03c	-0.020218007
110	0xbaa116d0	-0.0012290124
111	0x3be72c41	0.007054836
112	0xbbebb758	-0.007193487
113	0xbd490420	-0.0490762
114	0x3cb650b9	0.022255288
115	0xbcc613be	-0.024179336
116	0xbcc8ab75	-0.02449582
117	0xbcaac0b7	-0.020843847
118	0x3c8863df	0.016649185
119	0xbd0d5b69	-0.034511004
120	0xbcac8e15	-0.021063844
121	0xbc3a66e7	-0.011377073
122	0xbcb60b8d	-0.022222305
123	0xbce27d03	-0.0276475
124	0xba992ec7	-0.0011686914
125	0xbd03c63d	-0.032171477
126	0x3d533e4a	0.051573075
127	0xbc0209a1	-0.007936866
128	0xbccd5286	-0.025063764
129	0xbbe65466	-0.007029104
130	0x3d370889	0.044685874
131	0x3c972364	0.018449493
132	0xbcc030be	-0.023460742
133	0x3c3c0f94	0.0114783235
134	0xbc45741c	-0.012051608
135	0xbc3eb601	-0.011640073
136	0xbb29f769	-0.0025934821
137	0x3bc7c836	0.006096865
138	0x3d05b327	0.032641556
139	0x3c25bc22	0.010115655
140	0x3c63c19b	0.01390114
141	0x3b4833be	0.003054842
142	0xbc4b2b35	-0.012400438
143	0xbc913bc2	-0.01772869
144	0x3c9a5e96	0.01884393
145	0x3af93de5	0.0019015638
146	0xbc17cc22	-0.009264978
147	0xbd0251f5	-0.03181644
148	0xbb851b18	-0.0040620677
149	0x3cdbfce8	0.026853994
150	0xbbd362a1	-0.0064509665
151	0x3bc0e4ed	0.005886665
152	0xbc0866bc	-0.008325275
153	0x3b9cc23b	0.0047838963
154	0x3beea7cc	0.0072831865
155	0xbbf31e24	-0.0074193645
156	0xbd128d08	-0.03577903
157	0x3ceb545a	0.028726745
158	0xbc3f9abc	-0.011694606
159	0x3c955118	0.018227145
160	0x3c0cc09d	0.008590844
161	0xbb960f1a	-0.004579437
162	0x3b2632b6	0.0025359816
163	0xbcde10c0	-0.027107596
164	0xbcc56421	-0.024095597
165	0xbc8a0fff	-0.01685333
166	0x3c36a29b	0.011147167
167	0xbc983ef0	-0.018584698
168	0x3c81f32d	0.015863026
169	0xbd23c7f6	-0.03998562
170	0xbbd3dde1	-0.006465659
171	0xbb11b032	-0.0022230265
172	0x3cb82fdb	0.022483757
173	0xbb55985f	-0.003259204
174	0x3b838910	0.004014142
175	0x3cd576ce	0.026057627
176	0xbac6ea6e	-0.0015176067
177	0xbd8d65da	-0.06904192
178	0x3d0dff33	0.034667205
179	0x3d25d675	0.040487725
180	0xbb91a673	-0.004444891
181	0x3d28c11f	0.0411998
182	0x3c0b1500	0.0084888935
183	0x3bfe6636	0.0077636493
184	0x3c885b53	0.01664511
185	0x3b9851ae	0.004648409
186	0x3cecd8fc	0.02891206
187	0x3c51036b	0.012757163
188	0xbd215dfe	-0.03939628
189	0x3c5eeda2	0.013606461
190	0x3c14afdf	0.009075134
191	0xbccb4eb0	-0.024817795
192	0xbc561baf	-0.013068124
193	0xbd360401	-0.044437412
194	0xbc1e3ab2	-0.009657549
195	0x3b168409	0.0022966883
196	0x3d005221	0.031328324
197	0xbb83d68b	-0.0040233782
198	0xbcc6538a	-0.024209756
199	0x3b1b2a18	0.0023676213
200	0x3cfc9d44	0.030836709
201	0xbcd32854	-0.025776066
202	0xbca5ad6e	-0.0202243
203	0xbbb789d4	-0.005601147
204	0x3c84d0b2	0.016212795
205	0xbd7362e3	-0.059420478
206	0x3d84ff72	0.06494035
207	0x39c25332	0.0003706455
208	0xbd7e7792	-0.06212575
209	0x3bade306	0.0053066043
210	0xb9dddcbf	-0.00042316873
211	0xbd0a3c9d	-0.03374921
212	0xbd0dfdfe	-0.034666054
213	0x3cbbb775	0.022914628
214	0xbb82058e	-0.0039679473
215	0x3c1976a5	0.009366666
216	0x3c9290a7	0.017891241
217	0xbb8b4ee0	-0.004251346
218	0x3ca6fe35	0.020384887
219	0x3d31241a	0.04324732
220	0x3d007ced	0.03136914
221	0xbc5a1fc8	-0.013313241
222	0xbbfaf779	-0.0076588956
223	0x3cab170d	0.020885015
224	0x3ca00405	0.019533167
225	0xbca40cd2	-0.020025644
226	0xbbe30c00	-0.0069289207
227	0x3c6a8f98	0.014316462
228	0xbc650fc2	-0.013980808
229	0xbca12425	-0.019670555
230	0xbd24e49f	-0.040257093
231	0xba875faa	-0.0010328193
232	0xbca3ccf7	-0.019995196
233	0xbd455dd1	-0.048185173
234	0x3cfe7b07	0.031064523
235	0x3b870230	0.004120134
236	0xbce24003	-0.027618414
237	0x3b78b0e7	0.003794724
238	0x3b1a939f	0.0023586524
239	0x3cf4cbbb	0.029882303
240	0x3c17795b	0.009245242
241	0x3d350326	0.044192456
242	0x3c0e692e	0.008692069
243	0xbc3178d6	-0.010832032
244	0xbcae5c3d	-0.021284217
245	0x3c2bcfb0	0.010486528
246	0xbc9faa1f	-0.0194903
247	0x3ca250d5	0.019813934
248	0x3b8ca47e	0.00429207
249	0xbc398bb9	-0.011324816
250	0x3c26a0c4	0.010170165
251	0xbc8c2734	-0.017108537
252	0xbc260add	-0.010134426
253	0xbc0ddc99	-0.008658552
254	0xbd1f63de	-0.0389136
255	0xbc66a500	-0.014077425

motion_mlp.mlps.3.fc0.fc.bias f4 [50]
0	0x35dbe0d0	1.63822e-06
1	0x35cc9df3	1.5245154e-06
2	0xb6157b9f	-2.2274687e-06
3	0xb6559633	-3.18269e-06
4	0xb514fb7a	-5.5500243e-07
5	0xb6efa810	-7.14232e-06
6	0xb6ea624c	-6.9851867e-06
7	0x35dcc393	1.6448197e-06
8	0x362e949a	2.6014518e-06
9	0x366620de	3.4291802e-06
10	0x36484360	2.984154e-06
11	0xb5c29686	-1.4497934e-06
12	0xb5cfbe66	-1.5478115e-06
13	0x34a33572	3.0400003e-07
14	0xb67677d5	-3.6726608e-06
15	0xb5edeec7	-1.7727369e-06
16	0x36c6a3c5	5.919925e-06
17	0xb735b345	-1.083018e-05
18	0x347d818c	2.360959e-07
19	0x368fb2db	4.2825536e-06
20	0xb58453ac	-9.859118e-07
21	0x36bfbb02	5.714014e-06
22	0xb4b6fd43	-3.4084414e-07
23	0x361b4f18	2.3142838e-06
24	0x3662ee3f	3.3815302e-06
25	0xb59a9603	-1.1517553e-06
26	0xb6d670a8	-6.390812e-06
27	0x36903507	4.2977076e-06
28	0x3637938d	2.735501e-06
29	0x36842950	3.938716e-06
30	0xb5ac105d	-1.2819761e-06
31	0x33935097	6.85988e-08
32	0xb67f79ed	-3.8068931e-06
33	0x36146363	2.211157e-06
34	0x36aec90c	5.209009e-06
35	0x35e8ad2e	1.7335749e-06
36	0xb5f8ab52	-1.8527301e-06
37	0xb68b8e2b	-4.1590733e-06
38	0xb66bb697	-3.512401e-06
39	0x365a536a	3.2533085e-06
40	0x364d951c	3.0634174e-06
41	0xb64e65d7	-3.075567e-06
42	0x36c7436a	5.93851e-06
43	0x36d7ac3d	6.4275505e-06
44	0x3719cd27	9.167276e-06
45	0xb6282b6b	-2.5059223e-06
46	0x36b00a8d	5.246437e-06
47	0xb66beaf1	-3.5154483e-06
48	0x34c6f895	3.706124e-07
49	0x3605f501	1.9961155e-06

motion_mlp.mlps.3.norm0.alpha f4 [1, 54, 1]
0	0x3d6083bf	0.054813143
1	0x3d7616e7	0.060080435
2	0x3dbdf583	0.09275343
3	0x3d31cf23	0.04341043
4	0x3d016569	0.031590853
5	0x3d0939f3	0.03350253
6	0x3c98b968	0.018643096
7	0x3d05fdaf	0.032712635
8	0x3d120ff8	0.03565976
9	0x3d539b98	0.051662058
10	0x3ddb0ad6	0.10695426
11	0x3d11ee0f	0.03562742
12	0x3d375122	0.04475511
13	0x3d1c311b	0.038132768
14	0x3d5db971	0.05413193
15	0x3d44ba2d	0.048029114
16	0x3d2c1c75	0.042019326
17	0x3d135156	0.03596624
18	0x3d327894	0.043572024
19	0x3be3195e	0.0069305142
20	0x3d4e233a	0.050326563
21	0x3d51987f	0.051170822
22	0x3d2b3c45	0.041805524
23	0x3d3b5f0c	0.04574494
24	0x3d75b3fc	0.0599861
25	0x3da36d6f	0.07979857
26	0x3d1d2ecf	0.03837472
27	0x3d407042	0.046982057
28	0x3c97afaf	0.01851639
29	0x3d59f46d	0.05321162
30	0x3ca3b202	0.019982342
31	0x3c1440a5	0.009048616
32	0x3d4c92bb	0.04994462
33	0x3c201940	0.009771645
34	0x3dace3be	0.08441876
35	0x3d37b70a	0.044852294
36	0x3d0dfff7	0.034667935
37	0x3da7b09e	0.08187984
38	0x3d664630	0.05621928
39	0x3d6e79a6	0.05822148
40	0x3d765a37	0.06014463
41	0x3d767474	0.060169652
42	0x3d2aaa6f	0.041666444
43	0x3d814105	0.063112296
44	0x3d225856	0.039635025
45	0x3c333309	0.010937461
46	0x3c314b83	0.010821226
47	0x3d30ac6e	0.04313319
48	0x3d5bd440	0.053669214
49	0x3dda606b	0.106629215
50	0x3d1cd84d	0.038292218
51	0x3d91b3b4	0.07114354
52	0x3da7bf58	0.08190793
53	0x3cba4f97	0.02274303

motion_mlp.mlps.3.norm0.beta f4 [1, 54, 1]
0	0x3c18743d	0.009305057
1	0xb9900695	-0.00027470724
2	0x3cc61b44	0.024182923
3	0xbb41e7dd	-0.0029587664
4	0x3a4f4b5b	0.0007907652
5	0xbb10f463	-0.0022118322
6	0xbba58cc8	-0.005052183
7	0x3bdd65ba	0.0067565115
8	0x3a9ff6ae	0.0012204254
9	0xbbc681e8	-0.0060579665
10	0x3a3605a7	0.0006943591
11	0xbbd1229c	-0.0063822996
12	0xbb22bfba	-0.0024833516
13	0xbbfef0b4	-0.007780159
14	0xbbc6d54a	-0.0060679065
15	0x3c0eca80	0.008715272
16	0x3aee4c9e	0.0018180793
17	0xbc0135d8	-0.0078863725
18	0xbbc5d248	-0.0060370304
19	0x3c887b9a	0.0166605
20	0xbb7ab8d0	-0.003825713
21	0xbb7e8c50	-0.0038840957
22	0x3b713b95	0.0036809195
23	0x3acd90f6	0.001568346
24	0xbcb1a300	-0.02168417
25	0xbc0a2a01	-0.008432866
26	0x3b1db307	0.0024063007
27	0x3b1174cf	0.0022194867
28	0x3c82ae6a	0.015952308
29	0xbb1b8df4	-0.0023735734
30	0xbaac98c9	-0.0013168092
31	0xbc0dec47	-0.00866229
32	0x3c7794da	0.015111173
33	0xbc3dbc9e	-0.011580614
34	0x3cda9b12	0.026685271
35	0xbb6e1534	-0.0036328556
36	0x3bad1bb6	0.0052828444
37	0x3cee910c	0.029121898
38	0xbb01c18a	-0.0019799196
39	0xbb413565	-0.0029481289
40	0xbb61e661	-0.0034469592
41	0xbc6bbb42	-0.014387907
42	0xbc771bd3	-0.015082317
43	0xbb58acde	-0.0033062021
44	0xba714d72	-0.00092049607
45	0xbc1cd653	-0.009572583
46	0x3c1ad233	0.009449529
47	0xbc7d3976	-0.015455594
48	0xbc15d9b6	-0.009146145
49	0xbca565e1	-0.020190181
50	0xb9cac7aa	-0.00038677204
51	0x3ccd71d4	0.025078692
52	0x3accb3c7	0.0015617543
53	0x3afb402f	0.0019168908
