src/siMLPe/exps/baseline_amass/log/snapshot/model-iter-75000.pth (torch, 604338 bytes, 196 tensors)

motion_mlp.mlps.0.fc0.fc.weight f4 [50, 50]
00000000: df75 56bd f2ce bebd 2f00 f63c 5c70 54bd
00000010: 6921 c93c c4e4 97bc 0864 e43c 2af7 32bd
00000020: 4099 25b8 b25c 07bd c934 4bbb a586 c1bc
00000030: e3d7 acbb 5168 acbc b5e6 96bb c5c2 7fbc
00000040: 3ae1 fcbb 03d7 81bc 23ca f6bb d4c3 9cbc
00000050: 948b 81bc f7ca 43bc f7be 0cbc 6ecb aabc
00000060: c3ef c5bb cfbd 92bc baf4 21bc 8db1 5cbc
00000070: 04e4 06bc 8dbf 0ebc 7580 1dbc 8b4e efbb
00000080: 6a1b 08bc 7f59 c3bb 0d07 15bc 8609 6abb
00000090: a5cf 21bc e34c 13bb 835a 1fbc 5b50 45ba
000000a0: e9a2 01bc 7334 edb9 249d fcbb db84 2fba
000000b0: 7b3a 8cbb 9e07 28ba cd94 5ebb f3c7 9239
000000c0: 7811 44bb 0c6e bdba de5e 3b3b ea8c 87bd
000000d0: 0a8d 52ba 935c 68bb 5cca f8bc 1a27 12bc
000000e0: 3643 14bd f28d 393c 99a0 2cbc 12b1 ecbc
000000f0: 4448 49bb b46f aebc b6d0 28bb 67bd 95bc
00000100: 3dee 43bc 00a3 eebb 7037 59bc ab2a 00bc
00000110: 57cb f9bb 78c9 71bc 9a26 2abc b29a 54bc
00000120: 5db1 22bc 6e53 47bc fab8 21bc 3fa4 6fbc
00000130: d33d 10bc 23f4 59bc 1498 1abc 80ff 3dbc
00000140: 100d 37bc 921d 20bc 508e 55bc e5bc 1ebc
00000150: 0af6 4dbc dc46 19bc 3cd2 6abc 58c5 09bc
00000160: d4b9 68bc 34de 18bc 69d3 5ebc bfaf 1abc
00000170: 81dd 5bbc d372 27bc 9844 57bc af13 32bc
00000180: 16c6 49bc fcd6 23bc b4e6 41bc aa49 3bbc
00000190: c064 09bb 200c 12bd 44a6 7c3c de44 2cbc
000001a0: 8452 763b 60ad 05bd 3e43 4c3c b9b0 653b
000001b0: bedb a33c a575 d3bc 74dd a73c 7029 66bc
000001c0: 6e6c 133d d9b2 47ba 3811 143d 0d00 103c
000001d0: 0977 cb3c e90b 8c3c b0e7 113d b4c1 ed3b
000001e0: 16d5 013d a84c 023c 5f4e db3c 3843 463c
000001f0: 5bc0 d33c 6420 2d3c acc2 bc3c 72af 563c
00000200: c406 b23c b7b1 9a3c b2d4 923c 1f62 b93c
00000210: 7726 933c 19b8 bf3c e7e4 763c 6a9a d33c
00000220: e3bd 803c 5556 da3c 6728 753c fc0c e43c
00000230: a257 6a3c f20d e83c c12a 7a3c 940f d93c
00000240: 2c8c 933c e018 d33c 2497 aa3c ae32 cd3c
00000250: b575 b13c 6d8b c83c d09f 21bc cbe1 153d
00000260: 8080 cabc d84e c13c fb3e 0bbd 9726 293d
00000270: ef35 bdbc b578 463d 7abf 86bc a503 493d
00000280: e642 9abc fe0a 393d ee87 f4bb 8d88 043d
00000290: b6f7 483b 0c7b de3c 089c 5e3c bb94 b93c
000002a0: cded 493c e9fd 143d ffa0 433c 5d6a 013d
000002b0: 3590 623c 2468 033d 04d7 a23c e4ae 053d
000002c0: 0879 ae3c 11ce df3c c998 a63c e0f4 d03c
000002d0: fadb a83c b7a9 c03c cad2 b23c 8e71 aa3c
000002e0: 9816 ab3c f3e9 a43c 5027 933c b100 a03c
000002f0: 2e7b 953c 29d2 8f3c 0639 993c 3f71 7f3c
00000300: 5562 953c 56f1 793c ce80 863c 3339 733c
00000310: bce0 753c 9eb7 693c 7d25 7e3c 6127 6a3c
00000320: 913d 203a 3927 bfbc 4d13 ae3c 4177 463c
00000330: f056 93bd 4a15 96bc 7e71 51bc b4af e4bc
00000340: 7bd5 44bc 0eed aabc a19b 81bc 6eed 8abc
00000350: a797 01bd 5586 acbc 0339 dcbc 457b 2bbc
00000360: 42bf b3bc 7d2d 69bc d7a8 2cbc a5b9 debb
00000370: 1a35 74bc 4eba b63b e9e8 f7bb cecd 933b
00000380: 7a41 1dbc d243 2a3c f1b9 c8bb c57e 1c3c
00000390: 577f 17bb 716b 3b3c 3b24 c23a 9535 0a3c
000003a0: 6ea4 b03b 165f 1f3c f4e1 e93b 4d08 1e3c
000003b0: 4b5f 253c ffde fd3b 324b 4b3c 7b16 303c
000003c0: 7951 493c f5e4 3a3c bfc6 503c 173d 5d3c
000003d0: 9b1a 723c 6090 443c 803a 6d3c e7fc 633c
000003e0: 6b6e 593c e10c 6d3c ab0e 0b3b 59a8 42bc
000003f0: 0bfd 1c3c 2b6c 933b e9fe 07bc 67ee 57bd
-0.052358504 -0.093168154 0.030029384 -0.051864967 0.024552064 -0.018541701 0.02787973 -0.043692745
-3.948179e-05 -0.033047386 -0.0031006804 -0.023623774 -0.005274759 -0.021045836 -0.004605139 -0.0156104015
-0.007717279 -0.015849596 -0.007531421 -0.019136347 -0.015813626 -0.011950246 -0.008590451 -0.020848956
-0.0060405447 -0.017912773 -0.0098850075 -0.013470066 -0.008233074 -0.008712661 -0.009613146 -0.007303064
-0.008307317 -0.0059615965 -0.009095919 -0.0035711243 -0.0098761665 -0.0022476248 -0.0097261695 -0.00075269275
-0.007912376 -0.0004524324 -0.0077091623 -0.0006695517 -0.0042794324 -0.00064098265 -0.0033963204 0.00027996264
-0.0029917639 -0.0014452352 0.002859048 -0.06618674 -0.0008031881 -0.003545557 -0.03036993 -0.008920455
-0.03619691 0.011325346 -0.010536336 -0.028893027 -0.003071324 -0.021293499 -0.0025759167 -0.01827879
-0.011958656 -0.0072826147 -0.013257846 -0.007822673 -0.007623117 -0.014757507 -0.01038518 -0.012976335
-0.009929982 -0.012165887 -0.009870762 -0.014626562 -0.008803803 -0.013302836 -0.009435672 -0.0115965605
-0.011172548 -0.009772675 -0.013034418 -0.009688591 -0.012570867 -0.009355273 -0.01433235 -0.008408867
-0.014204461 -0.009330321 -0.013600209 -0.009441315 -0.01341951 -0.010220247 -0.013138913 -0.010868951
-0.012315294 -0.009999987 -0.011834789 -0.011431137 -0.0020964593 -0.035656095 0.0154205 -0.010514466
0.0037585804 -0.032636046 0.012467204 0.0035047962 0.020002242 -0.025812933 0.02049134 -0.014047965
0.03599208 -0.0007617898 0.036149234 0.008789075 0.024837034 0.017095523 0.035621345 0.007255757
0.031697355 0.007952847 0.026770769 0.012100987 0.025848558 0.010566805 0.023042046 0.013103353
0.021731742 0.01888357 0.017923687 0.022629796 0.017962677 0.023403214 0.015069223 0.025830466
0.015715545 0.026652494 0.014963246 0.027838223 0.01430312 0.028326962 0.015268982 0.026496686
0.018011175 0.025768697 0.020824023 0.02504858 0.021662572 0.024480546 -0.009864762 0.036592286
-0.024719477 0.023597166 -0.03399561 0.041296568 -0.023097007 0.04845496 -0.016448725 0.04907574
-0.018830728 0.0451765 -0.007462493 0.032356787 0.0030665225 0.027158283 0.013587005 0.022653928
0.0123247625 0.03637496 0.01194024 0.031595577 0.013828327 0.032081738 0.019877918 0.03263749
0.021297947 0.02731994 0.020336526 0.02550739 0.020612705 0.023518426 0.021829028 0.0208061
0.020884797 0.020131087 0.017963082 0.01953158 0.018247213 0.017556267 0.018703949 0.015590965
0.018235365 0.015255293 0.01641884 0.01484518 0.015007194 0.014264969 0.015511868 0.014291615
0.000611269 -0.023334133 0.021249438 0.012113393 -0.071943164 -0.018320698 -0.012783406 -0.027915813
-0.012013788 -0.02086499 -0.01582128 -0.016958918 -0.031638768 -0.021060148 -0.026882654 -0.010466401
-0.021941785 -0.014232037 -0.010538301 -0.006797033 -0.0149052385 0.0055764085 -0.007565607 0.004510618
-0.00959813 0.010392146 -0.0061256816 0.009551709 -0.0023116672 0.01143919 0.0014811823 0.0084356265
0.0053906953 0.00972726 0.0071375314 0.009645534 0.01009352 0.0077475305 0.012408065 0.010747547
0.012287491 0.011407127 0.012742697 0.0135033345 0.014776851 0.011997312 0.0144792795 0.013915277
0.013270955 0.014468403 0.002121846 -0.0118809575 0.0095818145 0.0044989786 -0.008300521 -0.052717593

motion_mlp.mlps.0.fc0.fc.bias f4 [50]
00000000: da98 04b8 6d28 fa35 1181 75b8 af40 5838
00000010: 5004 a0b7 9ee2 83b6 0d73 04b8 b13f 02b4
00000020: 765b 8938 ec54 a137 4952 c7b7 d212 fe37
00000030: 63ab 17b8 c4ef 6cb8 2485 a6b7 658b d136
00000040: bf16 f9b7 3c99 1438 4136 17b7 0ce6 4937
00000050: c946 9cb9 a499 b6b5 a63c 12b9 7608 8db6
00000060: 4fe9 96b5 3c81 10b8 f9f9 73b8 2eff 8ab7
00000070: fe72 0f37 3530 b137 f472 9a38 19d2 4db8
00000080: 7289 2db7 f4bf 2b37 20e4 46b6 2d10 2138
00000090: 760a 3c39 af91 0438 5092 9f36 8eec e8b7
000000a0: f040 7cb6 70c2 73b7 f66a f5b7 b74b edb7
000000b0: 1bfd 0238 5dd7 4cb7 2800 1a37 9665 50b7
000000c0: b3ba cf37 1331 ec37
-3.1613607e-05 1.8638217e-06 -5.8532754e-05 5.1558654e-05 -1.9075494e-05 -3.930486e-06 -3.1578402e-05 -1.2130364e-07
6.549705e-05 1.923224e-05 -2.3760966e-05 3.0287923e-05 -3.616082e-05 -5.6490084e-05 -1.985074e-05 6.244913e-06
-2.9693705e-05 3.542866e-05 -9.012933e-06 1.2034096e-05 -0.00029807378 -1.3604772e-06 -0.00013946238 -4.2031124e-06
-1.1243773e-06 -3.4452634e-05 -5.816852e-05 -1.656971e-05 8.550238e-06 2.1122492e-05 7.364704e-05 -4.9071477e-05
-1.0343605e-05 1.0237087e-05 -2.9637085e-06 3.8400456e-05 0.00017932974 3.160693e-05 4.7556023e-06 -2.776671e-05
-3.7588725e-06 -1.45292e-05 -2.9256084e-05 -2.828786e-05 3.1230138e-05 -1.2209491e-05 9.179152e-06 -1.2421418e-05
2.4763262e-05 2.8156244e-05

motion_mlp.mlps.0.norm0.alpha f4 [1, 54, 1]
00000000: 794e e73d 2122 ee3d 8448 e23d faa6 e13d
00000010: 91f4 1f3e 6055 a53d 269a 143e 5fd3 e43d
00000020: e0d6 163e 6105 283e da23 dd3d f572 2f3e
00000030: 2f6a 343e 995d 113e ec3d fe3d 55e8 103e
00000040: 9a85 f53d 2706 ee3d 3a4f 203e cae8 353e
00000050: af8c 1c3e 7b72 2d3e dc9b 323e 3544 323e
00000060: a089 ef3d 6ec4 ec3d 0e72 533e ef1b 273e
00000070: 1825 283e 4bb2 213e c36d 233e 6a26 2bbb
00000080: 2550 0c3e e04c ca3d 56f9 f93d 0c2f 0c3e
00000090: 143d e13d a3e4 4a3e a18a f33d 4d43 d93d
000000a0: 0716 0f3e b483 e83d 2580 183e b98c f63d
000000b0: 7663 3a3e 81b6 093e 61c2 343e 147f de3d
000000c0: 2946 d63d 75f8 f03d cd2b 3e3e 0f98 e03d
000000d0: e1f7 5f3e 8057 1d3e
0.11294264 0.11627603 0.110489875 0.110181764 0.15620638 0.080729246 0.14511928 0.11173128
0.14730406 0.16408302 0.10797854 0.17133696 0.17618631 0.14195861 0.124141544 0.14151128
0.11988373 0.11622267 0.15655223 0.17764583 0.15288042 0.16938202 0.17442268 0.17408831
0.11696172 0.115609035 0.20648977 0.1631925 0.164204 0.1579067 0.1595984 -0.0026115426
0.13702448 0.09877944 0.1220576 0.13689822 0.10997978 0.1981378 0.11891676 0.1060854
0.13973247 0.113532454 0.14892633 0.120385595 0.18202004 0.13448526 0.17652275 0.10864082
0.10462601 0.117661394 0.18571396 0.10966503 0.21871902 0.1536541

motion_mlp.mlps.0.norm0.beta f4 [1, 54, 1]
00000000: 53fb 60ba e118 1f3b 06b1 213c 5479 9db9
00000010: 4f8f 0b3a 55a9 f6b8 1404 1b3b 4a9a 8b3a
00000020: a84b 94ba 3428 0f3b 9bdb df3b ac23 103a
00000030: a063 903a eee6 acb9 cf91 b13a 983b 7b3a
00000040: 9b95 e03a 1cca cfba da02 e73a c7c6 f339
00000050: 62a7 af3a cb1f 0f3a a6aa d439 a606 5f3a
00000060: dd8a 5abb 9fac 61ba 3037 dc3a 6d5f 543a
00000070: 0d9f c9ba 2282 6a39 daa7 073a 71ae b23d
00000080: a580 643a 596e 56ba 5969 bbba ea62 693a
00000090: 17db be39 5e49 d7bb cd29 6139 9186 8f3a
000000a0: dd95 6739 093b deba ac3f 97ba 1508 d8b9
000000b0: a773 b33a 9cd8 b33a 8a57 3b3a 42c0 85bb
000000c0: 4360 68ba dfb9 d2bb 9380 c63a abfc 653a
000000d0: 6c00 023b e978 34ba
-0.0008582372 0.0024276304 0.009868866 -0.0003003577 0.0005323784 -0.00011761735 0.0023653554 0.001065084
-0.0011314051 0.0021844031 0.006831599 0.00054984796 0.0011016019 -0.00032978453 0.0013547483 0.00095837703
0.001713443 -0.001585308 0.0017624751 0.00046496672 0.0013401324 0.00054597546 0.00040562934 0.00085077656
-0.003334693 -0.00086087914 0.0016801115 0.0008101378 -0.0015382484 0.00022364457 0.0005174853 0.08724678
0.00087166793 -0.0008179895 -0.0014298364 0.0008902984 0.0003640286 -0.0065700253 0.00021473244 0.0010950138
0.00022085705 -0.001695485 -0.0011539361 -0.00041204752 0.0013691083 0.0013721171 0.0007146528 -0.004081757
-0.0008864442 -0.006430849 0.0015144519 0.0008773307 0.0019836677 -0.0006884472

motion_mlp.mlps.1.fc0.fc.weight f4 [50, 50]
00000000: 5631 63bd 492d 11bd 6132 4b3d a32d f7bc
00000010: 8a0d 423c c2fd 90ba 64d6 193c 35b5 64bb
00000020: def1 c8ba ebff f7bc 0325 b13b e6dc 913c
00000030: 60d9 913c e94a 3fba 2ae1 47bc b09a 15bc
00000040: 267a 2bbc ca62 bdbc f871 dbbc c9ec 97bc
00000050: e125 8ebd 670f 5fbd 0d99 0abd fe08 c83b
00000060: de62 3abb be85 3fba 88c4 b23c 9fd6 6339
00000070: f273 febb c527 d33b 65c8 d4bc 6a99 8cbc
00000080: cc1b acbc e62f d8bc 6b0f b5bc 1906 f1bc
00000090: 2557 3fbc a2e9 823c f2c5 bfbc b944 bbba
000000a0: 46e7 883b 4058 5c3b becd 16bb 9453 edbc
000000b0: 3e78 873c 9df7 0dbd d947 84bc a0b5 13bd
000000c0: 8aa9 d13c 93fc afbb 0cdf abbb ff5d bfbc
000000d0: 667f 9b3d 2f90 f5bc f1ef 98bc 628b 783c
000000e0: 1c7d 71bd f46b 203b 6b01 523b 5acb ecbc
000000f0: 4c3d 98bb 4d0a a33c 42d8 febb 790a 583c
00000100: 2717 d43c 3cc4 28bc 976e bd3b ed84 913c
00000110: f7e0 c73b 4c31 76bc a894 893d 229a 983b
00000120: a644 433d 0472 21bd 5ed7 8ebc 2878 093a
00000130: cf03 7b3d 24b9 cb3c 685e 67bb 1d00 a4bb
00000140: 25a2 88bc 4eb6 abbc 7920 e8ba f79d 743c
00000150: 5bd6 5abc 89ce e73c b6f6 2c3c db4c 88bc
00000160: 3b6c 7cbb d0c3 dc3b 3a47 d93c c280 c3bc
00000170: 4b73 863b ce3d 7fbc 567f a03d fc7a 013d
00000180: 4181 d13b 8012 1cbc 05ca 083d 1f60 9cbc
00000190: 3d9b 78ba de3d 73bc 2e33 3cbc a828 a3bc
000001a0: 7f1d d23b 80d1 fe3a 3a73 b2bc 8c1e 953a
000001b0: 9497 bebc 9107 9e3c 4c59 253c 05a6 68bc
000001c0: e9f0 50bc fa7a 5b3c 7452 583c 40ad 78bc
000001d0: 2ee8 acbb 1b0b 083c 2fda a0bb 04f7 03bc
000001e0: 0a15 eebc d28f b73c 95eb 79be 7fee 833c
000001f0: fb53 6bbc df21 923c f2a3 dfbc 2740 f7bb
00000200: 9c1e cabc 4b17 9e3b 488a ffbc 7b10 f23b
00000210: 6026 5f3c 220f c83b 35ac a43b e9f4 8ebd
00000220: 71f9 983d 10ba 3c3c 9b16 75ba 48a7 ceba
00000230: b803 e1bc dd16 dbbc b8be a63c 8547 153c
00000240: a4ed b7bb 9de3 1e3c d858 a93a 88e9 903b
00000250: b032 013b 9d28 383b 984e 9dbc cfdb ff3c
00000260: 4a66 1e3d 2c79 b73c ab47 bf3c 1ba5 173d
00000270: ddf4 6fbd 8726 8eb9 c570 a43c 472c 673c
00000280: 5bca 80bb f160 163c dcdd b13b 1847 0c3c
00000290: 8077 4b3d 58f5 07bd 8386 33bc b27b d93c
000002a0: 9665 1abb 52f2 59bb 9b50 71bc 5512 ac3c
000002b0: 8e56 eebc 65d5 dbbc 9409 9dbb 7315 2b3b
000002c0: c43c 2dbc 5059 58bb 15d5 95bc abde cfbc
000002d0: 861f 203d 0926 c53c f6dd fc3c f5ed 2e3d
000002e0: f58d c5bc 01d0 65bc 340e 0a3d ae9a 55bc
000002f0: 5d14 11bc 455d acbc 23d9 a93c 8a71 3b3c
00000300: fac6 3bbb 3386 893c 9146 1dbd ec41 863c
00000310: 1f72 173d 2e65 1f3d 5935 58b6 ec03 9cbb
00000320: d946 95bc 3600 1bbc d191 d8bc 785f 11bd
00000330: 7b33 66bd b921 6dbc 4425 903d b9f5 6b3b
00000340: a838 81bd f8a8 9b3b 214e 1b3c 4f96 983b
00000350: 2179 e6bb f45d b03c 707b a73c 30e7 d13c
00000360: 1a16 bebb 65b0 82ba ad17 b93a 30c2 ccbc
00000370: 1a98 9ebb 99dc aa39 412b 0abc d607 9fbc
00000380: a32e 203d cbbe 353d c885 25bd 846d 21bd
00000390: 66b9 fa3c 3994 343d ab0c fdbc 36cd cfba
000003a0: e280 afbc b89d 29bc ead8 dcbc 579f f7bc
000003b0: c0d7 05bc 7a61 3d3c a801 d4bb f93c 373d
000003c0: 7f9f be3c c967 893d 2b54 8cbc 4540 bbbb
000003d0: e3c0 033d fe04 4b3c bc5f 9fbc b501 2abd
000003e0: b417 d43b 6e30 b43b b7b3 083d 5e86 cb3c
000003f0: bdf1 d0bc fb44 d73c e2aa 863c cb72 84bd
-0.055466972 -0.035443578 0.049608592 -0.030173128 0.011844048 -0.0011061954 0.009389494 -0.0034898047
-0.0015330871 -0.030273398 0.0054060235 0.017805528 0.017803848 -0.0007297234 -0.012199679 -0.009131119
-0.010466134 -0.023118395 -0.026787743 -0.018545525 -0.069408186 -0.05445805 -0.033837367 0.0061045876
-0.0028440277 -0.0007306001 0.021822229 0.0002172836 -0.0077652866 0.00644395 -0.025974462 -0.017162997
-0.021009348 -0.026390027 -0.022102078 -0.029421853 -0.011678492 0.015980545 -0.023409817 -0.0014287449
0.0041779606 0.0033621937 -0.0023010815 -0.028970517 0.016536828 -0.03465997 -0.01614754 -0.036061883
0.025593538 -0.0053706854 -0.005245095 -0.02336025 0.07592659 -0.029975979 -0.0186691 0.01516995
-0.058957204 0.0024478408 0.0032044302 -0.02890556 -0.004645979 0.019902373 -0.007777245 0.013186091
0.025889946 -0.010300692 0.0057810056 0.01776358 0.006099816 -0.015026402 0.06717807 0.004657046
0.04767289 -0.039415374 -0.01743668 0.000524404 0.06128293 0.024868555 -0.0035304073 -0.0050048963
-0.016678879 -0.020960953 -0.0017709873 0.01493024 -0.01335677 0.028296726 0.010556867 -0.01663821
-0.0038516659 0.00673721 0.026523221 -0.023865107 0.0041030995 -0.0155787 0.078367874 0.031611428
0.006393582 -0.009525895 0.033395786 -0.019088803 -0.00094835815 -0.014846293 -0.011486812 -0.019916847
0.0064122076 0.0019441098 -0.02178346 0.0011376902 -0.023265637 0.019290717 0.010092091 -0.014199738
-0.01275275 0.013396019 0.013203252 -0.015178025 -0.0052767014 0.008303429 -0.004908822 -0.008054499
-0.029062767 0.022407446 -0.24406274 0.016104935 -0.014363284 0.017838417 -0.027299855 -0.0075454894
-0.024672799 0.004824554 -0.031193867 0.0073872185 0.013619989 0.0061053196 0.0050254115 -0.06980307
0.07469452 0.01151897 -0.0009349377 -0.0015766406 -0.027467594 -0.0267443 0.020354614 0.00911129
-0.0056130458 0.009697822 0.0012920154 0.0044223703 0.001971405 0.002810038 -0.019202515 0.031232743
0.03867177 0.022396646 0.023349604 0.03702269 -0.05858313 -0.00027113056 0.020073304 0.014109678
-0.0039303727 0.009178386 0.005428059 0.008561872 0.04967451 -0.033192962 -0.010957363 0.02654824
-0.0023559085 -0.0033256006 -0.0147286905 0.021004835 -0.029094007 -0.026835153 -0.0047924016 0.0026105314
-0.01057357 -0.0033012219 -0.018290082 -0.025374731 0.039092563 0.024065988 0.030867558 0.042707402
-0.024115542 -0.014026643 0.03370495 -0.013037367 -0.008854953 -0.021040568 0.020733422 0.011440644
-0.0028652535 0.016787624 -0.038397375 0.016388856 0.03697407 0.03891485 -3.221756e-06 -0.0047612097
-0.01822226 -0.0094604995 -0.026436718 -0.035491437 -0.05620144 -0.014473372 0.07038358 0.0036004616
-0.063096344 0.0047503673 0.009479077 0.00465659 -0.0070334827 0.021529175 0.020444602 0.025622934
-0.0058009746 -0.0009970783 0.0014121436 -0.02499494 -0.0048399093 0.00032589285 -0.008433164 -0.019412916
0.039106976 0.044371407 -0.040410787 -0.039411083 0.030605983 0.04408667 -0.03088983 -0.0015854004
-0.02142376 -0.0103525445 -0.026958901 -0.030227346 -0.008169115 0.011558885 -0.006469924 0.044735882
0.023269413 0.067092486 -0.017129978 -0.0057144486 0.032166373 0.012391327 -0.01945483 -0.041505534
0.006472552 0.0054989373 0.033374514 0.024844345 -0.025505895 0.02627801 0.016438905 -0.064672075

motion_mlp.mlps.1.fc0.fc.bias f4 [50]
00000000: 61d3 5d37 2339 8a36 7e62 c737 f86d 0cb7
00000010: 6e67 afb4 ee15 5437 2e60 e9b6 20c7 ee35
00000020: 3c6e fa34 a76d cfb5 2e44 5b35 5a1d 54b6
00000030: 1830 0c37 ad7e 94b7 0c63 83b6 599c b035
00000040: 8191 e1b5 e427 15b6 3e24 d735 1f81 1b36
00000050: 2247 2f37 4c36 af35 c03f 82b5 298f 3ab7
00000060: d999 fd36 075a 1eb7 f73d 0bb7 2faf eab6
00000070: 6147 9c36 8cd7 d1b6 e49f 9136 7ae6 3637
00000080: b44c a736 4745 e8b6 6a57 ba37 d21a c6b7
00000090: c9bc 7e32 f075 c4b4 46f3 5b36 2c63 fd37
000000a0: c8b8 2035 36a3 4b36 37b7 b136 8992 e7b6
000000b0: 80dc 40b6 f924 9fb6 5d21 53b6 9a06 92b2
000000c0: 3de1 33b6 c1d4 e9b6
1.3221842e-05 4.119372e-06 2.3768513e-05 -8.370254e-06 -3.2671545e-07 1.2641291e-05 -6.955138e-06 1.7790335e-06
4.6646335e-07 -1.5454615e-06 8.168307e-07 -3.1607547e-06 8.355848e-06 -1.7701963e-05 -3.915635e-06 1.3158525e-06
-1.6806154e-06 -2.222595e-06 1.6029296e-06 2.3171958e-06 1.0447375e-05 1.3054319e-06 -9.704308e-07 -1.1119796e-05
7.557898e-06 -9.438495e-06 -8.299473e-06 -6.9941375e-06 4.657472e-06 -6.2537783e-06 4.3399505e-06 1.0901707e-05
4.9859173e-06 -6.9222037e-06 2.2213633e-05 -2.3615929e-05 1.4827671e-08 -3.6593656e-07 3.2775147e-06 3.020613e-05
5.9873537e-07 3.0344358e-06 5.29634e-06 -6.9013954e-06 -2.8738577e-06 -4.7428734e-06 -3.146087e-06 -1.6999639e-08
-2.6804184e-06 -6.968709e-06

motion_mlp.mlps.1.norm0.alpha f4 [1, 54, 1]
00000000: 3c95 a03d 146a 833d 964b 2a3e 5b4d a53d
00000010: af41 8c3d 9ba3 a73d 0d52 773d 0bf4 963d
00000020: 962f 753d 4205 dc3d e04b 0a3e 5135 803d
00000030: 2fcc 953d e8b9 9c3d d6b6 613d fe9c aa3d
00000040: 7df4 913d 8d17 8f3d 424f ab3d 6868 3d3e
00000050: aa5f 8a3d 41a5 963d 34b2 ad3d 5f33 923d
00000060: 1968 b93d 6e33 a93d b2eb 8b3d 16f8 6f3d
00000070: 8278 7f3d c426 903d a6d7 9d3d 5521 d73c
00000080: 5378 263d 397f 6f3d 094f c43d 3d98 7d3d
00000090: aff2 833d 2379 c23d abab 823d 007a b93d
000000a0: 2159 953d f4f7 993d 5084 a73d a609 8d3d
000000b0: 426d 9b3d b165 ac3d aca4 443e 64bc 8b3d
000000c0: edcb b03d 580e 013e 5362 873d 86d4 9f3d
000000d0: 7e43 913d 9433 db3d
0.07840964 0.06416717 0.16630396 0.08071395 0.06848466 0.08185502 0.060380984 0.07370766
0.059859835 0.1074319 0.13505507 0.06260169 0.073143356 0.07652646 0.055106007 0.08330725
0.071267106 0.06986914 0.083647266 0.18496859 0.06756528 0.073557384 0.08481255 0.071387045
0.09053058 0.082617626 0.06832065 0.058586203 0.062370785 0.07038644 0.07707147 0.026261011
0.040642094 0.05847094 0.09585387 0.061912764 0.064427726 0.09495761 0.06380399 0.09056473
0.072923906 0.075179964 0.081795335 0.06886606 0.07589199 0.084178336 0.19203442 0.06823042
0.08632646 0.12603128 0.06610551 0.078042075 0.07092951 0.10703197

motion_mlp.mlps.1.norm0.beta f4 [1, 54, 1]
00000000: 962d 01bc 8a9b 7a3c f6a4 28ba 1807 aebb
00000010: ee11 9d3a 3c46 8abb f9c5 c8bb c2c2 f8ba
00000020: 2eb5 1ebb d9cc 00bd 47dc cf3c b847 1abb
00000030: 8292 8e3a 6ecf b7bb 3f77 ba3b 2f68 b33c
00000040: 5000 503c 316a e93b a056 c0bc f858 463b
00000050: 2b2e e13a bc48 0ab9 2990 93bb 5d88 a83a
00000060: 9706 503c 5258 483c a107 40bb 0c3a 5f3b
00000070: f3e2 8d3b e577 54ba f94e 163b 1960 863b
00000080: da40 94bc 7202 b0b9 c4fd cbbc 31fd 333b
00000090: 5d1a 01ba eac0 563d 3d6a 6db9 92f7 c03c
000000a0: 908a e73a a824 e0bb 3f11 eb36 a20b e83a
000000b0: 9827 93bb 5135 573b 7d50 07bb c618 4dbc
000000c0: ee34 8dbb 174d 8d3c eab8 3b3a 724d 37bc
000000d0: d9a1 043c 7a3c 4ebc
-0.007884404 0.015295872 -0.00064332725 -0.0053109042 0.0011983493 -0.0042197984 -0.006127116 -0.0018978941
-0.0024216878 -0.031445358 0.025373591 -0.0023541283 0.0010877403 -0.0056094443 0.005690485 0.021900265
0.012695387 0.0071232547 -0.023478806 0.0030265432 0.0017179897 -0.00013187801 -0.004503269 0.0012858022
0.012696884 0.012228088 -0.0029301422 0.0034061698 0.004330033 -0.0008105024 0.0022935255 0.004100811
-0.01809733 -0.00033571158 -0.024901278 0.0027464146 -0.0004924888 0.05243007 -0.00022641658 0.02355555
0.0017665196 -0.0068403073 7.0055535e-06 0.0017703662 -0.004490804 0.0032838176 -0.002064734 -0.0125181135
-0.004309288 0.017248673 0.0007161038 -0.011187898 0.008095228 -0.012587661

motion_mlp.mlps.2.fc0.fc.weight f4 [50, 50]
00000000: 925c bebc 7ed0 92bc ef87 213c 1970 fabc
00000010: 901f 74ba adf5 193a 7012 15bd 00a9 4fbc
00000020: 9889 d23c fd7d 60bc a1ff 4cbc 310a 8e3b
00000030: ca79 97bc 7f37 f93a 9841 b5bb 7fde 90bd
00000040: ef30 8bbb db84 17bd 6131 ecba daf1 853d
00000050: 00ca d2bc 4fcd 93bc e6c8 a1bc e218 a4bc
00000060: 6710 153d cde9 11bb a794 c5bc a43d d03c
00000070: d87d b2bc 1177 46bc ad47 403c c375 debc
00000080: 1d9f 61bc d073 a6bb a576 c4bc ad68 51bc
00000090: 7f39 39bd 3fe2 a4bc 40d5 aabc f730 99bc
000000a0: 25c7 553c 02c7 15bc d751 b63c 3385 98bb
000000b0: 6d6b 27ba 58cf 8fba 47a7 0b3d 76c7 99bc
000000c0: bccf d13c 68c1 5bbc 82e5 7c3b 9758 cabc
000000d0: 7fa7 03ba 7ea1 02bd 032a 95bc c724 6dbb
000000e0: 80ad 51bc e1f8 24bd 2796 23bc ad08 98bc
000000f0: 8af2 20bc 7efd c73b ff70 27bd 52fb f93c
00000100: c664 c8bc 3aa5 14bd e4fa 7ebc 6ff3 45bb
00000110: 9eed 11bc 0ec4 0c3d 738d 4cbc c3cb 34bc
00000120: 989a 11bd b1f1 8d3c 55d8 c0bc d9ca 8fbb
00000130: adb9 0fbd 197e 7dbc 43c2 1cbd 0f0a 88bc
00000140: b045 9fbb d396 dd3b 22cc 83bc 257f 993c
00000150: 1945 81b9 f0f9 2cbc be1c cfbc e5eb 533b
00000160: 3e6f a6bc b6c5 37bc d26b 9ebb 3a59 3e3c
00000170: 23df bebc 1fd6 8c38 4ceb 113c 1864 d83b
00000180: 9f1d 69bc 463b 93bb ed4b aa3c a94e 2ebb
00000190: 16b5 0b3a f745 54bc 3efd a53b b3a9 4dbc
000001a0: e639 44bc c15c 353d 757b 45bd adf0 38bb
000001b0: 30ca 003b dab0 063c 05ce c6bc 41cd c33b
000001c0: 11ea 243c 5db8 0e3c 13c1 d8bb 240d 22bd
000001d0: 4984 2ebc 4d9d 3bbb b230 103c 09c8 593c
000001e0: 4bd9 e2bd 62b2 35bc 4492 cabc b29b 93bb
000001f0: 74af e8bb 35d4 5ebc a85b bfba 1381 473c
00000200: 13ff 7ebb 7943 993b 7443 b0ba d78b febb
00000210: 5a86 1c3b b463 9c3b ef61 eb3c 9c78 5bbd
00000220: cee2 57bc 0942 d13b 1d14 fcbc bf54 133e
00000230: ba26 1bbc c499 b63c 188a 483c f931 d43c
00000240: 2bcd 993b 09df b83c e7d4 743c c0f2 203c
00000250: b24c 633b 0ecb fe3c a47a 843c b228 ff3c
00000260: 2d46 b43c 5f6e 8bbd 56c8 0fbd ebb4 f1bb
00000270: 9dec c83c 1d97 0ebc 4802 a43c 9fc5 66ba
00000280: 9ec7 bc3c ac70 16bb 7619 debc 46ee 553b
00000290: 411f 583c 55c6 ff3a e252 9c3b f6cc c7bb
000002a0: 1337 f43b 7625 6a3c 178a eb3b c94d ebbb
000002b0: 008d 7dbc 41f5 8e3d 0fbb bbbc f16b c93c
000002c0: fe23 063d 27d7 913b a7da baba a8ae 9b3c
000002d0: 6529 0d3d 97d5 6c3b c81a 973c 8900 cd3b
000002e0: d386 163c f95c 873a 8dfa 9d3c 13c4 f53b
000002f0: 2e06 6c3c fc17 b43c 478d 9ebc 75a9 17bc
00000300: 2e60 a4bb ce0f 543c dd15 05bc d932 18bd
00000310: 0e10 c73c a111 9b3b ce76 56ba bd47 393b
00000320: 53a6 e73c 498f 643c 7f9a ce3a 54db 533c
00000330: 2ade e4bc 7a46 10bd a51d 16bc 357c 95bc
00000340: b242 a13c def6 45bc 9666 9bba 3890 27bc
00000350: 21ca 513d 7738 0f3c ca46 98bc ef8e 9b3b
00000360: ffc3 2b3c 3be0 00bd e5c4 05bc ecc8 513c
00000370: 7750 9bbc 7339 e83b 67ae 3bbd bc41 c9bc
00000380: 7194 073d a293 063c e02d 1f3c e2a7 ae3c
00000390: f4f7 983b 2afd 28bc dcae 393c c994 893d
000003a0: 9605 cf3c 5abe c0bb 8ab0 f93b 23b1 0fbd
000003b0: 4d2f 8fbc 0d0f 3bbc c513 0e3c bc7b 433c
000003c0: b41e 60bb 1147 e7bc 21c9 d03a 2965 803c
000003d0: 8ba4 d13c 7231 003b f51a fcbc 9b09 14bc
000003e0: da5a 80bb 0add 8dbb 7d38 fabb 53fa 6cbd
000003f0: ca14 65bb d0f0 963c 5878 203c d747 d5bc
-0.0232375 -0.017921682 0.009859069 -0.03057103 -0.00093125645 0.00058730954 -0.036394536 -0.01267457
0.025700375 -0.013701913 -0.012512119 0.004334711 -0.01849069 0.0019013732 -0.005531501 -0.07073688
-0.0042477767 -0.036991935 -0.0018020087 0.0654027 -0.025731087 -0.018042235 -0.019749116 -0.020031396
0.036392596 -0.00222646 -0.024118735 0.025420018 -0.021788523 -0.012113349 0.011735839 -0.027155763
-0.013770846 -0.005079724 -0.023982355 -0.012781304 -0.04522085 -0.020127414 -0.020853639 -0.018700106
0.013047968 -0.009141685 0.022255821 -0.0046545505 -0.0006386552 -0.0010971827 0.034095075 -0.018771868
0.02561175 -0.013412811 0.0038588946 -0.024700446 -0.0005022212 -0.031892292 -0.01820851 -0.003618525
-0.012797713 -0.040276412 -0.00998453 -0.018558824 -0.009823451 0.0061032167 -0.040879246 0.030515347
-0.024462115 -0.036290385 -0.015562747 -0.0030204912 -0.00890675 0.03436666 -0.012484896 -0.011034909
-0.035547823 0.017327162 -0.023540655 -0.004388195 -0.035089184 -0.015471959 -0.0382712 -0.016606359
-0.0048606023 0.0067623644 -0.016088549 0.018737385 -0.0002465628 -0.010557637 -0.02528226 0.003233665
-0.020316716 -0.011216572 -0.0048346305 0.011617953 -0.02329976 6.7156034e-05 0.008906197 0.006603729
-0.014228254 -0.00449315 0.020788157 -0.0026597178 0.0005329413 -0.012956134 0.005065589 -0.0125526665
-0.011976695 0.04427791 -0.04821344 -0.0028219626 0.0019651763 0.008220876 -0.02426816 0.005975396
0.010065571 0.008710948 -0.006614813 -0.039563313 -0.010651656 -0.0028627694 0.008800672 0.013292321
-0.110766016 -0.011089893 -0.024727948 -0.0045046443 -0.007100994 -0.013600399 -0.0014599459 0.01217677
-0.003890936 0.004677233 -0.0013447837 -0.007768135 0.002388379 0.0047726277 0.028733222 -0.05358182
-0.013176633 0.006386046 -0.03077131 0.14387797 -0.009469682 0.022290118 0.012239955 0.025902735
0.0046936474 0.022567289 0.014943338 0.009823501 0.0034683165 0.031102683 0.01617176 0.031147335
0.022006119 -0.06808161 -0.035103165 -0.0073763034 0.024526889 -0.00870302 0.020020619 -0.00088032515
0.023044404 -0.0022955341 -0.02711175 0.0032643243 0.013191045 0.0019514064 0.0047706226 -0.0060974313
0.0074528544 0.014291158 0.0071880925 -0.0071809036 -0.015475512 0.06980372 -0.022916345 0.024587603
0.03274917 0.004450697 -0.0014255837 0.019004181 0.034463305 0.0036138052 0.018445387 0.0062561673
0.009187418 0.0010327391 0.019284511 0.0075001805 0.01440577 0.021984093 -0.019354476 -0.00925671
-0.0050163483 0.012943221 -0.008122888 -0.037157867 0.024299648 0.004732326 -0.00081811554 0.002827152
0.028277552 0.0139501775 0.0015762596 0.01293071 -0.027937967 -0.03522346 -0.009162341 -0.018247703
0.019685123 -0.0120827835 -0.0011856135 -0.0102272555 0.051218156 0.00874149 -0.018588442 0.0047472636
0.010483741 -0.031463843 -0.008164619 0.012804251 -0.018959267 0.0070869266 -0.04582062 -0.024567477
0.03310055 0.008213909 0.009715527 0.021320287 0.00466823 -0.010314265 0.011333194 0.06717832
0.025271218 -0.0058820667 0.007619922 -0.03508104 -0.01747861 -0.011417163 0.008671706 0.011931356
-0.0034197988 -0.02823213 0.0015929082 0.015673237 0.025591156 0.0019560722 -0.030774573 -0.009035493
-0.0039170804 -0.0043293284 -0.0076361285 -0.057855915 -0.0034955018 0.018425375 0.009794317 -0.026035232

motion_mlp.mlps.2.fc0.fc.bias f4 [50]
00000000: bb05 fb35 80a0 8d35 181b 1a37 3609 c0b5
00000010: c4fb 2c31 9114 b135 5518 26b7 dfbd 15b6
00000020: b5cb 0a36 ceb6 a0b6 cd17 a2b6 da98 c636
00000030: 0022 beb5 142b 13b5 cac3 2ab3 8dc8 89b2
00000040: 22a7 3db6 1927 6336 3687 2f36 1ea7 e636
00000050: f19c bf35 8c7f 7336 7ee5 bab6 fd23 4436
00000060: e092 0137 0a15 07b6 05b2 a035 e2ba f4b5
00000070: c58c 2db6 6cbe 05b5 2c9b acb5 006d 04b6
00000080: ab6e a435 b546 9f35 9566 7936 f3a0 33b6
00000090: 1178 e236 d04a 2635 5307 9b36 d6f0 0536
000000a0: 798b 08b6 fcea 9eb6 1f6c c934 0aef 80b2
000000b0: 273a 8a36 724a 9cb6 3a08 3336 7bf5 7036
000000c0: bd5b 7f36 ac02 0335
1.8702625e-06 1.055203e-06 9.185424e-06 -1.4307795e-06 2.5172406e-09 1.3193513e-06 -9.900036e-06 -2.231325e-06
2.0682176e-06 -4.789653e-06 -4.830747e-06 5.918654e-06 -1.4165998e-06 -5.4824454e-07 -3.975928e-08 -1.6040099e-08
-2.8260479e-06 3.3848394e-06 2.6155735e-06 6.873989e-06 1.4276285e-06 3.6284064e-06 -5.5699484e-06 2.9227224e-06
7.723196e-06 -2.0128814e-06 1.197274e-06 -1.8233807e-06 -2.5860948e-06 -4.982346e-07 -1.286016e-06 -1.973298e-06
1.2251161e-06 1.1867002e-06 3.7163602e-06 -2.6766763e-06 6.7493024e-06 6.1948685e-07 4.6202126e-06 1.995873e-06
-2.0346763e-06 -4.7361227e-06 3.7517836e-07 -1.5009864e-08 4.1194903e-06 -4.657829e-06 2.6677867e-06 3.5905675e-06
3.805136e-06 4.880519e-07

motion_mlp.mlps.2.norm0.alpha f4 [1, 54, 1]
00000000: 6da0 853d 81a2 613d eabd 853d 4fb3 4a3d
00000010: 6d99 cf3c a058 373d 1528 f23c 7fbd 0f3d
00000020: bcf9 183d e9e8 803d fee7 923d 0129 fe3c
00000030: 9416 0e3d df5d 2a3d d6f2 233d de0c 333d
00000040: 901e 503d 566c ec3c 6aa2 5e3d 69c6 e53d
00000050: c13e 0c3d 6a72 143d d5bc 103d c4f7 ef3c
00000060: 2da5 733d 4674 893d 1cfa 1d3d f2b1 123d
00000070: f23b fe3c 632c 1b3d c5c2 1c3d c397 423c
00000080: e1b4 073d b858 543d a9c0 403d fec3 303d
00000090: 8112 0a3d 9a43 793d 7625 1f3d c0be 933d
000000a0: 5308 2b3d 4c6b 333d 6493 403d 8611 023d
000000b0: 754a ed3c 93e1 2d3d 1383 e03d 3697 383d
000000c0: df12 623d c6dd b63d e60c f83c 57dd 8b3d
000000d0: 799d 853c c5fd 483d
0.065247394 0.055086616 0.06530364 0.04948741 0.025341714 0.044762254 0.029560128 0.035092827
0.03734754 0.06294424 0.07173155 0.031025412 0.0346895 0.04159343 0.04002651 0.043713443
0.050810397 0.028860252 0.05435411 0.11219484 0.034239534 0.036241926 0.035336334 0.029292949
0.059483696 0.067116305 0.0385686 0.035814233 0.031034444 0.037884127 0.038271684 0.011877003
0.033131484 0.05184242 0.047058735 0.043155663 0.033709053 0.060855485 0.038854085 0.07214117
0.041755985 0.0438035 0.047015563 0.031754993 0.028966168 0.042451452 0.109625004 0.04506608
0.055193778 0.08929019 0.030279588 0.068293266 0.01631044 0.04907014

motion_mlp.mlps.2.norm0.beta f4 [1, 54, 1]
00000000: 65f2 95bc 4777 b338 61b6 453d 6430 72ba
00000010: 33c0 2d3b aa4a c93a 4b97 b03b 4ea5 7ebb
00000020: 7ed3 74bb 3773 2b3c b3bd 303d 6a2c 553b
00000030: 2f5d bc3a 30cf ee3b 6cc4 03bc 21c3 16bc
00000040: f68e 38bc 3a88 cc3a 6e90 af3b 7790 afbc
00000050: 0887 613b b7d5 923a 351c 57bb 38a3 93ba
00000060: df3b 97bc a884 b6bb 0320 f6b9 ee7a c0bb
00000070: 8158 1bbc 4622 013b 20a4 493a fefc 6eba
00000080: 2bd9 953c 9e5d 9b3b 80c3 b0bc 942d 1eba
00000090: 9005 9dba b93a 353d dc49 01bc 7638 68bc
000000a0: d072 29bb 255b ad3a 9355 1d3c e941 1abb
000000b0: 9b7b 2e3b 4a06 42bb cc22 b53b e607 773c
000000c0: 4d82 edb9 d765 41bc e942 e5bb 3e85 84bc
000000d0: 9375 d3bb 9d37 a0bb
-0.01830406 8.557602e-05 0.048269633 -0.0009238778 0.0026512265 0.0015357335 0.0053891293 -0.0038855853
-0.0037357504 0.010464481 0.04314966 0.0032527694 0.0014371033 0.0072878823 -0.008042436 -0.009201796
-0.011264553 0.0015604564 0.0053577935 -0.02143119 0.003441276 0.0011202608 -0.003282321 -0.0011263853
-0.018461166 -0.005570013 -0.00046944627 -0.0058740294 -0.00948155 0.0019704266 0.0007691998 -0.0009116678
0.01829203 0.0047413846 -0.021577597 -0.00060340133 -0.0011979807 0.044245455 -0.007891145 -0.014173618
-0.0025855787 0.0013226016 0.009602922 -0.002353782 0.0026623968 -0.00296058 0.0055278298 0.015077567
-0.00045301244 -0.011804066 -0.0069965017 -0.016176816 -0.006453225 -0.004889442

motion_mlp.mlps.3.fc0.fc.weight f4 [50, 50]
00000000: 9fd7 fdba 2118 09bd 0741 803d 396a 56bc
00000010: c5cf 78ba 9ce2 0ebb 9303 fd3c 71be 0abb
00000020: 096a 153d a3d8 a1b9 2935 403c 891b a3bc
00000030: d7da 09bb ffaf f239 0cb3 7cba d339 293d
00000040: 6e65 283c d718 803c bd79 7cbc cb36 14bc
00000050: a4dd a9bc 18a1 80bc b806 0abd ad2b ddbb
00000060: e5c6 b43c dc60 ab3c 2230 223c 6594 cc39
00000070: b512 1a3b 0b37 aa3c 52ec 8abb 4e09 f53b
00000080: 5381 2e3c 50a6 e73b 440c 993c 1159 6abd
00000090: 4bea 18bc fdcc 833c f970 01bd f62f 3e3d
000000a0: 233c 893c 3a79 903c 783c b23c 9072 e13c
000000b0: bbca bfbc f0da b7bc 8f0c 84bc ad00 023c
000000c0: 4d16 a8bc d02e 90bb 404a 453b 935d 85bd
000000d0: 568a 3c3c 6750 03bd 2ea9 d33c 184a b83b
000000e0: 12c6 553c 2968 40bc 03e5 613b f66b b1bc
000000f0: 7aa6 8a3b 9510 f53c 024b 37bc 8022 a53c
00000100: 3625 aebb a88b a93c e866 f2bb eb2d b1ba
00000110: eeb5 5ebb 4044 c73c a1ef 753c c5dc dabc
00000120: 444e a4bc 83ab 863d e5da d7bc d68f 3e3b
00000130: adc2 d8bc 943c f43a be32 373b a7b1 6f3c
00000140: 7b8b 37bd 3536 50bd aedf 523c 2d9e 8cbc
00000150: a022 40bb ea8d bdbb 5bb5 7ebc d600 cdbc
00000160: 78ef b83b 4a74 e6bb 760e acba 0782 99bc
00000170: 1906 b43b d057 9fbb f7b8 1dbd aa1d b6bc
00000180: 5417 b93c a39d 1abc 4206 063c b194 02bc
00000190: db94 ae39 39f7 623a 8ec6 69bd b1da cfbb
000001a0: 30b4 eaba 196d ec3c 2163 d03c bf15 4cbd
000001b0: 72d8 3a3b a46a ccbc 143a e4b6 3a9b 593c
000001c0: 9d84 40bb 98ac 35bd 602e 4a3c 0f4e eebc
000001d0: 9aac 07bc b693 d7bc 14d7 8c3c cd0c eebc
000001e0: 131f 08bd 48af 01bc 45c3 07bc 7f41 0dbd
000001f0: 0480 62bb f338 c7bc 39d3 4f3d 1b06 e23b
00000200: cf95 9ebc 2033 73bb 6d9d 373d 6b35 093c
00000210: 7719 bfbc d1df 303c bd35 e5bb b1fc dcbb
00000220: dab9 5f3b 2c7c f83b 19b0 083d 944a 9b3b
00000230: 92af f439 9d96 2c3b 6246 3cbc 0fc2 46bc
00000240: 9085 0a3c 101b 08bc 4890 87bc 79ef eebc
00000250: 253c 9f3b 0208 063d 1125 24bc 3a5c 883c
00000260: 53e9 e4bb 514d cd3a b1b0 523c 49bd 1fbc
00000270: 6195 46bd 4298 9c3c f6ae 4ebb c96a 6f3c
00000280: 132d 753c 38cd 96bc 3f9a 713c 67f8 e8bc
00000290: 2974 92bc 3186 3fbc 77b4 543b 0419 01bc
000002a0: 5c52 9a3c 222d 28bd dba4 3ebc 4554 943b
000002b0: e73d d63c ef20 b2bb 5035 8c3c a66f cb3c
000002c0: a6c5 02bb 1c7b 7fbd 4faa e03c e4b4 243d
000002d0: 3bfa 49ba e766 1e3d 5e36 c8bb b36a 403c
000002e0: 7f3d 443c f67e 4b3c 3418 003d af9f 8f3c
000002f0: 060b 2dbd 4aa5 c33b bdcd 8c3c ca26 90bc
00000300: f283 92bc f214 2ebd 2cd3 7bbc b7fd 0dbc
00000310: ddc7 1b3d 9793 1338 0f1f 7dbc f1c1 3eba
00000320: 0416 ca3c d314 b9bc 0aec 99bc ece6 8cbb
00000330: 651e e63c 4fd2 79bd 6355 793d 2822 893c
00000340: a390 76bd e745 67ba bb28 85ba b587 00bd
00000350: 934c 06bd 3302 4e3c 1612 53bb 56b3 5a3c
00000360: ea21 cc3c 39f4 debb 9eec 4d3c f22f 183d
00000370: 431f 123d 1d13 c5bc 02be 19bc 73c6 9b3c
00000380: fe81 e93c 6acc 0cbc b7bc eebb 1d9f 883c
00000390: af94 3fbc 7cc0 bebc 7311 17bd 0958 8b3b
000003a0: eb50 95bc 7a4e 27bd 6c2f 0e3d 4536 1eba
000003b0: aab6 fcbc a21c 323c c4df 063c 98f1 f53c
000003c0: 2d98 5d3c 19ea 373d 7f8b 893b 50b4 78bc
000003d0: 6c8c 5dbc 5fd5 c1ba 5311 d6bb 038f 953c
000003e0: 13c3 1a3c a00f 85bc 931e 793c 70b2 84bc
000003f0: 653e c0bb 4dc5 a2bb e4b4 0dbd 084a dcbc
-0.0019366628 -0.033470277 0.06262403 -0.013086849 -0.00094914093 -0.002180255 0.030885493 -0.002117064
0.036478076 -0.0003086972 0.011731424 -0.01991059 -0.002103498 0.00046288964 -0.0009639717 0.04131491
0.010278089 0.015636845 -0.015409884 -0.009046267 -0.02073557 -0.015701815 -0.033697814 -0.0067495913
0.022067497 0.02092021 0.009899171 0.00039020475 0.0023509685 0.0207782 -0.0042395974 0.007477916
0.0106509505 0.0070693865 0.018682607 -0.057213847 -0.009333204 0.016088957 -0.03160188 0.046432458
0.016752308 0.01763593 0.02175735 0.027520448 -0.0234121 -0.022443265 -0.01611927 0.007934731
-0.020518446 -0.0044001117 0.003010407 -0.065119885 0.011507591 -0.0320591 0.025837507 0.005624067
0.013047712 -0.011743584 0.0034468777 -0.021657925 0.0042312713 0.029915133 -0.011187317 0.020158052
-0.0053144945 0.020696476 -0.0073975213 -0.0013517713 -0.003398295 0.024324536 0.015010745 -0.0267166
-0.020056851 0.06575682 -0.026349494 0.0029077432 -0.026460016 0.0018633776 0.0027953829 0.014629758
-0.044810753 -0.050832946 0.012870712 -0.017165268 -0.0029317513 -0.0057847397 -0.015546168 -0.025024813
0.0056437813 -0.0070329057 -0.0013126868 -0.01873876 0.005493891 -0.004862763 -0.038506474 -0.022230942
0.022594132 -0.009436998 0.008180203 -0.007970021 0.00033298772 0.0008658055 -0.057074122 -0.0063432087
-0.0017906483 0.028860616 0.025437893 -0.049825426 0.002851036 -0.024953194 -6.8016907e-06 0.013281638
-0.0029375919 -0.04435405 0.012340158 -0.029089956 -0.0082808975 -0.026315551 0.017192401 -0.029058838
-0.03323276 -0.007915325 -0.008286302 -0.03448629 -0.0034561167 -0.024319148 0.050738547 0.0068977005
-0.019358544 -0.003710933 0.044827867 0.008374552 -0.023327572 0.0107955495 -0.0069949315 -0.0067439904
0.0034137876 0.007583162 0.033371065 0.004739115 0.00046670117 0.002633489 -0.01149139 -0.012131228
0.008454695 -0.008307233 -0.01654829 -0.029166924 0.0048594647 0.03272248 -0.010018603 0.01664554
-0.006985822 0.0015663301 0.012859509 -0.009749719 -0.048482303 0.019115571 -0.003153739 0.014612862
0.01496436 -0.018408403 0.014746248 -0.02843876 -0.017877655 -0.011689709 0.0032456198 -0.007879499
0.0188381 -0.041058667 -0.011635984 0.0045266473 0.026152564 -0.005436055 0.017115265 0.024833512
-0.0019954233 -0.062373266 0.02742496 0.040211573 -0.0007704829 0.038672354 -0.0061099967 0.011744189
0.011977552 0.012420407 0.031273082 0.017532198 -0.04224684 0.0059706317 0.017187947 -0.017596621
-0.017885182 -0.042500444 -0.0153701715 -0.008666447 0.0380324 3.5184985e-05 -0.0154492995 -0.00072768243
0.024668701 -0.022592938 -0.01878931 -0.004299989 0.028090665 -0.06099158 0.060872447 0.01673992
-0.06019653 -0.0008822367 -0.0010159233 -0.03137942 -0.03278787 0.0125737665 -0.0032206825 0.013348421
0.024918515 -0.006804016 0.012568621 0.0371551 0.035674345 -0.024056965 -0.00938368 0.019015526
0.028504368 -0.008593658 -0.00728568 0.016677434 -0.011693164 -0.023285143 -0.036881875 0.004252438
-0.018227061 -0.040846325 0.034713194 -0.00060353085 -0.03084882 0.010871084 0.008232061 0.030022427
0.013525051 0.044900987 0.0041975374 -0.015179709 -0.013522249 -0.0014788321 -0.006532827 0.01825667
0.009445923 -0.016242802 0.015205043 -0.016198367 -0.005866813 -0.0049673677 -0.03459634 -0.02689077

motion_mlp.mlps.3.fc0.fc.bias f4 [50]
00000000: dace 9836 9578 b435 fb5c 6336 16b8 54b6
00000010: 2ab5 9fb4 fa7f bab5 cfcb ee35 658c 0fb7
00000020: 9bdb 1235 edf0 ccb6 9279 fb36 c030 b436
00000030: 7297 1cb2 3049 4636 f19e ed35 d2a0 75b5
00000040: c39b bd36 8133 7fb6 2ba3 d534 484c 2136
00000050: bb1a 96b6 6c35 3c35 ca07 a0b5 41f0 e834
00000060: 7e9a 81b6 7c81 5936 dcc5 0a36 a240 8736
00000070: c769 d8b6 0e9c 19b6 f094 2535 bbd6 a0b5
00000080: 416a ae36 e11e 0637 4b5e fbb5 930a 8036
00000090: 56b0 25b6 2927 94b6 2409 8c36 58f4 b736
000000a0: c56f 2cb6 128c 0536 96c1 2935 fe39 0e37
000000b0: 017d 49b6 0c90 96b4 bdb6 73b6 1cb7 0e35
000000c0: 8ad0 92b6 77bb 7e36
4.5540337e-06 1.3446139e-06 3.3879758e-06 -3.1697614e-06 -2.9747872e-07 -1.3895326e-06 1.7791698e-06 -8.556152e-06
5.4708806e-07 -6.107721e-06 7.4945356e-06 5.3700933e-06 -9.11483e-09 2.95469e-06 1.7704134e-06 -9.1503637e-07
5.650772e-06 -3.802794e-06 3.9793062e-07 2.403527e-06 -4.47346e-06 7.0113197e-07 -1.1923196e-06 4.3388175e-07
-3.862485e-06 3.241089e-06 2.0678772e-06 4.0308378e-06 -6.4496157e-06 -2.2889612e-06 6.168402e-07 -1.1983424e-06
5.1979737e-06 7.994212e-06 -1.87284e-06 3.8159283e-06 -2.4689557e-06 -4.4153026e-06 4.1733892e-06 5.4822704e-06
-2.5695056e-06 1.9900076e-06 6.323911e-07 8.477362e-06 -3.0024096e-06 -2.8044485e-07 -3.631619e-06 5.316558e-07
-4.375416e-06 3.7958068e-06

motion_mlp.mlps.3.norm0.alpha f4 [1, 54, 1]
00000000: 318b 793d 0495 8a3d 310f d13d 20af 373d
00000010: f742 053d 4fac 123d d240 a33c 2848 103d
00000020: 7a1a 263d 8e66 863d bf34 e73d 0396 2c3d
00000030: 7728 493d e5f2 343d 0604 793d f6b5 573d
00000040: 960a 593d 307a 233d 84f9 3f3d a9ac 1e3c
00000050: 03c3 583d 10d9 513d 20cb 2c3d c5fa 3a3d
00000060: 8679 843d 3dce b83d e383 3e3d 5acb 533d
00000070: cea6 9e3c f547 633d d061 c33c 706e 793c
00000080: 8c85 5e3d 4504 273c ec6a c33d b6f7 3f3d
00000090: a6c9 e33c 12dd ae3d 39ed 6e3d 7b57 833d
000000a0: 8917 8c3d 238d 7d3d d672 373d 914d 813d
000000b0: 19d7 323d e484 493c ab5e 413c 959f 233d
000000c0: a8d2 633d 3bd2 ee3d 851a 2a3d bad9 a63d
000000d0: 18bb ad3d 6bbf d53c
0.06092376 0.06766704 0.10207976 0.044844747 0.032534566 0.035808858 0.01992837 0.035225064
0.040552594 0.065625295 0.112893574 0.04213525 0.049110856 0.044176955 0.060794853 0.052663766
0.05298861 0.03991145 0.046868816 0.00968472 0.052920353 0.051232398 0.042185903 0.04564931
0.06468491 0.09023712 0.046512496 0.051707603 0.019366648 0.055488545 0.023850352 0.015224084
0.05432658 0.010193889 0.09541878 0.046867095 0.027806114 0.085382596 0.058331702 0.0641317
0.068404265 0.061902177 0.04478725 0.06313623 0.043662164 0.01229975 0.011802356 0.03994711
0.05562082 0.11661192 0.041529197 0.08146997 0.08482951 0.026092252

motion_mlp.mlps.3.norm0.beta f4 [1, 54, 1]
00000000: e95d 383c d374 443b 844d bc3c ca9f 56bb
00000010: bfaa 13ba 8c60 99b9 4c38 d2ba 802e 1b3c
00000020: 83ce a8ba 152b d7bb 6b24 96bb 1a88 45bb
00000030: 85b7 97b7 b61e 04bc 1b0e 0a3b 6027 223b
00000040: 6c77 08ba 6d50 e2bb 10b0 cdbb 66dc b53c
00000050: 9b13 12bb 1a7e 66bb 84ec 843b 4ca9 ef3a
00000060: 7f00 b5bc 679d f2bb 0890 3838 47da 0cbb
00000070: 5e68 783c 2ea2 95ba f9b0 05bb a895 26bc
00000080: 88cf 513c db26 59bc dd42 eb3c b473 92bb
00000090: 2f0f 313c 5aec bf3c 683d 1d3b 2b65 c03a
000000a0: eb4b 3cbb 302c 00bc 498f 3ebc 02f1 c23a
000000b0: 671a 2abb 6573 b9bb 8ddb 1e3c 716a 04bc
000000c0: 7dea bebb 002c d1bc 8db4 d83a 2031 dd3c
000000d0: 2463 a1ba 4a18 4a39
0.011252859 0.002997686 0.022986181 -0.003274905 -0.0005633048 -0.00029254367 -0.0016038506 0.009471536
-0.0012878928 -0.006566415 -0.004581978 -0.0030140937 -1.808606e-05 -0.008063963 0.0021065536 0.0024742708
-0.00052057835 -0.00690656 -0.006277092 0.02219982 -0.0022289518 -0.0035170377 0.004056515 0.0018284707
-0.022094963 -0.0074040177 4.4003158e-05 -0.0021492408 0.015161602 -0.0011416131 -0.0020399673 -0.010167517
0.012805827 -0.013253893 0.028718406 -0.0044693593 0.010806843 0.02342813 0.00239929 0.0014678588
-0.0028731774 -0.007823035 -0.0116308415 0.0014872851 -0.0025955678 -0.005659508 0.0096959 -0.008082018
-0.005826293 -0.025533676 0.00165333 0.027000964 -0.0012312871 0.0001927327

motion_mlp.mlps.4.fc0.fc.weight f4 [50, 50]
00000000: 4319 68bc 232e d33c 11a0 80bb 7fe0 243d
00000010: fb04 183c 666a 01bc b7d4 e4bd a0e3 cdbc
00000020: 84da 353d 92e9 11bc 0f4a 093c 7551 6bbc
00000030: 6632 4c3c be71 753c c90c 26bc 4540 05bd
00000040: 9a21 f13b 68ce 0e3b b133 b7bb f81b acbc
00000050: 7411 bdbc 97f2 f43c 660d cf3c a474 c2bb
00000060: 0239 25bd a657 5c3c cee8 8d3c 675a fe3c
00000070: cb7e 93bb 3595 353d 6ed5 793b 5de8 eebc
00000080: b5d3 9b38 b46f c53b a436 87bc c479 84bb
00000090: bda6 043b ce36 173d 5fe6 b5bc 2060 66bc
000000a0: f6ef cb3c 2615 09bd a83b a9ba 5809 4d3b
000000b0: 25ce 373c 39c7 913c 1e79 e3bc 4438 ff3b
000000c0: e9ca 793c 9b25 a5bd 0588 f13c 61bd f43a
000000d0: 91bc 18bb 6096 85bd e05c 743c e162 23bc
000000e0: 0792 a7bb ae50 73bb f950 ee3c bd54 00bb
000000f0: 552b 1e3d 479b 293c d21d 19bc dfeb e3bb
00000100: 1296 553c a684 993c b53a dfbb 41b7 ecbc
00000110: 2afc 683c 4231 80bc b87b 8d3c a853 e4bb
00000120: f864 b83b 3cf9 d4bb 6107 293c ed04 593c
00000130: bfa0 b6bc 09f1 18bd 494d 2abc 663a 3ebd
00000140: f042 28bc 3ba7 18bd ddf0 553c 3314 16bd
00000150: 8555 193d a53f 943c b75d c2bc e2e0 cb3c
00000160: 3feb 52b9 5dc3 adbc 7cf8 fd3c ccd2 263d
00000170: f218 93bc 4299 fcbb e462 f83c a36e 4dbc
00000180: cb92 503c fbb2 bdbc 7c1b dabc b4a4 393b
00000190: 7be9 41bc 8508 623c 5179 973c 4cc8 fabc
000001a0: f573 603a 7bf6 67bc d463 153d 06f2 c53c
000001b0: 2b12 0a3d adf8 e2ba 87e0 3dbb 2d2b 643c
000001c0: 95d9 ca3c b585 963c 3bf1 f4bc eb6b 963c
000001d0: 531e 34bb f3c6 383c 948e f63c 14a4 813b
000001e0: 8d0e 333d 9e0e 813c 3e76 fb3b 630d 81bc
000001f0: 6a07 8b3a bb5c b33c 6d6b 0a3d 5658 56bd
00000200: ab97 4c3d 4ead 123c 3a41 7abc 5702 163c
00000210: df14 653c b275 94bb 1283 b0bb f30b 02bc
00000220: 6820 233b 7c89 09bc 8fa7 003d a14b 253d
00000230: 65c4 07bc eab7 62bc 263a b73c bbd4 d5bb
00000240: 74d6 debc 133e 74b9 db63 243d 6e33 093d
00000250: 1db8 4e3b 554f 4a3c 4cec 74bc bbce d23c
00000260: 1720 873c 29d0 c6bc 74f0 6ebd 25b7 b6bc
00000270: 55a8 0abc 525e 3ebd 906b 183d e4c2 193d
00000280: c640 503c 4956 4e3d fa92 91bc 45b7 02ba
00000290: f575 f63b 1290 f9bc 612d 2cbd 803d 8f3b
000002a0: e198 963c 87ce c43a c313 c53b 1f27 e0ba
000002b0: d6bd aabb d83e 4e3c 7b41 38bc 9a30 c33b
000002c0: 0a6d 223d 52de 443d 18d0 c0bc f2e1 c8b9
000002d0: 2e36 88bc ffd6 34bd b608 52bc c80a 223d
000002e0: b87c ae3c 34ec 943c 77fe 943c e8b8 153d
000002f0: 17c0 5ebc 469e 32bc 5e27 16bc 3d06 71bb
00000300: 3abb 553c e17d b3bb 27dd 6cbb 7812 0b3c
00000310: 80f5 bb3c c724 e83c bb06 23bc 2e70 9c3c
00000320: 5b69 13bd fe3e 063c 4649 48bb c21f 2f3d
00000330: ca7e 6dbb 55ab afbb da50 0f3d 4c71 92bb
00000340: 57b1 36bb b07b e6bc c6ab be3b d292 d3bc
00000350: 9d95 e1bc 648e 373c 5628 c93b d13c e8bc
00000360: 3076 86bc fd91 bfbc aec7 33bc a715 c9bc
00000370: 30b9 5f3c 4ad2 163c 1c66 9cbc bfbd e43c
00000380: d829 193c 5af5 553d a61d 8bbc 6463 fdbc
00000390: 1771 62bd 402b 153c a551 3bbc c99b 7cbc
000003a0: 6a2c 9738 1b73 643c 6b77 b93c c831 0a3d
000003b0: 6a6a 983b 4255 7abb 23ec cf3b f67c b1ba
000003c0: 596f cebc 09bf b8bb cb09 38bd 800e 63bc
000003d0: 1acc a83c 28fc 12bd 96e2 cfba 812d eebb
000003e0: 52dd ffbc baac 2ebd 1055 b53c 50e2 bfbc
000003f0: d51b 20bb 5c23 e83b 9c80 b4ba d270 75bd
-0.014166179 0.025778836 -0.0039253314 0.04025316 0.009278531 -0.0078989025 -0.11173385 -0.025132954
0.044397846 -0.008905785 0.008379473 -0.014362683 0.012463188 0.0149807315 -0.010134884 -0.032531995
0.007358742 0.0021790508 -0.005590879 -0.02100943 -0.023079611 0.029900832 0.025274944 -0.005934315
-0.04033757 0.013448631 0.017322924 0.031048967 -0.004501199 0.044331748 0.0038121599 -0.029163534
7.4304095e-05 0.006025279 -0.016505547 -0.004042836 0.0020240985 0.0369175 -0.022204576 -0.014061004
0.024894696 -0.033467434 -0.0012911456 0.0031286087 0.011218582 0.017795192 -0.027767714 0.00778869
0.015246131 -0.08063813 0.029483804 0.0018672162 -0.0023305754 -0.065228224 0.014914721 -0.009972305
-0.0051138434 -0.0037126946 0.029091345 -0.0019581758 0.038615543 0.010351962 -0.009345489 -0.0069556083
0.013036268 0.01874001 -0.0068124183 -0.028895976 0.014220277 -0.015648488 0.017270908 -0.0069679804
0.005627271 -0.0064994376 0.010316701 0.013245803 -0.022293447 -0.037339244 -0.010394403 -0.04644241
-0.010269865 -0.03726886 0.013057915 -0.036640357 0.037435073 0.018096754 -0.023726327 0.024887506
-0.00020114797 -0.02121132 0.031002276 0.040728375 -0.01795623 -0.0077086994 0.030320592 -0.012538585
0.012730311 -0.023156634 -0.026624434 0.002832693 -0.011835451 0.0137959765 0.018490465 -0.030613087
0.0008562201 -0.014157887 0.036472157 0.024163257 0.033708733 -0.0017316543 -0.002897294 0.0139263095
0.024761954 0.018374303 -0.029900184 0.018362006 -0.0027483895 0.011277902 0.030097283 0.003956327
0.04371505 0.01575404 0.0076740077 -0.015753454 0.0010607068 0.021894803 0.033793855 -0.052330337
0.04994933 0.008952452 -0.01527434 0.009155831 0.013982027 -0.004530632 -0.0053867185 -0.007937419
0.0024891142 -0.008394595 0.031409796 0.04035533 -0.00828657 -0.013837794 0.022366595 -0.0065256036
-0.027201869 -0.00023292778 0.040134292 0.033496313 0.0031542846 0.012348016 -0.014948916 0.025733342
0.016494794 -0.02426918 -0.058334783 -0.022304127 -0.008462985 -0.04647667 0.037211955 0.037539378
0.012710756 0.050375257 -0.01777028 -0.0004986416 0.007521386 -0.030464206 -0.042035464 0.004371345
0.018383445 0.0015015163 0.0060143187 -0.0017101503 -0.0052106185 0.012588225 -0.0112460805 0.0059567215
0.03965477 0.048063584 -0.023536727 -0.00038315315 -0.016627397 -0.04415035 -0.01281946 0.039561063
0.021299705 0.018179037 0.018187745 0.036553293 -0.0135956025 -0.010901993 -0.009164659 -0.00367774
0.013045127 -0.0054776524 -0.003614256 0.00848829 0.022944212 0.02833785 -0.009950335 0.01909646
-0.035989147 0.008193729 -0.0030561252 0.042754896 -0.0036238902 -0.0053610005 0.034989215 -0.0044690724
-0.00278767 -0.02813515 0.005818817 -0.025826845 -0.027537161 0.011203382 0.0061388416 -0.028349312
-0.016413778 -0.023385042 -0.0109729 -0.024546457 0.013654992 0.00920541 -0.019091658 0.02792251
0.009348355 0.05223594 -0.01698191 -0.030931182 -0.055283632 0.00910455 -0.01143304 -0.015418001
7.208514e-05 0.013943459 0.02263995 0.03373888 0.0046513574 -0.003819779 0.0063452884 -0.001354127
-0.02519958 -0.0056380075 -0.044931214 -0.013858438 0.020605136 -0.035885006 -0.0015860375 -0.007268608
-0.031233463 -0.042645194 0.022135288 -0.023423344 -0.0024430652 0.0070842933 -0.0013771239 -0.059922047

motion_mlp.mlps.4.fc0.fc.bias f4 [50]
00000000: 0ca6 3837 c69f 5bb5 8c53 c836 52de 66b6
00000010: 7b74 03b6 79ac 47b6 7239 93b6 e6a3 9236
00000020: c175 d5b6 299d 95b6 e645 a035 6591 21b6
00000030: 9b7f 9636 7578 1db6 b13d fcb5 849e aa35
00000040: 0788 c636 4153 06b6 dbeb 79b6 5cb2 8bb5
00000050: 3412 9b35 dcb3 f4b5 51ac 5ab6 8489 bd33
00000060: df82 0535 622e ffb5 8ff2 c635 979d 6236
00000070: 4d85 9035 6396 8334 c199 2b36 59f6 a335
00000080: c6ba 0fb6 eb92 87b5 86f9 ae35 d3af 64b6
00000090: 2cdd 08b6 88c7 dfb5 9fe3 6e36 7f4e 6d36
000000a0: 76d6 8ab6 96a5 2236 d3bb 9936 6c9e 9235
000000b0: 1b0d 4bb6 b25e e035 812b efb5 360a 04b6
000000c0: f0b8 2136 fee2 0936
1.1005915e-05 -8.181636e-07 5.9701906e-06 -3.4402078e-06 -1.9588322e-06 -2.9753703e-06 -4.387629e-06 4.3702194e-06
-6.361603e-06 -4.458842e-06 1.1941272e-06 -2.40755e-06 4.4852036e-06 -2.3464938e-06 -1.8793418e-06 1.2712121e-06
5.9166955e-06 -2.0016016e-06 -3.7241177e-06 -1.0408216e-06 1.1553698e-06 -1.8231763e-06 -3.2584833e-06 8.826012e-08
4.9736803e-07 -1.901248e-06 1.4822743e-06 3.3768354e-06 1.0767632e-06 2.4510072e-07 2.5570482e-06 1.2216143e-06
-2.1417377e-06 -1.0101043e-06 1.3036631e-06 -3.407699e-06 -2.0394318e-06 -1.6672866e-06 3.5597257e-06 3.5361443e-06
-4.137687e-06 2.4236265e-06 4.581621e-06 1.0923955e-06 -3.0256986e-06 1.671686e-06 -1.7819549e-06 -1.9675476e-06
2.4098517e-06 2.0546718e-06
