src/siMLPe/exps/baseline_amass/log/snapshot/model-iter-30000.pth (torch, 604338 bytes, 196 tensors)

motion_mlp.mlps.0.fc0.fc.weight f4 [50, 50]
-0.025047297 -0.0664975 0.027849574 -0.0386039 0.01471353 -0.011983418 0.02590077 -0.025840666
-0.0058306367 -0.020002345 -0.019047506 -0.020393122 -0.01641338 -0.016364375 -0.011615299 -0.029310334
-0.015311361 -0.025768511 -0.010439151 -0.02923741 -0.011485422 -0.025039459 -0.010066196 -0.03352282
-0.0054472955 -0.027360927 -0.012122041 -0.020951735 -0.012105482 -0.01665888 -0.017099159 -0.009860714
-0.016736947 -0.0065526105 -0.018618392 -0.0037328815 -0.01786584 -0.0025390862 -0.016626028 0.0007340485
-0.015767295 0.0010324162 -0.014521901 0.0013684249 -0.009152851 -0.00012639796 -0.0075226994 -0.0002760629
-0.005090197 -0.0026175939 0.008210728 -0.02092144 0.0016533004 -0.004629027 -0.018778551 -0.013253115
-0.022478515 0.011138979 -0.0052492623 -0.022143 0.0011450804 0.0025143533 -0.0011604354 0.005517012
-0.005714208 0.011072971 -0.0044295746 0.004166245 -0.0005483594 -0.0025055665 0.0012676616 -0.0085113915
0.0049155937 -0.009119944 0.0010817399 -0.012304735 -0.0027856983 -0.0078659635 -0.005559017 -0.009704049
-0.010859747 -0.0053784 -0.014344703 -0.0065646195 -0.015432612 -0.0067662727 -0.019312972 -0.0063407407
-0.018704614 -0.008230879 -0.018946702 -0.00919557 -0.017790753 -0.010399988 -0.018244056 -0.011713587
-0.01717384 -0.013696901 -0.016458359 -0.015428876 -0.005023826 -0.023062907 0.0237754 -0.011491596
-0.0038590382 -0.025857165 0.008358631 -0.00069511915 0.011627855 -0.011205611 0.012776948 -0.010056295
0.012941972 0.0082911905 0.010888039 0.022877049 0.009409424 0.02783684 0.022987876 0.023065565
0.02531443 0.020877453 0.024099817 0.019154385 0.028570343 0.014066498 0.023035903 0.015733631
0.021913366 0.023815257 0.015614401 0.025475452 0.0146328015 0.02653228 0.012593794 0.029230358
0.010942352 0.02961396 0.01251195 0.030564904 0.010887729 0.028530031 0.012492966 0.02794612
0.015897715 0.026330842 0.017321864 0.025109056 0.019670181 0.022672608 -0.008738291 0.021566473
-0.01574377 0.022766165 -0.02276134 0.0196161 -0.025617441 0.048839364 -0.02812816 0.04288573
-0.019187666 0.026177723 0.0072939363 0.021839548 0.0039371266 0.025488518 0.009401107 0.03012297
0.008947328 0.03737172 0.013775553 0.030320691 0.018611526 0.02649861 0.021702787 0.02679288
0.019624313 0.024931315 0.021369027 0.02521919 0.020086583 0.024089681 0.01936967 0.023658156
0.019234998 0.022716418 0.018193755 0.021446578 0.01716355 0.020500265 0.018721445 0.018887782
0.01925692 0.017790798 0.017828831 0.018367385 0.016845781 0.016735833 0.0172043 0.017314857
0.001388051 -0.020494359 0.020678801 0.010597012 -0.06235847 -0.024198685 -0.00793998 -0.020567987
-0.0030975256 -0.017423103 -0.008238449 -0.018549474 -0.022536196 -0.02387148 -0.023135561 -0.004903495
-0.024283357 -0.0067560636 -0.018358625 0.0076563153 -0.02683821 0.011973882 -0.014319611 0.008335453
-0.01122796 0.013379255 -0.006081095 0.013417355 -0.005109027 0.009636005 0.0023039915 0.009059825
0.0038975677 0.009530811 0.0063132034 0.009525458 0.010741012 0.008411212 0.011392088 0.009729917
0.011627264 0.009888851 0.01252327 0.011163418 0.013826536 0.010048007 0.013728861 0.011839606
0.0136218285 0.014043191 0.0023745347 -0.002142543 0.0066863312 0.005733074 -0.0020823705 -0.006036803
00000000: fd2f cdbc d72f 88bd ca24 e43c 1f1f 1ebd
00000010: 0511 713c 1956 44bc da2d d43c ceaf d3bc
00000020: ed0e bfbb f5db a3bc 8409 9cbc 7a0f a7bc
00000030: 5a75 86bc 950e 86bc 184e 3ebc 3a1c f0bc
00000040: 81dc 7abc 7c18 d3bc f908 2bbc 4b83 efbc
00000050: 5a2d 3cbc 8d1f cdbc b0ec 24bc 394f 09bd
00000060: 3a7f b2bb 0624 e0bc 869b 46bc f9a2 abbc
00000070: 1256 46bc 3478 88bc 8913 8cbc d58e 21bc
00000080: ec1b 89bc 48b7 d6bb 9985 98bc 5ca3 74bb
00000090: 625b 92bc cc66 26bb 4f33 88bc 296d 403a
000000a0: 6a2a 81bc 2452 873a 44ed 6dbc b85c b33a
000000b0: d7f5 15bc b289 04b9 fa80 f6bb 89bc 90b9
000000c0: abcb a6bb f08b 2bbb 4a86 063c 7163 abbc
000000d0: 8eb3 d83a 18af 97bb 7ad5 99bc 9823 59bc
000000e0: dd24 b8bc 4480 363c 0102 acbb 3d65 b5bc
000000f0: 8616 963a d9c7 243b c019 98ba 0dc8 b43b
00000100: 403e bbbb 686b 353c f725 91bb ff84 883b
00000110: c7bf 0fba 6e34 24bb aa27 a63a 5d73 0bbc
00000120: fd12 a13b d16b 15bc 2bc9 8d3a cd99 49bc
00000130: 4390 36bb 3ee0 00bc 6a28 b6bb bbfd 1ebc
00000140: 15ed 31bc 4a3d b0bb 0c06 6bbc 051c d7bb
00000150: 11d9 7cbc 9cb7 ddbb 3d36 9ebc fdc5 cfbb
00000160: 6b3a 99bc cfda 06bc 1d36 9bbc 04a9 16bc
00000170: eabd 91bc b664 2abc 8f74 95bc 58ea 3fbc
00000180: 27b0 8cbc f768 60bc aed3 86bc 65c9 7cbc
00000190: e89e a4bb 6cee bcbc a1c4 c23c 3f47 3cbc
000001a0: ebe7 7cbb 68d2 d3bc a4f2 083c a838 36ba
000001b0: c282 3e3c bd97 37bc 6756 513c 29c3 24bc
000001c0: 910a 543c c6d7 073c bf63 323c a668 bb3c
000001d0: fc29 1a3c 160a e43c 1251 bc3c fff3 bc3c
000001e0: 3560 cf3c 3107 ab3c fb6c c53c a8e9 9c3c
000001f0: 5a0c ea3c 2b77 663c cab5 bc3c d1e3 803c
00000200: a983 b33c 3718 c33c 8bd3 7f3c e5b1 d03c
00000210: 6bbe 6f3c 395a d93c 3356 4e3c 8174 ef3c
00000220: 8d47 333c fa98 f23c ecfe 4c3c 4063 fa3c
00000230: 7262 323c d0b7 e93c 4caf 4c3c 43ef e43c
00000240: ed3b 823c c7b3 d73c 95e6 8d3c 82b1 cd3c
00000250: 5c23 a13c e8bb b93c 0d2b 0fbc 2cac b03c
00000260: 14f9 80bc 1c80 ba3c fd75 babc f1b1 a03c
00000270: abdb d1bc c90b 483d 076d e6bc f2a8 2f3d
00000280: 742f 9dbc aa72 d63c f901 ef3b dae8 b23c
00000290: 0303 813b 4ccd d03c 1a07 1a3c 72c4 f63c
000002a0: d097 123c 1713 193d dbb2 613c 1963 f83c
000002b0: 3377 983c 9d13 d93c 0bca b13c be7c db3c
000002c0: 2bc3 a03c c23c cc3c 190e af3c 7a98 ce3c
000002d0: 9e8c a43c b957 c53c 24ad 9e3c c0ce c13c
000002e0: b792 9d3c c817 ba3c 120b 953c bcb0 af3c
000002f0: 939a 8c3c 2cf0 a73c b75d 993c 8dba 9a3c
00000300: b0c0 9d3c 02be 913c c50d 923c 3377 963c
00000310: 2a00 8a3c 9619 893c 08f0 8c3c e3d7 8d3c
00000320: 43ef b53a c9e3 a7bc 9766 a93c 179f 2d3c
00000330: 986b 7fbd 523c c6bc b116 02bc 327e a8bc
00000340: dbff 4abb e5ba 8ebc 8ffa 06bc 11f5 97bc
00000350: d49d b8bc 1f8e c3bc ca86 bdbc 7fad a0bb
00000360: e4ed c6bc f861 ddbb d464 96bc d4e1 fa3b
00000370: cedb dbbc 1a2e 443c cd9c 6abc 6d91 083c
00000380: 7af5 37bc aa34 5b3c ec43 c7bb 77d4 5b3c
00000390: a069 a7bb 56e0 1d3c 90fe 163b a96f 143c
000003a0: 566e 7f3b 1e27 1c3c fdde ce3b ab10 1c3c
000003b0: 12fb 2f3c 2ecf 093c e1a5 3a3c 3b6a 1f3c
000003c0: 4880 3e3c d904 223c 672e 4d3c c5e6 363c
000003d0: b288 623c 65a0 243c 04ef 603c e8fa 413c
000003e0: 172e 5f3c 6a15 663c 159e 1b3b e869 0cbb
000003f0: 0319 db3b 83dc bb3b 6178 08bb 60d0 c5bb

motion_mlp.mlps.0.fc0.fc.bias f4 [50]
1.1495524e-06 1.7500244e-05 5.901727e-06 2.6921354e-05 2.9816247e-05 -1.2011412e-05 1.3993231e-05 2.4686191e-05
-3.8845355e-05 -5.5916307e-06 -4.503318e-06 3.2957665e-05 -6.133089e-05 -1.1407356e-05 -3.2321423e-05 -1.2062332e-05
1.2568146e-06 8.627808e-05 1.4964773e-05 -2.6312084e-06 -0.0008339782 3.2196922e-06 5.460739e-06 1.731136e-05
-2.7944268e-05 -2.9322266e-06 -1.6185651e-05 2.6225534e-05 6.6117777e-06 6.611407e-06 0.000111363755 2.922164e-05
5.466848e-06 -2.264259e-05 -2.0715352e-05 -0.00013077153 -0.00016736818 4.747007e-05 -2.5025136e-06 -4.7794663e-05
-4.3535198e-05 -0.000106083644 -2.096887e-05 -2.13017e-06 4.318593e-06 -2.1287879e-05 2.4347446e-05 2.5480413e-05
-6.403004e-07 6.851609e-06
00000000: 524a 9a35 7dcd 9237 7307 c636 2bd5 e137
00000010: e71d fa37 9f84 49b7 78c4 6a37 3115 cf37
00000020: e2ed 22b8 be9f bbb6 351b 97b6 063c 0a38
00000030: c59e 80b8 3962 3fb7 dd90 07b8 525f 4ab7
00000040: d2af a835 31f0 b438 3611 7b37 d193 30b6
00000050: 549f 5aba e411 5836 643b b736 dd37 9137
00000060: dc69 eab7 45c7 44b6 6cc6 87b7 e8fe db37
00000070: bdda dd36 8ed7 dd36 f68b e938 fe20 f537
00000080: de6f b736 97f0 bdb7 e1c5 adb7 b71f 09b9
00000090: 8e7f 2fb9 991a 4738 dbf0 27b6 2177 48b8
000000a0: 9099 36b8 3979 deb8 4ee6 afb7 0bf4 0eb6
000000b0: 6ee8 9036 5f93 b2b7 be3d cc37 c5be d537
000000c0: 1ce1 2bb5 e0e6 e536

motion_mlp.mlps.0.norm0.alpha f4 [1, 54, 1]
0.19636996 0.18216388 0.24548958 0.17623729 0.19754228 0.15941207 0.20357825 0.16484053
0.24692814 0.29836988 0.23618397 0.19469985 0.19910023 0.1624007 0.17067657 0.24290113
0.20676388 0.18027993 0.23108679 0.36584222 0.2133939 0.18813175 0.21392298 0.1920292
0.20246747 0.2317522 0.2032805 0.1923692 0.2829896 0.19561952 0.19831036 -0.003103871
0.19098628 0.20774288 0.21264794 0.17344418 0.20097414 0.32831064 0.2060189 0.1536137
0.20192611 0.17264572 0.21552944 0.1766666 0.254573 0.22762135 0.39004937 0.16927059
0.17985721 0.24838129 0.19224904 0.17644739 0.20310684 0.26113692
00000000: 3515 493e 2b89 3a3e 9f61 7b3e 8c77 343e
00000010: 8648 4a3e eb3c 233e d176 503e f5cb 283e
00000020: bbda 7c3e f0c3 983e 36da 713e 665f 473e
00000030: eee0 4b3e 5e4c 263e d7c5 2e3e 13bb 783e
00000040: e9b9 533e 4d9b 383e 04a2 6c3e ac4f bb3e
00000050: ee83 5a3e 9ca5 403e a00e 5b3e 4da3 443e
00000060: a253 4f3e 7350 6d3e c328 503e 6efc 443e
00000070: 03e4 903e 7c50 483e df11 4b3e 506a 4bbb
00000080: e891 433e 8dba 543e 62c0 593e 5a9b 313e
00000090: 2acc 4d3e 5518 a83e 9ef6 523e e94c 1d3e
000000a0: b8c5 4e3e 0aca 303e c0b3 5c3e 17e8 343e
000000b0: 6457 823e 9215 693e 8db4 c73e 4555 2d3e
000000c0: 7d2c 383e aa57 7e3e efdc 443e a0ae 343e
000000d0: 3dfb 4f3e bdb3 853e

motion_mlp.mlps.0.norm0.beta f4 [1, 54, 1]
-0.00087523786 -0.00026635645 0.010234991 0.00065401656 0.0007551465 -0.00017667327 0.0010320736 0.00055794825
0.0007157107 -0.0011984835 0.0072499574 -0.00011634539 -0.000658889 -0.003944845 -0.00028181277 0.001735109
0.00056224206 -0.0015885382 0.0018617283 0.001263345 -0.00015598646 -0.0008624435 0.00089464965 -0.0008005723
-0.0038321721 -0.0020270164 -0.00014161172 0.0006122653 0.001163187 -0.00089067046 -0.0005934084 0.061890345
0.002520048 -0.00029700677 -0.003115607 -0.0011753734 -0.000403646 -0.0027478037 -0.0017096623 0.0044291513
-0.00018789203 0.0019414048 -0.0006699522 -0.000818851 0.0004906201 0.0011360124 0.0009815851 -0.0038187301
0.0006736291 -0.0060943756 0.0005416757 0.0016376977 -0.00088199944 -0.00026429418
00000000: 3870 65ba c2a5 8bb9 aab0 273c 4f72 2b3a
00000010: 06f5 453a 5f41 39b9 a546 873a 4643 123a
00000020: 889e 3b3a 6f16 9dba 0d91 ed3b 75fe f3b8
00000030: 4bb9 2cba c243 81bb 45c0 93b9 996c e33a
00000040: 6d63 133a 7f36 d0ba 3c05 f43a d396 a53a
00000050: 4c90 23b9 9b15 62ba ec86 6a3a 7fdd 51ba
00000060: 2e25 7bbb b1d7 04bb 9b7d 14b9 6e80 203a
00000070: 1476 983a e27b 69ba f78e 1bba bb80 7d3d
00000080: 6427 253b 93b7 9bb9 362f 4cbb fd0e 9aba
00000090: 73a0 d3b9 7f14 34bb bf16 e0ba 6a22 913b
000000a0: e204 45b9 bc76 fe3a bb9f 2fba 29a8 56ba
000000b0: f59c 003a 40e6 943a 88a8 803a a943 7abb
000000c0: 7c96 303a 54b3 c7bb 3eff 0d3a 04a8 d63a
000000d0: fb35 67ba f790 8ab9

motion_mlp.mlps.1.fc0.fc.weight f4 [50, 50]
-0.023469562 -0.019119862 0.046886683 -0.016721461 0.0057961056 -0.026169095 -0.00019036116 0.008061239
0.009233294 -0.025180325 0.014573035 0.01926801 0.009822436 0.01096335 -0.0011300468 -0.008345171
0.0035472019 -0.010347738 -0.01841963 -0.014052003 -0.0521822 -0.053506196 -0.033449624 0.0017501464
-0.002912105 -0.008480286 0.016248703 0.002125027 -0.0056694634 0.011908527 0.013419723 -0.010968355
-0.026945395 -0.028736716 -0.01717388 -0.014769207 -0.037358377 0.021247245 -0.020315787 -0.00089649006
-0.010068918 0.0045883423 -0.009322014 -0.01956658 0.01892791 -0.03659333 -0.03060519 -0.033304285
0.025165722 -0.009538982 0.008267499 -0.033264086 0.075581156 -0.015034255 -0.015090348 0.0021334204
-0.059636272 -0.0059749605 0.0027325389 -0.018611236 -0.0055722054 0.0403213 -7.096741e-05 0.0055725207
0.033720467 -0.008975434 0.0060577122 0.03145491 0.00536014 -0.009789566 0.03790722 0.0054493607
0.047677368 -0.005987724 -0.0010142439 0.0047114734 0.034751546 0.021861684 0.008428931 -0.0027316494
-0.010411052 -0.015809936 -0.0046116677 0.011044823 -0.011097375 0.016955044 0.021356566 -0.0025357236
0.0047664316 0.00954829 0.029549435 -0.0036788634 0.009650445 -0.011807233 0.06819847 0.008256735
-0.011929584 -0.007364532 0.013280823 -0.013299059 0.0016528385 -0.0016321348 -0.015722385 -0.009096972
0.0037077614 -0.017502189 -0.018662302 0.00096354476 -0.013853601 0.020779839 0.0033460718 -0.016357189
-0.00831453 0.0009535526 0.005690325 -0.011317173 -0.001759236 0.0036457954 -0.004929622 -0.0068449173
-0.098500125 0.023606196 -0.19870526 0.012245239 -0.010421413 0.007739013 -0.02522258 -0.008542159
-0.0011634832 -0.0033813708 -0.030981755 0.0025281275 0.0045088455 0.011319563 -0.0033494148 -0.08041025
-0.02117351 -0.000273133 0.002895022 -0.008420462 -0.012739978 -0.026646895 0.009042579 0.011275396
-0.012909158 0.0032424936 0.0016881918 0.008896708 0.0023970893 0.009082369 0.008486206 0.005670417
0.038237333 0.025380123 0.043619268 0.029007316 -0.053755812 -0.029054014 0.014025943 0.018359538
0.0031969384 0.013604508 0.008242761 -0.024947116 0.04933649 -0.017912814 -0.020177813 0.011389613
0.009037334 -0.0024733744 -0.038986668 0.022148052 -0.0460688 -0.011574887 0.009154975 0.0049112737
-0.0044993307 0.0045158486 -0.0042595207 -0.014204047 0.008119999 0.013426439 0.01987792 0.032369755
-0.0123933675 -0.033385113 0.035553828 -0.011953628 -0.0051489417 -0.012151453 0.0015791141 0.010476017
-0.0076191844 0.007854178 -0.03069988 0.020308359 0.03336361 0.022249673 -0.00500867 0.012988953
-0.01548212 0.012064616 -0.025116926 -0.03031422 -0.050438885 0.0004686741 0.055992328 0.027650177
-0.056142416 -0.008423071 0.0147375995 0.00037044616 -0.012430404 0.021171035 0.006144139 0.020863706
-0.0038471725 -0.0026792188 0.0051153493 -0.012058483 -0.010987038 0.0036218064 -0.012226775 -0.022151401
0.023046663 0.027695352 -0.037466053 -0.03952594 0.021527976 0.03970899 -0.034261867 -0.012097775
-0.020164335 -0.00065356033 -0.023575846 -0.023875214 -0.02324591 0.01639845 -0.001912937 0.03173194
0.046408568 0.049207263 0.00090817455 -0.00028072798 0.010951788 0.01227378 -0.024658658 -0.0380437
-0.022904517 -4.4284778e-05 0.017246671 0.010048338 -0.012462514 0.012883304 0.0045586713 -0.04066808
00000000: 3d43 c0bc 42a1 9cbc 400c 403d 72fb 88bc
00000010: 42ed bd3b 9260 d6bc af9b 47b9 4913 043c
00000020: 3e47 173c f846 cebc bdc3 6e3c f2d7 9d3c
00000030: 48ee 203c 9f9f 333c 141e 94ba 2fba 08bc
00000040: 2c78 683b 8f89 29bc c4e4 96bc 5f3a 66bc
00000050: 01bd 55bd 5029 5bbd 7902 09bd 2b65 e53a
00000060: 04d9 3ebb e6f0 0abc 001c 853c 0944 0b3b
00000070: e8c6 b9bb fc1b 433c 66de 5b3c 9eb4 33bc
00000080: 97bc dcbc 4369 ebbc 3db0 8cbc 8bfa 71bc
00000090: 1905 19bd b40e ae3c 4b6d a6bc 6e02 6bba
000000a0: 1af8 24bc ce59 963b 5cbb 18bc 184a a0bc
000000b0: b40e 9b3c e3e2 15bd bcb7 fabc 136a 08bd
000000c0: 5828 ce3c 6449 1cbc 6774 073c ec3f 08bd
000000d0: 4bca 9a3d 3c52 76bc 823d 77bc dbd0 0b3b
000000e0: 2a45 74bd 9ac9 c3bb 6514 333b 9776 98bc
000000f0: 0c97 b6bb f327 253d 57d4 94b8 b199 b63b
00000100: 791e 0a3d b30d 13bc c67f c63b ddd6 003d
00000110: 1da4 af3b 6a64 20bc 9a44 1b3d 8d90 b23b
00000120: 5849 433d ab34 c4bb 61f0 84ba b462 9a3b
00000130: a357 0e3d 4617 b33c 8019 0a3c 7905 33bb
00000140: 1e93 2abc d783 81bc 791d 97bb 58f5 343c
00000150: c4d1 35bc 4ee5 8a3c f7f3 ae3c 622e 26bb
00000160: ba2f 9c3b 6e70 1c3c a811 f23c 1619 71bb
00000170: e61c 1e3c 2073 41bc a4ab 8b3d 4247 073c
00000180: 4d74 43bc 2c52 f1bb cf97 593c 4ce4 59bc
00000190: 0fa4 d83a 5bed d5ba 3bcc 80bc 770b 15bc
000001a0: eafd 723b c060 8fbc afe1 98bc 6596 7c3a
000001b0: 37fa 62bc 7b3a aa3c c549 5b3b 83ff 85bc
000001c0: ab39 08bc d5f7 793a e875 ba3b aa6b 39bc
000001d0: 2a96 e6ba 4cee 6e3b ab88 a1bb 544b e0bb
000001e0: 6fba c9bd c861 c13c 6479 4bbe 41a0 483c
000001f0: 93be 2abc 8c97 fd3b 969f cebc 69f4 0bbc
00000200: 0580 98ba fd99 5dbb 73cd fdbc f1ae 253b
00000210: f0be 933b b075 393c db81 5bbb 21ae a4bd
00000220: 1274 adbc 4a33 8fb9 69ba 3d3b faf5 09bc
00000230: 57bb 50bc 974a dabc 5327 143c 70bc 383c
00000240: ef80 53bc 0480 543b 5146 dd3a 7fc3 113c
00000250: 7c18 1d3b 37ce 143c ba09 0b3c e8ce b93b
00000260: c09e 1c3d fae9 cf3c 1eaa 323d c0a0 ed3c
00000270: 0e2f 5cbd af02 eebc 12cd 653c be66 963c
00000280: ba83 513b 71e5 5e3c a50c 073c e55d ccbc
00000290: 0f15 4a3d e5bd 92bc f14b a5bc 809b 3a3c
000002a0: 5311 143c 5618 22bb 7cb0 1fbd d56f b53c
000002b0: a3b2 3cbd 98a4 3dbc c0fe 153c c0ee a03b
000002c0: 1f6f 93bb aff9 933b 7393 8bbb 17b8 68bc
000002d0: bf09 053c 91fa 5b3c 05d7 a23c 2696 043d
000002e0: 8d0d 4bbc d4be 08bd e4a0 113d 26d9 43bc
000002f0: 74b8 a8bb e316 47bc 47fa ce3a 9aa3 2b3c
00000300: 5aaa f9bb cfae 003c 517e fbbc b75d a63c
00000310: 48a8 083d f244 b63c c51f a4bb 9ecf 543c
00000320: b8a8 7dbc abaa 453c 03c2 cdbc 8755 f8bc
00000330: 0199 4ebd 5fb8 f539 3658 653d a082 e23c
00000340: 97f5 65bd ec00 0abc f975 713c 7138 c239
00000350: e5a8 4bbc e16e ad3c c654 c93b 5dea aa3c
00000360: d820 7cbb d595 2fbb a99e a73b f290 45bc
00000370: fa02 34bc d45b 6d3b d052 48bc db76 b5bc
00000380: 5bcc bc3c 5de1 e23c 0176 19bd f4e5 21bd
00000390: 705b b03c e5a5 223d 2c56 0cbd bf35 46bc
000003a0: ad2f a5bc b153 2bba 2222 c1bc f495 c3bc
000003b0: 356e bebc 0b56 863c 84bb faba 5af9 013d
000003c0: e916 3e3d 8e8d 493d 9012 6e3a ac2e 93b9
000003d0: 216f 333c f717 493c f400 cabc b6d3 1bbd
000003e0: 41a2 bbbc 6bbe 39b8 e448 8d3c c9a1 243c
000003f0: 932f 4cbc 7e14 533c e860 953b 9393 26bd

motion_mlp.mlps.1.fc0.fc.bias f4 [50]
2.7017477e-06 1.1362102e-05 -3.4680659e-06 2.3954016e-07 2.5944003e-06 4.9155094e-08 3.755097e-06 -9.420591e-06
-1.5314769e-06 -7.871574e-07 -1.7648174e-06 -4.5813385e-06 2.6921678e-06 -9.050821e-06 4.6852854e-08 -1.7928687e-06
-3.014767e-07 1.264343e-06 8.468263e-08 2.0819927e-07 -1.1225089e-05 -5.700699e-07 -6.9577795e-06 -2.3132977e-06
1.9989814e-06 -8.0624574e-07 2.95798e-06 2.715952e-07 8.547001e-07 -5.292324e-06 7.0236465e-06 7.7964654e-07
6.4964166e-07 2.9373705e-06 5.34539e-06 -2.8096169e-05 -3.827734e-06 5.764235e-06 -1.6512626e-05 -1.6868898e-05
-1.8059187e-06 -3.664022e-07 -8.445862e-06 -6.583709e-07 -6.24924e-06 7.951531e-07 -3.3693124e-07 -2.0391371e-07
-4.754769e-06 4.775215e-06
00000000: ac4f 3536 db9f 3e37 ebbc 68b6 269a 8034
00000010: 751b 2e36 991e 5333 1300 7c36 210d 1eb7
00000020: 258d cdb5 0b4d 53b5 aade ecb5 66b9 99b6
00000030: 17ab 3436 fbd8 17b7 423b 4933 80a2 f0b5
00000040: a4da a1b4 7fb2 a935 c5da b533 618d 5f34
00000050: 6453 3cb7 e806 19b5 df76 e9b6 273e 1bb6
00000060: 3d26 0636 c96c 58b5 b681 4636 c3cf 9134
00000070: 8b6e 6535 b894 b1b6 aaac eb36 e748 5135
00000080: 0963 2e35 a41f 4536 8d5c b336 10b0 ebb7
00000090: fc6f 80b6 676a c136 9884 8ab7 af81 8db7
000000a0: e562 f2b5 efb5 c4b4 b3b2 0db7 e7ba 30b5
000000b0: 90b0 d1b6 8172 5535 7ae3 b4b4 60f3 5ab4
000000c0: 288b 9fb6 c93a a036

motion_mlp.mlps.1.norm0.alpha f4 [1, 54, 1]
0.15367496 0.1216081 0.32363978 0.13951287 0.10989856 0.16520411 0.08976052 0.12027868
0.09835448 0.21241497 0.27101097 0.09442319 0.12310923 0.13372618 0.098476805 0.1517647
0.12482882 0.11209624 0.14135002 0.35146812 0.11712351 0.12045004 0.1388626 0.094028585
0.17548954 0.19699453 0.11002241 0.114636585 0.10712986 0.11472382 0.11235494 -0.0049230554
0.07565159 0.10402056 0.19511269 0.12552556 0.10144577 0.19105725 0.113283955 0.1834984
0.13579856 0.1328345 0.13224228 0.10795109 0.15844323 0.13759987 0.3712435 0.12857755
0.13854784 0.2513927 0.10400178 0.14992975 0.118168555 0.1945434
00000000: f85c 1d3e ab0d f93d 1db4 a53e 76dc 0e3e
00000010: 7f12 e13d 442b 293e 5dd4 b73d ab54 f63d
00000020: 136e c93d 4f83 593e f3c1 8a3e f260 c13d
00000030: b120 fc3d 84ef 083e 35ae c93d 3568 1b3e
00000040: 41a6 ff3d b792 e53d 0fbe 103e a1f3 b33e
00000050: 73de ef3d 83ae f63d ff31 0e3e 0f92 c03d
00000060: 88b3 333e efb8 493e 6e53 e13d 96c6 ea3d
00000070: e666 db3d 52f4 ea3d 591a e63d 9551 a1bb
00000080: 39ef 9a3d bb08 d53d 9fcb 473e c689 003e
00000090: cdc2 cf3d 83a4 433e 6b01 e83d 01e7 3b3e
000000a0: c70e 0b3e c405 083e 856a 073e 7615 dd3d
000000b0: f13e 223e fbe6 0c3e a113 be3e d5a9 033e
000000c0: 7cdf 0d3e 8bb6 803e e3fe d43d 2f87 193e
000000d0: 5b02 f23d 6336 473e

motion_mlp.mlps.1.norm0.beta f4 [1, 54, 1]
-0.01662284 0.033369135 0.005593183 -0.00546519 0.0013221249 -0.009121359 0.00016360628 0.0037356317
-0.0003522097 -0.046040248 0.06404102 -0.0035196282 0.011600914 -0.010025923 0.0056234295 0.033173695
0.016619267 0.0019481217 -0.03418481 -0.002393063 -0.008824928 -0.010848339 -0.006230146 0.003175151
0.0039404356 0.00014512059 -0.001017426 0.0028292742 0.00021863294 0.01318637 -0.009226673 -0.0048208497
-0.034891937 -0.0045487843 -0.018557088 -0.006226235 0.002169727 0.06252086 0.005697584 0.027140904
-0.005542428 -0.0010069393 -0.0049750325 0.010550788 -0.007249988 0.010813613 -0.010099002 -0.022936072
-0.008236499 0.014229685 0.004376403 0.00086470856 -0.0036748732 -0.017744072
00000000: 9f2c 88bc 13ae 083d 0547 b73b 5615 b3bb
00000010: 264b ad3a c171 15bc ba8d 2b39 80d1 743b
00000020: c9a8 b8b9 b394 3cbd f027 833d 90a9 66bb
00000030: c311 3e3c c543 24bc bf44 b83b 24e1 073d
00000040: 2125 883c 1e58 ff3a 5f05 0cbd efd4 1cbb
00000050: 6e96 10bc 3bbd 31bc 4126 ccbb 3216 503b
00000060: c51e 813b 832b 1839 275b 85ba 586b 393b
00000070: d540 6539 a50b 583c 792b 17bc 38f8 9dbb
00000080: d9ea 0ebd f80d 95bb 0905 98bc 7205 ccbb
00000090: fb31 0e3b f00a 803d ccb2 ba3b 9a56 de3c
000000a0: 429d b5bb 47fb 83ba 9905 a3bb 36dd 2c3c
000000b0: 4f91 edbb 952b 313c 4976 25bc 6ee4 bbbc
000000c0: 61f2 06bc a023 693c ee67 8f3b 9cad 623a
000000d0: 24d6 70bb 045c 91bc

motion_mlp.mlps.2.fc0.fc.weight f4 [50, 50]
-0.012095986 -0.014559857 0.007305406 -0.026259998 0.010436997 0.003899249 -0.006359055 -0.02076326
0.0090614585 -0.019374017 -0.010863802 0.0018764297 -0.012338383 0.011275418 -0.001237673 -0.05279278
-0.0026420234 -0.02990171 -0.010108921 0.049214028 -0.019553998 -0.016563484 -0.02509679 -0.025689337
0.028914127 -0.010283491 -0.008668512 0.019256763 -0.027595837 -0.012674959 -0.001715141 -0.013298693
-0.018758772 -0.008398357 -0.037349135 -0.01810211 -0.055644833 -0.025334489 -0.011430911 -0.03038086
-0.001293275 -0.0022111791 0.013188158 -0.010051705 -0.013822159 -0.0049981438 0.0032506415 -0.035238698
0.022791408 -0.014005632 0.00081769656 -0.012022973 -0.0037327053 -0.019131994 -0.014649734 -0.004428983
-0.022013662 -0.019510372 -0.005440765 -0.02014374 -0.016939899 -3.1703465e-05 -0.04643427 0.025428556
-0.028063504 -0.046574023 -0.0117420545 -0.007823181 -0.009084545 0.010864693 -0.017808497 -0.001094713
-0.011385507 0.019214826 -0.009477031 -0.007055191 -0.022147842 0.014912646 -0.023097025 -0.01737567
-0.002012924 0.0072829486 -0.010157041 -0.009606213 -0.018235782 -0.00948931 -0.03047572 0.019448327
-0.010148903 -0.014887302 -0.009626935 0.018137928 -0.009602437 -0.0066407435 -0.0068086013 -0.017768266
-0.0090828445 -0.018594973 0.012245814 -0.012898036 0.0012271672 -0.008316055 0.027658828 -0.01072924
-0.006654971 0.03016471 -0.04818508 0.008884509 -0.0046876715 0.016883215 -0.015868759 0.00043190713
0.00039797017 0.02354388 -0.0015449576 -0.008270728 0.0077351416 8.511948e-05 0.011665472 0.006786043
-0.054508965 -0.006837187 -0.0373721 -0.0007279848 -0.008026671 -0.006175216 -0.001682779 0.008328956
-0.0033148995 0.017602531 -0.011289727 -0.013406726 0.022985524 -0.00816676 0.02983145 -0.04828032
-0.021358678 0.010130571 -0.07903483 0.09045083 -0.014204181 0.0060593258 0.013266782 0.017479308
-0.0021737516 0.03610078 0.006220887 0.010455718 0.005988443 0.014526336 0.017901069 0.012689931
0.0048165885 -0.041233 -0.012276092 -0.006147863 0.022791507 0.004748847 0.012617984 0.019458698
0.027385399 0.005643062 -0.022728961 -0.0158646 0.028915137 0.011659236 0.012991027 0.0015151598
0.016298724 0.028473407 -0.0016205745 -0.0073721576 -0.011029615 0.057497904 -0.015524503 0.017504953
0.03031652 -0.008105944 0.01753405 0.02387803 0.033501312 -0.006294032 0.040042974 -0.007542056
0.014040866 -0.0073787654 0.03387253 -0.024363538 0.013379848 0.008732014 -0.007011464 -3.444314e-05
-0.012038709 0.010798217 0.0044362806 -0.015353722 0.026627867 0.012550551 0.0029529636 0.039180845
0.016631212 0.039337546 -0.0037795352 0.022291152 -0.052688513 -0.041537978 -0.016518103 -0.0014327444
0.014454808 -0.024541795 -0.006514262 -0.010221035 0.033072066 0.0066091665 -0.00040464726 0.013719786
0.020663848 -0.029661983 -0.013753772 0.030651174 -0.017032068 0.0006703957 -0.04650651 -0.0017384975
-0.0048559234 0.0013761364 0.014104535 0.023916563 0.02054574 -0.014868731 -0.0091899745 0.03441738
0.023389323 0.0038667799 0.0041497773 -0.036959242 -0.0149282515 -0.015596027 0.010386982 0.0013571357
-0.008938251 -0.04120829 -0.0138964 0.017158536 0.010196883 0.002492007 -0.014627963 -0.026946334
0.009303414 -0.003054715 -0.020894052 -0.011114866 -0.0010039635 0.023656541 0.00714241 -0.0320873
00000000: 3e2e 46bc 778c 6ebc 3062 ef3b 351f d7bc
00000010: f0ff 2a3c 8b8a 7f3b 9f5f d0bb b617 aabc
00000020: 8376 143c 42b6 9ebc 17fe 31bc 88f2 f53a
00000030: ee26 4abc 88bc 383c 6a39 a2ba 3e3d 58bd
00000040: cc25 2dbb 6ef4 f4bc e39f 25bc a694 493d
00000050: b52f a0bc 25b0 87bc c997 cdbc 7272 d2bc
00000060: 52dd ec3c 167c 28bc 6006 0ebc 5cc0 9d3c
00000070: aa10 e2bc a2aa 4fbc 95ce e0ba c3e2 59bc
00000080: ffab 99bc 4399 09bc 68fb 18bd e04a 94bc
00000090: d6eb 63bd 468a cfbc b748 3bbc 48e1 f8bc
000000a0: 1c83 a9ba 6ee9 10bb 2513 583c e8af 24bc
000000b0: 5676 62bc 78c7 a3bb b708 553b 7456 10bd
000000c0: 0cb5 ba3c e177 65bc b05a 563a 01fc 44bc
000000d0: 67a0 74bb b3ba 9cbc 7005 70bc 0121 91bb
000000e0: ff55 b4bc 37d4 9fbc 7248 b2bb 7c04 a5bc
000000f0: 8bc5 8abc 56f9 04b8 dc31 3ebd 8c4f d03c
00000100: 6fe5 e5bc 67c4 3ebd bf61 40bc cd2c 00bc
00000110: 58d7 14bc d301 323c 20e3 91bc 797c 8fba
00000120: 478a 3abc 6968 9d3c 8d45 1bbc 3b2f e7bb
00000130: 646f b5bc 2c54 743c f935 bdbc 6c57 8ebc
00000140: 43eb 03bb cda5 ee3b b869 26bc 6163 1dbc
00000150: 3563 95bc 0d79 1bbc 38a8 f9bc 1952 9f3c
00000160: 9647 26bc dfe9 73bc 4bba 1dbc fe95 943c
00000170: 8a53 1dbc 989a d9bb b01a dfbb c18e 91bc
00000180: 36d0 14bc 7c54 98bc aba2 483c 4952 53bc
00000190: e6d8 a03a 1040 08bc c494 e23c b2c9 2fbc
000001a0: f111 dabb fb1b f73c b85d 45bd 5590 113c
000001b0: 0a9b 99bb ab4e 8a3c 33ff 81bc 9871 e239
000001c0: a7a6 d039 18df c03c 2d80 caba f381 07bc
000001d0: 1277 fd3b 2c82 b238 8920 3f3c 745d de3b
000001e0: cb44 5fbd 7b0a e0bb 7d13 19bd 3cd6 3eba
000001f0: 4c82 03bc 7759 cabb b290 dcba 2c76 083c
00000200: c93e 59bb 2f33 903c 8cf8 38bc e2a7 5bbc
00000210: 234c bc3c e0cd 05bc 1661 f43c 96c1 45bd
00000220: 65f8 aebc b2fa 253c 03dd a1bd 493e b93d
00000230: a7b8 68bc 4f8d c63b eb5c 593c c430 8f3c
00000240: 8075 0ebb 69de 133d 95d8 cb3b 764e 2b3c
00000250: b33a c43b dfff 6d3c 43a5 923c 6ee9 4f3c
00000260: 79d4 9d3b efe3 28bd a921 49bc 0374 c9bb
00000270: 41b5 ba3c 379c 9b3b a9bb 4e3c d967 9f3c
00000280: 5857 e03c 6fe9 b83b 1632 babc 7af6 81bc
00000290: 70df ec3c 6106 3f3c 51d8 543c 5498 c63a
000002a0: e784 853c 1041 e93c 7569 d4ba 2492 f1bb
000002b0: 8fb5 34bc ec82 6b3d 7c5a 7ebc 8c66 8f3c
000002c0: 5a5a f83c cbce 04bc 91a3 8f3c dc9b c33c
000002d0: ac38 093d 2b3e cebb 1a04 243d 5a23 f7bb
000002e0: a90b 663c 92c9 f1bb ecbd 0a3d 0b96 c7bc
000002f0: 2637 5b3c b910 0f3c 6cc0 e5bb 0a77 10b8
00000300: 013e 45bc 01eb 303c 385e 913b 2d8e 7bbc
00000310: af22 da3c d4a0 4d3c 8286 413b 187c 203d
00000320: 2e3e 883c 6820 213d 14b2 77bb ef9b b63c
00000330: e9cf 57bd ba23 2abd f950 87bc edca bbba
00000340: dcd3 6c3c e00b c9bc 9775 d5bb 2176 27bc
00000350: 9376 073d b591 d83b d626 d4b9 f4c8 603c
00000360: 3b47 a93c b0fd f2bc 8057 61bc 2c18 fb3c
00000370: d686 8bbc 7ebd 2f3a 9c7d 3ebd 4cde e3ba
00000380: 701e 9fbb 7a5f b43a b516 673c abec c33c
00000390: 8a4f a83c fa9b 73bc 8c91 16bc 3df9 0c3d
000003a0: f79a bf3c cd69 7d3b dbfa 873b 9362 17bd
000003b0: a095 74bc 7a86 7fbc 292e 2a3c ebe1 b13a
000003c0: be71 12bc 06ca 28bd baad 63bc 0f90 8c3c
000003d0: d410 273c f150 233b 20aa 6fbc 8fbe dcbc
000003e0: 596d 183c 9d31 48bb 012a abbc 201b 36bc
000003f0: 6d97 83ba 5dcb c13c e10a ea3b f96d 03bd

motion_mlp.mlps.2.fc0.fc.bias f4 [50]
1.2572089e-06 3.8477455e-07 7.5346056e-06 -1.880196e-06 3.0958315e-08 1.0709493e-06 -1.8525457e-06 -5.445649e-07
-2.6435675e-06 -3.3760293e-06 -1.948901e-06 -1.8986302e-06 -3.92958e-06 1.605903e-06 -8.591765e-07 -2.2320107e-07
-2.292139e-06 -9.4271985e-07 2.2642155e-06 5.5021155e-07 -3.129136e-07 -1.0471464e-06 -1.5456847e-06 -3.2026617e-07
-4.25021e-06 -2.2807797e-06 -5.243025e-07 -1.4197684e-06 -1.794454e-07 4.2646133e-07 -1.5898225e-06 -1.3133034e-06
-1.5277392e-07 -9.338138e-08 8.371598e-07 1.5371976e-06 -7.275612e-08 -2.1391584e-08 -1.9726426e-06 3.4304694e-08
6.2864774e-07 -4.6885725e-07 -2.0768966e-06 7.213447e-07 2.0176328e-06 1.0931336e-06 -9.703086e-07 -1.0795909e-06
1.3422514e-06 2.5071186e-06
00000000: 5ebd a835 0393 ce34 c5d1 fc36 0b5b fcb5
00000010: 07f7 0433 8abd 8f35 fca4 f8b5 372e 12b5
00000020: 2568 31b6 be8f 62b6 ddc9 02b6 70d4 feb5
00000030: d6da 83b6 688a d735 29a2 66b5 0ba9 6fb4
00000040: a6d2 19b6 370f 7db5 edf2 1736 40b2 1335
00000050: 85fe a7b4 ad8b 8cb5 5275 cfb5 0cf1 abb4
00000060: 079d 8eb6 7f0f 19b6 cbbd 0cb5 df8e beb5
00000070: 93ad 40b4 66f4 e434 e361 d5b5 c344 b0b5
00000080: 2d0a 24b4 f588 c8b3 2fb9 6035 b551 ce35
00000090: 1a3e 9cb3 97c0 b7b2 be61 04b6 6956 1333
000000a0: 58c0 2835 40b7 fbb4 d060 0bb6 6ea2 4135
000000b0: ab66 0736 c9b7 9235 8d3b 82b5 76e6 90b5
000000c0: 6827 b435 f83f 2836

motion_mlp.mlps.2.norm0.alpha f4 [1, 54, 1]
0.12080155 0.10459258 0.13500437 0.08653977 0.03619828 0.087243766 0.035813123 0.04773979
0.04584546 0.121816464 0.14562425 0.04336659 0.05198287 0.068284914 0.046704903 0.074552506
0.080418 0.03957097 0.09142683 0.20832226 0.047286287 0.047252785 0.04946641 0.035111643
0.10184544 0.1311258 0.03773448 0.046903204 0.043533448 0.051414013 0.045856807 -0.0050275098
0.05059137 0.0910179 0.09478577 0.047837906 0.05332839 0.11644336 0.053062532 0.13382396
0.06387503 0.0710332 0.066560276 0.038172927 0.08138985 0.056062717 0.20838994 0.060724057
0.0951215 0.17455746 0.046826627 0.12532875 0.041577637 0.08644234
00000000: ce66 f73d a234 d63d 963e 0a3e c33b b13d
00000010: a644 143d dcac b23d c8b0 123d cc8a 433d
00000020: 73c8 3b3d e97a f93d 861e 153e 2aa1 313d
00000030: fdeb 543d f6d8 8b3d a44d 3f3d fcae 983d
00000040: 31b2 a43d 2b15 223d fd3d bb3d 6e52 553e
00000050: 44af 413d 238c 413d 4a9d 4a3d 3ad1 0f3d
00000060: 5894 d03d d745 063e 788f 1a3d 931d 403d
00000070: 2150 323d 8097 523d 59d4 3b3d cfbd a4bb
00000080: e538 4f3d 9867 ba3d 0b1f c23d aef1 433d
00000090: df6e 5a3d db79 ee3d 1958 593d 2609 093e
000000a0: e9d0 823d db79 913d c150 883d 375b 1c3d
000000b0: b9af a63d 05a2 653d 2c64 553e cab9 783d
000000c0: 10cf c23d 31bf 323e 47cd 3f3d 2e56 003e
000000d0: 504d 2a3d ae08 b13d

motion_mlp.mlps.2.norm0.beta f4 [1, 54, 1]
-0.03609164 -0.018596867 0.053998664 -0.0064446423 0.008971862 0.0045610587 -0.004168622 -0.0017692662
0.0013325764 -0.020104049 0.048658412 -0.00038105034 -0.0066587953 0.0081129335 -0.0042225146 0.0011880775
0.002366815 -0.0018279146 0.01010691 -0.023186304 0.0006168 0.0058086216 0.005763008 -0.010626943
-0.021072714 -0.010574313 -0.0038159923 -0.009353042 -0.016134655 -0.0039281016 0.0034391826 -0.007156222
0.018202886 -0.0027906897 -0.047239445 -0.0076378686 0.0077941436 0.08646384 -0.006651545 -0.017353043
0.006636766 0.00015350778 0.007621653 -0.006200222 0.015729712 -0.006071475 0.0064712795 0.01952349
0.0022305248 -0.020979963 -0.0052215867 -0.012866083 -9.140353e-06 0.007030119
00000000: d4d4 13bd 7558 98bc b42d 5d3d 942d d3bb
00000010: b7fe 123c ef74 953b f098 88bb b9e6 e7ba
00000020: d8a9 ae3a 3fb1 a4bc 0b4e 473d b6c7 c7b9
00000030: 0632 dabb 1cec 043c 055d 8abb 44b9 9b3a
00000040: 911c 1b3b a396 efba 7497 253c 34f1 bdbc
00000050: bfb0 213a 4056 be3b 9dd7 bc3b a11c 2ebc
00000060: afa0 acbc e23f 2dbc ba15 7abb 803d 19bc
00000070: d32c 84bc 4eb7 80bb e963 613b be7e eabb
00000080: 381e 953c 01e4 36bb 267e 41bd 1647 fabb
00000090: 0466 ff3b f413 b13d 34f5 d9bb f827 8ebc
000000a0: 3a79 d93b eef6 2039 0fbf f93b 3b2b cbbb
000000b0: 99db 803c 39f3 c6bb 070d d43b baef 9f3c
000000c0: ff2d 123b 2cde abbc d819 abbb 43cc 52bc
000000d0: 8459 19b7 ea5c e63b

motion_mlp.mlps.3.fc0.fc.weight f4 [50, 50]
-0.006885199 -0.010986866 0.04485023 -0.014926843 0.0011677974 0.0062689874 0.035369545 0.010712249
0.022673083 -0.009678477 0.0020051072 -0.017659998 0.0024521463 0.017239364 -0.002080837 0.039228175
0.0138282785 -0.0036191791 0.0013552675 -0.004953035 -0.031596236 -0.017082239 -0.01551274 -0.0028906679
0.045057558 0.01573798 0.006695518 -0.0075734546 -0.0030653742 0.004930769 -0.0050409166 0.0018692818
-0.009138088 -0.0013175947 0.027606033 -0.065793134 -0.01490402 0.01009715 -0.036160067 0.04824994
0.004538009 0.01903098 -0.0035067473 0.027812213 -0.023406085 -0.005491745 -0.019280044 -0.0015274171
-0.015837446 0.0012689058 0.00066351274 -0.044648524 0.011520989 -0.012557291 0.018191276 -0.0051023853
0.01597389 -0.0252828 0.013048682 -0.020758549 0.0007021163 0.031525817 0.0036373609 0.0035015538
-0.0071344716 0.01004123 0.0066630295 0.018423222 -0.007636961 0.036691815 0.010484504 -0.03588174
-0.011946934 0.013666338 -0.03702509 -0.0008190609 -0.025264712 -0.008073915 -0.019836156 0.015023451
-0.02827053 -0.017609945 0.0037881169 -0.0285405 -0.026473613 -0.01722892 -0.023369413 -0.01623665
-0.0025129458 -0.025865197 -0.021658173 -0.017558498 0.016689267 0.014266907 0.009613613 -0.0072465646
0.0099123735 -0.030890897 0.029110825 -0.003891566 -0.010137837 0.0026499191 -0.07433633 0.012576191
-0.007726232 -0.0069126496 0.020611664 -0.023219936 -0.0049585043 -0.018904462 0.014237939 0.023362309
0.0016638752 -0.041579805 -0.007644849 -0.013630998 0.006702772 -0.028437397 0.017179733 -0.01564249
-0.019727962 -0.017867975 -0.015231861 -0.034172118 -0.0027336024 -0.030796597 0.027416227 -3.590769e-05
-0.018141646 -0.0013728307 0.035784457 0.019816086 -0.035745952 4.6761572e-05 -0.0056838715 -0.014077155
-0.019549597 -0.02335725 0.03313971 0.0002547121 -0.00918893 -0.004710621 -0.016695468 -0.008759026
0.007019532 0.007816832 0.0010784281 -0.015947677 -0.007968845 0.0058974666 -0.0044435337 0.026190164
-0.012152446 0.006365854 0.034712084 0.0015953244 -0.05510531 0.009466582 -0.0031658877 0.042692866
0.020700037 -0.014951495 0.020920431 -0.015398636 -0.019293623 -0.030697947 0.007681932 0.012680928
-0.001982657 -0.020825604 -0.01315232 -0.0074588787 0.008927343 0.0005578229 0.01910278 0.0059537813
-0.015367903 -0.07077986 0.0088436445 0.03151503 -0.00054473354 0.026981227 0.005045142 -0.0032863796
0.006979738 0.00813395 0.016221808 0.013248556 -0.04278655 -0.0013344601 -0.0013468636 -0.014065094
-0.008995852 -0.011539027 -0.011114133 -0.0152076185 0.010824163 -0.00095516915 -0.026175063 -0.013246758
0.0044713514 -0.029477747 -0.016104326 -0.010787174 0.04221785 -0.03754214 0.054110385 0.026972188
-0.044952735 -0.023257881 -0.019139402 -0.031871952 -0.026403144 0.020133758 -0.0061793285 0.011592303
0.052153826 -0.017300088 -0.006861288 0.011849931 0.030402936 -0.01760733 -0.011606753 -0.005692666
0.021483269 -0.028770883 0.0027084784 0.015358017 -0.006361902 -0.02422932 -0.015292492 0.006653176
-0.0103814015 -0.041966073 -0.00439157 0.0023852675 -0.031038873 0.008231837 0.0043776846 0.018649288
0.010474016 0.03282912 -0.008766 -0.013868658 -0.011112875 0.005360824 -0.010207518 0.030414725
0.010956606 -0.013907693 0.018426409 -0.030346405 0.008188447 -0.010118606 -0.029358022 -0.025338596
00000000: 3c9d e1bb 4202 34bc e0b4 373d b88f 74bc
00000010: c710 993a 146c cd3b a8df 103d 6e82 2f3c
00000020: e7bc b93c 7a92 1ebc 1e68 033b b3ab 90bc
00000030: 30b4 203b 9139 8d3c a75e 08bb b9ad 203d
00000040: 0190 623c c02f 6dbb 3ba3 b13a 124d a2bb
00000050: 0e6b 01bd 0df0 8bbc 2629 7ebc 5c71 3dbb
00000060: 468e 383d f0ec 803c 1366 db3b be2a f8bb
00000070: 72e4 48bb 4a92 a13b 462e a5bb b002 f53a
00000080: ebb7 15bc 24b3 acba 0c26 e23c 8dbe 86bd
00000090: fe2f 74bc 846e 253c 941c 14bd bba1 453d
000000a0: 94b3 943b dce6 9b3c 75d1 65bb 70d6 e33c
000000b0: 1ebe bfbc 19f4 b3bb 2ff1 9dbc 9d33 c8ba
000000c0: 88bd 81bc 6a51 a63a 96ef 2d3a 5fe1 36bd
000000d0: 88c2 3c3c 19bd 4dbc df05 953c e931 a7bb
000000e0: addb 823c e01d cfbc 24ca 553c d50d aabc
000000f0: 3a0e 383a 3721 013d ca60 6e3b 537a 653b
00000100: 49c8 e9bb f983 243c 8b55 da3b 4cec 963c
00000110: 793f fabb 284a 163d 32c7 2b3c bbf8 12bd
00000120: 13bd 43bc c7e8 5f3c 9fa7 17bd 3fb6 56ba
00000130: f1f7 cebc 7448 04bc 6f7f a2bc ec24 763c
00000140: 9997 e7bc bb42 90bc 0e42 783b c4cd e9bc
00000150: 31df d8bc aa23 8dbc 3671 bfbc b902 85bc
00000160: 3cb0 24bb 40e3 d3bc 7b6c b1bc d7d6 8fbc
00000170: eeb7 883c bfbf 693c 6a82 1d3c 9774 edbb
00000180: 8267 223c e80e fdbc d379 ee3c a509 7fbb
00000190: 2c19 26bc 44aa 2d3b a53d 98bd 5e0c 4e3c
000001a0: 552c fdbb 8283 e2bb cbd9 a83c bc37 bebc
000001b0: f37a a2bb 88dd 9abc 3f46 693c 5062 bf3c
000001c0: 6316 da3a 964f 2abd a481 fabb 8d54 5fbc
000001d0: eda2 db3b 8bf5 e8bc 83bc 8c3c ae24 80bc
000001e0: 899c a1bc dc5f 92bc 0e8f 79bc 10f8 0bbd
000001f0: 3d26 33bb 2549 fcbc ff97 e03c 979b 16b8
00000200: ca9d 94bc 8ef0 b3ba b992 123d 5855 a23c
00000210: 596a 12bd db21 4438 c53f babb dea3 66bc
00000220: 7a26 a0bc b457 bfbc 81bd 073d e18a 8539
00000230: 2a8d 16bc 8e5b 9abb efc4 88bc 0582 0fbc
00000240: 1a04 e63b 2b12 003c 0b5a 8d3a b4a4 82bc
00000250: c28f 02bc 893f c13b 109b 91bb c18c d63c
00000260: 0e1b 47bc a798 d03b 422e 0e3d 341a d13a
00000270: 1bb6 61bd b919 1b3c c87a 4fbb b7de 2e3d
00000280: 2093 a93c 1ef7 74bc 5361 ab3c 904a 7cbc
00000290: a90d 9ebc 437a fbbc b7b8 fb3b abc3 4f3c
000002a0: 77ef 01bb 759a aabc d47c 57bc 9c69 f4bb
000002b0: fe43 123c dc3a 123a 6f7d 9c3c f017 c33b
000002c0: a8c9 7bbc 08f5 90bd efe4 103c e715 013d
000002d0: 73cc 0eba bc07 dd3c b851 a53b 4d60 57bb
000002e0: 49b6 e43b 4244 053c 99e3 843c 7910 593c
000002f0: f340 2fbd 0de9 aeba 3e89 b0ba 4871 66bc
00000300: 5763 13bc 300e 3dbc 0d18 36bc 6029 79bc
00000310: d557 313c 5164 7aba 166d d6bc ee08 59bc
00000320: 6a84 923b 517b f1bc 38ed 83bc b0bc 30bc
00000330: a0ec 2c3d c9c5 19bd daa2 5d3d c7f4 dc3c
00000340: 5c20 38bd 5087 bebc 3cca 9cbc 2a8c 02bd
00000350: 684b d8bc 8def a43c f77b cabb a5ed 3d3c
00000360: 409f 553d eab8 8dbc a8d4 e0bb 3726 423c
00000370: 940f f93c 3f3d 90bc 402a 3ebc 8b89 babb
00000380: aefd af3c eab0 ebbc ba80 313b 31a0 7b3c
00000390: 8177 d0bb 917c c6bc 5c8d 7abc e302 da3b
000003a0: c116 2abc 9ee4 2bbd 29e7 8fbb 2652 1c3b
000003b0: 3c45 febc d4de 063c ae72 8f3b 64c6 983c
000003c0: 359b 2b3c d477 063d 459f 0fbc 5e39 63bc
000003d0: c712 36bc daa9 af3b 6f3d 27bc 4d28 f93c
000003e0: 5683 333c 18dd 63bc fbf2 963c 0699 f8bc
000003f0: d628 063c 82c8 25bc 3c80 f0bc e392 cfbc

motion_mlp.mlps.3.fc0.fc.bias f4 [50]
1.5687485e-07 3.2219705e-07 -6.4777635e-07 7.960319e-07 -2.2839644e-07 1.6308246e-06 4.6108252e-07 2.3103361e-08
1.7100443e-06 -3.931644e-06 5.8333495e-07 1.8936953e-07 -3.1907038e-07 2.3974383e-06 1.4016822e-06 -7.601894e-07
-1.7757894e-06 4.238163e-07 -2.8278791e-06 2.2785514e-06 1.1352066e-06 -1.8885338e-06 -1.5863041e-07 2.0100342e-06
4.4552758e-06 1.3110933e-06 2.8754434e-06 -1.4326138e-06 2.670239e-07 -4.074813e-06 1.8470223e-06 -2.139154e-06
-1.0526926e-07 2.802966e-06 -2.4985825e-06 2.034253e-06 -1.2450877e-06 1.951594e-06 3.5091225e-06 -1.1546408e-06
-4.2263027e-06 1.8796339e-06 -2.4652752e-06 -2.4959634e-06 4.324744e-07 -1.1778396e-06 -8.468613e-07 6.676259e-07
-6.338819e-06 -1.292198e-06
00000000: 6e71 2834 6dfa ac34 dae2 2db5 e5ae 5535
00000010: 233d 75b4 b5e2 da35 b38a f734 d474 c632
00000020: ad84 e535 91ec 83b6 7996 1c35 8055 4b34
00000030: b34c abb4 ade3 2036 6f21 bc35 d10f 4cb5
00000040: a957 eeb5 de88 e334 98c6 3db6 37e9 1836
00000050: 675d 9835 8779 fdb5 ff53 2ab4 20e4 0636
00000060: 877e 9536 d3f8 af35 bef7 4036 3c48 c0b5
00000070: 7c5b 8f34 61ba 88b6 34e7 f735 638e 0fb6
00000080: 6310 e2b3 971a 3c36 52ad 27b6 3384 0836
00000090: e31c a7b5 21f8 0236 447e 6b36 28f9 9ab5
000000a0: aacf 8db6 bb47 fc35 1b71 25b6 5380 27b6
000000b0: d42e e834 4316 9eb5 de53 63b5 e736 3335
000000c0: 0ab2 d4b6 966f adb5

motion_mlp.mlps.3.norm0.alpha f4 [1, 54, 1]
0.11134199 0.1259909 0.17404349 0.07670918 0.05257 0.07387993 0.04215366 0.054305118
0.07173495 0.11807661 0.1930901 0.05636738 0.083233565 0.081916675 0.077026665 0.07914985
0.084619336 0.05939564 0.08359248 0.03167693 0.084634475 0.06984542 0.061954223 0.06955075
0.11770629 0.1557099 0.071558215 0.071242325 0.030743847 0.08480649 0.051638357 0.00018200552
0.089189395 0.03156839 0.16191018 0.07446147 0.043012008 0.13652228 0.09274195 0.12363904
0.09354105 0.08421285 0.073489234 0.07569073 0.057309978 0.01672569 0.03253342 0.070619434
0.087823436 0.20550607 0.06612015 0.14263992 0.07669382 0.04873873
00000000: 4507 e43d c203 013e 7538 323e b419 9d3d
00000010: a453 573d 5c4e 973d 51a9 2c3d 0b6f 5e3d
00000020: c6e9 923d 26d2 f13d 69b9 453e 7be1 663d
00000030: 5c76 aa3d eec3 a73d 28c0 9d3d 5119 a23d
00000040: e74c ad3d d848 733d 8932 ab3d abbf 013d
00000050: d754 ad3d 1e0b 8f3d b6c3 7d3d a070 8e3d
00000060: ff0f f13d 6b72 1f3e 1d8d 923d 7fe7 913d
00000070: 85da fb3c 06af ad3d be82 533d bcd8 3e39
00000080: eea8 b63d db4d 013d c8cb 253e 417f 983d
00000090: 5c2d 303d 7fcc 0b3e 7eef bd3d 7736 fd3d
000000a0: 7392 bf3d c977 ac3d 8681 963d be03 9b3d
000000b0: debd 6a3d 5004 893c c341 053d eca0 903d
000000c0: c6dc b33d 2f70 523e 006a 873d 3310 123e
000000d0: a611 9d3d 43a2 473d

motion_mlp.mlps.3.norm0.beta f4 [1, 54, 1]
0.023086991 0.006726818 0.04388686 0.0004915966 -0.010858828 0.0022315441 0.00092975324 -0.0038214992
-0.003654058 -0.008810956 -0.005444201 -0.0039801016 -0.008454615 -0.006149537 -0.0033417107 0.018282013
-0.021458557 -0.00785752 0.0088850185 0.0008322232 0.0018919752 -0.0027141375 -0.0076798606 9.0054105e-05
-0.03421921 -0.021165557 -0.0011244137 0.0031761534 0.0072960183 -0.009329857 -0.0013052871 0.003050466
0.018736992 0.012450367 0.04238437 0.008656944 0.0013525151 0.05034767 -0.00082843396 0.023635877
-0.004225807 -0.006229069 -0.0036875184 -0.004782011 -0.01689377 -0.006574197 0.0011607489 -0.0109179495
-0.0026049097 -0.035466816 -0.0031809062 0.019840715 0.005331995 -0.000710998
00000000: ee20 bd3c a46c dc3b b5c2 333d 7dde 003a
00000010: 3ae9 31bc 193f 123b afba 733a 1e72 7abb
00000020: ec78 6fbb d45b 10bc 4565 b2bb 836b 82bb
00000030: 3a85 0abc 0e82 c9bb 9a00 5bbb 29c4 953c
00000040: dbc9 afbc d4bc 00bc 7892 113c 8e29 5a3a
00000050: 27fc f73a acdf 31bb 57a7 fbbb 6edb bc38
00000060: 7129 0cbd 6463 adbc 1061 93ba 0327 503b
00000070: 7013 ef3b 42dc 18bc 2b16 abba 54ea 473b
00000080: 527e 993c a0fc 4b3c 3c9b 2d3d dbd5 0d3c
00000090: e046 b13a 5c39 4e3d 432b 59ba 07a0 c13c
000000a0: a378 8abb 381d ccbb 4baa 71bb 6ab2 9cbb
000000b0: ce64 8abc 5d6c d7bb 4524 983a 33e1 32bc
000000c0: 22b7 2abb a745 11bd c076 50bb ff88 a23c
000000d0: 04b8 ae3b 4562 3aba

motion_mlp.mlps.4.fc0.fc.weight f4 [50, 50]
-0.0049131652 0.017030498 -0.011296075 0.032627776 0.0031961503 0.0020590283 -0.105036184 -0.02698934
0.052771334 -0.0073443935 -0.0065424023 -0.0062996713 0.0073513845 0.0019629279 -0.012404414 -0.02021622
0.00883779 0.015056326 0.0020801537 -0.022637183 -0.020185338 0.027374152 0.024333205 -0.0014242213
-0.030365393 0.005050722 0.014007668 0.031990226 -0.004786398 0.04003562 -0.0017952953 -0.02227445
-0.014685247 0.019562101 -0.01329328 -0.0041892715 0.011073923 0.03707216 -0.026331773 -0.016934065
0.026232123 -0.009513991 -0.00037345788 -0.003545126 0.01488843 0.0072480915 -0.0059819277 0.012275288
0.0151974205 -0.07263282 0.018006437 -0.03743942 -0.0014323723 -0.02196304 -0.006531519 -0.02592983
-0.006381937 -0.002814295 0.028021734 -0.023588138 0.0221496 0.005776129 -0.02039457 -0.0020315875
0.005356629 0.028236005 -0.01779788 -0.023501312 0.012059154 -0.018277634 0.022810472 -0.020507969
0.0071649477 0.0072559817 -0.009189522 0.012782009 -0.012883169 -0.034150045 -0.024778984 -0.03948716
-0.0054194806 -0.0207721 -0.00063480716 -0.060801674 0.032248955 0.0057488577 -0.064957276 0.014388069
0.015504817 -0.007174519 0.033846226 0.023104941 -0.007718947 0.0006199908 0.019015046 -0.011991047
0.01765343 0.0018571845 -0.010630504 0.022471314 -0.007341996 -0.0071316906 0.007790137 -0.027324572
-0.005489094 -0.0065239817 0.043080118 0.006311363 0.019733516 0.0018845376 0.011000183 0.01790234
0.021611076 0.030127443 0.00033328315 0.0036726713 -0.008780161 -0.010213584 0.02399083 -0.007787344
0.03210358 -0.012916029 0.013354789 -0.022996001 0.022999639 0.004044354 0.022222841 -0.020564575
0.03919605 0.0193096 0.011922818 -0.0051022074 0.025021257 -0.005105272 -0.0068293097 0.004544957
-0.008762061 -0.0009314267 0.03810339 0.05147581 0.0011951594 -0.015925739 0.00868402 -0.000102678685
-0.015396962 0.0049696257 0.032083467 0.011778517 -0.021481676 0.016277429 -0.002295111 0.009318861
0.010139379 -0.027390124 -0.044463944 -0.018803332 -0.023783354 -0.045587413 0.043877814 0.022569695
0.0020148575 0.02261804 0.0001109023 -0.013679661 0.007894574 -0.008834578 -0.028855262 0.028760241
0.006967371 -0.022996603 -0.0063143917 0.004599677 -0.0064880145 0.02544607 -0.004798571 0.011786384
0.03602408 0.028440475 -0.026784625 0.0064770463 -0.010312413 -0.041157268 -0.017871961 0.04310226
0.021676343 0.015743686 0.024199352 0.028035527 -0.012702508 -0.008997443 -0.013798871 -0.0005000943
0.004810918 0.0032209181 -0.007176701 -0.005759656 0.049616326 0.03060076 -0.004611624 -0.0018970371
-0.031477123 0.012810932 0.006273638 0.03092842 -0.0041172015 -0.007012792 0.03501618 0.007843131
-0.012068138 -0.017235013 0.011409079 -0.02463557 -0.03779559 0.013368239 0.014476993 -0.009091436
-0.036581647 -0.012848733 0.0010436788 -0.008682495 0.00087214616 -0.009751112 -0.021367172 0.020512572
0.006225153 0.0602375 -0.004218178 -0.02370436 -0.038622756 -0.02133609 -0.024952484 -0.014459832
0.021525463 0.014081106 -0.013139002 0.021434186 -0.012624522 0.014308438 0.001469338 0.0011359084
-0.0194239 -0.0063611274 -0.0402318 -0.0067467312 -0.010603866 -0.039285958 -0.017804943 -0.008227202
-0.014992086 -0.04376017 0.02471703 -0.020668948 0.00964372 0.025817262 -0.0074107917 -0.06425302
00000000: 9efe a0bb 8b83 8b3c 2c13 39bc b4a4 053d
00000010: 8176 513b c3f0 063b 361d d7bd c018 ddbc
00000020: c126 583d 3da9 f0bb a661 d6bb 796d cebb
00000030: e2e3 f03b 77a4 003b e23b 4bbc 7c9c a5bc
00000040: 61cc 103c cfae 763c 3053 083b 9d71 b9bc
00000050: b95b a5bc c23f e03c 6e56 c73c f0ac baba
00000060: d8c0 f8bc 8780 a53b 6b80 653c 2f08 033d
00000070: 37d7 9cbb 64fc 233d 1d50 ebba e878 b6bc
00000080: 649a 70bc b340 a03c 0fcc 59bc 2846 89bb
00000090: 666f 353c fad8 173d bbb5 d7bc 4fb9 8abc
000000a0: c0e4 d63c 92e0 1bbc abcc c3b9 5855 68bb
000000b0: 9aee 733c 6681 ed3b 0c04 c4bb 4a1e 493c
000000c0: 9afe 783c 84c0 94bd 3c82 933c 145a 19bd
000000d0: 70be bbba d5eb b3bc 5a06 d6bb cb6a d4bc
000000e0: 911f d1bb 0970 38bb d68d e53c e93b c1bc
000000f0: 1473 b53c af45 bd3b 8312 a7bc 6224 05bb
00000100: a986 af3b 324f e73c dccc 91bc d385 c0bc
00000110: c293 453c faba 95bc 07dd ba3c 5400 a8bc
00000120: f0c7 ea3b 96c3 ed3b a68f 16bc a26b 513c
00000130: ed13 53bc ebe0 0bbd 4cfd cabc 4abd 21bd
00000140: e695 b1bb 402a aabc 3069 26ba 2d0b 79bd
00000150: 7b17 043d ea60 bc3b 5208 85bd efbb 6b3c
00000160: ea07 7e3c 3a18 ebbb 57a2 0a3d 9346 bd3c
00000170: 38ef fcbb e186 223a 71c5 9b3c 1976 44bc
00000180: ed9d 903c c56c f33a 912b 2ebc c315 b83c
00000190: 2095 f0bb f5b0 e9bb 6844 ff3b c8d7 dfbc
000001a0: dcdd b3bb 20c7 d5bb c774 303d 8dcf ce3b
000001b0: 2fa8 a13c 9702 f73a 1d3a 343c eea7 923c
000001c0: b609 b13c d4cd f63c 82bc ae39 33b1 703b
000001d0: aada 0fbc e056 27bc 6b88 c43c fa2c ffbb
000001e0: 0b7f 033d c19d 53bc 0bce 5a3c 1c62 bcbc
000001f0: bd69 bc3c 8086 843b ad0c b63c 0a77 a8bc
00000200: 0a8c 203d 2b2f 9e3c ec57 433c 6b30 a7bb
00000210: 61f9 cc3c 204a a7bb 67c8 dfbb dded 943b
00000220: bf8e 0fbc fd2a 74ba 4d12 1c3d 4dd8 523d
00000230: e5a6 9c3a b276 82bc 6b47 0e3c 3355 d7b8
00000240: 8a43 7cbc 3ed8 a23b f469 033d aefa 403c
00000250: 57fa afbc 3e58 853c 9369 16bb 23ae 183c
00000260: a31f 263c 4161 e0bc d31f 36bd 7209 9abc
00000270: 4fd5 c2bc deb9 3abd 39b9 333d 15e4 b83c
00000280: b30b 043b 7849 b93c 3894 e838 a820 60bc
00000290: 3e58 013c e8be 10bc df61 ecbc 999a eb3c
000002a0: 8b4e e43b 5f63 bcbc f5e8 cebb e3b8 963b
000002b0: 6999 d4bb 4774 d03c 553d 9dbb ad1b 413c
000002c0: fc8d 133d 00fc e83c 6e6b dbbc 673d d43b
000002d0: 65f5 28bc 8694 28bd 3868 92bc ff8b 303d
000002e0: 9692 b13c e7f8 803c b83d c63c c3aa e53c
000002f0: 2e1e 50bc 036a 13bc a914 62bc c318 03ba
00000300: e8a4 9d3b 0a16 533b 882a ebbb 7fbb bcbb
00000310: 7d3a 4b3d 72ae fa3c 1b1d 97bb 01a6 f8ba
00000320: 28ee 00bd f1e4 513c 1793 cd3b 995d fd3c
00000330: 97e9 86bb 90cb e5bb 206d 0f3d 7a80 003c
00000340: 71b9 45bc 7130 8dbc 25ed 3a3c 89d0 c9bc
00000350: 8ccf 1abd 7506 5b3c e930 6d3c 3ff4 14bc
00000360: a3d6 15bd 7e83 52bc 0dcc 883a 0641 0ebc
00000370: bda0 643a 21c3 1fbc 350a afbc fb09 a83c
00000380: 5efc cb3b 99bb 763d a438 8abb a52f c2bc
00000390: e532 1ebd 06c9 aebc 2769 ccbc eee8 6cbc
000003a0: 2b56 b03c 70b4 663c f844 57bc bf96 af3c
000003b0: 15d7 4ebc f06d 6a3c cd96 c03a c3e2 943a
000003c0: df1e 9fbc 0171 d0bb 1aca 24bd af13 ddbb
000003d0: d6bb 2dbc 50ea 20bd acdb 91bc 63cb 06bc
000003e0: 5ea1 75bc dd3d 33bd 5e7b ca3c ed51 a9bc
000003f0: b200 1e3c b97e d33c 3ad6 f2bb 1697 83bd

motion_mlp.mlps.4.fc0.fc.bias f4 [50]
1.2867414e-06 -2.638399e-06 2.348569e-07 -2.0305592e-06 1.2726924e-06 7.9049795e-07 -9.52245e-07 4.6760127e-07
-6.2741e-07 9.5007925e-07 1.4626835e-06 7.599043e-07 1.5316346e-06 1.3313071e-06 -1.1501604e-06 1.3861955e-07
9.804392e-07 -1.083142e-06 -5.7943447e-07 8.969241e-07 1.9351073e-06 -1.0108574e-06 3.5199496e-06 4.945353e-07
1.3956941e-06 -1.6018109e-06 -1.9465333e-06 3.0921137e-07 2.4643535e-07 -2.3969588e-07 3.2251548e-06 -1.6221686e-06
-7.8682774e-07 -2.1207998e-07 9.707795e-07 4.4825643e-07 -1.71205e-06 -3.7648615e-08 -1.9627355e-06 -1.05111e-06
-2.1631681e-06 2.425964e-06 -1.4471524e-06 -1.2445754e-06 1.7242695e-06 4.3725254e-06 -7.420864e-07 1.1242332e-06
1.6753233e-07 -2.3609988e-07
00000000: 19b4 ac35 5a0f 31b6 f92c 7c34 be44 08b6
00000010: 61d1 aa35 9b32 5435 c79d 7fb5 a10a fb34
00000020: 496b 28b5 f308 7f35 6c51 c435 3afc 4b35
00000030: 9092 cd35 5daf b235 365f 9ab5 74d7 1434
00000040: a297 8335 7a60 91b5 6f8a 1bb5 28c4 7035
00000050: e4dc 0136 ccac 87b5 4638 6c36 35c0 0435
00000060: af53 bb35 cefd d6b5 30a1 02b6 b001 a634
00000070: d14d 8434 8daf 80b4 bd6f 5836 4ab9 d9b5
00000080: 6436 53b5 1ab8 63b4 bb4b 8235 e5a7 f034
00000090: 97c9 e5b5 17b3 21b3 8ab7 03b6 dd13 8db5
000000a0: f22a 11b6 bfcd 2236 c73b c2b5 490b a7b5
000000b0: 736d e735 b5b7 9236 ca33 47b5 5ce4 9635
000000c0: f0e2 3334 a482 7db4
