src/siMLPe/exps/baseline_amass/log/snapshot/model-iter-20000.pth (torch, 604338 bytes, 196 tensors)

motion_mlp.mlps.0.fc0.fc.weight f4 [50, 50]
-0.016307073 -0.053600743 0.023375347 -0.029399917 0.011492777 -0.0115398895 0.017892744 -0.031526014
-0.0030779114 -0.016431885 -0.01223914 -0.021882892 -0.009385925 -0.02204591 -0.011901332 -0.027673325
-0.013484945 -0.029866235 -0.0075589796 -0.034811188 -0.004409204 -0.03042959 -0.004441716 -0.03394351
-0.004088071 -0.028365334 -0.009186985 -0.021716742 -0.009573833 -0.017724475 -0.015319992 -0.008128779
-0.016839119 -0.0045792945 -0.018385991 -0.00079325907 -0.01864581 -0.0002666552 -0.017391326 0.0024716693
-0.01542699 0.0027446481 -0.013541773 0.0024529567 -0.009761584 0.00052452344 -0.007159624 0.00029553298
-0.0044151964 -0.0021663888 0.0060488326 -0.012788664 0.0035550587 -0.008138475 -0.011822226 -0.009867514
-0.020760886 0.012547425 0.0032743288 -0.0056440253 0.0020403888 0.018603094 -0.00636532 0.009935318
-0.007108049 0.016916662 0.005979623 0.0014499655 0.0072516934 -0.0054158 0.008683738 -0.0069795465
0.006027189 -0.010927461 0.0031598308 -0.01321663 -0.0017206174 -0.0111055095 -0.0062320703 -0.009652512
-0.011236403 -0.0051250765 -0.014637917 -0.0069788815 -0.0145079 -0.0065970863 -0.01740801 -0.005770795
-0.01789876 -0.0064882883 -0.017736888 -0.007901304 -0.01697817 -0.009090468 -0.016488135 -0.01041676
-0.015769396 -0.012288643 -0.014848225 -0.01361024 -0.004850039 -0.017199758 0.02010386 -0.0087280525
-0.0019581176 -0.01172076 0.0039500585 0.0022613287 -6.9515314e-05 -0.0038429934 0.0037367 0.0029737242
-0.0050238147 0.025653904 -0.0033115502 0.034937825 -8.275104e-05 0.033281047 0.015573212 0.019935163
0.020511968 0.019491822 0.01807484 0.016263103 0.023530383 0.013200178 0.014045959 0.019558309
0.013090943 0.024214182 0.0066411574 0.029922552 0.004438056 0.030154286 0.0029805452 0.033376087
0.0017790642 0.033724133 0.0025673464 0.033357326 0.0038464344 0.030395763 0.006769135 0.029118089
0.009992062 0.02564581 0.012891699 0.023970757 0.016415205 0.021031236 -0.007565919 0.014544095
-0.010619032 0.018046802 -0.018745746 0.021567589 -0.024546353 0.047362596 -0.025964113 0.039779555
-0.016665364 0.017877284 -0.0010343615 0.024119781 0.006536513 0.027800694 0.00909173 0.025939845
0.010164251 0.02904925 0.012799622 0.024082659 0.019065566 0.021931069 0.019253235 0.022419376
0.018101022 0.022512572 0.017365878 0.021356609 0.018015008 0.021815844 0.017180638 0.020984195
0.016953656 0.020286271 0.016893376 0.019660851 0.016573071 0.018109102 0.017664421 0.016336964
0.01728502 0.016216923 0.017077535 0.016719688 0.016358469 0.016713046 0.01667106 0.01630654
0.0012427446 -0.019246977 0.021664932 0.009551535 -0.053823538 -0.02062179 -0.010873635 -0.025965504
-0.0022065262 -0.014379604 -0.01082259 -0.015596963 -0.012501262 -0.013571792 -0.018983303 -0.0027837297
-0.025837084 -0.0025619988 -0.019105805 0.009055587 -0.021048762 0.008730482 -0.013581454 0.008613832
-0.01028173 0.008218451 -0.004630117 0.007120953 -0.0021100948 0.0067107147 0.0027807348 0.005299591
0.0035533744 0.004814999 0.0054997066 0.0054872488 0.008035425 0.0050798757 0.009241578 0.0059201494
0.009233604 0.0063582216 0.009270556 0.007285408 0.009913598 0.0076066665 0.00968903 0.008485864
0.009603156 0.010497466 0.0009840116 0.00021518827 0.0041225106 0.0034173164 -0.0030350953 0.0026246693
00000000: 6996 85bc 748c 5bbd a87d bf3c 18d8 f0bc
00000010: 334c 3c3c ce11 3dbc ce93 923c 6c21 01bd
00000020: c9b6 49bb 299c 86bc ad86 48bc c043 b3bc
00000030: 6cc7 19bc a099 b4bc cefd 42bc 2bb3 e2bc
00000040: f5ef 5cbc 09aa f4bc 51b1 f7bb 2d96 0ebd
00000050: 157b 90bb 7a47 f9bc d08b 91bb 5a08 0bbd
00000060: 3af5 85bb 6b5e e8bc 0285 16bc 4fe7 b1bc
00000070: 91db 1cbc eb32 91bc b400 7bbc 922e 05bc
00000080: 31f2 89bc e80d 96bb 389e 96bc b7f2 4fba
00000090: 19bf 98bc dbcd 8bb9 4178 8ebc bbfb 213b
000000a0: 7cc1 7cbc 8edf 333b 50de 5dbc c9c1 203b
000000b0: 0def 1fbc 2c80 093a 479b eabb c4f1 9a39
000000c0: 5aad 90bb f9f9 0dbb 4935 c63b 8b87 51bc
000000d0: fdfb 683b 3d57 05bc 03b2 41bc 5aab 21bc
000000e0: bc12 aabc b793 4d3c 1f96 563b 84f1 b8bb
000000f0: 0bb8 053b 8465 983c 2d94 d0bb bec7 223c
00000100: a3ea e8bb d094 8a3c b7f0 c33b c50c be3a
00000110: 9d9f ed3b 0677 b1bb 3d46 0e3c aeb4 e4bb
00000120: ba7f c53b 1809 33bc 2a15 4f3b 908a 58bc
00000130: 5786 e1ba e2f3 35bc 6536 ccbb 9225 1ebc
00000140: e418 38bc 42f0 a7bb e0d3 6fbc 1aaf e4bb
00000150: 8bb2 6dbc 5f2c d8bb 3e9b 8ebc f018 bdbb
00000160: 6ca0 92bc b59b d4bb f34c 91bc 7974 01bc
00000170: ce15 8bbc 30f0 14bc 2012 87bc 0fab 2abc
00000180: d22e 81bc 4e56 49bc f845 73bc 7cfd 5ebc
00000190: 13ed 9ebb 82e6 8cbc dab0 a43c 1b00 0fbc
000001a0: c353 00bb 6e08 40bc 7e6f 813b cd32 143b
000001b0: c0c8 91b8 bbda 7bbb 6ce3 743b d0e2 423b
000001c0: d09e a4bb 2328 d23c 9806 59bb f71a 0f3d
000001d0: a08a adb8 b551 083d c926 7f3c 114f a33c
000001e0: b708 a83c 50ad 9f3c b011 943c 333a 853c
000001f0: cac2 c03c 8f45 583c 0621 663c bf38 a03c
00000200: 657b 563c d25c c63c 119e d93b 2420 f53c
00000210: 1d6d 913b 1f06 f73c 4055 433b 5db5 083d
00000220: 7d2f e93a 5122 0a3d ed40 283b b1a1 083d
00000230: 7614 7c3b 8900 f93c 9fcf dd3b 0f89 ee3c
00000240: bfb5 233c 2917 d23c b437 533c 525e c43c
00000250: 2e79 863c b349 ac3c 87eb f7bb 5b4a 6e3c
00000260: 73fb 2dbc e3d6 933c ae90 99bc 83ae b03c
00000270: 6f15 c9bc 48ff 413d b1b2 d4bc e3ef 223d
00000280: cd85 88bc 6273 923c 6a93 87ba d996 c53c
00000290: 3f30 d63b 48be e33c 7bf5 143c cc7f d43c
000002a0: f587 263c b1f8 ed3c 81b5 513c ff48 c53c
000002b0: 642f 9c3c c9a8 b33c f6b8 9d3c d7a8 b73c
000002c0: 9848 943c 496c b83c e342 8e3c 0ef4 ae3c
000002d0: 3694 933c 24b7 b23c 69be 8c3c 0ce7 ab3c
000002e0: 65e2 8a3c 652f a63c fa63 8a3c cb0f a13c
000002f0: 40c4 873c 8a59 943c fab4 903c 19d5 853c
00000300: 5099 8d3c 5ad9 843c 30e6 8b3c baf7 883c
00000310: 3202 863c cce9 883c bf91 883c 4b95 853c
00000320: 97e3 a23a d6ab 9dbc a87a b13c 0b7e 1c3c
00000330: 1276 5cbd 07ef a8bc 5527 32bc 9cb5 d4bc
00000340: 5e9b 10bb 6e98 6bbc 3c51 31bc 688a 7fbc
00000350: 18d2 4cbc 395c 5ebc df82 9bbc 3c6f 36bb
00000360: 4ba8 d3bc 35e7 27bb c783 9cbc e35d 143c
00000370: 746e acbc 4c0a 0f3c bf84 5ebc 0821 0d3c
00000380: b474 28bc afa6 063c 3db8 97bb e256 e93b
00000390: 8449 0abb 8ee5 db3b fd3c 363b 31a8 ad3b
000003a0: bbdf 683b 24c7 9d3b e236 b43b 61ce b33b
000003b0: 04a7 033c 1675 a63b fd69 173c d0fd c13b
000003c0: 8b48 173c a158 d03b 88e3 173c 6fba ee3b
000003d0: a56c 223c 5841 f93b bdbe 1e3c 4b08 0b3c
000003e0: 8e56 1d3c 90fd 2b3c f3f9 803a 29a4 6139
000003f0: 2016 873b 0ef5 5f3b 73e8 46bb a502 2c3b

motion_mlp.mlps.0.fc0.fc.bias f4 [50]
-3.3624233e-06 -5.232074e-06 4.3909924e-05 -1.6485714e-05 -3.577661e-05 1.767173e-06 1.638982e-05 -1.546634e-05
3.714252e-06 -1.9054119e-06 3.070303e-05 3.4843306e-05 -3.1176125e-05 -6.642778e-05 -4.2328247e-05 2.1499483e-05
-5.3024246e-06 9.122555e-05 -1.930498e-05 3.875908e-05 -0.00023260746 2.2628208e-05 0.00020771584 9.667319e-06
2.2538648e-05 1.2931548e-05 5.762899e-05 -3.411191e-05 -2.4255112e-08 4.0655963e-05 6.104697e-06 1.4952754e-05
-8.740212e-06 1.599975e-05 -1.7475099e-05 7.705911e-05 0.0003253887 1.0350118e-06 -1.1382302e-05 -3.0908177e-06
-3.6923557e-05 8.329883e-06 3.551186e-05 -8.966716e-06 -8.4278894e-05 -2.7729411e-05 -5.9250156e-06 1.9106761e-05
2.111393e-05 -9.520649e-06
00000000: fea5 61b6 2c8f afb6 ec2b 3838 cd4a 8ab7
00000010: d80e 16b8 9a2f ed35 df7c 8937 b6bd 81b7
00000020: 5d42 7936 74bd ffb5 21c7 0038 b724 1238
00000030: 1cc3 02b8 254f 8bb8 9c89 31b8 ca59 b437
00000040: 7beb b1b6 5850 bf38 21f1 a1b7 3f91 2238
00000050: 17e8 73b9 b5d1 bd37 4cce 5939 d230 2237
00000060: 6111 bd37 93f4 5837 a8b6 7138 6213 0fb8
00000070: 8e59 d0b2 0286 2a38 f3d6 cc36 97dd 7a37
00000080: eda2 12b7 3437 8637 7d97 92b7 cb9a a138
00000090: ef98 aa39 bcea 8a35 9df6 3eb7 d86b 4fb6
000000a0: 5ede 1ab8 93c0 0b37 92f2 1438 c16f 16b7
000000b0: e3be b0b8 759c e8b7 7fcf c6b6 7547 a037
000000c0: d21d b137 e0ba 1fb7

motion_mlp.mlps.0.norm0.alpha f4 [1, 54, 1]
0.2554173 0.24965446 0.34869078 0.23618782 0.2168412 0.23376024 0.25261933 0.18983619
0.28232357 0.3980002 0.3195097 0.20689741 0.22757575 0.22635914 0.18698101 0.321694
0.2522917 0.20190816 0.29212177 0.50220096 0.26462272 0.2409508 0.27758545 0.22283392
0.27016628 0.3059265 0.22539371 0.22739974 0.34385836 0.22959895 0.22497131 -0.0020252322
0.2494266 0.29235774 0.28070852 0.21236947 0.26083004 0.3978021 0.25180516 0.21741693
0.23953865 0.23417982 0.25421786 0.2160302 0.34307504 0.2865932 0.53049034 0.20842348
0.23344322 0.33420843 0.2127102 0.22665107 0.22131935 0.33083946
00000000: 0ec6 823e 6ba5 7f3e 9987 b23e 38db 713e
00000010: 9f0b 5e3e d85e 6f3e 5257 813e 6b64 423e
00000020: b78c 903e afc6 cb3e c796 a33e eadc 533e
00000030: 9e09 693e b1ca 673e f377 3f3e 13b5 a43e
00000040: 612c 813e 03c1 4e3e fc90 953e 3e90 003f
00000050: a17c 873e cebb 763e ae1f 8e3e 932e 643e
00000060: 3c53 8a3e 66a2 9c3e 9ccd 663e 7adb 683e
00000070: 340e b03e fd1b 6b3e e15e 663e c2b9 04bb
00000080: b069 7f3e eaaf 953e 07b9 8f3e 6277 593e
00000090: 848b 853e b8ac cb3e 9bec 803e 8ba2 5e3e
000000a0: 9f49 753e d6cc 6f3e d828 823e 0537 5d3e
000000b0: 88a7 af3e 58bc 923e 37ce 073f f76c 553e
000000c0: bd0b 6f3e 5e1d ab3e b4d0 593e 3817 683e
000000d0: 8aa1 623e ca63 a93e

motion_mlp.mlps.0.norm0.beta f4 [1, 54, 1]
0.00015632027 0.00041553457 0.008387606 0.0017079362 0.00044762998 0.0010611026 0.0017135673 0.0011092928
0.0032490669 -8.1106446e-05 0.0073695085 -0.0013220115 -0.0018156875 -0.0011871449 -0.00071302615 0.00011551348
-0.0006053186 -0.0019934005 0.0024005233 0.0010118752 -0.001958605 -0.002858419 0.0005381972 -0.0014515317
-0.003703872 -0.0011798902 0.00015071323 0.00074379536 0.0015274307 -0.00045548164 -0.00043208068 0.036181252
0.0019440717 0.0011156212 -0.001760867 -0.001517627 -0.0027815264 -0.0015726219 -0.0025855722 0.0044635683
-0.0007115666 0.0017781324 -0.0008954769 -0.0006974722 -0.00019134946 0.00080663 0.0017100403 -0.0037049784
0.00074280036 -0.006924493 -0.0005106804 0.0017730113 5.2831834e-05 -0.002415509
00000000: e7e9 2339 1bdc d939 2b6c 093c d4dc df3a
00000010: e1af ea39 b214 8b3a c799 e03a b165 913a
00000020: 4cee 543b b117 aab8 eb7b f13b 5847 adba
00000030: 5dfc edba f999 9bba 60ea 3aba d43f f238
00000040: 3eae 1eba b6a3 02bb 1952 1d3b e6a0 843a
00000050: f05b 00bb 5054 3bbb cd15 0d3a 5241 beba
00000060: a9bc 72bb 8ca6 9aba c608 1e39 43fb 423a
00000070: 1234 c83a b6cd eeb9 e388 e2b9 cb32 143d
00000080: 39d0 fe3a 093a 923a e4cc e6ba 1deb c6ba
00000090: 454a 36bb 6f20 ceba b472 29bb 2043 923b
000000a0: 6d88 3aba 3910 e93a 70be 6aba 91d6 36ba
000000b0: fba4 48b9 0674 533a 6e23 e03a 39cf 72bb
000000c0: 7db8 423a dbe6 e2bb 2edf 05ba 6364 e83a
000000d0: c097 5d38 844d 1ebb

motion_mlp.mlps.1.fc0.fc.weight f4 [50, 50]
-0.012437073 -0.014936776 0.035879146 -0.00789903 0.004398095 -0.02322106 0.0021717553 0.009106376
0.008383284 -0.02501678 0.010495959 0.0143722 -0.0022975085 0.01507055 0.003521312 -0.0067663225
0.006407051 -0.010360425 -0.0145165315 -0.012220963 -0.042516433 -0.05174306 -0.020057023 0.00039170813
-0.005642138 -0.0056583886 0.017218674 0.0034816791 -0.0067276885 0.0052680587 0.022371003 -0.010171218
-0.028859202 -0.027782056 -0.013006399 -0.011060859 -0.03162407 0.011873773 -0.013819516 -0.0034265735
-0.014554972 -0.0003021242 -0.0044922805 -0.009781089 0.017264206 -0.042027514 -0.030020436 -0.028409861
0.015744802 -0.0036609278 0.012467951 -0.021272631 0.063752316 -0.007708583 -0.009784166 -0.0016782512
-0.047637988 -0.010313417 0.01659153 -0.016401522 -0.0053899735 0.039243165 0.0080771595 0.0030945938
0.028018733 -0.00079156307 0.013964627 0.029716749 0.0038141632 -0.018898265 0.021932699 0.0013491585
0.053296432 0.0011883231 -0.0057137134 0.014605312 0.024262656 0.018565737 0.00086506363 -0.00310545
0.00024209445 -0.016497254 -0.007120082 0.004551399 0.003099214 0.011647832 0.017073361 -0.0014943288
0.007188708 0.0016724688 0.019355444 -0.0037492476 0.0056288675 -0.0076444848 0.050570063 -0.00053000764
-0.014616336 0.002190243 -0.00271529 -0.012515122 0.0004243911 -0.00165321 -0.013460374 -0.006613446
0.003036172 -0.0132824555 -0.016256107 0.00049731194 -0.0079219565 0.013687083 -0.0016564608 -0.013507774
-0.007404529 -0.00037411408 0.0020145385 -0.0065111336 -0.00061980257 0.0034447147 -0.0049102954 0.000101743135
-0.1080213 0.015814558 -0.16899674 0.0081738755 -0.0074022263 0.0053125457 -0.021220168 -0.0054323906
0.0012208322 -0.0018382468 -0.025853204 -0.0002344485 -0.00043084056 0.00850639 -0.0041917 -0.072271205
-0.03097966 1.4270237e-06 -0.0011769825 -0.00782186 -0.00816217 -0.017003778 0.004961367 0.009576397
-0.009413059 -0.0018824284 0.0012610309 0.0045924033 0.0029289396 0.00714632 0.012127136 0.0060599484
0.03174214 0.02313939 0.050909843 0.02393322 -0.038936544 -0.03253945 0.009382006 0.012647317
0.003484458 0.0085691055 0.00807705 -0.02676897 0.04287007 -0.008338747 -0.01622159 0.006293736
0.0063220453 -0.0140332095 -0.035984326 0.019128233 -0.04073008 -0.0045293258 0.0101296455 0.0003747843
-0.01147405 0.004091289 -0.0005466606 -0.009760316 0.0011047758 0.016136402 0.015769394 0.028876886
-0.015150404 -0.03650792 0.032806594 -0.00455754 -0.008837658 -0.0043444894 -0.010362989 0.014072227
-0.011268101 0.009229115 -0.029044643 0.012003811 0.027121989 0.01939878 -0.009556022 0.011126193
-0.011750101 0.013714483 -0.026368413 -0.024334945 -0.04128064 -0.003816918 0.0432195 0.027431015
-0.047432 -0.007396981 0.009135258 -0.0025973376 -0.014021571 0.02281374 0.00095074903 0.01587135
-0.008097771 -0.003494923 0.003993497 -0.001674034 -0.018030228 0.00746543 -0.03060817 -0.023361206
0.015177003 0.015885174 -0.0353608 -0.038871504 0.01360325 0.028266689 -0.036447965 -0.01484203
-0.016499557 0.00026653043 -0.021678625 -0.017903678 -0.029233687 0.0131252855 -0.0016822071 0.020962197
0.03770473 0.033201717 0.005307684 0.0044521648 0.003619666 0.007627664 -0.02037804 -0.028466512
-0.018166995 -0.000361546 0.007978788 0.0037987432 -0.0075489106 0.017311202 0.004319526 -0.036169652
00000000: ddc4 4bbc 61b9 74bc 03f6 123d ef6a 01bc
00000010: e51d 903b 183a bebc 0254 0e3b e932 153c
00000020: 0b5a 093c fdef ccbc 3ef7 2b3c 6079 6b3c
00000030: cc91 16bb 78ea 763c d0c5 663b 07b8 ddbb
00000040: 3df2 d13b c6be 29bc bfd6 6dbc 6f3a 48bc
00000050: b625 2ebd 88f0 53bd a04e a4bc 2d5e cd39
00000060: afe1 b8bb 016a b9bb 2d0e 8d3c e22c 643b
00000070: f173 dcbb ae9f ac3b 6543 b73c 2ea5 26bc
00000080: 226a ecbc 3297 e3bc cb18 55bc 9b38 35bc
00000090: 3e88 01bd 378a 423c 406b 62bc 5d90 60bb
000000a0: fa77 6ebc 6c66 9eb9 fb33 93bb dc40 20bc
000000b0: aa6d 8d3c 0b25 2cbd 6bed f5bc ccbb e8bc
000000c0: 3efb 803c 2dec 6fbb 6046 4c3c f143 aebc
000000d0: 9390 823d 4898 fcbb c44d 20bc c4f8 dbba
000000e0: 0d20 43bd 9bf9 28bc f6ea 873c 7c5c 86bc
000000f0: 609e b0bb 71bd 203d 1056 043c abce 4a3b
00000100: 8b87 e53c e680 4fba e4cb 643c 8a70 f33c
00000110: 0af7 793b 89d0 9abc 34ac b33c 3fd6 b03a
00000120: 5c4d 5a3d 82c1 9b3a 1a3a bbbb 1e4b 6f3c
00000130: 7ac2 c63c 2c17 983c 70c5 623a ce84 4bbb
00000140: bcda 7d39 4025 87bc 944f e9bb e723 953b
00000150: 2f1c 4b3b 8cd6 3e3c 6fdd 8b3c 5bdd c3ba
00000160: 418f eb3b be36 db3a 4f8f 9e3c f0b5 75bb
00000170: 5d72 b83b 967e fabb 8e22 4f3d 36f0 0aba
00000180: 5b79 6fbc 2e8a 0f3b 02f3 31bb 3a0c 4dbc
00000190: cf80 de39 86b0 d8ba e788 5cbc 9bb5 d8bb
000001a0: 83fa 463b a89e 59bc 872b 85bc 0a5e 023a
000001b0: 18cb 01bc c93f 603c 9a1d d9ba b64f 5dbc
000001c0: b1a1 f2bb be24 c4b9 5906 043b 595b d5bb
000001d0: 3f7a 22ba b9c0 613b 8be6 a0bb ee5e d538
000001e0: 453a ddbd 888d 813c 7b0d 2dbe b8eb 053c
000001f0: 608e f2bb dd14 ae3b ebd5 adbc 3202 b2bb
00000200: 5504 a03a 54f1 f0ba 19ca d3bc 4ad6 75b9
00000210: 71e2 e1b9 635e 0b3c 875a 89bb ed02 94bd
00000220: 0ec9 fdbc 2988 bf35 fb44 9aba 4227 00bc
00000230: 9fba 05bc 824b 8bbc f792 a23b 52e6 1c3c
00000240: 3b39 1abc d1bb f6ba 2d49 a53a df7b 963b
00000250: 74f3 3f3b ad2b ea3b e5b0 463c 8892 c63b
00000260: 0c04 023d d18e bd3c d786 503d 9a0f c43c
00000270: ed7b 1fbd 1648 05bd fcb6 193c b136 4f3c
00000280: 815b 643b 6f65 0c3c 9a55 043c 994a dbbc
00000290: 8798 2f3d 3d9f 08bc 24e3 84bc af3b ce3b
000002a0: 2929 cf3b 8ceb 65bc 4d64 13bd d0b2 9c3c
000002b0: 96d4 26bd bd6a 94bb d0f6 253c b27e c439
000002c0: a7fd 3bbc 3810 863b c64d 0fba bce9 1fbc
000002d0: 20ce 903a 7d30 843c d12e 813c 388f ec3c
000002e0: 6639 78bc 5489 15bd 3560 063d 6b57 95bb
000002f0: d3cb 10bc 385c 8ebb 87c9 29bc 338f 663c
00000300: d79d 38bc b735 173c 08ef edbc a2ab 443c
00000310: ef2e de3c 31ea 9e3c dc90 1cbc a34a 363c
00000320: 7f83 40bc b6b2 603c 9202 d8bc 145a c7bc
00000330: e315 29bd 4225 7abb ee06 313d 02b7 e03c
00000340: 0f48 42bd 6062 f2bb 0dac 153c 1838 2abb
00000350: bbba 65bc e1e3 ba3c b03b 793a a204 823c
00000360: 83ac 04bc 140b 65bb e2db 823b 436b dbba
00000370: 21b4 93bc 91a0 f43b fcbd fabc 0060 bfbc
00000380: f7a8 783c a021 823c 7cd6 10bd ba37 1fbd
00000390: 2ae0 5e3c 8b8f e73c 764a 15bd fc2b 73bc
000003a0: 142a 87bc 1cbd 8b39 5f97 b1bc bcaa 92bc
000003b0: 7c7b efbc 700b 573c 817d dcba eab8 ab3c
000003c0: 4670 1a3d 86fe 073d 15ec ad3b 77e3 913b
000003d0: eb37 6d3b 7cf1 f93b d9ef a6bc 9a32 e9bc
000003e0: f3d2 94bc e28d bdb9 76b9 023c 56f4 783b
000003f0: da5c f7bb 39d0 8d3c cf8a 8d3b a126 14bd

motion_mlp.mlps.1.fc0.fc.bias f4 [50]
-3.478631e-07 1.0329185e-06 6.534684e-06 -3.47421e-06 -3.6267335e-07 -2.2057957e-06 -4.040817e-06 -2.590182e-06
4.977722e-07 3.6895792e-06 -2.4240944e-06 -6.4153032e-06 -1.2481282e-06 1.0691712e-05 -1.6069633e-07 3.0734168e-06
8.4635406e-07 -2.2612326e-06 1.64386e-06 1.0141833e-06 -4.9881196e-06 6.30546e-07 -2.4887731e-06 -3.1353584e-06
1.9265142e-06 6.319282e-06 -6.672187e-06 -2.0295661e-07 -2.9969528e-06 2.9538019e-06 -1.6110157e-06 -5.378597e-06
-2.872247e-06 -1.7624393e-07 8.0301115e-06 -2.6577166e-07 -3.0554365e-06 -1.3547242e-06 -1.0899739e-05 -7.314275e-06
-2.0461675e-06 1.6265705e-06 -1.2810387e-06 3.298632e-06 8.00764e-06 1.5234998e-06 6.7027827e-07 -8.585863e-07
-3.8407447e-07 -1.2200713e-06
00000000: f1c1 bab4 cfa2 8a35 8244 db36 7926 69b6
00000010: 72b5 c2b4 4807 14b6 5b96 87b6 fdd2 2db6
00000020: a59e 0535 7d9a 7736 a0ad 22b6 0943 d7b6
00000030: 5c85 a7b5 8e60 3337 df8b 2cb4 e640 4e36
00000040: 0231 6335 aebf 17b6 99a2 dc35 131f 8835
00000050: 9f5f a7b6 cb42 2935 cc04 27b6 0c69 52b6
00000060: 4349 0136 380a d436 a6e1 dfb6 4aec 59b4
00000070: 421f 49b6 ee39 4636 143a d8b5 cc79 b4b6
00000080: d4c0 40b6 903d 3db4 11b9 0637 61af 8eb4
00000090: 000c 4db6 f8d3 b5b5 06de 36b7 256d f5b6
000000a0: e450 09b6 8950 da35 28f0 abb5 115e 5d36
000000b0: 8d58 0637 0e7b cc35 2ced 3335 9a79 66b5
000000c0: cb32 ceb4 55c1 a3b5

motion_mlp.mlps.1.norm0.alpha f4 [1, 54, 1]
0.21557605 0.17278896 0.4411618 0.20012508 0.13462523 0.24298674 0.11355413 0.14340112
0.12571622 0.31713334 0.3676661 0.108176924 0.17017432 0.17974731 0.14392777 0.22164644
0.1715802 0.16216992 0.19405882 0.50240326 0.17683351 0.17551374 0.18172304 0.11441616
0.2326981 0.29431418 0.14408047 0.14625126 0.14176536 0.14307337 0.1419515 0.0027845888
0.12124647 0.16225891 0.28001335 0.17880638 0.14944085 0.28068683 0.16759194 0.28445214
0.1705202 0.18144178 0.18114363 0.13189533 0.23259525 0.19088651 0.53522414 0.17967492
0.18925339 0.37277445 0.12866236 0.20955212 0.14819457 0.25769028
00000000: f8bf 5c3e 97ef 303e f6df e13e 97ed 4c3e
00000010: 32db 093e 84d1 783e 118f e83d bed7 123e
00000020: c1bb 003e 4d5f a23e bb3e bc3e dd8b dd3d
00000030: 2d42 2e3e ae0f 383e cd61 133e 49f7 623e
00000040: b8b2 2f3e df0f 263e 5bb7 463e 809d 003f
00000050: d813 353e e0b9 333e 9b15 3a3e 0553 ea3d
00000060: 6948 6e3e 59b0 963e d589 133e e4c2 153e
00000070: f02a 113e d381 123e bc5b 113e a67d 363b
00000080: 1250 f83d 3327 263e e95d 8f3e 0519 373e
00000090: 0607 193e 2fb6 8f3e 399d 2b3e b6a3 913e
000000a0: d99c 2e3e e0cb 393e b77d 393e 920f 073e
000000b0: 732d 6e3e c177 433e 7304 093f b4fc 373e
000000c0: a4cb 413e 4bdc be3e 11c0 033e d594 563e
000000d0: 51c0 173e fbef 833e

motion_mlp.mlps.1.norm0.beta f4 [1, 54, 1]
-0.014589244 0.026564963 0.006534426 -0.016465753 0.0068474957 -0.01374918 0.0018568931 -0.0015718006
-0.0014573088 -0.050172944 0.08015284 -0.001356021 0.017931366 0.0024584902 0.012338011 0.032072477
0.011258631 -0.008465728 -0.039051525 0.007898278 -0.009060026 -0.01798927 -0.0082305735 -0.0027182281
-0.0027343077 -0.006598536 -0.0052910023 0.0011982651 0.008763864 0.014943436 -0.0037658042 0.0023721042
-0.028000288 -0.008502948 -0.0041028634 -0.0046481197 -0.0023266578 0.055395454 -0.00053689565 0.020775741
-0.003238576 0.006777474 -0.007272506 0.0056555467 -0.008940921 -0.0052448716 -0.010883369 -0.019637657
-0.006224275 0.007118246 0.007167629 0.00475911 -0.0011188228 -0.01958774
00000000: b907 6fbc c49e d93c bd1e d63b 30e3 86bc
00000010: f560 e03b 3e44 61bc fe62 f33a e004 ceba
00000020: 2b03 bfba 2582 4dbd 2c27 a43d 84bc b1ba
00000030: cde4 923c 9f1e 213b 5e25 4a3c 6e5e 033d
00000040: 1f76 383c d6b3 0abc 7ef4 1fbd c767 013c
00000050: 8170 14bc 3c5e 93bc 87d9 06bc 4d24 32bb
00000060: 1232 33bb 8838 d8bb 2560 adbb 1b0f 9d3a
00000070: 4f96 0f3c 50d5 743c b6cb 76bb 4e75 1b3b
00000080: dc60 e5bc f34f 0bbc 5071 86bb 414f 98bb
00000090: d77a 18bb 58e6 623d 75be 0cba e331 aa3c
000000a0: 4a3e 54bb 9315 de3b 344e eebb 2a52 b93b
000000b0: f17c 12bc 2cdd abbb 2850 32bc 27df a0bc
000000c0: 01f5 cbbb 2d40 e93b 6ede ea3b 4ff2 9b3b
000000d0: 77a5 92ba 7876 a0bc

motion_mlp.mlps.2.fc0.fc.weight f4 [50, 50]
-0.0065409336 -0.009823423 0.0056245322 -0.014558936 0.011741545 -0.008350246 4.924875e-06 -0.011802583
0.0026551965 -0.015258497 -0.009429526 -0.0011385198 -0.010637033 0.009261358 -0.0023478377 -0.043222066
-0.0009209086 -0.026611134 -0.008026713 0.04095838 -0.024341553 -0.016509272 -0.022853138 -0.02234789
0.012389151 -0.013466077 -0.004074295 0.010417176 -0.021285165 -0.011596122 0.002911053 -0.010448725
-0.016996704 -0.0068678823 -0.02322881 -0.01442324 -0.04692497 -0.01577 -0.0068491073 -0.030976176
-0.0144490125 -0.004043907 0.007014954 -0.0065386044 -0.017790416 -0.009461656 -0.0054561873 -0.028305529
0.014407443 -0.010503043 0.006296557 -0.016942425 0.002917228 -0.009138238 -0.0068538603 -0.003029912
-0.02328925 -0.013412706 0.0010332202 -0.02028264 -0.014461136 -0.0034964138 -0.036227114 0.023227034
-0.020468336 -0.04948581 -0.011768184 -0.0099776415 -0.008428258 0.0020606536 -0.019016862 -0.005183009
-0.009225265 0.021428341 -0.018987365 -0.004447941 -0.011557919 0.012876637 -0.0065260506 -0.012958188
0.0014544593 0.0015570804 -0.000301215 -0.017291227 -0.011243721 -0.018696269 -0.029507723 0.022124674
-0.011451943 -0.01466537 -0.008358514 0.014433704 -0.0061157094 -0.01650168 0.0030088515 -0.008426591
-0.008240287 -0.012632979 0.00073439575 -0.010350293 0.00092245 -0.0038562815 0.034834765 -0.01191912
-0.0017666793 0.019219242 -0.028522689 0.0051285406 -0.0045078327 0.010733704 -0.0061855367 -0.0028850597
0.0008202241 0.023784908 0.0031306578 -0.0011054106 0.012797844 -3.9044637e-05 0.00633687 0.00022396854
-0.032698467 -0.0049838005 -0.032325927 -0.0031796827 -0.0013844147 -0.0011033833 -0.0027367037 0.011569465
0.0056524854 0.014438789 -0.007160591 -0.0129901515 0.023060942 -0.008326926 0.018983772 -0.046413876
-0.020403344 0.004772174 -0.091488265 0.058339655 -0.015367991 0.0035175534 0.016258646 0.004581255
-0.002777047 0.03474729 0.007353205 0.0081471605 0.002755288 0.008573968 0.013293201 0.009665014
-0.0034573006 -0.0363149 -0.013895264 0.00086809875 0.043384034 -0.0012879684 0.0071379486 0.010381493
0.025037965 0.02200143 -0.01658313 -0.008316821 0.013896366 0.008641892 0.014681595 0.0033679113
0.021118617 0.024220632 -0.006387672 -0.012053182 -0.009108722 0.038607188 0.005713217 0.0132348165
0.016571451 -0.013823961 0.015504851 0.02442617 0.018469647 0.002551236 0.03581732 -0.013055595
0.016035248 -0.018206835 0.028539518 -0.037738826 0.018724492 0.009143593 0.0021608335 0.008382059
0.0054114587 0.0064182407 0.00075987214 -0.020532494 0.030441439 0.012886531 -0.006665385 0.039225824
0.016613958 0.04317224 -0.009430055 0.017980902 -0.047326386 -0.033081498 -0.017166529 0.0068431366
0.00796838 -0.02203464 -0.0021155765 0.0048503275 0.023746567 -0.0004519104 0.0076051992 0.0098775355
0.02123626 -0.025349412 -0.012522053 0.021737728 -0.012467218 -0.0060309023 -0.039974064 -0.001557253
-0.01180997 0.0010189989 0.019404309 0.01002493 0.004926247 -0.014490504 -0.007186727 0.02854504
0.0150996195 -0.0051313597 0.0026804183 -0.030656643 -0.013663303 -0.017832084 0.006207306 -0.007195994
-0.013529789 -0.0237642 -0.0070858398 0.01112846 0.008470849 -0.010774216 -0.020304412 -0.028828062
0.009046391 -0.0064396826 -0.029915655 -0.0056364895 -0.0045527085 0.013610724 0.014121919 -0.025802176
00000000: 5455 d6bb 6cf2 20bc ff4d b83b 9a88 6ebc
00000010: 9c5f 403c 78cf 08bc 5b40 a536 9f5f 41bc
00000020: ce02 2e3b c6fe 79bc 4c7e 1abc 633a 95ba
00000030: f346 2ebc f3bc 173c 2ede 19bb 9f09 31bd
00000040: 2169 71ba 98ff d9bc 7982 03bc f9c3 273d
00000050: f067 c7bc 743e 87bc 8136 bbbc ec12 b7bc
00000060: defb 4a3c d2a0 5cbc aa81 85bb ceac 2a3c
00000070: 3a5e aebc a9fd 3dbc 5dc7 3e3b 2131 2bbc
00000080: ac3c 8bbc f90b e1bb 584a bebc 744f 6cbc
00000090: 6634 40bd 1630 81bc 7a6e e0bb c0c1 fdbc
000000a0: 8dbb 6cbc c082 84bb b3dd e53b ca41 d6bb
000000b0: 35bd 91bc 1005 1bbc d1c9 b2bb ffe0 e7bc
000000c0: 320d 6c3c f514 2cbc 5953 ce3b d7ca 8abc
000000d0: f72e 3f3b 8cb8 15bc 5996 e0bb 7d91 46bb
000000e0: 19c9 bebc f7c0 5bbc 1e6d 873a c727 a6bc
000000f0: 67ee 6cbc 1724 65bb e262 14bd 9f46 be3c
00000100: 36ad a7bc a2b1 4abd 57cf 40bc 4379 23bc
00000110: ad16 0abc 080c 073b 40c9 9bbc 3bd6 a9bb
00000120: 9125 17bc 7d8a af3c 648b 9bbc 09c0 91bb
00000130: 6d5d 3dbc 88f8 523c 7bd8 d5bb 944e 54bc
00000140: 8ea3 be3a f316 cc3a 65ec 9db9 55a6 8dbc
00000150: 9537 38bc eb28 99bc 2eba f1bc ce3e b53c
00000160: eea0 3bbc 0547 70bc 26f2 08bc 587b 6c3c
00000170: 4a66 c8bb 882e 87bc 2730 453b af0f 0abc
00000180: 4502 07bc 8efa 4ebc 7784 403a 4694 29bc
00000190: 92d0 713a abb9 7cbb e6ae 0e3d 6a48 43bc
000001a0: ec8f e7ba ac71 9d3c 6aa8 e9bc 510d a83b
000001b0: 71b6 93bb 6bdc 2f3c 0bb0 cabb 4513 3dbb
000001c0: 4f04 573a 91d8 c23c b92b 4d3b 6de3 90ba
000001d0: 0cae 513c dcc3 23b8 85a5 cf3b 19d9 6a39
000001e0: d4ee 05bd 264f a3bb 3168 04bd 3962 50bb
000001f0: 4075 b5ba 669f 90ba 455a 33bb da8d 3d3c
00000200: 7c38 b93b ac90 6c3c 64a3 eabb a5d4 54bc
00000210: 4dea bc3c a96d 08bc db83 9b3c 7a1c 3ebd
00000220: ea24 a7bc e65f 9c3b 335e bbbd 90f5 6e3d
00000230: 07ca 7bbc c186 663b da30 853c 5a1e 963b
00000240: 1eff 35bb 2d53 0e3d 27f3 f03b ab7b 053c
00000250: 1092 343b d479 0c3c bacb 593c 025a 1e3c
00000260: e193 62bb efbe 14bd f6a8 63bc 1f91 633a
00000270: 75b3 313d 0cd1 a8ba 74e5 e93b 2317 2a3c
00000280: 6b1c cd3c 583c b43c 58d9 87bc 4743 08bc
00000290: 95ad 633c b996 0d3c 138b 703c 2db8 5c3b
000002a0: f300 ad3c 596a c63c ad4f d1bb b67a 45bc
000002b0: c03c 15bc 9222 1e3d f035 bb3b d8d6 583c
000002c0: dac0 873c e57d 62bc 0f08 7e3c 6419 c83c
000002d0: a84d 973c a332 273b 2fb5 123d 22e7 55bc
000002e0: 5a5c 833c 8026 95bc b5cb e93c 0794 1abd
000002f0: 1b64 993c 02cf 153c c59c 0d3b e754 093c
00000300: 9b52 b13b 1b50 d23b 2832 473a c333 a8bc
00000310: 5360 f93c 0722 533c 4d69 dabb 42ab 203d
00000320: ff19 883c 60d5 303d 8480 1abc af4c 933c
00000330: 50d9 41bd 7780 07bd d2a0 8cbc 643c e03b
00000340: cf8d 023c fd81 b4bc 7ca5 0abb 7fef 9e3b
00000350: 2988 c23c 63ee ecb9 0935 f93b 63d5 213c
00000360: aaf7 ad3c 92a9 cfbc 4c29 4dbc 5213 b23c
00000370: 4d43 4cbc e09e c5bb d8bb 23bd bd1c ccba
00000380: 9b7e 41bc ee8f 853a c9f5 9e3c 9b3f 243c
00000390: 5b6c a13b 9469 6dbc a37e ebbb 4ad7 e93c
000003a0: 6564 773c f724 a8bb f5a9 2f3b a423 fbbc
000003b0: 0cdc 5fbc 9714 92bc a866 cb3b 5fcc ebbb
000003c0: 0cac 5dbc 24ad c2bc 5530 e8bb 2554 363c
000003d0: 51c9 0a3c 5686 30bc 7055 a6bc d428 ecbc
000003e0: 5037 143c f903 d3bb ad11 f5bc 4db2 b8bb
000003f0: e32e 95bb 84ff 5e3c 9f5f 673c 165f d3bc

motion_mlp.mlps.2.fc0.fc.bias f4 [50]
1.1884268e-06 5.254325e-07 -1.591852e-06 -3.6197566e-06 -6.9504625e-07 -8.7274543e-07 -4.069593e-06 2.5271396e-07
2.5458119e-06 2.956021e-06 -1.4377023e-06 -3.7863536e-08 1.0230617e-06 -3.0483864e-07 1.6133309e-06 1.1073901e-06
-5.2107916e-06 7.236481e-08 -1.4750923e-07 -3.0403135e-07 1.1221532e-06 6.7613894e-07 -1.2694973e-06 5.382359e-08
-5.3199096e-06 -6.670055e-07 -2.5944419e-06 -2.8961125e-07 -1.5657169e-07 5.7157416e-07 1.9507245e-06 -1.2775126e-06
-3.2523653e-06 -2.6235933e-08 6.5081764e-07 1.9904917e-06 -1.6571884e-06 -3.523623e-06 8.6931834e-07 -3.0894041e-06
-1.0918258e-06 2.3924e-06 1.5289402e-06 2.7985043e-06 1.516904e-06 -1.0409336e-06 -9.022032e-07 1.0852193e-06
-6.709554e-07 -8.147514e-07
00000000: 0982 9f35 720b 0d35 9ea7 d5b5 f2ea 72b6
00000010: 3793 3ab5 9c46 6ab5 8a8d 88b6 beac 8734
00000020: b7d8 2a36 0e60 4636 13f7 c0b5 669f 22b3
00000030: 2250 8935 b4a8 a3b4 a189 d835 a2a1 9435
00000040: 5cd8 aeb6 fa66 9b33 0763 1eb4 c039 a3b4
00000050: e49c 9635 ea7f 3535 9863 aab5 aa2b 6733
00000060: ad81 b2b6 450c 33b5 2c1c 2eb6 de7b 9bb4
00000070: 191e 28b4 476e 1935 31e9 0236 0077 abb5
00000080: 3643 5ab6 6d5d e1b2 d9b3 2e35 6394 0536
00000090: 8f6c deb5 6277 6cb6 1a5b 6935 8f53 4fb6
000000a0: d98a 92b5 1e8d 2036 fc35 cd35 f0cd 3b36
000000b0: 6d98 cb35 35b6 8bb5 ef2e 72b5 daa7 9135
000000c0: b41b 34b5 4ab5 5ab5

motion_mlp.mlps.2.norm0.alpha f4 [1, 54, 1]
0.16318108 0.15679982 0.20176333 0.11026711 0.04102203 0.118021764 0.04151174 0.046049003
0.05940597 0.17992862 0.20691985 0.051362693 0.06788892 0.09661719 0.050558195 0.10687864
0.12505041 0.0828482 0.12849012 0.29616126 0.080423854 0.074444935 0.06953243 0.036955226
0.14748916 0.19220671 0.05319885 0.06154039 0.05904556 0.06822543 0.048157766 -0.0018294064
0.0712068 0.13955122 0.15050079 0.07226467 0.08125821 0.17941287 0.07393981 0.17627732
0.0656577 0.104890764 0.090269655 0.052527398 0.12110712 0.07175936 0.29184154 0.083348945
0.134026 0.25340956 0.046767067 0.17966825 0.05059407 0.10784006
00000000: f118 273e 2290 203e 0c9b 4e3e b9d3 e13d
00000010: b706 283d 65b5 f13d 3708 2a3d e19d 3c3d
00000020: ad53 733d 353f 383e cce2 533e b061 523d
00000030: 5909 8b3d 3cdf c53d 1c16 4f3d 30e3 da3d
00000040: 370d 003e 51ac a93d ea92 033e 73a2 973e
00000050: 43b5 a43d 9676 983d 0567 8e3d 5d5e 173d
00000060: 6607 173e d6d1 443e 0ae7 593d c711 7c3d
00000070: c2d9 713d c6b9 8b3d 1441 453d b1c8 efba
00000080: dfd4 913d 84e6 0e3e e11c 1a3e 80ff 933d
00000090: b46a a63d 02b8 373e c16d 973d 0b82 343e
000000a0: 8b77 863d f8d0 d63d 4cdf b83d f826 573d
000000b0: 0207 f83d 92f6 923d 416c 953e dab2 aa3d
000000c0: 1d3e 093e e6be 813e d38e 3f3d f4fa 373e
000000d0: ba3b 4f3d 40db dc3d

motion_mlp.mlps.2.norm0.beta f4 [1, 54, 1]
-0.037030764 -0.011828865 0.053842478 0.0050208652 0.004934687 -6.7760164e-05 -0.0063443393 -0.009180586
0.008258908 -0.034256257 0.05528632 -0.0006742351 -0.007570022 0.0063579995 -0.013087528 0.0074167373
0.010946696 -0.0022289003 0.010729088 -0.021246161 0.008369533 0.023580007 0.010686459 -0.002839498
-0.026972715 -0.0053033354 -0.0016764813 -0.01686822 -0.015519561 0.00050583645 0.0014609442 4.089618e-05
0.009734482 -0.0025183596 -0.06367925 0.015731873 -9.886219e-05 0.09268598 -0.007813062 -0.01886525
0.002532812 -0.008459599 -0.0017245914 -0.013071135 0.0122408 0.0018306843 0.012080413 0.021882908
0.014182802 -0.017621009 -0.0081521105 -0.017240912 -0.0009858493 0.009266451
00000000: 92ad 17bd dbcd 41bc ee89 5c3d 1286 a43b
00000010: 28b3 a13b 761a 8eb8 2de4 cfbb 2b6a 16bc
00000020: 5f50 073c 4a50 0cbd e973 623d 27bf 30ba
00000030: f20d f8bb c456 d03b 126d 56bc 1a08 f33b
00000040: c559 333c be12 12bb 0fc9 2f3c 6e0c aebc
00000050: 5e20 093c dc2a c13c 4216 2f3c df16 3abb
00000060: e2f5 dcbc 9ac7 adbb 61bd dbba 392f 8abc
00000070: c245 7ebc 1c9a 043a 277d bf3a f087 2b38
00000080: 607d 1f3c 100b 25bb 446a 82bd 21e0 803c
00000090: 3c54 cfb8 26d2 bd3d 5b02 00bc 4c8b 9abc
000000a0: 89fd 253b 219a 0abc af0b e2ba 5028 56bc
000000b0: a38d 483c 92f3 ef3a edec 453c c943 b33c
000000c0: fc5e 683c ef59 90bc 6e90 05bc d03c 8dbc
000000d0: 9d37 81ba 50d2 173c

motion_mlp.mlps.3.fc0.fc.weight f4 [50, 50]
-0.0059459284 -0.0019388603 0.034786485 0.0020230897 -0.010462984 0.003028584 0.028379042 0.015418016
0.013173038 -0.003867029 0.0044116294 -0.016371936 0.0014710454 0.01173683 0.004433398 0.030570982
0.013137765 -0.0053688744 0.010594628 -0.005182514 -0.02338614 -0.015800219 -0.00790861 -0.0019121198
0.04745115 0.016276991 0.008155311 -0.005084118 0.0011505642 0.00050851284 -0.00078660843 0.00035986412
-0.011941736 -0.0017880185 0.022140492 -0.057248663 -0.010743233 -0.0046040886 -0.03559291 0.039394315
-0.00973584 0.014218706 -0.004049772 0.02231648 -0.012041442 0.00089439424 -0.013000127 -0.012794594
-0.0061670956 -0.00023989736 0.007994586 -0.034969795 0.0051454576 -0.011921938 0.0016338744 -0.008732344
0.015710289 -0.011710164 -0.0005860886 -0.020655358 -0.012100503 0.021878073 -0.01770829 -0.0043142806
-0.0051078997 -0.0078343665 -0.004487236 0.011931959 -0.021965628 0.02924332 0.012846223 -0.052864105
-0.014624174 -0.000511515 -0.02281997 2.2988515e-05 -0.021883499 -0.010109891 -0.012567983 0.011858207
-0.020683503 -0.011426428 0.0027218193 -0.031835206 -0.009651274 -0.010827705 -0.014811639 -0.0026981747
-0.008566226 -0.015296395 -0.005307864 -0.017369498 0.007322676 0.0051430194 0.012855382 0.00040553938
0.014908326 -0.026596263 0.01998861 -0.0028080211 -0.01711837 -0.00016840488 -0.062329277 0.0144727705
-0.019019142 -0.01151368 0.0108608175 -0.016703494 -0.00347706 -0.008088635 0.012809609 0.018245261
0.0047205854 -0.035872694 -0.010409042 -0.005570413 0.004174891 -0.024959052 0.0039970777 -0.010022538
-0.01477963 -0.018355776 -0.006886893 -0.024744835 -0.0061860415 -0.024705792 0.017509652 -0.0027913433
-0.0054573044 0.005802346 0.03354846 0.011302616 -0.024567533 0.0020327095 0.005509462 -0.014211399
-0.022177903 -0.025612528 0.028093928 -0.0015501832 -0.008542009 -0.0112572 -0.00866286 -0.004042787
0.010041477 0.012798447 -0.00028336557 0.0044299345 0.00242701 0.0043690857 -0.011750307 0.015820794
-0.01156007 0.0044873427 0.013306725 -0.0072423755 -0.046837125 -0.0003563561 -0.0009823896 0.047327783
0.02858643 -0.01395855 0.009623948 -0.0056874957 -0.021787824 -0.019137194 0.0011855748 0.015956594
-0.013158049 -0.019962087 -0.010789226 -0.001835516 -0.0016203983 0.0145553285 0.013491962 0.0037401973
-0.014300824 -0.053922582 6.6165776e-05 0.023652315 0.0013874578 0.01849905 0.012029469 -0.008206749
3.4867753e-05 0.0001801492 0.025385061 0.016853606 -0.040901165 -0.010468749 -0.016078562 -0.015748575
-0.014060511 0.0058686123 -0.014071592 -0.00813939 0.0008474047 0.00154635 -0.022446867 -0.021126855
0.00064627227 -0.019323312 -0.008221522 0.0017267772 0.040836103 -0.029396726 0.06433482 0.025883026
-0.029649261 -0.015876515 -0.0109321745 -0.023653021 -0.023925932 0.0060014464 0.007543285 0.012630848
0.048809186 -0.015570062 -0.013375392 0.006981756 0.029121593 -0.001361992 -0.007114495 -0.0057592397
0.00289262 -0.021042012 0.0037694273 0.024401613 -0.0066101984 -0.031738166 -0.0063318224 0.007330383
-0.0019760856 -0.030384962 -0.01693229 0.004991787 -0.032328006 0.0020711157 -0.0003063572 0.013100631
0.004946834 0.024904212 -0.016103957 -0.0153896455 -0.015991377 0.0020657293 -0.0023003095 0.020406589
0.006505553 -0.01912707 0.010847198 -0.022245293 0.013276515 -0.01534743 -0.023113731 -0.028324181
00000000: 10d6 c2bb 5b21 feba 467c 0e3d d095 043b
00000010: f06c 2bbc 357b 463b 2a7b e83c d99b 7c3c
00000020: bad3 573c fb6d 7dbb 6e8f 903b 701e 86bc
00000030: 18d0 c03a d54b 403c 0a46 913b ff6f fa3c
00000040: c83f 573c 62ed afbb 1795 2d3c 14d2 a9bb
00000050: 4a94 bfbc 766f 81bc 1d93 01bc 18a0 faba
00000060: 235c 423d 5357 853c db9d 053c ac98 a6bb
00000070: 87ce 963a b84d 053a 6634 4eba 25ac bc39
00000080: 45a7 43bc f25b eaba fa5f b53c 937d 6abd
00000090: 6304 30bc e5dd 96bb dfc9 11bd ef5b 213d
000000a0: 1383 1fbc 93f5 683c f3b3 84bb 0dd1 b63c
000000b0: 7849 45bc c875 6a3a 7cfe 54bc 6ba0 51bc
000000c0: 5915 cabb f58c 7bb9 b9fb 023c 7d3c 0fbd
000000d0: 3a9b a83b 3b54 43bc ba27 d63a 1b12 0fbc
000000e0: ddb2 803c fddb 3fbc bda3 19ba 6d35 a9bc
000000f0: 3041 46bc a539 b33c fa10 91bc cf5e 8dbb
00000100: 2b60 a7bb b75b 00bc aa09 93bb 437e 433c
00000110: 43f1 b3bc b08f ef3c f778 523c 0888 58bd
00000120: 3b9a 6fbc 3117 06ba f2f0 babc 76d7 c037
00000130: 0645 b3bc f5a3 25bc f1e9 4dbc ed48 423c
00000140: 7370 a9bc ea35 3bbc 8d60 323b a265 02bd
00000150: 6120 1ebc b066 31bc 84ac 72bc dcd3 30bb
00000160: 5b59 0cbc bb9d 7abc 97ed adbb 7a4a 8ebc
00000170: 0ff3 ef3b c686 a83b 619f 523c 939e d439
00000180: 0d42 743c 68e0 d9bc 27bf a33c c706 38bb
00000190: d33b 8cbc d795 30b9 fc4c 7fbd 331f 6d3c
000001a0: 08ce 9bbc e0a3 3cbc 92f1 313c c4d5 88bc
000001b0: 63df 63bb 3286 04bc 65df 513c 1677 953c
000001c0: 24af 9a3b 3fef 12bd b08a 2abc 0388 b6bb
000001d0: 86cd 883b ed76 ccbc ebf9 823b 9235 24bc
000001e0: 4326 72bc da5e 96bc 72ab e1bb aeb5 cabc
000001f0: 47b4 cabb cd63 cabc 6770 8f3c f8ee 36bb
00000200: 30d3 b2bb 9b21 be3b 1c6a 093d 9c2e 393c
00000210: da41 c9bc 3537 053b b888 b43b edd6 68bc
00000220: 6fae b5bc 5dd1 d1bc 3d25 e63c 842f cbba
00000230: c8f3 0bbc 1e70 38bc abee 0dbc 5b79 84bb
00000240: 0285 243c 94b0 513c af90 94b9 fc28 913b
00000250: 790e 1f3b 8c2a 8f3b 5c84 40bc 9c9a 813c
00000260: 7366 3dbc 8f0a 933b 7304 5a3c 7351 edbb
00000270: 49d8 3fbd 4ed5 bab9 86c3 80ba c7da 413d
00000280: 172e ea3c 67b2 64bc c3ad 1d3c 2c5e babb
00000290: 617c b2bc 9bc5 9cbc 4a65 9b3a 67b7 823c
000002a0: dc94 57bc 8887 a3bc 4bc5 30bc b295 f0ba
000002b0: 8b63 d4ba 7979 6e3c 640d 5d3c 191e 753b
000002c0: 014e 6abc eddd 5cbd 7bc2 8a38 80c2 c13c
000002d0: 5cdb b53a 528b 973c 4017 453c 9a75 06bc
000002e0: f73e 1238 6fe6 3c39 55f4 cf3c 9310 8a3c
000002f0: fb87 27bd 1e85 2bbc 30b7 83bc 2803 81bc
00000300: 0f5e 66bc 7d4d c03b 898c 66bc 135b 05bc
00000310: 5e24 5e3a e5ae ca3a 7ee2 b7bc 3a12 adbc
00000320: 996a 293a ec4b 9ebc 90b3 06bc 0755 e23a
00000330: c243 273d 67d1 f0bc f9c1 833d a408 d43c
00000340: 02e3 f2bc 770f 82bc dd1c 33bc fbc3 c1bc
00000350: 5100 c4bc c8a7 c43b a92d f73b 9ef1 4e3c
00000360: 24ec 473d 9319 7fbc 7624 5bbc 37c7 e43b
00000370: 6890 ee3c de84 b2ba b620 e9bb 01b8 bcbb
00000380: 1c92 3d3b 4c60 acbc 7f08 773b e4e5 c73c
00000390: 5d9a d8bb e1ff 01bd 2d7b cfbb b633 f03b
000003a0: 3781 01bb e2e9 f8bc 96b5 8abc 2592 a33b
000003b0: 5f6a 04bd 8ebb 073b 919e a0b9 07a4 563c
000003c0: 0d19 a23b eb03 cc3c 72ec 83bc da24 7cbc
000003d0: 5900 83bc 3061 073b cac0 16bb b82b a73c
000003e0: 892c d53b 60b0 9cbc 72b8 313c c33b b6bc
000003f0: bd85 593c c973 7bbc 0259 bdbc 1d08 e8bc

motion_mlp.mlps.3.fc0.fc.bias f4 [50]
2.092578e-06 1.8366696e-06 -4.624626e-07 1.6009991e-06 -3.304409e-06 -2.5198879e-06 3.000718e-07 9.2796387e-07
1.6022105e-06 2.5135162e-06 1.9706017e-06 -3.2370826e-07 -2.4288006e-06 1.6309285e-06 -1.2715307e-07 2.1138803e-07
-6.9329656e-07 -1.4042764e-07 -1.4101672e-06 1.6269867e-06 2.8724398e-06 -2.2035346e-07 4.565785e-07 -9.0024855e-07
5.5666436e-07 2.3036057e-06 7.370718e-08 1.0563024e-06 1.1858069e-06 1.2218342e-07 9.4216773e-07 2.6850857e-06
1.2753925e-06 2.3443433e-06 -1.8654987e-06 1.483287e-06 -2.6117862e-06 -1.7885541e-06 2.1849503e-06 5.737514e-07
1.8047884e-06 1.6969036e-06 5.5515443e-08 3.5091437e-06 -1.0472479e-06 6.950261e-07 -3.669316e-07 1.932002e-06
-1.7364129e-06 -1.0215944e-07
00000000: 376e 0c36 7d83 f635 6048 f8b4 e9e1 d635
00000010: 50c1 5db6 581b 29b6 8e19 a134 3119 7935
00000020: 890b d735 e1ad 2836 ae3e 0436 20ca adb4
00000030: 7afe 22b6 47e6 da35 9287 08b4 e6f9 6234
00000040: fa1a 3ab5 75c8 16b4 fa44 bdb5 d65e da35
00000050: 24c4 4036 4c9a 6cb4 ac1f f534 9ca8 71b5
00000060: af6d 1535 a597 1a36 f348 9e33 46c6 8d35
00000070: 0428 9f35 8631 0334 46e9 7c35 6c31 3436
00000080: 272e ab35 8353 1d36 0c62 fab5 5a15 c735
00000090: 2546 2fb6 400e f0b5 29a1 1236 e503 1a35
000000a0: 0f3c f235 2ac1 e335 e06f 6e33 a17e 6b36
000000b0: 2a8f 8cb5 d491 3a35 b2fe c4b4 8ba7 0136
000000c0: b10e e9b5 bf62 dbb3

motion_mlp.mlps.3.norm0.alpha f4 [1, 54, 1]
0.16103736 0.1983259 0.24458136 0.10408962 0.065403596 0.11749118 0.062880196 0.059312083
0.08713809 0.15957585 0.2648611 0.060233947 0.10801014 0.10877407 0.09777601 0.11141433
0.12027944 0.081904106 0.127785 0.060281873 0.10449899 0.08934492 0.075174615 0.071116485
0.16309701 0.22101781 0.08789519 0.09028951 0.044173747 0.09713307 0.07356457 0.009649106
0.1373545 0.047787856 0.23271891 0.092218585 0.054506943 0.19415094 0.11664798 0.18019138
0.10372598 0.117760494 0.1034781 0.09474785 0.08313304 0.026678488 0.057008207 0.093855694
0.12685576 0.29290056 0.08003994 0.19848567 0.0920537 0.07670667
00000000: fae6 243e f215 4b3e 8973 7a3e f02c d53d
00000010: 52f2 853d 379f f03d 55c7 803d 3af1 723d
00000020: 7475 b23d da67 233e e09b 873e dfb7 763d
00000030: 6c34 dd3d f1c4 de3d ca3e c83d 322d e43d
00000040: 1155 f63d 57bd a73d 12da 023e 20ea 763d
00000050: 9103 d63d 78fa b63d 26f5 993d 85a5 913d
00000060: e702 273e 7e52 623e 6502 b43d b5e9 b83d
00000070: 88ef 343d b4ed c63d 05a9 963d 4917 1e3c
00000080: a8a6 0c3e 33bd 433d de4d 6e3e 19dd bc3d
00000090: ac42 5f3d 81cf 463e 23e5 ee3d 1784 383e
000000a0: 496e d43d 6a2c f13d 53ec d33d 290b c23d
000000b0: a841 aa3d d88c da3c 7081 693d 6a37 c03d
000000c0: 7ae6 013e 10f7 953e fbeb a33d d43f 4b3e
000000d0: a686 bc3d 6318 9d3d

motion_mlp.mlps.3.norm0.beta f4 [1, 54, 1]
0.027084231 -0.005121513 0.057772554 -0.010331857 -0.012308604 -0.0008039274 0.0067829737 -0.0007068939
-0.0027145161 -0.025036924 -0.0052919555 -0.0018695922 -0.016319193 -0.018421259 0.00057711196 0.023932675
-0.033357006 -0.0064567504 0.024603732 -0.0071386597 -0.004515945 -0.0044931774 -0.013056253 -0.0038072704
-0.02761202 -0.019295713 0.0018011045 0.0012575174 0.0022458585 -0.018943261 0.0009375162 0.0011642282
0.008214799 0.013638975 0.058632284 -0.0011823595 0.006978861 0.054976694 0.005225606 0.038729746
-0.0036564667 -0.011100847 0.0031021659 -0.0035740687 -0.0127723655 -0.0026917008 -0.0074320743 -0.0038231998
-0.008125546 -0.047297772 -0.0055157063 0.015959995 0.003039885 -0.0029611092
00000000: c0df dd3c 5dd2 a7bb eaa2 6c3d f346 29bc
00000010: 07aa 49bc a8be 52ba b543 de3b d94e 39ba
00000020: 06e6 31bb 3c1a cdbc 2468 adbb 1b0d f5ba
00000030: d4af 85bc 2ee8 96bc 5449 173a 750e c43c
00000040: 5ba1 08bd 2693 d3bb c48d c93c 6beb e9bb
00000050: 7efa 93bb 813b 93bb e5e9 55bc 6683 79bb
00000060: 9a32 e2bc 0b12 9ebc 0a13 ec3a 48d3 a43a
00000070: 412f 133b e62e 9bbc a6c3 753a 0499 983a
00000080: 5d97 063c 0276 5f3c 6828 703d 67f9 9aba
00000090: eeae e43b 3e2f 613d 8f3b ab3b 15a3 1e3d
000000a0: 55a1 6fbb 54e0 35bc b54d 4b3b ec3a 6abb
000000b0: 2f43 51bc 3f67 30bb c288 f3bb a68e 7abb
000000c0: 0321 05bc 4fbb 41bd 19bd b4bb 89be 823c
000000d0: cf38 473b 2b0f 42bb

motion_mlp.mlps.4.fc0.fc.weight f4 [50, 50]
-0.0017696363 0.00861655 -0.004123042 0.023368256 -0.00011072987 0.0015947152 -0.08352233 -0.022604521
0.044733208 -0.01187906 -0.0064512617 -0.009938017 0.006511053 0.0015735482 -0.0061571454 -0.011880568
0.008142243 0.01916057 0.0018970744 -0.019289289 -0.010127427 0.024973873 0.016710376 0.00010384301
-0.02620798 0.008125537 0.012939426 0.02519884 0.0036342184 0.034162577 -0.0008962341 -0.023218896
-0.014751282 0.021914832 -0.004904069 -0.0020485942 0.003808809 0.030995209 -0.016837683 -0.015357648
0.02263459 -0.002084493 -0.0037502146 -0.0036189784 0.00564182 0.00091709674 -0.00600336 0.009112991
0.016028158 -0.055805992 0.008172715 -0.036396418 0.009527543 -0.0033926903 -0.0006452758 -0.022813808
-0.0036206597 -0.003868697 0.029240847 -0.015678966 0.02201237 0.011112484 -0.023008388 -0.0065980656
0.003978431 0.016072031 -0.012294757 -0.02702467 0.0075732744 -0.014935874 0.018144453 -0.021300387
0.0149643505 0.0019156269 -0.013654826 0.020640416 -0.008723675 -0.04477521 -0.016757067 -0.028749844
-0.005238914 -0.010495365 0.0001933345 -0.06507903 0.012461803 0.005421256 -0.052879307 0.0056224237
0.010549663 -0.0037025323 0.033870764 0.012024862 0.0019514189 0.0024121813 0.018762257 -0.0067296633
0.021288596 0.0013783963 -0.00088302186 0.032140683 -0.007067451 -0.0065596118 0.0002479693 -0.004268011
-0.008148237 0.000667439 0.029369058 0.008308592 0.002371073 -0.0115678115 0.004396224 0.016348599
0.01956242 0.032580856 0.00083988416 0.0069345725 -0.0025191295 -0.013306483 0.025129804 -0.009496434
0.0155442 -0.017030368 0.0123333605 -0.015036379 0.012245291 -0.0028218536 0.023485187 -0.01719804
0.034437306 0.013718696 0.019734735 -0.007154501 0.024363039 0.005369492 -0.012733446 0.005620081
-0.016141871 -0.006339816 0.030901538 0.041412298 0.0022391202 -0.0074376813 0.014804931 -0.0037759892
-0.002146728 0.0106335925 0.020757943 0.012575625 -0.020455325 0.015780693 -0.005603839 0.010580266
-0.002551427 -0.03197571 -0.03438793 -0.013320275 -0.025461115 -0.043795 0.04628088 0.018748397
0.0030524088 0.021925438 -0.003815937 -0.0015194148 0.007818361 -0.00222266 -0.011442272 0.026100602
0.00034554323 -0.018923555 -0.010476182 0.014177492 -0.0057847127 0.0218773 -0.006778054 0.006809437
0.031168979 0.01766549 -0.017556109 0.008097042 -0.0031378942 -0.029479388 0.0006416239 0.03259987
0.01827108 0.016284117 0.026771747 0.013130499 -0.023473658 -0.00933497 -0.006711472 -0.004438614
0.001258853 0.002011666 -0.017430877 0.002351655 0.039360065 0.018362284 -0.0013469417 0.0049524703
-0.019828662 0.031602856 -0.008957505 0.017817343 -0.011388754 -0.010771322 0.024586992 0.010750672
0.0024843563 -0.019447401 0.007971828 -0.012075795 -0.029204806 0.013452402 0.007464492 -0.00080494565
-0.025671832 -0.020975122 -0.0022156925 -0.0115455175 -0.002698525 -0.003477896 -0.022096183 0.018040052
0.014860006 0.054563973 -0.0055629294 -0.024704646 -0.025636796 -0.015857426 -0.027313787 -0.01752388
0.012179264 0.011271409 -0.006374011 0.02055143 -0.0059520495 -0.008024681 0.008086545 0.011332889
-0.01817985 -0.00679911 -0.022613417 -0.0025879971 -0.0020025484 -0.02167897 -0.020865865 -0.004287788
-0.0026613718 -0.049400512 0.009521118 -0.00664627 0.00024974858 0.032205556 0.00066796364 -0.06721101
00000000: 24f3 e7ba 6e2c 0d3c 951a 87bb c96e bf3c
00000010: a537 e8b8 c305 d13a c10d abbd 1e2d b9bc
00000020: 2b3a 373d 64a0 42bc 1b65 d3bb 11d3 22bc
00000030: ac5a d53b 843f ce3a e1c1 c9bb b7a6 42bc
00000040: 0b67 053c a1f6 9c3c 41a7 f83a 9204 9ebc
00000050: 82ed 25bc 0296 cc3c 33e4 883c 4bc6 d938
00000060: 1eb2 d6bc f920 053c e3ff 533c cc6d ce3c
00000070: 112c 6e3b 0fee 0b3d 41f1 6aba 8e35 bebc
00000080: 5caf 71bc bc86 b33c 50b2 a0bb b541 06bb
00000090: 369d 793b aae9 fd3c 2eef 89bc a59e 7bbc
000000a0: 2d6c b93c fd9b 08bb 29c6 75bb 622c 6dbb
000000b0: 04df b83b 5269 703a d5b7 c4bb a84e 153c
000000c0: 7c4d 833c d394 64bd dae6 053c 6914 15bd
000000d0: 6919 1c3c e657 5ebb ba27 29ba 06e4 babc
000000e0: 9748 6dbb f789 7dbb 808a ef3c 2d71 80bc
000000f0: 4953 b43c 2311 363c 167c bcbc 9634 d8bb
00000100: 805d 823b 7ea9 833c f36f 49bc d762 ddbc
00000110: 3b29 f83b 99b5 74bc ada3 943c 267e aebc
00000120: 092d 753c c615 fb3a 7eb8 5fbc 1716 a93c
00000130: bfed 0ebc 3666 37bd 1e46 89bc cb84 ebbc
00000140: 32ab abbb c0f4 2bbc d6b9 4a39 2848 85bd
00000150: 972c 4c3c cba4 b13b f997 58bd 4f3c b83b
00000160: 7ed8 2c3c 2fa6 72bb 12bc 0a3d ed03 453c
00000170: c1c6 ff3a b015 1e3b 4eb3 993c 8284 dcbb
00000180: 6c65 ae3c 4eab b43a 987a 67ba f3a5 033d
00000190: 1396 e7bb 03f2 d6bb e001 8239 acda 8bbb
000001a0: 2f80 05bc 13f7 2e3a 6197 f03c c320 083c
000001b0: 0164 1b3b eb86 3dbc 330e 903b 7fed 853c
000001c0: 5e41 a03c 8173 053d ac2b 5c3a 693b e33b
000001d0: fb17 25bb 6f03 5abc 05dd cd3c ee96 1bbc
000001e0: 1aad 7e3c 4583 8bbc dd11 4a3c 255b 76bc
000001f0: 79a0 483c d9ee 38bb 0264 c03c e7e2 8cbc
00000200: 220e 0d3d 62c4 603c bdaa a13c 4e70 eabb
00000210: ff94 c73c 90f2 af3b f29f 50bc a828 b83b
00000220: f53b 84bc 3bbe cfbb 3925 fd3c f19f 293d
00000230: 34be 123b cbb7 f3bb 6290 723c 9676 77bb
00000240: 1fb0 0cbb 8538 2e3c 900c aa3c ff09 4e3c
00000250: ed91 a7bc 8346 813c 69a0 b7bb da58 2d3c
00000260: d835 27bb f6f8 02bd 5cda 0cbd 483d 5abc
00000270: d493 d0bc 6362 33bd 0591 3d3d 3d96 993c
00000280: ec0a 483b fa9c b33c cd14 7abb 1a27 c7ba
00000290: 9518 003c 0caa 11bb 5e78 3bbc eed0 d53c
000002a0: 072a b539 9205 9bbc 4ba4 2bbc b648 683c
000002b0: b08d bdbb 0638 b33c 701a debb b321 df3b
000002c0: 1656 ff3c 38b7 903c d4d1 8fbc 75a9 043c
000002d0: 21a5 4dbb c27e f1bc a732 283a 7187 053d
000002e0: 3bad 953c 4566 853c 6c50 db3c 4e21 573c
000002f0: d44b c0bc b4f1 18bc e8eb dbbb cb71 91bb
00000300: 1900 a53a 28d6 033b 33cb 8ebc 391e 1a3b
00000310: 0538 213d 806c 963c dd8b b0ba 5548 a23b
00000320: b86f a2bc ff71 013d 80c2 12bc adf5 913c
00000330: e597 3abc 337a 30bc a96a c93c 9623 303c
00000340: 95d0 223b 2850 9fbc 459c 023c 8ed9 45bc
00000350: eb3e efbc 7767 5c3c b398 f43b fd02 53ba
00000360: bc4d d2bc 05d4 abbc 2735 11bb 6929 3dbc
00000370: bdd9 30bb 6aed 63bb 0e03 b5bc bbc8 933c
00000380: 6277 733c 797e 5f3d 3c49 b6bb 6661 cabc
00000390: 4204 d2bc 6fe7 81bc 2ac1 dfbc 3d8e 8fbc
000003a0: 898b 473c b7ab 383c 14dd d0bb 795b a83c
000003b0: 6909 c3bb f479 03bc 6e7d 043c 95ad 393c
000003c0: e9ed 94bc 12cb debb c63f b9bc 639b 29bb
000003d0: 303d 03bb 1898 b1bc e4ee aabc 9380 8cbb
000003e0: 696a 2ebb 3158 4abd 77fe 1b3c f4c8 d9bb
000003f0: b0f0 8239 f9e9 033d 481a 2f3a eda5 89bd

motion_mlp.mlps.4.fc0.fc.bias f4 [50]
-7.376685e-06 2.8545824e-06 -1.0484134e-06 -1.6883237e-06 -2.4939905e-06 1.6440066e-06 -1.988658e-06 4.2706645e-07
4.6477026e-06 2.2167312e-07 -2.0000255e-06 4.310135e-07 -3.9660485e-08 4.506189e-06 2.0856665e-07 1.288291e-06
-2.3439784e-06 1.6311026e-06 2.5594939e-06 -2.2721215e-06 -9.357614e-08 -7.47739e-07 9.676465e-07 -1.2035829e-06
1.129316e-06 -6.994729e-07 -8.81486e-07 -3.7190446e-07 2.8003922e-07 8.493529e-07 -9.78362e-07 -1.5800284e-06
1.9579544e-07 -4.3028587e-07 1.143053e-06 1.420462e-06 -7.852523e-07 4.2563127e-07 -3.6075022e-07 1.1089772e-06
7.942657e-07 -1.0065477e-06 -7.4639604e-07 1.9773956e-06 -5.342959e-07 -7.569887e-07 -6.036593e-07 1.974963e-06
-2.82815e-06 -6.686173e-07
00000000: 3e85 f7b6 5a91 3f36 36b7 8cb5 5c9a e2b5
00000010: 6e5e 27b6 a3a7 dc35 e274 05b6 9147 e534
00000020: 76f3 9b36 0b05 6e34 2d38 06b6 0b66 e734
00000030: 2a57 2ab3 de33 9736 5df2 5f34 57e9 ac35
00000040: 3e4d 1db6 42ec da35 c5c3 2b36 c07a 18b6
00000050: 07f4 c8b3 3cb8 48b5 15e0 8135 cb8a a1b5
00000060: 0193 9735 69c3 3bb5 429f 6cb5 29aa c7b4
00000070: 4c58 9634 16ff 6335 4350 83b5 5d11 d4b5
00000080: d73b 5234 0a02 e7b4 016b 9935 b4a6 be35
00000090: 21ca 52b5 5182 e434 22ad c1b4 2bd8 9435
000000a0: 8635 5535 b718 87b5 f25b 48b5 66b3 0436
000000b0: 896c 0fb5 de33 4bb5 270b 22b5 9b89 0436
000000c0: 3fcb 3db6 087b 33b5
