src/siMLPe/exps/baseline_amass/log/snapshot/model-iter-100000.pth (torch, 604538 bytes, 196 tensors)

motion_mlp.mlps.0.fc0.fc.weight f4 [50, 50]
00000000: 4f11 76bd a0b3 c7bd abf8 db3c 80ee 54bd
00000010: 43ee c93c 9eec 7cbc 6250 d83c 0793 38bd
00000020: 09eb e139 b211 fabc 9b95 9f3a 677e 10bd
00000030: 29d0 0c3a 59cb a3bc 26df a2bb 44c9 66bc
00000040: f8c7 2abb 39c5 65bc 0fce d7bb 2b0d babc
00000050: 1b08 72bc 9e06 09bc 874f 33bc e7c8 97bc
00000060: 5137 10bc 69b7 5abc 06db 19bc ead3 41bc
00000070: f5a2 0fbc f29b 16bc 3c81 20bc d586 f3bb
00000080: e2f7 f4bb d5ec c9bb b98e f4bb c119 84bb
00000090: 6fa6 f6bb 886f 59bb b50f 03bc 116a feba
000000a0: 3b24 c9bb fb88 95ba c3f7 aebb 7a90 e7ba
000000b0: b180 63bb be46 b2ba 7aee 2ebb 9f6d 1fba
000000c0: 62b2 feba 2ed0 a0ba 9b9a f6b8 f5ca b1bd
000000d0: 5775 a83b a823 59bb fe58 dabc 0746 c9bb
000000e0: 2e6a 1fbd c6de 703a 57d4 8bbc 1ad9 d6bc
000000f0: aade 94bb 1ee0 c5bc de7a b0bb 96e9 cdbb
00000100: 39ce 1dbc 74ac 9ebb 05e7 4dbc 60c3 0fbc
00000110: 11c1 9ebb cea5 34bc ec36 bbbb cb37 83bc
00000120: 3460 8cbb 569c 42bc 6ad3 4abb 161f 56bc
00000130: 7043 d0bb 099a 21bc d7ac d5bb 0783 13bc
00000140: c294 05bc a248 edbb 4c68 1cbc 4f92 0cbc
00000150: 9ec6 31bc 8644 eabb 3ca6 3bbc f6a1 cabb
00000160: d16e 3abc 9114 b9bb f394 30bc 1334 cfbb
00000170: 35d5 2dbc 9b48 e4bb 6b79 27bc ccbe f2bb
00000180: 3d3a 16bc 2509 04bc 1fee 0ebc 502f 08bc
00000190: 9a60 5737 d145 1fbd a40a 103c 6feb 3fbc
000001a0: 16ec fb3b bdc4 05bd e9a9 413c 05b3 7c3b
000001b0: 6c99 d23c 687d 97bc e269 983c d546 3abc
000001c0: 1f7c e13c ff2f c33b ec4b 093d 5157 713c
000001d0: 61b8 9e3c e41e 803c b0ae 173d 8423 e23b
000001e0: 1f0c e93c 9254 193c dbaf c73c e92c 3f3c
000001f0: 7382 c53c 6e43 123c de6e bc3c 4963 693c
00000200: 7482 a73c b98b a33c d0b0 923c a648 bc3c
00000210: 6ba8 963c ec13 c83c b4c7 6c3c 972e eb3c
00000220: f210 813c e1c5 dc3c 05b3 843c cfa9 ed3c
00000230: e187 893c 2bfc f33c 2133 943c b8dc f03c
00000240: 9fa2 ab3c 721a eb3c 3aab ba3c ac54 e23c
00000250: 2cd5 cd3c 2d83 de3c bea1 13bc 9229 2d3d
00000260: 967c ddbc ea4c b13c 6979 18bd 2223 463d
00000270: 5453 d5bc c1c4 3a3d 56bf 3ebc 68a9 343d
00000280: 3f1f bebc 3a22 3c3d 2324 d2bb 773d 023d
00000290: 82cc 04bb efc6 e73c 8648 f23b 7bcc dd3c
000002a0: c581 223c ac3c 153d c97e 1c3c eeb6 fa3c
000002b0: 1ea5 483c 06d5 053d 014d 963c fcca 023d
000002c0: 58b3 983c c67f e03c f511 933c d035 cc3c
000002d0: 6894 a03c dae5 ae3c 77dd 9e3c 7052 983c
000002e0: f656 9d3c 19b8 893c 1a06 903c 94ac 893c
000002f0: ae9c 8d3c d60f 693c f99f 883c add0 4e3c
00000300: ac2b 853c e239 423c 88fd 643c dd31 3c3c
00000310: bb68 443c ceb9 2d3c a826 473c 5244 393c
00000320: bfae a93a a0c8 d6bc e062 af3c 7237 803c
00000330: 12fd a6bd aec6 c3bc 15b0 8ebc 8327 aabc
00000340: 83b0 97bc 7558 05bc 3918 a8bc 1752 9fbc
00000350: e3ea 08bd fa06 a4bc dd68 12bd 172e 80bc
00000360: afbe c3bc f6c0 6abc d78b 11bc aade 4abc
00000370: 20ee 53bc 798d 203b 6482 5cbb dc42 6f3b
00000380: e225 f5bb f8b2 9f3b cdf0 9abb c3c8 293c
00000390: 907d f5ba 73d1 fb3b d18e 053a 83cc f13b
000003a0: 9ffa 963b 8af8 203c 234e c33b 94d7 143c
000003b0: 7cb5 fc3b 6468 1d3c e08d 2d3c 4e83 3c3c
000003c0: c166 193c 1ab9 2a3c a9ba 3e3c d540 5d3c
000003d0: da65 4d3c 8d9e 4e3c 2483 5d3c 39cb 693c
000003e0: 6845 523c ddb0 6a3c 59b4 9a3b 7ce0 8fbc
000003f0: 968f 033c cda6 d83b f806 b2bb b721 72bd
-0.0600751 -0.097510576 0.026851973 -0.051985264 0.024649745 -0.015437273 0.026405517 -0.04506209
0.0004309046 -0.030526016 0.0012175323 -0.035276797 0.00053715945 -0.019994425 -0.004970449 -0.014086071
-0.0026059132 -0.014024072 -0.0065858434 -0.022711357 -0.01477244 -0.008363394 -0.010944254 -0.018528415
-0.008802251 -0.013349392 -0.009390598 -0.011830309 -0.008766879 -0.009192454 -0.009796437 -0.0074318447
-0.007475839 -0.006162266 -0.007463303 -0.0040313904 -0.0075271646 -0.003317805 -0.00799935 -0.0019410272
-0.006138352 -0.0011408621 -0.005339594 -0.0017666959 -0.0034714157 -0.0013601405 -0.0026692436 -0.00060817035
-0.0019431824 -0.0012269074 -0.000117589916 -0.08681289 0.005140941 -0.0033132825 -0.026653763 -0.006142381
-0.03891962 0.0009188469 -0.017069025 -0.026226569 -0.004543145 -0.024154719 -0.0053857407 -0.006283949
-0.009631687 -0.0048423354 -0.012567286 -0.008774608 -0.0048447927 -0.011025859 -0.0057133343 -0.016017815
-0.0042839292 -0.011878094 -0.0030948767 -0.013068935 -0.0063556954 -0.009863385 -0.0065208483 -0.009003407
-0.008153142 -0.0072413245 -0.009546351 -0.008579805 -0.010850577 -0.007149282 -0.011453208 -0.006183858
-0.01137896 -0.0056482037 -0.0107777 -0.0063233464 -0.010609915 -0.006966663 -0.010221819 -0.0074079987
-0.0091691585 -0.008058821 -0.008723765 -0.008312061 1.283749e-05 -0.03888494 0.008791599 -0.011713847
0.0076880557 -0.032658327 0.011820295 0.0038558852 0.025707923 -0.018492416 0.018605176 -0.011369427
0.027525006 0.0059566493 0.03351967 0.0147302905 0.019375028 0.01563973 0.03703183 0.0069012064
0.028448163 0.009358542 0.024375847 0.011668422 0.024110055 0.008927209 0.023002084 0.014244863
0.020447947 0.019964086 0.017906576 0.02298386 0.018390855 0.024423562 0.01445191 0.02870874
0.01575515 0.026949825 0.016198644 0.029011635 0.016788425 0.029783329 0.018090786 0.029402122
0.020951567 0.028699134 0.022786725 0.027628265 0.025126062 0.027162159 -0.00901073 0.042275973
-0.027036946 0.02164312 -0.03722516 0.04837335 -0.02604071 0.045597795 -0.011642298 0.04410687
-0.023208259 0.04593108 -0.0064129992 0.0317969 -0.0020263498 0.028293101 0.0073938994 0.027075043
0.009918635 0.036434814 0.009551712 0.030604806 0.012246398 0.032673858 0.018347265 0.031931862
0.018640205 0.027404677 0.017952899 0.024928004 0.019602016 0.021349836 0.019392712 0.018593997
0.019206505 0.016811417 0.017581034 0.016805924 0.017286625 0.014224967 0.016677843 0.012622994
0.016256176 0.011854621 0.013976462 0.011486498 0.01198786 0.010603381 0.012155212 0.011307793
0.0012945755 -0.026218712 0.021409452 0.015651438 -0.08153738 -0.023898449 -0.017417947 -0.020770794
-0.018516785 -0.008138766 -0.020519363 -0.019448323 -0.03342713 -0.020022858 -0.035744537 -0.015646977
-0.023894636 -0.014328232 -0.008883438 -0.012382189 -0.012935191 0.0024498387 -0.0033647055 0.0036508357
-0.0074813226 0.0048736297 -0.0047284127 0.010362807 -0.0018729437 0.0076848804 0.00050948287 0.007379116
0.004607513 0.009824881 0.0059602424 0.009084601 0.0077120643 0.009607408 0.010592908 0.011505915
0.009362877 0.010420108 0.011641183 0.013504227 0.01253649 0.012611044 0.013520036 0.014269643
0.012833931 0.014324394 0.004721206 -0.017563097 0.008029839 0.006611681 -0.0054329596 -0.059114184

motion_mlp.mlps.0.fc0.fc.bias f4 [50]
00000000: f7d7 aeb6 1f92 5237 6ece 25b6 d822 fab6
00000010: a34f 22b7 1985 6337 f6cc 9c37 13c8 afb7
00000020: 453a 7238 636d 86b7 c43a 2338 412a 4f35
00000030: c8cc 37b8 13bc a5b7 0e15 d1b7 17c2 d536
00000040: b4e3 5738 26a2 6937 8b41 9437 6a2e 1637
00000050: 9b80 46b9 a935 1fb7 c96b 3f39 d7f6 96b7
00000060: 9d99 d637 80a3 99b7 124e 3138 621d efb7
00000070: 17b6 44b6 a7a9 61b7 78f3 91b8 4189 93b7
00000080: 7032 0338 7362 5737 e114 4836 3d14 38b9
00000090: 08bf 57b9 77ea 89b7 40eb d8b7 a30b e837
000000a0: 3490 83b4 9e36 a537 c72c e137 bed2 35b7
000000b0: a664 11b7 9eb1 f2b7 ceb7 3238 0fb1 8335
000000c0: f85c 3437 0988 ebb6
-5.2107457e-06 1.2550997e-05 -2.4707074e-06 -7.454637e-06 -9.674494e-06 1.3561244e-05 1.8692092e-05 -2.0954792e-05
5.7751564e-05 -1.6024982e-05 3.8916958e-05 7.7174997e-07 -4.3821317e-05 -1.9757112e-05 -2.4924546e-05 6.3704897e-06
5.147206e-05 1.3925635e-05 1.7673496e-05 8.951503e-06 -0.00018930661 -9.489632e-06 0.00018255333 -1.7996337e-05
2.558232e-05 -1.8315157e-05 4.2272797e-05 -2.8504703e-05 -2.9312266e-06 -1.3450545e-05 -6.9594884e-05 -1.758768e-05
3.1279807e-05 1.2837921e-05 2.9814476e-06 -0.00017555147 -0.00020575162 -1.6440854e-05 -2.5858753e-05 2.7661974e-05
-2.4505573e-07 1.9694966e-05 2.6842941e-05 -1.0837508e-05 -8.6661075e-06 -2.8931358e-05 4.260969e-05 9.811791e-07
1.0750482e-05 -7.0193823e-06

motion_mlp.mlps.0.norm0.alpha f4 [1, 54, 1]
00000000: 5023 d03d 3f32 df3d 5199 c33d ab7e d93d
00000010: c286 183e ae80 863d f4bd 043e 454f d83d
00000020: ebcf 0b3e ea45 153e cdee b93d c658 1e3e
00000030: 1a2d 2e3e df55 103e bcd0 f23d 3104 043e
00000040: b75b ee3d 88f5 dd3d c687 1a3e 4e07 1e3e
00000050: 5d49 223e 9df4 1c3e 5d26 223e 208a 293e
00000060: 985d d93d f3be cd3d 1441 553e 4da8 2d3e
00000070: 3bac 0f3e 7df6 163e e5c3 133e e871 3d3a
00000080: 4151 083e 4f24 b33d 6f1b e73d 1f2b 053e
00000090: 793d c63d 2ecf 343e 3b51 e13d 0924 d13d
000000a0: 471d 043e 1061 d93d beee 0a3e 6a6f f03d
000000b0: 0d02 323e 1960 003e a170 1b3e eeb7 dc3d
000000c0: f56f cd3d 4c02 cf3d 5c42 3b3e dd57 d73d
000000d0: 0fd3 523e 5bf1 0e3e
0.10162985 0.108982556 0.09550727 0.10619863 0.14895156 0.065675125 0.12963086 0.105619945
0.13653533 0.14577451 0.09078751 0.15463552 0.17009392 0.14095257 0.11856219 0.12892224
0.11638587 0.10837847 0.15090856 0.15432474 0.15848298 0.15327688 0.15834947 0.16556597
0.10613555 0.10046186 0.20825607 0.16958733 0.14030544 0.14742465 0.14430197 0.0007226751
0.13312246 0.0874716 0.112845294 0.1300473 0.09679694 0.17657158 0.110018216 0.10211951
0.12901793 0.10614216 0.13567635 0.117400005 0.17383595 0.12536658 0.15179683 0.10777269
0.1003112 0.1010786 0.18287033 0.105148055 0.20588325 0.13959257

motion_mlp.mlps.0.norm0.beta f4 [1, 54, 1]
00000000: 7b4b 0ebb 5510 803a 8e1f 513c a707 24ba
00000010: b5d9 ea3a 718a 2cba 32a3 413a 22ab 593a
00000020: 5144 34ba 840a 8fba f200 023c 581e 583a
00000030: 3c44 43b9 e6d6 5eba 18d6 2ab9 1b5d 253a
00000040: b729 7139 287b a237 f94c 2b3b c472 c23a
00000050: 8f0d 35b9 d0b1 77b9 7f10 73b9 16c7 4b3a
00000060: ddc8 83bb d4ff 26bb d490 0b3b 9c7c d639
00000070: 1914 08ba 6818 9d3a 25d9 0638 3eb1 b73d
00000080: 3bfc 833a 3a34 e3ba 3fe0 18ba 10f8 e438
00000090: 50ca 0e3a 56b8 2cbb 5dd2 24b7 7fed 813a
000000a0: 85e9 4fba 3668 ddba 32d2 88ba f529 7939
000000b0: 1d36 953a c046 db3a 7db1 3fba 41ba 7dbb
000000c0: b212 6aba 14e9 0abc 8456 ac3a bbd5 88b9
000000d0: fe9e 973a fad2 0b3a
-0.002171247 0.0009770492 0.012763871 -0.0006257244 0.0017917665 -0.00065819087 0.0007386684 0.0008303394
-0.0006876635 -0.0010913168 0.007934796 0.00082442677 -0.00018622068 -0.00085006503 -0.0001629222 0.0006308124
0.00022999091 1.9369254e-05 0.0026138409 0.0014835228 -0.00017266556 -0.00023621996 -0.00023180431 0.00077735016
-0.0040217475 -0.0025482075 0.002129604 0.00040910102 -0.0005190983 0.0011985423 3.215032e-05 0.08969353
0.0010069677 -0.001733429 -0.0005831755 0.000109180924 0.0005447017 -0.002635499 -9.824141e-06 0.0009912698
-0.00079312205 -0.0016892019 -0.001043862 0.0002376212 0.0011383925 0.0016729459 -0.00073125196 -0.0038715752
-0.00089291774 -0.008478422 0.0013148342 -0.00026099183 0.0011567769 0.0005333867

motion_mlp.mlps.1.fc0.fc.weight f4 [50, 50]
00000000: ddfb 71bd 2de9 36bd 457a 873d 3028 0bbd
00000010: 3a6d 213c 3499 243c 45f7 7c3c 12de 8bbb
00000020: d880 57bc 9025 14bd 7763 283b cb17 7b3c
00000030: eeb7 643c 91f5 bfbb 3c15 30bc 07aa 20bc
00000040: d93f 13bc 4d06 e7bc 1c92 ecbc 72ba adbc
00000050: 502a 80bd 50d4 46bd 2265 84bc 0c11 5739
00000060: 5a60 00bc d0f0 ea3b 168c c33c bce5 663b
00000070: 652b 1bbc 54d4 b3ba 7030 21bd cfd1 a5bc
00000080: da52 a7bc 5185 a0bc 3c5e 01bd 38aa ecbc
00000090: cfc4 8a3a f46c b33c d901 8bbc 8dd1 653a
000000a0: da1a 84b9 00ab 083b 1b0f 083c 6b11 c6bc
000000b0: 6d29 a03c 7f4e 02bd 831c 75bc 50a1 30bd
000000c0: 03d4 ef3c 179b 11bc 4307 e4ba 6384 a0bc
000000d0: 4a8a 9f3d c2d2 b1bc 6433 e1bc 2f20 8b3c
000000e0: 35ee 67bd 362b a13b 87dc 5fba 729d fabc
000000f0: 40c0 4bbb 9424 543c 34af 10bc d653 893c
00000100: 1f3e c03c 19ab 10bc 5c25 543b 34a6 0f3d
00000110: e749 59ba d203 55bc 3da0 9a3d e784 623c
00000120: ddb3 383d b7c3 18bd e865 e6bc 4e17 a33a
00000130: 64df 653d baa6 ae3c e0b9 58bc 7bec b2bb
00000140: e1ae a7bc baad 6bbc 275e 94bb 3cf4 f13b
00000150: 1f1f c7bb 9d2b ff3c a843 553b c414 8dbc
00000160: 275d 0bbc 50e3 04bc 8c25 f83c dd4e b9bc
00000170: 69f4 a8ba 4f8f 96bb 1007 a23d 002b c03c
00000180: adcf 383c 420f 2dbc 4aca f03c 0062 9cbc
00000190: d9c7 c2ba b087 7dbc fe31 70bb 7bd6 e9bc
000001a0: 3ce9 bd3b 6d7c c03b d7dc b3bc 7e72 033a
000001b0: 8f8e aebc 1258 8b3c 32aa 343c 9723 50bc
000001c0: 2b67 45bc 6b1d 7c3c 17f4 523c a937 88bc
000001d0: 473c b6bb e912 283c 4d36 86bb 7742 a3bb
000001e0: 30a8 b3bc 57cd 823c 217f 83be 767f 513c
000001f0: fe93 ecbb b580 a43c 726f cabc 71da 59bb
00000200: 5dd9 01bd 1343 c43b 27ea c9bc 811e f63b
00000210: 5b47 873c 89f7 343b 2872 f73b 4e1b 60bd
00000220: 9f54 d93d da87 3a3c 03a2 bbba c164 c5bb
00000230: 8ee1 cabc 24a5 dcbc 9548 dd3c 3461 c73b
00000240: fcb3 fdba 0494 e63b 2230 1e3b fa82 7f3b
00000250: 3922 5b3b 8feb 013b b568 e5bc efd5 f13c
00000260: dc51 f63c a4d2 583c ed35 a63c 26d9 1a3d
00000270: 7380 59bd 7d1c e53b 4f97 853c d31e 283c
00000280: 60a4 9d3b f15e 233c 7f89 093b fc21 1f3c
00000290: a8a8 443d e8f6 39bd 93a0 1fbc c89b d53c
000002a0: 7688 50bb e8e0 8abb c813 11bc 7902 a43c
000002b0: 0d70 00bd e479 c4bc 8e09 4ebc b7b9 2e3a
000002c0: 149a 21bc 948a e8bb 656a dcbc c8de e3bc
000002d0: c059 413d 6fac fc3c 1810 0f3d aa5f ff3c
000002e0: 5aec 03bd f0f8 8cbb 412c 8f3c 9d85 89bc
000002f0: a758 7ebc 7cde c8bc 3515 1c3d 4000 1f3c
00000300: 3ea7 7cba ae3e 3b3c 595c 30bd b2a6 533c
00000310: fc0b 2b3d 46e0 1b3d 72a4 59bb c873 983a
00000320: 0420 98bc 3141 8ebc d5f5 97bc 0283 ffbc
00000330: 7177 8dbd 7187 95bc 6c30 953d ab5c bfbb
00000340: 2b6e 7abd 06fc b63b e31f 303c bcc6 7d3b
00000350: a7d2 73bb e6de 0e3c 4d1c be3c 955a b53c
00000360: 43f1 bcba b97a d739 9787 5338 4066 01bd
00000370: 3219 42bc 0763 923b 2284 99bb ffca 96bc
00000380: 3909 143d c4ed 2b3d 6846 22bd 4bb8 2fbd
00000390: f8d5 e03c 0fe9 103d 3477 0fbd ecc5 363a
000003a0: 9df0 b5bc ab73 84bc b7f1 d7bc e957 dfbc
000003b0: e8d7 16bb 3b1e bb3b eee9 f1bb 6b8b 153d
000003c0: 1eb3 583c ff25 923d 5eda 8ebc 7059 e7bb
000003d0: 8a33 323d 2c70 983c 76e4 8bbc 6f68 20bd
000003e0: 2f40 9e3c 8d9b 113c 0fd5 203d 54f5 bd3c
000003f0: a8c9 0fbd 4476 053d 1fe5 493c 789e a0bd
-0.059078086 -0.044655968 0.06615118 -0.033973873 0.009852702 0.010046292 0.015439813 -0.004268416
-0.013153277 -0.036168635 0.0025694051 0.015325497 0.013959868 -0.005858131 -0.01074725 -0.009806163
-0.00898739 -0.028201247 -0.028878264 -0.021207068 -0.062580705 -0.04854232 -0.016161505 0.00020510348
-0.007835472 0.0071698204 0.02387051 0.0035232147 -0.009470795 -0.0013719895 -0.039352834 -0.020241646
-0.020425249 -0.01959482 -0.03158401 -0.02888976 0.0010587218 0.021902539 -0.016968654 0.0008766882
-0.00025197008 0.0020853877 0.008304383 -0.024178227 0.019551003 -0.03181314 -0.014960411 -0.04312259
0.0292759 -0.008887074 -0.0017397184 -0.019594377 0.077900484 -0.021706942 -0.027490325 0.01698312
-0.056623656 0.004918481 -0.0008539636 -0.030592654 -0.0031089932 0.012948174 -0.008830834 0.016763609
0.023467122 -0.008829855 0.00323709 0.035070613 -0.00082889054 -0.013001399 0.07550094 0.013825632
0.045093406 -0.037296023 -0.028124765 0.0012442858 0.056121245 0.021319736 -0.01322791 -0.0054603196
-0.020469131 -0.014384681 -0.0045278254 0.0073838513 -0.006076708 0.031148726 0.0032541547 -0.017221816
-0.008506096 -0.008110836 0.030291341 -0.022620613 -0.0012890223 -0.0045947204 0.07911503 0.023458004
0.0112799825 -0.01056272 0.029393334 -0.019089699 -0.0014860585 -0.015474245 -0.0036650891 -0.028544655
0.005795626 0.0058742077 -0.02195589 0.0005014314 -0.021308212 0.017009769 0.011026906 -0.012703798
-0.012048523 0.015387873 0.012875578 -0.016628103 -0.005561385 0.010258415 -0.0040958286 -0.0049822885
-0.021930784 0.015967054 -0.2568293 0.012786737 -0.0072197905 0.020080904 -0.024711344 -0.0033241773
-0.031701434 0.005989441 -0.024647785 0.0075109606 0.016513517 0.0027613363 0.0075514503 -0.05471354
0.10611843 0.011384929 -0.0014315251 -0.0060239737 -0.024765756 -0.026934214 0.027012149 0.0060845856
-0.0019356008 0.007036688 0.0024137576 0.003898798 0.0033437146 0.0019824242 -0.02800403 0.029520957
0.03006833 0.013233814 0.020289386 0.037804745 -0.053101014 0.0069919215 0.016307501 0.010261255
0.004810855 0.009971366 0.0020986495 0.009712692 0.048012406 -0.045401484 -0.009742874 0.026075259
-0.0031819618 -0.0042382367 -0.008854814 0.02002071 -0.03135686 -0.023983903 -0.01257552 0.0006665247
-0.009863395 -0.007096598 -0.026906202 -0.027816191 0.047204733 0.030843941 0.034927458 0.031173546
-0.032207824 -0.0043021366 0.017477157 -0.016787345 -0.015524066 -0.024520151 0.038106162 0.009704649
-0.0009637958 0.011428518 -0.04305682 0.012918161 0.041759476 0.03805568 -0.003320959 0.0011631185
-0.018569954 -0.01736507 -0.018549839 -0.0311904 -0.06907547 -0.01825306 0.07284626 -0.0058399043
-0.06114022 0.0055842428 0.01074979 0.0038723191 -0.0037204416 0.008720135 0.023206854 0.02213792
-0.0014415163 0.0004109943 5.0432598e-05 -0.031591654 -0.011846827 0.0044673714 -0.004684941 -0.018407343
0.036141608 0.041974798 -0.039617926 -0.042900365 0.027445778 0.035378512 -0.03502579 0.00069722417
-0.02220946 -0.016168436 -0.026360376 -0.027263599 -0.0023016874 0.005710391 -0.007382623 0.036509912
0.013226299 0.071361534 -0.01743811 -0.0070602223 0.043506183 0.018608175 -0.017076712 -0.039162096
0.019317714 0.008887184 0.03926569 0.02318827 -0.035104424 0.03258349 0.012322693 -0.078427255

motion_mlp.mlps.1.fc0.fc.bias f4 [50]
00000000: 43cc 96b6 e86a 4f37 b238 5cb6 2a55 0237
00000010: 5065 d734 4d68 2fb7 3a1e 89b5 36af 90b6
00000020: fe21 3cb7 664c 04b6 7951 d835 73d8 b635
00000030: 9068 26b7 c1b4 0836 e00c 9436 4e4a 13b7
00000040: 124a d236 15c3 02b7 44ac 69b6 0d12 1337
00000050: c49b 8b37 7934 1336 76aa 48b6 47d2 90b6
00000060: de2b 1cb7 579c 61b6 fc9e 4837 a063 a5b5
00000070: ed06 8c36 aff1 70b5 c344 39b6 9354 9537
00000080: 6984 2436 7633 2d35 b426 5fb6 442a 5937
00000090: f2b8 9336 5f23 4037 3796 09b7 efa8 cbb7
000000a0: e0b9 8a35 5055 85b6 b557 3635 f0d1 6936
000000b0: 4505 8035 36cc 43b7 2ef6 08b7 5407 5bb6
000000c0: fd80 0037 0af0 23b4
-4.4941276e-06 1.23630525e-05 -3.2815556e-06 7.768433e-06 4.0120585e-07 -1.0455097e-05 -1.0216093e-06 -4.3119317e-06
-1.1213588e-05 -1.9714003e-06 1.6116966e-06 1.3623052e-06 -9.918716e-06 2.0370792e-06 4.4122426e-06 -8.779183e-06
6.2671106e-06 -7.794025e-06 -3.4819977e-06 8.766086e-06 1.6642625e-05 2.193525e-06 -2.9901544e-06 -4.316014e-06
-9.308538e-06 -3.3618614e-06 1.1957945e-05 -1.2322453e-06 4.1731314e-06 -8.9758663e-07 -2.7607173e-06 1.7801567e-05
2.4514977e-06 6.452241e-07 -3.3252118e-06 1.2944049e-05 4.402472e-06 1.1452327e-05 -8.200811e-06 -2.4278152e-05
1.0335898e-06 -3.9736406e-06 6.7927914e-07 3.4841905e-06 9.538277e-07 -1.1670452e-05 -8.16355e-06 -3.2637809e-06
7.659427e-06 -1.5267884e-07

motion_mlp.mlps.1.norm0.alpha f4 [1, 54, 1]
00000000: 039f 923d b66b 6b3d e0ed 163e 223e 973d
00000010: b051 843d f39a 983d d4c1 6d3d 5307 943d
00000020: 9822 6c3d b7d6 c83d 6967 f63d 8032 6c3d
00000030: 0846 913d 1459 893d 002e 463d 42a4 9c3d
00000040: 2e12 823d 42e4 843d 5b6b 983d 9c6b 2e3e
00000050: ed8f 6f3d 8931 933d 61fb aa3d 01ee 823d
00000060: 1533 a93d d43f 953d 9d85 733d 694d 4d3d
00000070: e88e 6c3d 8722 8d3d 4ac9 923d 0f12 e23c
00000080: 559e 1f3d 2fc3 5e3d 799c ab3d eccd 5c3d
00000090: 0f10 813d 4ce5 a93d 2354 6b3d d265 a43d
000000a0: fde9 8b3d 804e 8b3d ce10 9c3d 442e 7e3d
000000b0: 6af0 853d 1445 9b3d 0931 313e cac0 863d
000000c0: 5230 9e3d 8a93 e13d 5373 823d 2cc4 8e3d
000000d0: c9c6 743d e541 c43d
0.07159235 0.057475768 0.1473918 0.07384898 0.06460893 0.07451429 0.058046177 0.072279595
0.05765018 0.098065786 0.12031443 0.057665348 0.070934355 0.067064434 0.048383713 0.07648517
0.06351124 0.06488849 0.074423514 0.17033237 0.058486868 0.071871825 0.08348728 0.06393052
0.08261696 0.07287565 0.059453595 0.050122652 0.057753474 0.06891351 0.07167299 0.027596502
0.038969357 0.05438536 0.08379454 0.05390732 0.06301891 0.08295688 0.057453286 0.08027233
0.06831739 0.06802082 0.07620393 0.06205584 0.06539996 0.07581535 0.17303862 0.0657974
0.0772406 0.11014469 0.063696526 0.069710106 0.05975989 0.09582881

motion_mlp.mlps.1.norm0.beta f4 [1, 54, 1]
00000000: c22a a0bb 1555 c13b da6e 9dba 1ada 05bc
00000010: bea1 74bb 7b62 d0bb 070c e7bb 9bdc 63b8
00000020: d205 7fbb 8b2b f6bc 8b16 aa3c e621 95bb
00000030: c906 d5ba 8345 9ebb 4294 913b 3c73 983c
00000040: 3716 893b 5d99 1b3c 64e5 6ebc be35 3a3c
00000050: 715b f13a fd57 89bb 16c1 adbb baaf 7eba
00000060: 2dd9 533c 8791 163c 27b2 6dbb 3a9b 98ba
00000070: 36eb 71ba 296b 40bb 3b7b 3e3b f9e4 053c
00000080: 45dd 8cbc d528 7cb9 6808 a1bc 6c1d 8e3b
00000090: 7014 c53a 6bfb 5c3d 0c1d 8438 4b49 c83c
000000a0: 819a 35bb 9862 cabb 99ca 15bb f41e 443a
000000b0: 68da a8bb 3af3 65bb 1ace 5eba 532e 5dbc
000000c0: 7ad0 e5ba 50d5 943c 8fec fdba 29fe 86bc
000000d0: b24d 7a3c f6db 20bc
-0.0048879096 0.005900035 -0.0012011186 -0.008169675 -0.0037327851 -0.006359396 -0.0070509943 -5.4326472e-05
-0.0038913381 -0.03005006 0.020762702 -0.00455116 -0.0016252632 -0.004830064 0.0044427225 0.018609636
0.0041835564 0.009497014 -0.014581058 0.011365352 0.0018414092 -0.004191397 -0.0053025587 -0.00097155164
0.012930197 0.00918997 -0.0036269517 -0.0011642941 -0.00092284696 -0.0029360747 0.002906515 0.008172267
-0.017195353 -0.00024047804 -0.019657329 0.0043370035 0.0015035998 0.05395071 6.299661e-05 0.024449011
-0.00277105 -0.006176304 -0.0022856353 0.0007481419 -0.005152989 -0.0035087601 -0.00084993395 -0.013499814
-0.0017533444 0.018168122 -0.0019372868 -0.016478615 0.015277313 -0.009818068

motion_mlp.mlps.2.fc0.fc.weight f4 [50, 50]
00000000: 6f38 8dbc 88cb c4bc 9c11 303c e331 21bd
00000010: 7178 b3bb 35b8 dbbb f37d 21bd 21c5 21bc
00000020: b1fb e23c fdd6 90bc e245 a6bc fe8a 743b
00000030: fe36 74bc cca5 1cbb dba0 0bbc adde 97bd
00000040: 1d01 363a 06bf 37bd 4357 4e3c 7c9e 8d3d
00000050: e1d9 f1bc 96bf 98bc c5fb afbc c869 90bc
00000060: c756 c83c 57e6 4a3a 6182 d9bc 95d0 793c
00000070: 57a8 a0bc 160e a1bc 943a 7b3c abf8 efbc
00000080: 5f19 d3bb a54f eb3a 793a abbc fcd5 98bb
00000090: 8a08 29bd 30c9 04bc 9f0e 66bc 9217 66bc
000000a0: 7d52 bb3b c17e 82bc 0330 d83c 0b04 f5ba
000000b0: 9a1a d93a 5e9f 99bb 7c51 b23c d63e 8abc
000000c0: aabb ea3c e6eb cabc 0442 a039 69d5 01bd
000000d0: 24f7 523b 4348 21bd 2690 60bc d136 8dbc
000000e0: 5eab 31bb ac9f fabc 062b 5cbc 4844 cabc
000000f0: db91 74ba 7e82 143c 2e14 1abd e426 143d
00000100: e444 48bc 0c86 11bd 164c bdbc 77e9 403a
00000110: e9bf 5dbc 83eb 1c3d 72e3 81bc 00d3 adba
00000120: 7434 45bd 4a92 db3c 9d60 bebc 10fd 0b3c
00000130: aa34 15bd 812c e7bb 3efc 14bd 17bc 48bc
00000140: 5e76 00bb a31a 643b f165 32bc b5b2 913c
00000150: e3de 0b3c 1b17 4bbb 9e71 7dbc d6c4 243a
00000160: 798c 2ebc aca6 b1bc 303d 88bc 97a2 4e3c
00000170: 7932 02bd 7a9b ceba 96be f83b 44f8 143c
00000180: 4195 ecbb 0d42 3d3a 734c 383c 3f37 36bb
00000190: 31c7 cfbb 7c24 ffbb 947f 483b c54b 4cbc
000001a0: 46da 14bc 4811 133d 63fe 41bd f8da 01bc
000001b0: 5f4c 183c 56dc c5bb 3c82 cabc d471 d13b
000001c0: 4206 fb3b 10e4 223b 2768 ddbb cb69 36bd
000001d0: e0ca 66bc 19f7 6d3b bffd f83b 4265 4f3c
000001e0: 77b7 ffbd f6f5 b7bb c23c 87bc 7f57 b5bb
000001f0: 31ef 2abb 216c 1fbc f196 caba 0a04 453c
00000200: 7672 a03b 2774 513b 7ef6 3d3b 8a56 3ebc
00000210: 2a34 4ebc 39ae c13b 431b 5c3c 5918 69bd
00000220: eb2b b0bb a7f3 2ebb 8cf1 a5bc 51c8 1f3e
00000230: 4692 f3ba 652b a63c 4b93 333c aafe d73c
00000240: 250a b13b 05f8 de3c e73d b63c 8e82 4f3c
00000250: d346 323b 7dc9 f93c 74ea bd3c f2d1 dc3c
00000260: e75b 9b3c fd35 91bd ee9b 20bd 5f7f 6bbc
00000270: 76c7 ad3c f3d9 8bbb aafa b73c c610 93bb
00000280: 675b 553c 293d acbb 9787 fcbc ea29 7d3c
00000290: 1054 303c 9fc7 dfb9 3911 e43b 221b 8cbc
000002a0: 7bcc a93a 7659 c13c 9feb 853c 0a89 cb3a
000002b0: 828b a2bc e234 8f3d 4734 a9bc 618a f13c
000002c0: 87d3 1c3d f49a a439 6084 c8bb 06ab a23c
000002d0: 540d fa3c c89c 323c af7a 1d3b 28ce 6b3c
000002e0: 7e12 883b cf80 a83a 810a b63c 4fc2 7d3c
000002f0: 7bdb 353c 4935 5d3c 86b6 abbc ee03 27bc
00000300: c6ef 64bc 0203 b03c b576 28bc 1854 cfbc
00000310: 89c0 243c 4b18 c73b d7ca 48bb b4cd 94ba
00000320: 1c1d c43c 18fd a8ba b350 103b 102b 44ba
00000330: 0441 b6bb e1b1 edbc cce0 b7bc 7dc4 dfbc
00000340: 19c5 d03c 8fee 91bc acc4 8a3b da51 83bb
00000350: 6a7b 563d dfe0 f83b a7f6 81bc 7a40 4cba
00000360: eb58 a03a 2e27 0cbd 6789 4c3b a985 333c
00000370: 3030 e3bc b4c1 883b 2cdd 55bd 4b54 f1bc
00000380: ee18 ab3c 0ec2 e73b 31ed 393c 77bc 103c
00000390: eefb b23b 0384 0fbc 8bd4 513c eaa6 953d
000003a0: 9d25 963c 3c70 dabb 7ea2 933c fcb8 bbbc
000003b0: f05d 78bc ba9b 98bc 8f60 bb3b f783 8d3c
000003c0: f379 1c3c 9ec5 d0bc 0094 a53c 090f e93b
000003d0: 3aab ce3c eea7 0d3c dc6c 19bd 4dbe bc3a
000003e0: 886d 41bb 1f22 a53b 3ec4 75bc 6de2 71bd
000003f0: 60b6 9fba b50d 8c3c 8ea2 10bb 02c8 c8bc
-0.017238824 -0.024022833 0.010746386 -0.039354216 -0.005477004 -0.006705309 -0.039426755 -0.009873659
0.027707906 -0.01768064 -0.020296995 0.003731429 -0.014905689 -0.0023902534 -0.008522238 -0.07415519
0.0006942915 -0.04485991 0.012594047 0.06914994 -0.029522838 -0.018646043 -0.021482358 -0.017628565
0.024455441 0.0007740012 -0.026551427 0.015247484 -0.01961152 -0.019660037 0.01533379 -0.029293379
-0.0064422335 0.0017952813 -0.020901905 -0.004664181 -0.04126791 -0.008104607 -0.014041572 -0.014043706
0.0057166205 -0.015929582 0.026390081 -0.0018693222 0.0016563714 -0.0046881875 0.02176737 -0.016875666
0.028653938 -0.024770688 0.00030566764 -0.031697664 0.0032190764 -0.039375555 -0.013706243 -0.017238053
-0.00271102 -0.030593716 -0.013437992 -0.024690762 -0.00093295955 0.009064315 -0.0376169 0.0361699
-0.012223456 -0.035528228 -0.02310757 0.0007359008 -0.0135345245 0.03831054 -0.015855525 -0.0013261735
-0.048145726 0.026803154 -0.023239428 0.0085442215 -0.036427177 -0.007054866 -0.03637337 -0.012251875
-0.0019601802 0.0034805916 -0.010888563 0.01778541 0.008537027 -0.0030989114 -0.015468983 0.00062854344
-0.0106536085 -0.02168592 -0.016630739 0.012612007 -0.031786416 -0.0015762888 0.007591079 0.009092394
-0.007219941 0.000721962 0.011248696 -0.0027803925 -0.006340884 -0.0077863317 0.003059362 -0.012469237
-0.009085244 0.035905153 -0.047361743 -0.007925741 0.009295552 -0.006038229 -0.024720304 0.006391743
0.007660658 0.0024855174 -0.0067568007 -0.044534486 -0.014086455 0.0036310612 0.0075986083 0.012658419
-0.12486165 -0.0056140376 -0.016508464 -0.005534112 -0.002608251 -0.00973037 -0.0015456361 0.012024889
0.0048964573 0.0031960101 0.0028986032 -0.011617312 -0.012585679 0.0059106615 0.013434234 -0.056907985
-0.005376329 -0.002669552 -0.02025678 0.15603758 -0.0018583022 0.020284364 0.01096041 0.02636655
0.0054028207 0.027217874 0.022246314 0.012665404 0.002720286 0.030491585 0.023183085 0.026955578
0.01896472 -0.070903756 -0.039211206 -0.014373629 0.021213274 -0.004267925 0.022458393 -0.0044880835
0.01302228 -0.0052563143 -0.030826373 0.015451888 0.01076223 -0.00042682604 0.006960061 -0.017102782
0.0012954617 0.023602229 0.016347704 0.0015528512 -0.019841913 0.069925085 -0.02065481 0.02948493
0.038287666 0.00031395967 -0.006119296 0.019856941 0.030523933 0.010901637 0.0024029424 0.014392413
0.004152595 0.0012855771 0.022221806 0.015488221 0.0110996915 0.013501474 -0.020961057 -0.010193808
-0.013973182 0.02148581 -0.010282208 -0.025308654 0.01005567 0.006075894 -0.003063848 -0.0011352808
0.023939662 -0.0012892811 0.0022020757 -0.00074832235 -0.0055619497 -0.029015483 -0.022446059 -0.027315373
0.025484608 -0.017813949 0.004234871 -0.00400756 0.05236379 0.007595166 -0.015864683 -0.000779159
0.0012233531 -0.034217052 0.0031209828 0.01095716 -0.027732939 0.004173482 -0.05221288 -0.02945914
0.02088591 0.0070726937 0.011348055 0.008833996 0.0054621613 -0.008759501 0.012807022 0.07307227
0.018328482 -0.0066662114 0.018021818 -0.022915356 -0.015159115 -0.018628944 0.005718298 0.01727484
0.009550559 -0.025484856 0.020212173 0.007112388 0.025228132 0.008645995 -0.037457332 0.0014399976
-0.0029514749 0.005039468 -0.015000401 -0.059053827 -0.0012185089 0.01709638 -0.0022069546 -0.024509434

motion_mlp.mlps.2.fc0.fc.bias f4 [50]
00000000: fdc6 7336 aac3 3e35 2cb0 52b5 281b a7b6
00000010: 7d1e 8fb6 2547 3036 ea84 a835 5d21 b234
00000020: eb68 6336 30fa 78b6 96ad e135 efbe d1b5
00000030: 7b41 98b6 68ea f935 facb aa36 3709 cc34
00000040: 47bc 1bb7 b0b2 3135 7cb0 b5b5 fb39 32b6
00000050: d093 34b6 9e4f 89b6 e5d1 7936 1ec3 8735
00000060: 0d6c 0c36 6691 0bb6 f3f0 a436 588f af36
00000070: 2938 2436 159c 1336 394e 1ab5 5a63 9c36
00000080: df33 65b6 5ef7 9236 c6ef 32b6 f963 9536
00000090: f1ca 9936 f4d4 37b6 73ab d534 3224 50b5
000000a0: 7f96 4536 81f5 1c36 6c5b 2635 43ce c7b5
000000b0: 9d9d c8b6 fc01 1bb7 f001 1337 f0a2 09b6
000000c0: 13d3 0fb5 c0ac 3236
3.6325648e-06 7.1065244e-07 -7.848746e-07 -4.9801492e-06 -4.2652814e-06 2.6267455e-06 1.2555658e-06 3.317936e-07
3.3886706e-06 -3.7100508e-06 1.6814327e-06 -1.5627282e-06 -4.537576e-06 1.8620167e-06 5.090141e-06 3.8004666e-07
-9.282557e-06 6.619766e-07 -1.3536915e-06 -2.6557816e-06 -2.6908128e-06 -4.092187e-06 3.7226066e-06 1.011507e-06
2.092452e-06 -2.0797247e-06 4.915631e-06 5.232094e-06 2.4470594e-06 2.1995559e-06 -5.74833e-07 4.6607283e-06
-3.4153852e-06 4.3799364e-06 -2.6663633e-06 4.4521844e-06 4.583381e-06 -2.739308e-06 3.9799087e-07 -7.753871e-07
2.9442888e-06 2.3388714e-06 6.1972855e-07 -1.4886685e-06 -5.978813e-06 -9.239182e-06 8.762334e-06 -2.0509433e-06
-5.3578805e-07 2.662462e-06

motion_mlp.mlps.2.norm0.alpha f4 [1, 54, 1]
00000000: 8821 6d3d c39b 363d 92d8 723d b809 323d
00000010: 8c22 e03c 4cf4 183d deeb e83c 2240 f63c
00000020: 8f4c 113d 7fd3 773d b9bd 803d d21d 043d
00000030: 8be9 033d 0c81 163d b68f 1a3d caf2 243d
00000040: d74f 3a3d 018e 043d 9bd3 413d 3d69 d23d
00000050: b983 e53c fa33 153d 995b 003d d414 d93c
00000060: db20 603d a85e 7f3d 5819 033d 8cc1 023d
00000070: e892 fc3c ff0d 133d 0d88 103d c78e 693c
00000080: 4585 f03c 8ea4 453d 3a9f 223d 35d9 233d
00000090: beee 2a3d 89ff 5c3d b4dc 163d ab47 893d
000000a0: 6299 323d d19a 2b3d a338 303d 3612 f93c
000000b0: 2cb5 033d af9a 213d 497b cd3d 8db7 3e3d
000000c0: d81a 4b3d 05af 9e3d 06f9 eb3c 5987 7a3d
000000d0: 4a29 833c 3db1 3e3d
0.057893306 0.04458214 0.05928857 0.0434663 0.027360223 0.037342355 0.028432783 0.030059878
0.035473403 0.060504433 0.06286187 0.032255 0.032205146 0.036744162 0.03773471 0.040270604
0.045486297 0.032361988 0.047320943 0.10273979 0.028016912 0.03642652 0.031337354 0.02649919
0.054718833 0.06234613 0.03200659 0.031922862 0.03083177 0.03590202 0.035285998 0.014255232
0.029360423 0.048252635 0.03970263 0.040002067 0.04173159 0.053954635 0.036831573 0.06703123
0.04360331 0.04189569 0.043022763 0.030404191 0.0321552 0.03945416 0.100332804 0.046561766
0.049586147 0.07748226 0.028805267 0.061164234 0.0160109 0.046555746

motion_mlp.mlps.2.norm0.beta f4 [1, 54, 1]
00000000: 5c99 a3bc 2e23 b73a c9bd 443d 8695 14b9
00000010: 1f20 2cbb 5d3a 953b 4d85 8f3b c3c5 bdbb
00000020: ffe4 8f3b a6cc 283b d5de 373d b9c7 553b
00000030: 2391 443b 8efe 9d3b 7d84 c6bb c515 ecbb
00000040: 083a 41bc 6530 ab3a c01b 1c3b 4e90 6cbc
00000050: ffd1 f1ba 5f8e 28bb e5c5 78bb 2c09 29bb
00000060: 1eb0 41bc 8443 49bb 9c79 fc3a 493d 0cbc
00000070: 598d 07bc e92f df3b 2d13 06bb 6789 b7bb
00000080: d2d3 a73c 0d1c 8e3b 4270 b7bc 75b6 01bc
00000090: 861a e9ba e14b 213d a35d 2bbc 339f d0bb
000000a0: ce89 b8bb af37 323c a050 4f3c bcc6 1cb9
000000b0: 9791 8eb8 8a1c 193b bcdc 2c3b b30f f33b
000000c0: d856 a6ba b167 6ebc a001 75bb e27a aebc
000000d0: 774d 07bb 81f3 55bb
-0.019970588 0.0013972276 0.048032556 -0.00014170082 -0.0026264263 0.0045540766 0.0043799044 -0.0057913973
0.004391312 0.0025756746 0.044890244 0.0032620265 0.0029993735 0.004821605 -0.0060582743 -0.0072047436
-0.011793621 0.0013060687 0.0023820251 -0.014438702 -0.0018449425 -0.0025719625 -0.0037959751 -0.002579282
-0.011821775 -0.0030710408 0.0019262317 -0.008559533 -0.008273446 0.0068111313 -0.0020458207 -0.0056010964
0.020486746 0.00433684 -0.022392396 -0.007917036 -0.0017784394 0.039379004 -0.010459336 -0.0063666343
-0.005631662 0.010877534 0.0126535 -0.00014951354 -6.798206e-05 0.0023362958 0.0026376685 0.007417643
-0.0012690676 -0.014551089 -0.0037385002 -0.02129883 -0.0020645538 -0.003264636

motion_mlp.mlps.3.fc0.fc.weight f4 [50, 50]
00000000: 4d92 e93a 7ac7 8ebc 4078 913d 790d b0bc
00000010: 1584 04bc ee60 afbb 64ac e13c a574 1abb
00000020: 3e9c 123d 1397 263c f757 323b f93c f3bc
00000030: 294d e9ba 832a bd3a dc8d f4ba 4702 0b3d
00000040: fa3f 4b3c db2d b03c 5e51 60bc ed86 53bc
00000050: 7301 83bc 7cbc aabb 53a9 06bd 3794 50bc
00000060: bf60 a33c 4ec8 7b3c 9e12 093c 3471 9e3a
00000070: 9729 82ba 341f a03c 22ad 30bc aa3a 0c3c
00000080: 9bbd ea3b 4b57 c73b 9ff4 f43c d3eb 7cbd
00000090: de34 263c 166a 953c d463 bcbc 9a16 0f3d
000000a0: 405b 943c 8127 383c 63e8 f93c e4e7 fe3c
000000b0: 3946 c1bc 52d8 89bc 7549 88bc ed78 843b
000000c0: 62aa babc 115b a0bb 0dc1 e13b 21a3 89bd
000000d0: ef52 763c 9a33 17bd 8f0d 1c3c 2341 ed3b
000000e0: 4802 883c 3bf6 4a3b d82b 553c cdce d0bc
000000f0: f9f9 4a3b 4806 f63c 0721 9abc b776 5a3c
00000100: a9a8 e538 32c4 cd3c 95c7 10bc 2c33 ddbb
00000110: ec65 31bb f69c f63c 62c8 b73c 37f0 a0bc
00000120: 8a1b 7abc ae7b 753d 1470 c3bc 204d deba
00000130: 0f65 e5bc e7da 26bb f27f 283b b420 353c
00000140: b215 42bd f966 7ebd 1106 8b3b 238d e3b7
00000150: 579b b63b 7cf6 b2ba 2453 a4bc 717e d9bc
00000160: 594b 983c c1de 5b3a dc63 0cbc c04a 15bc
00000170: 58bc d4ba 5960 e139 cf5b ffbc ddf4 dfbc
00000180: 826d c93c fe46 b2bc 855a 4d3a 4e3d 8ebc
00000190: f0f8 27ba b406 08bc 3a79 1fbd ad88 41bc
000001a0: 15b5 bdbb 7c47 ca3c 4380 a83c 5766 52bd
000001b0: c995 8fb9 5dfd 47bc c36e ed3a 6030 313c
000001c0: 32c4 11bc 0cd3 52bd acf1 b73c 8d71 b9bc
000001d0: e627 ddbc 9a83 84bc 2011 a73c 4df3 0fbd
000001e0: 47d9 74bc 6ff6 61bc 5aaa c4bc a4da b4bc
000001f0: 53ef c8bb 42e5 0cbd 1170 4f3d 35d3 74bb
00000200: 03d7 f0bc ef3c bdbb a9a1 333d 4e63 b93c
00000210: f9f3 a7bc cd5c 523c b316 2ebc 6ec2 1cbc
00000220: f94c b238 920f e33b 6357 133d 08d2 f43b
00000230: 171e 353c 580a 7fb9 541d 49bc a31a a8bc
00000240: 8b68 953c 28ff d43a 6e25 a4ba 29cf d5bc
00000250: 7143 debb 4929 ea3c c30e 7ebb 0310 143c
00000260: d69d 97bb acdd 9b3b 9d94 863b 4a2b f2bb
00000270: a0a5 1bbd fd16 9c3c 1608 40bc 2c2b 833c
00000280: a6fa f63b 5296 92bb c9ca 033c cb27 babc
00000290: 747f a6bc 5d08 61bc e709 d43b f220 9fbc
000002a0: 9e14 8b3c 82e2 2fbd 0e41 78bb a154 143b
000002b0: 2a46 c33c 577d 6fbb 66a9 7f3b e48f c23c
000002c0: 485b 81bb 9c8f 9abd 56f0 153d 807c 1b3d
000002d0: 14df 98bb c0b0 203d db15 fd3b 3e46 203b
000002e0: 5b1f 993c efd7 133b eccc 0a3d 88ce 283c
000002f0: 70e0 00bd 9bfe 663c f473 963c a1f6 c6bc
00000300: 0965 a1bb c54c 47bd 8910 5ebb 206f e03b
00000310: a499 e43c da1b f4bb f3a5 c7bc c201 efb9
00000320: 2776 063d 818d e1bc c2f5 a5bc 0d73 8f37
00000330: 4f97 833c 9cc7 57bd 8ebd 843d b0e5 6e39
00000340: 3705 7ebd 2258 fd3b 2ff5 33ba d555 d8bc
00000350: 3f2c 0ebd 910d da3c 76b8 3bbb 0e48 203c
00000360: d822 903c 6be6 fd3a fa43 d53c dda2 373d
00000370: 4fe2 f63c 5fda 47bc f602 eabb 3b3f 863c
00000380: 337d 933c e64d a8bc 30c9 cfbb e40b 843c
00000390: 2c6c 87bc 9cf4 95bc 7eea 2fbd a1f5 78bb
000003a0: 0872 86bc 5892 32bd bc14 003d 769f cd3b
000003b0: 8dfa d0bc 91cc 893b da82 ab3a 6fa8 043d
000003c0: c0e4 7b3c d94c 2c3d dc27 933b 2cde 21bc
000003d0: be2c afbc efeb 943b d0c7 a5bc 20a5 cd3c
000003e0: 3e74 ed3a c99e 3fbc 545f e83b b5ed 91bc
000003f0: af77 5dbc 3e61 59bc 4787 1cbd 142f 7dbc
0.001782009 -0.017429102 0.07103014 -0.0214908 -0.008088131 -0.005352131 0.027548023 -0.002356806
0.035793535 0.010167855 0.0027213076 -0.02969216 -0.0017799485 0.0014432225 -0.0018658 0.03393772
0.01240539 0.02150624 -0.013691274 -0.012910587 -0.015991902 -0.0052104574 -0.032876324 -0.01273065
0.019943593 0.015367581 0.008366255 0.001208818 -0.0009930608 0.019546129 -0.010783466 0.0085589085
0.007163716 0.006083404 0.0299018 -0.061748337 0.01014444 0.018239062 -0.02299682 0.034933664
0.018109918 0.011239887 0.030506318 0.031116433 -0.023593055 -0.016826782 -0.01663659 0.004042736
-0.022786323 -0.0048936685 0.0068894685 -0.067205675 0.015034421 -0.036914445 0.009524717 0.007240431
0.01660265 0.0030969519 0.013010941 -0.025489235 0.003097175 0.030032292 -0.018814577 0.013333968
0.00010950986 0.025117967 -0.008836647 -0.006750485 -0.0027068807 0.030104142 0.022434417 -0.019645793
-0.015265355 0.059932403 -0.023857154 -0.0016960241 -0.02800229 -0.0025460066 0.0025711027 0.01105516
-0.04738397 -0.06210992 0.0042426665 -2.712623e-05 0.005572717 -0.001365378 -0.020059176 -0.02654955
0.018590616 0.000838738 -0.00856873 -0.00911206 -0.0016230447 0.0004298713 -0.031171707 -0.02733844
0.02458835 -0.021762367 0.0007833618 -0.017363217 -0.0006407639 -0.008302379 -0.03893397 -0.011812371
-0.005789409 0.02469229 0.020568972 -0.05136713 -0.00027386684 -0.012206403 0.0018114675 0.010814756
-0.008896874 -0.0514708 0.022454105 -0.022637153 -0.026996564 -0.016176034 0.020393908 -0.03514414
-0.014944381 -0.0137916645 -0.024007011 -0.022076912 -0.0061320453 -0.034398325 0.050643984 -0.0037357335
-0.0293994 -0.005775086 0.043855343 0.02263036 -0.020502077 0.012839508 -0.010625529 -0.00956784
8.502039e-05 0.0069293464 0.03597201 0.0074713267 0.011054537 -0.00024322548 -0.012275059 -0.020520514
0.018238327 0.0016250359 -0.0012523362 -0.026099758 -0.006782942 0.02858414 -0.0038766123 0.009037021
-0.00462697 0.00475665 0.0041070716 -0.0073904144 -0.03799975 0.01905393 -0.011720678 0.016011797
0.007537204 -0.004473486 0.008043953 -0.022724053 -0.020324446 -0.013734904 0.006470907 -0.01942489
0.016977604 -0.042940624 -0.0037880572 0.002263345 0.023837168 -0.0036543214 0.0039010881 0.023750253
-0.003947649 -0.075469226 0.036606155 0.03796053 -0.004665265 0.039231062 0.0077235526 0.002445593
0.01869171 0.0022559126 0.033886835 0.010303147 -0.03146404 0.014098789 0.018365838 -0.024287524
-0.0049253744 -0.048657198 -0.0033884367 0.0068491846 0.027905293 -0.007449609 -0.024371123 -0.00045586942
0.032827523 -0.027533295 -0.020258788 1.7100503e-05 0.01606336 -0.052680597 0.06481467 0.00022783014
-0.062016692 0.0077314535 -0.00068648433 -0.026408115 -0.034710165 0.026617797 -0.0028643883 0.009782804
0.01759474 0.0019371038 0.02603339 0.044833053 0.03013721 -0.01219806 -0.0071414663 0.016387573
0.018004036 -0.020544957 -0.006341122 0.016118951 -0.016531073 -0.018305115 -0.04294824 -0.0037988203
-0.016411796 -0.043596596 0.031269774 0.0062751127 -0.025510097 0.0042052944 0.0013085261 0.032387193
0.0153743625 0.042065475 0.0044908356 -0.00987963 -0.02138364 0.004544727 -0.02023688 0.025103152
0.0018116308 -0.011695572 0.007091442 -0.017813543 -0.013517304 -0.013267813 -0.038214948 -0.015453119

motion_mlp.mlps.3.fc0.fc.bias f4 [50]
00000000: 017a 38b6 5a69 5f35 22b0 21b7 e602 9f36
00000010: 7d5b bdb6 d9c5 4cb5 da3a 8ab5 7977 b133
00000020: fe78 75b4 f0dc acb6 85dc 6bb3 5033 ed35
00000030: d9b1 f335 d746 6635 6c71 e8b6 ad93 0fb5
00000040: 1572 8f36 2554 31b6 59d8 67b6 28c8 e635
00000050: 4068 0e34 f55a a336 227c 62b6 4a62 ce35
00000060: 28c9 cd36 8063 21b7 db17 0035 e178 73b5
00000070: 821a ee35 dca9 95b6 ab46 c4b6 7b73 2c35
00000080: a394 ac34 6650 37b5 aaa0 24b6 f029 dab5
00000090: 3505 8536 2c83 a936 28ac 5137 c93b 83b6
000000a0: d91f 4cb6 1ea0 2eb6 c6a3 3e37 f0f3 1c36
000000b0: a7e2 0ab5 6d81 1536 b4f3 1036 4463 ca33
000000c0: c354 a3b6 2f28 bd34
-2.7489152e-06 8.322728e-07 -9.637357e-06 4.7389067e-06 -5.6432896e-06 -7.628383e-07 -1.0298929e-06 8.263937e-08
-2.286142e-07 -5.15172e-06 -5.4915763e-08 1.767281e-06 1.8156671e-06 8.578476e-07 -6.927343e-06 -5.348655e-07
4.275013e-06 -2.6424034e-06 -3.4547613e-06 1.7194589e-06 1.3262706e-07 4.8683673e-06 -3.374888e-06 1.5376802e-06
6.1328938e-06 -9.6195145e-06 4.771843e-07 -9.0700456e-07 1.7740097e-06 -4.4603203e-06 -5.849482e-06 6.424304e-07
3.2145644e-07 -6.828981e-07 -2.4531423e-06 -1.6254471e-06 3.964315e-06 5.051863e-06 1.2497454e-05 -3.911064e-06
-3.0416907e-06 -2.602122e-06 1.1363014e-05 2.3387802e-06 -5.173883e-07 2.2278066e-06 2.1599526e-06 9.424414e-08
-4.867646e-06 3.523323e-07

motion_mlp.mlps.3.norm0.alpha f4 [1, 54, 1]
00000000: 10ef 603d c7c9 673d c4c9 c03d 6288 3a3d
00000010: 25dc da3c d04d 043d 9f1c 893c de84 043d
00000020: a513 103d 8988 673d 3647 da3d 1bde 0c3d
00000030: e4fb 393d 1e21 243d 3893 5a3d 2263 453d
00000040: e3e0 293d 3850 103d a5b4 333d a066 c13b
00000050: 45ae 433d c751 4b3d 38b7 2a3d 4b72 373d
00000060: 5478 673d f723 9d3d f2b0 1f3d 7dbe 313d
00000070: 3f5f 9b3c 5950 5b3d 42e1 a93c f967 3a3c
00000080: 3b53 4c3d 084c 473c ade8 a33d d3f7 2b3d
00000090: 115e fe3c 39a0 a03d 9813 5e3d f16b 6d3d
000000a0: 4c76 743d f560 693d d0f3 2a3d 0f9a 773d
000000b0: 0f6a 293d 317a 323c b384 143c ce09 1b3d
000000c0: cc0f 4e3d fe06 d83d cf57 103d f005 903d
000000d0: 479b a73d 0b52 c93c
0.054915488 0.056588914 0.09413484 0.04554022 0.026716301 0.03230077 0.01673728 0.032353275
0.035174984 0.056526694 0.10658114 0.034391504 0.045406237 0.040070646 0.053363055 0.048190244
0.041474234 0.035232753 0.043873448 0.0059021264 0.04777362 0.049638536 0.041678637 0.044786733
0.05651124 0.076728754 0.038987108 0.043394554 0.018966315 0.053543422 0.020737294 0.011377328
0.049884062 0.012164123 0.08003364 0.04198439 0.031050714 0.0784306 0.054217905 0.05796427
0.05968313 0.05697723 0.041736424 0.060449656 0.04136091 0.0108933905 0.009064841 0.037851147
0.050308034 0.10548209 0.03523999 0.070323825 0.08183914 0.024575254

motion_mlp.mlps.3.norm0.beta f4 [1, 54, 1]
00000000: a4cb 243c b956 9c39 2c8d b83c fd6d 90bb
00000010: c7b8 283b d024 73ba eae4 a7bb 2b59 0c3c
00000020: 1df9 32ba 3dcb 8cbb 22e0 8a3b 7c50 14bb
00000030: 8dab 70bb b7d3 c1bb 9239 d5bb 2232 213c
00000040: 900a ae39 86a9 30bc a82f ebbb 4d0d 963c
00000050: 7b33 b4bb 6eea 5ebb 2fbc df3a 45c1 c53a
00000060: 7d3f a9bc 1824 44bc f1b4 973a 2cc4 563b
00000070: 9f91 723c dcf0 87b9 7de7 00ba 5deb f0bb
00000080: 2319 4c3c 65a4 3fbc 0d29 e13c bb2b adba
00000090: e681 1f3b dbbb ed3c d432 3abb c939 cebb
000000a0: e176 8bbb a3c1 74bc 3737 e4bb 223b 1ebb
000000b0: e5c6 2ab9 bd12 3ebc 21f9 6c3c 6635 44bc
000000c0: 7353 e2bb ce0b b7bc 79c5 50bb f761 e33c
000000d0: b44c 41ba 85de c739
0.010058317 0.00029819252 0.022528253 -0.004407643 0.0025744902 -0.00092752 -0.005123724 0.008566181
-0.0006827282 -0.004296689 0.0042381445 -0.002263098 -0.0036723346 -0.005915131 -0.006507107 0.009838613
0.00033195736 -0.010782605 -0.007177312 0.01831689 -0.005499301 -0.0034014243 0.0017069633 0.0015087506
-0.020660156 -0.011971496 0.001157431 0.0032770736 0.014805227 -0.0002592866 -0.0004917307 -0.0073522762
0.012457165 -0.01169691 0.027485395 -0.0013211885 0.00243389 0.02902024 -0.0028411644 -0.0062935096
-0.004256115 -0.014938745 -0.00696459 -0.0024144133 -0.00016286557 -0.011601147 0.014463694 -0.011975622
-0.0069069206 -0.022344496 -0.0031855984 0.027756674 -0.00073737954 0.00038122028

motion_mlp.mlps.4.fc0.fc.weight f4 [50, 50]
00000000: e336 84bc 396d c73c 493f d5ba 324e 373d
00000010: 07f4 0c3c 26c5 13bc 1ca5 ddbd bde8 74bc
00000020: 811d 0d3d f094 a1bb ff38 e83b 6701 2dbc
00000030: 03e9 303c edfe 533c bdd2 a0ba 4687 15bd
00000040: d633 b13b 54ba 4e3b 262d 05bc f400 5bbc
00000050: ea1a b5bc 8eb6 123d 25cd 973c 8446 3cbc
00000060: 37a7 18bd 78c6 4a3c d4a9 913c 2ba0 033d
00000070: 80ac d03b 424c 243d ef04 833b 39dc 03bd
00000080: f6b1 fbbb 2c6a bd3b 1eeb a5bc 5cb1 edbb
00000090: 5a83 01bc 2afd 043d 18b5 6dbc 71a6 19bc
000000a0: afa0 fa3c e803 2bbd 582d b03b 3ed6 043b
000000b0: 5235 453c 9e20 7e3c 10bf 2bbd 8854 903a
000000c0: f10c 8c3c 9b59 95bd 5b10 213d cdb3 0e3c
000000d0: b7d8 c7bb 71ac 84bd 71e6 8e3c 4f9e 5fbc
000000e0: ba7a 3fbc af2c 63ba aeae bd3c 210b d43b
000000f0: 575b e53c 6185 823c 19be 35bb 2f8a 63bb
00000100: 8819 8f3c b02b 2c3c 83e1 e0bb b75b dcbc
00000110: 4d72 ab3c 194b 8bbc 8ac0 d63c 104a 92bb
00000120: 38db 2e3c f52a 59bc f261 8f3c 1211 bf3c
00000130: 53bd cdbc db67 38bd d0de 5cbc 4c05 4dbd
00000140: 5363 b3bb 8770 18bd 7150 793c 9627 b0bc
00000150: fccd f83c 18ee 143c 6899 61bc 7f2d e43c
00000160: 3eb4 bbbb e700 d0bc 8dc0 0f3d 5c79 2c3d
00000170: 85ff 86bc c2de 7e3a d800 113d cf24 65bc
00000180: 77ec 023c ac9b e0bc 6d5c b5bc d756 15bc
00000190: d15f 3dbc 89ed 843b 6457 bb3c 539a 15bd
000001a0: 0808 8fbb 3a96 6dbb 48ab 133d 19bb cb3c
000001b0: f260 ee3c c77c be3b a909 39ba 04e5 c43c
000001c0: f43c 6a3c b636 cb3b f985 2cbd 10f5 b03c
000001d0: 21d7 07bb fd1b 103c a8d9 423d ca90 513b
000001e0: 2d44 393d ec6c 653c 6ea5 90bb 7324 b1bc
000001f0: d59d a33b 7f96 993c a8d7 233d 678f 2cbd
00000200: 8cb1 0b3d dd57 e63b d716 80bc 815a 1c3b
00000210: c992 083c 777f 62bb b78f f6bb 7775 46bb
00000220: 3ea3 b9bb 7f8e 8dbc a3e7 063d 67fd 413d
00000230: 8237 8fbc 860b 65bc ebf1 f43c 9f2a c8bb
00000240: e8b5 e5bc 5daf 08bc e804 e33c b026 db3c
00000250: 4928 073c 46b9 62bb c87b 50bc bedf bf3c
00000260: d8b9 9c3c f491 0fbd 8f0f 74bd 0f2d a5bc
00000270: 6f67 e7bb 110f 48bd 785c 103d fe23 1f3d
00000280: 9940 723c b9a2 343d 17aa 6fbc c0d1 f5ba
00000290: 8878 4a3c dadd bdbc b5fa 48bd 94cb f4bb
000002a0: 6cb6 bb3c d0fe 433c 996b df3b d1f7 1fbc
000002b0: 02a1 40bb 1b5c b43c 3956 e3bc bde2 583c
000002c0: d618 183d 2275 283d 8879 9fbc d69a b0ba
000002d0: b231 6ebc e38d 39bd c15c 71bc 1da4 0e3d
000002e0: 9d8a 753c e503 c43c fadf 433c 50f9 1a3d
000002f0: 69b9 74bc 0639 4ebb c932 e7bc dd2a 363b
00000300: 10c6 b83b 8a15 ccba 1b4c bcbb 89c1 413b
00000310: 6bb3 d63c f2d9 b83c cc71 b0bb 199f c63c
00000320: 32f1 d9bc 56a0 2e3c 5b12 063b 6530 153d
00000330: 117b 46bc 247e f6ba 92b4 093d ea68 1ebc
00000340: 2b05 3f3b 98c4 dabb 8e4c 213c e881 e6bc
00000350: 5884 7fbc dfb5 6a3c cb1a 283c 5bcb 11bd
00000360: 93aa d7bc 7fd1 8dbc e7dc 7bbc dd0e 0bbd
00000370: 8cea 743b 1a4c 853c bafb a4bc 007e c13c
00000380: e000 173c 5486 7d3d c6e0 04bd 0a08 a6bc
00000390: 1abc 32bd b588 dc3b 1039 1bbc 8070 8fbc
000003a0: 72db f2bb 252d ac3c ac40 093d 4648 203d
000003b0: ba08 bd3b e182 b0bb 020f 1a3c 14b2 8e3b
000003c0: 055a 2abd 293a 25bc ce25 d7bc 1c29 55bc
000003d0: 68b0 ea3c 330e 01bd 635a 0cbc 3f67 04bc
000003e0: 638a 35bd b4e6 02bd 3be1 983c 42ec a8bc
000003f0: 9f7a e1bb 308d f13b 1b60 ccbb df33 3bbd
-0.016139453 0.024344074 -0.0016269471 0.044752307 0.0086031025 -0.009019172 -0.10822508 -0.014948067
0.034451965 -0.004931085 0.0070868726 -0.010559416 0.010797742 0.012939197 -0.0012269836 -0.03650596
0.0054077907 0.0031544166 -0.00812844 -0.013366926 -0.02210756 0.03581863 0.018530438 -0.011491422
-0.037268844 0.01237642 0.017781176 0.03213517 0.00636822 0.040111788 0.003998391 -0.032192443
-0.0076811267 0.005780479 -0.020253714 -0.007253809 -0.007904852 0.032468 -0.014508508 -0.009378062
0.030594198 -0.041751772 0.005376499 0.00202693 0.012036638 0.015510706 -0.04193026 0.001101152
0.017096015 -0.072924815 0.03932224 0.00870986 -0.0060988325 -0.06478203 0.017443867 -0.013648584
-0.011686975 -0.0008666021 0.023154583 0.006471053 0.027997656 0.01593274 -0.0027731715 -0.0034719815
0.017468229 0.010508463 -0.0068628206 -0.026899202 0.020928526 -0.017003583 0.026214857 -0.0044643953
0.010672383 -0.013254871 0.017502759 0.02332357 -0.02511469 -0.04502092 -0.013480857 -0.05005388
-0.005474487 -0.03721669 0.015216933 -0.021503251 0.030371659 0.009089969 -0.013769485 0.027853725
-0.0057282737 -0.025391055 0.03509574 0.042107925 -0.016479263 0.00097225246 0.035401195 -0.013985827
0.007990948 -0.02741798 -0.022138799 -0.0091149425 -0.011558489 0.0040566367 0.02286882 -0.03652413
-0.004364971 -0.0036252872 0.03605202 0.024869489 0.029098962 0.0058132145 -0.00070586294 0.024034984
0.014296759 0.0062015904 -0.042119954 0.02160123 -0.0020727592 0.008795735 0.047570854 0.003197717
0.045231033 0.01400302 -0.004414252 -0.021623826 0.0049931803 0.01874852 0.040000588 -0.042128947
0.03410487 0.007029517 -0.01563589 0.0023857655 0.008335778 -0.0034560838 -0.0075244564 -0.0030282417
-0.005665212 -0.017279861 0.03293575 0.047360804 -0.017482523 -0.013979798 0.029900512 -0.0061085965
-0.028040841 -0.008342591 0.0277123 0.026751846 0.008249351 -0.0034595295 -0.012724824 0.023422118
0.019131586 -0.0350513 -0.05958515 -0.020163087 -0.007061891 -0.048842493 0.035244435 0.038852684
0.014785909 0.044100497 -0.014627955 -0.0018754527 0.012357838 -0.023177076 -0.049067218 -0.0074705575
0.022914134 0.0119626075 0.0068182466 -0.009763674 -0.0029392843 0.022016576 -0.027751075 0.013237652
0.03713306 0.04112733 -0.01946713 -0.0013473879 -0.0145382155 -0.04530133 -0.014731587 0.03482448
0.014986661 0.023927638 0.011955256 0.03783542 -0.014936783 -0.0031467094 -0.028222458 0.0027796545
0.0056388453 -0.0015570384 -0.005746377 0.0029564819 0.0262086 0.022564862 -0.0053846594 0.024245786
-0.026604269 0.010658344 0.0020457718 0.036423106 -0.012114302 -0.0018805903 0.03361947 -0.009668568
0.0029147367 -0.006676268 0.009844912 -0.028138116 -0.015595518 0.014325588 0.010260294 -0.035594326
-0.026326453 -0.01731181 -0.015372491 -0.03394972 0.0037371246 0.01627164 -0.020139564 0.023619652
0.009216517 0.061895683 -0.032440923 -0.020267505 -0.04363642 0.006730164 -0.009474054 -0.017509699
-0.007411414 0.02101762 0.03350894 0.039131425 0.0057688626 -0.0053866957 0.009402992 0.0043547247
-0.041589756 -0.010084667 -0.026263144 -0.0130102895 0.02864857 -0.031507682 -0.008566472 -0.008081256
-0.04432143 -0.031958297 0.018662086 -0.020620469 -0.0068810727 0.007371567 -0.0062370426 -0.045703765

motion_mlp.mlps.4.fc0.fc.bias f4 [50]
00000000: 5b9e df36 a88f 95b6 84b3 3cb5 e3e9 8a34
00000010: 8627 b235 cd95 f134 e6db 0435 7f53 95b6
00000020: 55fe 84b6 158f b936 3387 0cb3 4beb 5d35
00000030: cc1f 3bb5 31a5 23b6 5841 52b6 88ed 1eb5
00000040: 26a3 9cb6 d588 1bb6 c866 a7b2 51cc b635
00000050: f055 02b6 895f 50b6 41bd 6bb4 498b da36
00000060: ffc5 c2b4 abc6 2cb5 d6e6 f3b5 3551 0ab6
00000070: 6b90 2636 6cdd b4b6 47bb 80b5 c6e4 cb34
00000080: df05 5933 f40d d735 8616 8036 b642 3d36
00000090: 9f8a e034 ca21 5bb5 5be9 60b6 a479 a435
000000a0: 7ede 6fb6 4279 2fb6 377b ad36 c583 27b3
000000b0: 4e27 d5b5 af36 d7b5 50e5 3db6 9839 7cb6
000000c0: 8393 9bb5 2ab9 a9b6
6.664353e-06 -4.45727e-06 -7.029669e-07 2.5874678e-07 1.3273536e-06 4.4998743e-07 4.9493826e-07 -4.4502663e-06
-3.9635147e-06 5.5300866e-06 -3.2719253e-08 8.267131e-07 -6.97092e-07 -2.4385047e-06 -3.1330474e-06 -5.920524e-07
-4.6681553e-06 -2.3176447e-06 -1.9488098e-08 1.3619521e-06 -1.9421532e-06 -3.1050024e-06 -2.195493e-07 6.513121e-06
-3.6279377e-07 -6.4364093e-07 -1.8172093e-06 -2.0610871e-06 2.481999e-06 -5.390195e-06 -9.591248e-07 3.797815e-07
5.052959e-08 1.6022809e-06 3.8173193e-06 2.8202026e-06 4.1824111e-07 -8.1633027e-07 -3.3514432e-06 1.2254354e-06
-3.5743283e-06 -2.6147613e-06 5.170146e-06 -3.900256e-08 -1.5881176e-06 -1.6034663e-06 -2.8296672e-06 -3.758445e-06
-1.1591331e-06 -5.0581484e-06
