src/siMLPe/exps/baseline_amass/log/snapshot/model-iter-40000.pth (torch, 604338 bytes, 196 tensors)

motion_mlp.mlps.0.fc0.fc.weight f4 [50, 50]
00000000: 373d 00bd 00e0 9abd bcbc 003d 71bc 29bd
00000010: 728f 983c 99cd 86bc adc4 f43c f846 05bd
00000020: e50c ccbb 4f92 debc d992 d4bb 3f0a b9bc
00000030: a3ac bbbb 49eb 8fbc c65f 7abc b98c dabc
00000040: 6153 3dbc af6a a7bc 69ef 0ebc 869e d1bc
00000050: 382f 2cbc a630 b3bc 466b 51bc 9c85 f0bc
00000060: df77 c3bb 6766 cabc caba 34bc a4d7 9fbc
00000070: 4225 31bc 37ee 7ebc 437d 87bc 4aaa 19bc
00000080: 1eac 7cbc c9b6 e7bb 1fe2 8fbc 2e46 5fbb
00000090: 2439 8abc 1cbd 4bbb de9e 7ebc bbdd 05ba
000000a0: 5123 6abc c702 9038 9313 56bc af92 d639
000000b0: 94fd 0cbc 90ba 3fba 81f2 ecbb 510d 6dba
000000c0: 6c2f 9abb 2f66 49bb 16d4 283c 6062 08bd
000000d0: c798 433b 0436 17bc 1411 a8bc 852b 84bc
000000e0: b3e5 09bd 2e7a 493c bf61 6fbc dbf5 c7bc
000000f0: 2a4f 213a e7fb 03bc 20aa c93b f198 edbb
00000100: 85fb bfbb d04d f33b b49a cebb a906 c3ba
00000110: 9588 a5bb 3c45 b9bb 44de 6ebb 5590 3abc
00000120: 419f edbb a466 3bbc 0238 47bb ac90 63bc
00000130: 3f4e 02bc 3b4c 20bc a1ae febb a669 40bc
00000140: ab54 4bbc 3786 01bc ecd0 7bbc a69b 1fbc
00000150: 33c6 6cbc 7c51 23bc e758 8fbc 27cb 27bc
00000160: 0b8c 95bc d34f 20bc 275f 91bc 6425 28bc
00000170: 9b41 8ebc 8422 38bc 3410 8dbc f734 50bc
00000180: 6a32 83bc 299c 5ebc 2768 80bc bd79 75bc
00000190: 8252 d2bb 33ac debc 95c2 c33c 6989 4ebc
000001a0: 0972 a6bb 933d e0bc ab4a 3f3c 3ac4 5e3a
000001b0: 7c64 803c f315 84bc 1dfe 9d3c 0c4f 41bc
000001c0: 7538 b23c 27f6 2a38 def2 b33c 81eb bd3c
000001d0: f95b b23c 22e5 a23c 8284 ed3c 0efd a63c
000001e0: e3d3 e83c fe3b 813c 94f0 b63c 1edc 9a3c
000001f0: 7f80 f63c ac78 543c 9886 cc3c 68b9 713c
00000200: d989 ca3c c5a4 bb3c d60b 8d3c 2be8 c03c
00000210: c537 913c ee10 cb3c c17a 6b3c c949 dc3c
00000220: f5d2 613c f4d9 de3c 0c16 6b3c 2a72 e33c
00000230: 7124 573c 2b98 dd3c dea0 813c 345c dd3c
00000240: 3ee6 8f3c b448 d13c 3a57 9a3c ad40 c33c
00000250: c5a3 ab3c 0f95 bb3c 29c6 1abc f84c db3c
00000260: 035c 98bc 7366 d33c 772b d6bc 29d8 b43c
00000270: 5474 b5bc 7a48 4b3d b60b eabc baef 393d
00000280: ce1d 5fbc 2d61 153d 7bd7 ac3a 593d ea3c
00000290: 7746 7d3a 0f0d cd3c d203 213c 0497 f93c
000002a0: e9d0 173c dde2 1d3d 18b1 813c 2f71 013d
000002b0: def7 813c 2bf1 f03c 04b1 a93c beb3 f63c
000002c0: 2d28 af3c b384 d03c 79a1 ad3c 853c d13c
000002d0: 1f81 b03c b215 cf3c 4da6 ad3c de7b c83c
000002e0: 7b54 af3c f4ce bb3c 8456 9e3c f306 b73c
000002f0: f293 973c b220 aa3c 9edf a23c 8cbb a23c
00000300: 8415 a23c 859d 953c e6a0 953c c2a9 963c
00000310: 75b3 8d3c 3ba5 893c 6c9f 913c a346 8e3c
00000320: f7ea aeb7 364d babc 370b ad3c 0f04 353c
00000330: 7cbc 85bd 3955 cebc 7943 32bc 2e6b e9bc
00000340: 63ed 26bb 882c b3bc 82fc b3bb 385d a2bc
00000350: 4ee6 dcbc 8631 d2bc 37d6 c2bc e35e 71bc
00000360: 9054 abbc 89bc 5ebc 3fda 6ebc a2e5 00b9
00000370: 9368 d2bc 7c23 2e3c 7ddd 64bc 8276 0a3c
00000380: a373 51bc 3c55 5a3c e6d2 07bc 4fb3 673c
00000390: 84c1 a5bb f5b9 2b3c 35f0 863a 2540 203c
000003a0: 3053 693b e668 293c f27b c93b 5d3d 213c
000003b0: 9a71 303c b3b6 123c 6f8f 4b3c 698f 1f3c
000003c0: d725 403c f231 133c 4833 583c 2eaf 493c
000003d0: dc15 683c cabe 2c3c 9d8f 763c 5706 523c
000003e0: e77a 513c 4fef 713c e2dd d73a 280a 66bb
000003f0: fc63 093c e9e9 9e3b 8c80 9fbb ff23 85bc
-0.03130838 -0.07562256 0.03142999 -0.041439477 0.018623088 -0.016455458 0.029878939 -0.032538384
-0.006227123 -0.027169375 -0.006487232 -0.022587894 -0.005727367 -0.017568247 -0.015281623 -0.02667843
-0.011555524 -0.020436613 -0.008724072 -0.025588285 -0.010509305 -0.021873783 -0.012781924 -0.029360585
-0.0059652175 -0.024707032 -0.011030862 -0.019512005 -0.010812106 -0.0155597245 -0.016539222 -0.009378979
-0.015421895 -0.0070713502 -0.017563878 -0.003406893 -0.01687295 -0.003108806 -0.015540807 -0.0005106588
-0.014290647 6.8669724e-05 -0.01306619 0.00040926549 -0.00860538 -0.0007313872 -0.007231057 -0.0009042817
-0.00470536 -0.0030731072 0.0103044715 -0.033296943 0.00298457 -0.009229187 -0.020515956 -0.016134033
-0.033666324 0.012297196 -0.014610707 -0.024409225 0.0006153459 -0.008055664 0.0061543137 -0.007250898
-0.005858841 0.0074250475 -0.006305063 -0.0014879304 -0.0050516822 -0.0056540053 -0.0036448399 -0.0113869505
-0.0072516506 -0.011438046 -0.0030398373 -0.013889473 -0.007953226 -0.0097838 -0.007772282 -0.011743939
-0.012410323 -0.0079055345 -0.015369635 -0.009741699 -0.014451551 -0.009968158 -0.017498447 -0.010241306
-0.018255254 -0.009784657 -0.017745567 -0.010262821 -0.017365268 -0.011238698 -0.01721964 -0.01270794
-0.01601525 -0.013587036 -0.015674664 -0.014982638 -0.006418527 -0.02718172 0.023896495 -0.012606003
-0.005079512 -0.02737311 0.011675517 0.0008497868 0.015672915 -0.016123747 0.01928621 -0.011798631
0.021755436 4.0760406e-05 0.021966394 0.023183586 0.021772372 0.01988465 0.028993849 0.020384338
0.028421348 0.015775677 0.022331513 0.018903788 0.030090569 0.012968224 0.024966523 0.014753677
0.024723934 0.022905717 0.017217558 0.023548206 0.017726788 0.024788346 0.0143725285 0.026890652
0.013783206 0.027203538 0.014348518 0.027764399 0.013131247 0.027050098 0.015823778 0.027021505
0.017565843 0.025547363 0.018840421 0.02383455 0.020952115 0.022898225 -0.009446659 0.0267701
-0.018598562 0.025805688 -0.026143773 0.02207573 -0.022150196 0.049629666 -0.028570037 0.045394637
-0.013617946 0.036469627 0.0013186777 0.028593706 0.0009661684 0.02503064 0.009827571 0.030467518
0.009266117 0.03854643 0.015831515 0.03160208 0.015865263 0.029411873 0.02071429 0.030115005
0.021381462 0.0254539 0.02119516 0.025541553 0.021545945 0.0252789 0.021197462 0.024473127
0.021402588 0.022925831 0.019328363 0.02234218 0.018503163 0.020767543 0.01988202 0.01986482
0.01978565 0.018263588 0.018265199 0.018391494 0.017297486 0.01680242 0.017776214 0.017367667
-2.085183e-05 -0.022741895 0.021123512 0.011048331 -0.06530091 -0.025187122 -0.010880345 -0.02849349
-0.0025471083 -0.02187182 -0.0054927478 -0.01981984 -0.026965287 -0.02565838 -0.023783786 -0.014732095
-0.020914346 -0.013594755 -0.014578401 -0.00012292576 -0.02568463 0.010628577 -0.013968823 0.008451106
-0.012783918 0.0133259855 -0.008290028 0.014141872 -0.0050584693 0.010481347 0.0010294976 0.009780918
0.0035602562 0.010339951 0.0061488086 0.00984129 0.010769272 0.008954692 0.012424334 0.0097387815
0.011727772 0.008984076 0.01319582 0.0123098325 0.014165368 0.0105435345 0.0150488885 0.012818894
0.01278565 0.014766528 0.0016469324 -0.0035101268 0.008385655 0.0048496616 -0.004867619 -0.016252516

motion_mlp.mlps.0.fc0.fc.bias f4 [50]
00000000: d1ab 6b38 cc12 b737 db57 8ab7 7684 1fb7
00000010: 41df e4b7 0ca4 9c37 56b7 3bb7 f554 9237
00000020: 8a65 eab8 4d02 2bb8 eed8 aab6 9f7b acb7
00000030: a32a e9b6 39da 41b7 c351 9ab8 d91c e237
00000040: d08d 4e35 c219 48b8 5e2a bcb7 133b 1ab7
00000050: e281 af39 ab25 a7b7 6a7d eeb8 68d3 eab7
00000060: 7c5c 33b7 4dd5 6f38 cf7f 9d37 419a feb7
00000070: 0b55 93b7 adc8 cc37 f2f7 8438 4789 6336
00000080: d2f7 1538 afd5 e9b5 3a10 42b7 e1b5 c5b7
00000090: 4ef5 d438 b605 a7b7 9804 8636 df0c 6bb8
000000a0: df28 15b7 9060 06b7 3b2d a635 fa49 a8b5
000000b0: 7b46 7138 967d 00b8 8e8f 67b6 5378 cd36
000000c0: 6d6a 56b8 2c77 ac37
5.6188383e-05 2.1824053e-05 -1.6491793e-05 -9.5079795e-06 -2.7283679e-05 1.867304e-05 -1.1188755e-05 1.7444117e-05
-0.000111769026 -4.077172e-05 -5.0916487e-06 -2.0561563e-05 -6.9489047e-06 -1.1554505e-05 -7.3585215e-05 2.6954733e-05
7.6947344e-07 -4.7707705e-05 -2.2431075e-05 -9.19287e-06 0.0003347537 -1.9925492e-05 -0.000113720846 -2.7993417e-05
-1.0690765e-05 5.7180692e-05 1.8775374e-05 -3.035099e-05 -1.7563367e-05 2.4412142e-05 6.340434e-05 3.3905542e-06
3.575517e-05 -1.7422043e-06 -1.1567079e-05 -2.3568924e-05 0.00010154639 -1.991061e-05 3.994046e-06 -5.6040353e-05
-8.890608e-06 -8.009505e-06 1.2381128e-06 -1.2538505e-06 5.7524518e-05 -3.063454e-05 -3.4505242e-06 6.1234837e-06
-5.1120693e-05 2.0559492e-05

motion_mlp.mlps.0.norm0.alpha f4 [1, 54, 1]
00000000: d8b1 213e d159 1c3e 133f 3b3e d24e 183e
00000010: 32ef 403e 3cca 003e 13ea 3b3e a677 173e
00000020: 3ed5 5a3e f44a 733e b65f 393e 0fc0 433e
00000030: f9e9 443e 5f68 0d3e 316b 233e 7861 4f3e
00000040: e684 2c3e 4b2a 2d3e 0abb 4e3e 85c8 913e
00000050: 29f8 3e3e f98e 373e f2a0 513e 1070 383e
00000060: 08ef 2e3e fcdf 413e a9a2 4e3e 1597 353e
00000070: fadf 753e d9e5 343e f1c5 433e 6a0b 03bb
00000080: 205c 2b3e a6c5 223e 8f48 323e 58a9 1c3e
00000090: a77c 243e ba5a 903e 4c05 343e 307e 063e
000000a0: cc3e 393e 18a4 1d3e 97cb 453e 7366 1e3e
000000b0: 238e 573e 07f2 3f3e dc42 993e df02 113e
000000c0: f57c 133e e501 453e 4f35 4e3e 2568 183e
000000d0: 6165 4b3e 099d 5e3e
0.15790498 0.15268637 0.1828578 0.14873818 0.18841246 0.12577146 0.18351011 0.14791736
0.21370408 0.23759061 0.18102917 0.19116233 0.19229878 0.13809346 0.15958859 0.20252025
0.16847572 0.16910665 0.20188537 0.28473297 0.18649353 0.17925633 0.20471552 0.18011498
0.1708337 0.189331 0.20179237 0.17733414 0.24011222 0.17665805 0.19118477 -0.0019995817
0.16734362 0.1589571 0.17410491 0.15298975 0.16063176 0.2819422 0.17580146 0.13134074
0.18090361 0.15394628 0.19315945 0.15468769 0.21050315 0.1874467 0.29933822 0.14161251
0.14403136 0.19239004 0.20137523 0.14883478 0.19862892 0.21739592

motion_mlp.mlps.0.norm0.beta f4 [1, 54, 1]
00000000: 548d 8ab9 b296 9d3a dc0b 263c 0425 da39
00000010: 4abc d039 ca34 b9b9 bcee e439 bd2e 573a
00000020: 018b 95ba f893 47ba 0c54 e53b 5e8e d339
00000030: 2614 42ba 07ae 2fbb 5487 75ba c0ab 053b
00000040: 56e7 eb3a df38 c8ba 7ab6 9f3a 0830 753a
00000050: 8924 9cba d44d eab9 16b8 ceb8 2147 12b8
00000060: 6436 83bb 3795 10ba 0f2c 793a e6ae de3a
00000070: 646c 0fb9 f1f3 82ba 76ff bab8 a411 923d
00000080: e537 1e3b caa4 85ba e1bd 2fbb 6f91 fcb9
00000090: 9654 2bb9 0616 98bb f97b 3736 65d9 1c3b
000000a0: c64c 523a 715e 8338 409c 06ba e278 6fba
000000b0: b3ef d139 9507 633a c53a 38ba 1aca a3bb
000000c0: aaec 0cba 84a5 86bb fe69 163a 7ec7 de3a
000000d0: fe26 76b9 c14d 9c38
-0.0002642671 0.001202306 0.010134663 0.0004160778 0.00039813138 -0.0003532528 0.0004366542 0.00082085637
-0.0011409224 -0.00076132966 0.0069985446 0.00040351128 -0.0007403515 -0.002680661 -0.0009366174 0.002039656
0.0017998021 -0.0015275738 0.001218512 0.00093531655 -0.0011912744 -0.00044689944 -9.857134e-05 -3.4875357e-05
-0.0040042866 -0.0005515399 0.00095051614 0.001698938 -0.00013677921 -0.0009990913 -8.9167545e-05 0.07132271
0.0024142202 -0.0010196206 -0.0026816058 -0.00048173542 -0.00016339342 -0.0046412973 2.7341287e-06 0.0023933288
0.00080223044 6.264158e-05 -0.00051349774 -0.00091351394 0.00040042176 0.00086604926 -0.00070278003 -0.0049984576
-0.0005375842 -0.0041090865 0.000573784 0.0016996709 -0.00023474914 7.4531425e-05

motion_mlp.mlps.1.fc0.fc.weight f4 [50, 50]
00000000: 21cd 0abd 1682 b7bc a318 453d 6391 ccbc
00000010: c4ca ee3b 3dc6 9dbc 9e94 4cba cfe5 903b
00000020: 964c 123c 8dc5 e5bc db30 793c 7c0e ae3c
00000030: 3948 6f3c ac52 143c c95a b3bb 773e 11bc
00000040: 890c babb 9351 80bc ad41 b7bc 2f4d 80bc
00000050: 38b1 4ebd b2a8 55bd 7b49 14bd 3e33 663b
00000060: 3217 e2ba 1550 e0bb 4687 8b3c c333 a1b9
00000070: 1e3f 8fbb 6d4d 643c f043 c63b 8c89 74bc
00000080: 40aa b5bc 0f3b debc 468c 90bc 0277 8cbc
00000090: f0ad 0bbd 4d26 af3c e726 c1bc fa7b 29ba
000000a0: 1502 e0bb dd36 813b bdaa 16bc 6535 cdbc
000000b0: 0f54 9d3c 25e3 05bd 7657 e2bc 0442 17bd
000000c0: 89ca e93c a3ac 57bc e3df 27bb 9726 13bd
000000d0: f08c 983d b567 debc 3a1a 86bc 49d1 2e3b
000000e0: 4907 82bd ea5b 07bb 5b68 1a3b ec63 9abc
000000f0: 7dbd 15bb a8a7 003d b955 87bb 4b74 483c
00000100: 173d 073d 96ff 87bc 3073 b73b 270f da3c
00000110: ff5c 9d3b 8aec 01bc 6fa4 473d e974 a03b
00000120: 0d57 273d c498 89bc 202a 8a3b b553 183b
00000130: f560 313d 0fae d53c 6d6c 953b d750 2abb
00000140: 460b 85bc 8c94 74bc 1e4d d3bb f88a 823c
00000150: c311 a4bc 9143 883c 925a aa3c c085 2dbb
00000160: 38fa c138 e51a 3b3c 9b48 cb3c b5d3 40bc
00000170: 2891 1a3c 9f3c 3cbc b457 a33d 59da 513c
00000180: 3310 1abc 4274 73bc b84d 083d f864 55bc
00000190: 42b3 8a3a 2f66 d8bb 43c8 7cbc 2fb3 24bc
000001a0: cd69 c93b 5c92 91bc 077b 9cbc 9e9f 263b
000001b0: d0f1 86bc 7997 c13c 110e 163c def9 74bc
000001c0: c674 34bc 020c dd3b ed20 f73b 54ae 6fbc
000001d0: fb23 70ba 7815 963b 8e0d 8dbb af9d f3bb
000001e0: a503 96bd 3716 da3c d78a 64be ca80 683c
000001f0: 5f8f 47bc f3bd 543c 1629 e2bc aa95 1cbc
00000200: a9c4 b1bb 78a0 223a b42b febc 9346 da3a
00000210: fb46 e03b ac9d 663c 7046 8339 3c76 a7bd
00000220: 23ba 7ebb 0534 ac3b 656e 3d3b d7cb d1bb
00000230: 410e 8cbc 7409 edbc 451a 533c e815 493c
00000240: f230 5ebc 80db 003c ad52 86b9 9a22 d63b
00000250: 06e5 1e3b b8e3 ed3b c4d1 bc3a 1f06 3f3c
00000260: a3c7 1f3d 7138 db3c 0458 343d 521e da3c
00000270: 2bab 65bd 2dbf 9ebc d547 843c 779e ae3c
00000280: a59d 9839 25ac 483c 4f82 2f3c 7bfc b6bc
00000290: 2e55 4e3d 7478 b4bc 6461 62bc 4024 6e3c
000002a0: 7e40 213c c52e 2139 4865 12bd f6f7 a53c
000002b0: cbb9 51bd 1124 2ebc dd77 d23b 34b3 283c
000002c0: e26d 83bb 4b50 6d3b 4060 0fbc cb6d 6bbc
000002d0: f353 863c a6e3 6a3c 5aa8 c23c 4ea1 043d
000002e0: c35c 3fbc 55a8 f7bc e850 343d a97f 30bc
000002f0: ee72 c4bb 8186 8dbc e6cf bf3b 32cc 3b3c
00000300: 688b 07bc 52b7 e13b 1b36 02bd 4a9e a23c
00000310: 6177 173d 179a f33c 05dd dbbb 316f ec3b
00000320: 02e7 b2bc ee31 1a3c f0b5 d3bc 82c1 06bd
00000330: f162 64bd 3ae8 493a e57e 793d 0d8d c73c
00000340: 3bf7 70bd f658 43bb 795f 833c 03cc cf3a
00000350: 647a 0bbc 1671 b43c 5a4f 093c ea6c c73c
00000360: 09b0 2fbb a864 23bb c8f1 643b b656 7cbc
00000370: 2abe 83bc f9c4 4c3b c6bc edbb 7a1b 84bc
00000380: 0700 ea3c af87 1a3d ec4a 1cbd 63a8 23bd
00000390: 1d62 d43c 9fc2 343d 91e9 06bd 7d90 e2bb
000003a0: a365 99bc 37f3 363a 74a2 dcbc dfc3 e4bc
000003b0: c91e 90bc 974a 633c 9eaf eaba b3fd 123d
000003c0: 2afb 343d bf44 7b3d 8f77 07bb be9f 04bb
000003d0: 77df 453c 374f 573c 6da7 b3bc 265a 21bd
000003e0: 0e7c 93bc cf78 b23a beb5 033d d90c 023c
000003f0: d46d 72bc a306 703c a8a4 133c 04d4 35bd
-0.033887032 -0.022400897 0.0481192 -0.02497167 0.007287355 -0.019259566 -0.0007804128 0.0044219266
0.008929392 -0.028048301 0.015209402 0.021247141 0.014604622 0.009052914 -0.005473469 -0.00886499
-0.005677764 -0.015663898 -0.022370184 -0.015661804 -0.050461978 -0.052162834 -0.03620289 0.0035125758
-0.0017249344 -0.006845484 0.017032277 -0.00030746878 -0.004371538 0.013934475 0.0060505792 -0.014925372
-0.022175908 -0.02712777 -0.017645013 -0.017146591 -0.034101427 0.021380568 -0.02357812 -0.00064653123
-0.0068361857 0.003943308 -0.009195981 -0.025049875 0.019205121 -0.032687325 -0.027629595 -0.03692819
0.02853896 -0.013163718 -0.0025615625 -0.035925474 0.07448757 -0.02714906 -0.016369928 0.0026675037
-0.06349046 -0.002065415 0.0023560736 -0.018846475 -0.002284854 0.03140989 -0.004130092 0.012234758
0.033017244 -0.016601365 0.005598448 0.026618553 0.0048023458 -0.00792993 0.0487408 0.0048967493
0.040854502 -0.016796477 0.0042164475 0.0023243253 0.043305356 0.026083974 0.0045600445 -0.0025988126
-0.016240727 -0.014927994 -0.006448402 0.015935406 -0.020028 0.01663378 0.02079514 -0.0026477426
9.249564e-05 0.011419986 0.024814894 -0.011769225 0.009434022 -0.011489063 0.079757124 0.012808406
-0.009403276 -0.014859261 0.033277243 -0.013024561 0.0010581987 -0.006603978 -0.0154286055 -0.010052486
0.0061466456 -0.017769985 -0.019101633 0.002542473 -0.016472727 0.023631798 0.009158627 -0.014952151
-0.011014169 0.006745816 0.007541767 -0.014628965 -0.0009160635 0.004580196 -0.0043045944 -0.007434569
-0.07324914 0.026621921 -0.22318588 0.014190862 -0.012180178 0.012984741 -0.027607482 -0.009557167
-0.005425055 0.0006203721 -0.031026699 0.0016653113 0.006844399 0.014075678 0.00025038747 -0.08176848
-0.003886827 0.0052552246 0.0028904912 -0.0064024734 -0.01709664 -0.028935172 0.012884681 0.012273289
-0.013561474 0.007864833 -0.0002562007 0.0065348865 0.0024245395 0.007259812 0.0014405777 0.011659174
0.039008748 0.026760312 0.04402925 0.026625786 -0.05607144 -0.01937827 0.016147533 0.021315796
0.00029109154 0.012248074 0.01071222 -0.022337189 0.050374202 -0.022030093 -0.013817165 0.01453501
0.009842036 0.0001537158 -0.03574112 0.020259839 -0.051202577 -0.010628716 0.00642298 0.010296632
-0.004010902 0.0036211188 -0.008750975 -0.014369438 0.016397452 0.014336502 0.023761917 0.032380395
-0.011679831 -0.030231634 0.04402247 -0.010772624 -0.005995146 -0.01727605 0.005853641 0.011462258
-0.008272983 0.0068883086 -0.03178988 0.019850869 0.036979083 0.029736562 -0.006709697 0.0072154035
-0.021838669 0.009411318 -0.02584359 -0.032899387 -0.05575842 0.0007702146 0.06091203 0.02435925
-0.058829527 -0.0029807664 0.016036736 0.0015853647 -0.008513067 0.02202658 0.008380735 0.024343926
-0.0026807806 -0.0024931822 0.0034934152 -0.015401533 -0.016081888 0.0031245335 -0.0072551696 -0.016126383
0.028564466 0.037727054 -0.03815739 -0.039955508 0.02592569 0.044130918 -0.03293759 -0.006914197
-0.018725222 0.0006978991 -0.026932932 -0.02792543 -0.017592805 0.013872764 -0.0017905121 0.035886478
0.04418484 0.06134486 -0.0020670628 -0.0020236815 0.012077204 0.013141445 -0.02193042 -0.039392613
-0.01800349 0.0013616326 0.032155745 0.007937633 -0.014796693 0.01465002 0.009011425 -0.044391647

motion_mlp.mlps.1.fc0.fc.bias f4 [50]
00000000: f6be 6236 6cd4 aeb6 e5e9 ebb7 af11 0e37
00000010: 0257 b6b6 83e7 b136 b4a4 deb4 1307 d3b6
00000020: bde2 0136 640c d6b5 e14f 7a36 26c9 3236
00000030: 3693 6e36 d2ea be36 0720 23b6 4002 9234
00000040: 1c4b 5436 e121 a6b6 606e a336 a35b 50b6
00000050: 49de 46b7 6683 9336 7e74 3736 a854 a936
00000060: 2322 67b5 cbe2 4fb5 cc7e 2635 5328 2db6
00000070: 93fb 3536 b16e a636 b152 7f36 3a51 bf37
00000080: 9da5 9eb6 70aa c5b6 ced6 8537 e6b3 0f37
00000090: 827c be36 f045 dab6 19d5 9bb6 ab41 7037
000000a0: 6031 4cb4 e777 1a35 2ec6 9136 9562 bf36
000000b0: 2816 d436 df0b dfb6 b7d2 e635 4d79 5335
000000c0: 198b 7935 5108 adb6
3.3787778e-06 -5.2103333e-06 -2.8123099e-05 8.467977e-06 -5.4341517e-06 5.3019626e-06 -4.147056e-07 -6.2891136e-06
1.9354477e-06 -1.5947849e-06 3.7299399e-06 2.664115e-06 3.5550452e-06 5.689778e-06 -2.4307535e-06 2.7196256e-07
3.1634181e-06 -4.9511295e-06 4.870628e-06 -3.1047755e-06 -1.18534745e-05 4.396238e-06 2.7336932e-06 5.0464478e-06
-8.610388e-07 -7.7443536e-07 6.202433e-07 -2.580248e-06 2.7117537e-06 4.9600717e-06 3.8046094e-06 2.2806798e-05
-4.728047e-06 -5.890899e-06 1.5954862e-05 8.56535e-06 5.676936e-06 -6.505048e-06 -4.644168e-06 1.4320404e-05
-1.9016943e-07 5.754395e-07 4.344408e-06 5.70372e-06 6.3206717e-06 -6.6473e-06 1.7197661e-06 7.878014e-07
9.296214e-07 -5.15677e-06

motion_mlp.mlps.1.norm0.alpha f4 [1, 54, 1]
00000000: 8523 f53d 01e0 c23d 0e1c 843e 8ebf ed3d
00000010: 6164 ba3d 3e38 003e 3699 973d edc1 c93d
00000020: 1087 a33d 2965 2b3e 2fc0 563e 54ca a53d
00000030: 9b47 d33d 78ec d83d b897 aa3d fcfe f13d
00000040: 58cf cc3d 6bef c23d c9df e93d a3a8 8b3e
00000050: 12f5 c33d 1738 d03d a1d0 f03d 3eef b23d
00000060: f1e1 0d3e a776 133e 005f bb3d b2d3 bb3d
00000070: fc4f b13d 68cf d03d 7884 cd3d d61b a53b
00000080: 8014 753d 94b1 a33d 6163 1b3e 5be0 c53d
00000090: 4c45 a43d 303f 153e 7d32 c53d 0738 103e
000000a0: 19b1 df3d dc9a d93d 3f4b d63d 39a0 c73d
000000b0: 8587 023e e778 f03d 316b 933e 6be1 cf3d
000000c0: f147 e63d 7c5f 453e 5399 b53d 77b6 f33d
000000d0: 729d c63d 4e67 203e
0.119696654 0.095153816 0.25802654 0.11608802 0.09101177 0.12521455 0.074022695 0.098514415
0.079847455 0.16737808 0.2097175 0.08095232 0.10316392 0.10591978 0.08329719 0.118162125
0.10000485 0.095183216 0.11419637 0.27277097 0.09568228 0.10166948 0.11758543 0.08737038
0.13855721 0.14400731 0.09148979 0.09171237 0.08657834 0.101958096 0.10035032 0.0050387187
0.059834003 0.07992855 0.15174629 0.09661933 0.0802103 0.14574885 0.096287705 0.14083873
0.109224506 0.1062524 0.10463571 0.09747357 0.12747009 0.1174181 0.28792718 0.10150417
0.112441905 0.19274706 0.08867135 0.11900037 0.09697999 0.15664408

motion_mlp.mlps.1.norm0.beta f4 [1, 54, 1]
00000000: 002b 4dbc dc2f f93c 5e41 ad3b 1e6c b4bb
00000010: a00d 083b 8c7d b3bb a89f d3bb ae55 7bbb
00000020: c6e6 3d3b 3b97 1dbd be44 463d 52a7 b3ba
00000030: bb66 393b 7497 fbbb 3a2b f83b 41a5 043d
00000040: 1bb8 643c fda0 8d39 dc11 f1bc 17ef 353b
00000050: 37fe aebb 3ed1 78bb 4218 a4bb 6abe 3b3a
00000060: d08b 2f3c 8278 193c ad70 16b8 ec2b 853b
00000070: 4169 7ebb e2e3 e33b 3820 35bb 7ba1 2abb
00000080: a721 e9bc ab6c b7bb 8f1d d7bc 6060 01bc
00000090: 3a30 38bb 3eea 693d 21a6 9d3b 5bc8 003d
000000a0: 774f 84ba 8a26 08bc fec4 20bb 20e6 f83a
000000b0: 6ee6 5cba 45d1 393c 98b2 0fbc 1e1e a8bc
000000c0: d4a7 30bc ed00 723c 4753 3d3b 9dd9 4fbb
000000d0: d22d 653a 4ab8 3dbc
-0.012522459 0.030418329 0.0052873334 -0.0055060526 0.0020760074 -0.005477613 -0.0064582415 -0.003835063
0.0028976663 -0.038474303 0.0484054 -0.0013706482 0.0028289992 -0.0076779667 0.0075735124 0.03238416
0.01395991 0.0002701356 -0.029427461 0.0027760917 -0.0053403634 -0.0037966515 -0.0050077746 0.0007161858
0.010714486 0.00936711 -3.5867724e-05 0.004064074 -0.003882006 0.006954656 -0.0027637612 -0.0026036191
-0.02845843 -0.005597671 -0.026259212 -0.007896513 -0.0028104917 0.057108156 0.004811064 0.031441074
-0.0010094483 -0.00830997 -0.002453148 0.0018989481 -0.00084266707 0.011341398 -0.008770607 -0.020522173
-0.010782201 0.014770729 0.0028888748 -0.00317154 0.00087424845 -0.0115795825

motion_mlp.mlps.2.fc0.fc.weight f4 [50, 50]
00000000: 2fbc 88bc 06ee 62bc 5379 0c3c 0193 febc
00000010: 98cb 8539 907c e23b f9ad 41bc e6eb 89bc
00000020: 6254 373c d47a 9bbc ca25 4abc d356 2d3b
00000030: b6ea 85bc d1f3 dd3b b539 55b9 8d6b 76bd
00000040: 9871 1cbb 7580 ffbc 0e44 66bc 61b8 563d
00000050: cf0f c8bc d1a4 54bc 55e6 d9bc 4aee dbbc
00000060: c19f 0d3d 3aab 0abc 6d51 61bc 764c bb3c
00000070: 0b9d dabc fa2e 1dbc 239d bbb9 8e73 8fbc
00000080: bf0a a8bc c499 40bc 36ed 24bd 80d0 a4bc
00000090: cc64 58bd 65e9 f0bc d4c1 9bbc 6106 ccbc
000000a0: 7c84 153c 111f dabb 7fd3 843c 0858 7cbc
000000b0: 30a0 43bc b293 a4ba 9d3e 3e3c 5830 0cbd
000000c0: 37aa df3c 8c51 59bc fecd 76bb cd3f 3dba
000000d0: 904b 93bb 03f4 9ebc 2372 67bc 61c0 f1bb
000000e0: 5dbe eabc 1d25 cbbc ae6f a1b9 4811 d5bc
000000f0: 5ab0 3abc 9012 85bb 3aea 59bd 493f 793c
00000100: 60d0 02bd 0174 3cbd f3be c9bb 65c5 a9bb
00000110: bc52 f23a ff5f 913c 9dd2 b3bc 0ba8 983b
00000120: ce13 89bc fae3 af3c 810e 4cbb d76c 2abc
00000130: 9e34 c7bc 6c6d af3b 44ff e5bc e651 a7bc
00000140: 97f8 9eb9 bbe9 183c 7b55 79bc 3b8b 02bc
00000150: c0ad 74bc 5cd6 21bc 007d 0cbd 2e3a 4d3c
00000160: bb05 5ebc fc09 2dbc 61b8 16bc c7b7 783c
00000170: b92c 0abb 7a92 35bc c960 68bb 21ff 21bc
00000180: 599f 30bc cff4 7dbc e530 903c e5a0 77bc
00000190: 97e3 f03a 48ea 29bc 115a 723c cd08 eabb
000001a0: 0890 2dbc 43a7 153d e7cf 4dbd 84aa 333c
000001b0: 6681 8fbb 3853 8e3c 3226 c8bc 6d9d 62b8
000001c0: 6761 f43b cd58 953c 02ed 6dbb ddb4 b0bc
000001d0: f2ca 17bb 8387 d9ba a063 623c 54b4 463c
000001e0: 87ee 99bd 49a8 46bc b4bd 19bd 9cc8 90bb
000001f0: 7ee0 53bc 9a8f 39bc f8e2 ffba 80a2 cc3b
00000200: a2d9 ccbb b35b 793c 68fa 0dbc 5c09 4fbc
00000210: 66aa 943c 01c8 dfbb 8bec 0f3d 253e 45bd
00000220: 2978 abbc ec07 eb3b d0bc 88bd fdaf dc3d
00000230: 26cf 2cbc 7579 2c3c 645c 783c d62b d63c
00000240: e115 42bb 6825 1a3d a849 013c 28e3 c73b
00000250: 2eee ff3b 19b2 b33c 4c5c 643c be8d b83c
00000260: 62a7 353c 10fe 43bd f588 36bc 9bc3 91bc
00000270: d251 a73c eb0e f9ba 5c15 1f3c 8f02 7c3c
00000280: ffaf bd3c b66d 03bc 176b c5bc 4b54 8dbc
00000290: 659d ce3c 0fae 743c 6c50 233c d9a8 8b3a
000002a0: 58ed a03c 6d48 d53c 77e6 9bbb 5a10 84bb
000002b0: a53c 7dbc fa25 7a3d 3aa7 9fbc 1c79 a93c
000002c0: 81da 0f3d bafc 06bb b877 733c 1c92 e13c
000002d0: f967 163d 80c9 06bb 4cf8 173d ac2c 1fbc
000002e0: 2f38 733c 790c 85bb 40a9 0a3d 6d84 4ebc
000002f0: d617 d73c 4301 913b d7f5 1fbc 8e81 e4ba
00000300: dd80 91bc 0aa0 f03b b6d6 0fbc c02c c1bc
00000310: 6810 fc3c 07ac 403c 115b 613b 6d5c db3c
00000320: c7aa 5f3c 6a32 0f3d 6c39 99ba b53b b13c
00000330: 9e26 57bd 900e 27bd 2594 13bc 4571 c0bb
00000340: d03e 543c 697b c3bc bdaf a0bb ac65 51bc
00000350: 132e 123d 416f cd3b 88b3 a7ba 4283 613c
00000360: df3c 923c bb68 0ebd f441 42bc 84c9 c23c
00000370: 0d85 b8bc 165f e53b 5477 4abd 3858 f1ba
00000380: 0aa5 153c eaed 293b 8333 623c bd4f b53c
00000390: c29c 843c f339 22bc d67f a0bb fd8b 293d
000003a0: edf3 d73c 63cb 893b 110a 0c3c 988e 37bd
000003b0: 6253 83bc 97c0 8bbc d362 3c3c 46bd 563c
000003c0: 8830 0fbc b2f5 27bd e1a9 b3bb d905 9b3c
000003d0: e6df 8b3c f56b 023c 69a0 9abc ab55 ebbc
000003e0: 4991 de3b 64b3 16bb cedb 44bc fd77 efbc
000003f0: 6ce0 3fbb d6bd a33c dca9 dc3b 7f20 19bd
-0.016691295 -0.0138506945 0.008573848 -0.031075956 0.00025519426 0.0069118217 -0.0118212635 -0.016836118
0.011189552 -0.018979467 -0.012338111 0.0026449456 -0.01634727 0.00677345 -0.0002033476 -0.060161162
-0.0023871418 -0.031189183 -0.014054311 0.05242193 -0.0244216 -0.012978748 -0.026599089 -0.026847024
0.03457618 -0.008463675 -0.013752324 0.022863608 -0.026686212 -0.00959372 -0.00035784495 -0.017511155
-0.020512937 -0.011755411 -0.040265284 -0.020118952 -0.052830502 -0.029408166 -0.019013323 -0.024905385
0.009125825 -0.0066565354 0.01621413 -0.015401848 -0.011940047 -0.0012556224 0.011611608 -0.03422579
0.027302844 -0.013264071 -0.0037659402 -0.0007219285 -0.0044950917 -0.019403463 -0.014126333 -0.0073776697
-0.028655225 -0.02479797 -0.0003079152 -0.026009217 -0.011394585 -0.0040610507 -0.05320189 0.015212842
-0.031937003 -0.046009067 -0.006156796 -0.005181002 0.0018487792 0.01774597 -0.021951014 0.004658704
-0.016733076 0.021471012 -0.0031136575 -0.010401926 -0.024317082 0.0053536203 -0.028075822 -0.020424794
-0.00030321322 0.009333069 -0.015218134 -0.007967765 -0.014934003 -0.009877767 -0.034298897 0.012526078
-0.013551171 -0.0105614625 -0.009199233 0.015180535 -0.0021083786 -0.011082286 -0.003545808 -0.009887488
-0.010780179 -0.015500261 0.01760144 -0.015114044 0.0018378374 -0.010370798 0.014791981 -0.0071421624
-0.010593422 0.036536466 -0.0502471 0.010965947 -0.004379439 0.017373666 -0.024432275 -5.4029213e-05
0.0074579003 0.01823082 -0.0036304598 -0.021570617 -0.0023161736 -0.0016596172 0.013817698 0.0121279545
-0.075161986 -0.012125083 -0.03753443 -0.0044184458 -0.012931941 -0.011325741 -0.0019522598 0.0062449574
-0.00625153 0.015219617 -0.0086656585 -0.012636509 0.018147659 -0.0068292622 0.035137694 -0.04815497
-0.02093132 0.007172575 -0.06676638 0.107757546 -0.010547435 0.0105270045 0.015158746 0.02614395
-0.0029615092 0.03763333 0.007891096 0.006100077 0.0078103757 0.02193551 0.013938021 0.022528525
0.01108727 -0.047849715 -0.011141052 -0.017793467 0.020424757 -0.0019001638 0.009709682 0.015381469
0.02315521 -0.008021763 -0.024098916 -0.017252108 0.025221536 0.014934077 0.009967905 0.0010655179
0.019644424 0.026035512 -0.004757698 -0.0040302696 -0.015456353 0.061071374 -0.01948892 0.020687632
0.03512049 -0.0020597414 0.014860086 0.02753549 0.03672025 -0.002056688 0.03710203 -0.00971524
0.014844938 -0.0040603247 0.033852816 -0.012604815 0.026256483 0.0044251992 -0.009763203 -0.001743363
-0.017761642 0.007343297 -0.008779218 -0.023580909 0.030769542 0.0117597645 0.0034386555 0.02677747
0.013651556 0.034960188 -0.0011690087 0.021634916 -0.052527063 -0.040785372 -0.009007488 -0.005872878
0.012954429 -0.023862557 -0.004903762 -0.012780588 0.03568847 0.006269366 -0.0012794593 0.013764204
0.017851291 -0.034767848 -0.011856545 0.02377773 -0.022524381 0.0069998605 -0.049430206 -0.0018413132
0.009133587 0.0025929161 0.013806227 0.022132749 0.01618803 -0.0099015115 -0.0048980517 0.04139327
0.02636143 0.004205154 0.008547322 -0.044813722 -0.016030971 -0.017059607 0.011498171 0.01310665
-0.008739598 -0.041005798 -0.0054828976 0.018923687 0.017074537 0.007960309 -0.018875318 -0.028727373
0.0067922217 -0.0022995109 -0.012015296 -0.02923202 -0.0029278053 0.019987982 0.006734116 -0.037384506

motion_mlp.mlps.2.fc0.fc.bias f4 [50]
00000000: 3483 04b6 7df6 ccb4 fdec 47b6 cad3 b135
00000010: 9e22 57b5 ef5e d735 758f 43b6 122f 8335
00000020: 2fc9 db34 a799 0736 a49b 7e36 5854 0d36
00000030: f6a1 3234 d37a 4535 ce72 16b5 2615 3e36
00000040: 6261 88b4 0f88 d734 d694 acb4 5a3c 3fb6
00000050: 96d7 6e35 59cc e9b5 101f 76b6 47d3 2235
00000060: 7c2a 9eb5 f219 98b5 5083 8235 a35a f836
00000070: 137d a8b5 c0a1 07b6 cbc9 78b5 8faf 82b6
00000080: 9e2e f1b5 d54b 0136 3306 abb5 19af 8934
00000090: 8436 86b4 e84a 50b6 d51a a035 4c1a bc36
000000a0: 740c f9b5 f867 6634 0054 c334 aa64 f735
000000b0: 33f6 78b6 cb6f 8034 4b84 b335 89ba c335
000000c0: f341 74b5 7ca7 5236
-1.9745903e-06 -3.8177305e-07 -2.9791256e-06 1.3249166e-06 -8.0144116e-07 1.6046378e-06 -2.9140767e-06 9.77396e-07
4.093831e-07 2.0206005e-06 3.7939544e-06 2.1059732e-06 1.6636463e-07 7.356695e-07 -5.604642e-07 2.8324516e-06
-2.540283e-07 4.0145866e-07 -3.214579e-07 -2.8496347e-06 8.897563e-07 -1.7419326e-06 -3.6674937e-06 6.065715e-07
-1.1784282e-06 -1.1332434e-06 9.723972e-07 7.4015275e-06 -1.2553377e-06 -2.0210719e-06 -9.2680847e-07 -3.8947396e-06
-1.7969467e-06 1.9266638e-06 -1.2742297e-06 2.564564e-07 -2.499911e-07 -3.1038016e-06 1.1928738e-06 5.605898e-06
-1.855557e-06 2.1458243e-07 3.6382698e-07 1.8432231e-06 -3.7098187e-06 2.3923198e-07 1.3375042e-06 1.4582921e-06
-9.099305e-07 3.1389927e-06

motion_mlp.mlps.2.norm0.alpha f4 [1, 54, 1]
00000000: 65d3 bf3d c389 953d 40c8 d33d 1888 8c3d
00000010: a815 e73c 665c 853d eb49 0c3d cfcc 4e3d
00000020: b478 2b3d f108 ca3d 5b2e e23d 172b 193d
00000030: 927b 153d 9ded 4a3d 43d6 2d3d ccb0 723d
00000040: 5a3c 7e3d d819 1b3d ec9c 963d 44b7 283e
00000050: 9342 173d 5780 1a3d 7d15 1b3d 8327 e83c
00000060: 3f77 ac3d f334 bb3d 53ed 0a3d 8b45 233d
00000070: b17c 173d 62dc 153d 59fd 253d 007a dbbb
00000080: ea62 223d e073 9c3d dfe0 933d b148 473d
00000090: 3de0 2d3d 19a1 b73d fddf 203d c649 e23d
000000a0: 3d9c 493d 1ab7 713d 02a1 693d 3859 063d
000000b0: e817 7b3d 0f02 423d 68b6 253e 5d18 613d
000000c0: f698 9c3d 46b0 073e 4043 173d b359 cc3d
000000d0: 860c 113d f315 8d3d
0.09366492 0.073016666 0.10340929 0.06861895 0.028208569 0.06511764 0.03425018 0.05048829
0.04186316 0.09864987 0.11043998 0.03739461 0.0364948 0.049543012 0.042440664 0.059250638
0.062069274 0.037866443 0.07354149 0.1647616 0.036928724 0.03772005 0.03786229 0.028339153
0.08421182 0.09140959 0.033917736 0.039861243 0.03698415 0.036587127 0.040524814 -0.006697893
0.039645113 0.07639289 0.07220625 0.04865331 0.04245018 0.08966274 0.039276112 0.110492274
0.049221266 0.05901251 0.057038315 0.03279993 0.061302096 0.047365244 0.16182864 0.054954875
0.076463625 0.13250837 0.03692937 0.09978046 0.035412334 0.06888952

motion_mlp.mlps.2.norm0.beta f4 [1, 54, 1]
00000000: b741 d9bc e225 c1bc 1f15 4d3d d1ed fabb
00000010: f1ea ed3b bcae 863b b952 863b 9a32 223b
00000020: 0c6b 49bb b061 7dbc da6f 4a3d bb5b 1e3b
00000030: 14ac abb9 69e9 e63b a49f 59ba 7d73 e1bb
00000040: 45be 58bb 93ea 1bba 2b9a 983b f502 bcbc
00000050: b721 e43b 000a 0a3b 93a6 19b8 7cb6 cabb
00000060: 741c 2ebc a673 1abc 2a8a 0dbb 1d61 dabb
00000070: 621e 7abc f811 0fbb ddc9 973b 4c40 ecbb
00000080: 1b0b a03c e436 98bb a5fa 19bd 3711 01bc
00000090: 25db 443c 1161 953d c671 dbbb 1050 8ebc
000000a0: b6c6 703b 3a8f 013b f0bf 103c 271a a3bb
000000b0: 443e 283c ed34 0bbc b960 2b3b 97f8 8b3c
000000c0: 5cba 063b b947 c8bc 9fa8 9bbb a09d f4bb
000000d0: 2a93 e53a c532 f0b9
-0.026520593 -0.023577634 0.05006897 -0.0076577445 0.007260673 0.0041101854 0.004099217 0.00247494
-0.003073397 -0.015465185 0.049423076 0.0024163562 -0.0003274387 0.0070468676 -0.00083016814 -0.0068802224
-0.0033072394 -0.0005947735 0.00465705 -0.022950629 0.006962027 0.002106309 -3.6633177e-05 -0.0061863046
-0.010626901 -0.009426987 -0.0021597245 -0.006664409 -0.015266033 -0.0021830779 0.0046322183 -0.007209813
0.019536546 -0.0046452153 -0.03759255 -0.0078776395 0.012015139 0.072939046 -0.0066969125 -0.017372161
0.0036739535 0.0019769208 0.008834824 -0.004977483 0.0102687515 -0.008496505 0.002615018 0.01708631
0.0020557856 -0.024448263 -0.004750326 -0.0074650794 0.0017515172 -0.00045814193

motion_mlp.mlps.3.fc0.fc.weight f4 [50, 50]
00000000: 70a1 b3bb 0375 b1bc 80d2 463d 6f1b 9cbc
00000010: b6b0 7b3b f76b ae3b 1457 183d ed60 b03b
00000020: 05ff ce3c 0442 1dbc 9db8 7e39 fef1 89bc
00000030: b2cc 163c 6078 3c3c 2f3d 1bbb 384e 193d
00000040: e4e3 213c 37d3 2b3b ff4b c63a 78fb 2ebc
00000050: a39d 0dbd 8dd8 39bc 79c1 9fbc c284 51bb
00000060: b423 263d 8a09 913c 2c73 bc3b 81c0 06bc
00000070: 60b9 bcba 984c 693c 6779 9bbb a6a0 a9bb
00000080: 46f3 cabb cb8c 8e3b 199f cd3c f5ba 8cbd
00000090: 2744 96bc e910 bf3b e08e 0abd cbde 3a3d
000000a0: 4971 9f3c 31a6 bf3c 8394 d63a 6d02 0a3d
000000b0: d786 efbc 9c17 70bc 4fab bcbc 095e 3c3c
000000c0: 4aee c9bc 9734 4c39 b8bd f6bb 94df 65bd
000000d0: f6f9 9fb9 fd6e 83bc 1a65 af3c 8427 01bb
000000e0: 7f81 553c 22da e0bc 0a9a 323c b551 a4bc
000000f0: 713a 9b3a b1a7 183d 6fce 3c3b 45ee 873c
00000100: abc3 44bc 0bb0 8a3c 2201 b93b f844 853c
00000110: 76e6 dcbb cf74 de3c 4457 3a3c 7636 cebc
00000120: e1a1 a4bc a5ad 0e3d ce7f 1fbd e00d 1d3c
00000130: 40f1 aebc 7ad9 edbb e574 3fbc 28a1 7f3c
00000140: a33a 1cbd 1701 0ebd d6e6 b33c 4a17 b7bc
00000150: 4b0e c8bc 73bc 6dbc 6201 a6bc 4950 d1bc
00000160: 5c12 5fbb 5e6c e0bc 680b b6bc 15ea b2bc
00000170: 4c3a f13b c497 cc3b e1db c9bb a7c9 2fbc
00000180: 955e 273c 98f7 9dbc 18a3 a33c fddb c039
00000190: 9bdf 33bb 745d 273b 3bb5 97bd 8fed a23b
000001a0: 6e00 e9bb 3b99 053c dd9f be3c a25b 07bd
000001b0: 0e0e 1fbb fddb a8bc 0355 1f3c 72b9 dd3c
000001c0: 3ba5 b7ba d400 0bbd 070b c8bb c62c b7bc
000001d0: db7b a5bb 4d28 11bd a74f 963c 0f22 cfbc
000001e0: 3b6d c6bc 43bf 7cbc 8ece 07bc 67ec 1fbd
000001f0: 3c49 11bc 0415 d9bc fb85 143d b476 1e3b
00000200: 4aba bbbc 9438 abbb 3ce4 213d aa60 293c
00000210: ace7 ecbc aa0f 85bb b505 1ebc a4ef 40bc
00000220: a386 46bc c1c0 63bc e79c 033d afdb fd37
00000230: ef05 12bc 8790 ac3a 5d31 a1bc 980f 02bc
00000240: 6319 e63b 0e7e fbbb 366e 75bb 390b fdbc
00000250: e59e a13a 1b6a 283c 5302 bcba 1d3a ce3c
00000260: 33da 56bc 008a 343c b50f 0b3d d3dd a0ba
00000270: 6a24 7abd e148 983c b1a3 03bc bb5e d13c
00000280: f440 8e3c 3ae7 79bc 3907 eb3c 34c0 80bc
00000290: 3bb5 84bc 23cc fbbc 1587 353b 8fb3 ad3b
000002a0: 6c0b 253a 272f 98bc 7c43 9dbc 6cae 873b
000002b0: f814 7e3c d0c9 53bc 663a 463c c4d2 343c
000002c0: c2cd 20bc 7cc7 93bd 8c6e 333c b080 0b3d
000002d0: e6d8 9fbb 09e2 ed3c 74fb b3bb bb74 1a3c
000002e0: 19e5 8d3c 6b68 a23c 0e11 2c3c 9f88 113c
000002f0: bb31 49bd 9ed1 89bb c739 b83a 5a25 82bc
00000300: bdaf 74bb 37e3 94bc a459 67bc b190 cdbb
00000310: a80a 993c 8178 f7bb 8dd5 a7bc 8119 2fbc
00000320: f249 183c a2e8 f2bc a9ec 6abc b375 b0bb
00000330: aac0 393d 5b21 2abd 9659 5f3d d77a cd3c
00000340: 1333 4dbd bb50 b0bc 2617 85bc 4900 09bd
00000350: 7f91 ffbc 7cbb 8d3c 285c 4bbc 7d55 0c3c
00000360: 3fcb 5a3d 27d7 78bc ad38 b1bb baef 8d3c
00000370: 8f09 db3c 368a 92bc fa7c 1abc 291b 2e3c
00000380: 4271 cb3c 61b0 f5bc 95e4 86bb ad99 933c
00000390: f6f1 febb 311b d4bc 2dca aebc 65c7 c73b
000003a0: 1dfd 78bc d486 13bd 0197 85bb fd8c 3ebb
000003b0: 3823 dabc a4a6 3c3c fa2a 3d3c 37e4 b73c
000003c0: bd11 1d3c 8fa9 293d 966b 9fbb 6028 f7bb
000003d0: 3b10 93bc 68ec 2b3c 216c f6bb 327d fe3c
000003e0: 508e bd3a 5c99 a4bc 5e3b 973c 03a7 fdbc
000003f0: 896b da3b 4453 49bc 8a93 aabc 8296 bdbc
-0.0054818913 -0.02166224 0.048540592 -0.01905605 0.0038404888 0.005322929 0.03719242 0.005382648
0.025268087 -0.009598259 0.00024292101 -0.016839024 0.009204077 0.011503309 -0.0023687591 0.03742811
0.0098809935 0.0026218423 0.001512885 -0.010680072 -0.034574162 -0.011343134 -0.019501435 -0.003197
0.040561393 0.017704744 0.0057510342 -0.008224607 -0.0014398508 0.014239453 -0.004744697 -0.0051766215
-0.0061935512 0.00435028 0.025100278 -0.06871597 -0.018343044 0.0058308733 -0.033827662 0.04562263
0.019463198 0.023394676 0.0016371164 0.03369372 -0.029239101 -0.014654066 -0.023030905 0.011497029
-0.024649758 0.00019474547 -0.0075299405 -0.056121424 -0.0003051308 -0.016044134 0.021410514 -0.001970739
0.013031363 -0.027447764 0.010900984 -0.020058492 0.0011842978 0.037269298 0.0028809567 0.016593108
-0.0120095415 0.016929647 0.005645887 0.016268238 -0.0067413403 0.027155308 0.011373345 -0.025172453
-0.020096721 0.03483357 -0.038940243 0.009585828 -0.021355271 -0.0072585912 -0.011685585 0.0156023875
-0.038141858 -0.034669008 0.021960657 -0.022349972 -0.024420878 -0.014510262 -0.020264331 -0.025550978
-0.0034038043 -0.027395424 -0.022222236 -0.021840135 0.007361686 0.006243678 -0.006160245 -0.01072923
0.010215421 -0.019283101 0.01997523 0.00036784998 -0.0027446512 0.002553788 -0.07407614 0.004972167
-0.007110647 0.008154209 0.023269588 -0.033046372 -0.0024269852 -0.020612711 0.009724858 0.027065966
-0.0014011035 -0.033936337 -0.00610483 -0.022360217 -0.005050165 -0.035438824 0.018348528 -0.025284795
-0.024222007 -0.01542646 -0.008288993 -0.03904381 -0.008867558 -0.026499279 0.036260586 0.002417964
-0.022915978 -0.0052252505 0.039524302 0.010337988 -0.028919064 -0.004060705 -0.009644915 -0.011775885
-0.012117061 -0.013900937 0.032132056 3.0262248e-05 -0.0089125475 0.0013165631 -0.019676859 -0.007938288
0.0070220693 -0.007674939 -0.0037449724 -0.03088914 0.001233068 0.010279204 -0.0014343954 0.025174195
-0.013113546 0.01101923 0.033950526 -0.001227314 -0.061069883 0.018589439 -0.008034633 0.025557866
0.017364956 -0.015252883 0.028689967 -0.01571665 -0.016199699 -0.030736988 0.0027698923 0.005300946
0.00062959525 -0.018577171 -0.019197218 0.0041406658 0.015507929 -0.012926534 0.012098884 0.011036579
-0.0098146815 -0.07215783 0.010951649 0.034058273 -0.004878151 0.029038446 -0.005492622 0.009427245
0.017321156 0.019825181 0.010502113 0.008882671 -0.049119692 -0.0042058965 0.0014055305 -0.015886951
-0.0037336193 -0.01817475 -0.014120493 -0.006273352 0.01868184 -0.007552207 -0.020487571 -0.010687233
0.009294974 -0.029651944 -0.014338651 -0.0053851246 0.045349754 -0.041535717 0.054528795 0.025082989
-0.050097536 -0.02152287 -0.01624639 -0.033447538 -0.031197308 0.017301314 -0.0124121085 0.008565304
0.053416487 -0.015188015 -0.0054083676 0.017326225 0.026737956 -0.01788817 -0.009429211 0.010626593
0.024834279 -0.02999133 -0.0041166046 0.018017614 -0.007780309 -0.025891872 -0.02133664 0.0060967677
-0.015197066 -0.036017254 -0.004076839 -0.0029075735 -0.026628122 0.01151434 0.011545891 0.022447689
0.009586749 0.04142147 -0.00486512 -0.007542655 -0.017952075 0.010493375 -0.007520214 0.031065557
0.0014461968 -0.020092659 0.018460926 -0.030963426 0.006665651 -0.0122879185 -0.020822305 -0.023143057

motion_mlp.mlps.3.fc0.fc.bias f4 [50]
00000000: a269 60b6 e784 cc33 c740 2f36 b36a 7336
00000010: 82e0 2db5 e26f a834 cbc1 bab6 a8df 0bb6
00000020: 3b10 0ab6 8442 80b6 6e5e c9b4 3d17 83b5
00000030: c1c1 deb5 f9b1 1a35 611c 9c36 81e0 6436
00000040: f3bf 64b4 505d d2b6 7e4b 2135 67ef bab5
00000050: 4f2b 94b6 255f a234 dafe c4b4 36ca 1136
00000060: 7ada 3036 bf2f 0236 df7b 2335 5271 9fb4
00000070: 0d24 0336 c31d 8136 5307 52b5 e0a6 a134
00000080: 523f 9136 33c9 4736 37a4 e633 1a2c ceb6
00000090: d092 ad35 ba89 6634 7564 4b36 c7d2 90b6
000000a0: 6a7f 96b4 d00d 9b35 c1f4 93b6 7d68 3736
000000b0: a21b dbb5 d7a4 ff35 853a 61b5 3577 bcb6
000000c0: b1e4 9a35 654e fcb5
-3.3440087e-06 9.523665e-08 2.6114737e-06 3.6271929e-06 -6.4774224e-07 3.1373844e-07 -5.5657924e-06 -2.08428e-06
-2.057305e-06 -3.8224407e-06 -3.7507874e-07 -9.767024e-07 -1.6596679e-06 5.7628455e-07 4.652466e-06 3.4105326e-06
-2.1303985e-07 -6.2693507e-06 6.008703e-07 -1.3927755e-06 -4.4157855e-06 3.0244078e-07 -3.6693274e-07 2.1724386e-06
2.6353214e-06 1.9399301e-06 6.090249e-07 -2.969851e-07 1.9541505e-06 3.8479643e-06 -7.8241754e-07 3.0110004e-07
4.328708e-06 2.9770424e-06 1.074008e-07 -6.1444125e-06 1.2932232e-06 2.1470524e-07 3.030783e-06 -4.316072e-06
-2.8032383e-07 1.155242e-06 -4.4094345e-06 2.7329945e-06 -1.6324814e-06 1.9046955e-06 -8.390419e-07 -5.616714e-06
1.1540452e-06 -1.8798279e-06

motion_mlp.mlps.3.norm0.alpha f4 [1, 54, 1]
00000000: b0e2 b83d 9fe0 d23d e891 113e 3f47 813d
00000010: 4d2c 3b3d 290a 623d 72a2 123d d9a8 3b3d
00000020: 0f7c 6b3d e98e b93d 4f86 203e 987a 383d
00000030: ef03 8c3d 6c85 903d 48ea 953d f475 8d3d
00000040: 53ca 893d 3d4c 563d 4770 853d 2815 953c
00000050: 22a4 903d 0259 7a3d 5652 503d fc92 6d3d
00000060: d1f1 c23d 4bbb 013e 59ba 603d 7dc0 813d
00000070: 55d5 a43c 79c5 8d3d 7ab3 213d d017 813c
00000080: 5108 913d 8e63 b13c 041e 0b3e 01ae 743d
00000090: 6b76 043d 8801 e73d 013c 953d 5943 cb3d
000000a0: f97b a63d aa14 9e3d 7171 773d 04b4 983d
000000b0: 6b12 3c3d 9e9d 763c 3eba b33c b8ee 6b3d
000000c0: 7b5d 9a3d b624 273e e2d5 5a3d 84b2 ef3d
000000d0: 0c35 873d 57fe 1c3d
0.09027612 0.10296749 0.14215815 0.06312417 0.045696545 0.05518547 0.03579945 0.045815323
0.05749136 0.09060461 0.15676235 0.04503879 0.06836688 0.07056698 0.07320076 0.069072634
0.067280434 0.0523188 0.06515556 0.018198565 0.07062556 0.06112004 0.05085977 0.058001503
0.09518779 0.12669103 0.054865215 0.06335542 0.020121256 0.069224305 0.039477803 0.015758425
0.07081664 0.021653917 0.13585669 0.059736256 0.032339495 0.11279589 0.072868355 0.09924955
0.08129115 0.07718785 0.06041092 0.0745621 0.045916002 0.015052227 0.021939393 0.057600707
0.07537361 0.16322598 0.05342663 0.11703971 0.06601915 0.038328495

motion_mlp.mlps.3.norm0.beta f4 [1, 54, 1]
00000000: 1f88 8b3c 5bdd fa3b 0947 143d 9b2b 133b
00000010: 43c7 22bc cb27 a639 205b e83a 3b82 1bbc
00000020: f134 00ba 7ae7 efbb b70f a1bb ae82 fabb
00000030: d46a a1bb 4438 6bbb cbf8 91ba bbc0 0e3c
00000040: afdf adbc bb00 1eba 77e2 373a 0463 2a3c
00000050: 2e8a 4e39 3856 70bb 6b3b 873b 3fbc 813b
00000060: 0168 fbbc 6268 8ebc e708 71bb ff3d 2dbb
00000070: bc69 e33b eab9 b0bb 6762 a0ba 4be6 913b
00000080: 326b 973c a907 db3b cc5c 203d aadd 253b
00000090: 62c2 903b 88ee 353d 947f 9ab9 62b0 5a3c
000000a0: a4dd 93bb 6179 d8bb 4c2a 3ebc 6610 b6ba
000000b0: 1c0e 52bc de43 01bb 9602 a53b 8e11 a8bb
000000c0: 16c1 60bb e20b 07bd 0282 c439 6709 a23c
000000d0: f422 3d3b f319 b53b
0.017032681 0.007655782 0.036200557 0.002245641 -0.009935203 0.00031691635 0.0017727353 -0.009491499
-0.00048907014 -0.0073212953 -0.0049152034 -0.0076449728 -0.004926065 -0.0035891691 -0.0011136768 0.008712943
-0.021224825 -0.00060273305 0.0007014642 0.010399584 0.00019697167 -0.0036672484 0.004126956 0.0039592083
-0.030689241 -0.017383758 -0.0036778988 -0.0026434658 0.0069400948 -0.0053932564 -0.0012236357 0.004452502
0.018483732 0.006684263 0.039150998 0.0025309124 0.0044177035 0.044416934 -0.00029468222 0.013347717
-0.0045125056 -0.0066062664 -0.011606764 -0.0013890385 -0.012820747 -0.001972429 0.0050357087 -0.005129046
-0.0034294776 -0.032970317 0.00037480897 0.019779874 0.0028859945 0.005526775

motion_mlp.mlps.4.fc0.fc.weight f4 [50, 50]
00000000: 90df febb 2ef5 b93c 6084 04bc 055d 083d
00000010: 4f26 e03b 5d05 7039 c38f ecbd 253d ecbc
00000020: d7e7 663d 10e7 9abb d41e c2bb 1e50 5bbc
00000030: e06f 173c 409f 6b3c 4ee1 71bc bb86 d9bc
00000040: 7884 003c f8e5 173c 9ae8 da3a 5ad1 b9bc
00000050: b00e e0bc 6e7b fb3c 4b2f 023d 9b50 7e3b
00000060: 5314 02bd add3 e03b 999f 773c e19e 073d
00000070: e9e5 daba 80d2 2c3d 01d6 a538 00bb d7bc
00000080: 77c6 dcbb 55ef 5d3c 6369 7ebc 3534 b8bb
00000090: 5648 1a3c f3fb 0f3d e60d e5bc 2bf8 92bc
000000a0: a27d d13c 6c19 89bc 845e 813b bc34 5e3a
000000b0: aa89 0a3c 3025 963c c77b dabb 31f0 cc3b
000000c0: 321a 5d3c baa8 98bd 8f79 a03c 714a cbbc
000000d0: 65a8 a9bb 67ba 30bd f233 17bc aa22 0ebd
000000e0: eebb 10bc c18d 1abc f68e 0a3d 5bca a7bc
000000f0: 47c5 c33c 48dc c33b d6b9 a7bc 05ca 47bb
00000100: 0f9b d83b dbbb bc3c 48d4 41bc 0aa0 9fbc
00000110: 78cc 6b3c 9a7c 9fbc 9fce a03c 769c b3bc
00000120: 6e90 0a3c 98ec c13b 3ea3 e4bb f742 f23b
00000130: b446 8dbc 1496 21bd 2807 aabc 65f0 2fbd
00000140: b51a 04bc c195 f2bc e25d 0b3b 0189 65bd
00000150: a536 263d 9d13 75b9 759e 44bd 7199 af3c
00000160: 995f 3a3c 6f25 fbbb b290 083d 5c4a dd3c
00000170: f887 d2bb 8363 87bb 2750 db3c 9af7 72bb
00000180: b17d 713c f530 b8ba e7f5 aabc 194c b73b
00000190: cc64 2cbc 55da 6f3b 110b 543c 5207 15bd
000001a0: 2b65 1fbb 4555 20bc 500e 183d 602c 5b3c
000001b0: 0f50 e53c bd93 9ab9 0f15 663c 962c 6c3c
000001c0: e5a8 af3c 306c 133d 5ba6 21bc 942d 3b3c
000001d0: 0649 21bc 9a36 1bbc e999 ed3c 9645 36b7
000001e0: 2c5c 103d f8f8 9abb fd84 473c fe8a efbc
000001f0: 4126 a83c c8e5 db3b 0c0a a43c 4514 0cbd
00000200: f394 363d 9250 a73c 2ec8 6eba 0dd4 1bbb
00000210: e146 b63c d923 d1bb 5715 b9bb 604c ea3a
00000220: 4bfa 5e3a 819c a7bb 368d 133d fd3a 543d
00000230: 3ed0 103c 73c8 9dbc 6493 083c 4422 1f3a
00000240: f30e efbc f0fa c2bb bf68 0a3d 5ee3 4b3c
00000250: 4a1b 4cbc 4eb8 1b3c 15b9 c6bb 6705 473c
00000260: 130a 463c ce85 dabc 3772 51bd d347 e1bc
00000270: 5873 96bc 3553 33bd dedc 1d3d 905a 063d
00000280: a7a5 ea38 03a4 253d 4448 bcbb b468 29bc
00000290: 71d8 1b3c 6084 acbc d01f 0ebd 6dee d43c
000002a0: 130d 933c 49aa 86bc 792d 84ba 8cdb 543a
000002b0: 6b24 ebbb 979f d83c e414 7a3a 3368 013c
000002c0: 5fdb 1b3d a539 243d f1e2 b0bc b19c 3d3c
000002d0: 2391 84bc 3709 26bd 098f 42bc 73de 283d
000002e0: b5b1 953c 96d1 aa3c 462e 943c 54fe 153d
000002f0: af90 6abc ff68 85bb e500 d9bb a776 28ba
00000300: 9065 7f3b 4a2c 72ba 2c77 a0bb 57fc 7a3b
00000310: 2f35 393d a88f ec3c f613 d1bb 5705 37bb
00000320: 597b 09bd 59fe 753c 7698 813b 3646 083d
00000330: 92f9 58ba 1f43 72bb b2d9 2a3d e3c6 d93b
00000340: 7a72 30bc 33ee d7bc 8b8d 643c c466 f7bc
00000350: 9b5f 0ebd 6fdd 593c 7978 043c 22eb 28bc
00000360: ec9a fbbc e14f 87bc b0e5 ee3b ad1d 86bc
00000370: 2b68 a63b 4434 bebb bb7c abbc b4a2 b03c
00000380: e84a 27b8 a416 5d3d 33f8 eebb 22b4 e8bc
00000390: 2a2a 4bbd 0b6e 52bc ad17 b5bc f48d a9bc
000003a0: 1299 803c 0fcb 9b3c 013d 0e3a 22a5 e83c
000003b0: 5f4b 03bc 58da 8e3c d7b9 c038 5c40 1f3b
000003c0: 11af 96bc 401d f6bb 37bb 53bd 81af 1fbc
000003d0: d2a2 0fbc 1355 18bd 84e9 2fbc a008 f6bb
000003e0: 11d6 82bc 3734 26bd 76b4 013d 80c4 ebbc
000003f0: 5777 c93b f8d5 8d3c 1922 efba 5a3e 6dbd
-0.0077781156 0.022699919 -0.008088201 0.033291835 0.0068405042 0.00022890182 -0.11550858 -0.02883775
0.056373443 -0.004727252 -0.005924085 -0.013385801 0.009242982 0.01438123 -0.0147631895 -0.026553502
0.007844083 0.009271137 0.0016701401 -0.022682834 -0.027350754 0.030698504 0.031783383 0.0038805369
-0.031757664 0.006861171 0.015113735 0.033110503 -0.0016700599 0.042192936 7.9076744e-05 -0.026334286
-0.006737526 0.013545831 -0.015528056 -0.005621458 0.00941666 0.035152387 -0.027960729 -0.017940601
0.025572602 -0.016735755 0.0039480347 0.0008476486 0.008455673 0.01832828 -0.0066675874 0.006254219
0.013495015 -0.07454057 0.019589214 -0.02481577 -0.005177545 -0.043146517 -0.009228693 -0.034701027
-0.008833868 -0.009433211 0.033827744 -0.020482233 0.02389778 0.0059771873 -0.020474356 -0.0030485403
0.0066102813 0.023038795 -0.011830397 -0.019485492 0.014392011 -0.019468594 0.019629775 -0.021925192
0.008457286 0.0059180968 -0.006977468 0.0073932367 -0.017245628 -0.039449766 -0.020755365 -0.042953867
-0.008063008 -0.029612424 0.0021265675 -0.05603886 0.040579457 -0.00023372327 -0.04800268 0.021435471
0.011375331 -0.0076643745 0.033341117 0.027012996 -0.0064249 -0.004131736 0.026771618 -0.0037073852
0.01473944 -0.0014052676 -0.020869208 0.0055937883 -0.010522079 0.0036598642 0.012942092 -0.036383934
-0.0024321775 -0.009785955 0.037123024 0.013377279 0.027992276 -0.00029483243 0.014043107 0.014414927
0.02144284 0.035991848 -0.009866322 0.011424441 -0.00984407 -0.009473467 0.029004054 -1.0864247e-05
0.035244152 -0.0047293864 0.012177703 -0.029241081 0.020526053 0.0067107417 0.020024322 -0.034199018
0.044575643 0.020424161 -0.00091088086 -0.0023777515 0.022250595 -0.006382447 -0.005648296 0.0017875545
0.00085059245 -0.0051150923 0.03602334 0.051814068 0.008838711 -0.01926062 0.008335922 0.00060704746
-0.029181933 -0.0059503242 0.0337913 0.012444345 -0.012457678 0.009504391 -0.006064544 0.012147284
0.012087363 -0.026675131 -0.051134314 -0.027500069 -0.018365547 -0.043780524 0.038540713 0.03280121
0.00011188845 0.040439617 -0.0057459194 -0.010339905 0.009512053 -0.021059215 -0.034698308 0.025992597
0.01795057 -0.01643862 -0.0010084353 0.0008119873 -0.007175972 0.026443286 0.0009539856 0.007898378
0.038051005 0.040094037 -0.02159259 0.011573003 -0.016182488 -0.04053613 -0.011874923 0.04122777
0.018273214 0.020851891 0.018088471 0.0366195 -0.014316722 -0.0040713544 -0.006622421 -0.0006426372
0.0038970448 -0.0009238167 -0.004897019 0.003829738 0.045216735 0.028877094 -0.0063805534 -0.0027926767
-0.0335649 0.0150142545 0.0039549423 0.033270083 -0.0008276935 -0.0036966277 0.041711517 0.0066460236
-0.010769481 -0.0263587 0.013949762 -0.03020037 -0.034759145 0.013297423 0.008085364 -0.010309966
-0.030713521 -0.016517581 0.0072905645 -0.016371572 0.0050783358 -0.0058045704 -0.0209335 0.021561958
-3.9885665e-05 0.05397667 -0.0072927712 -0.028406207 -0.049600758 -0.012843619 -0.022106016 -0.020697571
0.01569799 0.019017724 0.00054259604 0.028399054 -0.008013575 0.017438099 9.189889e-05 0.0024299836
-0.018394025 -0.007510811 -0.051692214 -0.009746433 -0.008766847 -0.037190508 -0.010736827 -0.0075083524
-0.015971215 -0.04057714 0.03166624 -0.028780222 0.0061482596 0.017313942 -0.0018244415 -0.05792079

motion_mlp.mlps.4.fc0.fc.bias f4 [50]
00000000: 741f 4f35 6e2a f2b4 1aa4 44b5 ad88 fd32
00000010: ba80 6935 9335 22b6 e4bc 48b6 3880 6f35
00000020: 0ffd d335 cf93 a5b5 70cd 38b6 2fff c2b5
00000030: 025e 2136 6dc0 d535 db22 e2b5 1fa7 36b6
00000040: 324a dd35 00f5 61b6 beed a336 20d8 79b5
00000050: 6dac 4835 c2c6 f235 7f4d 8bb5 3092 da35
00000060: cb61 6235 83b7 ac34 f7fa 39b5 121b 70b5
00000070: 2673 68b5 0f8c 0a35 1c7f 19b5 08a8 6836
00000080: 0d60 c935 a2a5 24b6 a1d8 5436 29f4 5bb4
00000090: 423f c7b5 2b02 f9b5 f4eb 4736 bb6c 85b3
000000a0: e7c7 2e36 5df6 1b36 9a62 b436 a36f 45b6
000000b0: c346 d8b5 d5c4 0db4 6b7f 1d35 0252 1eb6
000000c0: 709f 49b3 a469 0636
7.715928e-07 -4.5106884e-07 -7.325449e-07 2.951523e-08 8.6986586e-07 -2.4171065e-06 -2.9912271e-06 8.922102e-07
1.5794375e-06 -1.2336476e-06 -2.7537717e-06 -1.4528395e-06 2.404559e-06 1.592574e-06 -1.6848456e-06 -2.721739e-06
1.6487377e-06 -3.3670221e-06 4.8854554e-06 -9.307423e-07 7.475672e-07 1.8088251e-06 -1.0378861e-06 1.6284812e-06
8.433387e-07 3.217102e-07 -6.928307e-07 -8.944636e-07 -8.65943e-07 5.161282e-07 -5.718191e-07 3.46685e-06
1.5003621e-06 -2.4534315e-06 3.1716556e-06 -2.048479e-07 -1.4845066e-06 -1.8552577e-06 2.9790654e-06 -6.213073e-08
2.604438e-06 2.3240202e-06 5.3758968e-06 -2.9420269e-06 -1.6113848e-06 -1.3203255e-07 5.8672475e-07 -2.359157e-06
-4.6943967e-08 2.0029047e-06
