src/siMLPe/exps/baseline_amass/log/snapshot/model-iter-10000.pth (torch, 604338 bytes, 196 tensors)

motion_mlp.mlps.0.fc0.fc.weight f4 [50, 50]
00000000: 1380 0ebc 8d93 19bd 57d6 b53c 3701 9cbc
00000010: 2f61 1c3c a08a 4cbc fc07 af3b 8140 cfbc
00000020: 76cc 513b cb85 82bc b2d9 4fbb 0e3b b2bc
00000030: a87b b0ba 8105 94bc 3991 99bb 9eab a1bc
00000040: 1e2a aaba 4102 9cbc 8b8c 433b 3448 abbc
00000050: f175 863b 1504 99bc e9c5 323b d947 8cbc
00000060: 5aed 153b 9822 6dbc 671d ceb9 413f fdbb
00000070: b29a 4abb d63c 82bb 8048 e2bb d7ba 803a
00000080: 61aa f0bb 2f8e 6c3b a348 06bc 50bc 893b
00000090: ca6e f4bb 225f 903b 9adf dbbb 9c9a 983b
000000a0: 33d0 adbb 53d1 963b ecd8 93bb e3fb 863b
000000b0: 9783 12bb 7074 663b 90f3 a5ba 3ba9 2e3b
000000c0: 521c 063a 6614 e33a 2440 963b 38eb 5bbc
000000d0: a8b7 e83b bd20 f3bb 7c10 10ba b0ac eebb
000000e0: 3b4a 01bc eb2c 9b3b 85b5 33bb ac9e beba
000000f0: 3494 35bb 15df b63b 542d c7bb 7561 cf3b
00000100: 7964 efba cd03 5e3b 3347 bfb9 fca7 19bb
00000110: 612b b139 8f32 10bb 8d27 8ab9 8e16 76bb
00000120: 3947 beba 935f 79bb 6c61 1abb bac8 6ebb
00000130: 391d 69bb a21c 47bb 13fc 84bb 254d 2dbb
00000140: 5a16 a4bb 9861 08bb c274 b1bb 0966 09bb
00000150: 6041 b1bb bb4e 27bb ee80 b5bb 5c8a 26bb
00000160: 69c7 b8bb 3e34 3abb 60f2 acbb 8a11 51bb
00000170: 3348 abbb e601 59bb 3a43 a2bb 08ee 76bb
00000180: 904a 9bbb d23b 7ebb 09bb 9bbb 72e2 90bb
00000190: 0efe d4bb bd74 25bc 2934 783c 8907 8ebb
000001a0: a8ec 87bb a303 43b9 1168 263b cf3b 6f3c
000001b0: 6d2a b4bb fa12 b03c e335 55bb 02c8 b83c
000001c0: 359d fdbb aec4 ae3c 39be ebba f68d 973c
000001d0: 56d7 89ba 7351 733c dc3e 8a3b 44dc 4a3c
000001e0: 6f56 913b 52cb 463c 4ed2 4d3b d3dd 373c
000001f0: 4954 cf3a 1a9a 4e3c 8ab7 72ba f8f9 823c
00000200: 95db 5ebb 7b87 8f3c bf16 9abb 7694 9c3c
00000210: 3657 a0bb 0d36 a13c 655e a1bb 1244 9c3c
00000220: 68d2 54bb 01ca 903c acec 11bb eeb3 843c
00000230: ff59 e3b9 6d8a 733c 9951 613a 9034 5d3c
00000240: cac5 523b f3a7 3f3c c27a 923b d006 273c
00000250: 8b29 d33b a52c 0f3c 9cc7 95bb fd9f ab3b
00000260: e69e b2bb 0a72 fe3b be90 88bb 3dfa 6b3c
00000270: 8269 a2bc 6f45 163d 6b38 83bc 0ee3 dd3c
00000280: d757 8abb da3c a73c 2d06 53bb e83a 983c
00000290: bea9 383b bd33 213c 6958 103c e63c 9b3b
000002a0: 227f 013c 97a8 033c a04e cd3b f5fb 0e3c
000002b0: 7ef1 d03b 8db5 103c 6a06 9c3b 77de 1c3c
000002c0: 31a4 4a3b 4c5e 173c c94f 5f3b f95d 013c
000002d0: a1d2 a73b a0a5 f83b 8301 963b 8a85 d93b
000002e0: 84bd a03b 49a3 d83b 2aa5 ad3b 575a cb3b
000002f0: 5853 ae3b f5da c33b e801 b93b 99a3 ab3b
00000300: 2c1c ac3b 2cf8 ad3b e941 aa3b e296 b03b
00000310: 6bb9 ab3b 01e7 aa3b 3475 ab3b 0108 ae3b
00000320: 8cb3 193a 11df 8bbc 8768 993c 8c3d 163c
00000330: f0f1 1ebd e789 d0bc f898 acb9 0fbf 64bc
00000340: 048f 27bc 3745 10bb 4307 8ebc 1880 0fbc
00000350: 017a 01bc f744 9fbb e4e0 4cbc 07c1 483b
00000360: 9bc5 5bbc 4012 493b f3f4 25bc bab1 fe3a
00000370: 4441 e8bb 8e47 143b c148 82bb eac2 28bb
00000380: 580d 29b9 76ec 3cbb c8a4 1f3b 85be f8ba
00000390: b95e 2e3b a3ae ffba bdd6 653b 6bd8 e0b9
000003a0: 03cf 6b3b 1d2f 0239 10d8 603b d235 813a
000003b0: b658 903b 0c72 923a 015c 923b 18d2 003b
000003c0: 3cd1 933b edad 1e3b d967 8a3b 6e60 4e3b
000003d0: abda 933b eb13 6b3b 8297 973b 3c54 813b
000003e0: 7c8e 9d3b b530 943b e5be f3b9 b831 05ba
000003f0: 07a5 fd3a 97b5 713b a52b efba 5f36 de3b
-0.008697527 -0.03749423 0.022196932 -0.019043548 0.009544655 -0.012484223 0.005341528 -0.025299313
0.0032012737 -0.015932938 -0.003171545 -0.021756675 -0.0013464587 -0.01806903 -0.0046865013 -0.019735154
-0.0012982523 -0.019044043 0.0029838409 -0.020908453 0.004103415 -0.018678704 0.0027278608 -0.017124103
0.0022877068 -0.01447358 -0.00039313288 -0.0077284877 -0.003091496 -0.0039745374 -0.0069056153 0.0009821308
-0.0073445295 0.003609549 -0.008196029 0.004203357 -0.007459496 0.004405872 -0.006710005 0.0046571027
-0.0053043603 0.00460259 -0.004511943 0.0041193827 -0.0022356266 0.0035164617 -0.0012661088 0.0026651162
0.00051159144 0.0017324805 0.004585283 -0.01342278 0.0071019717 -0.007419674 -0.00054956204 -0.0072837695
-0.007891233 0.0047355792 -0.0027421426 -0.0014543138 -0.0027706744 0.0055807927 -0.0060784016 0.0063287565
-0.0018264196 0.0033876777 -0.00036483406 -0.0023446074 0.0003379239 -0.0022002792 -0.0002635088 -0.0037550065
-0.0014517076 -0.0038051351 -0.0023556603 -0.003643556 -0.0035570397 -0.0030382057 -0.00405837 -0.0026443687
-0.0050075473 -0.0020810124 -0.00541553 -0.0020965359 -0.0054094046 -0.0025529105 -0.0055390513 -0.0025412058
-0.005639006 -0.0028412486 -0.005277917 -0.0031901323 -0.0052271127 -0.0033112704 -0.0049518617 -0.0037678499
-0.004739113 -0.003879298 -0.004752521 -0.0044215256 -0.0065000122 -0.010098633 0.015149155 -0.0043343944
-0.0041480847 -0.00018598004 0.0025391618 0.014601662 -0.0054982216 0.021493424 -0.003253334 0.022556309
-0.007739688 0.021334019 -0.0017985768 0.01850031 -0.0010516446 0.014850962 0.004218919 0.012381617
0.0044353525 0.012133436 0.003140587 0.011222321 0.0015817966 0.012609983 -0.0009258917 0.015988335
-0.0034005393 0.017520657 -0.0047024186 0.01911376 -0.004893209 0.019679094 -0.004924583 0.019075427
-0.0032474045 0.017674448 -0.0022266312 0.016199078 -0.00043363866 0.014864546 0.0008595228 0.013501301
0.0032161348 0.011697757 0.0044702003 0.010194495 0.0064441613 0.008738671 -0.0045709144 0.005237578
-0.005451071 0.0077650594 -0.0041676452 0.014402923 -0.0198257 0.03668731 -0.016018113 0.027085807
-0.004221897 0.020414758 -0.0032199726 0.018582776 0.0028177346 0.0098389955 0.008810141 0.0047374843
0.007903846 0.0080358 0.0062654763 0.008727063 0.0063764444 0.008832348 0.004761507 0.009574524
0.003092062 0.009238791 0.0034074655 0.00789594 0.0051215445 0.0075881034 0.004577817 0.0066382335
0.0049054045 0.006611262 0.00529923 0.0062058377 0.005319994 0.0059770294 0.005645979 0.005238008
0.005252382 0.0053091254 0.0051958454 0.0053890804 0.0052406094 0.005215526 0.0052324776 0.0053110127
0.00058632414 -0.01707414 0.0187266 0.009169947 -0.03880495 -0.025456382 -0.00032920367 -0.013961568
-0.010226969 -0.0022013912 -0.017337447 -0.008758567 -0.007902623 -0.004860516 -0.01250479 0.0030632631
-0.013413812 0.0030681044 -0.010129201 0.0019431629 -0.0070878584 0.0022625658 -0.003975958 -0.0025750943
-0.00016122067 -0.0028827465 0.0024359692 -0.0018977678 0.0026606752 -0.0019507002 0.003507062 -0.00042885853
0.0035981543 0.00012415317 0.003430847 0.0009857959 0.0044051064 0.0011172905 0.004466534 0.0019656476
0.0045110267 0.0024212555 0.0042238054 0.0031490582 0.0045121512 0.0035870026 0.0046262154 0.003946809
0.004808245 0.004522408 -0.000464908 -0.0005080956 0.001935155 0.0036881918 -0.001824726 0.006781384

motion_mlp.mlps.0.fc0.fc.bias f4 [50]
00000000: 35cd e038 9417 3637 f5f3 25b8 516b 93b7
00000010: b736 c5b7 6e48 e635 e08b 4636 41d8 c137
00000020: 5231 0137 df28 6e37 64e3 7437 3f23 6238
00000030: 8d6e aab8 ae95 34b6 bbf7 b3b8 37bf 32b7
00000040: 6e8f 1e35 91dd e037 b788 1337 d834 ae37
00000050: e1f4 04ba e01b 1d37 1f63 0b39 46e0 94b7
00000060: b46d 20b7 0b20 8c37 7832 bbb7 c7f0 16b8
00000070: 5aab 2cb8 2dbf 8834 555d b6b8 a25a 08b8
00000080: 918f 6fb7 10fb 0fb6 c82b 1db8 eb4c 2cb9
00000090: d399 0439 9351 31b7 a575 f6b6 ed59 3eb7
000000a0: 6d78 19b8 7c6f d3b7 01e9 3036 f52c b2b7
000000b0: a962 0637 f3c1 1338 33bd 6cb6 eb85 06b7
000000c0: 807c d3b6 7502 b937
0.00010719375 1.0853535e-05 -3.956627e-05 -1.7573739e-05 -2.3509709e-05 1.7157415e-06 2.9585717e-06 2.3108094e-05
7.7004825e-06 1.41954215e-05 1.4596477e-05 5.3915424e-05 -8.1268234e-05 -2.6909215e-06 -8.5815285e-05 -1.0654147e-05
5.9068304e-07 2.6806056e-05 8.793714e-06 2.0767024e-05 -0.000507189 9.364419e-06 0.00013292998 -1.774741e-05
-9.562285e-06 1.6704222e-05 -2.2315638e-05 -3.598703e-05 -4.116758e-05 2.5471073e-07 -8.695821e-05 -3.2509335e-05
-1.4278937e-05 -2.1454798e-06 -3.747249e-05 -0.00016431852 0.00012645805 -1.0569015e-05 -7.345067e-06 -1.134582e-05
-3.6590198e-05 -2.5205074e-05 2.636167e-06 -2.1240188e-05 8.0099935e-06 3.522816e-05 -3.5276869e-06 -8.018203e-06
-6.3027837e-06 2.2054863e-05

motion_mlp.mlps.0.norm0.alpha f4 [1, 54, 1]
00000000: 42b2 d23e 8f1b e43e 5544 193f 9b23 d73e
00000010: 5e06 8e3e d5a3 113f de52 d23e 6e4c 933e
00000020: b8d2 ae3e d061 143f e5a5 f03e 138d 873e
00000030: e70d d03e 73b7 dc3e 9a3e b43e 794e ec3e
00000040: 3c8d c23e 6107 a73e c456 e03e 685a 363f
00000050: f8f8 de3e 8d1c d73e a4f0 e13e 2e04 8e3e
00000060: e1b6 f83e fb42 f23e e8a6 c73e aff0 c53e
00000070: 677d d83e cbf6 c13e 0aa2 a03e 13d1 863d
00000080: c3ad cd3e 9dde e23e 22b7 e83e b35f ce3e
00000090: d5f3 b93e 0ae7 053f 0415 d03e ca99 f63e
000000a0: f891 c23e 3b17 cf3e 2d9b be3e 9283 a53e
000000b0: 00ad 013f c89f c93e dca0 403f 0a37 c23e
000000c0: 817f c13e 4550 023f dcc7 963e 8c2e b83e
000000d0: 88c2 b73e dde5 d53e
0.41151625 0.44552276 0.5986989 0.42019352 0.27739233 0.5689061 0.41078848 0.2876925
0.3414514 0.5796175 0.47001567 0.2647482 0.40635607 0.4310871 0.3520401 0.4615362
0.37998378 0.32622817 0.43816197 0.712317 0.43549323 0.4201397 0.44128907 0.27737564
0.48577026 0.47316727 0.38994527 0.3866019 0.42283174 0.378836 0.31373626 0.065828465
0.40171632 0.44310465 0.4545222 0.40307388 0.36318842 0.5230566 0.40641034 0.48164207
0.3800199 0.4044741 0.37227765 0.32326943 0.506546 0.39379716 0.7524545 0.37932616
0.3779259 0.5090373 0.29449356 0.35973012 0.35890603 0.41776934

motion_mlp.mlps.0.norm0.beta f4 [1, 54, 1]
00000000: 020c 0f3b aef2 fd3a 64e3 ce3b b177 e93a
00000010: d3c1 ff3b 575f d73a 5638 563a 0879 7bbb
00000020: 1334 37bb cc8f a5b9 435f 203c 7916 b9bb
00000030: 20ed 1b3b 68be e13b 1dcf 393a 52c9 a2bb
00000040: 0d74 9ebb c99b 1ebc 404b e83b b3b1 9b3a
00000050: 2dc1 023c b1eb 873b ef76 ea3b fc32 3fb8
00000060: fa14 073c c72a d1ba 7952 5fba 4523 52bc
00000070: c504 7a3b fe3c 30bb e29f 2ebb 5f01 b13a
00000080: 6906 8b3a 520f 0dbb 12c5 bdb9 68ba 973b
00000090: 5118 0ebc 0379 dcbb dfb3 17bc fd07 c23b
000000a0: feff ddba 8b25 02bc 3d89 b2bb 8b9c ddbb
000000b0: 230d 7cb9 74be ca3a dbb8 21ba 0550 f03b
000000c0: 542b 94ba 75ae e5bb 1abf c9ba 3a5c 7fba
000000d0: b813 8c3b 8cfd 5e3b
0.0021827226 0.0019374692 0.006313728 0.001781216 0.007805088 0.0016431612 0.0008171847 -0.00383717
-0.0027954623 -0.0003157839 0.009788337 -0.005648431 0.002379246 0.0068891533 0.0007088052 -0.004967847
-0.0048356117 -0.009680697 0.0070890486 0.001187852 0.007980627 0.0041479697 0.0071552913 -4.558543e-05
0.008244747 -0.0015958183 -0.0008519064 -0.012825792 0.0038149816 -0.0026891823 -0.002664559 0.0013504437
0.0010606769 -0.0021524024 -0.00036195718 0.0046303757 -0.00867279 -0.006728293 -0.009259193 0.0059213624
-0.0016937254 -0.007943521 -0.005448489 -0.006763046 -0.00024037487 0.0015468136 -0.0006169208 0.007333758
-0.0011304417 -0.0070093223 -0.0015392036 -0.0009741221 0.0042748116 0.0034025637

motion_mlp.mlps.1.fc0.fc.weight f4 [50, 50]
00000000: 04d8 27bb fc86 29bc 46f0 843c a5c9 b5ba
00000010: 29d7 083b b750 2abc f9d3 093b c2b5 183c
00000020: afef 193c c246 1ebc 9d95 ef39 c777 083c
00000030: 6747 a2bb 31ee 323c 6649 7b3a 9965 733a
00000040: 6d99 053c 8826 c6bb a359 66bb 6efe 03bc
00000050: 9d65 7dbc 7338 66bc 52d3 0abb 6a20 afba
00000060: 9d1b 85bb 67f6 cdb9 cb1b 883c 6f56 ec3a
00000070: 9c99 0bbb f75b 8d3a 1762 8b3c 0f5e ebbb
00000080: 82cb 3fbc 496b 55bc 0ba2 85bb 2f82 acbb
00000090: 33dc 43bc a2fa 603b c8de 27bb 943e 61bb
000000a0: 7748 dcbb 85ba 60ba d6f7 fe3a 6373 fbbb
000000b0: a444 563c 3624 89bc 29f0 6bbc 3c31 fbbb
000000c0: 24ec c63b 1885 4eba ccea 993b 0943 05bc
000000d0: f6f0 c03c 59cc 47bb c650 da3a b1e8 c33a
000000e0: dc94 bebc d173 d6bb e240 a03c 9af0 71bb
000000f0: bdb9 23ba 2f10 a33c c9d8 e53b ed32 c1b9
00000100: f45e a03c 4f34 043a 24ad 6b3c 0a32 923c
00000110: 3d3d aaba 78f7 94bc c1b8 01bc 10f1 acbb
00000120: d022 283d ca0f f03a ca63 88ba da85 003d
00000130: d50d e53b af4c 3f3c 70b4 68bb 04a2 b139
00000140: dedb 363c f95a 37bc bda0 87bb 2208 c8bb
00000150: 3841 333b 72d0 3d3b ea8c f23b 9b17 17bb
00000160: 3f9c 1b3c 3c0e c13b dab2 213c b0ed 34b9
00000170: 07d7 253b d28c d8bb 9f0b 933c 9d8e 65ba
00000180: c531 06bc fd8c 11bb 7a0a d9bb ba4f 02bc
00000190: 88f2 c1ba 957b a0ba 3782 2fbc 45ab 3ebb
000001a0: cedb 913b 2ace efb8 7117 42bc c7ee f038
000001b0: 67f3 93ba 5504 7a3b 3e8c 113b ecdc 0ebc
000001c0: 0937 2dbc b67e c3ba fcb2 e6bb adec 6bbb
000001d0: 1932 7abb c218 803b 6870 6fbb a9f5 6e3b
000001e0: 1528 67bd e8cf e93b 3205 efbd 6b6f c23b
000001f0: 4d64 d1ba d5d2 f43b e626 90bc 3dfd d2ba
00000200: 4a19 d03a 9de5 41b9 8d51 8ebc befb 36bb
00000210: be2d e9ba 385c 443b 26b1 82bb a209 4abd
00000220: 3f76 cbbc 705e 093b e4df 69bb d346 3cbb
00000230: 0efd 96bb 2328 87bb 5d80 47ba b272 5d3b
00000240: 4c0e 6abb d7da 48ba 6ef7 e5ba 64bb 423a
00000250: b4dd 093b ab95 d4b9 f4e2 883b 5ae4 a93b
00000260: e021 993c 0cb2 bb3b 00ce a43c 0b58 f73b
00000270: eca6 86bc d0be ddbc 1019 8d3b d12c c03b
00000280: 6df9 893b 0e23 253c bba6 aa3b f716 79bc
00000290: d501 a33c 0b47 5739 5093 a6bb fed9 32bb
000002a0: b9ab e435 6b3f 59bc ec92 20bb 3b57 153c
000002b0: 98c0 b9bc 85d4 d6bb af49 c73b c9c6 cdba
000002c0: d4ce 02bc ca15 c33b b00e 9abb 49d5 3fbc
000002d0: 84f9 8cbb 46fc 263c faf1 db3b c230 533c
000002e0: eebb e7bb a80f 1abd b75b 2b3c 6c8c 9bba
000002f0: f8e9 d3bb e36e b3ba 0eef fdbb 9791 ad3c
00000300: 9de5 08bc 69aa ce3b 2be7 94bc e1ef cd3b
00000310: f90b 0b3c 0b2a 2d3b 3e04 4abc ccb8 393c
00000320: 42d2 65bc 8f1d 503b c1aa 34bc 6606 14bc
00000330: d205 b5bc 3ef7 41b9 9b6d b73c ee0b b53c
00000340: 9bf1 c1bc f197 0fbb 4b13 d73b f39c 1ebc
00000350: af75 99bb edfd 5b3c b19a ee3b 8ac4 673c
00000360: 7c24 3ebb d129 56bb 7bcc ca3b 2d34 fb3b
00000370: 8bb0 84bc 0eaa 053c 9020 08bd b688 49bc
00000380: d9a9 1b3c 7cec bd3b 9130 c0bc 90d7 bcbc
00000390: 368b fa3b 8fe8 583c ac69 bcbc 76f9 30bc
000003a0: d200 ffbb 6409 2a3b f000 eebb 6153 b1bc
000003b0: 2a17 82bc af6d df3b a4c9 d33a 8141 5f3c
000003c0: af44 d23c b420 393c 1a50 b03b daca e63b
000003d0: 8eeb 5f39 0f03 6f39 5058 04bc e530 5ebc
000003e0: 7e85 6dbc 8fbe 1dba ac48 2abb 2d08 9ebb
000003f0: 1943 88bb 6a4e 113c 4883 eabb 388b bdbb
-0.0025610933 -0.010347124 0.016227853 -0.0013869299 0.0020880199 -0.0103952205 0.0021030887 0.009320678
0.009395524 -0.009660425 0.00045697103 0.008329338 -0.0049523595 0.010921047 0.00095858274 0.00092848536
0.008154255 -0.0060470738 -0.0035148642 -0.008056266 -0.015466121 -0.0140515445 -0.0021183086 -0.00133611
-0.0040621297 -0.0003928423 0.016614815 0.001803113 -0.0021301275 0.0010784854 0.017014546 -0.0071828435
-0.011706235 -0.013026067 -0.004078155 -0.0052645425 -0.011954355 0.0034329076 -0.0025614966 -0.0034369575
-0.0067225057 -0.00085727155 0.0019452523 -0.0076736673 0.013077889 -0.0167409 -0.01440052 -0.0076657813
0.0060706306 -0.0007878109 0.0046971794 -0.008133658 0.0235524 -0.003048679 0.0016656152 0.0014946667
-0.023264341 -0.006544568 0.019562189 -0.0036917091 -0.00062456337 0.019905178 0.007014368 -0.0003684977
0.019576527 0.0005043195 0.014384542 0.017846126 -0.0012988221 -0.018184409 -0.007917584 -0.0052777603
0.041048825 0.0018315252 -0.0010405716 0.03137765 0.0069901743 0.011675998 -0.003550794 0.00033880782
0.011160819 -0.011191123 -0.0041390345 -0.006104485 0.0027352106 0.0028963354 0.007402052 -0.0023054841
0.009497701 0.0058915894 0.009869302 -0.00017254683 0.0025305168 -0.006608584 0.017949877 -0.0008756908
-0.008190577 -0.002220928 -0.0066235634 -0.007953579 -0.0014797011 -0.0012243862 -0.010712198 -0.0029093784
0.0044512516 -0.00011434809 -0.011846409 0.000114885675 -0.001128775 0.0038149555 0.0022208835 -0.008719664
-0.010572203 -0.0014915082 -0.0070403796 -0.0035999224 -0.0038176833 0.0039092014 -0.0036535505 0.0036462343
-0.05643471 0.00713538 -0.11670913 0.005933692 -0.0015975327 0.007471422 -0.017596673 -0.0016097199
0.0015876677 -0.00018491452 -0.01737287 -0.0027921046 -0.0017790121 0.0029962193 -0.003988403 -0.049325593
-0.024836658 0.002096083 -0.0035686428 -0.0028728738 -0.004607803 -0.0041246577 -0.0007610375 0.0033790288
-0.0035714088 -0.0007662004 -0.0017545053 0.0007428436 0.0021036686 -0.00040547302 0.0041774455 0.0051846923
0.01869291 0.005728012 0.02011776 0.0075483373 -0.016437016 -0.027068526 0.004305966 0.0058647175
0.004210642 0.0100791585 0.005207864 -0.015203229 0.019898335 0.00020530463 -0.005083479 -0.0027290578
1.7037302e-06 -0.013259749 -0.0024501635 0.009115036 -0.022674844 -0.006556096 0.006081782 -0.0015699501
-0.007983882 0.005953525 -0.004701458 -0.011708566 -0.0043022055 0.010191983 0.0067121955 0.012890043
-0.0070719635 -0.037612587 0.010458878 -0.001186741 -0.0064671002 -0.0013689663 -0.007749445 0.021187587
-0.008355525 0.0063069356 -0.018176636 0.0062846993 0.008486741 0.0026422765 -0.012330113 0.011335563
-0.01402718 0.00317559 -0.011027039 -0.009034729 -0.022097502 -0.00018498019 0.022391131 0.022100415
-0.023674777 -0.0021910632 0.006563579 -0.009680974 -0.0046832184 0.01342724 0.0072816242 0.01414598
-0.0029013446 -0.0032678733 0.0061889268 0.007666132 -0.016197463 0.00815822 -0.03323418 -0.012300661
0.009500944 0.0057960134 -0.023460658 -0.023052007 0.00764599 0.01323904 -0.022999607 -0.010801664
-0.00778208 0.0025945539 -0.0072632954 -0.021646203 -0.015880186 0.006818495 0.0016158116 0.013626457
0.025667517 0.011299301 0.0053806426 0.0070432248 0.00021354688 0.00022793956 -0.008077696 -0.013561462
-0.014497159 -0.000601747 -0.0025983257 -0.004822752 -0.0041583893 0.008868793 -0.007156763 -0.0057844184

motion_mlp.mlps.1.fc0.fc.bias f4 [50]
00000000: 23fa ecb6 577c bbb6 f12e 3db7 c9ac beb6
00000010: ca38 85b6 0208 b436 dc5a 5135 85b6 d336
00000020: 173f 1636 9ad1 eeb5 a372 3a36 8de9 c436
00000030: ae1f 5ab6 8180 4a36 72fb 55b5 82b0 a4b5
00000040: 15e9 3b35 62cd 1136 93c4 f435 c0cb 1536
00000050: be53 db35 f2e6 fc33 22ad 28b6 e5ed b636
00000060: a65e aa35 c127 3db6 4d98 7db6 bb65 21b6
00000070: df57 78b5 7930 10b6 46d3 c9b6 7696 13b6
00000080: b52b 6cb6 9146 3fb5 1b1a 6b37 7970 d9b6
00000090: 9654 bb33 50a0 a835 ba61 6c37 8b87 b736
000000a0: f0ea 7fb6 f2fe 4236 9072 6536 01f2 9236
000000b0: 09c3 0237 f575 5f36 21f1 b6b3 7af8 52b5
000000c0: e722 3736 e46f 9db5
-7.062468e-06 -5.5875093e-06 -1.1276207e-05 -5.682556e-06 -3.97032e-06 5.3653503e-06 7.7990785e-07 6.309538e-06
2.2388465e-06 -1.7793384e-06 2.7782887e-06 5.868444e-06 -3.2502971e-06 3.0175145e-06 -7.9714584e-07 -1.2270323e-06
7.000211e-07 2.1726232e-06 1.8236627e-06 2.2321328e-06 1.6341144e-06 1.1776673e-07 -2.5134727e-06 5.4517172e-06
1.2693533e-06 -2.8186334e-06 -3.7788589e-06 -2.4050084e-06 -9.251507e-07 -2.1485887e-06 -6.0148623e-06 -2.1992287e-06
-3.5192181e-06 -7.125573e-07 1.401317e-05 -6.4801975e-06 8.723252e-08 1.2563632e-06 1.408945e-05 5.4696043e-06
-3.8134713e-06 2.905665e-06 3.4190343e-06 4.379312e-06 7.794014e-06 3.329825e-06 -8.5188965e-08 -7.859268e-07
2.728944e-06 -1.1729976e-06

motion_mlp.mlps.1.norm0.alpha f4 [1, 54, 1]
00000000: 04ba b43e f4a6 b63e 72ef 2b3f e964 b43e
00000010: 15c3 593e fcc9 173f fee6 713e b770 573e
00000020: c578 443e 56fa 103f bebc 123f 2ddb 2a3e
00000030: 96ea c03e aef9 c73e 07cb ac3e 036b d73e
00000040: 47fc 9a3e a683 913e 2a3d b73e 1175 423f
00000050: 62cd bf3e 6c49 b43e 0607 a63e 7ca7 283e
00000060: 418c d73e b1e4 fd3e 7dd3 bd3e f72a 733e
00000070: 8474 653e ed1f a33e efb4 613e 9e53 a83c
00000080: c329 913e fabf ba3e 159d ff3e 37c5 bd3e
00000090: 9f11 8d3e 1ee5 043f a1f0 9d3e 4a45 0f3f
000000a0: 5e28 9f3e 967b c23e 42c3 ad3e 5efb 6c3e
000000b0: 2db6 c23e a582 8f3e 7eaa 583f 689e a43e
000000c0: 9f05 9d3e 9cba 163f 78bc 343e 44a2 b23e
000000d0: 119b aa3e 4589 a43e
0.3529817 0.3567425 0.6716224 0.35233238 0.21265824 0.5929258 0.23623273 0.21039091
0.19186695 0.5663198 0.5731925 0.16685171 0.37678975 0.39057678 0.33748648 0.4207383
0.30270597 0.28420752 0.35788852 0.7595988 0.37461382 0.35212266 0.32427233 0.1647014
0.42099193 0.4958854 0.37075415 0.23746859 0.22407728 0.31860295 0.22041677 0.020547684
0.28352174 0.36474591 0.49924532 0.37064525 0.27552506 0.51912105 0.30847648 0.559651
0.31085485 0.37984914 0.33938032 0.23142764 0.38029614 0.2802936 0.8463515 0.32152104
0.3066835 0.58878493 0.1765002 0.34889424 0.3332143 0.32135978

motion_mlp.mlps.1.norm0.beta f4 [1, 54, 1]
00000000: 8cfd 94bc db31 143d 2220 663b e2d1 9fbc
00000010: 09dc 25bb 58d5 5a3c 1dbd 44bc fc0c 13bb
00000020: 76a4 cdbb 487b 2dbd 6ed5 b63d a8ea 043c
00000030: 53fc 173d 1c11 78bc 26a0 923c 50b3 863c
00000040: e1e5 9536 0c5e adbc 7cde 153c 015e 863b
00000050: b235 36bd 5cc7 55bd cc39 50bb b5f1 213b
00000060: 10ea f7bb f3dc 65bc 89c5 90bc b858 5fbc
00000070: ddfa 973c 0dad 813b 645d 65bb 5898 91bb
00000080: f6e2 c0bc a33c 04bc 1f93 033d 4491 0cbc
00000090: bf4b 0dbc abb4 9f3c 4a73 ddbb fc54 473c
000000a0: 55f3 5cbc e117 043c 162b 23bc ea34 e5bb
000000b0: d591 4dbb b8a3 9dbb af64 97bc 1bd5 bdbc
000000c0: 117b 493a 4f3e 97bb 61d6 2a3c 10d7 053d
000000d0: cf1d 953c e7d9 aabb
-0.018187307 0.03618036 0.0035114367 -0.01950926 -0.0025308153 0.013356529 -0.012007979 -0.002243816
-0.006275709 -0.0423539 0.08927427 0.008112587 0.03710587 -0.015140798 0.01789863 0.016442925
4.4673075e-06 -0.02116301 0.009147283 0.0041005616 -0.0444848 -0.052192077 -0.003177273 0.002471072
-0.007565744 -0.014029729 -0.017672317 -0.013631992 0.018552238 0.003957397 -0.0034998292 -0.0044432096
-0.023545723 -0.008071098 0.032122727 -0.008579556 -0.008624016 0.019495329 -0.0067581283 0.012166258
-0.013485749 0.008062334 -0.009959003 -0.0069948332 -0.003136744 -0.0048107766 -0.018480627 -0.023172906
0.000768588 -0.004615582 0.0104270885 0.032675803 0.01820269 -0.0052139643

motion_mlp.mlps.2.fc0.fc.weight f4 [50, 50]
00000000: 71d8 09ba 8e34 08bb 978b eab9 ff9c e1ba
00000010: 4fcd bd3b 1b54 6bbc c79d b23b aeff c0ba
00000020: 348e deba 1ac5 0bbc 10f0 1bba 4234 6d3b
00000030: cf72 32bb a4de 54ba be3e 28b9 ec41 52bc
00000040: b397 8f3a 7168 9bbc 2878 72bb 206b e73c
00000050: 58d4 83bc d550 6abc 7527 55bc 9a08 11bc
00000060: 7d7c b3bb f31a 30bc cb78 133b 806c 763b
00000070: ed12 07bc 9e0e c0bb ca1d a83b d285 06ba
00000080: 7566 e8bb 11cc e7bb 9283 07bc 2076 97bb
00000090: ba2c d3bc 7efa febb 065c 4ebb 374e 49bc
000000a0: c211 84bc 8c9e b3bb b755 613a e298 17bb
000000b0: 07f1 f0bb 2e06 2fbc 7833 a4bb 5b31 59bc
000000c0: 43f5 0a3a 5109 adbb b3e3 3e3b 6dc8 19bc
000000d0: fdba 053b 5a4e c1bb 8fe5 6c3b d914 9abb
000000e0: 75ce 53bc 5f0d f0bb 4536 033a f3f3 8dbb
000000f0: d953 093b 81c4 12bc cb0e 2bbc 751d 8f3b
00000100: 5f1e 56bc 29da 8bbc 5c28 88bc fc73 07bb
00000110: c62c 53ba 0295 3e3b f676 43bc ac4a b8bb
00000120: 179c 1fbc 530e 893b be12 b6bb aa6d 49ba
00000130: 2c1a 4dbb c383 24bb 9455 d3bb d22e 40bb
00000140: c933 79b9 691e 273b a3d0 b6bb 8388 c0bb
00000150: c55f 443c 641c a7bc 326f 14bc bc47 273b
00000160: 0e66 91bc 8bae 22bc f59a 8abb 3412 b73b
00000170: eb89 f0bb 2dd9 34bc f8fc 9e3c df49 96bb
00000180: c48d afbb 1b92 6037 232b 85bb 53b5 e4bb
00000190: 7b45 ecba 29bc bcba 6264 0b3d cfcc 1bbb
000001a0: cf9c f439 e85d 4d3c 3b39 a53a 1a0d ecba
000001b0: ff00 1dbb 0ba4 a83a 8bf1 7f3b 7c7d 52bb
000001c0: d394 1abc d77a 8b3c 2e4c da3b 9231 a43b
000001d0: 5bef bc3b e075 1e3b 97ba 643b b61c 9eb9
000001e0: d59a 0bbc 66bb 0d39 85e8 c2bc 4925 c239
000001f0: bd64 453b 8371 1eba ffb2 2cba 1ebd d23b
00000200: c722 a33a ef17 783c 4307 6abb 3edc edbb
00000210: 5af3 523c 9a46 3db9 edc2 e53b bbde 01bd
00000220: 0dfa 32bc 3c67 77bb 997e 69bd 25cf cc3c
00000230: 3814 8abb 9bf3 afba 2ef5 223c 66ac c03b
00000240: 2371 0ebb 947a a43c a352 123c 318b 993b
00000250: 0cee 77bb 7dcb bc3b 7bdd 563a 5fb8 d23b
00000260: 8759 38bc 709f a3bc 9c2b e7bb f164 1e3c
00000270: db71 ab3c d261 333b c4d3 4f3b 97a2 2bb9
00000280: e50b 253c fb0b 4f3c 9f27 e03b 4a6a 523b
00000290: ac53 303b 8b3e 873b a114 293b e480 8e3a
000002a0: 9efc 9e3c 4fb6 693c 5c86 a1b8 905c efba
000002b0: bf72 afbb 861c 203c 8ffc ab3b 0432 b639
000002c0: 9138 7c3b 9683 82bb c670 143b 6345 413c
000002d0: b75a fb3b bd4c 103c 2af2 893c 08a1 8dbb
000002e0: ee54 433b a6b0 08bc 0159 8a3c daf3 b7bc
000002f0: 24bc 1f3c 4187 773b 137c 0f3b a615 aebb
00000300: 6439 59b8 8824 193b 3856 8bbb be3b 5cbb
00000310: ae1c 7c3c 1c13 e83a 6e9e bcbb 1ea8 373c
00000320: e015 923a 9543 703c 69c2 3ebb 24c1 803c
00000330: 01db 9bbc 394b b4bc d3ac 22bc 936a de3b
00000340: 3736 253b ef39 62bc 23f9 0aba 1eef e83b
00000350: fbe2 e53b c6e3 2eba 3c9e 033c dc9e 5e3b
00000360: 033b 443c 1001 86bc 0edb 8dbb df67 dd3b
00000370: 47f5 2ebc fe9a 01bc f2a5 dabc 8067 473b
00000380: 0062 a6bb 21c1 c83b abc7 403c 6ffc 233b
00000390: 76a3 183b 9905 40bc d8ab e9ba c0fc a43c
000003a0: c66d a8bb 1d30 cabb b937 47bb fd91 44bc
000003b0: 1edc 61bc 8b28 f8bb a45a 4f3c 395e 69ba
000003c0: 223d 74bc 7494 31bc 32d3 643b c704 543b
000003d0: d997 ff3b 3fed 54bc 61b9 88bc 6b98 acbc
000003e0: ab1a f53b 342b 07bc 15ae 4bbc a87a e43a
000003f0: 65b9 afbb 8966 da3a 6310 563b 4424 fbbb
-0.00052583875 -0.0020783278 -0.0004473596 -0.0017212926 0.005792297 -0.014363314 0.0054509374 -0.0014724636
-0.0016979636 -0.008530879 -0.0005948553 0.0036194478 -0.0027229076 -0.0008120334 -0.00016045102 -0.0128331
0.0010955244 -0.0189707 -0.0036997888 0.028249323 -0.016092464 -0.014301498 -0.013009896 -0.008852148
-0.0054774866 -0.010748613 0.0022502418 0.0037601292 -0.008244258 -0.0058611175 0.0051305043 -0.0005131635
-0.007092292 -0.007073887 -0.008271115 -0.004622236 -0.025778163 -0.007781326 -0.0031487956 -0.012286714
-0.016121749 -0.0054815467 0.00085958414 -0.0023131897 -0.0073529514 -0.010682626 -0.0050110184 -0.013256396
0.0005300829 -0.0052806516 0.0029127419 -0.009386164 0.0020405643 -0.005899233 0.003614757 -0.0047021923
-0.012927641 -0.0073258127 0.000500534 -0.0043320595 0.0020954518 -0.008957983 -0.010440539 0.004367525
-0.0130687645 -0.0170718 -0.016620807 -0.0020668497 -0.0008055683 0.0029080515 -0.011930218 -0.005624136
-0.009741805 0.004182616 -0.0055564335 -0.0007683883 -0.0031296117 -0.002510295 -0.0064494107 -0.0029324782
-0.00023765782 0.0025500304 -0.0055790707 -0.0058756485 0.011985724 -0.02039928 -0.009059714 0.0025524935
-0.017748859 -0.00992931 -0.004229898 0.005586887 -0.00734066 -0.011038107 0.019407734 -0.004586443
-0.005357476 1.3385458e-05 -0.00406398 -0.0069796233 -0.0018026078 -0.0014399338 0.03403128 -0.0023773198
0.00046656138 0.012534596 0.0012605557 -0.0018009276 -0.0023956893 0.0012866271 0.0039053883 -0.0032118252
-0.0094348965 0.017026348 0.0066619134 0.005010792 0.005765838 0.0024179146 0.0034901255 -0.000301575
-0.008520802 0.00013516619 -0.023792515 0.00037030343 0.003011986 -0.0006044136 -0.0006587952 0.006431236
0.0012446278 0.015142425 -0.0035709895 -0.007258921 0.012875402 -0.00018050746 0.0070117624 -0.031706553
-0.010923875 -0.0037750741 -0.0570055 0.025001118 -0.004213836 -0.001342404 0.009946151 0.0058799265
-0.0021734915 0.020077981 0.008930835 0.0046857824 -0.0037831096 0.0057615624 0.00081964553 0.00643067
-0.011251814 -0.019973487 -0.007054759 0.009667621 0.020928314 0.0027371538 0.0031711916 -0.000163684
0.010073637 0.012637134 0.0068406607 0.003210681 0.002690534 0.0041273287 0.002579965 0.0010872153
0.019407567 0.014264657 -7.7021046e-05 -0.0018261839 -0.005354255 0.0097724255 0.005248613 0.0003475101
0.0038485865 -0.0039829714 0.0022650226 0.011796328 0.007670726 0.008807358 0.016839106 -0.004322175
0.002980526 -0.0083428975 0.016888143 -0.022455145 0.009749446 0.0037769827 0.0021894022 -0.0053126393
-5.179028e-05 0.0023367722 -0.0042522214 -0.0033604945 0.015387697 0.001770589 -0.005756191 0.011209516
0.0011145435 0.01466455 -0.0029107577 0.015717097 -0.019025328 -0.022008525 -0.0099289 0.006787607
0.0025209317 -0.013807758 -0.00053014065 0.007108583 0.0070155836 -0.0006671514 0.0080333315 0.00339692
0.01197696 -0.016357929 -0.004329092 0.006756767 -0.010678596 -0.007910488 -0.026690457 0.003042668
-0.0050776005 0.0061265384 0.011766355 0.0025022288 0.002329079 -0.011720085 -0.0017827703 0.020140052
-0.005140039 -0.0061702863 -0.0030398204 -0.011997697 -0.01378539 -0.0075731925 0.012655888 -0.0008902285
-0.014907153 -0.010838617 0.0034915921 0.003235148 0.007800084 -0.012996017 -0.016689958 -0.021068772
0.0074799857 -0.0082500465 -0.012431641 0.0017431574 -0.005362677 0.0016662638 0.0032663576 -0.0076642353

motion_mlp.mlps.2.fc0.fc.bias f4 [50]
00000000: 9be2 ba36 027d a8b5 26e3 f136 f440 5c35
00000010: 36dd 97b5 8ead 92b5 55e8 c535 0b2c da34
00000020: 686e a0b5 d1f9 bb35 2d06 7f35 65ee aa35
00000030: 2e0f 4eb6 505a 0eb6 ceae 2a33 9238 c835
00000040: 204c 5635 ffe6 fbb5 6431 f9b5 29eb 5cb4
00000050: 738a 03b4 4c9c 3834 ba12 8736 1aab 0436
00000060: 2334 f136 5f23 a0b5 da6d 9eb5 d9d6 3ab5
00000070: 1ff9 3735 7b1d 59b5 e65d 0135 eff3 73b6
00000080: 4cd8 2335 2803 53b5 6bc5 a235 ef77 9cb5
00000090: 4a0b c0b5 53ee 76b5 fb4e 81b4 e028 ad36
000000a0: d6df 25b6 efc0 3836 0618 4435 5ae2 4c35
000000b0: 9f15 22b6 87da 74b3 d666 4ab4 a90f ab35
000000c0: 30b1 e1b5 83da a3b5
5.5696123e-06 -1.2553357e-06 7.2088033e-06 8.2050906e-07 -1.1314758e-06 -1.0928359e-06 1.4745261e-06 4.063771e-07
-1.1953061e-06 1.4005292e-06 9.500389e-07 1.2735369e-06 -3.0705228e-06 -2.1212218e-06 3.9740193e-08 1.4917625e-06
7.983199e-07 -1.8768186e-06 -1.856632e-06 -2.0574647e-07 -1.2250693e-07 1.7193196e-07 4.0254936e-06 1.9769127e-06
7.188429e-06 -1.1931223e-06 -1.1803888e-06 -6.9603044e-07 6.853533e-07 -8.08817e-07 4.8192885e-07 -3.635181e-06
6.1036985e-07 -7.860822e-07 1.2127397e-06 -1.1657811e-06 -1.43084e-06 -9.198895e-07 -2.4085588e-07 5.1605602e-06
-2.4717206e-06 2.7530439e-06 7.305065e-07 7.6325307e-07 -2.4152466e-06 -5.7009427e-08 -1.8850128e-07 1.274505e-06
-1.6815375e-06 -1.2208042e-06

motion_mlp.mlps.2.norm0.alpha f4 [1, 54, 1]
00000000: 7e02 953e dad6 e63e c2e3 d93e a3a3 8d3e
00000010: 094c 373d 5f95 b73e b13e d53d 7826 bc3d
00000020: 98e5 303e de9b c13e d3b9 ce3e 6040 aa3d
00000030: 5891 473e c5a2 803e d685 313e e048 643e
00000040: e6ed 673e c665 3e3e 0920 943e 73f5 083f
00000050: efc1 603e d325 333e e178 193e 8c80 9e3d
00000060: b88d 933e a5aa cf3e 0770 703e 0ed1 df3d
00000070: 813b b93d 2c4d 103e 7e12 a13d 7a0c 4b3c
00000080: 106a 123e ba74 903e 9d19 b73e 3ea1 513e
00000090: 734b 1f3e b8e8 be3e dcff 1d3e e6de ac3e
000000a0: 6b3b 463e 20a8 9f3e 6262 523e e22d cf3d
000000b0: 458f 833e 8710 cb3d 8356 043f ee3c 2a3e
000000c0: ab21 793e 7d9a fe3e 9fd4 8a3d ad31 b93e
000000d0: 312a 1c3e e2c7 2e3e
0.29103464 0.45085794 0.42556578 0.27663907 0.044750247 0.3585615 0.10412348 0.09187025
0.17275083 0.3781423 0.40376148 0.0831306 0.19489038 0.25124183 0.1733621 0.22293425
0.22649345 0.18593511 0.2893069 0.53499526 0.2194898 0.17494898 0.14987518 0.07739362
0.2881906 0.4055988 0.23480235 0.10928546 0.090445526 0.14091939 0.07864855 0.012393111
0.14298272 0.28214055 0.3576173 0.20471665 0.15556125 0.37286925 0.15429634 0.33763808
0.19358604 0.31182957 0.20545343 0.10116173 0.25695243 0.09915262 0.51694506 0.16624805
0.2432925 0.4972724 0.067788355 0.36170712 0.1525047 0.17068437

motion_mlp.mlps.2.norm0.beta f4 [1, 54, 1]
00000000: aa89 2d3c 39ef 48bc 8c9a 4b3d 05ba 8b3c
00000010: 9e79 c53b 63c1 9a3c bc17 36bb 26cc 833a
00000020: 07f7 3e3b 61e0 2abd d31b cb3c 31f5 403b
00000030: 53e0 04bd 42e5 11bd 6724 8dbc 256e 623c
00000040: c948 fa3b 2008 f9bb c34b 51bc a199 13bb
00000050: 44e3 313c 861c 8a3c be9c aeb8 0ed5 c03a
00000060: 320b 1abd b041 e13b b741 bfbb 9285 febc
00000070: cd41 6bbc 0827 07bc 33f9 58bc 433a a2bb
00000080: e8bb ed3b a39e 86bb 17cd 29bd 7a9a 9d3b
00000090: 1272 0cbb de72 893d c25d 7abb aa11 5abb
000000a0: 3d1f 343c bce6 a43c ad1a 31bb d201 acbc
000000b0: ad1d 91bb 8d1c c33b 582f 933c f9e6 a63c
000000c0: 323b cd3c ddc0 84bc 4bda fabb b4c6 e9bb
000000d0: fc5e 7fbc edc8 483c
0.010591904 -0.012264066 0.049707934 0.017056474 0.006026461 0.018891042 -0.0027785143 0.0010055348
0.002913894 -0.04171789 0.024793541 0.002944302 -0.032440495 -0.035619028 -0.017229272 0.013820206
0.007638071 -0.0075998455 -0.012774411 -0.002252199 0.010857407 0.016859304 -8.326162e-05 0.0014711933
-0.037608333 0.0068742856 -0.0058366912 -0.03106955 -0.01435895 -0.008249052 -0.0132430075 -0.004950793
0.007255066 -0.0041082664 -0.041455355 0.004809675 -0.0021430296 0.06711362 -0.0038202857 -0.0033274689
0.010993776 0.020129554 -0.0027023957 -0.020996962 -0.0044285865 0.0059543313 0.017966911 0.020373808
0.02505264 -0.016205246 -0.007655417 -0.007134283 -0.015586611 0.012254936

motion_mlp.mlps.3.fc0.fc.weight f4 [50, 50]
00000000: f9f2 b8ba 0a5e 563b 9b40 a73c cb55 9839
00000010: f4b3 06bc 31d4 e5bb de95 a23c f4f0 2a3c
00000020: 91cf b43a e96e 3ebb ecac 913b 0278 0cbc
00000030: e986 58bc 63e2 213c fb01 173b d133 973b
00000040: 1fbf 103c 5a23 17bc 9c8a 153c 0e30 d03a
00000050: b5fc 35bc 26d5 2fbb 3f59 2cbc 5778 a63a
00000060: 432d f93c 9614 0c3c 8a29 8c3b a0d0 923b
00000070: 9783 9f3b 252e 043b 660b 393b 8071 013b
00000080: f09a 1dbb 85fa 94bb b3ce 1a3c cd60 efbc
00000090: ac03 18bc c2b9 bfbb 93e2 98bc 22f4 b73c
000000a0: 557e 5fbc 3775 893b 72b2 273b 9961 193c
000000b0: 111b 223a 9e28 0e3b cde4 323a ed71 acbb
000000c0: f908 3dbb ec4a 70bb 3703 ba3b a32e 84ba
000000d0: a7a1 ac39 d9a8 02bb 344b 9ebb c870 d5bb
000000e0: 6109 3c3a ce2a 09bb 4bfa 313a f6f0 1abc
000000f0: 0cb3 4cbb 3e1d 6739 4308 c5bb e7ce 57bb
00000100: c4c1 32bb 209b 83bb 320b f2ba 458a 13bb
00000110: 2af1 fdbb fdfd 3b3c e085 d1ba 895a 5abc
00000120: d9a0 6abc 8aef 993a 3d60 0bbc 2f30 47bb
00000130: ec80 52bb 7892 8cbb dd15 87bb 1d6b 3cbb
00000140: bb4a 3cba 539b 90bb a418 aebb 51d3 dcbb
00000150: 1d97 88ba 87b5 e9bb 47d1 18bc 74ce 87ba
00000160: ab7d e1bb 7cc8 b1bb 0eea bb39 c5e5 0db9
00000170: 5da8 c9ba a935 01bb 07c7 2b3b a758 1bbc
00000180: e915 f2b8 45d3 c7bb 3e17 923b 06cd 88bb
00000190: 134c 5739 c423 a6bb 1b75 9bbc 7048 d13b
000001a0: d325 19bc 80b8 4236 5ca6 0f39 a5c8 1d3b
000001b0: 1273 a23b a6a5 1f3a 651d be3b 55d6 b23b
000001c0: 7c4e c4ba 7d2f e6bb 7af0 99ba e62e 51bb
000001d0: 4e41 193a 0632 3abc f241 abb9 0532 b2bb
000001e0: 4401 7abc e3be 16bc b576 adba 6b2f 3cbc
000001f0: be33 2fbc c15e 5cbb e83d 083c ffea e2bb
00000200: 5fc7 e4ba 5cbe 813b 1e17 c23c 8405 ae3b
00000210: 1ef1 00bc 8412 46bb be4d de3b 9594 25ba
00000220: 1aba 54bc 5dbb 8cbc 793d a63c b890 c73b
00000230: 9395 03bc 9fdf ddbb fb8d 393b ada1 8c3a
00000240: a761 98ba 350e a63b ad41 143b 7ca9 0f3c
00000250: 5cbd 44ba 6e4d 51bb 6582 5abb 725b c73b
00000260: 0861 69bb fdf3 d7bc 66ea 2aba 1bba 953a
00000270: 2d99 f9bb 4231 6d3a 2446 3abc e6e9 463c
00000280: 793c 813b 5e4f 92bb fe02 0abc 23d2 713a
00000290: 25f5 3c3b c18f 1e3c 0716 0dbc 489a 5cbb
000002a0: 6012 17ba 053f fbba 4fe8 2dba 4930 22bb
000002b0: eb1a ec3b 7712 2b3c 7df8 683c 1dbb a13b
000002c0: b53f 34bb 33ef ccbc 8478 403c 0329 9c3b
000002d0: e65e f6ba c3e7 003c 7a44 463b e871 f23b
000002e0: 9566 b03a a57c eab9 a610 a33c 22b6 413b
000002f0: c397 3abc f8ff dfb7 c159 65bb 9e70 a6ba
00000300: f82b e23b 050e db3b f6dd b7bc 5303 373c
00000310: aacb fb3b d69e 94bb 65e0 fbbb 1e2b 0cbc
00000320: f317 de3a b181 0bbc 09cc 7439 b4f0 923c
00000330: 9bff f63b 5f8f 1ebc 4411 f63c 0cc0 a93b
00000340: aa9c d3ba 5206 00bc 4ae2 46ba 3a59 9bbc
00000350: 3199 a5bc e7e8 ae3a 0cc1 883c e8ea ee3b
00000360: cb90 ef3c b44a afbc 1e1a 29bc 506f 813c
00000370: eb53 923b b5ec a0bb 8edf 88bb 36a1 0bbc
00000380: 6f0a 5fbc 2457 a2bb 12a4 ab3b 83ba 603c
00000390: 7f1d e3ba 6c5d dfbc 82dc 783b a6ae ba3a
000003a0: c042 093b 8a59 52bc 90c5 42bc 8a22 213b
000003b0: f70b 78bc c307 7139 81f8 6d3b e5cf 513c
000003c0: f47f 33bc 1706 f83b 705a 04bc f41f 7abc
000003d0: 8bf3 d1ba bcc2 72bb 7d36 753a 3a56 c2bb
000003e0: 5f44 49bb 8aa8 a1bb b5bf d6b9 ba80 dabb
000003f0: 358d 983b dd02 a2bc ed73 68bc 4400 79bc
-0.0014110497 0.003270986 0.020416548 0.0002905562 -0.008221615 -0.0070138206 0.019846853 0.010433424
0.001379477 -0.0029057807 0.0044456627 -0.008573534 -0.013215759 0.009880635 0.0023041952 0.0046143313
0.008834629 -0.009224737 0.009127285 0.0015883462 -0.011107613 -0.0026829927 -0.010519325 0.0012700659
0.03041709 0.00854983 0.004277413 0.0044804364 0.0048679817 0.0020169106 0.0028235554 0.001975149
-0.0024048649 -0.004546466 0.009448695 -0.029220963 -0.009278219 -0.0058510015 -0.018662727 0.022455279
-0.01364096 0.0041948813 0.002558854 0.009361648 0.0006183843 0.002169169 0.0006824255 -0.0052626044
-0.002884446 -0.003666575 0.005676653 -0.00100847 0.00032926837 -0.0019937067 -0.0048307423 -0.0065136887
0.00071730284 -0.0020930055 0.0006789311 -0.009456864 -0.003123465 0.0002204077 -0.0060129478 -0.003292972
-0.0027276138 -0.004016295 -0.0018466471 -0.0022512835 -0.0077496963 0.01147413 -0.0015985332 -0.013327249
-0.014320576 0.0011744362 -0.008506832 -0.003039371 -0.00321203 -0.0042899214 -0.0041224794 -0.0028750368
-0.00071827666 -0.0044130473 -0.005312996 -0.006739058 -0.0010421012 -0.0071322354 -0.009327239 -0.001036121
-0.006881436 -0.005425511 0.00035841804 -0.00013532404 -0.0015385259 -0.0019715822 0.002621116 -0.009481586
-0.0001154354 -0.0060981833 0.004458337 -0.0041748313 0.00020532338 -0.0050701816 -0.018976739 0.006386809
-0.009347397 2.9015646e-06 0.00013699516 0.0024075892 0.004957565 0.0006090052 0.005801844 0.0054576793
-0.0014977003 -0.007024704 -0.0011744641 -0.0031918823 0.0005846218 -0.011364466 -0.00032664795 -0.0054380917
-0.015259091 -0.009200784 -0.001323423 -0.011485915 -0.010693489 -0.0033625814 0.008315541 -0.0069249864
-0.0017454437 0.00395946 0.023692664 0.005310716 -0.007869987 -0.0030223439 0.00678417 -0.0006316391
-0.012983823 -0.017179186 0.020292984 0.00609025 -0.008031267 -0.0067710425 0.0028313387 0.0010729335
-0.0011625782 0.0050676116 0.0022622154 0.008768436 -0.00075050234 -0.003193702 -0.0033341881 0.006083899
-0.0035610814 -0.02636146 -0.00065199134 0.0011423262 -0.007617137 0.00090481725 -0.011369262 0.012140727
0.0039439765 -0.0044650277 -0.008423565 0.0009224733 0.002883264 0.009677828 -0.008611209 -0.0033661295
-0.0005762931 -0.0019168562 -0.0006634043 -0.0024748018 0.0072053573 0.010441414 0.0142194005 0.0049356357
-0.0027503793 -0.025016403 0.011747483 0.004765631 -0.0018796592 0.007867756 0.0030253218 0.0073988326
0.0013458306 -0.00044724825 0.0199054 0.0029558023 -0.011388722 -2.6702866e-05 -0.0034996124 -0.0012698357
0.006902214 0.006685021 -0.022444706 0.011170226 0.0076841908 -0.0045355363 -0.007686662 -0.008555202
0.0016944393 -0.008514808 0.00023345662 0.017937042 0.0075377948 -0.009677737 0.03003753 0.0051803645
-0.0016144712 -0.007814007 -0.000758682 -0.018963445 -0.020214649 0.0013344557 0.016693614 0.0072911866
0.029243847 -0.021397926 -0.010321168 0.015800148 0.00446557 -0.00491103 -0.0041770404 -0.008522322
-0.013613327 -0.0049542356 0.0052380646 0.013716343 -0.0017327516 -0.027266227 0.003797323 0.0014242723
0.0020944327 -0.012838731 -0.011887923 0.0024587237 -0.015139571 0.00022986442 0.003631145 0.012805914
-0.010955799 0.0075690853 -0.008078203 -0.015266407 -0.0016018016 -0.003704234 0.00093541277 -0.005930689
-0.0030710918 -0.0049334215 -0.00040960094 -0.0066681774 0.004655505 -0.019776756 -0.014187795 -0.015197817

motion_mlp.mlps.3.fc0.fc.bias f4 [50]
00000000: bd3e da36 097a e0b3 6682 1535 a344 1635
00000010: be1d ab35 7581 6435 3b97 5a33 9246 bdb5
00000020: e97b 1336 00ce 2834 582d 6035 8d45 b935
00000030: b3a6 8d35 2754 0f36 f203 0836 571b fab3
00000040: 3bc4 3734 12c6 0db6 d00f ba35 c632 c935
00000050: 879e 2336 3a8b f4b5 2153 4335 1772 aeb4
00000060: 3a8e cd34 fb31 1c36 1cb6 c735 98dc 6135
00000070: a0b5 5b35 0454 12b4 6630 6eb5 c1b3 dfb5
00000080: 4e53 a1b5 547c 59b6 da6a d734 cfb8 d535
00000090: a3f6 42b5 dd58 8734 aaed 44b4 bb22 0b35
000000a0: c3e3 4db6 91e0 5934 348f e3b5 0329 3735
000000b0: e1ab 6eb4 7d7d 5835 306c b634 7fcb ad35
000000c0: 35ea 2e36 c36d 8235
6.50421e-06 -1.0453011e-07 5.569658e-07 5.5979234e-07 1.2749149e-06 8.5125004e-07 5.0894624e-08 -1.4102136e-06
2.1976832e-06 1.5721162e-07 8.3512487e-07 1.3803816e-06 1.0553834e-06 2.1357644e-06 2.0267876e-06 -1.1646505e-07
1.7114591e-07 -2.112593e-06 1.3862682e-06 1.4990444e-06 2.4381168e-06 -1.8219937e-06 7.276413e-07 -3.2493037e-07
3.828771e-07 2.3274904e-06 1.4879656e-06 8.414004e-07 8.1848157e-07 -1.3627874e-07 -8.873234e-07 -1.666711e-06
-1.201968e-06 -3.2407888e-06 4.0124615e-07 1.5923523e-06 -7.2629535e-07 2.5210366e-07 -1.8340384e-07 5.1832075e-07
-3.0679955e-06 2.0291397e-07 -1.6954496e-06 6.823249e-07 -2.2228006e-07 8.064888e-07 3.3978858e-07 1.294873e-06
2.6064347e-06 9.7177e-07

motion_mlp.mlps.3.norm0.alpha f4 [1, 54, 1]
00000000: 52e1 9f3e e046 d13e 351a d83e 54ad 883e
00000010: 3cac e33d 6e38 d03e ada0 273e 5eb0 cf3d
00000020: 1cca 4a3e f615 ad3e e5bf d13e deff 813d
00000030: 5f50 4c3e 103b 683e 2f2d 4f3e f91a 7d3e
00000040: e5a1 803e 2410 233e bc9e 753e 66dd 2e3e
00000050: b346 523e a13e 483e 8401 123e c42f eb3d
00000060: c436 a03e 2bd7 b93e 7147 623e 492f 253e
00000070: ec2f e13d a676 293e 4553 fe3d 9417 e43b
00000080: 761c 8e3e 4095 053e b3c2 e93e 8b7c 573e
00000090: 0290 d03d c35f b23e 41e2 403e f1ca c03e
000000a0: 4e4c 3b3e 54d3 893e a172 5d3e 4603 193e
000000b0: 71cd 0a3e 47a0 a93d b813 2e3e 8530 2c3e
000000c0: 7381 913e f902 f63e 1550 cd3d b0c8 b13e
000000d0: bcf0 2d3e 1a8e 133e
0.31226593 0.40874386 0.42207494 0.2669474 0.111168355 0.40668052 0.16369887 0.10141061
0.19803661 0.33805817 0.40966716 0.06347631 0.19952534 0.2267878 0.2023208 0.2471732
0.25123516 0.15924126 0.23986334 0.17076644 0.20534782 0.19555141 0.1425839 0.1148372
0.31291783 0.36296973 0.22097565 0.16131319 0.109954685 0.16549167 0.12418226 0.0069608185
0.2775609 0.13045216 0.45656356 0.21043603 0.10183717 0.34838685 0.18836309 0.37654832
0.18290827 0.26919043 0.21625759 0.14942655 0.13554932 0.082825236 0.1699971 0.16815384
0.28419074 0.48049143 0.1002504 0.34723425 0.16986364 0.14409676

motion_mlp.mlps.3.norm0.beta f4 [1, 54, 1]
00000000: e504 5dbc e698 983c 49dc 9d3d f98e 4bbd
00000010: ba48 7ebc 26bc 053d 398f 883b 3a18 ff3b
00000020: fe84 91bb 9211 51bd 0bb2 72bc 4814 8dba
00000030: 5837 35bd d118 6ebd c776 a73c 42eb 253d
00000040: 23a8 eabc 8a5d 11bc daad 593d 81f5 37bc
00000050: d65e 72bc 0da7 2bbc 0f9c d3bb 5642 a6bb
00000060: 6e88 d63c d714 9bbc 3335 953b a95a 163c
00000070: df85 e73a 33fa adbb f7b1 233c 8ad4 673b
00000080: 8fd2 ce3b 8629 c33b b6b3 a13d 4b18 e3bc
00000090: 29d6 7d3c 73c6 453c 9c8d b73a 48ab 8e3d
000000a0: 9101 a7ba 7df3 2839 10fd fd3c 12de 52bc
000000b0: f031 94bb 8bb3 f43a 840b 25bc 4bb9 86ba
000000c0: 5e8e 1bbd 4614 4ebd 87f7 31bc e564 77bc
000000d0: d111 b9bc 2742 23bb
-0.0134899365 0.018627595 0.07708032 -0.049696896 -0.015520269 0.032650135 0.004167464 0.0077848705
-0.0044409027 -0.051042147 -0.014812957 -0.001076349 -0.044242233 -0.058129136 0.02044238 0.040507562
-0.028644627 -0.008872399 0.053144313 -0.011227966 -0.014793118 -0.01047684 -0.0064578126 -0.005073826
0.026188102 -0.018930836 0.004553461 0.0091768885 0.0017663798 -0.005309367 0.009991161 0.0035374486
0.0063117216 0.0059558777 0.07895605 -0.027721545 0.015492954 0.01207124 0.0014003995 0.06966263
-0.0012741556 0.00016112435 0.031004459 -0.0128703285 -0.0045225546 0.0018669231 -0.010073546 -0.001027861
-0.03797757 -0.050312303 -0.010862238 -0.015099739 -0.022591503 -0.0024911256

motion_mlp.mlps.4.fc0.fc.weight f4 [50, 50]
00000000: 720c 28bb 9792 5a3c 7bdc 1b3b e336 103c
00000010: e329 ea3a e14b 91ba 1b82 3dbd 922a 68bc
00000020: 06a3 8e3c 68d7 96bb 2d01 0b3a 4ee6 9ebb
00000030: b8f6 5b3b 1c4b 213a d459 dd3a 7eba 97bb
00000040: da9f 103b 4bba 463c 815e 66bb a609 52bc
00000050: 086b e2bb 8aa0 233c b236 123c 1055 213a
00000060: 81f9 70bc 981e 573c c18f a23b 4883 753c
00000070: 56aa c63b e0f2 a73c d69c 0ebc e081 91bc
00000080: 2a0f bfbb fbc5 8d3c ca5d 86bb 836d 6b3b
00000090: f35e 953a 8158 803c 75f5 dabb 0f80 0abc
000000a0: 87f1 1d3c b323 873b 8969 4039 8937 5ebb
000000b0: 85a9 a43b a52c 083a 7d21 0e3a 01a8 e3bb
000000c0: 6ac7 843c 0189 c6bc e567 6c3b 7ecb 72bc
000000d0: 1e45 343c 155a c7bb 9a1b 9f39 703b 64bc
000000e0: 86de cb3b 2114 41bc 9d2c 9f3c 415f 84bc
000000f0: 1371 073c 5501 b23b d1bb a7bc 9149 f3bb
00000100: 8f19 9abb 37d9 693c cc9f 09bc 43bb 93bc
00000110: ec42 31bb 7ac6 71bb ba67 4f3b 9a44 b8bc
00000120: 11c1 013b 0a35 f33a 8c38 23bc f363 793b
00000130: 4d0d 75ba b62a dcbc cec2 33bb 685c f3bb
00000140: f802 2a3b 5e0b 39bc 08f0 793b 6da7 21bd
00000150: 2541 13bb 4030 143b 51de c1bc b2c7 913a
00000160: 13fc 213b 1c75 41bc e999 7d3c 3b4a 0d3b
00000170: 2bbe c9b9 d89e 83bb 3195 213c 35f8 ebbb
00000180: f671 f33b 7800 283a f177 35bb c337 8b3c
00000190: 033a 57bb 5017 0bbc 7c9e 1a3b 3182 ba3b
000001a0: b16a 0cbc b262 123a 85fa 283c 616f 9a3b
000001b0: 48ab 9dbb 5326 a3ba 94b5 d73b 99d7 4d3c
000001c0: 7bee 3f3a a1c7 313c 9007 103b f431 8a3b
000001d0: d336 433b 9fd5 0ebb dc9a 2d3c 40b5 5abb
000001e0: e49f 4b3b c1a4 ee39 321d 753b 3a39 e7b9
000001f0: f38a 4c3b 53ef a6bb 6725 143c eeac 18bb
00000200: d002 2d3c 3f2c c73b c653 093c 046e f4bb
00000210: 7e3b cc3b 1908 1eba fcb9 febb dc95 b03a
00000220: 6a3d a63a a9f5 d3bb 1833 cc3b 494b a03c
00000230: 1f31 dfba 460f b43b 80fe 293c da70 a03b
00000240: e822 063b 463b c33b 1ed4 6d3b 1f1f b03b
00000250: e963 21bc 1b34 d63b d7ed 9a3a 4bac 9739
00000260: 0c2a 24ba 8976 97bc c542 abbc 164e ab3a
00000270: a552 e0bb fbe3 47bc df8c b23b 117c 223c
00000280: d63e cfbb 52d3 bfba 82bc 02bc 55b7 073c
00000290: 0cce 4cbb 3e72 1f3c 965f f0ba e4d6 973b
000002a0: 415c 6eb9 0edb 27bc 8ff7 56bb e424 233c
000002b0: 920c 54bb d348 e439 e18b 323a 2de5 8d3a
000002c0: 4768 453c ccd3 8a3b 1080 a63b 8caf 6b3c
000002d0: c5e9 a53a e7ed 24bc 2210 b73b 46a9 613c
000002e0: c656 b0b9 58ae 4b3b bb03 da3c bc83 39bc
000002f0: bbda a8ba 035c 22ba 37ef 91bb 4277 353b
00000300: 4b51 de3b b55e 053c 6124 5bbc 8f97 b2b9
00000310: 1e00 5b3c 9302 bc3b f114 81bb af62 3e3b
00000320: 0c11 b8bb 0e11 1d3c 9eb6 4ebc 91db 40bb
00000330: f03a a2bb 7c89 afbb 2de1 ef3b 30c1 2e3c
00000340: 7b40 1c3c de92 ffbb 0a55 603b f02d 9a3b
00000350: 57f0 02bc ee4e 4b3b 0233 95bb 1169 6c3a
00000360: a277 08bc 67a4 fbbb 2a58 0d3c 83e1 d6bb
00000370: aad5 86ba e6dd 51bc 5c6d 66bc 7c89 a33b
00000380: d0bb 773c 12c5 183d c79c f2bb 9585 00bc
00000390: 7c02 f3b9 1b4e 86b9 d523 b4bc ba9c 6bbb
000003a0: 758b 963b 1355 e3ba fc71 143c 912d de3b
000003b0: d685 85b9 5696 38bc c1a6 983a 305b 743c
000003c0: de79 83bc ff9d cdbb 877f b4bb 148f 01bb
000003d0: 87ad 0cbb f5fd afbb 98a3 38bb 5aab 6fbc
000003e0: 301d e03a 5d8d dbbc c019 70bb 3f4a 633b
000003f0: 59c0 eebb 2715 183c bf6e 88ba 6686 e9bc
-0.0025642184 0.013340614 0.002378254 0.0088021485 0.0017865266 -0.0011085236 -0.046266656 -0.014170306
0.01741172 -0.004603315 0.00053026044 -0.004849232 0.0033563804 0.0006152855 0.0016887733 -0.004630386
0.0022067935 0.012129377 -0.0035151544 -0.012819683 -0.006909732 0.009987006 0.008924173 0.0006154338
-0.014707924 0.013129853 0.0049609845 0.014984913 0.006062786 0.020501554 -0.008704385 -0.017762125
-0.005830665 0.017306319 -0.004100536 0.0035923428 0.0011396095 0.015667202 -0.006682093 -0.008453383
0.009640104 0.0041241287 0.00018349862 -0.0033907613 0.005025091 0.0005194641 0.000542186 -0.006947518
0.01620837 -0.02423525 0.0036072668 -0.014819024 0.011002807 -0.0060837367 0.00030347408 -0.013930187
0.006221595 -0.011784584 0.019430453 -0.016158702 0.008266705 0.0054322877 -0.0204753 -0.0074245413
-0.004702754 0.014272979 -0.008399915 -0.01803363 -0.0027047945 -0.0036891983 0.003164752 -0.02249365
0.0019798914 0.0018555236 -0.009962212 0.003805396 -0.000934799 -0.026875835 -0.0027429345 -0.007426787
0.002594171 -0.011294214 0.0038137455 -0.03946631 -0.002246925 0.0022611767 -0.023665579 0.0011122136
0.0024716898 -0.011807706 0.01547859 0.0021559137 -0.00038479394 -0.0040167384 0.00986223 -0.0072012194
0.0074293567 0.0006408761 -0.00276899 0.016994363 -0.0032840974 -0.008489445 0.0023593 0.0056917896
-0.008570359 0.0005584165 0.010313635 0.0047129844 -0.004811678 -0.0012447335 0.006582925 0.0125636095
0.0007321608 0.010850818 0.0021977164 0.0042173807 0.0029787316 -0.0021794809 0.010596003 -0.0033372194
0.0031070644 0.0004551765 0.0037401435 -0.0004410239 0.003121075 -0.0050944476 0.009042121 -0.0023296434
0.010559753 0.0060782726 0.00838179 -0.007459404 0.006232678 -0.00060284283 -0.007773636 0.0013472396
0.0012683098 -0.006468494 0.006231677 0.019567149 -0.0017028189 0.005494985 0.010375619 0.0048962655
0.0020467583 0.0059579937 0.0036289762 0.0053748037 -0.009850481 0.006536973 0.0011820149 0.00028929333
-0.0006262369 -0.01848914 -0.020905862 0.0013069536 -0.0068457895 -0.012200351 0.005448922 0.009917275
-0.0063246293 -0.0014635122 -0.007979514 0.008283456 -0.0031250743 0.009731827 -0.0018339034 0.0046337713
-0.00022731816 -0.010245098 -0.0032801365 0.009957526 -0.0032356125 0.00043541807 0.0006811005 0.0010825746
0.012048787 0.004236674 0.005081184 0.014385115 0.001265817 -0.010066486 0.00558664 0.013773268
-0.00033633987 0.0031079259 0.026613107 -0.011322912 -0.001288257 -0.00061935204 -0.0044535655 0.0027689491
0.006784593 0.008140256 -0.013375373 -0.00034063726 0.013366727 0.0057376116 -0.003939264 0.002905052
-0.0056172665 0.009586586 -0.0126167815 -0.0029427747 -0.0049508736 -0.0053569656 0.007320544 0.010666177
0.009536858 -0.0077994904 0.0034230375 0.004705183 -0.007991872 0.0031022388 -0.0045531997 0.00090183417
-0.008329304 -0.0076795104 0.008626977 -0.006557645 -0.0010287066 -0.012809252 -0.014064159 0.0049907546
0.015120462 0.037297316 -0.007403943 -0.007844348 -0.00046350423 -0.00025616665 -0.021989742 -0.003595157
0.0045942613 -0.001734408 0.009060379 0.0067803343 -0.00025467452 -0.011266312 0.0011646376 0.014914319
-0.016049322 -0.006274938 -0.0055083665 -0.001976912 -0.0021465735 -0.00537085 -0.0028173681 -0.014628256
0.0017098542 -0.026800806 -0.0036636442 0.0034681705 -0.007286113 0.009282387 -0.0010408981 -0.028506469

motion_mlp.mlps.4.fc0.fc.bias f4 [50]
00000000: 7366 ea35 9994 e435 67b2 fd33 15ca 39b6
00000010: 2464 14b6 1cf6 9b35 0bab 1e34 c5ed 9a35
00000020: a278 fc35 23b2 e3b4 862d 38b5 b540 2635
00000030: 704e f234 9d66 70b4 390b 3335 d783 2136
00000040: dfb3 8a35 b95e e234 d7e7 b9b5 4811 c0b5
00000050: b8fe 04b5 84d6 84b5 8b5c d9b4 946c 5734
00000060: 6064 8ab3 a583 1c36 e790 09b6 5ef0 7935
00000070: 8cc3 cf32 4ff1 bdb5 89ea 1236 9690 36b3
00000080: e3dd 0d35 8371 7435 cd56 06b5 009e 7635
00000090: 1a8b 1fb5 47cf 2ab4 27df a6b5 e6b3 cfb4
000000a0: 2727 50b5 accb 3cb4 a707 4db5 cb55 c534
000000b0: 69cb c0b5 7036 9035 2793 b4af 1764 cdb5
000000c0: 9290 e2b4 7161 d4b2
1.7464175e-06 1.7030571e-06 1.1813682e-07 -2.7684775e-06 -2.2112008e-06 1.1620027e-06 1.4777122e-07 1.1543094e-06
1.8810572e-06 -4.2411656e-07 -6.8611587e-07 6.193398e-07 4.5133083e-07 -2.2389072e-07 6.669903e-07 2.406761e-06
1.0334151e-06 4.21647e-07 -1.3851048e-06 -1.4310144e-06 -4.9544497e-07 -9.897199e-07 -4.0486734e-07 2.0062936e-07
-6.444384e-08 2.3322439e-06 -2.0498935e-06 9.310951e-07 2.4186896e-08 -1.4151827e-06 2.1892213e-06 -4.2506677e-08
5.284948e-07 9.1062265e-07 -5.00452e-07 9.187206e-07 -5.9434535e-07 -1.5907891e-07 -1.243291e-06 -3.8687648e-07
-7.754301e-07 -1.758296e-07 -7.6379587e-07 3.6756532e-07 -1.4364315e-06 1.074468e-06 -3.2846367e-10 -1.530282e-06
-4.220097e-07 -2.472436e-08
