src/siMLPe/exps/baseline_amass/log/snapshot/model-iter-90000.pth (torch, 604338 bytes, 196 tensors)

motion_mlp.mlps.0.fc0.fc.weight f4 [50, 50]
-0.05728495 -0.0951486 0.02603802 -0.051913835 0.022908427 -0.016307164 0.03093151 -0.04865426
0.0021486091 -0.03638548 -0.00013562593 -0.033648845 -0.003051399 -0.020179247 -0.009013596 -0.016314756
-0.007784384 -0.0154026225 -0.008017518 -0.02041492 -0.01620273 -0.00961186 -0.01015332 -0.019310083
-0.007622836 -0.015221361 -0.010674788 -0.012132624 -0.0077386345 -0.008260999 -0.009992185 -0.006744686
-0.0073408037 -0.0059195734 -0.0075230333 -0.0036443593 -0.007643398 -0.0024804096 -0.008474482 -0.0015212108
-0.006205315 -0.00091652427 -0.0062544676 -0.0005628348 -0.0032917762 -0.0011121791 -0.0023883882 5.904593e-05
-0.0022072936 -0.0013956776 -0.00058533443 -0.0809901 0.0028560548 -0.004519051 -0.026828524 -0.0038732502
-0.035259195 0.0070421225 -0.021016896 -0.023709768 -0.0011782114 -0.025216725 0.0011445448 -0.0063769566
-0.010461543 -0.004466555 -0.012730785 -0.005198009 -0.004938582 -0.009820015 -0.007905971 -0.014235438
-0.006819143 -0.011233537 -0.00477618 -0.012685208 -0.0066318177 -0.011689382 -0.007404881 -0.010313444
-0.008583932 -0.0073447493 -0.01219213 -0.008723635 -0.0124673275 -0.0078901965 -0.012811524 -0.00753961
-0.012736178 -0.007106644 -0.01239318 -0.008301869 -0.012278626 -0.0082464395 -0.012386547 -0.008727437
-0.010672607 -0.009267463 -0.009983558 -0.009715919 -0.0017294022 -0.037842076 0.011755731 -0.012134681
0.004814915 -0.033077866 0.014757175 0.0045063896 0.019641275 -0.019543204 0.021022992 -0.013405731
0.03239669 0.0012479029 0.03328716 0.014935847 0.022558019 0.012298186 0.034139123 0.010389302
0.030772764 0.008062173 0.024727289 0.012133426 0.027015336 0.006992013 0.022105092 0.012733823
0.021883044 0.020967696 0.017195702 0.02228024 0.017571557 0.024059406 0.014322764 0.02709289
0.015542229 0.027706735 0.014838025 0.028565217 0.014937217 0.028641343 0.016560715 0.028214099
0.01973575 0.026850918 0.021066172 0.02647121 0.023190966 0.02534562 -0.009500693 0.040304814
-0.02544808 0.023703437 -0.037048265 0.042881593 -0.024735797 0.04607675 -0.013133993 0.04453264
-0.019279424 0.04696617 -0.008258567 0.034605745 -0.0029540579 0.02799102 0.01136707 0.025920993
0.01032212 0.036963515 0.012379212 0.030560773 0.014984871 0.033177927 0.0177081 0.032681946
0.020585084 0.027664283 0.018752955 0.025116986 0.020306133 0.02188615 0.020240506 0.019232057
0.019899549 0.018509464 0.017049264 0.017855462 0.018510802 0.015345787 0.017913679 0.013836097
0.0172261 0.013250822 0.014888649 0.01300323 0.013217871 0.012154167 0.013525937 0.012766798
0.0006133674 -0.024888843 0.022927867 0.013063206 -0.07936739 -0.022180015 -0.012783416 -0.02543407
-0.022281634 -0.011321056 -0.016984485 -0.020146832 -0.032656103 -0.021940615 -0.029836278 -0.012687201
-0.026910076 -0.011410205 -0.010877626 -0.008595139 -0.014565391 0.0023606175 -0.0048343246 0.0029030445
-0.008629437 0.007095194 -0.0037899583 0.012185634 -0.0014732742 0.009841622 0.001292065 0.0069515915
0.00522606 0.009554215 0.007796751 0.009403991 0.008065857 0.010050664 0.0115779545 0.011544497
0.010226728 0.011407687 0.011631822 0.012762394 0.01321209 0.01154707 0.014150156 0.013276481
0.01397119 0.014310552 0.002679719 -0.0137175005 0.011552558 0.007991549 -0.008324238 -0.06298264
00000000: a0a3 6abd 45dd c2bd b04d d53c 9aa3 54bd
00000010: 74aa bb3c 9a96 85bc 1464 fd3c b049 47bd
00000020: aecf 0c3b f108 15bd cf36 0eb9 5fd3 09bd
00000030: fbf9 47bb f34e a5bc c3ad 13bc 86a6 85bc
00000040: 2514 ffbb 485b 7cbc e85b 03bc 313d a7bc
00000050: 96bb 84bc 107b 1dbc 1c5a 26bc 2e30 9ebc
00000060: fcc8 f9bb 0463 79bc 4ee5 2ebc eac7 46bc
00000070: 5f94 fdbb 2459 07bc 43b6 23bc 8702 ddbb
00000080: 208b f0bb fbf8 c1bb c783 f6bb 34d6 6ebb
00000090: 7875 fabb 5e8e 22bb 8ed8 0abc 5d63 c7ba
000000a0: f455 cbbb e742 70ba 47f2 ccbb 348b 13ba
000000b0: d7ba 57bb 8ac6 91ba 8186 1cbb 16a8 7738
000000c0: 3ea8 10bb 2bef b6ba 2171 19ba 23de a5bd
000000d0: a62c 3b3b 8c14 94bb 7ec7 dbbc 5bd6 7dbb
000000e0: f26b 10bd 9bc1 e63b a02b acbc fd3a c2bc
000000f0: 376e 9aba 4e93 cebc 8d04 963a caf5 d0bb
00000100: e466 2bbc 2e5c 92bb c894 50bc 0f54 aabb
00000110: d4d3 a1bb 21e4 20bc 0c88 01bc c13b 69bc
00000120: 1e73 dfbb df0c 38bc 8081 9cbb 9ed5 4fbc
00000130: b84f d9bb d284 3fbc a5a4 f2bb b8f9 28bc
00000140: 9fa3 0cbc 39ac f0bb 80c1 47bc 94ed 0ebc
00000150: c343 4cbc e245 01bc 6de7 51bc d50e f7bb
00000160: 67ab 50bc dade e8bb c40c 4bbc 9004 08bc
00000170: 4a2c 49bc 131c 07bc f2f0 4abc 86fd 0ebc
00000180: 29dc 2ebc 8fd6 17bc 1492 23bc 852f 1fbc
00000190: 1cad e2ba 4b00 1bbd 1c9b 403c 8bd0 46bc
000001a0: 6fc6 9d3b a87c 07bd 14c8 713c 56aa 933b
000001b0: bde6 a03c 1219 a0bc 6938 ac3c b6a3 5bbc
000001c0: 64b2 043d ac90 a33a 1e58 083d 7cb5 743c
000001d0: 98cb b83c 557e 493c 77d5 0b3d e437 2a3c
000001e0: 2a17 fc3c 3417 043c e290 ca3c 47cb 463c
000001f0: 444f dd3c 421d e53b bd15 b53c 86a1 503c
00000200: 1244 b33c 72c4 ab3c 00de 8c3c 0d85 b63c
00000210: 3af2 8f3c 3b18 c53c 07aa 6a3c e9f1 dd3c
00000220: d5a4 7e3c 3cf9 e23c 301b 733c 9a01 ea3c
00000230: 3bbb 743c 40a1 ea3c 56aa 873c 4121 e73c
00000240: deac a13c 75f6 db3c f792 ac3c 27da d83c
00000250: fbfa bd3c 9ea1 cf3c cba8 1bbc a916 253d
00000260: 7e78 d0bc b62d c23c ecbf 17bd 9ca4 2f3d
00000270: baa2 cabc f9ba 3c3d f62f 57bc dc67 363d
00000280: e2ef 9dbc 995f 403d f14e 07bc c1be 0d3d
00000290: de98 41bb 6c4d e53c f23c 3a3c 4358 d43c
000002a0: 1c1e 293c 0e67 173d 2ed2 4a3c 965a fa3c
000002b0: 1b83 753c 94e5 073d 9410 913c 81dd 053d
000002c0: 0da2 a83c 35a0 e23c cc9f 993c 23c2 cd3c
000002d0: 0c59 a63c 954a b33c 6bcf a53c 8c8c 9d3c
000002e0: 6104 a33c 29a1 973c e6aa 8b3c 9e45 923c
000002f0: f7a3 973c e56c 7b3c b5bf 923c ccb0 623c
00000300: c01d 8d3c fa19 593c 85ef 733c 800b 553c
00000310: c58f 583c 4522 473c e49b 5d3c d52b 513c
00000320: 64ca 203a b0e3 cbbc 39d3 bb3c 0f07 563c
00000330: 5f8b a2bd ddb2 b5bc 8871 51bc 1c5b d0bc
00000340: f987 b6bc f37b 39bc 0c23 8bbc f80a a5bc
00000350: 68c2 05bd cebc b3bc 366b f4bc fadd 4fbc
00000360: 8572 dcbc def1 3abc 1238 32bc a0d2 0cbc
00000370: ada3 6ebc 97b4 1a3b 4169 9ebb 0141 3e3b
00000380: 7b62 0dbc cd7e e83b f360 78bb 41a6 473c
00000390: e11a c1ba c13e 213c 825a a93a 2dca e33b
000003a0: 5e3f ab3b 4889 1c3c e37b ff3b 3213 1a3c
000003b0: a826 043c 8aab 243c 76b1 3d3c 2125 3d3c
000003c0: 028e 273c 4fe7 3a3c 6693 3e3c 5c19 513c
000003d0: 8677 583c ec2f 3d3c 0ed6 673c 9985 593c
000003e0: 6be7 643c ce76 6a3c 399e 2f3b 5ebf 60bc
000003f0: f146 3d3c fcee 023c 6262 08bc 0bfd 80bd

motion_mlp.mlps.0.fc0.fc.bias f4 [50]
2.0956639e-05 -1.615311e-05 -3.8063907e-05 3.487428e-06 1.0552815e-05 1.1416729e-05 -3.5334917e-05 4.826784e-05
-2.6322597e-05 4.753663e-05 3.3689765e-05 -1.775877e-05 -1.9544925e-05 1.8015815e-05 -2.1223175e-05 4.1511215e-05
-5.8813794e-07 -7.1543855e-06 1.4672061e-06 -2.702532e-05 -0.00046429175 -2.3897896e-05 6.865398e-05 -1.1646167e-05
2.7049806e-05 -1.3830596e-05 5.4533728e-05 -4.664964e-05 7.315851e-06 3.5261342e-05 -7.9409557e-07 -3.6779897e-05
-1.6869924e-05 4.5460834e-05 5.1735724e-06 -0.00018385024 0.00017840462 6.804063e-06 -5.3017307e-06 -2.3087872e-05
-1.3068632e-05 4.8475238e-05 -1.6116759e-05 3.0410642e-05 9.422711e-05 -1.7070299e-05 -2.2371007e-05 1.3094215e-05
-1.011978e-05 -2.2420609e-05
00000000: 0acc af37 8a80 87b7 cfa6 1fb8 8f09 6a36
00000010: ff0b 3137 7a8a 3f37 9434 14b8 3373 4a38
00000020: 59cf dcb7 1162 4738 1c4e 0d38 abf8 94b7
00000030: 68f4 a3b7 ab20 9737 6c08 b2b7 541c 2e38
00000040: 88e0 1db5 b40f f0b6 d1ec c435 6fb4 e2b7
00000050: 2f6c f3b9 5778 c8b7 53fa 8f38 e863 43b7
00000060: 04e9 e237 f509 68b7 25bb 6438 aba9 43b8
00000070: ae7a f536 94e5 1338 d529 55b5 1d44 1ab8
00000080: e383 8db7 33ad 3e38 a698 ad36 ecc7 40b9
00000090: 2012 3b39 754e e436 85e5 b1b6 d4ac c1b7
000000a0: 5941 5bb7 e451 4b38 7a32 87b7 5b1a ff37
000000b0: cb9b c538 3032 8fb7 5fa9 bbb7 3aaf 5b37
000000c0: 20c8 29b7 e413 bcb7

motion_mlp.mlps.0.norm0.alpha f4 [1, 54, 1]
0.10418139 0.11149722 0.09929739 0.10869637 0.14847778 0.06954588 0.13341197 0.105338275
0.13887954 0.15228577 0.09734762 0.16641283 0.17298454 0.13776734 0.119156465 0.1314294
0.117029145 0.11025342 0.15577324 0.1614795 0.1529928 0.15987779 0.1658401 0.17435612
0.10872777 0.10453722 0.20883742 0.1670608 0.14755698 0.15297943 0.14953224 0.000104195
0.1338062 0.09230933 0.115661986 0.13146721 0.10124297 0.18396875 0.11495412 0.10033728
0.13387473 0.106271066 0.13926972 0.11856346 0.17190248 0.12735683 0.15911648 0.10824986
0.101442575 0.10715342 0.18853258 0.1020438 0.20599902 0.14313821
00000000: 0d5d d53d a858 e43d 6e5c cb3d 349c de3d
00000010: 8f0a 183e 126e 8e3d 269d 083e 98bb d73d
00000020: 7036 0e3e cdf0 1b3e 305e c73d 2068 2a3e
00000030: dc22 313e e212 0d3e 4e08 f43d 6e95 063e
00000040: faac ef3d 8ccc e13d 0583 1f3e e25a 253e
00000050: 25aa 1c3e 01b7 233e fdd1 293e 698a 323e
00000060: aaac de3d 9c17 d63d 7ad9 553e fd11 2b3e
00000070: 2d19 173e a4a6 1c3e fb1e 193e 4483 da38
00000080: 7e04 093e ad0c bd3d 31e0 ec3d 579f 063e
00000090: 7958 cf3d 4e62 3c3e 116d eb3d a27d cd3d
000000a0: 7516 093e a5a4 d93d b99c 0e3e 66d1 f23d
000000b0: 3407 303e d469 023e 6eef 223e 1ab2 dd3d
000000c0: 20c1 cf3d 4173 db3d af0e 413e 57fc d03d
000000d0: 68f1 523e d392 123e

motion_mlp.mlps.0.norm0.beta f4 [1, 54, 1]
-0.00242374 0.00018287732 0.011725617 0.00081599416 0.0020879735 -0.0014778146 -7.3834475e-05 0.000705956
6.8813504e-05 -0.0011624303 0.007285412 0.0009738063 0.00041147807 0.0001015688 0.00040655994 0.00024369787
0.0014579855 -0.0011157391 0.0017621312 0.0006129412 0.0007221004 6.9310736e-06 -0.0001456199 0.0011348533
-0.0039272197 -0.00057785073 0.0026307672 0.00048822706 -0.0011301786 0.001413699 -0.00019982771 0.08810746
0.0011488323 -0.0015815162 -0.001137416 0.0006753233 0.000856252 -0.0045670723 -3.0709582e-06 0.0010034494
-0.00035143955 -0.000983513 0.0005106752 -0.0002505412 0.0012992366 0.001528382 0.00049521006 -0.003207615
-0.0015719869 -0.0068181707 0.0018280328 -0.00011187612 -0.0005660518 0.0008824034
00000000: 9cd7 1ebb c2c2 3f39 cd1c 403c 71e8 553a
00000010: 62d6 083b 3bb3 c1ba 95d7 9ab8 e80f 393a
00000020: f84f 9038 b05c 98ba 77ba ee3b 0947 7f3a
00000030: a7bb d739 5601 d538 8d27 d539 2689 7f39
00000040: e019 bf3a fe3d 92ba 50f7 e63a caad 203a
00000050: 564b 3d3a 7891 e836 8bb1 18b9 5cbf 943a
00000060: e8af 80bb e87a 17ba f368 2c3b baf8 ff39
00000070: 8022 94ba de4b b93a d888 51b9 af71 b43d
00000080: 6a94 963a e14a cfba 5915 95ba 2e08 313a
00000090: 1976 603a 61a7 95bb a916 4eb6 2d86 833a
000000a0: 6b41 b8b9 38e9 80ba d5de 053a 125b 83b9
000000b0: 254b aa3a fd53 c83a fcd0 013a da36 52bb
000000c0: 210b ceba f66a dfbb 9a9a ef3a 099f eab8
000000d0: 1863 14ba 1751 673a

motion_mlp.mlps.1.fc0.fc.weight f4 [50, 50]
-0.057878707 -0.042839278 0.06143683 -0.033622134 0.008893707 0.008245642 0.013162528 -0.0051834653
-0.008724405 -0.036786903 0.004473546 0.018408004 0.014200061 -0.002101347 -0.010895757 -0.010278416
-0.009135075 -0.025837107 -0.026646333 -0.0174821 -0.06573122 -0.05179702 -0.020871527 0.00021173766
-0.006814323 0.005722449 0.024021434 0.000102539016 -0.0070100506 0.0016419865 -0.035291173 -0.01919966
-0.019436942 -0.020280305 -0.027532728 -0.026855806 -0.0035541374 0.018130746 -0.017693441 -0.002087365
0.0035442843 0.0006659701 0.005668095 -0.028434588 0.018901668 -0.029737303 -0.015988676 -0.041053995
0.029070875 -0.010618979 -0.0033482455 -0.015538747 0.078359894 -0.022872087 -0.024378804 0.018902028
-0.05994859 0.0025744187 0.0035214657 -0.029690653 -0.0039104572 0.016535914 -0.010886242 0.016750304
0.022479037 -0.009415353 0.0040002214 0.028251294 0.002927139 -0.0122446455 0.068578124 0.012717332
0.04546294 -0.037065893 -0.025816148 0.003911853 0.058519285 0.022111442 -0.012904691 -0.005894168
-0.016550392 -0.01745493 -0.0028264245 0.012414368 -0.0061969184 0.032077845 0.0046189576 -0.01873411
-0.004058179 -0.0049191155 0.02675419 -0.024689266 0.0029241906 -0.0064486996 0.07813632 0.029139098
0.009857037 -0.008225154 0.02788967 -0.022031367 -0.0016109656 -0.012588297 -0.00727327 -0.02556974
0.0074891327 0.0049113077 -0.021377845 -0.00063166046 -0.022984194 0.017222676 0.011821211 -0.013978764
-0.010750799 0.013491495 0.015403047 -0.016554758 -0.005995603 0.009384291 -0.0047562798 -0.008224462
-0.029943446 0.018769957 -0.2509814 0.015146305 -0.0125111025 0.019481665 -0.025298381 -0.006236372
-0.031008754 0.0050087967 -0.026812213 0.008293198 0.01657562 0.0036872593 0.0064640413 -0.059098415
0.09842411 0.011527558 -0.00088974764 -0.0043028793 -0.026724946 -0.025813142 0.025097089 0.0051656277
-0.0039559607 0.009705162 0.0018293997 0.004000655 0.0034487222 0.0008158102 -0.02396531 0.033154026
0.03362922 0.015298984 0.02126922 0.033667475 -0.05621441 0.006217373 0.01717077 0.011725266
-0.0033411337 0.010395626 0.00462518 0.008123712 0.046570152 -0.040519744 -0.007950273 0.027396645
-0.0010120794 -0.0046031387 -0.008292605 0.020213578 -0.03679658 -0.023095487 -0.007964737 0.001363745
-0.009618097 -0.00975906 -0.0281214 -0.028059842 0.044455152 0.030935492 0.032763384 0.03853925
-0.026434088 -0.009476844 0.025546504 -0.014252243 -0.009244297 -0.024347888 0.02811116 0.0067918203
-0.0020470982 0.01385615 -0.042662304 0.014150825 0.041085165 0.039663427 -0.0042475234 -0.001454741
-0.019568412 -0.013852643 -0.021965377 -0.033084363 -0.063936904 -0.014738178 0.07211831 -0.0024197262
-0.06374523 0.009166457 0.015558839 0.0050943415 -0.0037071363 0.012596544 0.023020834 0.021973878
-0.004507356 -0.0024202834 0.00043256115 -0.030089196 -0.015091602 0.0013842967 -0.008270795 -0.01621077
0.03822952 0.044613127 -0.04087519 -0.042971794 0.027368601 0.03844411 -0.032684 -7.8436795e-05
-0.023279343 -0.01229706 -0.02621772 -0.028186832 -0.0024217202 0.009512409 -0.0061335033 0.04053073
0.01762024 0.06849982 -0.016843164 -0.0042396546 0.038912315 0.015280281 -0.017669184 -0.04304333
0.011434128 0.0063597118 0.03617567 0.024715612 -0.030974982 0.032840952 0.010516516 -0.07336968
00000000: 3912 6dbd 3d78 2fbd 2fa5 7b3d 5db7 09bd
00000010: e9b6 113c bb18 073c a5a7 573c 0fda a9bb
00000020: cff0 0ebc ddad 16bd d396 923b 62cc 963c
00000030: 5fa7 683c c1b6 09bb 1e84 32bc cd66 28bc
00000040: 48ab 15bc 57a8 d3bc 6949 dabc 9f36 8fbc
00000050: 179e 86bd 1d29 54bd c4fa aabc e505 5e39
00000060: af4a dfbb 6283 bb3b 99c8 c43c 370a d738
00000070: 91b4 e5bb ed37 d73a 7a8d 10bd 9b48 9dbc
00000080: 393a 9fbc e222 a6bc 518c e1bc b500 dcbc
00000090: 88ec 68bb ee86 943c d6f1 90bc 2ccc 08bb
000000a0: 3947 683b 7f94 2e3a 6dbb b93b a7ef e8bc
000000b0: acd7 9a3c a59b f3bc affa 82bc 3c28 28bd
000000c0: 0b26 ee3c 3afb 2dbc 3d6e 5bbb 3b96 7ebc
000000d0: 277b a03d 3e5e bbbc 0fb6 c7bc 6dd8 9a3c
000000e0: a78c 75bd 94b7 283b 64c8 663b d039 f3bc
000000f0: 4b23 80bb 5376 873c 355c 32bc ef37 893c
00000100: f525 b83c da42 1abc 4a14 833b 426f e73c
00000110: 3ed5 3f3b c49d 48bc b072 8c3d 5b5c 503c
00000120: 5937 3a3d 68d2 17bd 637c d3bc 002f 803b
00000130: ebb1 6f3d 0e23 b53c 326e 53bc dd23 c1bb
00000140: b094 87bc a4fd 8ebc 893b 39bb a265 4b3c
00000150: 850f cbbb 0f64 033d a05a 973b 4778 99bc
00000160: 79fa 84bb 8830 a1bb 9a2b db3c 2541 cabc
00000170: c7a3 3f3b 9d4f d3bb ef05 a03d 1eb5 ee3c
00000180: 697f 213c ccc2 06bc e178 e43c 207b b4bc
00000190: 0927 d3ba 253f 4ebc 9c54 eebb a277 d1bc
000001a0: 6667 f53b 09ef a03b 9720 afbc 0496 25ba
000001b0: 5949 bcbc 9216 8d3c c1ad 413c 3007 65bc
000001c0: 1f24 30bc 6e0b 5d3c 105d 7c3c d89d 87bc
000001d0: c376 c4bb 92c0 193c 91da 9bbb e5bf 06bc
000001e0: f54b f5bc 74c3 993c a280 80be 3528 783c
000001f0: 5efb 4cbc 0398 9f3c 8d3e cfbc 7b5a ccbb
00000200: 1206 febc d520 a43b 49a5 dbbc 32e0 073c
00000210: 98c9 873c f2a5 713b 4fd0 d33b 2e11 72bd
00000220: 9492 c93d 15de 3c3c f43d 69ba 2bff 8cbb
00000230: 46ee dabc 1576 d3bc 6998 cd3c 6d44 a93b
00000240: 01a1 81bb 6602 1f3c 78c8 ef3a ed17 833b
00000250: f503 623b 19dc 553a e652 c4bc 84cc 073d
00000260: cbbe 093d 97a8 7a3c ca3c ae3c e8e6 093d
00000270: 1541 66bd 1bbb cb3b b7a9 8c3c 551b 403c
00000280: ecf6 5abb 6a52 2a3c d28e 973b 5119 053c
00000290: 58c0 3e3d 08f8 25bd dd41 02bc ee6e e03c
000002a0: c0a7 84ba edd5 96bb b5dd 07bc f296 a53c
000002b0: 03b8 16bd bf32 bdbc 877e 02bc b0bf b23a
000002c0: 3995 1dbc 77e4 1fbc da5e e6bc c1dd e5bc
000002d0: 9b16 363d 6e6c fd3c e632 063d 55db 1d3d
000002e0: 4d8c d8bc c444 1bbc e746 d13c 3d82 69bc
000002f0: 6475 17bc 3975 c7bc 6049 e63c eb8d de3b
00000300: 9c28 06bb e804 633c abbe 2ebd ddd8 673c
00000310: eb48 283d 1e76 223d cf2e 8bbb 02ad beba
00000320: ef4d a0bc 32f6 62bc bcf0 b3bc 7883 07bd
00000330: 5af1 82bd 6678 71bc c4b2 933d 4594 1ebb
00000340: dc8c 82bd e82e 163c 80ea 7e3c 6fee a63b
00000350: 6df3 72bb bc61 4e3c 3096 bc3c 9002 b43c
00000360: 71b2 93bb 9e9d 1ebb 60c9 e239 9e7d f6bc
00000370: c442 77bc 4a71 b53a 3b82 07bc 73cc 84bc
00000380: 8f96 1c3d 41bc 363d be6c 27bd 3103 30bd
00000390: 1e34 e03c 9277 1d3d a8df 05bd 6f7e a4b8
000003a0: 52b4 bebc 9c79 49bc 8bc6 d6bc 12e8 e6bc
000003b0: b9b5 1ebb efd9 1b3c 8efb c8bb 8d03 263d
000003c0: 5258 903c a249 8c3d adfa 89bc cdec 8abb
000003d0: 8562 1f3d 255a 7a3c f7be 90bc 344e 30bd
000003e0: 3556 3b3c 2165 d03b f02c 143d 6578 ca3c
000003f0: 3fbf fdbc 3c84 063d 774d 2c3c d842 96bd

motion_mlp.mlps.1.fc0.fc.bias f4 [50]
-1.7182431e-06 -3.6104698e-06 -1.7777611e-05 -9.066098e-06 -3.1648715e-06 -1.4949909e-05 -9.689142e-07 -7.5104776e-06
-7.0951946e-06 -1.1334451e-05 -7.715211e-07 4.4168396e-06 5.208426e-06 6.1987123e-07 -3.0132728e-07 1.9075687e-06
-5.1826737e-07 -8.398374e-06 -7.1868944e-06 -8.991557e-06 -9.414065e-06 1.9457361e-06 4.1717602e-08 9.196503e-06
1.9498307e-06 3.0749763e-06 1.4929248e-07 2.0686331e-05 -1.0687594e-06 4.2497445e-06 1.7397372e-06 -2.3523544e-06
-9.746699e-06 -5.64568e-06 -8.983905e-06 4.607314e-06 -1.5105981e-05 6.541777e-06 2.1678328e-05 2.5360054e-05
2.2041272e-06 8.941256e-06 3.6034933e-07 -4.5219645e-06 -1.8092948e-06 6.8913464e-06 7.963956e-06 3.9836737e-06
-6.771288e-07 1.587381e-06
00000000: 629e e6b5 664b 72b6 2121 95b7 981a 18b7
00000010: 1464 54b6 5fd1 7ab7 a30b 82b5 8302 fcb6
00000020: 4213 eeb6 1929 3eb7 871a 4fb5 5d34 9436
00000030: 0ac4 ae36 3a65 2635 1bc6 a1b4 c803 0036
00000040: 101f 0bb5 bee6 0cb7 f426 f1b6 71da 16b7
00000050: 1af1 1db7 7e93 0236 fd2c 3333 ae4a 1a37
00000060: d6d9 0236 b15b 4e36 344d 2034 8f87 ad37
00000070: 4b72 8fb5 0799 8e36 ea80 e935 24dd 1db6
00000080: c185 23b7 0670 bdb6 94b9 16b7 8798 9a36
00000090: b26f 7db7 7081 db36 dbd9 b537 4dbc d437
000000a0: 9eea 1336 6702 1637 0976 c134 61bb 97b6
000000b0: e5d6 f2b5 373c e736 ee9c 0537 7fab 8536
000000c0: f0c3 35b5 ff0d d535

motion_mlp.mlps.1.norm0.alpha f4 [1, 54, 1]
0.070781305 0.06045612 0.15272374 0.07966082 0.063761264 0.07843326 0.05820738 0.07223347
0.058036964 0.10317553 0.12478516 0.059830256 0.07272498 0.07195779 0.049465857 0.07789324
0.071013674 0.06924928 0.07985174 0.17511424 0.062039763 0.06973741 0.07974146 0.07106461
0.08476589 0.075617544 0.06003947 0.055508725 0.05934925 0.066898905 0.07216001 0.027013011
0.038851634 0.054350708 0.08639851 0.055518765 0.06289745 0.086041875 0.060697917 0.0852951
0.07029438 0.06918723 0.07692496 0.06527369 0.06967586 0.07805723 0.17862235 0.06618092
0.08051673 0.11616579 0.06431064 0.07184736 0.06386643 0.09822852
00000000: caf5 903d d6a0 773d 9d63 1c3e 3625 a33d
00000010: 4495 823d 9ea1 a03d dd6a 6e3d 24ef 933d
00000020: 2bb8 6d3d b14d d33d 5d8f ff3d 9210 753d
00000030: d6f0 943d 9b5e 933d b69c 4a3d 7e86 9f3d
00000040: 9e6f 913d 91d2 8d3d 4f89 a33d 2651 333e
00000050: 681d 7e3d 7dd2 8e3d 7e4f a33d 528a 913d
00000060: bd99 ad3d 5fdd 9a3d f3eb 753d 1e5d 633d
00000070: 3318 733d 4b02 893d a1c8 933d 644a dd3c
00000080: e422 1f3d d99e 5e3d b4f1 b03d a567 633d
00000090: 61d0 803d b936 b03d 619e 783d 33af ae3d
000000a0: 80f6 8f3d 09b2 8d3d d58a 9d3d 36ae 853d
000000b0: 38b2 8e3d 78dc 9f3d c7e8 363e dd89 873d
000000c0: f5e5 a43d 54e8 ed3d 4cb5 833d b524 933d
000000d0: 67cc 823d 092c c93d

motion_mlp.mlps.1.norm0.beta f4 [1, 54, 1]
-0.010842985 0.008238591 0.0016053945 -0.005518215 0.0014819278 -0.003995835 -0.0067588175 -0.0017721894
-0.004898593 -0.029114293 0.022771334 -0.0016429984 -0.0024393287 -0.0067068622 0.00087447517 0.018518357
0.0060898475 0.0063678976 -0.020774027 0.011675166 0.000864592 -0.005080081 -0.006157046 -0.001892074
0.013725593 0.013708174 0.000118002696 0.0019015553 -0.0053407154 -0.0027305111 0.0014125276 0.009064399
-0.01935707 -0.0015402427 -0.020265302 0.008370357 0.0016411862 0.054568924 -0.00047499218 0.02297839
0.0011961678 -0.005971741 -8.726029e-05 0.0013798451 -0.0045883157 0.0023897926 -0.0019736257 -0.014259555
-0.0023810836 0.017199954 -0.004051742 -0.014831076 0.010011642 -0.013191247
00000000: c6a6 31bc 28fb 063c 1a6c d23a 24d2 b4bb
00000010: 3f3d c23a 7eef 82bb 1279 ddbb cf48 e8ba
00000020: 6084 a0bb 1981 eebc f38a ba3c e159 d7ba
00000030: 25dd 1fbb 3dc5 dbbb 093d 653a cfb3 973c
00000040: 588d c73b cca9 d03b 4b2e aabc 3249 3f3c
00000050: c9a5 623a cf76 a6bb 0cc1 c9bb 78ff f7ba
00000060: 4fe1 603c 4098 603c 3778 f738 9c3d f93a
00000070: 2b01 afbb 60f2 32bb 9024 b93a d882 143c
00000080: b892 9ebc f8e1 c9ba 6b03 a6bc d223 093c
00000090: 121d d73a aa83 5f3d 5f08 f9b9 2d3d bc3c
000000a0: bbc8 9c3a 98ae c3bb 83ff b6b8 ebdb b43a
000000b0: 9559 96bb 119e 1c3b f257 01bb e9a0 69bc
000000c0: f40b 1cbb ebe6 8c3c 7ac4 84bb 0bfe 72bc
000000d0: df07 243c 1a20 58bc

motion_mlp.mlps.2.fc0.fc.weight f4 [50, 50]
-0.022100598 -0.025299102 0.006425141 -0.03531834 -0.002946058 -0.0031259542 -0.039194908 -0.0076559093
0.026533805 -0.015933955 -0.016660564 0.0058931075 -0.014471838 -0.0026107496 -0.007172062 -0.07730417
-0.0001757859 -0.040912345 0.0111683905 0.067896895 -0.0275815 -0.015804667 -0.018793525 -0.020123908
0.031656094 -0.0014889971 -0.026240265 0.021016227 -0.018519692 -0.01839981 0.014545432 -0.028960738
-0.010432255 0.00072390446 -0.020970799 -0.008103825 -0.043378465 -0.012777838 -0.020843688 -0.017677944
0.0075996015 -0.010866792 0.025129998 -0.006752803 0.0023532289 -0.000833199 0.027418202 -0.018861908
0.022260692 -0.02233641 0.0056833425 -0.02968257 0.0039784107 -0.033452425 -0.016818885 -0.011076684
-0.005910445 -0.030227827 -0.0121621555 -0.02229216 -0.0033582621 0.006191239 -0.038831342 0.03622563
-0.0213547 -0.03631673 -0.017588664 0.00068918354 -0.010254143 0.040221415 -0.013172088 -0.0029830518
-0.045584828 0.019047515 -0.020679638 0.0030435224 -0.036317136 -0.012658265 -0.038675047 -0.018634671
-0.0038975158 0.0062265806 -0.014775344 0.02021575 0.005631277 -0.008457446 -0.02063222 -0.005729036
-0.017926453 -0.012757389 -0.01552731 0.009914508 -0.027131349 0.00100564 0.003282597 0.014977994
-0.009338034 0.0018540336 0.01399118 -0.0048462907 -0.0024724815 -0.011024147 0.003415808 -0.011686841
-0.00927069 0.03910299 -0.04849039 -0.0069524185 0.0072428575 -0.0008431051 -0.023292666 0.0051639494
0.009904576 0.005263837 -0.00797979 -0.046198208 -0.012785658 0.0018410109 0.010671748 0.01578437
-0.12174452 -0.009858399 -0.019404111 -0.004747574 -0.0062474883 -0.012397992 -0.0025166871 0.015544535
0.0022543168 0.004848666 0.0013919214 -0.010410674 -0.007736635 0.005418898 0.018260224 -0.0537433
-0.0060402905 0.0024230967 -0.020927234 0.15072958 -0.002875294 0.01862236 0.0117768105 0.025028393
0.0055018044 0.023883773 0.022154761 0.0106897475 0.0052190553 0.031377163 0.019546207 0.02765156
0.021103159 -0.062953465 -0.041007586 -0.009998066 0.02438943 -0.0030994248 0.023703638 -0.0038515385
0.012631525 -0.0022169775 -0.029728493 0.01123619 0.015537437 0.001806645 0.0048771277 -0.013196248
0.008521767 0.016485384 0.009491265 -0.0020544522 -0.017987281 0.07542573 -0.015237948 0.030622171
0.039203152 0.00066065445 -0.0028227242 0.019355888 0.030011535 0.0082915025 0.012317151 0.0070096473
0.008780492 0.0021322595 0.01739348 0.007459812 0.0083794035 0.017978817 -0.019034432 -0.012392286
-0.0051359343 0.018539898 -0.010265323 -0.031712797 0.016581792 0.0057643265 -0.002716983 0.002669478
0.02825236 0.0063128965 -0.0013444264 0.0020207441 -0.01424335 -0.03194521 -0.016810704 -0.023528177
0.021064505 -0.013163999 0.0042235316 -0.005644621 0.050800182 0.010654701 -0.017868275 -0.0022468441
0.007084921 -0.033183675 -0.0047216336 0.015303481 -0.026896317 0.0034337444 -0.053959005 -0.027220704
0.026252873 0.008714457 0.009699244 0.008802189 0.009430689 -0.011696108 0.01077286 0.06847889
0.016583234 -0.00764564 0.017458696 -0.029245796 -0.018180868 -0.0138314115 0.009524466 0.014728146
0.0051762313 -0.030338641 0.009744528 0.010394789 0.02403636 0.0062003667 -0.038733646 -0.002888974
-0.0072805393 -0.0007931664 -0.011730598 -0.057288334 0.0016778646 0.02352269 0.0036250078 -0.023067225
00000000: 500c b5bc 1040 cfbc fd89 d23b f7a9 10bd
00000010: a712 41bb cfdc 4cbb d78a 20bd 6cde fabb
00000020: 6c5d d93c ed87 82bc bc7b 88bc f81a c13b
00000030: 4a1b 6dbc 1c19 2bbb 9e03 ebbb a651 9ebd
00000040: 2b53 38b9 b493 27bd a0fb 363c 870d 8b3d
00000050: 99f2 e1bc ca78 81bc e1f4 99bc e5da a4bc
00000060: d2a9 013d 742a c3ba d3f5 d6bc 392a ac3c
00000070: 9cb6 97bc 33bb 96bc f74f 6e3c 123f edbc
00000080: 0dec 2abc 68c4 3d3a f4ca abbc e8c5 04bc
00000090: 9ead 31bd 235a 51bc 62c0 aabc 56d1 90bc
000000a0: 1406 f93b a10a 32bc 6ddd cd3c 9e46 ddbb
000000b0: a138 1a3b 0a6b 5aba 239c e03c 4a84 9abc
000000c0: 0e5c b63c d9fa b6bc 553b ba3b dc28 f3bc
000000d0: 545d 823b 6905 09bd c2c7 89bc fb7a 35bc
000000e0: 68ac c1bb 59a0 f7bc c743 47bc 0c9e b6bc
000000f0: 4a16 5cbb e1df ca3b 9d0d 1fbd 5461 143d
00000100: 0df0 aebc dac0 14bd 1a16 90bc 53aa 343a
00000110: fe00 28bc 36bf 243d becf 57bc 4e7f 43bb
00000120: 28b7 3abd 8909 9c3c 5868 a9bc d575 473b
00000130: 47c1 14bd 9d64 4fbc ba69 1ebd bda7 98bc
00000140: 776d 7fbb 5808 cc3b 4914 72bc 809b a53c
00000150: 9386 b83b 1991 0abc e704 a9bc a3ba bbbb
00000160: 7fda 92bc 5e04 51bc 4266 7ebc 7670 223c
00000170: 9042 debc aecf 833a d720 573b 4366 753c
00000180: 8efe 18bc 0b03 f33a 433b 653c a2cd 9ebb
00000190: 5b09 22bb a09e 34bc c0db 5f3b 2a7a 3fbc
000001a0: 18e4 17bc 752a 203d dc9d 46bd 1dd1 e3bb
000001b0: 7e55 ed3b d303 5dba 43d0 bebc 5936 a93b
000001c0: ce46 223c 447c ac3b aabd 02bc 553a 3dbd
000001d0: f07a 51bc 134e f13a 8ed8 2e3c 394e 813c
000001e0: 3155 f9bd 1f85 21bc 5ff5 9ebc 8a91 9bbb
000001f0: bbb7 ccbb f320 4bbc 01ef 24bb 81ae 7e3c
00000200: 29bd 133b 8fe1 9e3b 2271 b63a 8891 2abc
00000210: 9983 fdbb 0391 b13b 7796 953c ef21 5cbd
00000220: a1ed c5bb d1cc 1e3b 976f abbc db58 1a3e
00000230: 6e6f 3cbb eb8d 983c 86f3 403c 5808 cd3c
00000240: 7b48 b43b e7a7 c33c e77d b53c 0d24 2f3c
00000250: 9c04 ab3b 5785 003d 5e1f a03c 8685 e23c
00000260: 88e0 ac3c bfed 80bd 92f7 27bd eece 23bc
00000270: 58cc c73c b81f 4bbb 222e c23c 186a 7cbb
00000280: 75f4 4e3c b64a 11bb 2b89 f3bc ff17 383c
00000290: bc90 7e3c f2cc ec3a 50d0 9f3b 1335 58bc
000002a0: e29e 0b3c 5b0c 873c 4081 1b3c fda3 06bb
000002b0: 105a 93bc ce78 9a3d 96a8 79bc 59db fa3c
000002c0: 7c93 203d c52f 2d3a 74fd 38bb 3d90 9e3c
000002d0: c0da f53c 15d9 073c e0cd 493c 2fb1 e53b
000002e0: 0ddc 0f3c 61bd 0b3b c57c 8e3c 7071 f43b
000002f0: c449 093c 5048 933c 19ee 9bbc 0409 4bbc
00000300: 574b a8bb fce0 973c e32f 28bc 47e5 01bd
00000310: 8ad6 873c ade2 bc3b 690f 32bb 69f2 2e3b
00000320: 7e71 e73c 6adc ce3b 7737 b0ba 766e 043b
00000330: f15c 69bc fbd8 02bd 9ab6 89bc 2abe c0bc
00000340: 788f ac3c d0ad 57bc 8d65 8a3b 83f6 b8bb
00000350: da13 503d 0e91 2e3c 7d60 92bc ca3f 13bb
00000360: a028 e83b 9beb 07bd efb7 9abb 74bb 7a3c
00000370: aa55 dcbc ac08 613b 1e04 5dbd f4fd debc
00000380: 4410 d73c 15c7 0e3c 94e9 1e3c 0e37 103c
00000390: 2d83 1a3c 08a1 3fbc a680 303c a93e 8c3d
000003a0: 90d9 873c 4788 fabb 8a05 8f3c e194 efbc
000003b0: 0bf0 94bc 259d 62bc 810c 1c3c 524e 713c
000003c0: 609d a93b be88 f8bc 83a7 1f3c e84e 2a3c
000003d0: e7e7 c43c 722c cb3b 2ca7 1ebd f154 3dbb
000003e0: 9791 eebb 7fec 4fba b231 40bc 2ca7 6abd
000003f0: cbeb db3a a8b2 c03c 8a91 6d3b 7af7 bcbc

motion_mlp.mlps.2.fc0.fc.bias f4 [50]
-1.7085816e-06 -2.4547187e-06 -1.0237113e-06 -3.3315025e-06 5.645868e-06 -5.7393036e-06 -6.1515135e-07 1.206194e-07
4.902506e-07 -2.3627815e-06 -2.6804894e-06 -9.280724e-07 1.7242698e-07 1.3414925e-06 7.2512826e-06 5.7233938e-06
-8.761113e-06 7.400876e-06 -2.2225781e-06 -1.0270445e-06 -2.2178615e-06 -1.2470427e-07 2.0730865e-06 -3.391015e-06
-8.010695e-06 -2.5264399e-06 -4.2691457e-07 -5.5582077e-06 3.917887e-06 -1.3020986e-06 -3.4674586e-06 6.790114e-07
-9.871193e-07 2.7292455e-07 1.6497605e-06 -5.2694313e-06 -7.3853226e-07 4.040404e-06 -4.194588e-06 6.210675e-06
2.7564772e-06 -1.7286359e-06 -2.5953732e-06 3.928438e-06 -6.822625e-06 5.9430445e-06 -5.593214e-07 -2.6186873e-07
-5.8288043e-07 -4.6904e-06
00000000: 6b52 e5b5 bfbb 24b6 7466 89b5 c792 5fb6
00000010: a371 bd36 3e94 c0b6 e120 25b5 9c83 0134
00000020: c499 0335 4790 1eb6 75e2 33b6 a620 79b5
00000030: 5e24 3934 550d b435 0b50 f336 940b c036
00000040: b2fc 12b7 0a55 f836 9a27 15b6 fbd8 89b5
00000050: 92d6 14b6 73e6 05b4 5b1f 0b36 3291 63b6
00000060: ac65 06b7 e88b 29b6 b132 e5b4 a480 bab6
00000070: 6576 8336 c4c3 aeb5 7cb2 68b6 4f45 3635
00000080: 297d 84b5 7786 9234 576d dd35 12d0 b0b6
00000090: 8d3f 46b5 ce92 8736 3dbf 8cb6 4b65 d036
000000a0: ebfb 3836 7a03 e8b5 2c2c 2eb6 07d1 8336
000000b0: e7ed e4b6 5d6a c736 4624 16b5 f796 8cb4
000000c0: 3d77 1cb5 3b62 9db6

motion_mlp.mlps.2.norm0.alpha f4 [1, 54, 1]
0.061718043 0.049730513 0.05946276 0.043571047 0.028875628 0.03996127 0.03000744 0.031884387
0.037593205 0.05580017 0.063378215 0.03275291 0.036814284 0.037277646 0.03697289 0.04277973
0.046380036 0.033488546 0.048811436 0.107515916 0.031882476 0.03527329 0.034803346 0.029551307
0.056845944 0.063395 0.032879524 0.03376093 0.031563655 0.03447583 0.036961213 0.009492568
0.030084047 0.052039273 0.039667357 0.04345777 0.039818864 0.055853907 0.03960744 0.06679609
0.04190924 0.044322513 0.0427042 0.03097846 0.032059748 0.04189028 0.10128062 0.049500473
0.05335849 0.08245044 0.032623984 0.06181426 0.016292568 0.046970975
00000000: 0fcc 7c3d 39b2 4b3d 398f 733d 8e77 323d
00000010: 958c ec3c 6eae 233d 2ad2 f53c 3499 023d
00000020: 55fb 193d b88e 643d 70cc 813d ea27 063d
00000030: 93ca 163d 72b0 183d e370 173d cc39 2f3d
00000040: fef8 3d3d 492b 093d 80ee 473d 4e31 dc3d
00000050: 3397 023d ba7a 103d f48d 0e3d 9515 f23c
00000060: 4bd7 683d 3dd5 813d aeac 063d e748 0a3d
00000070: e448 013d 8736 0d3d a464 173d b786 1b3c
00000080: d272 f63c 2227 553d 3d7a 223d c600 323d
00000090: 1b19 233d 11c7 643d 693b 223d 63cc 883d
000000a0: 06a9 2b3d 868b 353d 99ea 2e3d 8ac6 fd3c
000000b0: 1551 033d 2495 2b3d 376c cf3d 02c1 4a3d
000000c0: 6f8e 5a3d c7db a83d baa0 053d f330 7d3d
000000d0: fe77 853c a364 403d

motion_mlp.mlps.2.norm0.beta f4 [1, 54, 1]
-0.01597205 -0.00078937743 0.048191212 0.001117245 -0.0003837169 0.0028562725 0.003018868 -0.004817893
0.0022837776 0.0115576545 0.04699794 0.0004958141 0.0029696065 0.010034465 -0.007448165 -0.010869464
-0.014583677 0.00084782275 0.004054612 -0.021667084 -0.00013429647 -0.0010165271 -0.0047158995 -0.0013792047
-0.018781036 -0.0060098916 -0.00087303686 -0.006708891 -0.0032609717 0.0020306176 0.0021577142 -0.00332171
0.020342667 0.0021534038 -0.02328105 -0.0036424825 0.00054254057 0.04034997 -0.009324196 -0.0069681923
-0.004108523 0.0065682717 0.007913286 -0.0012915293 0.0019351388 0.002033565 0.002536034 0.008963109
-0.0004986414 -0.012648657 -0.0025650049 -0.019900516 -0.0018463453 -0.008708041
00000000: d1d7 82bc 39ee 4eba 2664 453d 8570 923a
00000010: 9c2d c9b9 4d30 3b3b 33d8 453b 6adf 9dbb
00000020: 6eab 153b 515c 3d3c e980 403d 85f9 013a
00000030: bb9d 423b 9967 243c bd0f f4bb d615 32bc
00000040: 60f0 6ebc 6c40 5e3a 8ddc 843b 2b7f b1bc
00000050: efd1 0cb9 fd3c 85ba d587 9abb 6ec6 b4ba
00000060: b0da 99bc a0ee c4bb 83dc 64ba 42d6 dbbb
00000070: 07b6 55bb 1c14 053b 7068 0d3b 0cb1 59bb
00000080: aaa5 a63c 1f20 0d3b e7b7 bebc b7b6 6ebb
00000090: 4839 0e3a 0346 253d 83c4 18bc 6f55 e4bb
000000a0: caa0 86bb a83a d73b baa6 013c 8848 a9ba
000000b0: 7ca4 fd3a 8f45 053b 9733 263b 01da 123c
000000c0: 42b7 02ba 503c 4fbc a419 28bb 6806 a3bc
000000d0: 1101 f2ba 2cac 0ebc

motion_mlp.mlps.3.fc0.fc.weight f4 [50, 50]
-0.0004951024 -0.023342168 0.06802018 -0.01947589 -0.0036175572 -0.004142298 0.031243356 -0.0054363986
0.036325514 0.011103889 0.003913223 -0.025226424 -0.0009071128 0.0021613126 0.0011354521 0.041663695
0.009723023 0.022165176 -0.015558458 -0.009581147 -0.01973152 -0.0025590875 -0.035271768 -0.0064310986
0.020520106 0.01677165 0.0077193556 0.0005968288 -0.0014648645 0.019979503 -0.0089111915 0.0069983187
0.008410674 0.0036754622 0.027306646 -0.062717326 0.003436725 0.01989187 -0.02182708 0.040088262
0.012626186 0.013413795 0.022709476 0.032078568 -0.019866828 -0.018652821 -0.013918343 0.004486391
-0.025861524 -0.0021453542 0.0066112615 -0.073006 0.012957444 -0.038740285 0.01581374 0.0074561904
0.020528508 0.001456367 0.006883386 -0.026013492 -0.0007264897 0.029994778 -0.0139971 0.011406689
-0.00045743227 0.024351303 -0.011097943 -0.00995443 -0.008726426 0.025195062 0.019078653 -0.024878023
-0.015681645 0.06012691 -0.027821548 0.00016215406 -0.02579916 -0.002881008 0.010447722 0.0074499804
-0.047258064 -0.056203272 0.0059279087 -0.0052640974 0.003907509 -0.0037119715 -0.01585452 -0.02670576
0.012994326 0.0026316836 -0.009464924 -0.013882923 -0.0014878181 -0.0020072267 -0.032739792 -0.025061246
0.022700971 -0.016708607 0.0010568028 -0.014086208 0.0013809758 -0.0018144994 -0.044754833 -0.006529962
-0.0032917466 0.025583183 0.02023938 -0.048694395 0.0021287282 -0.02364344 0.0016158734 0.007614554
-0.005630608 -0.04929128 0.018343687 -0.023896048 -0.01843221 -0.02355626 0.01577035 -0.03380334
-0.023577563 -0.009479218 -0.020041373 -0.031211602 -0.0052308347 -0.031665113 0.052279904 -0.0014200078
-0.026336899 -0.0050441823 0.04386814 0.015000584 -0.023722477 0.008075185 -0.008843043 -0.007741333
-0.0013947167 0.005137789 0.03542691 0.007294397 0.013234779 0.004200187 -0.013833878 -0.015428759
0.016366575 0.00332466 -0.012393313 -0.0346376 -0.0054638633 0.024949111 -0.006597829 0.013306024
-0.0060557425 0.0019380808 0.007958299 -0.0035168591 -0.04183541 0.023107955 -0.0086014895 0.019739764
0.008195138 -0.009407925 0.00094815134 -0.025540201 -0.024250401 -0.013018627 0.009001981 -0.014950186
0.016982738 -0.042525303 -0.0050112386 -0.00085859135 0.023935081 -0.0067386697 0.0069662835 0.024362618
-0.0010056625 -0.07115176 0.027410828 0.038936827 -0.005569719 0.0433562 0.0063335756 0.011577536
0.012988378 0.008561384 0.028478678 0.008946607 -0.035333157 0.009801118 0.014225057 -0.01827679
-0.02004731 -0.04575577 -0.016620757 -0.0030874617 0.033945236 -0.0046194987 -0.020050926 0.0046783956
0.032146167 -0.023399888 -0.015726559 -0.003624519 0.015285958 -0.057415638 0.06129654 0.0020854012
-0.057171922 0.0032349355 -6.2650724e-05 -0.03230394 -0.03587691 0.021093363 -0.0026074531 0.00713141
0.020892886 -0.006601295 0.020826964 0.043795962 0.031407654 -0.017898466 -0.010419839 0.0222127
0.021314498 -0.01605556 -0.006707674 0.021337809 -0.011275936 -0.016816478 -0.04108823 0.0010507813
-0.020514125 -0.045110952 0.034749027 0.0051697176 -0.027954066 0.006118157 0.003948339 0.034740765
0.013095371 0.04587732 0.0027132973 -0.01186414 -0.01896879 0.0035255998 -0.01704332 0.019410385
0.007834092 -0.0089844605 0.010941033 -0.016863642 -0.00876768 -0.0057648215 -0.031896688 -0.01627414
00000000: c2c9 01ba 1338 bfbc 2a4e 8b3d e78b 9fbc
00000010: 8a14 6dbb 1dbc 87bb 11f2 ff3c d123 b2bb
00000020: 10ca 143d 16ed 353c 7e3a 803b a5a7 cebc
00000030: 4fcb 6dba cfa4 0d3b 73d3 943a 8da7 2a3d
00000040: 504d 1f3c be93 b53c e7e8 7ebc 3efa 1cbc
00000050: ffa3 a1bc 5db6 27bb 2179 10bd f7bb d2bb
00000060: c819 a83c b364 893c a6f2 fc3b 8174 1c3a
00000070: b200 c0ba 0eac a33c 3f00 12bc 2752 e53b
00000080: eccc 093c 06e0 703b 30b2 df3c f171 80bd
00000090: ad3a 613b 46f4 a23c b4ce b2bc 9733 243d
000000a0: 10de 4e3c 89c5 5b3c 3909 ba3c d164 033d
000000b0: c2bf a2bc cdcd 98bc c309 64bc 9302 933b
000000c0: 8cdb d3bc 1299 0cbb 48a3 d83b 2b84 95bd
000000d0: 764b 543c 22ae 1ebd d18b 813c 0f53 f43b
000000e0: 672b a83c 91e3 be3a 078e e13b 3f1a d5bc
000000f0: e671 3eba 9cb7 f53c 1854 65bc 1fe3 3a3c
00000100: 85d3 efb9 627c c73c 26d4 35bc e817 23bc
00000110: 49f9 0ebc e065 ce3c d64a 9c3c ffcc cbbc
00000120: cb76 80bc a347 763d 04ea e3bc e607 2a39
00000130: c358 d3bc 4bcf 3cbb ec2c 2b3c f71e f43b
00000140: ac91 41bd 6735 66bd e73e c23b 737e acbb
00000150: 900a 803b 8c44 73bb 57e1 81bc 0ac6 dabc
00000160: 27e6 543c 5378 2c3b c512 1bbc 3375 63bc
00000170: e402 c3ba ad8b 03bb 291a 06bd 3e4d cdbc
00000180: 63f7 b93c 7de0 88bc 6b84 8a3a d7c9 66bc
00000190: dc01 b53a 7fd4 edba d850 37bd 4bf9 d5bb
000001a0: 58ba 57bb d393 d13c 0ecd a53c c673 47bd
000001b0: 2282 0b3b e3af c1bc b7cb d33a 8283 f93b
000001c0: f780 b8bb a7e5 49bd 8045 963c a5c1 c3bc
000001d0: 25ff 96bc 0ff9 c0bc d230 813c 5f75 0abd
000001e0: bc25 c1bc b94e 1bbc ce2d a4bc 79af ffbc
000001f0: 6c67 abbb 47b3 01bd 7423 563d 8e1f baba
00000200: 7bc0 d7bc ab49 a5bb 14af 333d 02c5 753c
00000210: a455 c2bc c84d 043c 69e2 10bc 02ab fdbb
00000220: edce b6ba e65a a83b cf1b 113d d605 ef3b
00000230: b0d6 583c b9a1 893b 7da7 62bc e8c8 7cbc
00000240: 3213 863c 8ae2 593b 530d 4bbc 28e0 0dbd
00000250: 350a b3bb 1462 cc3c 9a32 d8bb 8201 5a3c
00000260: 406f c6bb 3307 fe3a 8663 023c 1b7b 66bb
00000270: 9b5b 2bbd e54c bd3c 43ed 0cbc 49b5 a13c
00000280: e644 063c b323 1abc 5c8d 783a af39 d1bc
00000290: c7a8 c6bc 144c 55bc 0b7d 133c a0f1 74bc
000002a0: 621f 8b3c 032f 2ebd 5135 a4bb 1713 61ba
000002b0: 8113 c43c 0fd0 dcbb 6c45 e43b 1d94 c73c
000002c0: 6fd0 83ba 04b8 91bd ac8c e03c 397c 1f3d
000002d0: 3082 b6bb 4596 313d e289 cf3b b5af 3d3c
000002e0: 35cd 543c 0c45 0c3c 1e4c e93c ca94 123c
000002f0: 80b9 10bd de94 203c 3710 693c 35b9 95bc
00000300: 423a a4bc 676a 3bbd 4128 88bc 0357 4abb
00000310: 290a 0b3d 2a5f 97bb d741 a4bc 3a4d 993b
00000320: b3ab 033d 1fb1 bfbc fcd4 80bc 5789 6dbb
00000330: f471 7a3c a92c 6bbd 1512 7b3d 3aab 083b
00000340: 1b2d 6abd 3601 543b 5a63 83b8 2351 04bd
00000350: abf3 12bd fdcb ac3c cee1 2abb 9aae e93b
00000360: 8f27 ab3c ad4f d8bb 4f9d aa3c 6563 333d
00000370: 50a5 003d ce9f 92bc f9b7 2abc 69f7 b53c
00000380: be9b ae3c f386 83bc 0ccc dbbb a1cc ae3c
00000390: b4be 38bc b6c2 89bc 224c 28bd 5fba 893a
000003a0: 3d0d a8bc 43c6 38bd ff54 0e3d bc66 a93b
000003b0: edff e4bc d27a c83b 1161 813b 554c 0e3d
000003c0: f88d 563c dbe9 3b3d 93d1 313b cf61 42bc
000003d0: 7064 9bbc c00d 673b 6f9e 8bbc 8702 9f3c
000003e0: 905a 003c 8f33 13bc 0542 333c 9f25 8abc
000003f0: 51a6 0fbc d4e6 bcbb 1aa6 02bd 5851 85bc

motion_mlp.mlps.3.fc0.fc.bias f4 [50]
-4.3797468e-06 3.912642e-06 -5.2734305e-07 -4.152253e-06 4.6719797e-06 3.0642302e-06 6.9328557e-06 -3.896317e-07
-3.4337008e-06 -6.877726e-06 -7.877629e-06 -2.8594034e-06 2.772858e-07 -2.1227777e-07 9.069584e-07 8.426652e-06
1.1439541e-06 -4.7062363e-06 2.0198393e-06 -1.1118034e-05 2.9411376e-06 1.041902e-05 -2.6687394e-06 -6.6199453e-07
8.9162165e-07 1.0385138e-06 -5.486564e-06 -3.8711737e-06 -1.3956927e-06 -2.1634341e-06 3.944229e-06 -3.0792187e-06
-6.1994187e-06 -3.3855658e-06 -1.4390554e-06 2.147672e-06 3.915165e-06 7.454608e-06 1.5463249e-06 1.4445476e-06
-1.0635821e-05 8.4679705e-06 4.608771e-06 3.72543e-06 -6.75305e-06 -7.8034697e-07 -4.117295e-07 -5.1226434e-06
3.7976429e-06 5.5852433e-06
00000000: bdf5 92b6 5749 8336 bd8e 0db5 9553 8bb6
00000010: 00c4 9c36 13a3 4d36 c7a0 e836 932e d1b4
00000020: 886e 66b6 37c7 e6b6 292a 04b7 2de4 3fb6
00000030: dfdd 9434 78ee 63b4 b575 7335 3260 0d37
00000040: f789 9935 43ea 9db6 938c 0736 9887 3ab7
00000050: 5c60 4536 5acd 2e37 9818 33b6 ebb3 31b5
00000060: c657 6f35 1063 8b35 3a19 b8b6 21e5 81b6
00000070: a353 bbb5 842f 11b6 ab58 8436 93a4 4eb6
00000080: 9a04 d0b6 9433 63b6 9125 c1b5 b920 1036
00000090: 035f 8336 9822 fa36 528b cf35 47e2 c135
000000a0: 8170 32b7 a811 0e37 0ba5 9a36 6602 7a36
000000b0: 4298 e2b6 0979 51b5 ac0b ddb4 2ce3 abb6
000000c0: 02db 7e36 e068 bb36

motion_mlp.mlps.3.norm0.alpha f4 [1, 54, 1]
0.05569542 0.06281093 0.095886454 0.0455494 0.027100075 0.033811126 0.019319816 0.034191433
0.035547648 0.05541949 0.10837854 0.033601776 0.04641588 0.03902329 0.05413435 0.050240573
0.04672158 0.037027363 0.04520155 0.005658995 0.05197579 0.049329586 0.040769607 0.042467378
0.059783477 0.08380487 0.04011883 0.052000377 0.020571502 0.055970456 0.022248 0.01257874
0.04865002 0.011349249 0.086339 0.045628667 0.03148872 0.08208992 0.05853808 0.060259927
0.06294936 0.060977183 0.041620694 0.06709189 0.040621307 0.011275012 0.011271088 0.042508163
0.05244678 0.10911624 0.037756305 0.07533147 0.087885946 0.023055391
00000000: e120 643d 04a3 803d 1e60 c43d 0292 3a3d
00000010: fa00 de3c 897d 0a3d 9744 9e3c 510c 0c3d
00000020: 699a 113d 8cff 623d 91f5 dd3d 04a2 093d
00000030: 941e 3e3d e3d6 1f3d fbbb 5d3d 0fc9 4d3d
00000040: 215f 3f3d 01aa 173d 4325 393d 176f b93b
00000050: 91e4 543d d20d 4a3d 08fe 263d 46f2 2d3d
00000060: 85df 743d e3a1 ab3d a453 243d 59fe 543d
00000070: 9185 a83c 4741 653d 7041 b63c 0f17 4e3c
00000080: 3e45 473d 33f2 393c 80d2 b03d 20e5 3a3d
00000090: 51fa 003d c31e a83d a0c5 6f3d 1dd3 763d
000000a0: 98eb 803d 36c3 793d 767a 2a3d 7967 893d
000000b0: 8762 263d d4ba 383c 5faa 383c 0a1d 2e3d
000000c0: 6fd2 563d 5678 df3d 5ba6 1a3d 6347 9a3d
000000d0: 8cfd b33d a9de bc3c

motion_mlp.mlps.3.norm0.beta f4 [1, 54, 1]
0.0077971946 0.0020891435 0.022370223 -0.004257116 0.0038008036 0.0016087998 -0.0024952788 0.0074410853
-0.0010505195 -0.0007797115 0.00025052135 0.00082926895 -0.0006528203 -0.005722857 -0.007348021 0.0065992996
0.00040155093 -0.0053676893 -0.008092263 0.019770194 -0.0025862756 0.0005729362 0.00077573856 0.0037131705
-0.021282356 -0.007803555 0.003007819 -0.00017273822 0.018208662 -0.0037422325 -0.0019083895 -0.010484037
0.015573754 -0.010686828 0.027029162 -0.003998013 0.006059042 0.025298377 -0.0010312839 -0.0045827664
-0.0020492652 -0.012380724 -0.008892163 -0.0004934692 -0.0018903587 -0.012843931 0.009743071 -0.012087876
-0.008492177 -0.022956029 -0.00088887307 0.02738549 -0.0015997175 -0.0013411733
00000000: 9c7f ff3b 03ea 083b c241 b73c 477f 8bbb
00000010: e716 793b 5dde d23a d587 23bb 59d4 f33b
00000020: 96b1 89ba 8e65 4cba 6858 8339 4c63 593a
00000030: 0722 2bba ce86 bbbb abc7 f0bb f03e d83b
00000040: 4187 d239 71e3 afbb 6995 04bc 1af5 a13c
00000050: 817e 29bb 1931 163a ef5a 4b3a aa58 733b
00000060: 5658 aebc f7b4 ffbb d41e 453b 1021 35b9
00000070: 552a 953c 3e40 75bb ed22 faba 3dc5 2bbc
00000080: 0f29 7f3c ce17 2fbc 436c dd3c c401 83bb
00000090: ee8a c63b 8b3e cf3c 252c 87ba 082b 96bb
000000a0: f74c 06bb 85d8 4abc 6fb0 11bc 285c 01ba
000000b0: eac5 f7ba 5a6f 52bc 67a1 1f3c 3a0c 46bc
000000c0: c622 0bbc 480e bcbc 4303 69ba 8957 e03c
000000d0: 9dad d1ba 4fca afba

motion_mlp.mlps.4.fc0.fc.weight f4 [50, 50]
-0.016512984 0.020961806 -0.0020380951 0.04529821 0.005512836 -0.0075682965 -0.1087165 -0.01688572
0.0380379 -0.0031577654 0.004134153 -0.010310246 0.014922654 0.013066584 -0.0011643551 -0.033624295
0.0024014458 0.0011221773 -0.004976593 -0.016796948 -0.017858068 0.032383364 0.01741861 -0.0077065383
-0.03940065 0.013813413 0.01855512 0.03550472 0.0049049994 0.042990305 0.0029876598 -0.031258553
-0.004941046 0.0030215953 -0.017475447 -0.0066661444 -0.0073389 0.036699813 -0.018486843 -0.01770507
0.029530197 -0.040531863 0.00081348186 0.0017862284 0.017782884 0.014214167 -0.03847779 0.0019897653
0.012523222 -0.07788046 0.036321945 0.003322339 -0.009887488 -0.066223286 0.01616343 -0.015050506
-0.008665435 7.7704986e-05 0.025169885 0.009569364 0.03497216 0.009494989 -0.0027562878 0.0012882433
0.015383881 0.018201524 -0.008262757 -0.028610056 0.020186424 -0.017663976 0.02119622 -0.012899317
0.0068005817 -0.008267122 0.014120828 0.018477863 -0.02403722 -0.039021507 -0.009323123 -0.04913463
-0.0057524997 -0.04112475 0.012026745 -0.024103161 0.037531503 0.018097807 -0.017807636 0.031066611
-0.0046534017 -0.021014407 0.03422053 0.036931865 -0.013170626 0.00011869707 0.034327496 -0.019213693
0.0046177683 -0.028279714 -0.021899145 -0.006504315 -0.009989415 0.007873277 0.01885778 -0.036162917
-0.004126099 -0.01046859 0.041362707 0.023179382 0.02643593 0.004944818 0.0013384081 0.021879045
0.017162262 0.018429253 -0.03844208 0.025405759 0.0035117299 0.00833078 0.040196735 0.00492797
0.04158465 0.01907787 0.0031846527 -0.019918175 0.0011022935 0.020502502 0.035907153 -0.048244372
0.04395838 0.004199994 -0.0131251775 0.0034935111 0.011604027 -0.0033124762 -0.0027908653 -0.0069925548
0.0031474382 -0.021065941 0.032509495 0.038802806 -0.014174864 -0.014570505 0.032307014 -0.0086383745
-0.024831578 -0.002691302 0.036816306 0.0297961 0.007483813 -0.0033708066 -0.012048554 0.028118078
0.019220619 -0.033903185 -0.06527472 -0.022341803 -0.011455326 -0.046019055 0.036226235 0.037513882
0.014076293 0.04403191 -0.012194016 -0.0018325082 0.010057781 -0.023978535 -0.048440907 -0.004683941
0.026471594 0.009291077 0.0060836123 -0.004033023 -0.004634692 0.018793749 -0.019472813 0.0053259
0.037103117 0.04234615 -0.02328005 -0.0055760765 -0.016355604 -0.037974562 -0.01579709 0.036268078
0.01916099 0.018145088 0.018615633 0.042100206 -0.013160519 -0.010731254 -0.021309802 0.0015245166
0.009279019 -0.0064689913 -0.005010637 0.0053083957 0.026305506 0.02501479 -0.008557916 0.020975612
-0.028220713 0.0059553636 0.0037614503 0.040111534 -0.00535611 -0.00655473 0.034575973 -0.005666975
0.0007524971 -0.016446995 0.016958011 -0.02439847 -0.017857349 0.016145602 0.008893433 -0.03516902
-0.0197866 -0.021346923 -0.01667946 -0.019991156 0.0109652085 0.011784899 -0.024025861 0.029426098
0.014093968 0.05715484 -0.024999699 -0.018863514 -0.04881384 0.0065597063 -0.009379736 -0.015167345
-0.005096734 0.014599064 0.037030403 0.04033409 0.004412406 -0.0013950906 0.01083351 0.0020091773
-0.035094067 -0.0020441075 -0.031640258 -0.012581552 0.024855891 -0.03587966 -0.008217548 -0.009146661
-0.04684523 -0.03935732 0.019730583 -0.020037984 -0.0072831805 0.009682347 -0.002761028 -0.049862955
00000000: 3d46 87bc 18b8 ab3c 9091 05bb 9e8a 393d
00000010: 05a5 b43b 79ff f7bb c2a6 debd ec53 8abc
00000020: a1cd 1b3d 83f2 4ebb ca77 873b 4eec 28bc
00000030: 267e 743c 3a15 563c 469d 98ba a1b9 09bd
00000040: 9361 1d3b 0616 933a b012 a3bb c199 89bc
00000050: 154b 92bc 6ba4 043d 79b1 8e3c 2187 fcbb
00000060: 9362 21bd a751 623c e800 983c 666d 113d
00000070: 1eba a03b 9a16 303d 9dcc 433b f808 00bd
00000080: 7fe8 a1bb f505 463b ab28 8fbc ac6f dabb
00000090: 287b f0bb 8b52 163d b871 97bc 390a 91bc
000000a0: 50e9 f13c bd04 26bd d83f 553a e11f ea3a
000000b0: 69ad 913c 8ae2 683c e39a 1dbd b966 023b
000000c0: 332e 4d3c ca7f 9fbd 52c6 143d 99bb 593b
000000d0: 21ff 21bc 13a0 87bd 2b69 843c 6696 76bc
000000e0: 78f9 0dbc 8cf5 a238 1331 ce3c d2c8 1c3c
000000f0: f83e 0f3d df90 1b3c d6a2 34bb 46da a83a
00000100: ac0c 7c3c 5d1b 953c 8460 07bc a35f eabc
00000110: 005e a53c 0bb4 90bc b2a3 ad3c a857 53bc
00000120: 6ad7 de3b d372 07bc 0c5b 673c e35e 973c
00000130: b4e9 c4bc 04d5 1fbd 03c0 18bc 6541 49bd
00000140: 777f bcbb 6d72 28bd d30b 453c fe73 c5bc
00000150: a2ba 193d da41 943c 52e1 91bc 687f fe3c
00000160: 907b 98bb 6826 acbc d42a 0c3d de45 173d
00000170: 9cc9 57bc 01ed f838 fd9a 0c3d 0966 9dbc
00000180: a650 973b dcaa e7bc d665 b3bc 2622 d5bb
00000190: a5aa 23bc ebfe 003c a27b 9a3c 911f 14bd
000001a0: 3a34 87bb 7384 2bbc f16b 293d b0e2 bd3c
000001b0: 2a90 d83c 2408 a23b 866d af3a af3b b33c
000001c0: df97 8c3c f2f8 963c 7175 1dbd bd1f d03c
000001d0: 0d25 663b d37d 083c 55a5 243d cf7a a13b
000001e0: aa54 2a3d 3149 9c3c 9bb5 503b 712b a3bc
000001f0: d57a 903a ddf4 a73c 6113 133d e49b 45bd
00000200: b40d 343d 1aa0 893b fc0a 57bc 64f3 643b
00000210: d11e 3e3c 2116 59bb f3e6 36bb cd21 e5bb
00000220: 4045 4e3b 7b92 acbc ad28 053d b1ef 1e3d
00000230: b03d 68bc 21b9 6ebc 5c54 043d f887 0dbc
00000240: 986b cbbc 8e60 30bb b2cc 163d f316 f43c
00000250: c63a f53b c0e8 5cbb 4c67 45bc e257 e63c
00000260: 8f74 9d3c 11de 0abd c1ae 85bd 2806 b7bc
00000270: 1faf 3bbc 7a7e 3cbd f661 143d 28a8 193d
00000280: 41a0 663c ce5a 343d 69c9 47bc c630 f0ba
00000290: 64c9 243c a26e c4bc f969 46bd bf7b 99bb
000002a0: f5da d83c 9a39 183c 0a59 c73b 7327 84bb
000002b0: 9dde 97bb 59f5 993c 7385 9fbc e384 ae3b
000002c0: 70f9 173d 2873 2d3d ceb5 bebc 85b7 b6bb
000002d0: 30fc 85bc 378b 1bbd e668 81bc d68d 143d
000002e0: 82f7 9c3c 02a5 943c d07f 983c 4471 2c3d
000002f0: 389f 57bc 24d2 2fbc e591 aebc 4ad2 c73a
00000300: 0707 183c d5f9 d3bb 4530 a4bb 0df2 ad3b
00000310: a57e d73c d1eb cc3c 8036 0cbc 0cd5 ab3c
00000320: 202f e7bc 3625 c33b aa82 763b fe4b 243d
00000330: 4f82 afbb 0fc9 d6bb 899f 0d3d 08b2 b9bb
00000340: 3a43 453a d9bb 86bc 87eb 8a3c 4ddf c7bc
00000350: 9349 92bc c843 843c c3b5 113c 640d 10bd
00000360: 8217 a2bc bedf aebc 5da3 88bc 7ec4 a3bc
00000370: 6ba7 333c 7315 413c e2d1 c4bc 000f f13c
00000380: 63ea 663c 321b 6a3d 2bcc ccbc a887 9abc
00000390: 05f1 47bd cef2 d63b 77ad 19bc 7580 78bc
000003a0: 8102 a7bb ea30 6f3c 31ad 173d 5c35 253d
000003b0: f295 903b 79db b6ba 097f 313c 67ac 033b
000003c0: ccbe 0fbd 6ff6 05bb 3799 01bd db22 4ebc
000003d0: 959e cb3c 8df6 12bd e5a2 06bc e0db 15bc
000003e0: c9e0 3fbd 2435 21bd 08a2 a13c b326 a4bc
000003f0: bfa7 eebb b5a2 1e3c 5df2 34bb 193d 4cbd

motion_mlp.mlps.4.fc0.fc.bias f4 [50]
-6.932132e-07 -1.3974097e-08 3.8822714e-06 4.8340676e-06 -3.5275348e-06 2.2969645e-07 -1.0857727e-07 -8.248516e-08
-2.334941e-06 -1.2114108e-06 -4.92567e-06 1.2546323e-06 1.7234655e-06 -1.0762024e-06 -1.2008475e-07 -3.662676e-06
-5.4452794e-06 5.3479846e-07 4.624011e-06 -1.45958e-06 -1.229886e-06 1.9166107e-06 -6.1716077e-07 6.333066e-06
-1.1188812e-05 -5.005047e-06 4.8288866e-06 2.7147105e-06 4.387422e-06 -5.4869297e-06 5.4974697e-07 -3.0170431e-06
5.315831e-07 5.903894e-06 6.4763356e-07 -1.7470791e-06 -3.377982e-06 -6.8071677e-06 2.1041512e-06 -5.223311e-06
-3.663179e-06 2.4590497e-06 -1.7589429e-06 1.4758313e-06 -2.1943579e-06 -3.3350154e-06 4.9315468e-06 -1.7688029e-06
1.4404284e-06 3.547919e-06
00000000: 4015 3ab5 bb12 70b2 7544 8236 5334 a236
00000010: 96ba 6cb6 7ba2 7634 fc2a e9b3 b222 b1b3
00000020: fbb1 1cb6 c297 a2b5 2f47 a5b6 d664 a835
00000030: d351 e735 0872 90b5 a5f0 00b4 4bcc 75b6
00000040: 98b6 b6b6 128f 0f35 f427 9b36 c9e6 c3b5
00000050: 9012 a5b5 1f9f 0036 f7aa 25b5 9f80 d436
00000060: 95b7 3bb7 07f1 a7b6 d207 a236 5f2e 3636
00000070: ab37 9336 5e1c b8b6 5392 1335 6878 4ab6
00000080: 1db2 0e35 101a c636 0ad9 2d35 2e7d eab5
00000090: 4ab1 62b6 2069 e4b6 0b35 0d36 e643 afb6
000000a0: f0d4 75b6 2706 2536 d114 ecb5 2d15 c635
000000b0: c842 13b6 21cf 5fb6 aa79 a536 9b67 edb5
000000c0: be54 c135 c918 6e36
