src/siMLPe/exps/baseline_amass/log/snapshot/model-iter-110000.pth (torch, 604538 bytes, 196 tensors)

motion_mlp.mlps.0.fc0.fc.weight f4 [50, 50]
0	0xbd75df7d	-0.06002759
1	0xbdc66071	-0.096863635
2	0x3ccd5c95	0.02506856
3	0xbd4e9d27	-0.05044284
4	0x3cc95309	0.024575727
5	0xbc824c32	-0.015905473
6	0x3ceb0ee3	0.028693622
7	0xbd3cee4a	-0.046125688
8	0xba0a3f9a	-0.00052737596
9	0xbcfbb9a1	-0.030728163
10	0x3a4b3445	0.0007751624
11	0xbd0a74b8	-0.033802718
12	0x3a653fe7	0.0008745179
13	0xbca38042	-0.019958619
14	0xbbced3f2	-0.006311887
15	0xbc66ee8c	-0.01409496
16	0xbb5797c6	-0.003289686
17	0xbc5cb35f	-0.0134705
18	0xbbf0464b	-0.0073325983
19	0xbcbcec89	-0.023062008
20	0xbc76a4f5	-0.015053977
21	0xbc1256d6	-0.008931836
22	0xbc38ea9d	-0.011286405
23	0xbc9b376a	-0.018947322
24	0xbc1492ef	-0.009068235
25	0xbc63560e	-0.0138754975
26	0xbc210e5e	-0.009830086
27	0xbc4bb372	-0.01243292
28	0xbc152440	-0.009102881
29	0xbc1ecf4c	-0.009692978
30	0xbc285d15	-0.010276099
31	0xbc039839	-0.008031898
32	0xbc028249	-0.007965633
33	0xbbe12d66	-0.006871867
34	0xbc031078	-0.007999532
35	0xbb9878e7	-0.0046530846
36	0xbc05cfa5	-0.008167182
37	0xbb8130c4	-0.003942581
38	0xbc0c9fd0	-0.008583024
39	0xbb27e716	-0.0025619916
40	0xbbe03d5e	-0.006843253
41	0xbaed4104	-0.0018101041
42	0xbbc4c6e4	-0.006005155
43	0xbb1f45f2	-0.0024303165
44	0xbb87f375	-0.0041488954
45	0xbb059dfa	-0.002038835
46	0xbb59a9b3	-0.003321272
47	0xbaaa071f	-0.0012972093
48	0xbb2dcc6e	-0.0026519555
49	0xbafb12f1	-0.0019155425
50	0xba90e958	-0.001105587
51	0xbdaf6cf6	-0.085657045
52	0x3baca3d3	0.005268553
53	0xbb9884c6	-0.0046544997
54	0xbcd44158	-0.025910065
55	0xbba0b9a6	-0.0049049435
56	0xbd1e8dbd	-0.03870939
57	0x3b3bb83b	0.0028643745
58	0xbca47dca	-0.020079512
59	0xbcc6b169	-0.024254518
60	0xbb9c4b0f	-0.00476969
61	0xbccc22ad	-0.024918878
62	0xbb83c785	-0.0040215873
63	0xbbdb3337	-0.006689455
64	0xbc2664ee	-0.010155899
65	0xbb8111ae	-0.003938875
66	0xbc4ced5b	-0.012507762
67	0xbc06b893	-0.008222717
68	0xbb906521	-0.0044065868
69	0xbc2da02b	-0.010597269
70	0xbbb5a83a	-0.005543736
71	0xbc7e3cc3	-0.015517416
72	0xbb818813	-0.003952989
73	0xbc3a8e00	-0.0113863945
74	0xbb44ae05	-0.003001095
75	0xbc4d7894	-0.012540955
76	0xbbc374ef	-0.0059648673
77	0xbc1c3964	-0.009535167
78	0xbbcc5502	-0.0062357197
79	0xbc0e0de8	-0.008670308
80	0xbc005b56	-0.007834276
81	0xbbe441bb	-0.0069658435
82	0xbc176b25	-0.009241854
83	0xbc06c4ee	-0.008225663
84	0xbc2bab34	-0.01047783
85	0xbbdf379a	-0.006812048
86	0xbc361b39	-0.011114889
87	0xbbc14dd1	-0.005899169
88	0xbc356b4d	-0.011072946
89	0xbbaec010	-0.005332954
90	0xbc2b42b1	-0.010452912
91	0xbbc74485	-0.006081166
92	0xbc282085	-0.0102616595
93	0xbbd8fcd3	-0.006621936
94	0xbc22d325	-0.009938036
95	0xbbe82ef7	-0.007085677
96	0xbc113750	-0.008863285
97	0xbbfe32b1	-0.0077575077
98	0xbc0a0b67	-0.00842557
99	0xbc03303e	-0.008007107
100	0x3a34ff6e	0.0006904517
101	0xbd1cdcde	-0.038296573
102	0x3be5dede	0.007015093
103	0xbc3430e9	-0.010997989
104	0x3c030b41	0.007998289
105	0xbd02a328	-0.03189388
106	0x3c4e5a5f	0.012594788
107	0x3b3164f2	0.0027068225
108	0x3cba0d91	0.022711547
109	0xbc8c1e4c	-0.01710429
110	0x3c951b06	0.018201362
111	0xbc4ec466	-0.012620067
112	0x3ce5457b	0.027987232
113	0x3bcf6323	0.0063289567
114	0x3d008b9c	0.031383142
115	0x3c6c91d8	0.014439069
116	0x3c9d6206	0.01921178
117	0x3c857ec4	0.016295798
118	0x3d151179	0.036393616
119	0x3be729c0	0.0070545375
120	0x3ceb9144	0.028755791
121	0x3c02cdf3	0.007983672
122	0x3cc91527	0.024546219
123	0x3c34455b	0.011002864
124	0x3cc97c4e	0.024595406
125	0x3c09b249	0.008404323
126	0x3cbf0880	0.023319483
127	0x3c625a13	0.013815421
128	0x3ca9a663	0.020709222
129	0x3ca0db7f	0.019635914
130	0x3c9381e4	0.018006273
131	0x3cba0895	0.02270917
132	0x3c9746e3	0.018466419
133	0x3cc4cefe	0.024024483
134	0x3c6e2baf	0.014536782
135	0x3ce9307d	0.028465504
136	0x3c804826	0.015659403
137	0x3cdb36b0	0.026759475
138	0x3c83a1ef	0.016068427
139	0x3ceb8ac3	0.02875269
140	0x3c882ed6	0.016623896
141	0x3cf2a663	0.029620355
142	0x3c91dd1c	0.017805628
143	0x3cef5110	0.029213458
144	0x3caa0f8e	0.02075937
145	0x3ce8d066	0.028419685
146	0x3cb945a7	0.02261622
147	0x3ce0f08a	0.027458448
148	0x3ccbfe5c	0.024901561
149	0x3cdce40b	0.026964208
150	0xbc1928d1	-0.00934811
151	0x3d2e5872	0.042564817
152	0xbce06ae4	-0.02739472
153	0x3cacd414	0.02109722
154	0xbd17e67c	-0.03708504
155	0x3d3e6f4b	0.046492856
156	0xbcd06e05	-0.025443086
157	0x3d33d74a	0.043906488
158	0xbc35b6b9	-0.011090928
159	0x3d303154	0.043015793
160	0xbcb73286	-0.022362959
161	0x3d37bcb9	0.044857714
162	0xbbe9e351	-0.007137694
163	0x3cfd5287	0.030923141
164	0xbb3c6c0e	-0.002875093
165	0x3ce16a5f	0.027516542
166	0x3be77511	0.007063516
167	0x3ccecaef	0.02524325
168	0x3c18f9f7	0.00933694
169	0x3d120cbd	0.03565668
170	0x3c11b740	0.008893788
171	0x3cf5a05a	0.029983688
172	0x3c3f6a8a	0.011683116
173	0x3d048686	0.032354854
174	0x3c8e6d70	0.017386168
175	0x3d001940	0.03127408
176	0x3c953692	0.018214498
177	0x3cdaf8a8	0.026729897
178	0x3c8e1309	0.017343061
179	0x3cc79e13	0.024367368
180	0x3c9bd9c0	0.01902473
181	0x3ca9f09f	0.02074462
182	0x3c9a9f57	0.018874807
183	0x3c94043c	0.018068425
184	0x3c993733	0.018703079
185	0x3c847816	0.016170543
186	0x3c8b4f11	0.017005475
187	0x3c854a15	0.016270677
188	0x3c89e6e3	0.016833728
189	0x3c603fd1	0.01368709
190	0x3c8531fc	0.016259186
191	0x3c465d3f	0.012107193
192	0x3c81c74a	0.015842099
193	0x3c39e29e	0.011345534
194	0x3c5c81b7	0.013458661
195	0x3c33f60f	0.010983958
196	0x3c3bee21	0.011470349
197	0x3c2506e3	0.010072443
198	0x3c3fedb7	0.0117143905
199	0x3c3146b0	0.010820076
200	0x398bdc8d	0.0002667647
201	0xbcdcbe31	-0.02694616
202	0x3cb6816f	0.022278516
203	0x3c70fc58	0.014708601
204	0xbda5b832	-0.08091773
205	0xbcc44320	-0.023957789
206	0xbc8ac654	-0.016940273
207	0xbc9e5782	-0.019328836
208	0xbc964957	-0.018345518
209	0xbc14cbd4	-0.0090818
210	0xbca091c0	-0.019600749
211	0xbc905f52	-0.017623577
212	0xbd076752	-0.03305752
213	0xbc9bd88c	-0.019024156
214	0xbd0cc924	-0.03437151
215	0xbc7ffe04	-0.015624527
216	0xbcc7720e	-0.024346378
217	0xbc665954	-0.014059383
218	0xbc111ea1	-0.0088574
219	0xbc4e1745	-0.01257879
220	0xbc4cdc3b	-0.012503679
221	0x3afa363c	0.001908965
222	0xbb5e17f1	-0.0033888782
223	0x3b465718	0.0030264314
224	0xbbf697d9	-0.007525426
225	0x3b92c5c3	0.0044791414
226	0xbb9cf076	-0.0047894074
227	0x3c1f428b	0.009720455
228	0xbb02cc4a	-0.0019958192
229	0x3bee6768	0.0072755106
230	0x39b88bcb	0.0003519937
231	0x3be6c1b9	0.0070421365
232	0x3b922757	0.004460256
233	0x3c1abebe	0.009444891
234	0x3bbbabce	0.005727268
235	0x3c111a1a	0.008856321
236	0x3bf5fd2e	0.007506988
237	0x3c176d74	0.009242404
238	0x3c282a4b	0.01026399
239	0x3c36e27f	0.011162399
240	0x3c143301	0.009045363
241	0x3c270ef0	0.0101964325
242	0x3c37ce06	0.011218553
243	0x3c571155	0.013126691
244	0x3c48dffa	0.012260431
245	0x3c492a20	0.01227811
246	0x3c58e622	0.013238462
247	0x3c650bea	0.013979891
248	0x3c4d0d3d	0.012515363
249	0x3c65dd05	0.014029746
250	0x3b6390eb	0.003472383
251	0xbc8bcb0e	-0.017064597
252	0x3c093677	0.008374802
253	0x3bd4beec	0.006492486
254	0xbbb7bcfb	-0.005607245
255	0xbd6e778c	-0.058219478

motion_mlp.mlps.0.fc0.fc.bias f4 [50]
0	0xb5121c4d	-5.443042e-07
1	0xb64e2333	-3.071688e-06
2	0xb5ea7c72	-1.7470577e-06
3	0x3693bb3e	4.4027393e-06
4	0x36d1682c	6.2408126e-06
5	0x36d91a63	6.470176e-06
6	0xb7156c08	-8.906245e-06
7	0x370d5721	8.424541e-06
8	0xb433db4f	-1.6750458e-07
9	0x35fdd725	1.8912584e-06
10	0x3625710f	2.4652725e-06
11	0x368a3f2a	4.1200738e-06
12	0xb6d818ee	-6.440204e-06
13	0xb7095f60	-8.188043e-06
14	0x368340fc	3.9116694e-06
15	0xb68460da	-3.9451816e-06
16	0xb6ac2b00	-5.1310053e-06
17	0xb7302283	-1.0498453e-05
18	0x371971ca	9.146004e-06
19	0x3677cb76	3.6924298e-06
20	0xb9078211	-0.00012923057
21	0x35b948ac	1.3804724e-06
22	0x34a2118a	3.0187613e-07
23	0xb6a20aae	-4.8292195e-06
24	0x3646a022	2.9597509e-06
25	0xb71dea40	-9.41247e-06
26	0x36c6405d	5.9083527e-06
27	0xb71e7ad2	-9.44613e-06
28	0xb6a55a33	-4.9278838e-06
29	0xb6c492f2	-5.858362e-06
30	0xb6da64dc	-6.508648e-06
31	0x367270aa	3.612639e-06
32	0x36a87474	5.020347e-06
33	0x36224d28	2.4184792e-06
34	0x3609b27a	2.0518478e-06
35	0xb805c8d0	-3.1896692e-05
36	0xb6f4017e	-7.2719404e-06
37	0x36c2253f	5.7859866e-06
38	0xb4184642	-1.4181663e-07
39	0xb6d7b39a	-6.4284077e-06
40	0xb73c9bbd	-1.1241934e-05
41	0x3696ca22	4.4938797e-06
42	0x3633d30e	2.6795929e-06
43	0x370ee69a	8.517551e-06
44	0x34c337be	3.6362138e-07
45	0xb647bac3	-2.976202e-06
46	0xb639b454	-2.7672113e-06
47	0x35fd9742	1.8893991e-06
48	0x35f210d1	1.8035299e-06
49	0x34e12f30	4.194385e-07

motion_mlp.mlps.0.norm0.alpha f4 [1, 54, 1]
0	0x3dcde1ae	0.100528106
1	0x3dddb437	0.10825389
2	0x3dbb95c2	0.091594234
3	0x3dd63259	0.10458822
4	0x3e1c69bc	0.1527471
5	0x3d868eba	0.06570192
6	0x3e04be2c	0.1296317
7	0x3dd49e18	0.103817165
8	0x3e0ba1c9	0.13635935
9	0x3e140f2f	0.14458917
10	0x3db8a68f	0.090161435
11	0x3e22493e	0.15848252
12	0x3e2fd829	0.17172302
13	0x3e1082e7	0.14112435
14	0x3df209cb	0.11818274
15	0x3e0213fd	0.12702937
16	0x3ded89fc	0.11598584
17	0x3ddd9817	0.108200245
18	0x3e1891ee	0.14899418
19	0x3e1cc141	0.15308096
20	0x3e251807	0.16122447
21	0x3e20c7b7	0.15701185
22	0x3e202481	0.15638925
23	0x3e2d5703	0.16927724
24	0x3dd51ede	0.10406278
25	0x3dcaedd2	0.09908642
26	0x3e5c4973	0.21512394
27	0x3e320225	0.1738363
28	0x3e0fa3df	0.14027356
29	0x3e19df0e	0.15026495
30	0x3e13ec78	0.14445674
31	0xb9fb397e	-0.00047917286
32	0x3e082f0b	0.13299195
33	0x3db329b3	0.08748188
34	0x3dec4bfd	0.11537931
35	0x3e05e303	0.1307488
36	0x3dc62051	0.096741326
37	0x3e315db4	0.17320901
38	0x3de486ec	0.11158547
39	0x3dd3c29c	0.10339853
40	0x3e047f65	0.12939222
41	0x3de11943	0.109911464
42	0x3e068449	0.131364
43	0x3defffb2	0.11718692
44	0x3e36d11b	0.17853205
45	0x3dfcb9a2	0.12340094
46	0x3e1a3948	0.15060914
47	0x3dddc664	0.10828856
48	0x3dcc2017	0.09967058
49	0x3dcc37f7	0.09971612
50	0x3e4011a4	0.1875673
51	0x3dd12097	0.10211294
52	0x3e530759	0.20608272
53	0x3e0cbd6b	0.13744132

motion_mlp.mlps.0.norm0.beta f4 [1, 54, 1]
0	0xbb29e320	-0.002592273
1	0x3abd7b1b	0.0014456244
2	0x3c50af9d	0.012737182
3	0xba38d153	-0.00070502347
4	0x3aa1ec6b	0.0012353783
5	0xba74906f	-0.00093293836
6	0x392ff27e	0.00016779636
7	0x3a66f7a2	0.0008810704
8	0xb9bec7d6	-0.00036388513
9	0xb9dc8e44	-0.00042067666
10	0x3bfce346	0.007717523
11	0x3a048d9e	0.0005056503
12	0x39eb283f	0.0004485268
13	0xb8950bad	-7.1070484e-05
14	0x3931e019	0.00016963518
15	0x3a6ffe5e	0.000915503
16	0x3a21427a	0.00061515684
17	0xbabd2aca	-0.0014432308
18	0x3ad06078	0.001589789
19	0x3a85383f	0.0010163857
20	0x3a5037f9	0.0007942911
21	0xb838983f	-4.401081e-05
22	0xb92aba18	-0.00016281789
23	0x3a969111	0.0011487325
24	0xbb922fa3	-0.004461245
25	0xbade05b0	-0.0016938951
26	0x3b0966ad	0.002096574
27	0x3a3e5641	0.00072607776
28	0xba206d6e	-0.0006119822
29	0x39fb31e8	0.00047911634
30	0x3910d6a5	0.00013812871
31	0x3db6d068	0.08926469
32	0x3b1e9389	0.0024196825
33	0xba903032	-0.0011000691
34	0xbab7f040	-0.0014033392
35	0x3a276d88	0.0006386866
36	0x3a1eb8ba	0.0006054748
37	0xbb5a930d	-0.003335181
38	0xba6a216d	-0.00089313724
39	0x3a9e6cba	0.0012086846
40	0xba13083b	-0.00056088314
41	0xbb267e19	-0.002540475
42	0xba1b18e9	-0.00059164927
43	0xb951fcbf	-0.00020025948
44	0x3a590616	0.00082788
45	0x3a4fe212	0.00079301104
46	0x39cf1959	0.00039501002
47	0xbb8ad285	-0.0042365217
48	0xba9e0dc1	-0.0012058542
49	0xbc090c79	-0.00836479
50	0x3aabcc30	0.0013107117
51	0x384fc3f3	4.9535138e-05
52	0x3a6ab588	0.0008953442
53	0x39816d6b	0.0002468632

motion_mlp.mlps.1.fc0.fc.weight f4 [50, 50]
0	0xbd72ed93	-0.0593086
1	0xbd3a4b9f	-0.045482274
2	0x3d847f49	0.0646959
3	0xbd093b79	-0.033503983
4	0x3c1b3af6	0.009474507
5	0x3c29b444	0.01035792
6	0x3c802248	0.015641347
7	0xbb94307c	-0.0045223814
8	0xbc665d78	-0.014060371
9	0xbd0fe0cd	-0.035126496
10	0x3abd25a6	0.0014430776
11	0x3c7d3280	0.015453935
12	0x3c5bef75	0.01342379
13	0xbba23de9	-0.004951228
14	0xbc20849b	-0.009797241
15	0xbc20cb75	-0.009814133
16	0xbc0d6e46	-0.008632248
17	0xbce60da3	-0.028082674
18	0xbceafea6	-0.028685879
19	0xbca6a37b	-0.020341625
20	0xbd77cc97	-0.060497846
21	0xbd4001e6	-0.04687681
22	0xbc8034cb	-0.015650174
23	0x3999add4	0.00029311946
24	0xbbf6af43	-0.007528217
25	0x3bf6550d	0.007517463
26	0x3cbee0ca	0.023300547
27	0x3b5c5fb4	0.003362638
28	0xbc1dda60	-0.009634584
29	0xbafce2a1	-0.0019293615
30	0xbd1ef88b	-0.038811248
31	0xbca94b71	-0.020665856
32	0xbc9ef22d	-0.019402588
33	0xbc96c959	-0.018406557
34	0xbcff2dbd	-0.03114974
35	0xbcea3a96	-0.02859239
36	0x3a6f1837	0.0009120735
37	0x3cac4208	0.02102758
38	0xbc837e46	-0.016051423
39	0x3a4afbd3	0.0007743213
40	0xb998ae40	-0.00029121526
41	0x3b288acc	0.0025717495
42	0x3c0fa8fe	0.008768318
43	0xbcb9a02c	-0.022659384
44	0x3c9c54c6	0.019083392
45	0xbd000537	-0.031254973
46	0xbc72d5bd	-0.014821467
47	0xbd2bc22a	-0.041933216
48	0x3ce839c1	0.028347852
49	0xbc0fae09	-0.008769521
50	0x38ad26ee	8.256534e-05
51	0xbc9b3895	-0.018947879
52	0x3d99a239	0.07501645
53	0xbcbdf874	-0.02318976
54	0xbce0be2d	-0.027434433
55	0x3c88ca7f	0.01669812
56	0xbd670ca0	-0.056408525
57	0x3b614a4f	0.0034376567
58	0xba9b1b02	-0.001183361
59	0xbcf8e081	-0.03038049
60	0xbba2191a	-0.00494684
61	0x3c34668f	0.01101078
62	0xbbfb6125	-0.0076714926
63	0x3c863b89	0.01638581
64	0x3cac2843	0.021015292
65	0xbc2acdcc	-0.010425042
66	0x3bdccaa4	0.006738024
67	0x3d0d1454	0.034443215
68	0xbaadb638	-0.0013253158
69	0xbc292218	-0.01032307
70	0x3d97f70d	0.07420168
71	0x3c56da63	0.013113591
72	0x3d325aba	0.043543555
73	0xbd0e776b	-0.034781855
74	0xbcd7dbe4	-0.02634997
75	0x3a94ac09	0.0011342774
76	0x3d657961	0.05602396
77	0x3cae55e0	0.021281183
78	0xbc62cbe9	-0.013842561
79	0xbbd7005a	-0.006561321
80	0xbcaa754a	-0.02080788
81	0xbc71968b	-0.014745365
82	0xbb9d11cc	-0.0047933813
83	0x3bf79b47	0.0075563523
84	0xbbb4c3ff	-0.0055165286
85	0x3d009581	0.031392578
86	0x3b45c2bb	0.0030175883
87	0xbc84d3e9	-0.016214328
88	0xbbdcd1ee	-0.0067388928
89	0xbc07a646	-0.008279389
90	0x3ceefe82	0.029174093
91	0xbcc61f70	-0.024184912
92	0xb982c1e5	-0.00024939995
93	0xbb3964db	-0.0028288874
94	0x3da0bd2e	0.07848583
95	0x3cb84308	0.0224929
96	0x3c30a3ef	0.010781272
97	0xbc23e28e	-0.010002745
98	0x3cf2c306	0.02963401
99	0xbca186c5	-0.019717583
100	0xbaa9590e	-0.0012920217
101	0xbc8df269	-0.017327504
102	0xbb854024	-0.004066484
103	0xbcec6f97	-0.028861804
104	0x3ba5c188	0.005058471
105	0x3bc500b8	0.0060120486
106	0xbcb05918	-0.021526858
107	0xb9ad9428	-0.00033107516
108	0xbcb0c367	-0.02157755
109	0x3c884533	0.01663456
110	0x3c46a3a0	0.012123972
111	0xbc493ccc	-0.0122825615
112	0xbc4865cf	-0.012231304
113	0x3c6f7fbf	0.014617859
114	0x3c4cbe31	0.012496517
115	0xbc89d6f6	-0.016826134
116	0xbba76614	-0.005108604
117	0x3c292f96	0.010326287
118	0xbb789709	-0.003793182
119	0xbbbc23e5	-0.0057415836
120	0xbc8e91a1	-0.017403426
121	0x3c81e84f	0.015857844
122	0xbe8171b2	-0.25282055
123	0x3c455b26	0.012045657
124	0xbbf646db	-0.007515771
125	0x3ca1eb33	0.019765472
126	0xbcc7b3b5	-0.024377683
127	0xbb81c97f	-0.003960788
128	0xbd021e2c	-0.031767055
129	0x3bc0c483	0.005882801
130	0xbcc7ac4d	-0.024374152
131	0x3bee55f3	0.0072734295
132	0x3c82f6c8	0.015986815
133	0x3b034235	0.0020028476
134	0x3c002b00	0.007822752
135	0xbd5b042f	-0.053470787
136	0x3dd65b22	0.10466601
137	0x3c361eb2	0.011115717
138	0xbab1a30b	-0.0013552619
139	0xbbae4acb	-0.0053189746
140	0xbcc7659c	-0.024340443
141	0xbcd40f5e	-0.025886234
142	0x3cdc0d9e	0.026861962
143	0x3ba61651	0.0050685783
144	0xbae369d5	-0.0017350266
145	0x3bf7164f	0.007540501
146	0x3b0b836b	0.0021288048
147	0x3b5ddde8	0.003385419
148	0x3b2a295a	0.002596459
149	0x3b04b471	0.0020249153
150	0xbce27189	-0.027642028
151	0x3cf57e93	0.029967582
152	0x3cef837a	0.029237498
153	0x3c471996	0.012152096
154	0x3ca02ba7	0.019552065
155	0x3d185807	0.037193324
156	0xbd51ea95	-0.051249105
157	0x3bc82b03	0.006108643
158	0x3c807e70	0.01568529
159	0x3c2ffacd	0.010740948
160	0x3b950027	0.0045471373
161	0x3c2bd8a5	0.010488664
162	0x3b296d57	0.0025852525
163	0x3c1e339c	0.009655859
164	0x3d3b44a2	0.04571975
165	0xbd3c6569	-0.04599515
166	0xbc06ff1d	-0.008239535
167	0x3cd4dab0	0.025983185
168	0xbb510901	-0.0031896236
169	0xbb4d8f77	-0.003136603
170	0xbc0d429c	-0.008621838
171	0x3ca1f7b7	0.01977144
172	0xbd02839f	-0.031863805
173	0xbcb21fd5	-0.021743694
174	0xbc366196	-0.011131665
175	0x3a706672	0.0009170539
176	0xbc28593b	-0.01027518
177	0xbbef0431	-0.007294201
178	0xbcdc6917	-0.02690558
179	0xbce84dc1	-0.028357388
180	0x3d400834	0.046882823
181	0x3cfe5eac	0.031051002
182	0x3d0ddba1	0.034633283
183	0x3d015526	0.031575345
184	0xbd04016a	-0.03222791
185	0xbb7fc5d9	-0.0039027839
186	0x3c8a5ac5	0.016888985
187	0xbc8b5992	-0.017010484
188	0xbc7504f0	-0.0149547905
189	0xbcd0e1b1	-0.025498243
190	0x3d196b47	0.037455823
191	0x3c14a9c8	0.009073682
192	0x362f7ab4	2.6148455e-06
193	0x3c559240	0.013035357
194	0xbd2f1cca	-0.042752065
195	0x3c489f30	0.0122449845
196	0x3d293c8f	0.04131752
197	0x3d1a6514	0.03769405
198	0xbb8fd62a	-0.004389544
199	0x3b007d5a	0.0019605965
200	0xbc8c51d2	-0.017128859
201	0xbc9566c6	-0.018237483
202	0xbc98502b	-0.018592915
203	0xbcf937ac	-0.030422054
204	0xbd8d66b2	-0.06904353
205	0xbc8e2255	-0.017350355
206	0x3d95cd1a	0.07314511
207	0xbbe318dd	-0.006930454
208	0xbd76a25e	-0.06021344
209	0x3bb3dd4d	0.0054890276
210	0x3c3a5c27	0.01137451
211	0x3bb04be8	0.0053801425
212	0xbb996cb2	-0.004682147
213	0x3c14a348	0.009072132
214	0x3cc5fba7	0.024167849
215	0x3cb1e207	0.021714224
216	0xbb5ae7db	-0.0033402357
217	0xba36b10f	-0.0006969133
218	0xb9f0c0ba	-0.0004591996
219	0xbd002648	-0.031286508
220	0xbc2e8741	-0.010652364
221	0x3b83be98	0.0040205233
222	0xbbc6f637	-0.0060718316
223	0xbc8ac8d0	-0.016941458
224	0x3d10d16f	0.03535598
225	0x3d2ca418	0.04214868
226	0xbd1d2fee	-0.038375787
227	0xbd2bff8e	-0.041991763
228	0x3cd5cb5d	0.026097948
229	0x3d0f1989	0.03493646
230	0xbd0acbaf	-0.033885654
231	0xb9ec9bf4	-0.00045129622
232	0xbcba1de6	-0.022719335
233	0xbc87b7a3	-0.016567057
234	0xbcd315af	-0.025767175
235	0xbcd9c9fd	-0.026585573
236	0xbb129f6f	-0.0022372862
237	0x3bc7c41a	0.006096375
238	0xbbe18d72	-0.0068833167
239	0x3d1611fe	0.036638252
240	0x3c4aba72	0.012373554
241	0x3d8ea8fb	0.06965824
242	0xbc8b4442	-0.017000321
243	0xbbdac9f2	-0.006676906
244	0x3d2e5f08	0.042571098
245	0x3c98f3c0	0.018670917
246	0xbc8f2280	-0.017472506
247	0xbd1ecfcd	-0.038772393
248	0x3cad4d94	0.021155156
249	0x3c0dc6b5	0.0086533325
250	0x3d1f227a	0.03885124
251	0x3cc093aa	0.023507912
252	0xbd0e9ed9	-0.034819458
253	0x3cfe7cf4	0.031065442
254	0x3c4de48f	0.0125667
255	0xbd9cca56	-0.0765578

motion_mlp.mlps.1.fc0.fc.bias f4 [50]
0	0x34b09d9e	3.2897236e-07
1	0xb5b417aa	-1.3417932e-06
2	0x36b69d5f	5.442343e-06
3	0xb5898707	-1.0246594e-06
4	0xb6564272	-3.1927161e-06
5	0xb40c935f	-1.309213e-07
6	0xb62465e9	-2.4497224e-06
7	0xb5f4a2c1	-1.8226784e-06
8	0x36217d45	2.4063786e-06
9	0xb4bcf248	-3.5194012e-07
10	0xb5ac384b	-1.2831382e-06
11	0x351e565d	5.898526e-07
12	0xb5394633	-6.9020024e-07
13	0x3381b525	6.0399806e-08
14	0xb6232c81	-2.4314797e-06
15	0xb2c285bf	-2.2645393e-08
16	0x34d6b09d	3.998911e-07
17	0xb5826fe9	-9.718325e-07
18	0x3597dd1f	1.1314731e-06
19	0xb49a366a	-2.8724327e-07
20	0x36bec3aa	5.6852195e-06
21	0xb5531500	-7.8634184e-07
22	0x364bacce	3.0349943e-06
23	0xb50efc56	-5.326632e-07
24	0xb5383313	-6.8619664e-07
25	0xb4c075bf	-3.5848458e-07
26	0xb62ab047	-2.543458e-06
27	0x3600f37a	1.9215208e-06
28	0xb5ea2145	-1.7444041e-06
29	0x36de7eb0	6.630864e-06
30	0x3523425d	6.0818803e-07
31	0xb4fd8f62	-4.7229247e-07
32	0x35be0adc	1.4159264e-06
33	0xb4daf984	-4.078721e-07
34	0xb6e170cd	-6.7186543e-06
35	0x369075b9	4.305239e-06
36	0x3440fdc4	1.7973713e-07
37	0x36832b5c	3.909152e-06
38	0xb5b63c5e	-1.3577626e-06
39	0xb75ecec1	-1.328037e-05
40	0x3611a53c	2.1702863e-06
41	0xb4ec83d2	-4.4054337e-07
42	0xb53748ca	-6.8278734e-07
43	0x3652964a	3.1379918e-06
44	0x35958919	1.1141266e-06
45	0x35a4dd8a	1.2283429e-06
46	0xb5b88afe	-1.374952e-06
47	0x34aeffa8	3.259604e-07
48	0x360c1796	2.0875354e-06
49	0x347363cf	2.2667449e-07

motion_mlp.mlps.1.norm0.alpha f4 [1, 54, 1]
0	0x3d90f985	0.07078842
1	0x3d6d5590	0.057942927
2	0x3e13ba3f	0.14426516
3	0x3d95400e	0.07287608
4	0x3d82d5bf	0.06388425
5	0x3d958718	0.07301158
6	0x3d6d108b	0.057877105
7	0x3d94f4ff	0.07273292
8	0x3d63d5f1	0.055623952
9	0x3dcaa537	0.098947935
10	0x3df4478e	0.119277105
11	0x3d73cc98	0.059521288
12	0x3d91a1da	0.07110949
13	0x3d8b5624	0.068035394
14	0x3d44f3ed	0.04808419
15	0x3d9a93fe	0.075477585
16	0x3d835437	0.06412547
17	0x3d81bbc8	0.063346446
18	0x3d945636	0.07243006
19	0x3e2b3e3c	0.1672296
20	0x3d7ab734	0.061209872
21	0x3d953eb9	0.07287354
22	0x3d9e3210	0.077243924
23	0x3d882442	0.06647541
24	0x3da60261	0.081059225
25	0x3d93e3b0	0.07221162
26	0x3d77f2d1	0.060534302
27	0x3d572e34	0.052534297
28	0x3d6402d8	0.055666775
29	0x3d8d95cc	0.06913337
30	0x3d92408d	0.07141218
31	0x3cfd7e72	0.030944083
32	0x3d193802	0.03740693
33	0x3d547363	0.051867854
34	0x3da8dd9d	0.082453944
35	0x3d5de53b	0.05417369
36	0x3d846a1e	0.06465553
37	0x3da7c427	0.0819171
38	0x3d6fd7a3	0.058555257
39	0x3da7df16	0.08196847
40	0x3d89e06b	0.067322575
41	0x3d8ad8c2	0.067796245
42	0x3d97a8e1	0.07405258
43	0x3d836a54	0.06416765
44	0x3d88e775	0.06684772
45	0x3d95d975	0.07316867
46	0x3e2dc7b1	0.16970707
47	0x3d859286	0.06522088
48	0x3d99180e	0.07475291
49	0x3de00ecb	0.109403215
50	0x3d8768d2	0.0661179
51	0x3d9086ae	0.07056938
52	0x3d810f7c	0.063017815
53	0x3dc20f34	0.09475556

motion_mlp.mlps.1.norm0.beta f4 [1, 54, 1]
0	0xbbb67916	-0.005568634
1	0x3bc38c2f	0.005967639
2	0xb891dae5	-6.954911e-05
3	0xbbe03115	-0.0068417885
4	0xbb4fd787	-0.0031714158
5	0xbbe5c245	-0.007011684
6	0xbbd14a01	-0.006386996
7	0xbb039e0f	-0.0020083224
8	0xbba442c7	-0.0050128433
9	0xbcf43585	-0.029810676
10	0x3caa817e	0.0208137
11	0xbb988b6e	-0.004655293
12	0xbb098140	-0.002098158
13	0xbbc4c338	-0.006004717
14	0x3b512812	0.0031914753
15	0x3c898592	0.016787324
16	0x3ba83c51	0.0051341434
17	0x3bec03b5	0.0072025904
18	0xbc762bb9	-0.015025073
19	0x3c534102	0.012893917
20	0x3b14cf81	0.002270669
21	0xbb53a4cf	-0.0032294278
22	0xbbca2872	-0.0061693722
23	0xbb1e04cf	-0.0024111753
24	0x3c5dd48c	0.013539445
25	0x3c473bfd	0.012160298
26	0xbb9a021c	-0.0046999585
27	0x39f74b91	0.00047167813
28	0xba478d0c	-0.0007612265
29	0xbb4d4699	-0.0031322597
30	0x3b817699	0.0039509055
31	0x3c005013	0.007831591
32	0xbc9eb80e	-0.019374873
33	0x387a23ac	5.9637867e-05
34	0xbca581f2	-0.020203564
35	0x3bb48c6f	0.005509905
36	0x3aced4c6	0.0015779964
37	0x3d581b95	0.05276068
38	0x39949d20	0.00028345827
39	0x3cbe4a4c	0.023228787
40	0xba2bb153	-0.00065495557
41	0xbb893e26	-0.004188317
42	0xbb5b5474	-0.0033467086
43	0x3983ac73	0.00025114752
44	0xbbb9eaa6	-0.005673724
45	0xbae866fe	-0.0017730889
46	0xbb0e0294	-0.0021669017
47	0xbc62d9ff	-0.01384592
48	0xbb420930	-0.0029607527
49	0x3c97a9df	0.018513618
50	0xbaef14e1	-0.0018240475
51	0xbc779d26	-0.015113151
52	0x3c6c7309	0.014431723
53	0xbc34f069	-0.011043646

motion_mlp.mlps.2.fc0.fc.weight f4 [50, 50]
0	0xbc8a3a3e	-0.016873475
1	0xbcc33532	-0.023829076
2	0x3c204f21	0.009784491
3	0xbd1b6d77	-0.03794619
4	0xbb8a2aa8	-0.004216511
5	0xbba8fd1b	-0.0051571256
6	0xbd208036	-0.03918477
7	0xbc282c11	-0.0102644125
8	0x3cdcc88b	0.026951095
9	0xbc8d6afd	-0.01726293
10	0xbcaaa111	-0.020828756
11	0x3bb10c0d	0.005403048
12	0xbc6b4184	-0.014358882
13	0xbaf166ea	-0.0018417512
14	0xbbeec54d	-0.0072867037
15	0xbd9396ee	-0.07206522
16	0x3a0a0d8d	0.00052663015
17	0xbd34e51b	-0.044163805
18	0x3c49fe5e	0.012328712
19	0x3d88eae8	0.0668543
20	0xbce7e8f5	-0.028309325
21	0xbc983f91	-0.018584998
22	0xbcaab595	-0.020838538
23	0xbc882a2a	-0.016621668
24	0x3cbea054	0.02326981
25	0x393b1c94	0.00017844356
26	0xbcd78bd1	-0.026311787
27	0x3c7dc957	0.015489898
28	0xbca87b5a	-0.020566631
29	0xbc9f9236	-0.019478898
30	0x3c7799c8	0.015112348
31	0xbcf42680	-0.029803514
32	0xbbd1af10	-0.006399043
33	0x3b1d2ba6	0.0023982315
34	0xbcb57fcf	-0.02215567
35	0xbb940e1d	-0.004518284
36	0xbd25e395	-0.040500242
37	0xbc035f8a	-0.008018384
38	0xbc5e65d8	-0.013574086
39	0xbc54c9b1	-0.01298754
40	0x3b8b565d	0.0042522387
41	0xbc835be0	-0.01603502
42	0x3cd202c0	0.025636077
43	0xba84ecad	-0.0010141336
44	0x3a845673	0.0010096565
45	0xbb5ba198	-0.0033513065
46	0x3cb6027e	0.022217985
47	0xbc7ea9aa	-0.015543381
48	0x3ce28c5c	0.02765482
49	0xbcc9bcdb	-0.024626186
50	0x3ad79559	0.0016447707
51	0xbd0105a7	-0.03149953
52	0x3b873409	0.004126076
53	0xbd1fa8d4	-0.038979366
54	0xbc689fdf	-0.0141982725
55	0xbc93611e	-0.017990645
56	0xbb20dc7f	-0.0024545488
57	0xbcdb7e75	-0.026793698
58	0xbc6981e5	-0.014252161
59	0xbcc64ee4	-0.02420754
60	0x394756a9	0.00019010402
61	0x3bceb3ca	0.0063080536
62	0xbd1cccef	-0.038281377
63	0x3d161a09	0.036645923
64	0xbc3e40ff	-0.011612176
65	0xbd0815b8	-0.033223838
66	0xbca9532a	-0.020669539
67	0xb987ec41	-0.0002592523
68	0xbc745a3b	-0.014914091
69	0x3d1e770b	0.038687747
70	0xbc72f4e3	-0.014828893
71	0xbaefa4c7	-0.001828336
72	0xbd433d86	-0.047666095
73	0x3ccbb4d7	0.024866505
74	0xbca020fa	-0.019546974
75	0x3c0733cc	0.008252095
76	0xbd0afa78	-0.033930272
77	0xbbeaa5fb	-0.0071608997
78	0xbd184e0b	-0.037183803
79	0xbc4c6abe	-0.012476621
80	0xba8db000	-0.0010809898
81	0x3b4f2209	0.003160598
82	0xbc1f33a4	-0.009716902
83	0x3c8cb42d	0.017175758
84	0x3bc9df09	0.006160621
85	0xbb09ecfb	-0.0021045792
86	0xbc84ee0e	-0.016226795
87	0xbb0b065e	-0.0021213512
88	0xbc4eec7e	-0.012629626
89	0xbc9da443	-0.019243365
90	0xbc9904b1	-0.018678995
91	0x3c3c7fb7	0.011505059
92	0xbcf49915	-0.029858151
93	0xba8e314d	-0.0010848433
94	0x3be69c73	0.007037693
95	0x3c016031	0.007896469
96	0xbbd17dc7	-0.0063931677
97	0x3992b288	0.00027980306
98	0x3c0fd052	0.008777695
99	0xbad4e0e0	-0.0016241334
100	0xbba6b876	-0.0050879074
101	0xbc10459a	-0.008805657
102	0x3a012ddd	0.00049277936
103	0xbc566f1a	-0.013088012
104	0xbc1009aa	-0.008791367
105	0x3d0cc102	0.034363754
106	0xbd3eddae	-0.04659813
107	0xbba46f50	-0.0050181523
108	0x3c208ea9	0.009799638
109	0xbbe00e36	-0.0068376316
110	0xbcbf8ecf	-0.023383526
111	0x3bb72514	0.005589137
112	0x3bfcec1b	0.0077185757
113	0x3b1ee1db	0.0024243507
114	0xbb814d78	-0.0039460026
115	0xbd30bc39	-0.043148253
116	0xbc41ed87	-0.011836416
117	0x3b61451a	0.0034373463
118	0x3bfa3a55	0.0076363483
119	0x3c496d62	0.012294145
120	0xbdfa4b97	-0.12221449
121	0xbbb73911	-0.0055915196
122	0xbc766e4c	-0.015040945
123	0xbb9b1d4a	-0.004733716
124	0xbb126524	-0.0022338117
125	0xbc2e933b	-0.01065522
126	0x39bfd9fc	0.0003659277
127	0x3c234b0b	0.009966622
128	0x3b03c072	0.002010372
129	0x3af72d75	0.0018858152
130	0x3b8160ac	0.0039482918
131	0xbc3c994e	-0.01151116
132	0xbc5b92ee	-0.01340173
133	0x3ba75997	0.0051071155
134	0x3c587624	0.013211761
135	0xbd68433b	-0.05670474
136	0xbb801248	-0.0039084293
137	0xbb45ed4c	-0.0030201254
138	0xbc8c5c9a	-0.017134
139	0x3e211ec8	0.15734398
140	0xbada10d8	-0.00166371
141	0x3cab449c	0.020906739
142	0x3c375dec	0.011191826
143	0x3cdbf173	0.02684853
144	0x3be406ed	0.0069588334
145	0x3cd8148d	0.026376987
146	0x3cb5d5c7	0.022196664
147	0x3c474a3d	0.012163696
148	0x3b069114	0.002053325
149	0x3cf63d22	0.030058447
150	0x3caad7aa	0.02085479
151	0x3ce83878	0.028347239
152	0x3c9d17a6	0.019176316
153	0xbd8e7c61	-0.06957317
154	0xbd1dfb05	-0.03856947
155	0xbc56aa3d	-0.013102111
156	0x3ca88e5a	0.020575691
157	0xbb81402b	-0.003944417
158	0x3caebb85	0.02132965
159	0xbb8dc05d	-0.00432591
160	0x3c38c909	0.011278399
161	0xbb992304	-0.0046733636
162	0xbcf6eaac	-0.030141197
163	0x3c85ed3c	0.016348474
164	0x3c52fb3a	0.01287728
165	0x39f434e7	0.00046578722
166	0x3be96e42	0.0071237395
167	0xbc81da6b	-0.01585122
168	0x3b7757d1	0.0037741552
169	0x3cb560f9	0.022140967
170	0x3c8c904d	0.017158652
171	0x3ae70382	0.0017624947
172	0xbc96dbe6	-0.018415403
173	0x3d8da036	0.069153234
174	0xbc96598b	-0.018353244
175	0x3cf71eeb	0.03016611
176	0x3d19ff30	0.03759688
177	0xba3454f5	-0.00068791147
178	0xbbbf675a	-0.005841178
179	0x3c956c69	0.01824017
180	0x3ce9ce64	0.028540798
181	0x3c368e21	0.011142285
182	0x3ae6761b	0.0017582806
183	0x3c65c155	0.014023145
184	0x3b941937	0.0045196074
185	0x3adfb905	0.001706869
186	0x3cb68450	0.022279888
187	0x3c816437	0.015794856
188	0x3c30a749	0.010782071
189	0x3c540050	0.012939528
190	0xbc9a6c4f	-0.018850474
191	0xbc1c76ea	-0.009549836
192	0xbc555edd	-0.013023105
193	0x3ca9b508	0.020716205
194	0xbc0859be	-0.008322177
195	0xbccd0c95	-0.025030414
196	0x3c27ad72	0.010234224
197	0x3ba45088	0.005014483
198	0xbba268bd	-0.0049563334
199	0xbb346a6f	-0.002752926
200	0x3cbcb504	0.023035534
201	0xbae06ace	-0.0017121674
202	0x3ae17761	0.0017201715
203	0xbb16608f	-0.0022945737
204	0xbbcc4b69	-0.0062345755
205	0xbcea24d5	-0.028582016
206	0xbcba40ff	-0.02273607
207	0xbce823a9	-0.028337317
208	0x3ccc9d60	0.024977386
209	0xbc9db89b	-0.019253066
210	0x3b88116e	0.0041524684
211	0xbb99002e	-0.004669211
212	0x3d4c240a	0.049839057
213	0x3bff657b	0.00779408
214	0xbc835b7c	-0.016034834
215	0xbaba7ab6	-0.0014227245
216	0x3a2e1ebb	0.00066421524
217	0xbd09a8f4	-0.033608392
218	0xb91094ae	-0.00013788298
219	0x3c209755	0.009801705
220	0xbcdebbeb	-0.027189216
221	0x3b851bb9	0.0040621427
222	0xbd56646a	-0.052341856
223	0xbceb6f1a	-0.0287395
224	0x3c958a02	0.018254284
225	0x3bbe2b77	0.0058035213
226	0x3c34014b	0.010986636
227	0x3c04e3b7	0.008110932
228	0x3b99c56f	0.0046927254
229	0xbc0dddd2	-0.008658843
230	0x3c4f6f77	0.012660853
231	0x3d927c79	0.071526475
232	0x3c8cab0a	0.017171402
233	0xbbe06bc4	-0.006848784
234	0x3c8b70bb	0.017021528
235	0xbca71b14	-0.020398654
236	0xbc766cce	-0.0150405895
237	0xbc9b4112	-0.018951926
238	0x3bef3b04	0.0073007364
239	0x3c7e9d02	0.015540363
240	0x3c1cf657	0.009580216
241	0xbcb89729	-0.022533016
242	0x3c9e8ce8	0.019354299
243	0x3bd0352d	0.0063539953
244	0x3cc5a238	0.024125203
245	0x3c32264b	0.010873388
246	0xbd20c951	-0.03925449
247	0x3aafe6b1	0.0013420192
248	0xbb50db28	-0.0031868909
249	0x3b9a83b9	0.0047154096
250	0xbc77dfbd	-0.015129027
251	0xbd698f9a	-0.057021715
252	0xb8a629ce	-7.9232836e-05
253	0x3c88e6f5	0.016711691
254	0xbb2063c2	-0.0024473523
255	0xbcbe1143	-0.02320159

motion_mlp.mlps.2.fc0.fc.bias f4 [50]
0	0x34aafa9d	3.1847313e-07
1	0xb4d303e1	-3.9304635e-07
2	0x35fe3a94	1.8941523e-06
3	0xb5370c00	-6.8190275e-07
4	0xb4c9a27e	-3.7557396e-07
5	0xb48cb54c	-2.6208943e-07
6	0xb5600b9d	-8.34634e-07
7	0x355535d5	7.942702e-07
8	0x351723a2	5.6303736e-07
9	0x35d9cfa6	1.6228194e-06
10	0x34f598ea	4.5746066e-07
11	0xb4c568bd	-3.6770317e-07
12	0xb480de35	-2.4003535e-07
13	0x33b424b7	8.3885816e-08
14	0x3443fe29	1.8253253e-07
15	0xb42d187d	-1.612079e-07
16	0xb5083b50	-5.075026e-07
17	0x35f1aa05	1.8005381e-06
18	0xb4816922	-2.4104617e-07
19	0x33c05720	8.956545e-08
20	0xb5d117eb	-1.5578674e-06
21	0x3525b5c0	6.173177e-07
22	0x34b9da30	3.4617688e-07
23	0x35da5b3f	1.6268822e-06
24	0x3557ab32	8.0342863e-07
25	0x35f93276	1.8566632e-06
26	0xb4f8f7c1	-4.6373864e-07
27	0x35963028	1.1189886e-06
28	0x34a0d055	2.9953904e-07
29	0xb5020f23	-4.84508e-07
30	0xb4da468d	-4.0656997e-07
31	0xb4ee1a61	-4.4350148e-07
32	0x35ccf332	1.5269964e-06
33	0xb586b949	-1.0037703e-06
34	0x3405c78a	1.2459182e-07
35	0xb2e02b87	-2.6096826e-08
36	0xb594e96d	-1.1094795e-06
37	0xb55241fe	-7.832713e-07
38	0xb5cf84f7	-1.54614e-06
39	0xb3962836	-6.9922336e-08
40	0x353037d6	6.564636e-07
41	0xb59b5a53	-1.1574688e-06
42	0xb2919eb2	-1.6952388e-08
43	0xb56ff6dc	-8.9393666e-07
44	0xb57c1910	-9.3913786e-07
45	0x33cef6ae	9.637493e-08
46	0x350b6465	5.192763e-07
47	0xb4c024fa	-3.578969e-07
48	0x34ac1c76	3.2058205e-07
49	0xb505a833	-4.9791123e-07

motion_mlp.mlps.2.norm0.alpha f4 [1, 54, 1]
0	0x3d72c005	0.059265155
1	0x3d391775	0.045188386
2	0x3d6c46b6	0.057684623
3	0x3d227001	0.039657596
4	0x3cd94e47	0.026526583
5	0x3d094478	0.033512563
6	0x3cd431f4	0.025902726
7	0x3cf325fd	0.0296812
8	0x3d15a055	0.036529858
9	0x3d729e84	0.059233204
10	0x3d7db5e5	0.061941046
11	0x3ceee82d	0.029163444
12	0x3d099c82	0.033596523
13	0x3d137b81	0.036006454
14	0x3d1d7f25	0.038451333
15	0x3d1faea3	0.038984906
16	0x3d3253b1	0.043536846
17	0x3cf778e3	0.03020901
18	0x3d446fcc	0.04795818
19	0x3dd0c5af	0.10193955
20	0x3ce350b5	0.027748445
21	0x3d11f99d	0.03563844
22	0x3d0d1b8c	0.0344501
23	0x3cf0ca46	0.029393326
24	0x3d61b98c	0.055108592
25	0x3d76248a	0.06009344
26	0x3cfc28d0	0.03078118
27	0x3d04944c	0.03236799
28	0x3cfa696f	0.030567853
29	0x3d138061	0.036011104
30	0x3d0ce3bf	0.034396883
31	0x3c62a5cc	0.013833474
32	0x3ce529dc	0.027974062
33	0x3d3d594c	0.04622774
34	0x3d1937bd	0.03740667
35	0x3d233392	0.039844103
36	0x3d23b93a	0.039971568
37	0x3d5a33a6	0.053271912
38	0x3d1aa384	0.037753597
39	0x3d859ef4	0.065244585
40	0x3d29c1d4	0.041444615
41	0x3d2712bf	0.040789362
42	0x3d2e77fe	0.042594902
43	0x3cee2e1d	0.029074723
44	0x3cf3de25	0.029769013
45	0x3d1c1381	0.038104538
46	0x3dcac7df	0.09901404
47	0x3d3b5017	0.045730677
48	0x3d5450eb	0.051834982
49	0x3da02757	0.078200035
50	0x3cdf4fa9	0.027259665
51	0x3d759e1c	0.059965238
52	0x3c8b5741	0.01700938
53	0x3d3d997a	0.046288945

motion_mlp.mlps.2.norm0.beta f4 [1, 54, 1]
0	0xbcb43187	-0.021996273
1	0xb8bf68a4	-9.1270806e-05
2	0x3d44f965	0.048089404
3	0xba141d1f	-0.00056500913
4	0xbb0be52e	-0.0021346319
5	0x3b98068c	0.0046394523
6	0x3ba5d7be	0.005061119
7	0xbbf56e00	-0.0074899197
8	0x3b94b6f6	0.004538412
9	0x3b182e40	0.0023220927
10	0x3d38c8e6	0.045113467
11	0x3b91523a	0.004434851
12	0x3b13b01d	0.0022535392
13	0x3bb8917b	0.005632577
14	0xbba7c145	-0.005119475
15	0xbbf982d3	-0.0076144724
16	0xbc47a1f4	-0.012184609
17	0x3afbaae0	0.0019200705
18	0x3a9331b9	0.0011230028
19	0xbc68d1cf	-0.0142101785
20	0xb98d914c	-0.0002700187
21	0xba291302	-0.0006449671
22	0xbb803866	-0.003912973
23	0xbb800459	-0.0039067683
24	0xbc446bdc	-0.011988606
25	0xbb0df4e1	-0.0021660852
26	0x3b51ffbe	0.0032043303
27	0xbbfe896e	-0.0077678477
28	0xbbe79070	-0.007066779
29	0x3bbff141	0.005857617
30	0xb9c92764	-0.00038367056
31	0xbbb38df5	-0.005479569
32	0x3cb77ae4	0.022397466
33	0x3b64fc4d	0.0034940422
34	0xbcbe86d1	-0.023257645
35	0xbbfc4961	-0.007699177
36	0xbb36b2c1	-0.0027877542
37	0x3d21d9fe	0.039514534
38	0xbc0dcf20	-0.0086553395
39	0xbc00340f	-0.007824912
40	0xbbac68b9	-0.0052615074
41	0x3c11b05d	0.008892146
42	0x3c28ae70	0.010295495
43	0xba6e5d89	-0.00090929173
44	0x3aeb08c3	0.0017931688
45	0x3adadad0	0.0016697291
46	0x3b2711c1	0.002549276
47	0x3bcca96a	0.0062457817
48	0xbb2e185a	-0.0026564808
49	0xbc56a5eb	-0.013101081
50	0xbb294491	-0.0025828222
51	0xbca9fde5	-0.02075095
52	0xbb71f13d	-0.003691747
53	0xbb61a3fe	-0.0034430022

motion_mlp.mlps.3.fc0.fc.weight f4 [50, 50]
0	0x3add16ef	0.0016867797
1	0xbc952bf3	-0.018209433
2	0x3d8ac38d	0.067755796
3	0xbcaa7637	-0.020808322
4	0xbc1be255	-0.009514411
5	0xbbafd34d	-0.005365765
6	0x3ce0c907	0.027439607
7	0xbacb017c	-0.0015488113
8	0x3d0ebe12	0.034849234
9	0x3c02ac83	0.0079757
10	0x3ac724ce	0.0015193464
11	0xbcd5c51c	-0.026094966
12	0xbb4ed2ff	-0.003155887
13	0x3b2b5bf0	0.0026147328
14	0x3a65dd05	0.0008768591
15	0x3cfe1c90	0.031019479
16	0x3c31c54d	0.010850263
17	0x3caaa4ca	0.02083053
18	0xbc6f3725	-0.01460055
19	0xbc512028	-0.012764014
20	0xbc59a348	-0.013283558
21	0xbbdb7cd9	-0.0066982326
22	0xbd097490	-0.03355843
23	0xbc4023f4	-0.011727322
24	0x3c9ebb85	0.019376526
25	0x3c757bb5	0.014983107
26	0x3c0b8249	0.008514949
27	0x3a6c08fd	0.0009004025
28	0xbb148a84	-0.002266557
29	0x3cb4a66b	0.02205201
30	0xbc2c8f44	-0.010532204
31	0x3bac011d	0.005249156
32	0x3c0967ab	0.008386533
33	0x3bba33bd	0.005682437
34	0x3cf9896f	0.030461041
35	0xbd786982	-0.060647495
36	0x3c3b172d	0.0114191
37	0x3c8f97bc	0.017528407
38	0xbcbf10c1	-0.023323419
39	0x3d0ea38c	0.03482394
40	0x3c8e238e	0.017350938
41	0x3c25cd7c	0.010119792
42	0x3cf08997	0.029362483
43	0x3d02c6cc	0.03192787
44	0xbca82d2d	-0.020529354
45	0xbc8ec871	-0.017429562
46	0xbc85716c	-0.016289435
47	0x3b7332e4	0.003710919
48	0xbcc4c1cc	-0.02401819
49	0xbba0c3e9	-0.004906167
50	0x3c05a4b0	0.00815694
51	0xbd8a2f78	-0.06747335
52	0x3c73a25f	0.014870255
53	0xbd19ce44	-0.037550226
54	0x3c0df5c7	0.008664555
55	0x3beb7566	0.007185626
56	0x3c988827	0.01861961
57	0x3b6581bc	0.0035019955
58	0x3c3765dc	0.011193719
59	0xbcc2544e	-0.02372184
60	0x3b941c87	0.0045200023
61	0x3ce5df59	0.028060602
62	0xbc8e6b2d	-0.01738509
63	0x3c64fd09	0.013976344
64	0xb8e47679	-0.000108939545
65	0x3cc3138a	0.023813028
66	0xbbffc79d	-0.007805778
67	0xbc038f1f	-0.008029728
68	0xbbb7df44	-0.005611332
69	0x3cece505	0.028917799
70	0x3cbe924c	0.02326312
71	0xbca18a92	-0.019719396
72	0xbc86744e	-0.01641288
73	0x3d6ebe2c	0.05828683
74	0xbcb4b6dd	-0.022059852
75	0xbaff4e2b	-0.0019478252
76	0xbcdfa5e5	-0.027300784
77	0xbb2d47e9	-0.0026440567
78	0x3b18e7d1	0.0023331533
79	0x3c39f96d	0.011350972
80	0xbd3d078e	-0.046149783
81	0xbd6bdc9a	-0.05758343
82	0x3b91637c	0.0044369083
83	0xb9153388	-0.00014228944
84	0x3b88723d	0.004164009
85	0xba5ab852	-0.0008343506
86	0xbc944798	-0.018100545
87	0xbcd5b91c	-0.026089244
88	0x3c8f1ab6	0.017468791
89	0x3a82870c	0.000995846
90	0xbbdab97a	-0.0066749426
91	0xbc42aac2	-0.011881532
92	0xbb454e39	-0.0030106439
93	0xbab33d88	-0.0013674954
94	0xbcfe92ba	-0.031075824
95	0xbcd6f463	-0.02623958
96	0x3cd069ee	0.025441136
97	0xbca85068	-0.020546153
98	0xb8dec4c3	-0.00010622435
99	0xbc926c15	-0.017873803
100	0xba38ccdf	-0.0007049571
101	0xbc09355e	-0.00837454
102	0xbd1d3c4f	-0.038387593
103	0xbc65c0f7	-0.014023057
104	0xbb9d0d3d	-0.004792838
105	0x3cd45ea2	0.02592403
106	0x3c937f3f	0.018005012
107	0xbd48adec	-0.04899399
108	0x39b819b7	0.00035114374
109	0xbc5f86c7	-0.013642973
110	0x3b0edf33	0.0021800518
111	0x3bec6b43	0.007214935
112	0xbc0272fa	-0.007961983
113	0xbd46844b	-0.04846601
114	0x3caf9245	0.021432051
115	0xbcb77d45	-0.0223986
116	0xbcd51a2d	-0.026013458
117	0xbc8a9fba	-0.016921867
118	0x3caa7a8a	0.020810384
119	0xbd104445	-0.035221357
120	0xbc7f6f3e	-0.015590487
121	0xbc5d2468	-0.013497449
122	0xbccea871	-0.025226803
123	0xbcb82912	-0.022480521
124	0xbc029a66	-0.007971382
125	0xbd110f59	-0.035415027
126	0x3d4c8adf	0.049937125
127	0xbb4be925	-0.0031114307
128	0xbceadc63	-0.028669542
129	0xbbc52ae0	-0.006017074
130	0x3d305ea5	0.04305901
131	0x3cb0179f	0.021495638
132	0xbca01d50	-0.019545227
133	0x3c3b5f0b	0.011436234
134	0xbc322026	-0.010871923
135	0xbc1ece1b	-0.009692694
136	0x38c0e615	9.1981296e-05
137	0x3bf9968c	0.0076168235
138	0x3d0ca2db	0.034335
139	0x3b9f9c8b	0.0048709563
140	0x3c1a2147	0.009407348
141	0xb866dc48	-5.5041426e-05
142	0xbc3b4f3a	-0.011432463
143	0xbc9dceff	-0.019263742
144	0x3c899420	0.016794264
145	0x3a259ba6	0.0006317444
146	0xba37d409	-0.00070124917
147	0xbcde61ad	-0.027146185
148	0xbbb5f112	-0.0055524195
149	0x3ce84927	0.028355194
150	0xbb7fbee3	-0.003902369
151	0x3c1130f7	0.008861772
152	0xbbe22b5b	-0.006902141
153	0x3b92762c	0.0044696536
154	0x3afcb1e3	0.0019279089
155	0xbbf9363e	-0.007605343
156	0xbd0b4be7	-0.034007933
157	0x3c9a9ca3	0.018873518
158	0xbc524fd8	-0.012836419
159	0x3c82c6a8	0.015963867
160	0x3c256157	0.010094008
161	0xbb120a9c	-0.0022284156
162	0x3bced972	0.0063125426
163	0xbca197fc	-0.019725792
164	0xbca67603	-0.020319944
165	0xbc5ac2b9	-0.01335209
166	0x3c01921f	0.007908373
167	0xbc94efe2	-0.018180791
168	0x3c60afb0	0.013713762
169	0xbd378ea2	-0.04481376
170	0xbaa1559f	-0.0012308842
171	0x3ad8df49	0.0016546036
172	0x3cbdfa58	0.023190662
173	0xbadfd871	-0.0017078054
174	0x3b9c2f6a	0.0047663944
175	0x3cbe7277	0.02324794
176	0xbb61ea9a	-0.0034472109
177	0xbd943a23	-0.07237651
178	0x3d0b6a4b	0.034036916
179	0x3d1b997f	0.037988182
180	0xbbc6bf61	-0.0060652946
181	0x3d19fe29	0.0375959
182	0x3bdb7334	0.006697083
183	0x3b807a44	0.003920825
184	0x3c898362	0.016786281
185	0x3b632105	0.0034657132
186	0x3d079125	0.033097405
187	0x3c105004	0.00880814
188	0xbd0409ae	-0.032235794
189	0x3c613eb2	0.013747858
190	0x3c8058d2	0.015667353
191	0xbcbbfc42	-0.022947434
192	0xbbf02fbb	-0.0073299087
193	0xbd4224d4	-0.047398403
194	0xbb6e1609	-0.0036329052
195	0x3bdfce59	0.0068300185
196	0x3ceed538	0.029154405
197	0xbbc59a16	-0.0060303314
198	0xbcceb295	-0.025231639
199	0x386f31d9	5.7028465e-05
200	0x3d076181	0.03305197
201	0xbcce49a1	-0.025181593
202	0xbc95a2e2	-0.018266145
203	0x39995c80	0.00029251352
204	0x3c63a233	0.013893652
205	0xbd567fc2	-0.052367933
206	0x3d800830	0.06251562
207	0x3a173615	0.0005768252
208	0xbd7773d1	-0.060413186
209	0x3be59b3b	0.0070070303
210	0xbafb96b8	-0.0019194698
211	0xbcd3cda6	-0.025854897
212	0xbd1126a6	-0.03543725
213	0x3cdeeff0	0.02721402
214	0xbb53af6d	-0.0032300607
215	0x3bfa6572	0.0076414878
216	0x3c807c6e	0.015684333
217	0xba403568	-0.0007332177
218	0x3cca676f	0.024707524
219	0x3d379f66	0.04482975
220	0x3cf8f23e	0.030388948
221	0xbc5c74b4	-0.013455559
222	0xbc0a8b93	-0.008456129
223	0x3c8bd017	0.017066998
224	0x3c957933	0.018246269
225	0xbc9c5faf	-0.019088594
226	0xbbc673cc	-0.0060562845
227	0x3c724c5d	0.014788714
228	0xbc7aa52c	-0.015298169
229	0xbc863de5	-0.016386935
230	0xbd2c09ec	-0.04200165
231	0xbb8db2e4	-0.004324304
232	0xbc86f3d5	-0.01647369
233	0xbd32555c	-0.043538436
234	0x3d067630	0.032827556
235	0x3be3d73b	0.0069531477
236	0xbcc3d1e3	-0.023903793
237	0x3baafc6e	0.0052180802
238	0xb951b842	-0.00020000435
239	0x3d02fdc0	0.031980276
240	0x3c7e1af1	0.015509353
241	0x3d29cae9	0.041453276
242	0x3b76aa10	0.0037637986
243	0xbc2bdb1d	-0.010489252
244	0xbcac1a47	-0.021008624
245	0x3be0f3d5	0.0068650045
246	0xbcac8322	-0.021058623
247	0x3cc0a5ec	0.023516618
248	0x3b427cb9	0.0029676391
249	0xbc3edbec	-0.011649113
250	0x3be9be01	0.007133246
251	0xbc888b9a	-0.01666813
252	0xbc59f677	-0.013303391
253	0xbc6e4403	-0.014542582
254	0xbd180be4	-0.037120715
255	0xbc72ff2f	-0.014831348

motion_mlp.mlps.3.fc0.fc.bias f4 [50]
0	0x35679982	8.627759e-07
1	0x3499a673	2.8619579e-07
2	0x359225ab	1.088881e-06
3	0xb544dcf0	-7.3337196e-07
4	0x35751a57	9.130794e-07
5	0x3503d9bc	4.911815e-07
6	0x35932512	1.0963142e-06
7	0x359e3ade	1.178905e-06
8	0x34ea8ed6	4.3689823e-07
9	0xb556e158	-8.004913e-07
10	0xb4571893	-2.0032375e-07
11	0xb42694df	-1.5514114e-07
12	0xb5131a03	-5.479962e-07
13	0xb552984e	-7.845273e-07
14	0xb52c8af3	-6.427719e-07
15	0xb4f28a79	-4.5176765e-07
16	0x358972d7	1.0240718e-06
17	0xb3160b34	-3.4934786e-08
18	0xb4c396fe	-3.6431442e-07
19	0x35e9e0c6	1.742527e-06
20	0x33d4ccb9	9.909258e-08
21	0xb4866c0a	-2.5038054e-07
22	0xb59174f3	-1.0837379e-06
23	0x34986030	2.8382192e-07
24	0xb56363e0	-8.4709427e-07
25	0x34f6320e	4.585749e-07
26	0xb5ad95bf	-1.2933086e-06
27	0x3438e9c7	1.7221383e-07
28	0x35ce590b	1.5374111e-06
29	0xb5a49243	-1.226152e-06
30	0xb4917394	-2.709245e-07
31	0x34f8caeb	4.6341242e-07
32	0xb5d8e4e0	-1.6159865e-06
33	0xb4235ee2	-1.5215076e-07
34	0x35843e6c	9.852934e-07
35	0x35b3dc4d	1.3400655e-06
36	0x3411bf1b	1.3573701e-07
37	0xb585d799	-9.972019e-07
38	0x32876cf7	1.576562e-08
39	0xb5f1e4c1	-1.8022475e-06
40	0x35efe11a	1.7872401e-06
41	0xb3a3a456	-7.6201715e-08
42	0xb5c507b3	-1.4679885e-06
43	0x3549b21e	7.513753e-07
44	0xb5952c0b	-1.1114183e-06
45	0xb4ff8c03	-4.7599323e-07
46	0x35639b9b	8.4790526e-07
47	0xb4ef99ae	-4.4629036e-07
48	0x349690c0	2.8044997e-07
49	0xb24009d8	-1.1178109e-08

motion_mlp.mlps.3.norm0.alpha f4 [1, 54, 1]
0	0x3d5aab00	0.053385735
1	0x3d6cc1b5	0.05780192
2	0x3dba8a39	0.09108395
3	0x3d3123e5	0.043247122
4	0x3ce457f4	0.02787397
5	0x3cfbebbb	0.030752053
6	0x3c8e6783	0.017383343
7	0x3d0051e4	0.031328097
8	0x3d111cc1	0.035427812
9	0x3d6054b5	0.054768283
10	0x3dd4fdf1	0.10399998
11	0x3d0bafc1	0.03410316
12	0x3d30557c	0.043050274
13	0x3d187f93	0.03723104
14	0x3d5428e6	0.051796816
15	0x3d438e39	0.047743056
16	0x3d2bf197	0.041978445
17	0x3d132ccc	0.035931394
18	0x3d365202	0.044511802
19	0x3bd883f3	0.0066075264
20	0x3d3d8407	0.04626849
21	0x3d51be64	0.05120696
22	0x3d28eca0	0.04124129
23	0x3d31e836	0.043434344
24	0x3d6514c2	0.055928
25	0x3d9c34f2	0.07627286
26	0x3d1e13c8	0.038593084
27	0x3d39cf21	0.04536355
28	0x3c89fd6b	0.016844472
29	0x3d5ed906	0.05440619
30	0x3c9d3fec	0.01919552
31	0x3c3b705c	0.011440363
32	0x3d441161	0.047868136
33	0x3c2e1f8a	0.010627637
34	0x3da68e9b	0.081326686
35	0x3d2e06f9	0.04248712
36	0x3cff4710	0.031161815
37	0x3da032e7	0.07822209
38	0x3d60b134	0.054856494
39	0x3d66cce1	0.05634773
40	0x3d70cefe	0.058791153
41	0x3d691c35	0.056911666
42	0x3d266e8c	0.04063277
43	0x3d70b767	0.058768656
44	0x3d273c3f	0.04082894
45	0x3c3053e3	0.010762188
46	0x3c1f08b0	0.009706661
47	0x3d240f9b	0.040053945
48	0x3d4c7386	0.04991486
49	0x3dd6c9f7	0.104877405
50	0x3d0e5a77	0.034754243
51	0x3d8e78c9	0.06956632
52	0x3da8f9c5	0.08250765
53	0x3cbe8dcf	0.023260979

motion_mlp.mlps.3.norm0.beta f4 [1, 54, 1]
0	0x3c13d386	0.009022599
1	0x3b162093	0.00229076
2	0x3cc2999c	0.023754887
3	0xbb8d4dc4	-0.004312249
4	0x3a020c37	0.00049609266
5	0xba8f06e7	-0.0010912091
6	0xbb747156	-0.0037298999
7	0x3be01316	0.0068382127
8	0xbabf730d	-0.0014606431
9	0xbba1b074	-0.004934365
10	0x3b9e3eeb	0.0048292778
11	0xbb368b7e	-0.002785414
12	0xbb4ce621	-0.0031265097
13	0xbbfb23db	-0.0076641864
14	0xbc0d9df8	-0.00864362
15	0x3c0e28e6	0.008676743
16	0xb6bc2ce8	-5.6080644e-06
17	0xbc1804e3	-0.009278509
18	0xbc066dc2	-0.008204879
19	0x3c93b50f	0.018030671
20	0xbb9cfec3	-0.004791112
21	0x39de33b8	0.00042381673
22	0x3afa0fd0	0.0019078199
23	0x3aa71e31	0.0012750087
24	0xbcc09dbd	-0.023512715
25	0xbc57682e	-0.013147397
26	0x3abf9b1e	0.0014618372
27	0x3b4f7f9a	0.003166175
28	0x3c9750fd	0.018471235
29	0xbac10877	-0.0014727254
30	0x3a7c298b	0.00096192275
31	0xbc211afd	-0.009833095
32	0x3c6c8a37	0.01443725
33	0xbc521139	-0.012821489
34	0x3ce8a73d	0.028400058
35	0xba81b103	-0.0009894673
36	0x380688d9	3.207554e-05
37	0x3ce8d112	0.028420005
38	0xbb50aa36	-0.0031839735
39	0xbbfb7e9d	-0.0076750056
40	0xbb86b949	-0.004111443
41	0xbc87d551	-0.01658121
42	0xbc0f0f7f	-0.008731722
43	0xbab2edae	-0.0013651156
44	0x390f552d	0.00013669273
45	0xbc41b233	-0.011822271
46	0x3c5cc77e	0.013475297
47	0xbc4987d8	-0.012300454
48	0xbc1a4559	-0.009415948
49	0xbcb2fb5f	-0.021848379
50	0x37770b2c	1.4724948e-05
51	0x3cf85555	0.030314127
52	0xbb293975	-0.00258216
53	0xba70e9eb	-0.000919013
