src/siMLPe/exps/baseline_amass/log/snapshot/model-iter-50000.pth (torch, 604338 bytes, 196 tensors)

motion_mlp.mlps.0.fc0.fc.weight f4 [50, 50]
000000 af 2f 14 bd ce fe ab bd 51 2f 02 3d b8 18 3c bd
       -0.036178287 -0.083982095 0.031783406 -0.04592201
000010 f8 39 94 3c f7 77 96 bc b7 80 c8 3c 5c 2b 07 bd
       0.018094048 -0.01836775 0.024475439 -0.033000335
000020 dc 2a 44 bb 1d 27 d2 bc 86 ae b7 bb 63 a2 b5 bc
       -0.0029932773 -0.025653416 -0.0056055216 -0.022172159
000030 8a 58 34 bb 9e 83 ba bc 80 6b 42 bc 0a 78 9f bc
       -0.0027518594 -0.022767838 -0.01186645 -0.019466419
000040 57 be 36 bc cb c4 ab bc 8b 03 bd bb 33 c9 c7 bc
       -0.011153779 -0.020967862 -0.0057682446 -0.024387931
000050 01 c4 53 bc 83 6b 90 bc a6 43 3f bc ed b1 e0 bc
       -0.012925149 -0.01762939 -0.0116738435 -0.027428592
000060 8b 64 db bb ed f6 b8 bc 3d 1a 50 bc 69 5f 8c bc
       -0.0066953353 -0.02257868 -0.012701568 -0.017135339
000070 72 4e 31 bc 27 b7 5e bc 47 2f 80 bc 95 0c 17 bc
       -0.0108219255 -0.013593472 -0.015647544 -0.009219308
000080 03 19 58 bc c5 2a da bb 5c 09 83 bc 03 5d 78 bb
       -0.013189557 -0.0066579306 -0.015995674 -0.0037897236
000090 45 4d 76 bc 5c 5a 7e bb 0a 87 6a bc fc 8b ac ba
       -0.015033071 -0.0038811183 -0.014314422 -0.0013164277
0000a0 16 c0 49 bc b8 94 07 b9 b9 b4 35 bc 52 5c 71 b9
       -0.012313863 -0.00012930005 -0.011090451 -0.00023017943
0000b0 92 c8 f2 bb cb c5 1f ba 5a 87 d7 bb 4e 8e a4 ba
       -0.0074091638 -0.0006094842 -0.0065774145 -0.0012554617
0000c0 6f 33 ac bb 1a f9 3f bb ce 77 26 3c 99 9d 29 bd
       -0.005255155 -0.0029292763 0.0101604 -0.041410062
0000d0 25 0c bf 39 47 df 2a bc ef 27 cb bc 6c fc a7 bc
       0.00036439407 -0.01042921 -0.024799315 -0.020506106
0000e0 8e d4 dd bc db fb 5c 3c da 92 8c bc d1 21 d7 bc
       -0.027078893 0.013487781 -0.017159868 -0.026261242
0000f0 b8 5b 96 3b 78 f1 bd bc 45 78 c4 3b 0b 8f 6e bc
       0.0045885704 -0.02318643 0.0059957826 -0.014560471
000100 cb d4 02 bc e4 58 86 3b 6f b7 42 bc a6 50 8f bb
       -0.007985304 0.004099952 -0.011884554 -0.0043736277
000110 35 a3 f8 bb 24 ff 15 bc c5 23 fa bb e8 a0 6c bc
       -0.007587815 -0.009155069 -0.0076336586 -0.01444266
000120 6c f7 18 bc bc 94 21 bc 86 e8 d0 bb 87 47 83 bc
       -0.009336334 -0.009862121 -0.006375375 -0.016025318
000130 7b bc 2e bc b2 9c 3e bc 03 bf 0e bc 16 85 51 bc
       -0.010665054 -0.011634039 -0.008712533 -0.012788078
000140 04 cf 4e bc 12 e7 17 bc f7 83 68 bc 0d 08 45 bc
       -0.012622599 -0.0092714 -0.014191619 -0.012025845
000150 7e ec 7d bc c6 41 28 bc 8c 29 88 bc 5f d5 26 bc
       -0.015498279 -0.010269588 -0.016621374 -0.010182708
000160 b2 94 87 bc c6 7a 21 bc 36 3c 89 bc 4c 44 36 bc
       -0.016550396 -0.009855932 -0.016752344 -0.011124682
000170 6c b6 83 bc dd 33 3a bc ed 03 84 bc ae 8b 50 bc
       -0.016078196 -0.011364904 -0.016115153 -0.012728615
000180 f2 65 78 bc dd ec 54 bc e4 42 6c bc 8b 12 60 bc
       -0.015161024 -0.012995926 -0.014420245 -0.013676296
000190 e0 68 8b bb 04 e8 f5 bc 60 c8 b8 3c 1a 63 37 bc
       -0.0042544454 -0.03001786 0.022556484 -0.011193061
0001a0 86 e0 a6 bb a7 40 0a bd 58 2d 76 3c b6 25 2c 3b
       -0.0050926832 -0.033753064 0.015025459 0.0026267595
0001b0 61 3f 74 3c 7c ef 69 bc 47 89 c3 3c 26 02 25 bc
       0.014907689 -0.014278289 0.02386917 -0.010071313
0001c0 65 01 e8 3c e9 64 bf bb 0b 62 f8 3c 9c 8e 5a 3c
       0.028320977 -0.005840887 0.030320188 0.013339665
0001d0 a0 79 b5 3c d8 2f b0 3c 68 b6 0b 3d 7f b0 5f 3c
       0.022152722 0.021507189 0.034109503 0.01365292
0001e0 c9 2c e3 3c de 7a 5a 3c 27 b2 c6 3c 64 81 86 3c
       0.027731316 0.013334958 0.024254872 0.01641912
0001f0 57 16 e7 3c 26 9c 2c 3c 5f 3b b6 3c a6 84 64 3c
       0.028208895 0.010535276 0.022245107 0.0139476415
000200 4c c5 bf 3c fb 7b a9 3c b8 b0 89 3c b0 4c b9 3c
       0.023409508 0.020689001 0.016807899 0.022619575
000210 c0 d6 97 3c 5b a2 bf 3c c9 03 67 3c 49 2d d8 3c
       0.018535018 0.023392847 0.014100024 0.026388781
000220 49 2e 75 3c ea f0 d1 3c ea f2 77 3c f6 7c dd 3c
       0.0149646485 0.025627572 0.015133599 0.027037125
000230 59 37 72 3c 94 cd de 3c 8f d0 81 3c 02 e8 d7 3c
       0.014783704 0.027197637 0.015846519 0.026355747
000240 7e 10 94 3c 5a 96 cd 3c d1 54 a3 3c 05 17 c3 3c
       0.01807427 0.025096107 0.019937905 0.023814688
000250 cd cf ae 3c d4 7b bd 3c 57 b5 19 bc 4a 21 f3 3c
       0.021339322 0.023130335 -0.009381614 0.02967896
000260 46 82 ad bc 50 d2 d3 3c ce be f8 bc 08 60 c9 3c
       -0.021180283 0.02585712 -0.03036442 0.024581924
000270 52 cb b5 bc df df 63 3d 04 82 b9 bc bb a4 45 3d
       -0.022191677 0.055633422 -0.022645004 0.048252802
000280 88 98 8e bc c0 71 1b 3d 23 83 54 bb 54 19 0a 3d
       -0.017406717 0.037950277 -0.0032426796 0.03371556
000290 ed 1d 4c 3b 74 f6 c6 3c 4a 35 48 3c 9c 56 d7 3c
       0.0031145767 0.02428744 0.012219736 0.026286416
0002a0 f7 84 1c 3c 2a 61 1c 3d 7e cb 6b 3c 31 9d 06 3d
       0.009553186 0.0381786 0.014391778 0.032864753
0002b0 bb 2b 78 3c cd 7b f8 3c 7e 75 a8 3c ad f5 01 3d
       0.015147145 0.03033247 0.020563837 0.031728435
0002c0 f7 67 ab 3c 50 75 d2 3c 2c 2c ac 3c ae ab d2 3c
       0.020923598 0.025690705 0.021017157 0.025716629
0002d0 13 8e b8 3c 7c df c2 3c a2 84 ae 3c d1 19 b4 3c
       0.022528684 0.023788206 0.021303479 0.021984966
0002e0 27 3e b1 3c d5 94 b1 3c 3e 6c 99 3c 73 7d ac 3c
       0.021636082 0.021677414 0.018728372 0.021055913
0002f0 53 4a 9c 3c f2 38 a4 3c 7d a3 9d 3c 50 d6 8e 3c
       0.01907841 0.020046685 0.019242996 0.017436177
000300 3b 38 9c 3c 06 af 8c 3c 83 ac 8e 3c 7e e9 86 3c
       0.019069782 0.017173301 0.017416244 0.01646876
000310 e7 b3 86 3c 2f fb 84 3c ab cf 88 3c dc 9f 85 3c
       0.016443206 0.016233055 0.016700586 0.016311578
000320 02 0e 22 3a 4a 2b cc bc aa 68 b0 3c 24 40 34 3c
       0.0006181897 -0.024922986 0.021534283 0.01100162
000330 3c f5 8a bd 79 6c c7 bc 8b 0b 28 bc f6 c3 f5 bc
       -0.06785056 -0.024343716 -0.010256658 -0.030000668
000340 67 54 f2 bb 41 aa 8d bc 37 dc 2c bc e6 96 bc bc
       -0.0073953154 -0.017293097 -0.01055055 -0.023021173
000350 72 e9 ec bc cd 4c e1 bc 9c c1 a7 bc dd 1b 8f bc
       -0.02891991 -0.027502442 -0.020478062 -0.017469341
000360 db b2 be bc 81 95 40 bc 7e fa 72 bc a4 6c 95 3a
       -0.023278644 -0.0117543945 -0.01483023 0.0011400175
000370 56 f3 a1 bc c5 22 e7 3b 95 76 31 bc c9 7d a3 3b
       -0.019769352 0.0070537054 -0.010831495 0.00498936
000380 86 fb 40 bc 6d 03 59 3c a3 12 84 bb b8 88 4e 3c
       -0.011778718 0.013245446 -0.004030542 0.0126058385
000390 53 ec 11 bb 61 79 32 3c 14 60 f8 3a aa da 23 3c
       -0.0022266104 0.010893197 0.0018949532 0.010000864
0003a0 3c b6 59 3b 95 86 48 3c af f1 e3 3b 3a 2f 19 3c
       0.0033220192 0.012239118 0.006956301 0.009349639
0003b0 be ef 2a 3c d0 af 1b 3c 16 da 2e 3c 31 d9 25 3c
       0.010433136 0.009502366 0.010672113 0.010122583
0003c0 cd 1f 47 3c 78 e1 1f 3c b6 a7 65 3c 2c b3 44 3c
       0.012153578 0.009758346 0.014017036 0.0120056085
0003d0 d3 d7 61 3c e1 4a 39 3c 63 37 65 3c 97 94 59 3c
       0.013784367 0.011309356 0.013990256 0.0132800555
0003e0 68 e3 4a 3c 9a 20 6e 3c c8 22 2b 3b 91 21 54 bb
       0.012383319 0.01453414 0.002611326 -0.003236864
0003f0 42 1e 49 3c 22 fd b5 3b d2 eb ae bb dc d9 e0 bc
       0.01227528 0.0055538574 -0.0053381706 -0.027447633

motion_mlp.mlps.0.fc0.fc.bias f4 [50]
000000 2b 5a 5c b6 5a ac 3d b7 b3 d3 df 37 13 3a cf b7
       -3.283504e-06 -1.1305407e-05 2.6682252e-05 -2.4703366e-05
000010 e8 5c 9b 37 33 31 81 38 0e 0e 45 b7 c6 55 b9 37
       1.8520703e-05 6.1603634e-05 -1.1745387e-05 2.209366e-05
000020 10 84 48 b8 f4 76 69 37 02 00 67 34 08 54 03 b8
       -4.780671e-05 1.3915578e-05 2.1513554e-07 -3.1311094e-05
000030 d3 56 0e 38 8d dc 90 37 ce 56 3f b8 a5 5f 3a 37
       3.39363e-05 1.726884e-05 -4.561879e-05 1.1108733e-05
000040 c1 2c af 36 7c e1 0e b7 50 de 25 38 cb 74 b4 37
       5.2206165e-06 -8.516359e-06 3.954611e-05 2.1512058e-05
000050 f4 2b b4 b7 00 14 46 b8 d5 c7 3e 38 4d 42 3d b7
       -2.147814e-05 -4.7225505e-05 4.5485638e-05 -1.1280715e-05
000060 4e 3a 8b b7 95 97 18 b8 94 93 b8 b7 c9 cb 01 36
       -1.6597241e-05 -3.6380796e-05 -2.200323e-05 1.9341117e-06
000070 91 ed 1e 37 03 b8 ef 36 dd a2 47 b7 02 91 aa 37
       9.472847e-06 7.144177e-06 -1.1899244e-05 2.0333104e-05
000080 16 42 6b 38 d1 c3 88 37 77 79 e0 b7 4a 13 a5 37
       5.6089913e-05 1.6303647e-05 -2.6759442e-05 1.9678515e-05
000090 44 4e fd 37 b8 a6 37 b8 2c 6b 9f 36 d9 60 bc b7
       3.0196396e-05 -4.378587e-05 4.7510457e-06 -2.2456445e-05
0000a0 e2 05 31 b8 ee 4e 16 38 b6 d1 dd 36 55 d5 10 38
       -4.2205567e-05 3.5836296e-05 6.610727e-06 3.4530956e-05
0000b0 df d5 8a 38 bf e1 7c 37 54 cb a1 b8 e8 cc c9 36
       6.6201894e-05 1.5072931e-05 -7.714951e-05 6.014121e-06
0000c0 bf aa 2d 38 5f 9f 96 b7
       4.1405434e-05 -1.7955606e-05

motion_mlp.mlps.0.norm0.alpha f4 [1, 54, 1]
000000 ee 0b 0a 3e 6f a8 08 3e 1e 7c 15 3e 9c 61 05 3e
       0.13481113 0.13345502 0.14598128 0.13025516
000010 33 c9 34 3e d3 38 d8 3d e6 6c 2e 3e ca b3 06 3e
       0.17654876 0.10557713 0.17033729 0.13154522
000020 fb e6 3c 3e 6c d8 55 3e 9f 74 19 3e 3a 98 3d 3e
       0.18447487 0.2088334 0.14985894 0.18515101
000030 fc 49 38 3e 34 04 0d 3e 40 89 12 3e 2d 97 35 3e
       0.17996973 0.13771135 0.14310169 0.1773345
000040 9f 1d 17 3e 0e d4 1c 3e e4 51 37 3e 8e c7 71 3e
       0.14757393 0.15315267 0.17902333 0.2361128
000050 76 18 2e 3e ae 38 33 3e f8 f2 4c 3e a1 29 39 3e
       0.17001519 0.1750209 0.2001456 0.18082286
000060 18 d3 14 3e 98 fa 1e 3e a2 23 58 3e 03 74 2a 3e
       0.14533651 0.15525281 0.21107343 0.16645817
000070 74 d2 58 3e 35 8c 30 3e 11 83 39 3e 20 9a a7 b9
       0.21174031 0.17240985 0.18116404 -0.00031967554
000080 d9 81 1d 3e 8c 2c 05 3e e5 fb 1a 3e c0 cf 13 3e
       0.15381564 0.13005275 0.15135153 0.14434719
000090 3b 06 0e 3e bc fa 7b 3e ea bc 19 3e d5 c3 f7 3d
       0.13869564 0.24607366 0.15013471 0.12097899
0000a0 00 fe 25 3e 2f 78 13 3e 96 a3 32 3e 8f 41 14 3e
       0.16210175 0.14401315 0.17445216 0.14478134
0000b0 21 74 39 3e de 4f 27 3e c6 cd 78 3e 89 71 fe 3d
       0.18110706 0.1633906 0.24297246 0.12423999
0000c0 3b 49 fe 3d 83 b9 22 3e f3 73 4b 3e f1 10 02 3e
       0.12416311 0.1589108 0.1986845 0.12701775
0000d0 cd c2 4c 3e ce 3a 43 3e
       0.19996186 0.19065401

motion_mlp.mlps.0.norm0.beta f4 [1, 54, 1]
000000 68 8b 52 ba 38 a3 29 3b cb 5e 13 3c e4 5c 17 3a
       -0.00080316374 0.002588464 0.008994768 0.00057740347
000010 72 57 32 3a d9 b4 f8 39 75 c9 08 ba a6 a4 76 3a
       0.00068031915 0.00047436988 -0.0005218008 0.000940869
000020 16 a5 e4 b8 e5 18 97 ba 75 b0 bc 3b cb 52 95 3a
       -0.00010902637 -0.0011527805 0.00575834 0.0011392472
000030 2f 95 af 39 c7 95 ad ba 1c c6 19 b9 90 27 be b9
       0.00033489752 -0.001324349 -0.00014665019 -0.000362691
000040 4c 34 d4 39 7d 4f 7b ba a0 8f e0 3a a4 05 79 3a
       0.00040474755 -0.0009586735 0.0017132647 0.0009499437
000050 3f d6 9d 39 48 52 3a 39 56 09 e5 39 24 1e ad 39
       0.00030105 0.00017768994 0.0004368524 0.00033019588
000060 a3 67 68 bb 5c 6f e5 ba ec b5 df 3a 98 1b 6c 3a
       -0.0035462163 -0.0017504501 0.0017067767 0.00090067973
000070 65 32 92 39 61 4d 2a 3a c5 8e f8 39 2a b1 9e 3d
       0.00027884837 0.00064965157 0.00047408618 0.07748635
000080 b8 34 e6 3a f4 e1 25 ba 5b 78 9f ba 7e a9 a6 ba
       0.0017563319 -0.000632792 -0.0012166606 -0.0012715308
000090 3e 36 fd 36 c9 4d bf bb 67 12 da 39 f1 67 0f 3b
       7.546302e-06 -0.00583813 0.0004159391 0.0021882022
0000a0 09 8a ac 39 b3 5b 9f 38 cd e9 1e b8 8c d5 80 b9
       0.0003290924 7.598791e-05 -3.788788e-05 -0.00024573167
0000b0 46 e3 af 39 e1 d7 5a 3a 03 37 45 3a bf ed 7c bb
       0.00033547933 0.00083482085 0.0007523151 -0.0038593856
0000c0 89 f5 6e ba 7c b0 9b bb b0 04 4d 3a 16 21 0a 3b
       -0.0009115567 -0.004751263 0.0007820828 0.002107685
0000d0 19 f8 65 b9 a0 ee 94 39
       -0.00021931565 0.0002840655

motion_mlp.mlps.1.fc0.fc.weight f4 [50, 50]
000000 be a5 2e bd ac 7e bc bc 69 ea 43 3d 34 5a ec bc
       -0.042638533 -0.02300962 0.047830973 -0.028851606
000010 de 7f ce 3b b4 ef 7a bc ac 26 50 3b 33 7d 67 3b
       0.006301864 -0.015315939 0.0031761331 0.0035322427
000020 53 b0 ca 3b 0d 06 dd bc 49 24 cc 3b 54 19 a6 3c
       0.0061855703 -0.026980424 0.0062299115 0.02027575
000030 cf 38 90 3c d8 bd 30 3c 7e 84 0e bc f5 ee fe bb
       0.017605213 0.01078745 -0.008698581 -0.0077799507
000040 b8 62 1a bc 3c 8d 8c bc 7a 7b ca bc 0e 15 83 bc
       -0.00942295 -0.01715719 -0.024717081 -0.01600125
000050 ac a1 67 bd e4 e8 53 bd f0 90 16 bd cd 43 90 3b
       -0.056550667 -0.051735774 -0.036759317 0.0044026137
000060 bd f1 0d bb a2 f9 c6 bb a9 cf 8d 3c 7a 4f d5 39
       -0.002165898 -0.006072239 0.017310934 0.0004068574
000070 2f 88 9e bb 74 6a 68 3c ee e7 b8 bb 82 ad 6d bc
       -0.0048380117 0.014185537 -0.0056428825 -0.0145066995
000080 19 19 c4 bc 6d e2 d4 bc 07 70 9f bc a6 01 b5 bc
       -0.023937749 -0.025986874 -0.019462598 -0.022095513
000090 ee 82 e4 bc 99 be ab 3c 20 61 f9 bc 2f a6 69 37
       -0.027894463 0.020964907 -0.03044182 1.3926575e-05
0000a0 24 fd 36 bb 7d e0 99 3b f9 96 19 bc 18 8a b5 bc
       -0.002792188 0.0046959505 -0.009374374 -0.022160575
0000b0 78 38 b3 3c 62 59 0f bd ef 5c c2 bc 6d 78 19 bd
       0.021877512 -0.03499735 -0.023725955 -0.037468363
0000c0 99 7f d6 3c 53 58 4c bc 98 66 2d bc e1 a6 00 bd
       0.02618389 -0.01247223 -0.010583542 -0.031409148
0000d0 2e 89 92 3d df 3a fe bc 12 49 9f bc 62 4f 0f 3c
       0.07155071 -0.031033931 -0.019444022 0.008746954
0000e0 cb ce 75 bd 7f 27 89 3b 8d d5 74 3b a6 a3 b4 bc
       -0.060011666 0.0041856165 0.0037358731 -0.02205069
0000f0 58 9b 21 bb f3 5c 06 3d 7c 89 3e bb e3 8f 96 3c
       -0.0024659242 0.032803487 -0.0029073646 0.018379157
000100 ee 70 f4 3c 4a 36 87 bc d0 d4 90 3b 75 52 ca 3c
       0.029839005 -0.01650538 0.0044199005 0.024697522
000110 f9 25 8a 3b f4 3d 0e bc c7 55 5e 3d d3 a5 c1 3b
       0.0042159525 -0.008681763 0.054281022 0.0059096604
000120 55 6f 22 3d 8c c2 c6 bc db ff 7b 39 d0 9d ba 3b
       0.039656956 -0.024262689 0.00024032539 0.0056950822
000130 ae 1e 4f 3d ed e0 ee 3c 64 58 05 3c 2b a2 00 bb
       0.050566368 0.029159987 0.00813875 -0.001962791
000140 26 d0 a4 bc e8 d4 87 bc 24 95 90 bb d0 4b 9d 3c
       -0.020118784 -0.016581014 -0.00441231 0.01920119
000150 ba 15 c0 bc e9 ff 85 3c 37 67 98 3c 18 fd a7 bb
       -0.02344786 0.016357379 0.018603904 -0.0051266067
000160 1a 07 43 bb 76 43 60 3c 4f 3b db 3c d8 eb 80 bc
       -0.0029758872 0.013687959 0.026761679 -0.015737459
000170 84 6e f7 3b f2 ea 0b bc 94 9f a9 3d fc e8 9f 3c
       0.0075510163 -0.008539902 0.0828239 0.019520275
000180 c6 f7 9f bb ef 8d 8c bc 52 09 25 3d 72 74 6a bc
       -0.004881832 -0.017157523 0.04029209 -0.014309989
000190 94 3a c0 ba ff 7d 07 bc c8 c7 85 bc 79 b5 4f bc
       -0.0014665895 -0.008269786 -0.016330615 -0.012677544
0001a0 59 20 e5 3b 9a e4 0e bc 89 56 a1 bc b4 f9 48 3b
       0.0069923815 -0.008721495 -0.019694583 0.0030666413
0001b0 5b a8 a2 bc ae cc c6 3c 37 bd 63 3c 69 96 8f bc
       -0.019855669 0.02426752 0.013900093 -0.017527776
0001c0 33 f7 47 bc d5 48 20 3c 29 74 11 3c 1c ca 80 bc
       -0.012204933 0.0097829895 0.008877792 -0.015721373
0001d0 21 49 26 bb 2f fd b0 3b 32 92 b4 bb e9 3d 00 bc
       -0.0025373178 0.0054012756 -0.005510592 -0.0078272605
0001e0 9f b3 56 bd 3c 3b d9 3c dc 58 6f be 81 04 7c 3c
       -0.052417394 0.026517503 -0.23373741 0.015381933
0001f0 87 18 6d bc 58 bd 72 3c 6f 4b e6 bc 8e 21 1d bc
       -0.01447118 0.014815651 -0.028112141 -0.00959052
000200 1a bf 24 bc 96 9a eb 3a de 90 00 bd 50 a9 99 3b
       -0.010055328 0.0017975147 -0.031388156 0.004689373
000210 9c 84 42 3c 81 ed 5c 3c 77 3d f1 3a 71 50 a5 bd
       0.011872437 0.01348436 0.0018405159 -0.080719836
000220 29 20 8f 3c c9 13 b1 3b 71 b5 ed 3a bc 6d 35 bb
       0.01747139 0.00540397 0.0018135739 -0.0027683815
000230 9a 1a af bc 68 ae d5 bc 52 db 88 3c b6 77 43 3c
       -0.02137499 -0.02608414 0.016706143 0.011930397
000240 75 1a 58 bc ee da 16 3c 17 47 b8 3a fb 05 e0 3b
       -0.013189902 0.00920747 0.0014059272 0.0068366504
000250 54 90 14 3a 4e 68 ca 3b 28 0e f9 ba 31 54 90 3c
       0.00056672585 0.006176985 -0.0019001411 0.01761827
000260 ef 5b 18 3d 75 de df 3c 6b 37 2b 3d ab d8 f1 3c
       0.03719705 0.027327755 0.041800898 0.02952226
000270 ee 91 6f bd f3 b2 6f bc 69 97 99 3c 36 dc 98 3c
       -0.05848878 -0.014630067 0.018748956 0.018659692
000280 b6 c9 f4 ba 40 2a 44 3c b3 e5 17 3c a0 76 3e bc
       -0.0018675837 0.011972964 0.009271073 -0.011624962
000290 42 53 4f 3d 1b 17 c6 bc 05 df 3a bc b5 0f 91 3c
       0.05061651 -0.02418094 -0.011405711 0.017707685
0002a0 5a 45 e9 3b 51 45 84 ba 6c bf 02 bd 34 39 b2 3c
       0.007118863 -0.0010091459 -0.031920835 0.021755792
0002b0 cb 5a 2e bd 7c 7a 52 bc 9b 89 4c 3b db 33 08 3c
       -0.042567056 -0.012846585 0.003120995 0.008313145
0002c0 e3 5e 99 bb 16 69 7a 3b 7a e7 2b bc b4 b0 89 bc
       -0.004680501 0.0038209609 -0.0104922 -0.016807891
0002d0 e4 33 c1 3c 29 e3 88 3c 13 4d f9 3c 8a 15 10 3d
       0.023584314 0.01670988 0.03043226 0.03517679
0002e0 37 23 53 bc 94 fd c2 bc 44 fb 35 3d cf 3d 79 bc
       -0.012886814 -0.023802556 0.04442908 -0.01521249
0002f0 cd cf c8 bb 8b df a1 bc 9c c0 3c 3c 74 5c 4b 3c
       -0.0061282874 -0.019759914 0.011520531 0.012412179
000300 98 06 bd bb 6c 4a 25 3c 9b 15 01 bd d9 25 86 3c
       -0.0057686083 0.010088544 -0.031514745 0.016375469
000310 0c b4 19 3d 8a eb 1e 3d d9 d1 d1 bb 26 7a c4 3a
       0.03752522 0.038798846 -0.0064031896 0.0014990016
000320 d5 6e c2 bc 4e 6a 22 3b 0d 85 d0 bc 15 74 0e bd
       -0.02373449 0.00247826 -0.025454069 -0.034778673
000330 ba c5 6e bd d4 af 88 b9 32 64 85 3d 7e c7 9c 3c
       -0.058294035 -0.00026070944 0.06513251 0.019138094
000340 30 fb 70 bd e9 2d 25 bb 9a fe 96 3c 26 70 a5 3a
       -0.0588333 -0.0025204367 0.01843195 0.0012621924
000350 35 ae bb bb c8 57 ab 3c d2 02 83 3c ce ff dc 3c
       -0.005727554 0.02091588 0.015992556 0.026977446
000360 3c df ad bb fb 56 24 bb 72 2c b5 3b 7a 4d 93 bc
       -0.0053061526 -0.0025076258 0.00552898 -0.01798128
000370 a6 d9 76 bc 4f 5b 01 39 d0 5e 52 bb c0 b9 87 bc
       -0.01506654 0.00012336414 -0.003209997 -0.016568065
000380 20 47 09 3d 3d 06 35 3d 02 f0 14 bd b9 37 1b bd
       0.033515096 0.044195402 -0.0363617 -0.03789494
000390 ca 3c ca 3c 5b 2d 44 3d 9f 50 f6 bc a4 f2 d8 bb
       0.02468719 0.047894817 -0.03006774 -0.006620722
0003a0 74 10 c0 bc c4 64 32 bb 90 97 d5 bc 83 da e0 bc
       -0.023445345 -0.0027220706 -0.026073247 -0.027447945
0003b0 ae a1 9c bc bb d3 7c 3c 7f 80 94 ba c7 64 1b 3d
       -0.019120064 0.01543134 -0.0011329799 0.037937906
0003c0 10 61 22 3d 97 a4 83 3d 29 d1 05 bc 7f 11 7e bb
       0.039643347 0.064278774 -0.008167543 -0.0038767753
0003d0 5c 10 87 3c 2b 95 3a 3c 27 bc b9 bc 21 c1 27 bd
       0.016487293 0.0113881035 -0.022672726 -0.040955666
0003e0 e5 a6 18 bc ff c6 84 3b c6 52 fb 3c b4 49 6e 3c
       -0.0093171345 0.0040520425 0.030679118 0.014543939
0003f0 b8 45 a6 bc 21 73 a8 3c 2b 32 4e 3c 47 7f 5e bd
       -0.020296916 0.02056271 0.012585203 -0.0543206

motion_mlp.mlps.1.fc0.fc.bias f4 [50]
000000 1d 2e 7b 36 90 22 1f 36 4d bf 76 b7 88 21 64 36
       3.7428756e-06 2.3712964e-06 -1.4707283e-05 3.3994165e-06
000010 64 2c ad b6 5d a7 bf b6 56 58 e9 35 c2 fe 7b b6
       -5.1609695e-06 -5.711727e-06 1.7385562e-06 -3.7550203e-06
000020 bb 7d 80 b6 e8 80 01 37 c1 7e 1a 36 9f 21 3e b7
       -3.829334e-06 7.7190125e-06 2.3021569e-06 -1.13327105e-05
000030 91 b0 8a b6 19 9c 00 37 68 73 0b b6 50 48 1f 36
       -4.1332755e-06 7.665739e-06 -2.077979e-06 2.3734938e-06
000040 58 cb 98 b6 41 3d c0 34 49 fb 3b 36 5b 5f da b4
       -4.5536253e-06 3.5807355e-07 2.8011439e-06 -4.0675044e-07
000050 31 9c 0a b7 01 d3 3f 35 26 7b 06 37 4a 70 9c b5
       -8.261807e-06 7.1460096e-07 8.015695e-06 -1.1655586e-06
000060 ed c0 19 36 c0 c8 2f 37 20 43 0b 37 ba 1d 6e 36
       2.2911074e-06 1.0477554e-05 8.300674e-06 3.5482067e-06
000070 1d 89 ae 36 7e 6e 79 37 c7 63 5e 34 46 c4 ef 36
       5.201566e-06 1.48672825e-05 2.071166e-07 7.1456043e-06
000080 19 08 d6 35 64 30 ab b6 29 fc e8 b6 68 81 e7 b6
       1.5946599e-06 -5.1018305e-06 -6.943494e-06 -6.8994013e-06
000090 b0 c6 20 b7 43 ed d5 36 24 d1 98 34 ed 49 d5 b4
       -9.583004e-06 6.3755156e-06 2.8464376e-07 -3.972813e-07
0000a0 27 34 b9 36 3c 72 f6 b6 0a 00 97 b4 06 bc 8d b7
       5.519501e-06 -7.34467e-06 -2.812597e-07 -1.6896065e-05
0000b0 ff 53 52 37 ae 43 bb b6 4a b5 64 34 52 e7 3f b4
       1.2536532e-05 -5.5809132e-06 2.1300107e-07 -1.7872415e-07
0000c0 f0 25 f9 b6 13 74 65 b6
       -7.425195e-06 -3.4191223e-06

motion_mlp.mlps.1.norm0.alpha f4 [1, 54, 1]
000000 59 fa cd 3d c2 ba a8 3d ed 52 5f 3e 3c f9 cd 3d
       0.10057516 0.08238746 0.21808977 0.10057303
000010 8e 78 a4 3d 48 71 d1 3d 1f 11 8d 3d 89 e4 ad 3d
       0.080308065 0.10226685 0.06888031 0.08490855
000020 7a e0 91 3d 90 2d 0e 3e 1d 97 31 3e 7c e7 8f 3d
       0.07122894 0.13884568 0.17342801 0.07026574
000030 10 20 b5 3d a8 b1 bf 3d 3b b4 94 3d a8 0b d0 3d
       0.08844006 0.09360057 0.07260939 0.10158473
000040 19 db b6 3d a2 a8 ae 3d f7 a3 cd 3d a9 f4 6a 3e
       0.08928508 0.08528258 0.100410394 0.22944893
000050 a6 10 ab 3d 67 25 b2 3d 70 de d5 3d 45 3b a2 3d
       0.08352785 0.0869854 0.10442817 0.07921461
000060 32 05 f0 3d 0d e3 e8 3d 49 15 a1 3d 1e 22 9e 3d
       0.11719741 0.113714315 0.07865388 0.07721351
000070 bf e3 9c 3d 96 78 b7 3d 8a cc b6 3d c9 ca a2 3c
       0.076606266 0.08958547 0.089257315 0.019872086
000080 3a d2 4a 3d a2 c7 84 3d df 61 01 3e b7 b8 a8 3d
       0.049516894 0.064833894 0.12634991 0.082383566
000090 e6 ba 91 3d 76 85 f8 3d 49 bf a4 3d 78 94 f7 3d
       0.07115726 0.12134831 0.08044297 0.12088865
0000a0 12 9b c3 3d 2b 35 c3 3d ba 6f c7 3d 64 46 ad 3d
       0.09551062 0.09531625 0.09738107 0.084606916
0000b0 5e e5 d8 3d 0a a2 d3 3d 21 32 77 3e 44 a1 b4 3d
       0.10590623 0.10333641 0.24140216 0.088198215
0000c0 fa 60 d0 3d 2b 5c 23 3e de e5 a3 3d c8 c2 ca 3d
       0.10174747 0.15953128 0.08002828 0.09900433
0000d0 88 1b b6 3d 1c 27 08 3e
       0.0889197 0.13296169

motion_mlp.mlps.1.norm0.beta f4 [1, 54, 1]
000000 8b 4e 2f bc 5c 28 d0 3c f7 ca c6 3a 1a c6 af bb
       -0.010699878 0.02540987 0.0015166689 -0.0053641917
000010 19 8c 95 3b ab 27 03 bc 15 68 01 bc 67 3c 5d bb
       0.00456382 -0.008005063 -0.00789835 -0.0033757926
000020 15 ca 09 3b 3f 86 14 bd a0 91 18 3d d5 a3 1a ba
       0.0021024991 -0.03626084 0.037248254 -0.00058990467
000030 4c 55 21 3b f0 99 d1 bb b7 10 c4 3b a7 7e ec 3c
       0.0024617491 -0.0063965246 0.005983438 0.028868986
000040 17 e9 47 3c c6 f0 6c 3b f2 dd c4 bc 5a d0 e7 3b
       0.012201569 0.0036154254 -0.024031613 0.007074398
000050 35 15 a3 3a 0d 50 9a b9 60 fd d7 bb b7 43 8a 3a
       0.0012442233 -0.0002943281 -0.006591484 0.0010548745
000060 1a 2d 21 3c e7 e7 03 3c 77 82 4f b9 af 6f 88 3b
       0.009837413 0.008050895 -0.0001978966 0.0041637043
000070 a1 bb 0d 3b 85 59 e5 3b 79 c0 9d ba 00 75 5e 3b
       0.0021626728 0.006999197 -0.0012035511 0.003394425
000080 56 d2 d1 bc 97 7c b8 bb 7f f0 d0 bc 16 81 ef bb
       -0.025612991 -0.0056300866 -0.025505302 -0.0073090894
000090 e0 99 39 ba 55 9c 72 3d a0 14 4e 3b c7 11 fa 3c
       -0.0007080119 0.05923112 0.00314454 0.030526055
0000a0 5c 16 bc ba e2 92 02 bc c6 fd 89 bb d6 9f d0 38
       -0.0014349925 -0.00796959 -0.0042111604 9.947985e-05
0000b0 aa 3e 74 bb 4f 17 d1 3b 89 ce 9d bb 75 43 a9 bc
       -0.0037268796 0.0063809524 -0.0048158807 -0.020662049
0000c0 3c e4 fa bb 7b 3b a1 3c 85 2b 4d 3b c6 33 ce bb
       -0.007656602 0.019681683 0.0031306457 -0.006292793
0000d0 f0 fa d7 b9 0d eb 9a bc
       -0.0004119496 -0.01891091

motion_mlp.mlps.2.fc0.fc.weight f4 [50, 50]
000000 96 a5 b4 bc ec 7b 53 bc c3 d0 cb 3b 58 64 02 bd
       -0.022051614 -0.012907963 0.0062199547 -0.031833977
000010 ee 4a 80 3b 53 06 f3 3b 6a 50 a1 bc 60 64 98 bc
       0.0039151823 0.0074165254 -0.019691665 -0.01860255
000020 91 d1 69 3c 7c 43 84 bc dd bf 22 bc 8a ae 68 3b
       0.014271156 -0.01614546 -0.009933439 0.0035504424
000030 26 06 88 bc 12 c6 01 3b 65 0c 99 3a 84 0f 8a bd
       -0.016604494 0.0019801897 0.0011676667 -0.067412406
000040 4a 10 9f bb 71 d0 01 bd e3 87 3b bc 0b c4 64 3d
       -0.0048542367 -0.031692926 -0.011445972 0.055851024
000050 67 fc eb bc 51 36 3c bc 49 68 c2 bc 25 d9 bd bc
       -0.028806878 -0.011487559 -0.023731368 -0.023174832
000060 f0 25 07 3d 33 74 f8 bb a2 be 93 bc 03 b3 db 3c
       0.032995164 -0.0075822114 -0.018035237 0.026818758
000070 27 22 d6 bc 7f 77 11 bc 2b cb 80 3b c0 d4 af bc
       -0.026139332 -0.008878588 0.0039304695 -0.021463752
000080 67 0d ac bc 03 c7 10 bc cd 1b 18 bd 00 da a7 bc
       -0.021002484 -0.008836511 -0.037135888 -0.020489693
000090 88 c7 48 bd dd 25 c6 bc 4d 01 9c bc ce 07 9b bc
       -0.049018413 -0.024187976 -0.019043589 -0.01892462
0000a0 db 04 58 3c 3d c6 df bb ef b2 79 3c f1 9c 9a bc
       0.013184751 -0.0068290518 0.015240415 -0.018873664
0000b0 d8 dc 4a bb 4d 03 41 bb 4a 29 b0 3c 08 d5 f4 bc
       -0.0030954387 -0.002945143 0.021504063 -0.029886737
0000c0 79 d7 00 3d e4 4c 42 bc f8 7d 7a bb 09 4f 44 39
       0.03145549 -0.0118591525 -0.0038222056 0.0001872146
0000d0 c0 91 14 3a 2b e5 90 bc ba 83 71 bc 4a ee 50 bc
       0.00056674704 -0.0176874 -0.014740879 -0.012752125
0000e0 61 4b f3 bc 3b ee 11 bd 4a 71 97 b9 c1 c3 b6 bc
       -0.02969903 -0.035627585 -0.0002888537 -0.02231014
0000f0 8f e5 29 bc 41 3b 1f ba 06 c9 70 bd 78 ca 8d 3c
       -0.010369672 -0.0006074198 -0.05878546 0.017308459
000100 15 f6 03 bd aa c9 f5 bc 78 65 e9 bb 7d 74 93 bb
       -0.032217104 -0.030003387 -0.0071226917 -0.0044999705
000110 62 f0 fc 3a 47 48 98 3c aa 77 a1 bc 83 9c 95 3a
       0.0019297714 0.018589152 -0.01971038 0.0011414442
000120 c0 8d c2 bc 37 0f b1 3c d1 2c 40 bc 81 bf 49 bc
       -0.023749232 0.0216137 -0.011729435 -0.0123137245
000130 3b 14 d7 bc 01 5f e0 ba 77 ea 11 bd c1 b2 b9 bc
       -0.026254764 -0.0017118157 -0.035623994 -0.022668244
000140 26 75 83 39 a2 29 3d 3c 09 d3 cd bc 70 e3 10 3b
       0.0002507355 0.011545571 -0.025125043 0.002210822
000150 ee e5 72 bc 6e ae 49 bc ce f2 d6 bc 31 25 7f 3c
       -0.014825327 -0.012309654 -0.026238825 0.015572832
000160 7c a9 78 bc f3 cb f8 bb 6e e0 cb bb 47 37 76 3c
       -0.015177127 -0.007592672 -0.0062218225 0.015027828
000170 ab 01 41 bc 64 6f 1c bb 71 5d 92 39 38 2f b8 bb
       -0.011780183 -0.0023870105 0.0002791691 -0.0056208633
000180 eb 00 94 bc e9 24 75 bc 88 8a bb 3c 4b f1 6f bc
       -0.018066844 -0.014962413 0.022893205 -0.014644931
000190 ad 60 79 3a d9 e9 3e bc 95 61 30 3c 43 6d 25 bc
       0.0009513002 -0.011652433 0.010765453 -0.010096851
0001a0 65 e4 54 bc c6 25 2f 3d 44 d1 4f bd 5b d1 66 3b
       -0.012993907 0.042760633 -0.05073668 0.003522
0001b0 58 73 a1 bb 7e 7e 75 3c c9 4b cb bc 42 68 8d 3a
       -0.00492708 0.014983771 -0.02481641 0.0010788518
0001c0 be e2 06 3c 3a df 7a 3c 87 7b 9b bb 7c 7b f4 bc
       0.0082327705 0.01531201 -0.00474495 -0.029844038
0001d0 c4 21 e6 bb b4 63 6b bb 88 f0 30 3c 1b 6e 6b 3c
       -0.007023068 -0.0035917582 0.010799535 0.014369513
0001e0 a8 83 b4 bd 7d e8 4c bc 95 17 0d bd a2 d5 f5 ba
       -0.08814174 -0.012506601 -0.034446318 -0.0018755684
0001f0 77 f2 49 bc c3 0c 7c bc a0 65 ec ba 34 1e f1 3b
       -0.0123258745 -0.015383902 -0.0018035658 0.007358337
000200 8f 88 05 bc f0 1f 28 3c 62 3d fa bb 95 64 15 bc
       -0.008150234 0.010261521 -0.007636712 -0.009118219
000210 4c 6b 45 3c 51 40 50 3b 43 92 28 3d 86 48 4b bd
       0.012049507 0.0031776617 0.04115511 -0.04962971
000220 1b f1 b0 bc 8e c2 10 3c 33 a3 5a bd c0 be f6 3d
       -0.021599343 0.008835448 -0.053378295 0.120481014
000230 1e a6 6e bc 6a 51 70 3c 46 38 5a 3c 78 54 dd 3c
       -0.014565973 0.014667848 0.013319081 0.027017817
000240 e9 9a 07 3a e4 3e 04 3d d9 8d 25 3c ea 1f 9c 3b
       0.0005172925 0.03228654 0.01010462 0.0047645466
000250 4a 25 fe 3b 0d 91 e5 3c 69 9e 9d 3c 35 c0 e7 3c
       0.00775591 0.028023267 0.019240575 0.028289894
000260 e7 f3 62 3c 79 b1 4a bd 14 9b c6 bc 8a 55 a3 bc
       0.013852096 -0.049485657 -0.024243869 -0.01993825
000270 66 26 87 3c 23 c1 cc bb a3 43 7b 3c 00 7b ea 3b
       0.016497802 -0.0062486096 0.01533595 0.007155776
000280 4b e5 c6 3c 80 31 e3 bb 9f e1 ac bc 6e 0a 2f bc
       0.024279257 -0.006933391 -0.021103678 -0.010683639
000290 a3 ce 8b 3c fe 02 5d 3c 0a dd 34 3c 76 21 8c ba
       0.017066306 0.013489483 0.011039028 -0.0010691124
0002a0 71 3c bc 3c e6 3e 95 3c ed 50 8f bb e2 3e a9 ba
       0.02297804 0.018218469 -0.004373661 -0.0012912417
0002b0 55 82 8d bc 38 e8 7e 3d dd c1 a6 bc 46 4e 5b 3c
       -0.017274061 0.06223318 -0.020356113 0.013385361
0002c0 84 ea 18 3d 82 c9 9b ba fe e1 0a 3c 17 4d e7 3c
       0.037333027 -0.0011885616 0.008476732 0.028235001
0002d0 fd d4 2e 3d 91 a2 08 bc 03 e7 f2 3c 75 ae c0 bb
       0.04268359 -0.00833954 0.02965117 -0.005880172
0002e0 a4 b5 25 3c 34 8a 12 bb 20 82 d1 3c 51 2b ca bb
       0.010114107 -0.0022360208 0.025574744 -0.0061697145
0002f0 69 ed f0 3c b3 6e 23 3c 83 c6 74 bc 7f 6c 1c bc
       0.029410081 0.009975123 -0.014939907 -0.009547352
000300 d1 f6 41 bc 9e 57 14 3c 60 bb 02 bc dd 95 c7 bc
       -0.011838631 0.009054093 -0.007979244 -0.024363453
000310 5b e0 fd 3c 53 8d ad 3b 64 c9 8c ba 30 2f 72 3c
       0.03099077 0.005296388 -0.0010741171 0.014781758
000320 aa ed 4c 3c c5 69 f9 3c ec 3d 5c bb 9b 69 b0 3c
       0.012507835 0.030445943 -0.0033606244 0.021534732
000330 ef fd 46 bd 7a 9d 26 bd 92 25 b9 ba 10 80 fa bb
       -0.048582014 -0.040677525 -0.0014125577 -0.007644661
000340 a2 f0 48 3c f9 39 a2 bc 70 26 08 bc 37 3b 70 bc
       0.012264403 -0.019803034 -0.008309945 -0.014662555
000350 e3 17 2e 3d 79 a9 9d 3b 1d 58 d5 ba 6d d4 73 3c
       0.04250325 0.0048114625 -0.001627687 0.014882189
000360 39 0e 94 3c 22 c4 07 bd 2a 22 5a bc a1 c9 9c 3c
       0.018073188 -0.03314603 -0.013313809 0.019139113
000370 08 33 ad bc a7 22 4a 3c 4c ac 39 bd 4f 4f 6e bc
       -0.021142498 0.012337363 -0.04533033 -0.014545276
000380 46 fa da 3c c0 44 b9 3b 53 16 59 3c db f2 d8 3c
       0.026730668 0.0056539476 0.013249951 0.02648299
000390 e2 0a cb 3b 8d cd fe bb c7 f1 25 39 a7 06 50 3d
       0.0061963657 -0.0077759684 0.00015825695 0.050787594
0003a0 20 7e b0 3c 22 8f 7f 3b 0d c4 b4 3b 85 41 21 bd
       0.021544516 0.0038995226 0.005516535 -0.039369125
0003b0 1b bb 76 bc 39 ce 52 bc b0 13 3a 3c c1 36 85 3c
       -0.015059258 -0.01286655 0.011357233 0.01626146
0003c0 03 49 0c bc 56 40 10 bd c6 a7 8b bb 0e 88 c5 3c
       -0.008562329 -0.035217606 -0.0042619435 0.024112727
0003d0 73 ab 94 3c 70 9d b3 39 99 68 db bc 4b 69 c5 bc
       0.01814816 0.0003425884 -0.026783274 -0.02409806
0003e0 2a 6e ba 3a 17 2c 61 bb 87 68 08 bc ed e3 08 bd
       0.0014223505 -0.0034358555 -0.0083257025 -0.033420492
0003f0 18 6a 40 ba 37 d6 9e 3c df d0 41 3c 81 34 21 bd
       -0.0007340028 0.019389255 0.011829584 -0.039356712

motion_mlp.mlps.2.fc0.fc.bias f4 [50]
000000 5e 7d 81 36 9a df 82 b6 90 69 2a 37 88 f1 2f b6
       3.8590942e-06 -3.9003326e-06 1.0157368e-05 -2.6217622e-06
000010 cd 44 a6 b6 03 bb 5c b6 f7 68 1d b7 6e 78 8a 36
       -4.955195e-06 -3.289141e-06 -9.382368e-06 4.1267404e-06
000020 7f 07 49 35 2e 24 a4 b5 c7 fb 82 b6 42 c9 b9 b4
       7.4889243e-07 -1.2229482e-06 -3.9036127e-06 -3.460537e-07
000030 51 62 aa b5 db f5 a9 35 eb ea 79 b6 46 e9 88 36
       -1.2694601e-06 1.2663035e-06 -3.7240632e-06 4.0802724e-06
000040 05 43 cc 34 77 c4 be b5 46 d8 7f b5 b1 df 52 34
       3.8046724e-07 -1.4213282e-06 -9.530962e-07 1.9639153e-07
000050 80 94 dd 35 cf 62 d6 b5 56 77 05 36 16 17 86 36
       1.6509002e-06 -1.5973e-06 1.9888007e-06 3.9961988e-06
000060 9c 27 65 b6 c4 ef 8c b4 c1 ea 33 b5 f8 e8 23 b6
       -3.4146715e-06 -2.6251485e-07 -6.702431e-07 -2.4424498e-06
000070 17 56 81 35 a1 18 e5 b5 87 46 10 36 92 97 99 b6
       9.636304e-07 -1.7068998e-06 2.1498724e-06 -4.5774004e-06
000080 2b d5 76 b6 6c 6c 51 b4 84 ff 6b b6 e9 e6 1f 36
       -3.6780937e-06 -1.9504085e-07 -3.5166458e-06 2.3827254e-06
000090 4e 5c b0 33 d4 4d 04 36 66 fb 4e 35 11 78 64 35
       8.212429e-08 1.9714835e-06 7.7106813e-07 8.511134e-07
0000a0 07 2e c6 b3 88 ab c8 b5 20 42 0b 36 0c 7e 42 36
       -9.228466e-08 -1.4951083e-06 2.0751104e-06 2.8981622e-06
0000b0 e7 bd 87 36 7d c8 d4 b5 ad 93 0d b6 ff c5 dc b5
       4.045421e-06 -1.5853581e-06 -2.1096596e-06 -1.6448902e-06
0000c0 d7 d5 be b5 6a 8e 6d 35
       -1.4218339e-06 8.849662e-07

motion_mlp.mlps.2.norm0.alpha f4 [1, 54, 1]
000000 dc 07 a4 3d 8c 3d 81 3d 25 06 ac 3d cf 4f 73 3d
       0.080093116 0.06310567 0.083996095 0.059402283
000010 06 9a b5 3c 6d 6a 4f 3d 28 a3 09 3d 19 4b 35 3d
       0.02216817 0.050638605 0.033602864 0.04426107
000020 4b 12 2f 3d 24 ba a9 3d e5 9a bc 3d 9d 97 d6 3c
       0.042742055 0.08287457 0.09209231 0.026195342
000030 f2 07 13 3d ef ba 28 3d 57 b0 30 3d da 23 58 3d
       0.03589625 0.0411939 0.04313692 0.052768566
000040 0d c8 62 3d e2 f9 20 3d 82 50 86 3d b8 1d 0f 3e
       0.055366565 0.039300807 0.065583244 0.1397618
000050 8a 44 1a 3d 8b 1d 1a 3d 57 b8 1f 3d 54 6b e7 3c
       0.03766302 0.03762583 0.03899416 0.02824942
000060 ec 97 97 3d ba 81 a5 3d c9 c0 0c 3d f9 c2 21 3d
       0.07402024 0.08081384 0.03436354 0.03949258
000070 f3 6e 01 3d c9 6c 09 3d aa bb 2d 3d ee 37 18 3c
       0.03159995 0.03355101 0.0424153 0.009290678
000080 b7 47 16 3d 89 bd 82 3d cb 75 76 3d 27 a1 35 3d
       0.036689486 0.06383807 0.06017093 0.04434314
000090 74 18 20 3d 86 2f 9d 3d 8c 20 2b 3d 2f 67 be 3d
       0.03908582 0.0767508 0.041779086 0.092970245
0000a0 04 5c 4b 3d d1 c3 38 3d a5 82 53 3d 8a 21 06 3d
       0.0496483 0.04510862 0.051638264 0.03274683
0000b0 85 72 45 3d b6 5e 28 3d 4a 4c 0a 3e 37 62 5d 3d
       0.048204917 0.04110595 0.13505664 0.054048743
0000c0 82 54 8e 3d 44 75 e0 3d 00 28 15 3d 27 2d b4 3d
       0.06949712 0.10959867 0.0364151 0.087976746
0000d0 67 f8 07 3d 28 ad 72 3d
       0.03319588 0.059247166

motion_mlp.mlps.2.norm0.beta f4 [1, 54, 1]
000000 3b a1 a9 bc ed 1d 72 bc f6 e4 43 3d a8 70 da bb
       -0.020706763 -0.014777643 0.047825776 -0.0066662617
000010 21 9f 30 3b 06 9e 82 3b ec 15 a7 3b b0 62 b6 3a
       0.0026950317 0.003986123 0.005099049 0.0013914909
000020 f8 cd 00 bc 69 8b a8 bb e7 bd 44 3d 1d bd 0b 3b
       -0.007861607 -0.005143572 0.048032667 0.0021322437
000030 13 d4 81 b9 af 84 9c 3b 16 10 b5 bb b0 56 a1 bb
       -0.00024762805 0.0047765593 -0.0055255992 -0.004923664
000040 08 fe 72 bb 3b 9d 85 ba 4a 0f 84 3b 1b 64 df bc
       -0.0037077684 -0.0010193953 0.004030143 -0.027269414
000050 a4 90 aa 3b 82 6d 50 3b ed 32 34 bb 16 19 62 bb
       0.005205231 0.0031803553 -0.0027496174 -0.0034499816
000060 a6 df 64 bc 99 88 4b bb 93 df 83 ba ff 4f a5 bb
       -0.013969338 -0.003105676 -0.0010061137 -0.0050449367
000070 e5 48 59 bc d4 21 97 bb 9b 1a 6d 3b c5 5f a6 bb
       -0.013262008 -0.004612187 0.0036179188 -0.0050773346
000080 b3 cb 8f 3c 3c c2 ea 3a 0b c6 ef bc 0d 06 aa bb
       0.017553186 0.001791067 -0.029269239 -0.0051887096
000090 02 3e b4 3b 91 d0 81 3d f8 84 10 bc 60 7a 9a bc
       0.005500556 0.06338609 -0.008820765 -0.018857181
0000a0 b5 d2 7b 3b 86 1d 11 39 8b 56 06 3c d7 1e 18 39
       0.0038425152 0.00013839276 0.008199344 0.00014507338
0000b0 7c 81 00 3b 9d da 63 bb 78 82 96 3b 1a 25 93 3c
       0.0019608429 -0.0034767755 0.00459319 0.017962027
0000c0 fd 94 83 3a 60 1b a0 bc 4a dc 59 bb 77 c9 67 bc
       0.0010038909 -0.019544303 -0.0033242875 -0.014147154
0000d0 e4 31 54 ba ac a5 2d bb
       -0.00080945925 -0.0026496453

motion_mlp.mlps.3.fc0.fc.weight f4 [50, 50]
000000 5d 0b 8a bb 72 1f dd bc 4b 6d 5d 3d 20 97 78 bc
       -0.0042127804 -0.026992533 0.054059308 -0.01517275
000010 df 66 a2 3b 4d a3 e5 ba 94 bf 0d 3d 97 c8 9a 3b
       0.004956111 -0.0017519981 0.03460653 0.004723619
000020 1c 10 01 3d b7 cc 9d bb 6b 07 c7 3b 03 ce bc bc
       0.031509504 -0.0048156637 0.0060738823 -0.023047453
000030 2a a0 bf 3b ff df 3a 3a 5a 50 a2 ba fe db 22 3d
       0.0058479505 0.0007128715 -0.0012383566 0.039760582
000040 cd 95 2c 3c e1 eb 21 3c e2 85 3f 3a d1 1d 9a bb
       0.010533762 0.009882898 0.0007306022 -0.0047032614
000050 ab b8 0b bd 61 92 1f bc ed db e4 bc aa 44 05 bb
       -0.03411166 -0.009739489 -0.0279369 -0.0020335116
000060 d4 bc 26 3d 7a 14 7f 3c ba 57 b2 3b c2 36 90 bb
       0.040707424 0.015568847 0.0054425867 -0.004401059
000070 ab 6f 1e bb c8 f9 89 3c cd d9 7f bb d4 85 65 3a
       -0.0024175446 0.016842738 -0.0039039731 0.00087555987
000080 d9 93 71 3b 4b 8d 2c 3b 83 4c 9c 3c 51 3b 93 bd
       0.0036861806 0.0026329334 0.019079452 -0.07189048
000090 d7 46 79 bc 63 c6 11 3c 0a 5a 0d bd a8 f6 3a 3d
       -0.015214643 0.008897397 -0.034509696 0.045645386
0000a0 45 e8 5c 3c fe 6f bd 3c ca 8e 10 3c 2c 63 06 3d
       0.013483112 0.023124691 0.008823106 0.03280942
0000b0 10 96 b6 bc ed d4 8a bc 1c ab c4 bc f6 ae e9 3b
       -0.022288352 -0.016947234 -0.024007373 0.0071314527
0000c0 66 2a 90 bc e5 84 17 bb b7 17 1e bc e2 19 7c bd
       -0.017598342 -0.0023119983 -0.009649209 -0.06154812
0000d0 b1 40 ad bb f5 33 b4 bc d2 e6 d5 3c c1 8a ff 3a
       -0.005287253 -0.021997431 0.02611104 0.0019496308
0000e0 23 8d 66 3c 27 51 e8 bc 60 1a f0 3b 6d 71 01 bd
       0.014071736 -0.028359009 0.007327363 -0.031602312
0000f0 f7 cc 2c 3c df 6a 20 3d 6d 45 37 3c d3 dc 37 3c
       0.010546914 0.03916442 0.011185986 0.011222082
000100 63 da 19 bc 5c 5e a7 3c 99 db c4 3a fb 73 c6 3b
       -0.009390446 0.020430736 0.0015019058 0.0060563064
000110 60 40 1c bc ce 3b b0 3c 9f 1e 56 3c a4 f8 e9 bc
       -0.009536833 0.021512892 0.013068824 -0.028560944
000120 e5 43 c2 bc 63 47 3f 3d ed 9b 05 bd 2d 14 43 3c
       -0.023714015 0.04669894 -0.032619406 0.011906666
000130 f4 05 ab bc bd 09 d2 b9 07 38 be bb 9d 5f 38 3c
       -0.020876862 -0.00040061577 -0.005805019 0.011253265
000140 fd 42 29 bd 6f d7 29 bd 63 7d d3 3c 89 6d d1 bc
       -0.04132365 -0.04146522 0.025816625 -0.025564926
000150 d9 84 4c bc bb 88 73 bc 2c ea 9d bc 6a c7 c6 bc
       -0.012482845 -0.014864142 -0.0192767 -0.02426501
000160 48 14 69 3b 77 57 b6 bc e3 76 09 bc f0 3e d0 bc
       0.0035565067 -0.022258503 -0.008390161 -0.025420636
000170 67 89 02 bb 39 4d ac ba df 46 81 bc c5 c1 9a bc
       -0.0019918324 -0.0013145573 -0.015780864 -0.018891225
000180 45 27 97 3c ce 82 a8 bc 58 8d 7f 3c 01 c3 1f bc
       0.018451342 -0.020570185 0.015597664 -0.009751082
000190 3e 75 af ba 59 12 af b9 33 d4 8e bd 1d 34 97 3b
       -0.0013386381 -0.0003339227 -0.069740675 0.0046143667
0001a0 bd 6c 8f bb bb f7 8b 3c a6 9f d4 3c 20 40 23 bd
       -0.0043769763 0.0170859 0.025955033 -0.039856076
0001b0 af 97 1a bc d2 5a 88 bc ce 9c ba 3b 24 4d 99 3c
       -0.009435578 -0.016644869 0.005694962 0.018713541
0001c0 a0 db 80 bb 76 f7 2b bd 0d c2 83 bb 42 da c0 bc
       -0.0039324313 -0.041984044 -0.0040209354 -0.023541573
0001d0 a4 99 77 bb 21 d5 f8 bc eb a0 8f 3c 4f ad e3 bc
       -0.0037780786 -0.030375065 0.017532786 -0.0277926
0001e0 5b 20 08 bd fd 64 69 bc 04 85 ea ba eb 2f 11 bd
       -0.03323398 -0.014245269 -0.0017892425 -0.03544609
0001f0 5a 18 19 bb 77 9f d8 bc 6a d1 35 3d 52 e9 69 3b
       -0.0023360462 -0.026443226 0.044389166 0.0035692048
000200 b7 46 98 bc 0c ef 01 bc d5 4e 29 3d 7b 85 0e 3c
       -0.018588407 -0.007930528 0.041334946 0.008698816
000210 22 f1 bb bc c8 14 a7 3b 95 fc 17 bc 14 39 1d bc
       -0.02294213 0.005098913 -0.009276529 -0.009596128
000220 82 37 a9 bb e7 c5 87 bb 7b 18 10 3d 0a e9 ad 3b
       -0.0051640878 -0.004143465 0.035179596 0.0053073214
000230 6a 65 a5 bc ba f8 b9 3b fb 16 9e bc de fb b5 bb
       -0.02018996 0.0056754025 -0.019298067 -0.0055537065
000240 f6 9e be 3b 60 32 94 bc fd 7c 10 bb 63 20 16 bd
       0.0058172895 -0.018090427 -0.0022047155 -0.03665198
000250 91 28 b0 ba 3b 25 6b 3c c8 6a 88 bb fc 17 7e 3c
       -0.0013439824 0.014352138 -0.00416312 0.015508648
000260 d5 6f 90 bc 5b f2 1d 3c ad c7 d6 3c 92 82 d0 bb
       -0.01763145 0.009640302 0.02621826 -0.0063632214
000270 9b f7 7a bd a4 6a 94 3c ed 77 04 bc 7d 30 98 3c
       -0.06127129 0.018117256 -0.008085233 0.018577809
000280 10 61 eb 3b e9 7c a7 bc ed 53 c5 3c fe 62 47 bc
       0.0071832016 -0.020445304 0.02408787 -0.012169598
000290 be fd 6f bc a1 c9 d6 bc 4d 00 af ba 4e 6a 9e 3b
       -0.014647899 -0.026219191 -0.001335153 0.00483445
0002a0 0a 7a ad 3a 10 f3 a7 bc be 8e 97 bc 71 b7 b0 3b
       0.0013235223 -0.020501643 -0.018500682 0.0053929617
0002b0 62 58 bb 3c 34 aa 91 bc 2c 51 99 3c 06 b9 3b 3c
       0.022869293 -0.017781354 0.018715464 0.011457687
0002c0 25 48 1e bb 1f 20 8e bd 09 5f 9f 3c 6f 64 0b 3d
       -0.0024151888 -0.0693972 0.019454496 0.034031328
0002d0 bf b5 b1 3a 72 23 f3 3c d5 c4 b0 bb 3e 81 b4 3c
       0.0013558193 0.029679988 -0.005394558 0.022034284
0002e0 29 d1 91 3c 9b 9d a6 3c c5 ce ad 3c ee 9f 65 3c
       0.01779993 0.020338824 0.02121676 0.014015181
0002f0 62 15 4c bd bd 5c 22 3b e9 d7 42 3c f9 3e 80 bc
       -0.04982508 0.0024774515 0.011892297 -0.015655028
000300 fe 24 3e bc 99 13 01 bd f9 11 72 bc fc fb c9 bb
       -0.011605499 -0.03151283 -0.014774793 -0.006164072
000310 74 c0 dd 3c ac 6a 1f bc e9 b2 48 bc ce d3 0b bb
       0.027069308 -0.009730022 -0.012249687 -0.0021335962
000320 46 3e 7c 3c e5 04 b2 bc ac ab 9d bc 9a da 6c bb
       0.0153957065 -0.02173085 -0.019246899 -0.003614104
000330 90 d1 2b 3d 04 f7 47 bd 44 b2 40 3d 25 58 b3 3c
       0.0419479 -0.048819557 0.047045007 0.021892617
000340 60 d4 56 bd 8a 8d a2 bc 3c af 1d bc 07 2b d9 bc
       -0.05244863 -0.019842882 -0.009624299 -0.026509775
000350 c7 e6 f1 bc 5d cc 4c 3c 1a f1 1b bc c5 66 6f 3c
       -0.029528989 0.012499896 -0.009517932 0.0146119045
000360 1a 10 4a 3d ba fd 8c bc 2a 51 36 3a 6b 5e ca 3c
       0.049331762 -0.01721083 0.00069548434 0.024703225
000370 8f 02 00 3d a0 a9 81 bc 3f a0 26 bc e0 c8 64 3c
       0.03125244 -0.015827954 -0.010170042 0.013963908
000380 90 e6 e9 3c 54 e9 84 bc d7 93 f3 ba 2c 11 96 3c
       0.028552324 -0.01622454 -0.0018583488 0.018318735
000390 ea 1d 65 bc 7a d4 ce bc 79 d6 da bc 24 25 bb 3b
       -0.013984183 -0.025247801 -0.026713597 0.0057112146
0003a0 24 74 bd bc bf 2c 26 bd e1 fc 73 3c 9d 45 94 38
       -0.02312667 -0.040570017 0.014891834 7.0701564e-05
0003b0 f6 c4 d5 bc 96 23 79 3c b3 fa c2 3b 1a 05 dc 3c
       -0.026094895 0.015206238 0.005950296 0.026857901
0003c0 80 4c 4e 3c c9 8b 34 3d 06 c9 1b b8 38 79 34 bc
       0.012591481 0.044078622 -3.7142097e-05 -0.011015229
0003d0 d3 0a 3d bc 1d 6e d5 3b 5a 90 3a bc 89 13 03 3d
       -0.011538225 0.0065133707 -0.011386955 0.032001052
0003e0 7d bb f6 3b 02 70 9d bc 49 79 9c 3c 66 2b eb bc
       0.0075296746 -0.019218449 0.019100802 -0.028707217
0003f0 d2 db 0f 39 25 a0 31 bc 28 5e ae bc 2a 7a d1 bc
       0.00013719432 -0.010841404 -0.021285132 -0.025570948

motion_mlp.mlps.3.fc0.fc.bias f4 [50]
000000 55 81 ae b5 69 35 67 34 65 c1 f3 35 3a 6f 28 35
       -1.3001651e-06 2.1532982e-07 1.8161196e-06 6.2746733e-07
000010 a9 c1 91 b6 dd e3 60 b4 60 ea 64 b4 f6 b9 62 b6
       -4.3438818e-06 -2.0944522e-07 -2.131942e-07 -3.3784868e-06
000020 e1 5e 7c 34 f8 2c 95 b6 74 82 8b 36 77 24 94 b5
       2.3503846e-07 -4.445781e-06 4.1577096e-06 -1.1037472e-06
000030 34 52 c6 b6 02 a3 8c b6 6a 3d b7 b0 6a 43 b3 b6
       -5.9104295e-06 -4.1913017e-06 -1.3332457e-09 -5.3424637e-06
000040 34 99 4b b4 fa 5e 02 b6 6f c4 b5 33 e1 c2 b8 b5
       -1.8961583e-07 -1.9426793e-06 8.4642004e-08 -1.3765786e-06
000050 5b 44 a9 36 fd 01 8b 35 a0 03 6c b6 00 5d 39 36
       5.04455e-06 1.0356886e-06 -3.516885e-06 2.7621281e-06
000060 0c 87 13 36 4d 26 e3 36 19 69 36 37 8c 15 e8 34
       2.1983315e-06 6.769586e-06 1.0872515e-05 4.3229045e-07
000070 b0 43 f0 b4 38 f7 8a b6 dc a6 33 b6 5a 70 77 b4
       -4.4752733e-07 -4.1415005e-06 -2.6770203e-06 -2.3044541e-07
000080 61 a9 08 37 4c 2e a5 b6 26 6d fc b6 f9 c8 e3 35
       8.145668e-06 -4.922773e-06 -7.522892e-06 1.6971309e-06
000090 63 35 a5 b6 ae bc 92 b5 4e 13 c4 35 92 b1 9d b6
       -4.923598e-06 -1.0932761e-06 1.4608756e-06 -4.6996365e-06
0000a0 af 1b fa b6 51 73 28 35 31 21 24 b6 79 0c 8a 36
       -7.4538034e-06 6.2752684e-07 -2.4457224e-06 4.1141725e-06
0000b0 92 e5 20 b5 b1 d6 f9 b4 51 b8 2e b4 d2 1a 95 36
       -5.9938714e-07 -4.6536073e-07 -1.6272067e-07 4.4436683e-06
0000c0 4a 9a 2d 37 bd 6e 2d b5
       1.0347527e-05 -6.460867e-07

motion_mlp.mlps.3.norm0.alpha f4 [1, 54, 1]
000000 1a 25 9d 3d 63 37 b4 3d 92 10 fa 3d dd 35 51 3d
       0.07673092 0.08799627 0.12210192 0.05107676
000010 f1 da 12 3d d5 cf 45 3d a9 ba c4 3c ea b3 2f 3d
       0.03585333 0.048293907 0.024014788 0.04289619
000020 24 31 55 3d 71 ce a0 3d 54 e5 0c 3e 5d cf 24 3d
       0.052048817 0.078518756 0.13759357 0.04023682
000030 64 b6 70 3d c5 45 76 3d dc 67 85 3d ab 72 6b 3d
       0.05876769 0.06012513 0.0651395 0.057482403
000040 e5 49 76 3d 2f 63 42 3d 5a cb 6d 3d b3 53 66 3c
       0.060129065 0.04745787 0.05805526 0.014058041
000050 4d b8 7b 3d ec 60 65 3d c9 91 57 3d 48 9b 61 3d
       0.06145506 0.056000635 0.052629266 0.05507973
000060 d8 8a a2 3d 9c cb e2 3d f9 67 51 3d 9b a8 71 3d
       0.079366386 0.11073992 0.051124547 0.058998685
000070 50 e0 92 3c c9 e9 7b 3d f5 cd fc 3c 16 64 af 3c
       0.017929226 0.06150225 0.030859927 0.02141003
000080 88 89 82 3d 39 ec 81 3c a4 1a ee 3d ed c6 60 3d
       0.06373888 0.01585971 0.11626175 0.05487721
000090 4d ea e5 3c 7f f8 cb 3d df f2 87 3d 8d 1c ab 3d
       0.028065825 0.09959506 0.06638121 0.08355055
0000a0 b0 d8 9b 3d 55 e7 9a 3d 3b ed 64 3d 1c c6 9a 3d
       0.07609689 0.07563654 0.055890303 0.075573176
0000b0 22 b2 2f 3d ac 68 68 3c a4 08 8d 3c c7 fa 48 3d
       0.04289449 0.014185112 0.017216034 0.049067285
0000c0 53 20 85 3d a5 46 10 3e 06 32 3d 3d b6 37 c8 3d
       0.06500306 0.14089449 0.046190284 0.09776251
0000d0 bb f0 89 3d 65 8b 0a 3d
       0.06735369 0.033824343

motion_mlp.mlps.3.norm0.beta f4 [1, 54, 1]
000000 e6 af 76 3c 5f 21 bf 3b c4 8c f5 3c ae d2 a9 3b
       0.015056586 0.0058328356 0.029974349 0.0051825857
000010 ba 34 c3 bb 27 b6 3a bb b8 a1 ef 38 a1 de 3b b9
       -0.005957213 -0.002848992 0.000114265305 -0.00017916645
000020 41 76 21 bb 37 39 c6 bb 70 b5 fc ba 92 29 02 bb
       -0.0024637135 -0.006049301 -0.0019280147 -0.0019861204
000030 31 11 1d bb 10 24 b6 ba 1a 11 06 3b 21 b9 88 3a
       -0.0023966546 -0.0013896246 0.002045697 0.0010431149
000040 f7 73 75 bc a3 3b c4 b9 36 36 29 bb 22 0c 7a 3c
       -0.014981261 -0.00037428466 -0.0025819666 0.015261682
000050 cd 93 8a ba df a8 97 bb 40 01 ca 3b 72 54 95 3b
       -0.0010572613 -0.0046282853 0.0061647 0.004557186
000060 62 7b e0 bc 65 a3 11 bc 47 7a 47 bb ce 00 b7 bb
       -0.027402584 -0.008889054 -0.0030437873 -0.0055848127
000070 78 de 15 3c ba 32 dd ba 18 a6 95 bb a1 cd fb b8
       0.009147279 -0.001687608 -0.004566919 -0.00012006914
000080 3b e2 5c 3c 56 d1 33 bb 6e 12 14 3d 6f d1 4c 3b
       0.013481672 -0.0027438006 0.03615039 0.0031252762
000090 f7 e4 0f 3c b4 3b 17 3d 7e 01 d9 3a cb d8 aa 3b
       0.008782617 0.03692217 0.0016556231 0.005213832
0000a0 7a 97 60 bb 08 a8 2b bb 7d 0a 1d bc 3a ae 72 bb
       -0.0034269975 -0.0026192684 -0.00958502 -0.0037030117
0000b0 26 87 b3 bb 80 75 b3 bb a8 fa c2 3b ae f8 25 bb
       -0.0054787574 -0.0054766536 0.0059502907 -0.0025325227
0000c0 19 40 01 bb 57 a5 f6 bc 44 e2 58 3b 8a 27 ad 3c
       -0.0019722043 -0.030108137 0.003309385 0.021137018
0000d0 54 ce 93 3b b7 17 6f ba
       0.00451068 -0.000912066
