src/siMLPe/exps/baseline_amass/log/snapshot/model-iter-105000.pth (torch, 604538 bytes, 196 tensors)

motion_mlp.mlps.0.fc0.fc.weight f4 [50, 50]
-0.060447335 -0.09674488 0.025955722 -0.050931543 0.02498898 -0.015432329 0.028041719 -0.046198778
-0.000750956 -0.030999985 0.0014813411 -0.034564402 0.0006994399 -0.020008799 -0.0058949995 -0.014187572
-0.0031176282 -0.013935102 -0.0069628144 -0.023085667 -0.01498979 -0.008758919 -0.011296723 -0.01887732
-0.0090479 -0.013768858 -0.009723641 -0.01230834 -0.009047232 -0.009614265 -0.010154562 -0.007865258
-0.007866158 -0.0066530434 -0.007849109 -0.004457974 -0.007973499 -0.0037564165 -0.008444415 -0.0023865905
-0.006623871 -0.0016014092 -0.0058001815 -0.0022383935 -0.0039330316 -0.0018306873 -0.0031346935 -0.0010889691
-0.0024212953 -0.0017021253 -0.0005076569 -0.08607589 0.004886801 -0.004240957 -0.025696235 -0.0052413135
-0.03879054 0.0027039072 -0.019833442 -0.025057327 -0.0051732776 -0.025316518 -0.004926891 -0.0063567655
-0.010483216 -0.0046461425 -0.013094843 -0.008875605 -0.0050275372 -0.01119765 -0.006045056 -0.01608211
-0.0045517427 -0.011988065 -0.0034124465 -0.013181695 -0.006588443 -0.01004352 -0.006775172 -0.009187514
-0.008407091 -0.0074910987 -0.009832685 -0.00876479 -0.011090754 -0.0073601995 -0.011671054 -0.006410519
-0.011623195 -0.0058718235 -0.011042893 -0.0065796254 -0.0108384555 -0.0071917614 -0.01045401 -0.007627287
-0.009412466 -0.008282694 -0.008967352 -0.008550646 0.0005054751 -0.03835584 0.0075871306 -0.011343574
0.008058513 -0.032528203 0.012501548 0.003154447 0.023175402 -0.017735658 0.018782683 -0.01204114
0.028302668 0.0062962356 0.03262544 0.0147288535 0.0192611 0.015928725 0.037011657 0.0072010146
0.028931303 0.00900193 0.024677588 0.011522324 0.02464444 0.008874152 0.02342942 0.014327091
0.020870427 0.020078667 0.018237857 0.02310297 0.01867096 0.024473106 0.0148181375 0.028887065
0.016014218 0.027120957 0.01638637 0.029166577 0.016987043 0.029992817 0.018227117 0.029587915
0.021168048 0.028854791 0.022990389 0.027827797 0.025328122 0.027356835 -0.0091386475 0.04258322
-0.027276427 0.021397991 -0.037144586 0.04711216 -0.025751334 0.044793695 -0.011314918 0.042909767
-0.022914624 0.045087025 -0.0067367414 0.0314546 -0.0022094818 0.027826542 0.0075767403 0.026258308
0.00961157 0.03617357 0.009309164 0.030341763 0.012040127 0.032591607 0.017963376 0.031744648
0.018493764 0.027170217 0.01772143 0.024794934 0.019434653 0.02112582 0.01924253 0.018415788
0.019036984 0.016561806 0.01739223 0.016621089 0.017162843 0.01403849 0.01655734 0.012446222
0.016132226 0.011689695 0.013797893 0.011331276 0.01180857 0.010458898 0.011976258 0.011164391
0.0005468371 -0.027070835 0.022042016 0.015053776 -0.08167592 -0.023931004 -0.016417146 -0.02009633
-0.018029848 -0.008849632 -0.020068604 -0.017812736 -0.033343796 -0.019632889 -0.03497147 -0.015434648
-0.024402607 -0.0140600735 -0.00888425 -0.012404203 -0.012864514 0.0023199955 -0.0034755843 0.0032768599
-0.00766483 0.004639056 -0.004863651 0.009960116 -0.0020143942 0.0073774825 0.00028583003 0.007177979
0.0044226437 0.009573344 0.005735492 0.008869139 0.0074729715 0.009331383 0.010339196 0.011236358
0.009097799 0.010200205 0.011353029 0.013214866 0.012281226 0.012315071 0.01327107 0.01399174
0.012571597 0.0140691735 0.0037960312 -0.01741447 0.008506386 0.006916214 -0.005903347 -0.05903025
00000000: a097 77bd 2e22 c6bd 18a1 d43c 989d 50bd
00000010: b0b5 cc3c e1d7 7cbc bfb7 e53c ee3a 3dbd
00000020: cedb 44ba aef3 fdbc 8f29 c23a 6793 0dbd
00000030: 9e5a 373a 7ee9 a3bc d72a c1bb fd72 68bc
00000040: 1f51 4cbb 0e50 64bc 5228 e4bb 271e bdbc
00000050: bc97 75bc 9281 0fbc e415 39bc 9ca4 9abc
00000060: a53d 14bc c796 61bc e84f 1fbc eba8 49bc
00000070: d73a 14bc 2685 1dbc 525f 26bc 48dd 00bc
00000080: 0fe1 00bc c601 dabb 8d99 00bc 3214 92bb
00000090: 47a3 02bc 362e 76bb 725a 0abc 5868 1cbb
000000a0: 0f0d d9bb 60e6 d1ba 730f bebb 03b2 12bb
000000b0: a9e0 80bb acf3 efba 6e6f 4dbb bdbb 8eba
000000c0: 98ae 1ebb d919 dfba 4714 05ba 8e48 b0bd
000000d0: 7521 a03b baf7 8abb e980 d2bc 53bf abbb
000000e0: d4e2 1ebd 0934 313b be79 a2bc 0645 cdbc
000000f0: 9984 a9bb 9664 cfbc c271 a1bb 6a4c d0bb
00000100: cbc1 2bbc ab3e 98bb c18b 56bc fc6a 11bc
00000110: 0abe a4bb 5976 37bc 9b15 c6bb a1be 83bc
00000120: c926 95bb 9769 44bc 5aa3 5fbb 09f8 57bc
00000130: dee3 d7bb 938d 24bc 4302 debb 3a87 16bc
00000140: e5bd 09bc e477 f5bb 4519 21bc 329a 0fbc
00000150: feb5 35bc d42d f1bb f337 3fbc 550f d2bb
00000160: 376f 3ebc 6d68 c0bb 40ed 34bc e699 d7bb
00000170: c793 31bc dea8 ebbb 4c47 2bbc 52ee f9bb
00000180: be36 1abc 23b4 07bc cdeb 12bc 0218 0cbc
00000190: dc81 043a 031b 1dbd 779d f83b 66da 39bc
000001a0: da07 043c 4b3c 05bd 4bd3 4c3c d7ba 4e3b
000001b0: 57da bd3c 5f4a 91bc 24de 993c 3448 45bc
000001c0: ffda e73c a750 ce3b 41a2 053d 4a51 713c
000001d0: 74c9 9d3c f57c 823c 8999 173d 7df6 eb3b
000001e0: 5701 ed3c d57c 133c a728 ca3c 21c8 3c3c
000001f0: 23e3 c93c e464 113c 0eef bf3c 2dbc 6a3c
00000200: 75f8 aa3c 047c a43c 8f67 953c 7142 bd3c
00000210: d7f3 983c d37b c83c c6c7 723c 91a4 ec3c
00000220: 4030 833c c52c de3c b53c 863c bfee ee3c
00000230: 6928 8b3c 7fb3 f53c 0951 953c 5b62 f23c
00000240: 9d68 ad3c e260 ec3c 5756 bc3c 1ff7 e33c
00000250: ec7c cf3c 711b e03c 44ba 15bc be6b 2e3d
00000260: d072 dfbc d74a af3c ec24 18bd aef8 403d
00000270: 76f4 d2bc 9879 373d 3562 39bc 27c2 2f3d
00000280: 73b7 bbbc 2cad 383d e2bf dcbb 8ad6 003d
00000290: f4cc 10bb 7df4 e33c 4e46 f83b aa1b d73c
000002a0: d979 1d3c bd2a 143d 7785 183c 4a8f f83c
000002b0: f443 453c c77e 053d ee27 933c ad06 023d
000002c0: 3c80 973c 1394 de3c 882c 913c bf1e cb3c
000002d0: 6c35 9f3c 0e10 ad3c 83a2 9d3c b5dc 963c
000002e0: 73f3 9b3c a0ac 873c 267a 8e3c f328 883c
000002f0: 1799 8c3c b201 663c 42a3 873c 3deb 4b3c
00000300: bb27 843c 2286 3f3c 8f10 623c d1a6 393c
00000310: bb78 413c cc5b 2b3c 1138 443c daea 363c
00000320: 9e59 0f3a a8c3 ddbc 7591 b43c 1da4 763c
00000330: b445 a7bd f40a c4bc 407d 86bc 0fa1 a4bc
00000340: 55b3 93bc 0cfe 10bc ea66 a4bc 04ec 91bc
00000350: 8193 08bd 27d5 a0bc 3e3e 0fbd 9be1 7cbc
00000360: fae7 c7bc 395c 66bc 3f8f 11bc 003b 4bbc
00000370: afc5 52bc 110b 183b a1c6 63bb 96c0 563b
00000380: 4129 fbbb 3903 983b 435f 9fbb c12f 233c
00000390: ed03 04bb cfbe f13b 75db 9539 4135 eb3b
000003a0: d3eb 903b 84d9 1c3c cbf0 bb3b dd4f 113c
000003b0: d4df f43b a8e2 183c bb65 293c b418 383c
000003c0: ef0e 153c c31e 273c 0e02 3a3c 2a83 583c
000003d0: 3237 493c 27c5 493c e76e 593c 9c3d 653c
000003e0: 19f9 4d3c 6482 663c d6c6 783b caa8 8ebc
000003f0: 5e5e 0b3c 68a1 e23b dd70 c1bb b4c9 71bd

motion_mlp.mlps.0.fc0.fc.bias f4 [50]
-1.1181199e-06 1.557465e-06 -5.696164e-06 1.971928e-06 6.8063395e-07 -1.1366628e-06 5.990553e-06 2.0062798e-08
-3.170679e-06 -3.9133597e-06 -2.2293757e-06 -3.2760641e-07 1.3447219e-06 3.955737e-07 -3.407538e-06 1.55205e-06
-5.6693525e-06 4.2369275e-06 6.4228436e-07 2.2209006e-06 5.5264994e-05 1.8062354e-06 -2.402116e-05 -6.6482526e-06
2.7227604e-06 -8.778545e-06 -5.899531e-06 4.5361758e-06 -5.846614e-07 1.6258649e-06 -2.0025295e-06 -2.69108e-06
-6.7945934e-06 -2.7827475e-06 -4.10804e-06 1.5440687e-06 3.2385396e-05 -1.6105404e-06 1.2160945e-07 9.473394e-07
2.2707025e-06 -1.0540949e-05 1.7448266e-06 4.7746908e-06 -1.3856381e-05 3.6029003e-06 -2.431661e-06 7.1708473e-07
2.0663788e-06 1.6312581e-06
00000000: 4f12 96b5 170a d135 ad21 bfb6 7755 0436
00000010: cfb4 3635 708f 98b5 7502 c936 8f56 ac32
00000020: dac7 54b6 814f 83b6 629c 15b6 e2e1 afb4
00000030: 4b7c b435 3c5f d434 0fad 64b6 0850 d035
00000040: 5e3b beb6 ee2a 8e36 7269 2c35 c80a 1536
00000050: 56cc 6738 c76d f235 0c81 c9b7 0e14 dfb6
00000060: abb8 3636 9047 13b7 96f4 c5b6 7435 9836
00000070: a0f1 1cb5 4b38 da35 3263 06b6 6798 34b6
00000080: 1dfd e3b6 3dbf 3ab6 cbd7 89b6 cc3d cf35
00000090: 8ed5 0738 bf29 d8b5 c093 0234 ab4c 7e35
000000a0: 5f62 1836 08d9 30b7 c92f ea35 4836 a036
000000b0: b478 68b7 5bc9 7136 9e2f 23b6 b07d 4035
000000c0: 1eac 0a36 9af1 da35

motion_mlp.mlps.0.norm0.alpha f4 [1, 54, 1]
0.1010936 0.108414784 0.0931236 0.10533543 0.15115562 0.065885834 0.12962915 0.1041833
0.13657928 0.1448604 0.09072565 0.15676121 0.17115562 0.14131151 0.11819275 0.12772416
0.11556448 0.10862353 0.14960666 0.15351218 0.16018677 0.15560457 0.15750872 0.16815649
0.104889736 0.09969789 0.21228662 0.17210746 0.14015156 0.14958519 0.14488646 -0.0007418932
0.1334155 0.08746958 0.114292085 0.13062826 0.096776806 0.1750637 0.11098248 0.10308056
0.1292923 0.10849528 0.13332024 0.11731414 0.17650467 0.124107726 0.15133059 0.10783726
0.09970018 0.10043051 0.18587708 0.10313194 0.20582077 0.13875872
00000000: 290a cf3d 9208 de3d 96b7 be3d 1aba d73d
00000010: 8ac8 1a3e 27ef 863d 81bd 043e 0e5e d53d
00000020: 70db 0b3e 4956 143e 5fce b93d 0386 203e
00000030: 6b43 2f3e f7b3 103e 0a0f f23d 1fca 023e
00000040: 12ad ec3d 0376 de3d 7d32 193e 4c32 1d3e
00000050: 0008 243e ce56 1f3e f749 213e 3731 2c3e
00000060: 6ed0 d63d 682e cc3d aa61 593e f03c 303e
00000070: e483 0f3e dc2c 193e 1e5d 143e 9c7b 42ba
00000080: 139e 083e 4023 b33d f811 ea3d 6ac3 053e
00000090: eb32 c63d e643 333e c84a e33d e71b d33d
000000a0: 3365 043e c632 de3d 1a85 083e 6542 f03d
000000b0: a4bd 343e 312c fe3d 68f6 1a3e c8d9 dc3d
000000c0: 9c2f cc3d 83ae cd3d 9056 3e3e d736 d33d
000000d0: aec2 523e c416 0e3e

motion_mlp.mlps.0.norm0.beta f4 [1, 54, 1]
-0.0025800574 0.0014789541 0.012574929 -0.0006060349 0.0014057362 -0.0009672499 0.00026025157 0.00068977475
-0.0004522118 -0.00064144126 0.007897228 0.000663813 0.00046142517 -0.00021155804 -2.9226561e-05 0.00086457457
0.00054141413 -0.0016217754 0.0019936368 0.0010555157 0.0006350154 -0.00014296712 -0.00022585122 0.0012846773
-0.0046335985 -0.0018406593 0.002472961 0.0008344691 -0.00056469924 0.00033328542 0.00037924654 0.08918833
0.0021392817 -0.0009946513 -0.0011704026 0.0006758328 0.000752491 -0.0031177083 -0.00076332316 0.0011856057
-0.0005398709 -0.0023203709 -0.0004891776 -0.00015245126 0.00064882543 0.00074275857 0.00049388024 -0.0043245065
-0.0012847987 -0.008332678 0.00090902817 -1.2649629e-05 0.0008798792 0.00022091987
00000000: 2e16 29bb 77d9 c13a 1307 4e3c 50de 1eba
00000010: ae40 b83a 0b8f 7dba 6072 8839 00d2 343a
00000020: d716 edb9 6526 28ba 6063 013c bd03 2e3a
00000030: 70eb f139 aed5 5db9 902b f5b7 9ea4 623a
00000040: b0ed 0d3a c191 d4ba ada7 023b 3b59 8a3a
00000050: 2a77 263a 72e9 15b9 7ad2 6cb9 9e62 a83a
00000060: 71d5 97bb 4742 f1ba 6711 223b 46c0 5a3a
00000070: 5308 14ba d0bc ae39 9cd5 c639 5fa8 b63d
00000080: 3133 0c3b f65e 82ba 3268 99ba 5f2a 313a
00000090: d142 453a 7752 4cbb c019 48ba 5366 9b3a
000000a0: 1f86 0dba 5d11 18bb 273c 00ba 53db 1fb9
000000b0: f015 2a3a afb5 423a be77 013a 97b4 8dbb
000000c0: b166 a8ba c985 08bc d94b 6e3a be39 54b7
000000d0: b2a7 663a baa6 6739

motion_mlp.mlps.1.fc0.fc.weight f4 [50, 50]
-0.059242923 -0.045142982 0.06536875 -0.033813767 0.009618055 0.010249184 0.015668994 -0.0045796027
-0.013604729 -0.03562187 0.002110943 0.015556224 0.013424744 -0.005301729 -0.010055189 -0.009834176
-0.008866163 -0.028253376 -0.02899105 -0.020602657 -0.061828267 -0.047615502 -0.016270665 0.0005743224
-0.007835767 0.007387998 0.023600874 0.003641354 -0.009647414 -0.0016555634 -0.03893619 -0.020746538
-0.01977897 -0.019000785 -0.031275988 -0.028695064 0.0010033417 0.021290367 -0.016198426 0.00090429507
-0.00048250268 0.002240246 0.008646203 -0.023265677 0.019060684 -0.03146327 -0.015043396 -0.042341664
0.028960053 -0.009075494 -0.00048192596 -0.019647947 0.07649941 -0.023205072 -0.027744805 0.016623313
-0.056585178 0.003787321 -0.0008165851 -0.030731384 -0.004634448 0.011482961 -0.007842452 0.016554162
0.021603901 -0.0100711165 0.006278109 0.03426118 -0.0013678411 -0.010850404 0.074801154 0.013036966
0.043769997 -0.035472937 -0.026623448 0.0010683982 0.056718703 0.021362618 -0.013790321 -0.006254264
-0.020418553 -0.0148231415 -0.005027762 0.007280013 -0.0055705914 0.031206004 0.0031593295 -0.01644488
-0.0071494468 -0.008309057 0.029398695 -0.024027828 -0.0006294211 -0.0032142294 0.079062924 0.0223797
0.0107726585 -0.01064766 0.029507829 -0.019652583 -0.0011789659 -0.016548429 -0.0038812407 -0.028855639
0.0055501666 0.0060082134 -0.021830058 -8.477187e-05 -0.02162808 0.016773205 0.011537504 -0.012693575
-0.01224713 0.015105463 0.012627209 -0.016866205 -0.00521529 0.010242082 -0.0040450348 -0.005465606
-0.01963424 0.015835185 -0.25487587 0.012431956 -0.0075551034 0.019860331 -0.024413528 -0.0037407135
-0.031916402 0.0057868236 -0.024427705 0.007246872 0.016135179 0.0022576994 0.0076054074 -0.053988732
0.10519368 0.011351139 -0.0014229579 -0.0055639357 -0.02457695 -0.026335021 0.027061127 0.0054093306
-0.0019342576 0.007277978 0.002187938 0.003499793 0.002935715 0.0018559075 -0.028030537 0.030455196
0.029326279 0.0124463355 0.019792873 0.037779078 -0.05158931 0.006240374 0.015656171 0.010817362
0.0048075467 0.010339736 0.0020776957 0.009843737 0.046655737 -0.04597384 -0.0087061105 0.026184184
-0.0029650393 -0.0036062666 -0.009660424 0.020397922 -0.03232424 -0.022302829 -0.011388311 0.001084619
-0.010435332 -0.007214286 -0.026689567 -0.028512334 0.04696959 0.03131626 0.03529042 0.03220128
-0.03231883 -0.003956549 0.017254453 -0.01750778 -0.015073494 -0.025444118 0.037549406 0.009635919
-9.160042e-05 0.012952512 -0.042612176 0.0127762845 0.04197469 0.03800741 -0.004319912 0.00181534
-0.017261084 -0.018162077 -0.01861029 -0.030883994 -0.06938678 -0.01795149 0.07320783 -0.006379895
-0.060540393 0.0053239195 0.010923983 0.0045932196 -0.004389769 0.009253019 0.023629704 0.021893073
-0.002680759 -0.00053991476 -0.00027886915 -0.0314098 -0.011341771 0.0041445214 -0.0058588963 -0.017377948
0.035730764 0.042154446 -0.038656004 -0.04241349 0.02653794 0.035204843 -0.034119997 -4.87711e-05
-0.0226073 -0.01647671 -0.026023785 -0.026892569 -0.0023720292 0.0061681666 -0.007072917 0.03679629
0.012663187 0.070432775 -0.017212642 -0.006912684 0.043108735 0.018551938 -0.017558837 -0.039068926
0.020254573 0.008261414 0.039320767 0.023119459 -0.03453611 0.03153962 0.013012682 -0.07735199
00000000: b5a8 72bd d9e7 38bd 0de0 853d 4e80 0abd
00000010: 0c95 1d3c 32ec 273c 435c 803c 7e10 96bb
00000020: 5fe6 5ebc 3de8 11bd bf57 0a3b 88df 7e3c
00000030: 75f3 5b3c 20ba adbb 85be 24bc 861f 21bc
00000040: 6243 11bc a073 e7bc a37e edbc e7c6 a8bc
00000050: a33f 7dbd 7908 43bd 0f4a 85bc 208e 163a
00000060: 9761 00bc 0517 f23b 9f56 c13c c8a3 6e3b
00000070: 3010 1ebc 7dff d8ba 8e7b 1fbd a5f4 a9bc
00000080: 8207 a2bc 89a7 9bbc 401b 00bd e911 ebbc
00000090: 9082 833a 2369 ae3c 90b2 84bc 370e 6d3a
000000a0: 6af8 fcb9 17d1 123b cea8 0d3c a997 bebc
000000b0: 2725 9c3c a1df 00bd 9378 76bc 746e 2dbd
000000c0: a23d ed3c 61b1 14bc 02ab fcb9 bbf4 a0bc
000000d0: b9ab 9c3d 9018 bebc 1349 e3bc 9d2d 883c
000000e0: dcc5 67bd b434 783b 1910 56ba 62c0 fbbc
000000f0: 91dc 97bb 0723 3c3c a17d 00bc 989c 873c
00000100: aafa b03c 5301 25bc 98b8 cd3b 7355 0c3d
00000110: 2249 b3ba e5c5 31bc 5931 993d 0099 553c
00000120: 2b48 333d 124c 11bd 6b19 dabc 7f09 8c3a
00000130: df51 683d a800 af3c ccf0 61bc 92f0 ccbb
00000140: cf44 a7bc c3dc 72bc edbf a4bb 2d8d ee3b
00000150: 8289 b6bb bca3 ff3c c10c 4f3b 6ab7 86bc
00000160: e845 eabb b622 08bc 88d5 f03c 02d6 c4bc
00000170: bcff 24ba d2a5 52bb beeb a13d a255 b73c
00000180: ce7f 303c 8673 2ebc 67ba f13c 74fe a0bc
00000190: 8887 9aba 9290 87bc 6a5c 7ebb a962 ecbc
000001a0: 2cde b53b 8ce0 c43b f3d4 b2bc 8dc7 b1b8
000001b0: 5f2d b1bc f667 893c cd07 3d3c b6f8 4fbc
000001c0: 30a8 48bc e77c 773c 5ae2 4e3c ff2a 8abc
000001d0: 06e5 aabb 68ce 273c 368c 84bb d418 b3bb
000001e0: fcd7 a0bc cab8 813c 177f 82be 67af 4b3c
000001f0: cd90 f7bb 22b2 a23c e1fe c7bc c226 75bb
00000200: c6ba 02bd 659f bd3b 9c1c c8bc 2b77 ed3b
00000210: ec2d 843c e9f5 133b c836 f93b 4a23 5dbd
00000220: c96f d73d 21fa 393c 8b82 baba ad51 b6bb
00000230: 9a55 c9bc 8bbc d7bc 4caf dd3c c140 b13b
00000240: ea86 fdba 1b7c ee3b 8263 0f3b c85c 653b
00000250: 2065 403b ec41 f33a 4ca0 e5bc 2d7d f93c
00000260: aa3d f03c b7eb 4b3c aa24 a23c 3cbe 1a3d
00000270: 504f 53bd 0d7c cc3b 5f41 803c 4e3b 313c
00000280: a088 9d3b ff67 293c f329 083b a047 213c
00000290: 161a 3f3d 114f 3cbd 13a4 0ebc 3780 d63c
000002a0: 1b51 42bb 1d57 6cbb c146 1ebc 8b19 a73c
000002b0: 6c66 04bd 6cb4 b6bc 0a96 3abc c629 8e3a
000002c0: f4f8 2abc d165 ecbb 14a4 dabc b392 e9bc
000002d0: 2f63 403d 7b45 003d b08c 103d 7de5 033d
000002e0: c060 04bd f0a5 81bb 3659 8d3c 7a6c 8fbc
000002f0: d1f6 76bc 2f70 d0bc 68cd 193d f9df 1d3c
00000300: 9a19 c0b8 c636 543c 1b8a 2ebd 9f53 513c
00000310: a7ed 2b3d a8ad 1b3d 0c8e 8dbb b4f0 ed3a
00000320: 1e67 8dbc a3c8 94bc 9b74 98bc 6e00 fdbc
00000330: a81a 8ebd 010f 93bc fded 953d 700e d1bb
00000340: 34f9 77bd 4674 ae3b 81fa 323c b882 963b
00000350: 0dd8 8fbb f999 173c 1593 c13c 1a59 b33c
00000360: acaf 2fbb 1189 0dba 2f35 92b9 90a7 00bd
00000370: d6d2 39bc c4ce 873b fcfb bfbb 335c 8ebc
00000380: 6c5a 123d 24aa 2c3d c255 1ebd c5b9 2dbd
00000390: 1866 d93c f432 103d 69c1 0bbd 928f 4cb8
000003a0: f232 b9bc 2afa 86bc d52f d5bc ce4d dcbc
000003b0: 0c74 1bbb 551e ca3b eec3 e7bb b5b7 163d
000003c0: 4279 4f3c 0f3f 903d 8701 8dbc cc83 e2bb
000003d0: c992 303d 3cfa 973c 8dd7 8fbc bd06 20bd
000003e0: ebec a53c e25a 073c d00e 213d 0565 bd3c
000003f0: bc75 0dbd b02f 013d 2533 553c b86a 9ebd

motion_mlp.mlps.1.fc0.fc.bias f4 [50]
3.335332e-07 -1.0066061e-06 2.3760838e-06 -9.141028e-07 2.6775679e-06 -7.51271e-09 -2.3958673e-06 -1.4245568e-06
-5.9526565e-07 7.256111e-08 -9.3669934e-07 -5.503618e-07 1.9303984e-06 1.959765e-06 1.2896928e-06 -9.675455e-07
8.494877e-07 -9.344998e-07 -8.2823755e-07 3.504884e-06 -2.5947932e-07 3.740604e-07 9.490234e-07 -2.0436814e-06
-7.582079e-07 -8.500812e-07 -1.7338843e-06 1.4952984e-06 6.464303e-07 -2.1303547e-06 -2.005839e-06 -1.3645117e-06
-3.061711e-08 1.4373018e-06 -2.302487e-06 -1.0841862e-06 2.0754858e-06 3.8561325e-06 1.0166542e-06 -8.588221e-06
7.674171e-07 1.2535538e-06 -1.045175e-06 -1.6717918e-06 1.7443249e-06 4.970041e-07 -3.513327e-07 -1.5906353e-06
-1.2832953e-06 -1.7005078e-06
00000000: 7410 b334 b91a 87b5 cf74 1f36 ab60 75b5
00000010: 44b0 3336 3f11 01b2 b0c8 20b6 6633 bfb5
00000020: 58ca 1fb5 e4d2 9b33 7d71 7bb5 93bc 13b5
00000030: fe8b 0136 8284 0336 8219 ad35 9cdc 81b5
00000040: 5a08 6435 56da 7ab5 0d54 5eb5 7335 6b36
00000050: 914e 8bb4 78d2 c834 64c0 7e35 2e26 09b6
00000060: a687 4bb5 2331 64b5 d0b7 e8b5 10b2 c835
00000070: 5a86 2d35 37f7 0eb6 0d9c 06b6 4424 b7b5
00000080: de7f 03b3 50e9 c035 6d84 1ab6 5b84 91b5
00000090: 9348 0b36 ed63 8136 f973 8835 2116 10b7
000000a0: 8000 4e35 c83f a835 f147 8cb5 5462 e0b5
000000b0: 8c1e ea35 dd69 0535 cc9e bcb4 d07d d5b5
000000c0: b13d acb5 013d e4b5

motion_mlp.mlps.1.norm0.alpha f4 [1, 54, 1]
0.07070873 0.057646323 0.14537293 0.073364146 0.06465976 0.07392114 0.057857115 0.07236021
0.055862527 0.098501466 0.11971844 0.059349947 0.07139071 0.067910686 0.048144273 0.07584752
0.06412706 0.06421892 0.07361841 0.16845301 0.06118924 0.073430255 0.07938453 0.06577756
0.081584446 0.07292341 0.060567614 0.052123662 0.056216154 0.06955315 0.07277904 0.030707356
0.037457503 0.052389577 0.08300427 0.0547739 0.06372307 0.08280006 0.058245797 0.082102716
0.067510016 0.06788348 0.074860565 0.06349856 0.06617487 0.074746765 0.17130707 0.065430306
0.075648665 0.11014714 0.06487314 0.07081671 0.061808623 0.0952952
00000000: bdcf 903d 8d1e 6c3d a4dc 143e f13f 963d
00000010: 566c 843d f763 973d 95fb 6c3d 9731 943d
00000020: 1bd0 643d 23bb c93d f12e f53d ee18 733d
00000030: 4b35 923d c214 8b3d ee32 453d f255 9b3d
00000040: 0c55 833d 3685 833d 40c5 963d f27e 2c3e
00000050: 92a1 7a3d 9a62 963d 5b94 a23d 63b6 863d
00000060: bf15 a73d de58 953d bf15 783d 9f7f 553d
00000070: e942 663d e271 8e3d 2d0d 953d fe8d fb3c
00000080: 0a6d 193d 7496 563d 25fe a93d 995a 603d
00000090: 3e81 823d 1493 a93d 2593 6e3d 7825 a83d
000000a0: b142 8a3d 7e06 8b3d 7f50 993d 880b 823d
000000b0: b186 873d d514 993d 1f6b 2f3e 5300 863d
000000c0: b0ed 9a3d d394 e13d 35dc 843d 5a08 913d
000000d0: 0a2b 7d3d 212a c33d

motion_mlp.mlps.1.norm0.beta f4 [1, 54, 1]
-0.005593038 0.0057752063 -0.00013489566 -0.0068276348 -0.003273977 -0.006775282 -0.0064517637 -0.0010024444
-0.004278996 -0.029555222 0.020593185 -0.004628532 -0.0022372713 -0.0057116444 0.0033618181 0.017474404
0.004719265 0.0074780514 -0.014723726 0.012791141 0.0020722446 -0.003071232 -0.0058461647 -0.002335601
0.013284658 0.01132176 -0.0041162153 0.00034352287 -0.0004291736 -0.0032024414 0.003097438 0.0071505588
-0.018548787 -0.00049769913 -0.01976174 0.005296078 0.0019728562 0.052758377 0.00015026487 0.023542475
-0.00095645775 -0.0050562345 -0.0033805878 0.0002984798 -0.0055261147 -0.002579962 -0.0015581582 -0.014097845
-0.0023173105 0.018358858 -0.0015472922 -0.015426965 0.01457846 -0.01115254
00000000: ce45 b7bb f13d bd3b c772 0db9 5aba dfbb
00000010: 3890 56bb 2f03 debb 5169 d3bb 7464 83ba
00000020: d236 8cbb cb1d f2bc 0ab3 a83c f1aa 97bb
00000030: 2f9f 12bb bf28 bbbb f351 5c3b 7b26 8f3c
00000040: 10a4 9a3b 710a f53b c83b 71bc ef91 513c
00000050: 7fce 073b b946 49bb 2f91 bfbb e210 19bb
00000060: e5a7 593c e77e 393c 51e1 86bb dc1a b439
00000070: b502 e1b9 0de0 51bb 63fe 4a3b 3c4f ea3b
00000080: a0f3 97bc 0678 02ba 5fe3 a1bc b98a ad3b
00000090: 094b 013b 2b19 583d 6b90 1d39 26dc c03c
000000a0: cbba 7aba c5ae a5bb da8c 5dbb 487d 9c39
000000b0: 6914 b5bb 9414 29bb 1d3b ccba a6fa 66bc
000000c0: 05de 17bb 5165 963c 83ce caba 62c1 7cbc
000000d0: 7eda 6e3c 25b9 36bc

motion_mlp.mlps.2.fc0.fc.weight f4 [50, 50]
-0.017006706 -0.024135238 0.01006506 -0.03834557 -0.0048927157 -0.005882448 -0.03912905 -0.009821714
0.027279515 -0.017375527 -0.020469004 0.0048326855 -0.0144899115 -0.0020374234 -0.0074261595 -0.07272926
0.0007511768 -0.044497482 0.012463956 0.06838708 -0.02887463 -0.018290574 -0.021214658 -0.016878825
0.02384506 0.00029815693 -0.026565678 0.015776057 -0.020159729 -0.019876026 0.0153287565 -0.029608421
-0.0064435885 0.0020423566 -0.021834143 -0.0045537995 -0.040895127 -0.008507144 -0.013777861 -0.013555555
0.0047143865 -0.015894363 0.026185831 -0.001350105 0.0014480298 -0.0036331909 0.02228384 -0.016324641
0.028238382 -0.024860099 0.0014880407 -0.03163238 0.004654602 -0.039395966 -0.0148184365 -0.01834256
-0.002728184 -0.028294628 -0.013553471 -0.024526361 -6.728072e-05 0.007136322 -0.038172442 0.036456417
-0.011850013 -0.033983137 -0.021094851 -0.00031101538 -0.014963702 0.038899545 -0.015485648 -0.0018536843
-0.048545223 0.025469331 -0.020628601 0.008349095 -0.034651008 -0.006653307 -0.036830463 -0.012328213
-0.0012454413 0.0037429 -0.010473168 0.017246041 0.0071043377 -0.0033162078 -0.015995763 -0.0018832637
-0.012309887 -0.02000826 -0.018027404 0.011604238 -0.030713677 -0.0011619673 0.006882607 0.008247282
-0.006928571 0.00033773968 0.009487773 -0.0023475124 -0.0056655393 -0.008648774 0.0016544122 -0.012569941
-0.008793142 0.0353945 -0.04693997 -0.0055724415 0.009143402 -0.005977289 -0.02359262 0.0062703746
0.00777869 0.0026914217 -0.0048014317 -0.043559723 -0.012509805 0.0037772255 0.008073731 0.012617219
-0.12346559 -0.005337965 -0.015168051 -0.0051021003 -0.001842881 -0.010570399 -0.0006806675 0.01080379
0.003174102 0.0022778057 0.0033252267 -0.01161734 -0.013573533 0.0054266937 0.013215161 -0.056669656
-0.004146132 -0.0026025441 -0.018735144 0.157235 -0.0018564406 0.020718744 0.011198737 0.02679956
0.00681069 0.026380468 0.02281614 0.012051583 0.0021878222 0.03012252 0.021146927 0.027717043
0.019371653 -0.070105925 -0.03829175 -0.0136225745 0.020916827 -0.0041889343 0.022022745 -0.00453294
0.012230981 -0.0045465026 -0.029901208 0.016153587 0.012450952 0.00014640288 0.0064634294 -0.0162541
0.003400912 0.02278627 0.017064754 0.0015830622 -0.018642535 0.07040926 -0.019406127 0.030282225
0.03785198 -0.0011073452 -0.0061069075 0.019081982 0.029320883 0.0103977155 0.0021094843 0.014541766
0.004727069 0.0016721172 0.022376688 0.01587546 0.011034706 0.013339091 -0.019377746 -0.009776884
-0.013583227 0.020637283 -0.008466457 -0.025330173 0.009980397 0.0053992183 -0.0037292344 -0.0024417478
0.023308052 -0.0022457128 0.0017464942 -0.0019051972 -0.005906402 -0.028872551 -0.0225678 -0.028158305
0.024922146 -0.019071996 0.004252217 -0.0044997777 0.05071795 0.0077303713 -0.016127536 -0.0012830908
0.00064963417 -0.03417628 0.00081168406 0.0100907 -0.027782915 0.0038094318 -0.05294082 -0.028945783
0.018775456 0.006289096 0.010949364 0.008405833 0.0052577895 -0.008842247 0.012763189 0.07232953
0.017515473 -0.0070293476 0.017309293 -0.02181212 -0.015290094 -0.01863534 0.006759144 0.015813634
0.009304433 -0.023927594 0.019329548 0.0064226943 0.024170553 0.010170617 -0.03872733 0.0012492683
-0.0028552387 0.004635565 -0.015307148 -0.05762184 -0.0004347272 0.01734388 -0.0019350247 -0.023008823
00000000: a651 8bbc 43b7 c5bc ece7 243c 3f10 1dbd
00000010: 1353 a0bb 8dc1 c0bb c845 20bd 41eb 20bc
00000020: 4a79 df3c 1f57 8ebc 9dae a7bc 815b 9e3b
00000030: 1867 6dbc 4b86 05bb 2457 f3bb 14f3 94bd
00000040: 9fea 443a fe42 36bd 9f35 4c3c 870e 8c3d
00000050: 7d8a ecbc 1dd6 95bc 5dca adbc 7645 8abc
00000060: b756 c33c f251 9c39 44a0 d9bc ca3c 813c
00000070: 0426 a5bc 0cd3 a2bc 7725 7b3c 5c8d f2bc
00000080: bd24 d3bb 0fd9 053b 84dd b2bc 0a38 95bb
00000090: a681 27bd 8c61 0bbc 8abc 61bc 1e18 5ebc
000000a0: 247b 9a3b e534 82bc ab83 d63c 02f6 b0ba
000000b0: d1cb bd3a d41a 6ebb 9a8c b63c 41bb 85bc
000000c0: 2e54 e73c 68a7 cbbc 5c0a c33a f490 01bd
000000d0: a285 983b aa5d 21bd 07c9 72bc 2343 96bc
000000e0: 55cb 32bb 23ca e7bc 610f 5ebc 82eb c8bc
000000f0: 1019 8db8 cfd7 e93b b55a 1cbd 5353 153d
00000100: 8f26 42bc e731 0bbd 1ccf acbc c70f a3b9
00000110: 512a 75bc 2155 1f3d 84b7 7dbc 53f7 f2ba
00000120: 5bd7 46bd 0fa5 d03c 50fd a8bc a4ca 083c
00000130: 37ee 0dbd fc03 dabb 8adb 16bd 46fc 49bc
00000140: 133e a3ba 714b 753b a797 2bbc 9247 8d3c
00000150: 81cb e83b bc54 59bb 8c09 83bc d8d7 f6ba
00000160: 69af 49bc 5de8 a3bc 35ae 93bc b41f 3e3c
00000170: 409b fbbc 274d 98ba 7e87 e13b 9c1f 073c
00000180: 1109 e3bb a712 b139 9b72 1b3c b9d8 19bb
00000190: fda5 b9bb 96b3 0dbc ddd8 d83a 27f2 4dbc
000001a0: 1c11 10bc d3f9 103d 2044 40bd 0799 b6bb
000001b0: 35ce 153c 22dd c3bb 4f45 c1bc b777 cd3b
000001c0: 62e4 fe3b 9062 303b 5455 9dbb ae6b 32bd
000001d0: edf5 4cbc 548b 773b af47 043c 74b8 4e3c
000001e0: 87db fcbd 19ea aebb 6b83 78bc 852f a7bb
000001f0: d38c f1ba 782f 2dbc d36e 32ba 6102 313c
00000200: 9804 503b 3d47 153b 0cec 593b a856 3ebc
00000210: 8663 5ebc 68d2 b13b 6784 583c 711e 68bd
00000220: 47dc 87bb 728f 2abb 727a 99bc 3602 213e
00000230: cf53 f3ba 5bba a93c e87a 373c c08a db3c
00000240: 352c df3b da1b d83c eae8 ba3c 0174 453c
00000250: 9161 0f3b 81c3 f63c 523c ad3c da0e e33c
00000260: 4db1 9e3c b293 8fbd cfd7 1cbd 3831 5fbc
00000270: c459 ab3c 5443 89bb 0b69 b43c 0f89 94bb
00000280: 7464 483c d4fa 94bb 61f3 f4bc 8754 843c
00000290: 14ff 4b3c b983 1939 2dcb d33b 5127 85bc
000002a0: d6e1 5e3b 46aa ba3c 62cb 8b3c c17e cf3a
000002b0: 3bb8 98bc bb32 903d 99f9 9ebc 6e12 f83c
000002c0: ae0a 1b3d 5724 91ba 741c c8bb d151 9c3c
000002d0: 5932 f03c 2e5b 2a3c 463f 0a3b 9640 6e3c
000002e0: 87e5 9a3b f12a db3a 514f b73c 410d 823c
000002f0: e9ca 343c 348c 5a3c 14be 9ebc 392f 20bc
00000300: 2f8c 5ebc 850f a93c e5b6 0abc 3981 cfbc
00000310: d284 233c edeb b03b 2c66 74bb bb05 20bb
00000320: 87f0 be3c cf2c 13bb 9fea e43a cfb7 f9ba
00000330: 7e8a c1bb 2186 ecbc 1be0 b8bc 3fac e6bc
00000340: 8729 cc3c e03c 9cbc 2e56 8b3b df72 93bb
00000350: a0bd 4f3d 0e4f fd3b e51d 84bc 622d a8ba
00000360: 364c 2a3a 6dfc 0bbd 32c7 543a 7753 253c
00000370: ff98 e3bc a9a7 793b 79d8 58bd b51f edbc
00000380: fcce 993c c314 ce3b f664 333c 9eb8 093c
00000390: 8949 ac3b 12df 10bc b21c 513c 8121 943d
000003a0: 9c7c 8f3c 7156 e6bb 38cc 8d3c 55af b2bc
000003b0: 4d83 7abc 24a9 98bc cf7b dd3b 988b 813c
000003c0: 9f71 183c cd03 c4bc 0059 9e3c 7775 d23b
000003d0: 5301 c63c a9a2 263c 8ca0 1ebd 7dbe a33a
000003e0: f51e 3bbb f0e5 973b d5ca 7abc e104 6cbd
000003f0: 19ec e3b9 c114 8e3c a8a0 fdba 007d bcbc

motion_mlp.mlps.2.fc0.fc.bias f4 [50]
1.5474925e-06 1.5541286e-07 -1.0064734e-06 3.281194e-07 -3.1768622e-07 2.5950972e-06 -4.827114e-07 -6.0500946e-07
-8.346571e-09 -9.990558e-07 -2.1302633e-07 2.4533242e-07 1.0782992e-06 -6.9790315e-07 9.871106e-07 -1.1288002e-06
1.2465132e-07 -4.6841032e-07 3.6426636e-07 2.6434398e-07 -1.1450918e-06 7.8769995e-09 -7.608114e-07 7.409665e-07
3.4282114e-06 -7.943751e-07 -2.6465332e-07 -6.8717276e-07 3.8877377e-07 -1.2405536e-07 -1.8492816e-06 5.6234506e-07
9.324594e-08 -4.3803536e-07 -9.6475475e-08 -1.0843739e-07 -7.0578625e-07 -9.969405e-07 5.9137403e-07 -4.0831765e-07
-1.1046187e-06 -5.149655e-07 -1.8724552e-07 -4.6281707e-07 6.9804383e-07 6.681477e-07 -1.9818066e-07 6.6767427e-07
-2.4975043e-07 1.7027295e-06
00000000: 70b3 cf35 90df 2634 2a16 87b5 6328 b034
00000010: 768e aab4 6e27 2e36 ad93 01b5 ef67 22b5
00000020: 9c64 0fb2 4c17 86b5 3bbc 64b4 3bb6 8334
00000030: 14ba 9035 8a57 3bb5 dd7c 8435 4881 97b5
00000040: e5d7 0534 d379 fbb4 6390 c334 29eb 8d34
00000050: 0eb1 99b5 6953 0732 903a 4cb5 d5e6 4635
00000060: 3910 6636 0b3d 55b5 ad15 8eb4 2776 38b5
00000070: a9b8 d034 1434 05b4 d534 f8b5 0ff4 1635
00000080: 7f3e c833 1f2b ebb4 f42d cfb3 16de e8b3
00000090: 4375 3db5 9dce 85b5 eabe 1e35 c036 dbb4
000000a0: 6942 94b5 293c 0ab5 a80d 49b4 1879 f8b4
000000b0: 3561 3b35 c35a 3335 7ccb 54b4 3a3a 3335
000000c0: 7015 86b4 5789 e435

motion_mlp.mlps.2.norm0.alpha f4 [1, 54, 1]
0.059707202 0.045778096 0.058075737 0.040677365 0.027229251 0.034769382 0.026322132 0.030276332
0.03616692 0.059561446 0.062284745 0.02997804 0.0329664 0.035613254 0.03836088 0.038761914
0.04382813 0.030001711 0.047186837 0.102367826 0.027731722 0.035299588 0.03347094 0.028950889
0.055605628 0.060812823 0.0324443 0.03231351 0.031180603 0.035724875 0.03413158 0.014016687
0.027954794 0.04690347 0.038091738 0.04008646 0.040525645 0.053572543 0.037427314 0.06640342
0.042107172 0.040869728 0.042176757 0.029190067 0.030344047 0.038671773 0.100114584 0.046153236
0.052013967 0.07818967 0.027327152 0.06050628 0.016345073 0.046264146
00000000: 8a8f 743d d081 3b3d d3e0 6d3d 4f9d 263d
00000010: e10f df3c 576a 0e3d 83a1 d73c 1206 f83c
00000020: c423 143d b4f6 733d 4a1e 7f3d 8294 f53c
00000030: c707 073d 34df 113d 4c20 1d3d d0c4 1e3d
00000040: 2085 333d 26c6 f53c fc46 413d 39a6 d13d
00000050: a32d e33c 4d96 103d d318 093d 6a2a ed3c
00000060: bac2 633d de16 793d 50e4 043d 2c5b 043d
00000070: 776e ff3c 3f54 123d 8ecd 0b3d 3fa6 653c
00000080: 7401 e53c da1d 403d 1506 1c3d b331 243d
00000090: 38fe 253d e26e 5b3d 624d 193d 84fe 873d
000000a0: 9278 2c3d 0467 273d 89c1 2c3d 0220 ef3c
000000b0: 1494 f83c 4b66 1e3d e008 cd3d 2d0b 3d3d
000000c0: 990c 553d e821 a03d 31dd df3c 6fd5 773d
000000d0: 1ae6 853c 797f 3d3d

motion_mlp.mlps.2.norm0.beta f4 [1, 54, 1]
-0.02171113 0.00065678667 0.0481303 2.756042e-05 -0.0022773417 0.004414549 0.005063477 -0.007246099
0.004619853 0.003227809 0.04494963 0.004302495 0.0025502543 0.005496449 -0.005216051 -0.0071583698
-0.01161853 0.001736367 0.0016271577 -0.014015679 -0.0007672978 -0.000457166 -0.0035685871 -0.00357566
-0.012226714 -0.0021487596 0.0025832288 -0.0076296926 -0.0072117234 0.0060895854 0.000115338495 -0.0061057447
0.021435307 0.0034825888 -0.02308352 -0.008102643 -0.0020270352 0.03956098 -0.009659143 -0.007768267
-0.0052709403 0.0099331355 0.01053162 -0.0006881993 0.0013572505 0.0020661098 0.0019358139 0.0064166863
-0.002176206 -0.013502705 -0.001954664 -0.020981213 -0.0033069742 -0.0036371292
00000000: 8adb b1bc 352c 2c3a 4724 453d 8d31 e737
00000010: 743f 15bb eca7 903b 86eb a53b af70 edbb
00000020: 2362 973b a689 533b 1a1d 383d f2fb 8c3b
00000030: 2b22 273b 8e1b b43b 68eb aabb c290 eabb
00000040: a65b 3ebc cf96 e33a 5a46 d53a 05a2 65bc
00000050: 7c24 49ba c8af efb9 f5de 69bb 9f55 6abb
00000060: 8e52 48bc 34d2 0cbb 634b 293b 8002 fabb
00000070: 5250 ecbb 258b c73b e2e1 f138 b312 c8bb
00000080: 1999 af3c 253c 643b a619 bdbc f3c0 04bc
00000090: 02d8 04bb b20a 223d 6241 1ebc f28c febb
000000a0: dab7 acbb 97be 223c d18c 2c3c 4668 34ba
000000b0: c5e5 b13a 9267 073b 23bb fd3a 1143 d23b
000000c0: ae9e 0ebb 733a 5dbc d219 00bb cbe0 abbc
000000d0: d2b9 58bb e75c 6ebb

motion_mlp.mlps.3.fc0.fc.weight f4 [50, 50]
0.0018371973 -0.018029515 0.069288716 -0.020761283 -0.009263664 -0.005556955 0.027507301 -0.0020589842
0.035085034 0.008729725 0.0019943994 -0.027808055 -0.0023095468 0.0022079432 0.00020758947 0.032819152
0.011822354 0.021177463 -0.013781127 -0.012097214 -0.014737179 -0.0058177747 -0.033788957 -0.011553536
0.019889321 0.01519768 0.008628215 0.0015498945 -0.0019501386 0.020655282 -0.010415199 0.0067140004
0.00828447 0.005582368 0.030811109 -0.061379142 0.010340336 0.018001407 -0.0229337 0.035588045
0.017852439 0.010365413 0.030190248 0.031479593 -0.0215395 -0.017035443 -0.016201628 0.0040766695
-0.023866314 -0.004395161 0.0081740115 -0.06742461 0.014656604 -0.037983153 0.008655765 0.006937657
0.018199412 0.002728973 0.0115307765 -0.02451038 0.0044495226 0.028495148 -0.018306706 0.013653447
-8.4539846e-05 0.024330039 -0.007893425 -0.008367349 -0.0050770743 0.029763635 0.023124058 -0.020268025
-0.016507497 0.05892394 -0.022606887 -0.0018386955 -0.02745927 -0.002376706 0.0023855162 0.011010943
-0.04649109 -0.059223216 0.004410783 -0.00050665863 0.0042769546 -0.0006413419 -0.018751988 -0.026313996
0.018006794 0.00050440646 -0.007067348 -0.011515798 -0.0029244435 -0.0009715916 -0.031284727 -0.026744261
0.025915038 -0.021350048 0.00014966745 -0.0174116 -0.00045191273 -0.008346652 -0.03835521 -0.012864956
-0.005020456 0.025378458 0.018595506 -0.049480334 0.00025566833 -0.013333961 0.0023172935 0.008119065
-0.008077918 -0.0497638 0.021855626 -0.022257311 -0.026734268 -0.017115036 0.020588208 -0.03601489
-0.015474801 -0.013677791 -0.024979897 -0.022500416 -0.0068722973 -0.03516313 0.050828867 -0.004183931
-0.028530195 -0.005731129 0.04317453 0.022089273 -0.020156533 0.01141783 -0.010933509 -0.010074428
0.00020908116 0.0073575834 0.03492319 0.0068970635 0.009479054 0.00020488651 -0.011929735 -0.01982388
0.017051307 0.0010815825 -0.001121169 -0.02714295 -0.005561871 0.028263625 -0.004179074 0.009199439
-0.0064353244 0.003907679 0.00240867 -0.007640656 -0.03496271 0.018981589 -0.012383199 0.016637584
0.009292573 -0.0026940631 0.0072337887 -0.020868639 -0.020155434 -0.013530378 0.0065143304 -0.018699717
0.014486568 -0.04427788 -0.0012327239 0.0011682388 0.023618547 -0.0019661072 0.0048460793 0.024207667
-0.0034641225 -0.07414193 0.03474975 0.038587302 -0.005761492 0.03751932 0.0071569034 0.003599043
0.017268173 0.003257888 0.033244155 0.008997607 -0.032374818 0.013980514 0.016691428 -0.023392292
-0.007800768 -0.047983326 -0.0035268636 0.0065228594 0.02887776 -0.006668462 -0.02555975 0.00017838838
0.03303008 -0.025631208 -0.019345356 -0.00027040657 0.014556018 -0.052699756 0.06355416 0.0005159427
-0.0610668 0.0071773487 -0.001603907 -0.026340378 -0.03511773 0.027445706 -0.0034102781 0.008582076
0.016593603 0.0002865164 0.024959628 0.044928648 0.030375365 -0.0132539235 -0.008180254 0.01698001
0.018253839 -0.019278318 -0.0063880403 0.015319432 -0.015793385 -0.017200844 -0.04238345 -0.0039833053
-0.016432824 -0.04369311 0.03214725 0.006532738 -0.024986446 0.0049369824 -6.4892316e-05 0.032049235
0.01569664 0.041446034 0.004434664 -0.010379663 -0.021117458 0.0059572197 -0.020885965 0.024692362
0.002458238 -0.011800828 0.0073723164 -0.016910832 -0.01312398 -0.013914144 -0.037189692 -0.0147066
00000000: 1dce f03a a2b2 93bc 3ee7 8d3d 9113 aabc
00000010: 9fc6 17bc 1e17 b6bb fe56 e13c 06f0 06bb
00000020: 53b5 0f3d 1f07 0f3c 78b4 023b b8cd e3bc
00000030: c45b 17bb 24b3 103b 60ac 5939 606d 063d
00000040: 8cb2 413c 5c7c ad3c 3cca 61bc 6533 46bc
00000050: 3574 71bc 08a3 bebb 4a66 0abd 0b4b 3dbc
00000060: eeee a23c b1ff 783c 5b5d 0d3c d425 cb3a
00000070: cb9b ffba 4435 a93c 83a4 2abc 1e01 dc3b
00000080: 96bb 073c 4cec b63b 9467 fc3c b268 7bbd
00000090: 836a 293c b077 933c 74df bbbc c5c4 113d
000000a0: 473f 923c b1d3 293c 8a51 f73c bff0 003d
000000b0: 9b73 b0bc ea8d 8bbc 47b9 84bc 9595 853b
000000c0: 4a83 c3bc 4805 90bb 4aec 053c ea15 8abd
000000d0: 4122 703c 3994 1bbd e9d0 0d3c 4955 e33b
000000e0: ef16 953c 92d8 323b 95eb 3c3c fec9 c8bc
000000f0: 4dcd 913b a86e e93c f2f7 95bc b5b2 5f3c
00000100: fc4a b1b8 ca4f c73c 6d53 01bc 3517 09bc
00000110: 965d a6bb ded2 f33c aa6e bd3c 2109 a6bc
00000120: bb3a 87bc 3b5a 713d 1432 b9bc 6200 f1ba
00000130: 43f2 e0bc 83c2 1bbb 5256 1c3b 3e67 343c
00000140: 716d 3ebd 0b94 72bd 5488 903b 49d1 04ba
00000150: b225 8c3b ba1f 28ba c59d 99bc 7390 d7bc
00000160: fc82 933c 253a 043a 3695 e7bb c2ac 3cbc
00000170: 05a8 3fbb 69b2 7eba 6a24 00bd c816 dbbc
00000180: c64b d43c 4ce6 aebc 0df0 1c39 c6a2 8ebc
00000190: b3ee ecb9 65c0 08bc 5a1a 1dbd 89c7 52bc
000001a0: a382 a4bb 7ce6 cf3c 9a55 983c e4ab 4abd
000001b0: 390b 8639 b076 5abc bcdd 173b d405 053c
000001c0: 3e59 04bc 20d5 4bbd 920a b33c f754 b6bc
000001d0: d301 dbbc d534 8cbc 9aa8 a83c 5984 13bd
000001e0: 058a 7dbc d018 60bc a4a2 ccbc cb52 b8bc
000001f0: 0231 e1bb 3707 10bd ee31 503d 5b19 89bb
00000200: 28b8 e9bc 32cc bbbb c7d7 303d 90f4 b43c
00000210: 501f a5bc da11 3b3c 7622 33bc 370f 25bc
00000220: cc3c 5b39 e217 f13b 9e0b 0f3d c300 e23b
00000230: 094e 1b3c ced6 5639 ef74 43bc b165 a2bc
00000240: 2faf 8b3c e3c3 8d3a 30f4 92ba e45a debc
00000250: 5b40 b6bb 1e89 e73c 9df0 88bb 3eb9 163c
00000260: 6adf d2bb fd0b 803b c7da 1d3b 785e fabb
00000270: 0f35 0fbd 477f 9b3c e7e2 4abc 8b4b 883c
00000280: e03f 183c e18e 30bb 6b09 ed3b b5f4 aabc
00000290: 021d a5bc 85ae 5dbc 2a76 d53b 2630 99bc
000002a0: 1259 6d3c b95c 35bd 5a93 a1ba 971f 993a
000002b0: af7b c13c ced9 00bb dccb 9e3b 284f c63c
000002c0: 5506 63bb b9d7 97bd c155 0e3d b80d 1e3d
000002d0: e6ca bcbb dcad 193d 7584 ea3b ecdd 6b3b
000002e0: fc75 8d3c 4a82 553b 062b 083d b36a 133c
000002f0: 759b 04bd 870e 653c 76bc 883c 31a1 bfbc
00000300: 969d ffbb 2a8a 44bd f422 67bb b6bd d53b
00000310: 0d91 ec3c 1d83 dabb ae62 d1bc c40d 3b39
00000320: 8d4a 073d 8af8 d1bc 277a 9ebc 5bc5 8db9
00000330: 5d7c 6e3c b3db 57bd af28 823d 5440 073a
00000340: 2e21 7abd f72f eb3b 303a d2ba c7c7 d7bc
00000350: 9cd7 0fbd d1d5 e03c f97e 5fbb d69b 0c3c
00000360: 4fef 873c 9537 9639 2278 cc3c 1a07 383d
00000370: c2d5 f83c fc26 59bc 7906 06bc a919 8b3c
00000380: 1389 953c 90ed 9dbc c452 d1bb 5bfe 7a3c
00000390: 2161 81bc c9e8 8cbc 459a 2dbd 6386 82bb
000003a0: 219e 86bc 8cf7 32bd d6ac 033d 9410 d63b
000003b0: 60b0 ccbc 69c6 a13b cc16 88b8 0f46 033d
000003c0: 3d96 803c 51c3 293d a850 913b 760f 2abc
000003d0: 85fe acbc c834 c33b 0b19 abbc a347 ca3c
000003e0: 641a 213b 4358 41bc 7993 f13b 9688 8abc
000003f0: f605 57bc 26f8 63bc 3854 18bd f4f3 70bc

motion_mlp.mlps.3.fc0.fc.bias f4 [50]
-2.4140093e-07 -1.0650964e-06 -2.658087e-07 -6.485033e-08 9.628832e-07 -1.7372988e-06 3.9636473e-07 6.6370626e-07
-1.6099445e-06 1.7874429e-07 7.924671e-07 -1.6254579e-06 -1.3521129e-06 -1.7322566e-07 -1.1537352e-06 -1.3065551e-06
-5.9903726e-07 1.124676e-06 -1.7671961e-06 -1.6665338e-06 -2.3253035e-07 -1.4682599e-06 -3.8518177e-08 1.1487463e-06
3.5458464e-07 1.0332881e-06 1.0139153e-06 2.4110288e-06 7.2809075e-07 1.4288168e-08 -1.503996e-06 -8.313467e-07
1.9669338e-07 -3.066681e-07 1.2468078e-06 -2.2631984e-06 6.29706e-07 -5.0025218e-08 -1.7633384e-06 1.0265718e-06
1.2724903e-06 1.8394121e-07 -3.0746125e-07 -2.4186073e-07 -1.8274528e-07 -7.8708285e-07 8.61858e-07 4.917074e-07
-1.4865347e-07 -8.618438e-07
00000000: e499 81b4 6ff4 8eb5 78b4 8eb4 d943 8bb3
00000010: 6a3c 8135 222d e9b5 f4cb d434 8c29 3235
00000020: 4615 d8b5 dbec 3f34 edb9 5435 4f2a dab5
00000030: 3f7a b5b5 e8ff 39b4 0ada 9ab5 e45c afb5
00000040: 87cd 20b5 93f3 9635 6530 edb5 aaad dfb5
00000050: 75ad 79b4 0711 c5b5 2f6f 25b3 9f2e 9a35
00000060: be5d be34 82af 8a35 dd15 8835 29cd 2136
00000070: 0472 4335 0778 7532 e9dc c9b5 b629 5fb5
00000080: aa32 5334 25a4 a4b4 fd57 a735 74e1 17b6
00000090: 1109 2935 4fdb 56b3 d9ab ecb5 bdc8 8935
000000a0: 6fca aa35 6081 4534 2711 a5b4 16d9 81b4
000000b0: a438 44b4 ec47 53b5 6e5a 6735 e0fd 0335
000000c0: 8e9d 1fb4 7459 67b5

motion_mlp.mlps.3.norm0.alpha f4 [1, 54, 1]
0.05372876 0.057111695 0.09215692 0.04386096 0.027636388 0.03136469 0.017620264 0.03260757
0.03564179 0.055320296 0.10500412 0.034482524 0.043970168 0.038055442 0.052608017 0.048102435
0.041578785 0.03541493 0.044213004 0.0065749115 0.04591148 0.050984625 0.040719952 0.043646954
0.056367524 0.07639103 0.038698602 0.04481873 0.017156214 0.05475344 0.02041087 0.011208567
0.048324455 0.010729918 0.08091012 0.0423391 0.031156536 0.07866481 0.05485863 0.0567521
0.059477862 0.057620056 0.040703613 0.059179302 0.040688477 0.010725971 0.009398448 0.039613415
0.050031494 0.105883405 0.034866005 0.070420645 0.08247414 0.023644397
00000000: b012 5c3d f4ed 693d c4bc bc3d 8da7 333d
00000010: b565 e23c 4378 003d 5f58 903c 848f 053d
00000020: 20fd 113d 8997 623d 660c d73d 8c3d 0d3d
00000030: 101a 343d 06e0 1b3d 817b 573d 0f07 453d
00000040: 844e 2a3d 3f0f 113d b218 353d 5b72 d73b
00000050: ad0d 3c3d 41d5 503d f7c9 263d 26c7 323d
00000060: a2e1 663d e672 9c3d 6d82 1e3d d893 373d
00000070: 308b 8c3c 2545 603d b234 a73c 23a4 373c
00000080: ddef 453d 8acc 2f3c 34b4 a53d c46b 2d3d
00000090: fe3b ff3c 041b a13d 71b3 603d e474 683d
000000a0: 0f9f 733d 0203 6c3d d5b8 263d ff65 723d
000000b0: f6a8 263d fcbb 2f3c f3fb 193c ad41 223d
000000c0: d3ed 4c3d 66d9 d83d a8cf 0e3d b338 903d
000000d0: 34e8 a83d e5b1 c13c

motion_mlp.mlps.3.norm0.beta f4 [1, 54, 1]
0.009202626 0.0013242983 0.023410909 -0.004430204 0.0012620739 -0.0012094888 -0.004018155 0.0069471416
-0.0011693275 -0.004785693 0.0049686204 -0.0023588615 -0.0030490845 -0.007197865 -0.008178671 0.008549395
0.00023598222 -0.009998421 -0.007934646 0.01844633 -0.0050029587 0.00043502628 0.0019488728 0.0011216457
-0.02308699 -0.0124950735 0.0013713528 0.0027836326 0.01748867 -0.0015911987 0.0012493567 -0.00951834
0.014099442 -0.012722373 0.02797352 -0.0019404414 0.00094024005 0.02858658 -0.0034301598 -0.007074954
-0.0035414891 -0.01584772 -0.008549996 -0.0020092183 0.00064625306 -0.011790898 0.013506386 -0.012582788
-0.008423828 -0.021902557 -8.3734616e-05 0.029705878 -0.001771601 -0.0005506576
00000000: 9cc6 163c 1494 ad3a 3cc8 bf3c 3f2b 91bb
00000010: 2c6c a53a b687 9eba baaa 83bb d9a4 e33b
00000020: 1f44 99ba 4dd1 9cbb cfcf a23b 2197 1abb
00000030: 26d3 47bb 11dc ebbb d5ff 05bc c312 0c3c
00000040: ff71 7739 6bd0 23bc 5100 02bc c21c 973c
00000050: dcef a3bb 3d14 e439 5271 ff3a 2f04 933a
00000060: ed20 bdbc 23b8 4cbc f7be b33a 9b6d 363b
00000070: 6644 8f3c c58f d0ba 74c1 a33a d0f2 1bbc
00000080: 5901 673c 8071 50bc b928 e53c 6956 feba
00000090: 717a 763a 672e ea3c 88cc 60bb 04d5 e7bb
000000a0: 5418 68bb 14d3 81bc 4815 0cbc 17ad 03bb
000000b0: 4f69 293a 9c2e 41bc e449 5d3c 0a28 4ebc
000000c0: 1804 0abc fe6c b3bc ae9a afb8 be59 f33c
000000d0: 1135 e8ba 025a 10ba

motion_mlp.mlps.4.fc0.fc.weight f4 [50, 50]
-0.015832005 0.024648668 -0.0018546609 0.044751912 0.009186768 -0.007711041 -0.10766521 -0.015100359
0.034159623 -0.0053844512 0.0063635604 -0.009222656 0.010687623 0.013620065 -0.0010921954 -0.036566548
0.0039266846 0.0025592183 -0.008200753 -0.013333921 -0.021816686 0.03598769 0.017062573 -0.011113122
-0.036808718 0.01269652 0.017499462 0.03140901 0.005725487 0.039009027 0.0050863046 -0.030903988
-0.006937519 0.0034942 -0.01928807 -0.0072676283 -0.0076959194 0.03305439 -0.014253056 -0.009638422
0.030530732 -0.041883565 0.005350629 0.0027033715 0.012166405 0.015126894 -0.038728207 0.0018360271
0.015153568 -0.07362493 0.040093757 0.007993841 -0.0057000667 -0.06637679 0.017630901 -0.012639109
-0.011067564 -0.0011443924 0.020897469 0.0060390662 0.026867714 0.0149165215 -0.002531881 -0.0030469024
0.015151353 0.008898384 -0.0060774614 -0.026993793 0.019029241 -0.015007753 0.025162222 -0.004556978
0.0088603385 -0.013077209 0.01736717 0.022183923 -0.02590299 -0.043332946 -0.0131554315 -0.05066112
-0.0058729374 -0.03430516 0.015198554 -0.022559304 0.030481461 0.008955575 -0.012390995 0.027412646
-0.005879829 -0.02658177 0.037181884 0.03949201 -0.016552843 0.0002109217 0.03549012 -0.012822088
0.009353676 -0.026701743 -0.021585513 -0.008372968 -0.012097407 0.0028380658 0.023153562 -0.034950346
-0.0043016705 -0.002917083 0.03520941 0.02567234 0.029058428 0.0062521966 -0.0006741854 0.023487171
0.013613759 0.006493234 -0.04149428 0.023459245 -0.0012872604 0.008965419 0.049103264 0.003402081
0.04392261 0.0149427755 -0.0042423904 -0.02125767 0.004189132 0.017530827 0.039345693 -0.041250546
0.034624808 0.0074045504 -0.016779264 0.0028746636 0.007164137 -0.004903732 -0.0070482492 -0.0035163453
-0.0030475757 -0.0151221305 0.03324383 0.04647054 -0.016200516 -0.01350368 0.030740054 -0.0047556567
-0.026908709 -0.009585848 0.027558235 0.026616795 0.008970907 -0.004559437 -0.012851003 0.022800911
0.019376775 -0.0351469 -0.059355136 -0.019745097 -0.006975035 -0.048296653 0.034810327 0.03775793
0.015395559 0.0439801 -0.013238289 -0.002150964 0.0134965405 -0.02232969 -0.047111478 -0.0071097612
0.021970652 0.013037713 0.006805826 -0.01099927 -0.0019182371 0.022547068 -0.027607422 0.011889847
0.036545586 0.042546347 -0.02010432 -0.0023893947 -0.014768788 -0.045301434 -0.016189817 0.03502727
0.014709677 0.023603903 0.011696046 0.0368946 -0.014227657 -0.003978952 -0.025789158 0.0014178188
0.006443927 -0.002734245 -0.0052454197 0.0027892406 0.025745863 0.022620596 -0.0060331416 0.02276547
-0.026373819 0.011961156 0.0022697041 0.035593957 -0.012663573 -0.0026406725 0.032023914 -0.009464941
0.0027024955 -0.008208989 0.0116977105 -0.026914237 -0.015566718 0.014122867 0.009293998 -0.03640562
-0.02506855 -0.01742765 -0.01607763 -0.031552557 0.0045217234 0.014848055 -0.020430297 0.023912245
0.010542825 0.060460754 -0.03328256 -0.020847537 -0.043095015 0.0065568862 -0.009175515 -0.017417276
-0.007776499 0.021712145 0.034810368 0.03822526 0.005984289 -0.0056073396 0.008715443 0.0051035644
-0.040311918 -0.010341979 -0.025218707 -0.01349393 0.027414598 -0.03089965 -0.008461479 -0.0066050575
-0.044281874 -0.031971443 0.018015273 -0.01964584 -0.006604706 0.007550381 -0.005721369 -0.046753976
00000000: 1fb2 81bc 01ec c93c 1818 f3ba c84d 373d
00000010: 1984 163c e6ac fcbb 947f dcbd 7f67 77bc
00000020: f6ea 0b3d 0d70 b0bb 6a85 d03b 9f1a 17bc
00000030: 241b 2f3c b126 5f3c ff27 8fba cec6 15bd
00000040: 6bab 803b 8fb8 273b 735c 06bc 8576 5abc
00000050: e8b8 b2bc d467 133d cfc6 8b3c d013 36bc
00000060: bdc4 16bd 1105 503c 085b 8f3c bca6 003d
00000070: de9c bb3b eec7 1f3d 04ab a63b 5c2a fdbc
00000080: 2154 e3bb f3fe 643b 0402 9ebc 4925 eebb
00000090: 0d2e fcbb 0a64 073d a685 69bc 79ea 1dbc
000000a0: 961b fa3c 1a8e 2bbd 5454 af3b 0c2b 313b
000000b0: 9a55 473c cbd6 773c 78a1 1ebd d9a6 f03a
000000c0: ac46 783c abc8 96bd 5a39 243d 99f8 023c
000000d0: a0c7 babb 8ef0 87bd ae6e 903c 4414 4fbc
000000e0: ba54 35bc 70ff 95ba 2b31 ab3c 5ce3 c53b
000000f0: ae19 dc3c 6d64 743c eaed 25bb 8aae 47bb
00000100: 613d 783c 87ca 113c 7125 c7bb 1622 ddbc
00000110: 36e3 9b3c 14e3 75bc 0121 ce3c b452 95bb
00000120: f42a 113c ca41 56bc 9845 8e3c 0fbb b53c
00000130: 8232 d4bc e37d 31bd e189 57bc 0982 4fbd
00000140: c571 c0bb 9183 0cbd 5b03 793c 4ace b8bc
00000150: 42b4 f93c 67ba 123c 9a03 4bbc 7c90 e03c
00000160: 95ab c0bb 03c2 d9bc 084c 183d 60c2 213d
00000170: d499 87bc dd2a 5d39 175e 113d bc13 52bc
00000180: 2940 193c 9dbd dabc 1ad4 b0bc c62e 09bc
00000190: 3434 46bc d8fe 393b 8aac bd3c 1828 0fbd
000001a0: 07f5 8cbb 882c 3fbb be37 103d cd4e d23c
000001b0: f10b ee3c 3adf cc3b d1bb 30ba 2b68 c03c
000001c0: 3e0c 5f3c 32c5 d43b e8f5 29bd 9a2d c03c
000001d0: 4bb9 a8ba b1e3 123c 8120 493d 73f5 5e3b
000001e0: 32e8 333d 8bd2 743c c003 8bbb 9124 aebc
000001f0: fc44 893b cf9c 8f3c f328 213d 55f6 28bd
00000200: bed2 0d3d dfa1 f23b ab74 89bc da64 3c3b
00000210: 23c1 ea3b 7caf a0bb 00f5 e6bb 7c72 66bb
00000220: d6b9 47bb d0c2 77bc af2a 083d e557 3e3d
00000230: f2b6 84bc 8a3e 5dbc 91d2 fb3c 57d5 9bbb
00000240: a76f dcbc f60d 1dbc cfc1 e13c 770b da3c
00000250: b6fa 123c 5467 95bb 038d 52bc fac8 ba3c
00000260: 0bbc 9e3c 32f6 0fbd 5f1e 73bd 78c0 a1bc
00000270: d68e e4bb b6d2 45bd 4695 0e3d 0fa8 1a3d
00000280: a83d 7c3c 7a24 343d 69e5 58bc 30f7 0cbb
00000290: 9820 5d3c c1ec b6bc f7f7 40bd 00f9 e8bb
000002a0: ccfb b33c 229c 553c 6803 df3b 4836 34bc
000002b0: 5b6d fbba a1b4 b83c f628 e2bc a2cd 423c
000002c0: d3b0 153d 1445 2e3d d1b1 a4bc 6497 1cbb
000002d0: c9f8 71bc ff8d 39bd 82a0 84bc c178 0f3d
000002e0: db00 713c f95c c13c c6a0 3f3c cb1e 173d
000002f0: 1e1b 69bc de61 82bb c943 d3bc 1bd6 b93a
00000300: 9427 d33b 0531 33bb c5e1 abbb b1cb 363b
00000310: fde8 d23c d44e b93c a9b1 c5bb a77e ba3c
00000320: e80d d8bc b9f8 433c 51bf 143b f8ca 113d
00000330: e07a 4fbc 220f 2dbb 822b 033d d712 1bbc
00000340: 5a1c 313b ff7e 06bc c1a7 3f3c 3f7b dcbc
00000350: 8c0b 7fbc 9963 673c da45 183c 0f1e 15bd
00000360: 8f5c cdbc 6ec4 8ebc 3cb5 83bc 413d 01bd
00000370: f72a 943b 4245 733c 705d a7bc 9de3 c33c
00000380: d0bb 2c3c b2a5 773d 4b53 08bd 74c8 aabc
00000390: 6684 30bd 26db d63b e654 16bc adae 8ebc
000003a0: 00d2 febb abdd b13c 5195 0e3d 1792 1c3d
000003b0: db17 c43b c6bd b7bb 38cb 0e3c cd3b a73b
000003c0: 1c1e 25bd 6771 29bc 7697 cebc a515 5dbc
000003d0: 9494 e03c 4321 fdbc 04a2 0abc 3d6f d8bb
000003e0: e960 35bd 7df4 02bd c494 933c 50f0 a0bc
000003f0: 4a6c d8bb 3069 f73b 527a bbbb 1981 3fbd

motion_mlp.mlps.4.fc0.fc.bias f4 [50]
-8.737122e-08 -4.9628534e-07 -3.8763878e-07 1.575522e-07 -7.6146233e-07 1.4843685e-07 -3.3863213e-07 3.5570335e-07
1.0170592e-07 -1.4010423e-07 -8.6612616e-08 4.5735473e-07 -6.342089e-07 6.877399e-07 1.2429493e-07 2.1462573e-07
3.9033566e-07 -1.2853555e-07 6.130525e-07 -1.8605693e-06 -1.1412951e-07 3.50752e-07 6.496132e-07 3.738829e-07
9.96959e-07 -1.1049603e-06 -2.5133824e-07 -6.553566e-07 -6.2530216e-07 3.233654e-08 3.589162e-07 7.482072e-07
-3.704545e-07 -6.7908525e-07 -2.0147355e-07 7.8617677e-07 2.735349e-07 4.882487e-07 4.616755e-07 -5.7941108e-08
-5.15647e-07 -8.1584517e-07 7.189237e-07 3.8965152e-07 1.0990075e-06 -9.1882987e-07 -3.1570056e-07 -8.219572e-07
2.1485589e-07 9.963902e-07
00000000: d6a0 bbb3 7838 05b5 ab1c d0b4 9e2b 2934
00000010: 4b67 4cb5 0362 1f34 3fcd b5b4 7ff7 be34
00000020: 6c69 da33 8f6f 16b4 caff b9b3 5b8a f534
00000030: 813e 2ab5 209d 3835 ee75 0534 df73 6634
00000040: 538f d134 9503 0ab4 a690 2435 adb8 f9b5
00000050: 5d17 f5b3 fd4e bc34 1461 2e35 13ba c834
00000060: 40cf 8535 264e 94b5 aaef 86b4 c3eb 2fb5
00000070: 70da 27b5 67e2 0a33 11b1 c034 68d8 4835
00000080: e1e2 c6b4 624a 36b5 a154 58b4 a809 5335
00000090: 5ada 9234 3210 0335 33dc f734 ecda 78b3
000000a0: fe6a 0ab5 7400 5bb5 0ffc 4035 4c31 d134
000000b0: 9c81 9335 82a5 76b5 8e7d a9b4 78a4 5cb5
000000c0: 23b3 6634 b5bb 8535
