src/siMLPe/exps/baseline_amass/log/snapshot/model-iter-5000.pth (torch, 604138 bytes, 196 tensors)

motion_mlp.mlps.0.fc0.fc.weight f4 [50, 50]
0	0xbaf94f40	-0.0019020811
1	0xbb591137	-0.0033121833
2	0xbb1f4194	-0.0024300562
3	0x3c96b801	0.018398287
4	0xbc33f7b4	-0.01098435
5	0x3bd504e3	0.0065008267
6	0xbbc05f19	-0.0058707115
7	0xbb8c6ffe	-0.0042858114
8	0xb8cf0953	-9.872266e-05
9	0xba120d3d	-0.00055714307
10	0x3b0f0b1e	0.0021826695
11	0xbb6e3bd9	-0.003635159
12	0x3a82a079	0.0009966037
13	0xba002255	-0.00048879284
14	0xbb190a6c	-0.002335216
15	0xb95f7771	-0.00021311433
16	0xbb01b719	-0.0019792973
17	0x3a6fbe20	0.00091454573
18	0xbb3a56dd	-0.0028433122
19	0x3ad35010	0.0016121883
20	0xbb2cd938	-0.002637459
21	0x3b2e00c8	0.0026550759
22	0xbb6eb077	-0.00364211
23	0x3b4f68cf	0.0031648164
24	0xbb78f168	-0.0037985686
25	0x3b5cd862	0.003369831
26	0xbb6b7923	-0.0035930357
27	0x3b480c91	0.0030525068
28	0xbb581788	-0.003297301
29	0x3b31346d	0.0027039305
30	0xbb3e0010	-0.0028991736
31	0x3b13e768	0.0022568349
32	0xbb1ba68e	-0.0023750397
33	0x3b0d55eb	0.0021566104
34	0xbb0e3a3c	-0.002170219
35	0x3adf75bd	0.0017048639
36	0xbaf1e665	-0.0018455504
37	0x3abb5f9a	0.0014295459
38	0xbabf14c3	-0.0014578331
39	0x3a8dcc4e	0.0010818334
40	0xba9b4c83	-0.0011848364
41	0x3a85c481	0.0010205657
42	0xba6a37c3	-0.0008934701
43	0x3a2d2855	0.0006605436
44	0xba376e53	-0.00069973356
45	0x39efc8f1	0.00045735345
46	0xb9f07bef	-0.00045868705
47	0x39ae74f9	0.00033275018
48	0xb97fb871	-0.00024387405
49	0x37d9566b	2.5908657e-05
50	0x3b0e3ec1	0.0021704885
51	0xbc06c9aa	-0.008226791
52	0x3c2a8667	0.010408021
53	0xbc01934a	-0.007908652
54	0x3c501fdf	0.012702911
55	0xbb52d215	-0.0032168676
56	0x3c8b81f7	0.017029746
57	0x3b6381c2	0.0034714793
58	0x3bd97091	0.0066357334
59	0x3bc0c90c	0.0058833417
60	0x3b9d4e71	0.0048006107
61	0x3ba59b33	0.0050539016
62	0x3b8b0ad3	0.0042432337
63	0x3ba68fca	0.005083059
64	0x3b24d074	0.0025148662
65	0x3b8fe20b	0.00439096
66	0xb8474900	-4.7513284e-05
67	0x3b8a434b	0.0042194477
68	0xb9e20d83	-0.00043116146
69	0x3b6f257d	0.003649085
70	0xba8d0f96	-0.0010762091
71	0x3b219aee	0.0024658996
72	0xbac186b5	-0.0014764877
73	0x3b04cdec	0.002026434
74	0xbb0bd7cb	-0.002133834
75	0x3b0e0981	0.0021673145
76	0xbaf7f68f	-0.0018918085
77	0x3b1135e0	0.0022157356
78	0xbb03df59	-0.002012214
79	0x3b047d80	0.0020216405
80	0xbafccb8b	-0.0019286735
81	0x3ae5c048	0.0017528618
82	0xbafe1593	-0.0019385092
83	0x3ad43173	0.0016189053
84	0xbae1f1e1	-0.0017238223
85	0x3ac10494	0.0014726096
86	0xbabc7479	-0.0014377973
87	0x3aac22ab	0.001313289
88	0xba9fa287	-0.0012179174
89	0x3a8b5a0f	0.0010631698
90	0xba84fea6	-0.0010146692
91	0x3a61e1d6	0.0008616721
92	0xba509ec1	-0.00079582265
93	0x3a34caf9	0.00068967004
94	0xba17c222	-0.0005789121
95	0x3a10952f	0.0005515394
96	0xb9c1d3b6	-0.00036969566
97	0x3984da93	0.00025339852
98	0xb8b59854	-8.659126e-05
99	0x38cc3165	9.7366785e-05
100	0xbaef606a	-0.0018262987
101	0x3b006063	0.00195887
102	0xbb1ec4dd	-0.0024226226
103	0x39459ef6	0.00018846602
104	0x3b82f4a7	0.00399645
105	0x3ae21fd2	0.0017251915
106	0xba204f77	-0.0006115357
107	0xba1c6a36	-0.00059667544
108	0x3a86d4db	0.0010286825
109	0xbb11b921	-0.002223559
110	0x3b35bc33	0.0027730584
111	0xba7d9fe9	-0.00096750126
112	0x3bd25844	0.0064192135
113	0xb935e0e0	-0.00017345278
114	0x3bdce77d	0.0067414627
115	0xba9502ff	-0.0011368691
116	0x3bfea1dd	0.0077707605
117	0xbb78b3de	-0.0037949006
118	0x3c3bb455	0.011456569
119	0xbbff733f	-0.007795721
120	0x3c635408	0.013875015
121	0xbc3f8929	-0.011690416
122	0x3c8e60d0	0.017380148
123	0xbc5f9a68	-0.013647653
124	0x3c9fa1ff	0.019486425
125	0xbc7b2425	-0.015328442
126	0x3ca77f8b	0.02044656
127	0xbc84aa68	-0.016194537
128	0x3ca6ae27	0.020346714
129	0xbc788545	-0.015168493
130	0x3ca0a728	0.019610956
131	0xbc66f183	-0.014095667
132	0x3c8e3cfd	0.017363066
133	0xbc4e37b7	-0.012586526
134	0x3c843938	0.016140565
135	0xbc2d1820	-0.010564834
136	0x3c680525	0.014161383
137	0xbc0e28d7	-0.008676729
138	0x3c40c3eb	0.0117654605
139	0xbbdeebc4	-0.006803008
140	0x3c24226e	0.010017974
141	0xbbacc86a	-0.0052729147
142	0x3c01d021	0.007923157
143	0xbb68f097	-0.0035543793
144	0x3bcc05d6	0.0062262816
145	0xbb07d0da	-0.002072385
146	0x3ba1c7ec	0.0049371626
147	0xba576f0b	-0.0008218146
148	0x3b50f619	0.0031884967
149	0x3a851a96	0.0010155018
150	0x3a635568	0.00086720893
151	0x3ac9d341	0.0015398042
152	0xbb9d451b	-0.004799498
153	0x382ec14d	4.1664858e-05
154	0xbb4c393b	-0.0031162042
155	0x3b6dcae0	0.0036284253
156	0xbbbb71ee	-0.0057203686
157	0x3b9d71d3	0.0048048287
158	0x3be8dfab	0.0071067414
159	0xbbe472c4	-0.006971689
160	0x3c178c5c	0.009249773
161	0xbbe23907	-0.006903771
162	0x3c2e64b6	0.010644129
163	0xbc1ec18e	-0.009689702
164	0x3c16d9bf	0.009207188
165	0xbc3ff48c	-0.011716019
166	0x3c3a4623	0.011369261
167	0xbc56fed4	-0.013122279
168	0x3c57f946	0.01318199
169	0xbc872000	-0.016494751
170	0x3c8fbf4e	0.017547276
171	0xbca95220	-0.020669043
172	0x3caf037c	0.021363966
173	0xbcc88c0a	-0.024480838
174	0x3cd79ec0	0.026320815
175	0xbcec291f	-0.028828202
176	0x3cedcf5c	0.02902954
177	0xbcfbebb9	-0.03075205
178	0x3cf5ae42	0.02999032
179	0xbcf61525	-0.03003938
180	0x3ced49cd	0.028965855
181	0xbce965c2	-0.028490905
182	0x3cd18dd3	0.025580322
183	0xbcd04d4b	-0.025427481
184	0x3cbfc6d3	0.023410236
185	0xbcb50faa	-0.022102196
186	0x3ca5ee66	0.020255279
187	0xbc99c006	-0.018768322
188	0x3c8435dc	0.016138963
189	0xbc7f84a1	-0.015595586
190	0x3c55426e	0.013016326
191	0xbc50e1ad	-0.012749118
192	0x3c1e6339	0.009667211
193	0xbc222d70	-0.009898528
194	0x3bd5b471	0.0065217544
195	0xbbf4175c	-0.0074490737
196	0x3b930f7b	0.0044879294
197	0xbbafb4e2	-0.005362139
198	0x3ab39e12	0.0013703725
199	0xbb0f460b	-0.0021861817
200	0xbabea95a	-0.001454632
201	0xba03cebe	-0.00050280604
202	0x3b626e02	0.0034550433
203	0xbbd818c6	-0.00659475
204	0x3afc6ca9	0.0019258457
205	0xbbc7cef2	-0.006097668
206	0x3c268497	0.010163448
207	0xbc45df56	-0.012077173
208	0x3c82e32b	0.015977463
209	0xbc6d7a9e	-0.014494566
210	0x3c0dd6ee	0.0086572
211	0xbc55dce2	-0.013053151
212	0x3c12dc63	0.008963677
213	0xbc427f23	-0.011871132
214	0x3bc16a78	0.0059025846
215	0xbc4fd377	-0.0126846945
216	0x3bdd71fc	0.0067579728
217	0xbc6451df	-0.013935535
218	0x3c17d74d	0.00926764
219	0xbc89be40	-0.016814351
220	0x3c47c0d3	0.012191969
221	0xbca7e910	-0.020496875
222	0x3c774a53	0.015093404
223	0xbcb14a8c	-0.021641992
224	0x3c86f5e6	0.016474675
225	0xbcb913bd	-0.02259242
226	0x3c8cdb4c	0.017194413
227	0xbcb423a9	-0.02198966
228	0x3c86288c	0.016376756
229	0xbca8d9a1	-0.020611586
230	0x3c75069a	0.014955187
231	0xbc9a8fed	-0.018867457
232	0x3c50dda6	0.012748158
233	0xbc8b1d27	-0.016981674
234	0x3c38418b	0.011246095
235	0xbc6d9f5b	-0.014503325
236	0x3c192879	0.009348028
237	0xbc4d04b8	-0.012513332
238	0x3be791c5	0.0070669376
239	0xbc2c8eb9	-0.010532075
240	0x3bae740f	0.005323894
241	0xbc141d07	-0.009040124
242	0x3b6ac836	0.0035824901
243	0xbbf2180a	-0.0073881196
244	0x3afcb92e	0.0019281262
245	0xbbc07bb0	-0.0058741197
246	0x3a4366ad	0.00074539596
247	0xbb98c0b3	-0.0046616434
248	0xba5718b3	-0.00082052796
249	0xbb3cf31b	-0.0028831426
250	0xb93e54be	-0.00018151381
251	0x3aa85c76	0.0012844938
252	0x3a88ced6	0.0010437618
253	0x3a925969	0.0011165562
254	0xba60e405	-0.00085788994
255	0xbac6f6fc	-0.0015179808

motion_mlp.mlps.0.fc0.fc.bias f4 [50]
0	0x35e057c2	1.6714841e-06
1	0xb83f28d9	-4.557599e-05
2	0x38e896df	0.00011090724
3	0x3900279a	0.00012221784
4	0x38cc525f	9.742821e-05
5	0xb8f42a55	-0.000116427116
6	0xb856ca0c	-5.1209747e-05
7	0x3642411a	2.8946147e-06
8	0xb5b77624	-1.3668946e-06
9	0xb5992af9	-1.1411895e-06
10	0xb6d0fcd6	-6.228317e-06
11	0xb80a6058	-3.299149e-05
12	0x39fcc9f5	0.00048215655
13	0x37a6f52a	1.9902905e-05
14	0xb8c10ac7	-9.2049646e-05
15	0xb78c07d6	-1.669295e-05
16	0xb88bcc7f	-6.666127e-05
17	0x35118f07	5.422484e-07
18	0xb7357095	-1.0814653e-05
19	0x377e4312	1.5155196e-05
20	0xb89e37f4	-7.544449e-05
21	0x36b10ec8	5.276732e-06
22	0x3843520c	4.6568035e-05
23	0x366c11ff	3.5177216e-06
24	0x37089665	8.141248e-06
25	0xb7cc89d1	-2.438287e-05
26	0x38737ce4	5.8052028e-05
27	0xb8ecb25f	-0.00011286581
28	0x37ee2856	2.8390594e-05
29	0xb922a6c1	-0.00015511645
30	0xb75b2a5a	-1.3063278e-05
31	0x36ad66de	5.167777e-06
32	0x3755ad28	1.2736105e-05
33	0x3806ad5d	3.2109547e-05
34	0x382bfbfc	4.1004256e-05
35	0xb7073443	-8.058795e-06
36	0x39eeeeea	0.00045572902
37	0x37a65c89	1.9831832e-05
38	0xb84ef129	-4.9338825e-05
39	0x35445a9a	7.314753e-07
40	0xb8de9428	-0.00010613381
41	0xb85b327e	-5.2260693e-05
42	0xb809e297	-3.2874374e-05
43	0x3733bbcc	1.0712956e-05
44	0x38488e93	4.78165e-05
45	0xb76b5d22	-1.4028776e-05
46	0x36a6f814	4.9760656e-06
47	0xb769c065	-1.3932678e-05
48	0x332f168d	4.0765872e-08
49	0xb8dc832c	-0.0001051485

motion_mlp.mlps.0.norm0.alpha f4 [1, 54, 1]
0	0x3f172772	0.59044564
1	0x3ee5311a	0.44764024
2	0x3f2df0dd	0.67945653
3	0x3f0a25b5	0.53963786
4	0x3efc0ca5	0.49228397
5	0x3f0c522a	0.5481287
6	0x3f0c63c7	0.5483975
7	0x3ecb3fb2	0.39697033
8	0x3f0a8ec2	0.5412408
9	0x3f1c1453	0.6096851
10	0x3f14e12a	0.58156073
11	0x3eecf14b	0.46277842
12	0x3f124e8a	0.5715109
13	0x3f17f212	0.59353745
14	0x3f23398b	0.6375968
15	0x3f003acc	0.50089717
16	0x3ee18969	0.44050148
17	0x3f0461a9	0.5171152
18	0x3eeeefa9	0.4666722
19	0x3ecfd327	0.40590784
20	0x3f0d8ed5	0.5529607
21	0x3f0b4246	0.54398
22	0x3f00d446	0.50323904
23	0x3f0d5931	0.5521422
24	0x3f395e76	0.7240976
25	0x3f1a97b5	0.60387737
26	0x3f1e4067	0.6181702
27	0x3f095d9d	0.5365847
28	0x3f02804d	0.5097702
29	0x3f19d2f3	0.6008751
30	0x3f1682d8	0.587934
31	0x3f10e103	0.5659334
32	0x3f0b750f	0.5447549
33	0x3ebe8eb5	0.37218252
34	0x3f465541	0.7747384
35	0x3f1814ab	0.59406537
36	0x3f14ccd2	0.5812503
37	0x3f1e4580	0.618248
38	0x3f0f1830	0.5589628
39	0x3f5b0eb6	0.8556932
40	0x3f1af456	0.6052908
41	0x3f13efac	0.57787585
42	0x3f20dfd0	0.6284151
43	0x3f169557	0.58821625
44	0x3f383f94	0.7197201
45	0x3ef84372	0.48488957
46	0x3f4df5f0	0.80453396
47	0x3f191b39	0.59807163
48	0x3f0c1a41	0.5472756
49	0x3f259f97	0.6469664
50	0x3f02214d	0.5083206
51	0x3f27e60f	0.65585417
52	0x3eeeef6c	0.4666704
53	0x3f1d8f1b	0.61546487

motion_mlp.mlps.0.norm0.beta f4 [1, 54, 1]
0	0xbd123a12	-0.03569991
1	0x3b806b6e	0.0039190566
2	0x3c2b7c64	0.010466669
3	0x3c890609	0.01672651
4	0xbace8b3a	-0.0015758045
5	0xbb907d49	-0.0044094664
6	0x3abfefaa	0.0014643569
7	0xbc1d5583	-0.009602907
8	0xbb960884	-0.004578652
9	0xbbefb99e	-0.0073158285
10	0x3c518dc3	0.012790146
11	0x3c3d7024	0.011562381
12	0xba2a48ea	-0.00064958504
13	0x3c5b1e1a	0.013373876
14	0xbcbf6d9f	-0.023367701
15	0x3c84869f	0.016177474
16	0x3b4ae1f5	0.0030957435
17	0xbbcf951e	-0.006334915
18	0x3a5a5a7e	0.00083295244
19	0x3c33cc20	0.01097396
20	0x3d0279fc	0.031854615
21	0x3c161ec1	0.009162606
22	0x3c20f843	0.009824815
23	0xba215962	-0.00061549817
24	0xbcb66ff7	-0.022270186
25	0x3c6bd18c	0.014393222
26	0xbca24ed4	-0.019812979
27	0xbc36f65f	-0.011167138
28	0x3b8e081b	0.0043344623
29	0x3c0faad6	0.008768758
30	0xbb0edbb3	-0.0021798431
31	0x3c87590e	0.016521957
32	0xbc997a81	-0.018735172
33	0xbc6d769a	-0.014493609
34	0x3c9781cd	0.018494511
35	0xbbb6663d	-0.005566387
36	0xbbe4be66	-0.006980705
37	0x3cf12b97	0.02943973
38	0xbc5641eb	-0.0130772395
39	0x3bc82a55	0.006108562
40	0x3c833996	0.01601867
41	0xbd6de67d	-0.05808114
42	0xbcdcc3b4	-0.026948787
43	0x3bf0de6c	0.0073507335
44	0xbc8353e5	-0.016031215
45	0x3cc309b5	0.02380834
46	0xbc04e2a4	-0.008110676
47	0x3d432106	0.047638915
48	0x3ccad697	0.024760528
49	0x3b3c02ea	0.002868826
50	0x3b67ff2e	0.0035399902
51	0x3c60aac0	0.013712585
52	0xbbefb479	-0.007315215
53	0xbca5b3e0	-0.020227373

motion_mlp.mlps.1.fc0.fc.weight f4 [50, 50]
0	0xbb0cbe44	-0.0021475712
1	0xbbd2006b	-0.006408741
2	0x3a836a88	0.0010026256
3	0x3c3396c7	0.010961241
4	0x38d921eb	0.00010353684
5	0x3a8c1087	0.0010686078
6	0x3ae20ce0	0.0017246269
7	0x3b9d6666	0.0048034666
8	0x3ae1b75d	0.0017220784
9	0x3ac06030	0.0014677104
10	0x3b8f2ec5	0.004369589
11	0xb8ee2b70	-0.00011356815
12	0xb9b11676	-0.00033776806
13	0x3a366123	0.00069572235
14	0x3b36eb15	0.0027911116
15	0x3a8b1aaf	0.0010612811
16	0x3a8fd39a	0.0010973096
17	0xba1d85c7	-0.0006009009
18	0x3b11fcfe	0.002227604
19	0x3b1007c8	0.0021977294
20	0x3b2dc94c	0.0026517687
21	0xb9a00b39	-0.0003052594
22	0x3b0591c5	0.0020381075
23	0x3ba076c9	0.004896973
24	0x3aedc58a	0.0018140536
25	0x3b4f5b71	0.0031640197
26	0x3912a974	0.00013986771
27	0x3adbb7a4	0.0016763103
28	0x3b3f8c18	0.002922779
29	0xb848f860	-4.7915033e-05
30	0x3afa25de	0.0019084772
31	0x3ab4dff6	0.0013799656
32	0x3b18c7f9	0.0023312552
33	0xbb120877	-0.0022282877
34	0x3b3636e3	0.002780371
35	0x3b7ce3a6	0.0038587837
36	0x3a8d792d	0.001079356
37	0x3b43cf34	0.0029878141
38	0x3b039648	0.0020078588
39	0x3a7bc6a7	0.00096044916
40	0x3b27cb2b	0.0025603275
41	0xbb304c85	-0.0026901078
42	0x3b74c943	0.0037351407
43	0xb985c042	-0.0002551098
44	0x3a853961	0.0010164195
45	0x38d3c1f7	0.00010097393
46	0x3978fe7c	0.00023745926
47	0x3b6efeaa	0.003646771
48	0x39768e10	0.0002351331
49	0x3aeaec05	0.0017923123
50	0x3954dafb	0.00020299472
51	0xba61e22d	-0.00086167717
52	0x3b339712	0.0027403277
53	0xbbd2224e	-0.006412781
54	0x3c444136	0.011978438
55	0x3b8fd307	0.00438917
56	0xb807a6bb	-3.2341788e-05
57	0x3b80a3ba	0.0039257677
58	0x3b875fdf	0.004131302
59	0x3bab626e	0.0052302396
60	0x3bb1a079	0.005420741
61	0x3a7b8e0b	0.0009596056
62	0x3b36b7e5	0.0027880606
63	0x3bbeaf90	0.0058192685
64	0x3ba8c891	0.0051508625
65	0x3b81c773	0.003960544
66	0x3955d6aa	0.00020393232
67	0x3bc56ebf	0.006025165
68	0x3b14bb85	0.0022694778
69	0x3ae47222	0.0017429034
70	0x3b60c66c	0.0034297956
71	0x3b27d5fb	0.002560972
72	0x3b27f379	0.0025627299
73	0x3ba71823	0.005099313
74	0x3b581bc8	0.0032975543
75	0x3b2c7ac7	0.0026318298
76	0x3b242a2c	0.002504955
77	0x3b53de65	0.0032328602
78	0x3b6ddb8a	0.0036294186
79	0x3b786b9f	0.0037905944
80	0x3a54ecb5	0.00081224303
81	0x39820f8e	0.0002480712
82	0x3b28d7f0	0.0025763474
83	0x3b723c33	0.003696215
84	0x3b58fabf	0.003310844
85	0x3b49681c	0.003073222
86	0x3ab1caff	0.0013564526
87	0x3bd56447	0.006512198
88	0x3b4ceda5	0.0031269577
89	0xba1d332c	-0.00059967
90	0x3b074a08	0.0020643491
91	0x3c2fab4d	0.010721994
92	0x3b8d43b0	0.0043110475
93	0xb9cc7322	-0.00038995693
94	0x3aa83068	0.0012831809
95	0x3bace519	0.005276334
96	0x3bc6d3ef	0.006067745
97	0x3b91cbd9	0.0044493494
98	0xb9b568eb	-0.0003460118
99	0x3bf96723	0.007611172
100	0xbac3a8a6	-0.001492758
101	0x3a22d524	0.000621157
102	0x3bc7ba03	0.0060951724
103	0x394a546b	0.0001929567
104	0xbaeedb69	-0.0018223348
105	0xbc28012d	-0.010254187
106	0x3bb3c5e7	0.0054862383
107	0xbb388866	-0.0028157472
108	0xbb578ebe	-0.0032891477
109	0xbb96e3f7	-0.0046048122
110	0xbb84718c	-0.004041856
111	0x3b0be41b	0.0021345678
112	0xbc0d6195	-0.008629222
113	0x3a85b592	0.0010201207
114	0x3b9927c2	0.004673929
115	0xbbec2f73	-0.007207805
116	0xbb817654	-0.0039508734
117	0xba4acb30	-0.0007735966
118	0xbb8b94e5	-0.004259693
119	0xbaf55a76	-0.0018718976
120	0xbafced1d	-0.001929674
121	0xbbab1680	-0.005221188
122	0x3a5f4f1c	0.0008518563
123	0xbbdbde4d	-0.00670985
124	0xbb57dd21	-0.00329382
125	0xbbf25f53	-0.0073966174
126	0xba253930	-0.0006302772
127	0xb9a86fbc	-0.00032126706
128	0xbac5ad21	-0.0015081504
129	0xbc4d3af3	-0.012526262
130	0xba1e211e	-0.00060321565
131	0xbabb7321	-0.0014301279
132	0xbb25e794	-0.0025315033
133	0xba279fb2	-0.0006394341
134	0x3aca058b	0.0015413029
135	0xba7f188b	-0.0009731135
136	0xbce743e2	-0.028230611
137	0xbb3bd8de	-0.0028663198
138	0x3afb94aa	0.0019194086
139	0xbaa995c3	-0.0012938309
140	0xb9008e58	-0.00012260058
141	0xbb444ecd	-0.0029954195
142	0xbb84be1c	-0.004050983
143	0xb9a0479c	-0.0003057093
144	0xbb648c25	-0.0034873572
145	0x3a04b9d4	0.0005063091
146	0x399037bc	0.00027507346
147	0xbb2042d1	-0.0024453888
148	0x384d8a94	4.900487e-05
149	0x3bcdcffa	0.0062808963
150	0x3b0f8cc0	0.0021903962
151	0x3b9416d0	0.004519321
152	0xbb1d0bbd	-0.0023963295
153	0x3bcef71c	0.006316079
154	0x394aae07	0.00019329051
155	0xbc10437c	-0.008805152
156	0x3b85ee80	0.0040872693
157	0xbb81b10c	-0.003957873
158	0xbb40d3bc	-0.0029423079
159	0xba4651ec	-0.0007565308
160	0xbb0e5b01	-0.0021721723
161	0x3ab73834	0.0013978542
162	0xbc1def24	-0.009639535
163	0x39f6b6f0	0.00047057075
164	0x3a64ee7c	0.00087330467
165	0xbb9f645c	-0.0048642587
166	0xbaf1405f	-0.0018406025
167	0xba99b706	-0.0011727519
168	0xbb7d5969	-0.003865803
169	0xbad37248	-0.0016132081
170	0xba9b1ff0	-0.001183508
171	0xbae99f8d	-0.0017824039
172	0xbb24d197	-0.002514934
173	0xbb15548a	-0.0022785985
174	0xbb0fc149	-0.0021935275
175	0xbb0af428	-0.0021202657
176	0xbadd6746	-0.001689174
177	0xbb7b0d4f	-0.0038307493
178	0xba958358	-0.0011406941
179	0xbc4da993	-0.012552637
180	0xb934abf2	-0.00017230192
181	0x3a15ee59	0.00057194155
182	0xbb6d6197	-0.0036221498
183	0xba8472b5	-0.0010104986
184	0xbb597a95	-0.0033184637
185	0xbb8b7148	-0.0042554475
186	0xbccc0733	-0.024905777
187	0xbb6ee00c	-0.003644946
188	0xb9b6999a	-0.00034828187
189	0x3aaa38b3	0.0012986868
190	0xbb4c1ef9	-0.003114639
191	0x3a29f946	0.0006483983
192	0xbb77c307	-0.0037805454
193	0xb8d1f7ae	-0.000100120305
194	0x3a86729b	0.0010257544
195	0xb9cf0b45	-0.00039490513
196	0xbad3faec	-0.0016172803
197	0xbb88250d	-0.0041548074
198	0xba081b3b	-0.0005192046
199	0xb9747086	-0.00023311572
200	0xb83e4c1c	-4.5370412e-05
201	0x3a183b9b	0.0005807222
202	0x3b9c6614	0.004772911
203	0x3c27a493	0.010232109
204	0xb9cc68e8	-0.00038988073
205	0xbc6c91a5	-0.014439021
206	0x3c17b9bd	0.009260592
207	0xb9def7b6	-0.000425277
208	0xbb2718fc	-0.002549707
209	0x3b6b6b34	0.0035922052
210	0x3aa18496	0.0012322839
211	0xb90e3494	-0.00013561762
212	0xbc8457fc	-0.016155235
213	0x3b23ac4e	0.0024974528
214	0x3bea8854	0.007157365
215	0x38daeec9	0.00010439527
216	0x3a014aae	0.00049320876
217	0x3a3fd8e2	0.000731839
218	0xba9cee69	-0.0011972907
219	0x39bc2685	0.00035886854
220	0x3b934ac3	0.0044949963
221	0xba85e545	-0.0010215422
222	0xbb0b5ccd	-0.002126503
223	0xba503869	-0.0007942976
224	0x3b585b8c	0.003301355
225	0x3b126ff3	0.002234456
226	0x3ba148d3	0.0049220114
227	0x39cb811e	0.00038815377
228	0x3ab9dd77	0.0014180382
229	0xbca0bc6f	-0.019621102
230	0x3a83eaf1	0.0010064525
231	0x3ae99cd3	0.0017823227
232	0xbad07e18	-0.001590672
233	0x3b211276	0.0024577654
234	0xbae4781b	-0.0017430814
235	0xbb032437	-0.00200106
236	0xbd4375cd	-0.047719765
237	0x3a364bb6	0.0006954031
238	0x3ba005bd	0.0048834966
239	0x3b335379	0.0027362986
240	0x3bd64209	0.0065386337
241	0xba2e8d95	-0.00066586706
242	0xba7a1087	-0.0009539206
243	0x3bd16fa2	0.0063914815
244	0xb9a6bf6f	-0.00031804616
245	0x3b7c21a8	0.003847221
246	0xba9ad464	-0.0011812565
247	0x394f2677	0.00019755388
248	0x3b9e4199	0.004829597
249	0x3a7ad2cb	0.0009568154
250	0xbaad4c3b	-0.0013221571
251	0xbb757fd0	-0.0037460215
252	0x3b93327d	0.0044921027
253	0xbb352d4c	-0.0027645407
254	0x3b0d2570	0.0021537207
255	0x3c391484	0.011296395

motion_mlp.mlps.1.fc0.fc.bias f4 [50]
0	0xb6b9c04e	-5.535817e-06
1	0xb4bde6a8	-3.5371818e-07
2	0x376b4599	1.4023296e-05
3	0x36deaac0	6.6359935e-06
4	0xb632ff59	-2.6672699e-06
5	0x35aef874	1.303632e-06
6	0x363e9d2a	2.8403688e-06
7	0xb4c190b4	-3.6054337e-07
8	0x361478ec	2.2124104e-06
9	0xb53d17bf	-7.044254e-07
10	0x37122dc9	8.712938e-06
11	0x35abcee2	1.2800704e-06
12	0x361e5b71	2.359706e-06
13	0xb6ba43ce	-5.5511255e-06
14	0xb782dca7	-1.5599957e-05
15	0x358a6030	1.0309795e-06
16	0xb609431f	-2.045366e-06
17	0xb6049ca2	-1.9760705e-06
18	0xb7030fc8	-7.811883e-06
19	0xb4dab23c	-4.0735347e-07
20	0x365c1f6c	3.2800845e-06
21	0xb67ceb21	-3.768779e-06
22	0xb6427829	-2.8978195e-06
23	0xb3306159	-4.106673e-08
24	0x362c41bf	2.5668267e-06
25	0xb595c6ad	-1.1159187e-06
26	0xb6112dcc	-2.163334e-06
27	0xb73453a2	-1.0748308e-05
28	0xb663b35c	-3.3930037e-06
29	0x37032198	7.81603e-06
30	0x36014274	1.9261179e-06
31	0x367d0417	3.7702318e-06
32	0xb5fb4403	-1.8720751e-06
33	0x362615d2	2.4748629e-06
34	0xb572b34c	-9.0412937e-07
35	0x35454e78	7.3502406e-07
36	0xb5c0336f	-1.4320084e-06
37	0xb5b966aa	-1.3813453e-06
38	0xb63fade1	-2.8562429e-06
39	0x330368ab	3.059601e-08
40	0xb69d3981	-4.685659e-06
41	0x36662959	3.4296738e-06
42	0xb6344bf8	-2.686631e-06
43	0x3589ff51	1.0281602e-06
44	0xb4b2d812	-3.3312295e-07
45	0x3676dca2	3.6785282e-06
46	0x359b2909	1.1560343e-06
47	0xb693d672	-4.405906e-06
48	0x3647f446	2.9795497e-06
49	0xb77e1462	-1.51443255e-05

motion_mlp.mlps.1.norm0.alpha f4 [1, 54, 1]
0	0x3f21c013	0.63183707
1	0x3efeace6	0.49741286
2	0x3f2d2b92	0.6764461
3	0x3f293aaa	0.6610514
4	0x3eb27380	0.34853745
5	0x3ef842e9	0.48488548
6	0x3ef32d63	0.47495565
7	0x3e9c6385	0.30544677
8	0x3ec63ec8	0.38719773
9	0x3f3fcaf0	0.74919033
10	0x3f298e0a	0.6623236
11	0x3e93713d	0.2879733
12	0x3f1af87f	0.60535425
13	0x3ed29e89	0.41136578
14	0x3f1b9ac7	0.60783046
15	0x3f046b4f	0.5172624
16	0x3ef44989	0.47712353
17	0x3ec57548	0.3856604
18	0x3f059aa2	0.52189076
19	0x3e578551	0.2104695
20	0x3eb75858	0.35809588
21	0x3ef2e7d3	0.47442493
22	0x3ec32c37	0.3811967
23	0x3ec265e2	0.37968355
24	0x3f318d7c	0.69356513
25	0x3f1055b4	0.5638077
26	0x3f29676e	0.66173446
27	0x3eccca89	0.39998272
28	0x3eb03a49	0.34419468
29	0x3ed49290	0.41518068
30	0x3edf1c11	0.435761
31	0x3efbc584	0.4917413
32	0x3ededa39	0.43525866
33	0x3e4c43cd	0.19947739
34	0x3f31c85c	0.6944635
35	0x3f19f225	0.6013511
36	0x3ea6105d	0.3243436
37	0x3f260b17	0.6486067
38	0x3ed3d409	0.41372707
39	0x3f45533c	0.7708013
40	0x3ee24106	0.44190234
41	0x3ed03704	0.40666974
42	0x3eada382	0.3391381
43	0x3f09a4e7	0.53767246
44	0x3ef5fda2	0.4804507
45	0x3eaabd08	0.33347344
46	0x3f2f5e6b	0.68503445
47	0x3ed0e0c6	0.4079649
48	0x3f162566	0.58650815
49	0x3f1d2dc6	0.6139797
50	0x3ec88483	0.39163598
51	0x3f22fd9e	0.6366824
52	0x3f0e9710	0.55699253
53	0x3f1428b5	0.57874614

motion_mlp.mlps.1.norm0.beta f4 [1, 54, 1]
0	0xbd91adc3	-0.071132205
1	0xbccc0625	-0.024905274
2	0xbcf59bda	-0.029981542
3	0x3d10e53c	0.035374865
4	0x3ce8e7de	0.028430875
5	0xbd4945b7	-0.04913875
6	0xbcc76e62	-0.024344627
7	0xbcb28019	-0.021789597
8	0xbc432bd5	-0.011912306
9	0x3c5f4c9d	0.013629106
10	0x3ccce94f	0.025013594
11	0xba653982	-0.0008744226
12	0x3c90da98	0.017682359
13	0x3cbc9eca	0.023024935
14	0xbd31c2b1	-0.043398563
15	0xbbcb042e	-0.0061955666
16	0xbc89e655	-0.016833464
17	0xbd30b495	-0.043140966
18	0x3d2b09c3	0.041757356
19	0xbb32ac7b	-0.002726345
20	0x3d11c733	0.03559036
21	0x3d09e893	0.033669066
22	0x3ca6e936	0.020374876
23	0xbc50cc7a	-0.0127440635
24	0xbd1019ec	-0.03518097
25	0x3d7e0f40	0.062026262
26	0xbdbc9137	-0.09207385
27	0xbd0b3a7e	-0.03399133
28	0xb9bcaf95	-0.00035988973
29	0x3c7b54b4	0.015340019
30	0xbb78c160	-0.0037957057
31	0x3ca12081	0.01966882
32	0xbd66ff2e	-0.056395702
33	0xbc86387f	-0.016384361
34	0x3c8b7132	0.01702175
35	0xbc08d373	-0.008351195
36	0x3a96a332	0.0011492728
37	0x3d07fc70	0.033199728
38	0xb9cc7021	-0.00038993455
39	0x3baa14f8	0.005190488
40	0x3cb27bae	0.02178749
41	0xbd88bec3	-0.0667701
42	0xbc874b97	-0.016515536
43	0x3c6b33bd	0.014355597
44	0x3c2d4d09	0.010577449
45	0x3c75600f	0.014976515
46	0x3c7a4614	0.015275497
47	0x3d227f7f	0.03967237
48	0x3d51ed39	0.051251624
49	0x3d132b72	0.035930105
50	0x3b3771ce	0.0027991417
51	0x3ce4d7c6	0.02793492
52	0x3c9fe881	0.019520046
53	0xbd71cdc7	-0.059034135

motion_mlp.mlps.2.fc0.fc.weight f4 [50, 50]
0	0xbb05035d	-0.0020296194
1	0xbb62379b	-0.0034518007
2	0x3b3c064c	0.0028690277
3	0x3baf8180	0.005356014
4	0x3b1b5a14	0.0023704814
5	0xba51cd61	-0.0008003321
6	0x3b8a3e5c	0.0042188596
7	0x3b3844ba	0.0028117136
8	0x3b09c2df	0.0021020693
9	0x39abd836	0.0003277675
10	0x3b701205	0.0036631834
11	0x3b1453b8	0.0022632908
12	0x3ace8d51	0.0015758668
13	0x3a06231b	0.00051169255
14	0x3b626417	0.0034544521
15	0x3adcac84	0.0016836082
16	0x3acc4dc2	0.0015587138
17	0x3af96de6	0.0019029945
18	0x3b0cd6e4	0.002149039
19	0x3b1c58d9	0.0023856668
20	0x3b1c41ee	0.0023843008
21	0x3b96abee	0.0045981323
22	0x3b5bce56	0.0033539734
23	0x3b47b220	0.003047116
24	0x3b05040b	0.00202966
25	0x3b00add7	0.0019634867
26	0x3ae6178c	0.0017554625
27	0xbafb61d5	-0.0019178936
28	0x3b22046a	0.002472187
29	0x3ad50f5a	0.0016255185
30	0x3b065fd2	0.002050389
31	0x3b03b66e	0.002009775
32	0x3b04f093	0.0020284995
33	0x37e363b1	2.7106931e-05
34	0x3abf1f23	0.0014581423
35	0x3b08901f	0.0020837856
36	0x37b4d06a	2.1554722e-05
37	0x3a16aef7	0.00057481177
38	0x3b0154bd	0.0019734346
39	0x3afae01f	0.001914028
40	0x3a5fa742	0.0008531698
41	0xbacfe4aa	-0.0015860994
42	0x3b6e49a9	0.0036359823
43	0x3aee6977	0.001818939
44	0x3b2941a3	0.0025826476
45	0x3a875694	0.0010325485
46	0x3ac00439	0.0014649696
47	0x3b3d0b6e	0.0028845924
48	0x3b00039c	0.0019533401
49	0x3b2fd1c8	0.002682792
50	0x397740e9	0.00023579937
51	0xb8aac108	-8.1421866e-05
52	0x3b2ed2a8	0.0026675854
53	0xbbb4d3ad	-0.005518398
54	0x3bf5442b	0.007484933
55	0x3b85e352	0.0040859366
56	0x3ba5d34c	0.005060589
57	0x3a8a115c	0.0010533738
58	0x3b7ebb7b	0.0038869071
59	0x3b9909a7	0.00467034
60	0x3b9f4266	0.00486021
61	0xb91f74de	-0.00015206958
62	0x3b08cb82	0.0020873253
63	0x3b88371b	0.0041569597
64	0x3ad24b78	0.001604422
65	0xba2463ca	-0.0006270973
66	0x3aac0b94	0.0013126009
67	0x3a3b0e45	0.000713561
68	0x3a2eeb19	0.00066726055
69	0x3a0515bc	0.0005076786
70	0x3aee614c	0.0018186956
71	0x3b0de05c	0.0021648621
72	0x3c24a0eb	0.010048131
73	0x3b0cf347	0.002150731
74	0x3b099ffa	0.0020999894
75	0x3a8f5c0f	0.001093747
76	0x3b273f44	0.0025519887
77	0x3bbcb709	0.005759124
78	0x3b84bd74	0.004050905
79	0x3ae68d59	0.0017589732
80	0x3abeaa1e	0.0014546548
81	0x3953ea27	0.00020209757
82	0x3a57b564	0.00082286284
83	0x3b41af2f	0.002955388
84	0x3b56193e	0.0032668854
85	0x39b5c319	0.0003466837
86	0xbb2e078d	-0.0026554794
87	0x3ba117eb	0.0049161813
88	0x3b6e8aae	0.0036398578
89	0x3a0af98b	0.0005301467
90	0x3b7115f8	0.0036786776
91	0x3bee7d59	0.007278126
92	0x3baa1c91	0.0051913937
93	0x3983e3c7	0.00025155974
94	0x3a74052e	0.0009308633
95	0x3b89a938	0.0042010807
96	0x3b5db7da	0.0033831508
97	0x3b6c3b78	0.0036046188
98	0x38d92860	0.00010354887
99	0x3b54515a	0.0032397122
100	0xba92d9d6	-0.0011203836
101	0xb9ab6793	-0.0003269283
102	0x3b1d74f5	0.002402601
103	0x3b607587	0.003424974
104	0x3b37b9ed	0.0028034404
105	0xbbcc3f1a	-0.006233108
106	0xbb451a12	-0.0030075354
107	0xb9d518bd	-0.00040644957
108	0xbbb75775	-0.0055951425
109	0xbbfe5c41	-0.0077624624
110	0xbb193977	-0.00233802
111	0x3b2c2a18	0.0026270207
112	0xbba050d6	-0.004892449
113	0xbbd151e3	-0.0063879355
114	0x3b319282	0.0027095382
115	0xba25bf34	-0.0006322742
116	0x395ab732	0.00020858346
117	0xbba959cf	-0.0051681767
118	0x3a3ba943	0.0007158706
119	0xba2f6590	-0.0006690854
120	0x397ab5e1	0.00023909613
121	0xbbdf397a	-0.0068122717
122	0x3b451d95	0.0030077447
123	0xbb833d01	-0.004005075
124	0xbae1f33d	-0.0017238628
125	0xbb839d02	-0.0040165195
126	0xbb8f57b7	-0.00437447
127	0xbbc985d6	-0.0061499877
128	0xbae24ed5	-0.0017265925
129	0xbbc8ac37	-0.0061240452
130	0x3af795e5	0.0018889277
131	0x3a80478c	0.0009786948
132	0x39c4f6f2	0.00037568022
133	0xbc0221be	-0.007942615
134	0xbae36fea	-0.0017352079
135	0x3ab101d7	0.0013504577
136	0xbb4b229d	-0.0030995973
137	0xbbc3fa0a	-0.0059807347
138	0xbb3184f6	-0.0027087308
139	0x3a52c130	0.00080396514
140	0xbb42e1ff	-0.0029736755
141	0xbb9232fe	-0.004461645
142	0xbb6bd13c	-0.0035982868
143	0x3aee3c63	0.0018175956
144	0xbab0434f	-0.0013447794
145	0xbbe72896	-0.007054399
146	0xbbb2f0e8	-0.005460847
147	0xbb672b06	-0.0035273447
148	0x3b0ef095	0.0021810879
149	0x3aefc6cc	0.0018293499
150	0x3b0ca551	0.002146084
151	0x3b0e6345	0.002172665
152	0xba89b6f4	-0.0010506795
153	0x3b7c61cc	0.003851044
154	0x3c141656	0.009038528
155	0xbb19cb59	-0.0023467152
156	0x3b275da4	0.0025537992
157	0xba524ec8	-0.00080226036
158	0x3b1fe107	0.0024395601
159	0x3aa41e4b	0.0012521235
160	0x3b029198	0.0019923206
161	0xbae4f502	-0.0017468038
162	0xbb9263af	-0.0044674496
163	0xb902c563	-0.00012471298
164	0x3a18d2ee	0.0005829771
165	0xbb0e834c	-0.002174574
166	0xbad3a5b7	-0.0016147409
167	0x396967bd	0.00022259257
168	0xba78f4ae	-0.00094969093
169	0xba93938d	-0.0011259184
170	0xba27ef92	-0.0006406243
171	0xbaca5dcd	-0.0015439332
172	0x3b1d12b8	0.0023967456
173	0x39c30eb5	0.00037204256
174	0xbacadce3	-0.0015477206
175	0xba89266a	-0.0010463719
176	0xba8335b7	-0.0010010515
177	0xbbc07e73	-0.005874449
178	0x3b6cfa9e	0.0036160122
179	0xbbb181e0	-0.0054170936
180	0xbb1e6178	-0.0024166983
181	0xbb2c261d	-0.0026267834
182	0xbaa38c82	-0.0012477788
183	0xba5557d9	-0.00081383955
184	0xbb0b5925	-0.002126285
185	0xbb09109f	-0.0020914448
186	0xbc0b8c03	-0.008517268
187	0xba9094c9	-0.001103067
188	0x3a7cbbf8	0.00096410466
189	0xbb40f187	-0.0029440837
190	0xbae15332	-0.0017190932
191	0x3aea5402	0.001787782
192	0x3ab9b94a	0.00141696
193	0xbb3766d3	-0.0027984872
194	0xba44cc62	-0.0007507262
195	0xba2256b4	-0.00061927293
196	0x3b0d0168	0.002151573
197	0xbaa61510	-0.0012671072
198	0xbb2efa2f	-0.0026699414
199	0x3ab176ed	0.0013539471
200	0xbb1a4be1	-0.0023543763
201	0xbb128cda	-0.0022361786
202	0x3c1790bf	0.009250819
203	0x3b3685da	0.0027850778
204	0x3b3704bb	0.0027926404
205	0xbbac95de	-0.005266889
206	0x3c2e3aa3	0.010634097
207	0x3b7b71d0	0.0038367398
208	0xbade6eb2	-0.0016970246
209	0xbaec7db4	-0.0018042834
210	0x3b688bf2	0.0035483805
211	0x3bf99332	0.007616424
212	0xbb7a62da	-0.0038205893
213	0x3aeda379	0.0018130384
214	0x3bdcf6b1	0.006743275
215	0x3b2ff6a1	0.0026849883
216	0x3a88fd35	0.0010451438
217	0xb7f9d190	-2.9780698e-05
218	0x3b57732c	0.0032875044
219	0x3ab9c40a	0.0014172804
220	0x3b81b37a	0.003958163
221	0x3a5e9206	0.0008490387
222	0x3b9762f7	0.004619952
223	0x3a254e51	0.00063059205
224	0x3a7b7b16	0.00095932314
225	0xbac51e63	-0.0015038963
226	0x3b778752	0.0037769866
227	0x3a49db48	0.0007700217
228	0x3b0e2dae	0.0021694708
229	0xbbc272da	-0.0059341015
230	0x3b955fcd	0.0045585395
231	0x3b29f3f3	0.0025932759
232	0x3b5fbd73	0.003414002
233	0x3821cad7	3.85743e-05
234	0x3bc20e2e	0.0059221005
235	0x3b6552bb	0.0034991938
236	0xbc01ffc2	-0.007934513
237	0x3a68e32e	0.000888395
238	0x3b90ac1b	0.004415048
239	0x3b941a76	0.004519756
240	0x3ba8d337	0.005152132
241	0x3af435fa	0.0018631809
242	0x3b90ac7e	0.004415094
243	0x3bea785c	0.0071554612
244	0x3ad4db38	0.0016239649
245	0x3a951d3a	0.0011376508
246	0xba8911a2	-0.0010457525
247	0x3b9cf4f2	0.004789942
248	0x3bf4e0f5	0.007473106
249	0x3b98e5c0	0.00466606
250	0xbabe9f3d	-0.0014543306
251	0xbb006cc2	-0.0019596075
252	0x3b5f4dd0	0.003407348
253	0xbb3564c9	-0.002767848
254	0xbbd39603	-0.006457092
255	0x3b2ec3a9	0.0026666916

motion_mlp.mlps.2.fc0.fc.bias f4 [50]
0	0xb6d8d690	-6.46228e-06
1	0x35790d9e	9.2779544e-07
2	0x33f419d3	1.1366833e-07
3	0xb6106ae4	-2.151989e-06
4	0x35a47f64	1.2256028e-06
5	0x35495026	7.4994966e-07
6	0xb5b754b6	-1.3659217e-06
7	0x36131f6b	2.1922995e-06
8	0x336256c8	5.2698653e-08
9	0xb48ad877	-2.5862002e-07
10	0x3681e6cb	3.8713674e-06
11	0xb532b579	-6.6574245e-07
12	0xb62e0089	-2.5928332e-06
13	0x360ed6d7	2.1284702e-06
14	0x354c8922	7.6195477e-07
15	0x355a3c8d	8.129944e-07
16	0xb6205309	-2.389019e-06
17	0xb5481e85	-7.455022e-07
18	0xb4140b22	-1.3787624e-07
19	0x35021e58	4.847293e-07
20	0x34588929	2.0166466e-07
21	0x35a7d4dd	1.2504421e-06
22	0xb5ad0612	-1.2891271e-06
23	0x35cb3000	1.5138648e-06
24	0x351add5c	5.769159e-07
25	0xb5d091d4	-1.5539649e-06
26	0xb6063197	-1.999642e-06
27	0x353f3faa	7.124569e-07
28	0xb616f3f4	-2.2493741e-06
29	0x364a00f5	3.0100903e-06
30	0xb41669ce	-1.400833e-07
31	0xb60ec32a	-2.127325e-06
32	0x354da4e5	7.6608404e-07
33	0xb6664e45	-3.431823e-06
34	0xb5769838	-9.186365e-07
35	0xb5ae7e46	-1.3000761e-06
36	0x368f6b63	4.2742336e-06
37	0x35aa032d	1.2666911e-06
38	0x352d7c35	6.462827e-07
39	0x35fc6158	1.8803794e-06
40	0x35afafaf	1.3089647e-06
41	0x35bcb907	1.4060942e-06
42	0xb449c25e	-1.8790294e-07
43	0xb585ef77	-9.978966e-07
44	0xb54972e2	-7.504551e-07
45	0x353e258b	7.083515e-07
46	0xb51812fa	-5.6652027e-07
47	0x3500aeb5	4.793795e-07
48	0x35853c4a	9.926819e-07
49	0x362223f9	2.416082e-06

motion_mlp.mlps.2.norm0.alpha f4 [1, 54, 1]
0	0x3f44f441	0.769352
1	0x3f0f52c0	0.5598564
2	0x3f3713be	0.715145
3	0x3f4876c5	0.7830623
4	0x3e971794	0.29510176
5	0x3f1118ce	0.56678474
6	0x3f0abe6f	0.5419683
7	0x3e932e77	0.28746387
8	0x3eaf2640	0.3420887
9	0x3f3990b8	0.7248645
10	0x3f42356d	0.7586277
11	0x3e78e4ab	0.2430598
12	0x3f1f977e	0.62340534
13	0x3ea6970f	0.32537124
14	0x3f0aea3f	0.5426368
15	0x3f287068	0.6579652
16	0x3f17b520	0.5926075
17	0x3eb063c1	0.34451106
18	0x3f2ce186	0.6753162
19	0x3e12a9ae	0.1432254
20	0x3e8e240a	0.2776187
21	0x3eec2844	0.4612447
22	0x3ea3174f	0.3185372
23	0x3e7e5e24	0.248406
24	0x3f3e1b52	0.7426044
25	0x3f203d81	0.6259385
26	0x3f4afdfb	0.79293793
27	0x3eee518f	0.465466
28	0x3e8abf38	0.27099013
29	0x3eb0372e	0.344171
30	0x3ec597f2	0.38592488
31	0x3eca6762	0.39532
32	0x3ece8312	0.40334374
33	0x3e23f162	0.16010049
34	0x3f294a3d	0.66128904
35	0x3f2466ad	0.6421917
36	0x3e748d2e	0.23881981
37	0x3f43d6ba	0.7649952
38	0x3e9f1ac1	0.310751
39	0x3f3286cd	0.6973694
40	0x3edf2ba4	0.43587983
41	0x3ead2331	0.3381591
42	0x3e8eed9c	0.27915657
43	0x3ee0259f	0.43778703
44	0x3ea9b139	0.33143023
45	0x3e9078ef	0.28217265
46	0x3f0ef15e	0.5583705
47	0x3eaa4f22	0.332635
48	0x3f36219c	0.71145034
49	0x3f0853a3	0.5325262
50	0x3eb6621b	0.35621724
51	0x3f20b48f	0.6277551
52	0x3f313663	0.6922361
53	0x3f3d4628	0.73935175

motion_mlp.mlps.2.norm0.beta f4 [1, 54, 1]
0	0xbd1c03dc	-0.038089618
1	0xbc8eddaf	-0.017439691
2	0xbcc70961	-0.024296464
3	0x3cb5acce	0.022177126
4	0x3c7b5909	0.015341052
5	0xbd17b3b3	-0.03703661
6	0xbc091414	-0.008366603
7	0xbb8482ee	-0.0040439283
8	0xbc0d9d18	-0.008643411
9	0x3b092603	0.0020927198
10	0x3bda6de9	0.0066659343
11	0x3b0268b1	0.0019898827
12	0xbc51ab29	-0.012797155
13	0x3ca273ee	0.01983067
14	0xbcec880a	-0.028873462
15	0x3bca0da3	0.0061661764
16	0xbbcee40f	-0.006313808
17	0xba7ba7fd	-0.00095999223
18	0x3cbd3340	0.023095727
19	0xbb5d468c	-0.0033763973
20	0xba50f7b9	-0.0007971484
21	0x3c66a1a2	0.014076622
22	0x3cad7ec0	0.021178603
23	0xbc5ef6ad	-0.013608617
24	0xbcf1e113	-0.029526269
25	0x3d00bf0d	0.0314322
26	0xbd4de097	-0.050263014
27	0xbc63da0e	-0.013906969
28	0xbb56e162	-0.0032788147
29	0xbbc5634d	-0.0060238005
30	0xbcbcf4f6	-0.023066025
31	0x3c632e10	0.013865963
32	0xbbb4a449	-0.0055127484
33	0x3bc1f4de	0.005919083
34	0x3c159f67	0.009132243
35	0xbb7d6700	-0.003866613
36	0x3b32a9c3	0.002726183
37	0x3ccf771e	0.025325354
38	0xbcd4d3ca	-0.025979895
39	0x3c5bae7a	0.013408298
40	0xbc0b8851	-0.008516387
41	0xbc426405	-0.011864667
42	0xbc4b9aae	-0.012427015
43	0x3ca73641	0.020411612
44	0x3bf6b82b	0.0075292788
45	0x3bbd138f	0.005770154
46	0x3acf8fcc	0.0015835701
47	0xbc00fc66	-0.0078726765
48	0x3d13848c	0.03601508
49	0x3d030a81	0.03199244
50	0x3c10abf2	0.008830057
51	0x3cb251d4	0.021767534
52	0x3c1665bf	0.009179532
53	0xbd001f20	-0.031279683

motion_mlp.mlps.3.fc0.fc.weight f4 [50, 50]
0	0xbb143af1	-0.002261814
1	0xbb263c8f	-0.0025365686
2	0x3b2110fe	0.0024576779
3	0xb99647d2	-0.0002866374
4	0x3aa8d806	0.0012881763
5	0x39430392	0.00018597979
6	0x3ab148aa	0.0013525684
7	0x3b0cb1c7	0.0021468268
8	0x3a8e1007	0.0010838517
9	0x39f43ad8	0.0004658315
10	0x3b0b814e	0.0021286788
11	0x3ae93d67	0.0017794789
12	0x3ac005a9	0.0014650124
13	0x3a85af9d	0.0010199432
14	0x3b275145	0.0025530618
15	0x3ae34b81	0.0017341228
16	0x3ac30518	0.0014878837
17	0x3a8bd8a6	0.0010669425
18	0x3af56fc9	0.0018725331
19	0x3ad4800e	0.001621248
20	0x3b0b7b67	0.002128327
21	0x3af28f01	0.0018505753
22	0x3b1074bf	0.0022042242
23	0x3ae151fc	0.0017190571
24	0x3ac96c8a	0.001536743
25	0x3aa7b03a	0.0012793608
26	0x3ad94cbe	0.0016578657
27	0x3a2f9471	0.00066978397
28	0x3ac591ab	0.001507332
29	0x3ad23aad	0.0016039215
30	0x3b16338c	0.0022918908
31	0x3b01af14	0.0019788193
32	0x3b00b69c	0.0019640094
33	0x3a3e78d5	0.000726593
34	0x3adbadd2	0.0016760177
35	0x3afb062c	0.001915162
36	0x3ada75a8	0.0016667144
37	0x3ab5f596	0.0013882394
38	0x3ae2f24a	0.0017314639
39	0x3b111237	0.00221361
40	0x3ac397c6	0.0014922551
41	0x3a216405	0.00061565667
42	0x3b030339	0.0019990935
43	0x3b057f6d	0.002037014
44	0x3aeb47f1	0.0017950517
45	0x3aaf443e	0.0013371778
46	0x3a476209	0.0007605856
47	0x3acf190d	0.0015800312
48	0x3af1496a	0.001840872
49	0x3b06e628	0.002058396
50	0x3a0f2ff6	0.0005462164
51	0xba80453a	-0.0009786256
52	0x3b2c64bc	0.002630516
53	0xbb68a37f	-0.0035497842
54	0x3b8ee011	0.004360207
55	0x3ba91b3a	0.0051607164
56	0x3b860b75	0.0040907213
57	0x3ad0ed8c	0.0015939935
58	0x3b2f8c70	0.0026786588
59	0x3b3ebc5c	0.002910397
60	0x3b96e2fe	0.0046046963
61	0x3b2662bf	0.0025388447
62	0x3b28251b	0.0025656882
63	0x3b3c0148	0.0028687287
64	0x3b22e4e6	0.0024855672
65	0x3a85a957	0.0010197562
66	0x3b0d5040	0.0021562725
67	0x3b01503d	0.0019731664
68	0x3ae811a3	0.0017705451
69	0x3acae068	0.0015478255
70	0x3b05f424	0.0020439709
71	0x3b674d78	0.0035293978
72	0x3bab6557	0.0052305865
73	0x3aa98706	0.0012933917
74	0x3af027e5	0.0018322436
75	0x3af862db	0.001895036
76	0x3b2d3263	0.0026427738
77	0x3b5c85ed	0.0033649162
78	0x3b6661a8	0.0035153423
79	0x3b42e199	0.0029736517
80	0x3b249c11	0.0025117437
81	0x3acb3e3f	0.0015506222
82	0x3b0a8d5a	0.002114138
83	0x3b46370c	0.0030245213
84	0x3afcd4ad	0.0019289457
85	0x3b085d0b	0.002080741
86	0x3a6cee8a	0.00090382306
87	0x3b466099	0.003026998
88	0x3b213e83	0.002460391
89	0x3b3a7769	0.0028452522
90	0x3b2dd1ec	0.0026522828
91	0x3b8a5e00	0.0042226315
92	0x3b5f7a65	0.0034100052
93	0x3b2c0ed5	0.0026253958
94	0x3b11edc4	0.0022266963
95	0x3b12d6d2	0.0022405875
96	0x3b22313c	0.0024748584
97	0x3b46119b	0.0030222896
98	0x3b435700	0.0029806495
99	0x3b2eaada	0.0026652128
100	0xba4186f2	-0.0007382474
101	0x39f79a8d	0.0004722666
102	0xbb143797	-0.0022616142
103	0x3b9365e5	0.0044982308
104	0x3b2a5b85	0.0025994491
105	0xbbb976c6	-0.005659911
106	0x3a26d2a1	0.00063637836
107	0xbb0da252	-0.0021611643
108	0xba649e75	-0.00087211217
109	0xbb5dcadf	-0.0033842844
110	0xbabc6579	-0.0014373503
111	0xbb51eee4	-0.003203326
112	0xbbd203ae	-0.00640913
113	0xbb1b01a0	-0.0023652092
114	0x3b58672d	0.0033020482
115	0xba671b6c	-0.0008816037
116	0xbade25ee	-0.001694856
117	0xbb17851b	-0.0023120109
118	0xba0ee968	-0.00054516504
119	0xba62b8da	-0.0008648761
120	0xba895562	-0.0010477717
121	0xbbf2936a	-0.007402827
122	0x3af3e9e9	0.0018609139
123	0xba9a2630	-0.0011760648
124	0xbabb3601	-0.0014283062
125	0xbae906b7	-0.001777849
126	0xbb22a1cd	-0.002481568
127	0xbc0feef5	-0.008784999
128	0x3b38c9ac	0.0028196378
129	0xbbe2b6d1	-0.006918766
130	0xbaf6f385	-0.0018840885
131	0xbae1423a	-0.0017185875
132	0xba8bd4fe	-0.0010668335
133	0xbb2f0d94	-0.0026710974
134	0xbb3f6e61	-0.0029210078
135	0xbaf0b093	-0.001836317
136	0xbbb252fd	-0.005442022
137	0xbb99a16e	-0.0046884334
138	0xba496201	-0.0007682145
139	0xbb55942b	-0.0032589536
140	0xba9a3bee	-0.0011767128
141	0xbb331efe	-0.0027331705
142	0x3aa9e712	0.0012962541
143	0xbb4f9cab	-0.0031679075
144	0xbb043006	-0.0020170226
145	0xbb42488f	-0.00296453
146	0xba38eb1e	-0.0007054078
147	0xbb49f81f	-0.0030818058
148	0xbb2daba9	-0.0026500023
149	0xb99cfab8	-0.0002994144
150	0x3b0fd70e	0.002194825
151	0x3b1af385	0.0023643684
152	0xba977b00	-0.0011557043
153	0x39b37a52	0.00034232676
154	0x3b4b3e40	0.0031012446
155	0x3a30efa1	0.00067495747
156	0xb92ddcae	-0.00016580775
157	0xbb065556	-0.0020497642
158	0x3a09c7d8	0.00052559143
159	0x39510736	0.0001993448
160	0x3aa6dc55	0.0012730459
161	0xbaf0d850	-0.0018375013
162	0xbb1440f8	-0.0022621732
163	0xba13aa77	-0.0005633006
164	0xba7da573	-0.0009675838
165	0xbb414586	-0.0029490902
166	0xbb2b9233	-0.002617967
167	0xb916ccb1	-0.00014381368
168	0xbb20edbd	-0.0024555766
169	0xbb2ac5b3	-0.002605778
170	0xbb085e49	-0.0020808151
171	0xba9d3147	-0.0011992835
172	0x3a8d8ce9	0.0010799441
173	0xbb1a5437	-0.002354873
174	0xbb3e353e	-0.0029023434
175	0xbb1cf9b1	-0.0023952539
176	0xba0b70a4	-0.0005319214
177	0xba6aab76	-0.0008951941
178	0xb833841e	-4.279997e-05
179	0xbb2bbb80	-0.0026204288
180	0xbb04473d	-0.0020184063
181	0xbb263f6d	-0.0025367395
182	0xbb122dca	-0.0022305124
183	0xba3aff07	-0.0007133339
184	0x39bf1497	0.000364457
185	0xbb3a6728	-0.0028442834
186	0xbb6e69ad	-0.0036378906
187	0x396cbabf	0.00022576282
188	0xb9e0a35e	-0.00042846327
189	0xbb12c33a	-0.0022394196
190	0xbaa8d4fc	-0.0012880857
191	0x3a75da97	0.0009378581
192	0xb9ea8ff4	-0.0004473921
193	0xbb0422f0	-0.0020162426
194	0xbb0dd7d2	-0.0021643532
195	0xb9b36eda	-0.0003422413
196	0x39282373	0.00016034934
197	0xb90bd6be	-0.0001333607
198	0xbb1e3c48	-0.0024144817
199	0xbacb6b60	-0.0015519671
200	0xbb0fa8c0	-0.0021920651
201	0xbadb6d46	-0.001674094
202	0x3b5f7469	0.0034096485
203	0xba1679f6	-0.00057402195
204	0x3b7452a6	0.0037280708
205	0xba0b796e	-0.00053205236
206	0x3b8763b0	0.0041317567
207	0x3b07b5d4	0.0020707743
208	0xb892b213	-6.9949914e-05
209	0x39580d2c	0.00020604272
210	0x3b0d1e7e	0.0021533067
211	0x3b8ef206	0.0043623475
212	0x3a540ec7	0.000808936
213	0x3b02cda9	0.0019959009
214	0x3b67cc8d	0.0035369725
215	0x3ae1f4d8	0.0017239107
216	0x3b8a83c5	0.004227134
217	0x3a54b87f	0.000811465
218	0x3b0e3790	0.0021700598
219	0x3b3eb886	0.0029101684
220	0x3b1856b6	0.0023245043
221	0x3aae1392	0.0013280979
222	0x3a8445dd	0.0010091622
223	0x3b336ec8	0.0027379263
224	0x3b447796	0.0029978505
225	0x3a5b6bfb	0.00083702774
226	0x3a73bab7	0.0009297537
227	0xb994bd0f	-0.0002836962
228	0x3aea2f0c	0.0017866804
229	0x3944b3cc	0.00018758996
230	0x3b63b322	0.0034744223
231	0x3b64ef7c	0.0034932783
232	0x3b1e7880	0.002418071
233	0x3a6b4ca2	0.0008975958
234	0x3af7226a	0.0018854861
235	0x3b0570a6	0.0020361333
236	0xb9ba0198	-0.00035477872
237	0x3a43e562	0.00074728404
238	0x3aa39764	0.0012481031
239	0x3b5c9b86	0.0033662035
240	0x3b0dbca9	0.0021627343
241	0x3ac3e4b3	0.0014945477
242	0x3a990c8a	0.001167671
243	0x3b742d3b	0.0037258405
244	0x3b25f5f7	0.0025323608
245	0x3a9ec2b6	0.0012112472
246	0x3a57f105	0.0008237514
247	0x3b0c7b7b	0.0021435905
248	0x3b74911e	0.0037317942
249	0x3af7d3a8	0.0018907683
250	0xbaded04a	-0.0016999331
251	0xbb0cc3ea	-0.0021479079
252	0x3b20bba8	0.0024525914
253	0xbac97ac7	-0.0015371674
254	0xbb001775	-0.0019545231
255	0x3ae3e579	0.0017387114

motion_mlp.mlps.3.fc0.fc.bias f4 [50]
0	0xb420129e	-1.4907934e-07
1	0x360c2b3d	2.0886794e-06
2	0x35c1008b	1.4379779e-06
3	0x348cd02e	2.6228503e-07
4	0xb5fc455e	-1.8795652e-06
5	0x34f505c9	4.5639015e-07
6	0x362b1300	2.5492045e-06
7	0xb35ca501	-5.1372812e-08
8	0xb515e244	-5.5836085e-07
9	0xb513ffe9	-5.5134166e-07
10	0x358219f8	9.693313e-07
11	0xb52dc5b1	-6.47352e-07
12	0x363bc11a	2.7977571e-06
13	0xb558803e	-8.065289e-07
14	0x36480b62	2.9808948e-06
15	0x350a331b	5.1483374e-07
16	0x34a64096	3.0966902e-07
17	0x35ad057c	1.2891101e-06
18	0x35441f18	7.306094e-07
19	0x341650ec	1.3999278e-07
20	0x35ff5705	1.9024307e-06
21	0x35c061a0	1.4333527e-06
22	0xb398e3de	-7.1195004e-08
23	0xb51c7583	-5.828553e-07
24	0xb3d5fa37	-9.964099e-08
25	0x32d0187a	2.4225518e-08
26	0x3592fa80	1.0950753e-06
27	0x353d1593	7.043938e-07
28	0x35170556	5.625965e-07
29	0xb570ac91	-8.9658084e-07
30	0xb515732f	-5.567444e-07
31	0x35366efa	6.7961776e-07
32	0x3571be00	9.005598e-07
33	0xb486c910	-2.5105737e-07
34	0x34f29392	4.5183384e-07
35	0x341b3a1d	1.4456641e-07
36	0xb5fe4c3f	-1.8946665e-06
37	0x34e31f05	4.2304615e-07
38	0xb5430059	-7.2643667e-07
39	0x351682a3	5.6069456e-07
40	0x35b1ea1a	1.325566e-06
41	0xb6455dd7	-2.940991e-06
42	0x34dd6d8c	4.1244164e-07
43	0xb559e775	-8.1175614e-07
44	0x34b651ea	3.3959742e-07
45	0xb4fd13d9	-4.7139363e-07
46	0x3561658b	8.3966796e-07
47	0xb584f7e2	-9.90691e-07
48	0xb59f75c5	-1.1880699e-06
49	0x348358f7	2.4465382e-07

motion_mlp.mlps.3.norm0.alpha f4 [1, 54, 1]
0	0x3ef05bae	0.46944946
1	0x3ee3397d	0.44379798
2	0x3f0ba39a	0.5454651
3	0x3f173efb	0.59080476
4	0x3e5363c7	0.20643531
5	0x3f05ff2e	0.523425
6	0x3ed01588	0.40641427
7	0x3e32553f	0.17415331
8	0x3e63ec91	0.22258212
9	0x3f2ab33d	0.66679746
10	0x3f2438a5	0.6414893
11	0x3e1cb2e3	0.15302615
12	0x3f14e6f7	0.58164924
13	0x3e880dcb	0.26573023
14	0x3ee023c7	0.43777296
15	0x3f0a1633	0.53940123
16	0x3edc29d2	0.43000656
17	0x3e761bba	0.24034014
18	0x3f01a858	0.506475
19	0x3d9b5500	0.07584572
20	0x3e20c400	0.15699768
21	0x3ec11560	0.3771162
22	0x3e69c281	0.22828104
23	0x3e07f3ab	0.13276546
24	0x3f20e923	0.6285574
25	0x3ef12a60	0.47102642
26	0x3f089220	0.5334797
27	0x3ecf1362	0.40444475
28	0x3e1b9393	0.15193014
29	0x3e27f58a	0.1640226
30	0x3e9771d4	0.2957903
31	0x3e6cb905	0.23117454
32	0x3e3501c0	0.17676449
33	0x3dd6d479	0.10489745
34	0x3f12deb5	0.57371074
35	0x3f1c7efc	0.6113126
36	0x3de14112	0.10998739
37	0x3f123d8b	0.5712516
38	0x3e83d434	0.25747836
39	0x3f3367d5	0.7008031
40	0x3e90bf4a	0.28270942
41	0x3e507fdd	0.20361276
42	0x3dbfa45c	0.09357521
43	0x3ecf80f3	0.40528068
44	0x3e3a1341	0.18171407
45	0x3e146fed	0.14495821
46	0x3ef4d32c	0.4781736
47	0x3e4373ad	0.19087096
48	0x3eda7a70	0.42671537
49	0x3ed7095c	0.41999328
50	0x3e8996f8	0.26872993
51	0x3ef62a55	0.48079172
52	0x3f0fefc4	0.5622523
53	0x3ee93a41	0.45552257

motion_mlp.mlps.3.norm0.beta f4 [1, 54, 1]
0	0xbc42b400	-0.011883736
1	0x3c0107f8	0.007875435
2	0xbcba2049	-0.022720473
3	0x3cad285a	0.021137405
4	0xbb6962a3	-0.003561177
5	0xbc12ae34	-0.008952666
6	0x3b5d2412	0.0033743423
7	0x3b388e27	0.0028160901
8	0xba49326d	-0.00076750555
9	0x3c883ebe	0.01663148
10	0xb86c3811	-5.6319e-05
11	0xbb9773ac	-0.0046219435
12	0xbd6296d1	-0.05531961
13	0x3c6b1892	0.01434912
14	0xbc149914	-0.0090697
15	0xbb6d3b40	-0.0036198646
16	0xbb322140	-0.0027180463
17	0x3c8e68c4	0.01738394
18	0xbcc21271	-0.023690434
19	0xbbdfae5a	-0.0068262042
20	0xbc875b0f	-0.016522912
21	0xbc188fdb	-0.009311642
22	0xbb7153ad	-0.0036823556
23	0xbb75ac46	-0.0037486716
24	0xbc950644	-0.018191464
25	0x3c8eab45	0.017415652
26	0xbc8dfbd5	-0.017331997
27	0x3b743660	0.0037263855
28	0xbc071523	-0.0082447855
29	0x3c05c4ee	0.0081646275
30	0xbc8f14ab	-0.01746591
31	0xbbfd51ff	-0.007730722
32	0x3bb3a119	0.005481851
33	0x3c1ac3f6	0.009446135
34	0x3adca1f3	0.0016832933
35	0xbcde591c	-0.0271421
36	0x3b99f112	0.0046979273
37	0x3c54e797	0.012994668
38	0x3a0f1058	0.00054574525
39	0x3c5477bf	0.012968003
40	0xbbce6fc8	-0.0062999465
41	0x3c8452cc	0.016152762
42	0x3a8f6b40	0.0010941997
43	0x3d3a7791	0.045524184
44	0x3c897867	0.016781045
45	0x38b4daf4	8.623852e-05
46	0xbb85adbc	-0.0040795486
47	0xbd13689a	-0.035988428
48	0x3cb83676	0.022486906
49	0x3cfd7721	0.030940594
50	0xbb8f9211	-0.004381426
51	0x3cc3d6d0	0.023906142
52	0xbc03695b	-0.008020724
53	0xbc1cefd5	-0.009578665
