src/siMLPe/exps/baseline_amass/log/snapshot/model-iter-115000.pth (torch, 604538 bytes, 196 tensors)

motion_mlp.mlps.0.fc0.fc.weight f4 [50, 50]
000000 47 a6 74 bd c9 d0 c6 bd b4 35 cc 3c a8 94 4b bd
       -0.059728887 -0.09707791 0.024927951 -0.049702317
000010 a0 5d c7 3c f6 65 83 bc 2a 58 e7 3c ef 25 3c bd
       0.024336636 -0.01603983 0.028240282 -0.045934614
000020 fb 11 8e b7 20 80 fe bc fd 9f 4c 3a 9d 59 06 bd
       -1.6936092e-05 -0.031066954 0.00078058225 -0.032800306
000030 af 45 60 3a 03 cb a1 bc ec 72 d1 bb 8e 39 5e bc
       0.00085553055 -0.019750124 -0.0063918736 -0.013563527
000040 36 52 56 bb 63 0d 52 bc b0 29 f1 bb e3 33 ba bc
       -0.003270281 -0.012820574 -0.007359706 -0.02272982
000050 5e 5f 73 bc 12 82 0c bc 47 3f 33 bc 4b fb 98 bc
       -0.01485428 -0.008575933 -0.010940379 -0.018674513
000060 3b b9 0f bc 57 92 5f bc f3 99 1c bc ff cb 48 bc
       -0.00877219 -0.01364573 -0.009558189 -0.012255668
000070 7a 83 10 bc cb 61 1b bc 6a 89 24 bc fa de 00 bc
       -0.008820409 -0.009483765 -0.010042528 -0.007865662
000080 7f 6f fe bb b4 d9 dc bb 55 3e ff bb bb 4a 92 bb
       -0.007764756 -0.0067398194 -0.007789413 -0.004464475
000090 da 3a 03 bc 55 90 77 bb d2 e9 09 bc c4 9d 1c bb
       -0.008009637 -0.0037775238 -0.0084175635 -0.0023897747
0000a0 8a ff db bb 19 d4 de ba ae 09 c0 bb 7c f0 13 bb
       -0.0067138122 -0.0017000466 -0.005860529 -0.002257376
0000b0 c2 f1 83 bb e4 a5 fa ba 27 0f 50 bb fb fb 94 ba
       -0.0040266225 -0.0019122926 -0.0031747313 -0.00113666
0000c0 40 24 26 bb b0 2f ed ba 2d ae cf ba f4 ac ad bd
       -0.0025351197 -0.0018095877 -0.0015844755 -0.08480254
0000d0 e2 a3 a4 3b d0 f0 9d bb 67 b1 d0 bc 05 03 94 bb
       0.005024419 -0.004819967 -0.025475217 -0.0045169615
0000e0 42 9d 1f bd 71 ac 17 3b d7 ce a9 bc d3 57 c3 bc
       -0.038968332 0.0023143555 -0.020728512 -0.023845589
0000f0 43 e7 98 bb 24 79 d2 bc 88 e3 76 bb 80 20 f1 bb
       -0.0046662404 -0.02569253 -0.003767224 -0.0073586106
000100 79 24 2b bc ad 2d 76 bb c7 bd 4b bc 38 35 04 bc
       -0.0104457075 -0.0037563846 -0.012435383 -0.008069329
000110 f1 19 89 bb fd 3f 2a bc 71 aa b4 bb 4b 30 7b bc
       -0.0041840007 -0.010391233 -0.0055134823 -0.015331338
000120 f5 cf 7e bb 0e c2 37 bc e8 58 42 bb ed da 4b bc
       -0.0038881276 -0.0112157 -0.0029655043 -0.012442333
000130 a3 d9 bf bb aa f3 1a bc 42 bc c9 bb db 0c 0e bc
       -0.0058548017 -0.009457508 -0.0061564753 -0.008670057
000140 c6 26 fe bb 8e 22 e3 bb 9a 34 16 bc f6 93 05 bc
       -0.007756087 -0.0069316095 -0.009167815 -0.008152952
000150 2e d5 29 bc 57 bf dc bb 3e 14 35 bc 98 7a bf bb
       -0.010365767 -0.0067366767 -0.011052189 -0.0058434717
000160 75 2d 34 bc d9 6f ad bb 76 5e 29 bc f4 5e c6 bb
       -0.010997166 -0.0052928743 -0.010337463 -0.0060537998
000170 35 d5 26 bc e6 fb d6 bb b5 a0 21 bc c2 1d e7 bb
       -0.010182668 -0.0065607904 -0.009864976 -0.007053108
000180 a8 fd 0f bc cc ac fb bb 5f 32 09 bc 5f 38 02 bc
       -0.008788504 -0.007680511 -0.008373826 -0.00794801
000190 07 be 26 3a 7c 41 1c bd 7e 2d e0 3b 95 1a 2e bc
       0.0006360714 -0.03814839 0.0068413606 -0.010626455
0001a0 d2 6d ff 3b 31 df 00 bd 4f 31 4b 3c 1f cc 25 3b
       0.007795074 -0.031462852 0.012401893 0.0025298668
0001b0 bc c4 b5 3c af 36 8a bc 2e 8e 97 3c d4 02 52 bc
       0.022188537 -0.016871778 0.018500414 -0.012818057
0001c0 bc 00 e1 3c 7c bd c8 3b be 2b fa 3c 65 b9 64 3c
       0.02746617 0.006126104 0.030538436 0.013960217
0001d0 e7 6b 99 3c d9 51 87 3c 5c c9 12 3d 6e db e1 3b
       0.01872821 0.01651852 0.035836563 0.006892613
0001e0 03 08 ea 3c 52 85 f3 3b 7d 3b c8 3c 68 8b 2a 3c
       0.028568273 0.0074316645 0.024442429 0.010409214
0001f0 b9 d4 c9 3c 98 62 01 3c e3 fd be 3c 1c 71 5c 3c
       0.024637567 0.007897042 0.023314422 0.013454702
000200 e4 6b a8 3c 14 79 9d 3c ca 88 91 3c c1 0f b7 3c
       0.020559259 0.019222774 0.017765421 0.02234638
000210 48 9b 95 3c f4 38 c1 3c 31 0d 6b 3c 7e 3c e6 3c
       0.01826252 0.023586728 0.014346407 0.028105017
000220 32 a2 7b 3c d7 31 d8 3c 2a f3 80 3c b9 94 e8 3c
       0.015358495 0.026390953 0.01574095 0.028391229
000230 05 3d 85 3c 86 79 ef 3c 5e 8d 8e 3c e2 c6 ec 3c
       0.016264448 0.029232752 0.017401394 0.028903428
000240 1a 09 a7 3c 8d 6c e5 3c ef 6a b6 3c ee 8b de 3c
       0.020390082 0.028005863 0.022267787 0.027166333
000250 77 ac c8 3c 69 2a da 3c 1d 1c 1c bc 0f b2 2e 3d
       0.0244963 0.02663155 -0.009528187 0.04265028
000260 4c 8c df bc ad f1 ab 3c 8f 92 17 bd 0b bd 3b 3d
       -0.027288578 0.020989263 -0.037005004 0.045834582
000270 af b6 cd bc 1e a0 30 3d 71 2c 36 bc b7 e7 2f 3d
       -0.025111524 0.04312145 -0.011118994 0.04294559
000280 9d d2 b8 bc e1 11 36 3d d3 3c ee bb 5b b3 f6 3c
       -0.022561366 0.044450644 -0.0072704344 0.03011482
000290 91 a3 3c bb b6 e3 df 3c 0e 5a dc 3b 6d f0 c7 3c
       -0.0028784017 0.02733026 0.0067246025 0.024406636
0002a0 50 51 14 3c 38 57 10 3d f7 b9 0b 3c 44 0b f2 3c
       0.00905259 0.03523943 0.008528224 0.029546387
0002b0 44 12 38 3c d7 75 03 3d 05 69 8a 3c 50 9b fb 3c
       0.011234824 0.032094803 0.01689578 0.030713707
0002c0 1b 92 92 3c c7 b0 d7 3c d4 6e 8a 3c 24 26 c4 3c
       0.017891934 0.026329411 0.01689855 0.023943968
0002d0 28 95 98 3c bd a7 a6 3c 58 9b 97 3c c4 9f 90 3c
       0.01862581 0.020343656 0.01850669 0.017654307
0002e0 32 2b 96 3c 43 37 81 3c 9f 21 88 3c f8 d1 81 3c
       0.018331144 0.015773421 0.016617594 0.015847191
0002f0 a8 18 87 3c 08 e4 59 3c 2d 51 82 3c 98 b5 3f 3c
       0.01649125 0.013298996 0.015907848 0.01170101
000300 12 83 7d 3c 36 d8 32 3c 1c 5f 56 3c 2e 13 2d 3c
       0.015473144 0.0109158065 0.013084199 0.010563655
000310 c6 79 35 3c 7b 51 1e 3c 2f 10 3a 3c e9 0b 2b 3c
       0.011076396 0.009662981 0.0113563975 0.010439851
000320 25 8e 05 3a 63 6e e0 bc 93 9d b7 3c 11 d4 6f 3c
       0.00050947285 -0.027396386 0.022414004 0.014637963
000330 6c 82 a3 bd 7e bf c0 bc 14 07 8c bc 8d 07 98 bc
       -0.079838604 -0.02352881 -0.017093219 -0.018558288
000340 a9 bd 95 bc cc 4a 15 bc 5b 79 9b bc ac b3 8a bc
       -0.018278914 -0.009112071 -0.018978765 -0.016931377
000350 ef bb 04 bd 34 29 9b bc 51 20 09 bd be e6 7d bc
       -0.03240579 -0.018940546 -0.033478085 -0.015496908
000360 49 c0 c6 bc ca 57 62 bc be 2b 0b bc fb cf 49 bc
       -0.02426161 -0.013814876 -0.008494316 -0.012317653
000370 8a a2 48 bc 45 2e ed 3a 63 9c 52 bb 4e 67 44 3b
       -0.012245784 0.0018095454 -0.003213667 0.00299688
000380 5d 99 ed bb 10 29 95 3b 60 b6 93 bb c3 1a 1e 3c
       -0.0072509483 0.004552014 -0.004507825 0.009649935
000390 10 0d eb ba 0c c3 f0 3b 88 03 2a 3a cc bd ea 3b
       -0.001793297 0.00734747 0.00064855115 0.007163739
0003a0 bc 16 9a 3b e9 8e 1c 3c 9a 59 c2 3b 75 79 13 3c
       0.004702417 0.009555557 0.0059310915 0.009001126
0003b0 3c 38 fa 3b 00 aa 19 3c bc a2 2a 3c 80 bf 38 3c
       0.007636098 0.00937891 0.010414775 0.011276126
0003c0 c2 24 16 3c ef 90 29 3c a0 b1 39 3c 41 35 59 3c
       0.009164037 0.010349496 0.011333853 0.013257326
0003d0 19 9f 4a 3c 66 07 4c 3c ad 1e 5b 3c 93 9f 66 3c
       0.012367033 0.012452936 0.013374013 0.014076131
0003e0 77 13 50 3c 77 ef 67 3c 1b 59 69 3b a4 24 8b bc
       0.012699953 0.014156214 0.003560609 -0.016985245
0003f0 cd 7a 04 3c 0b 0a d1 3b c2 7f c2 bb c1 a2 6a bd
       0.008085919 0.006379371 -0.00593564 -0.05728412

motion_mlp.mlps.0.fc0.fc.bias f4 [50]
000000 2b 4c 72 36 38 84 da b6 c1 b8 84 b5 09 59 fd b6
       3.6105146e-06 -6.5122986e-06 -9.888537e-07 -7.5503526e-06
000010 e7 92 28 b7 36 51 e8 35 28 6e 8d b6 bf 8c ac 36
       -1.0047784e-05 1.7308982e-06 -4.2149513e-06 5.1423845e-06
000020 96 61 62 37 c0 b9 41 b4 78 dd 8b b6 e6 d4 f0 36
       1.3493371e-05 -1.8042101e-07 -4.168305e-06 7.177342e-06
000030 38 d8 0a 35 aa bf 77 36 96 01 64 37 bf 59 5b b6
       5.1723646e-07 3.6917431e-06 1.3590228e-05 -3.2685782e-06
000040 f7 e0 37 33 2e f3 0d b7 42 70 02 36 5d 0a 9b 36
       4.2812612e-08 -8.460875e-06 1.9436852e-06 4.6205664e-06
000050 6c 28 a9 b8 bb 56 89 b6 bd 07 82 b7 98 0a 26 37
       -8.066077e-05 -4.093015e-06 -1.5500811e-05 9.896838e-06
000060 3b 08 9d b6 45 ae 53 36 2e 2c 11 b7 54 1d 63 b6
       -4.6799228e-06 3.1542888e-06 -8.65296e-06 -3.3842707e-06
000070 df 69 9c 35 67 84 71 36 67 7b 22 37 4d 21 9c b6
       1.1653718e-06 3.5988867e-06 9.684684e-06 -4.653039e-06
000080 6c 22 1b b6 07 2c c1 b6 ca b0 6c 36 43 76 02 37
       -2.3116836e-06 -5.7569737e-06 3.5269645e-06 7.776139e-06
000090 21 5e 06 38 53 f4 8d 36 fa 8d 94 b6 ed 7b 14 b7
       3.2035754e-05 4.2305705e-06 -4.427272e-06 -8.850341e-06
0000a0 de 3c 2f 36 70 7c 1b b2 5c a5 b4 b4 4e 05 ae b6
       2.6112461e-06 -9.050481e-09 -3.3647927e-07 -5.1862216e-06
0000b0 56 55 79 b6 39 a4 ad 36 22 b3 8b b6 12 a0 12 37
       -3.7153563e-06 5.17492e-06 -4.1633766e-06 8.739547e-06
0000c0 9b 19 3b b6 a1 f8 d6 36
       -2.7880076e-06 6.406641e-06

motion_mlp.mlps.0.norm0.alpha f4 [1, 54, 1]
000000 8d e3 cb 3d 89 94 dc 3d 40 e3 b9 3d ac 0e d6 3d
       0.09955511 0.10770518 0.090765476 0.10452017
000010 11 ab 1d 3e 08 de 85 3d 71 b3 04 3e de f8 d3 3d
       0.15397288 0.0653649 0.12959076 0.10350202
000020 c9 9a 0b 3e 37 a8 13 3e 56 7c b7 3d d0 9a 23 3e
       0.13633265 0.14419638 0.08959262 0.15977025
000030 21 c1 30 3e 90 b4 10 3e 70 ee f1 3d 63 05 01 3e
       0.17261173 0.14131379 0.118130565 0.12599711
000040 e1 db ed 3d 45 f6 dc 3d 62 43 18 3e ea ec 1b 3e
       0.11614204 0.1078916 0.14869455 0.15227094
000050 8d 29 26 3e b2 39 22 3e 41 aa 1f 3e 75 2e 2e 3e
       0.16226788 0.15842322 0.1559229 0.1700991
000060 fa d1 d3 3d 9f 9f ca 3d da b0 5e 3e 0c c0 33 3e
       0.10342784 0.098937266 0.21747151 0.17553729
000070 a7 22 0f 3e f0 13 1a 3e 63 2e 13 3e c7 71 65 ba
       0.13978063 0.15046668 0.14373164 -0.0008752611
000080 a4 af 07 3e 91 29 b3 3d 2e 4d ed 3d ae cd 05 3e
       0.13250595 0.087481625 0.115869865 0.13066742
000090 74 4b c6 3d 42 b5 2f 3e 53 85 e5 3d 13 79 d4 3d
       0.0968236 0.17158988 0.1120707 0.103746556
0000a0 f5 93 04 3e 6d c9 e2 3d 4a e8 04 3e 8b 34 f1 3d
       0.12947066 0.11073575 0.12979236 0.117776
0000b0 21 4b 38 3e d5 4c fb 3d 59 fb 18 3e ee 49 de 3d
       0.1799741 0.12270514 0.14939632 0.10853945
0000c0 da c4 cb 3d cb 80 ca 3d d9 71 41 3e 5f d4 cf 3d
       0.09949656 0.098878466 0.18891086 0.101479284
0000d0 6e c2 52 3e 15 c2 0b 3e
       0.20581982 0.13648255

motion_mlp.mlps.0.norm0.beta f4 [1, 54, 1]
000000 a4 69 26 bb 8c f7 a2 3a ae a7 51 3c a0 cf 29 ba
       -0.0025392557 0.0012433394 0.012796326 -0.0006477777
000010 2c 3f ad 3a c0 35 96 ba 9b 37 12 3a 00 17 8a 3a
       0.0013217679 -0.001146011 0.0005577744 0.0010535419
000020 22 89 de b9 ea bf fc b9 b0 36 fe 3b c6 70 ee 39
       -0.00042445312 -0.00048208173 0.007757984 0.0004547892
000030 63 2a 30 3a 6f d2 4e b8 8f cd 19 39 65 d0 a2 3a
       0.00067201833 -4.931021e-05 0.00014667794 0.0012421726
000040 26 cd 2e 3a 96 27 a9 ba d4 a7 c6 3a 38 5b 63 3a
       0.0006668143 -0.0012905474 0.0015156218 0.00086729554
000050 b4 22 27 3a 9d cd 43 36 88 89 a2 b9 d3 16 ae 3a
       0.00063757156 2.9176947e-06 -0.00031001517 0.0013281949
000060 ac c8 90 bb 30 96 bf ba 5c fa 14 3b 7b 2f 34 3a
       -0.004418453 -0.0014616903 0.0022732234 0.000687353
000070 ac 77 23 ba 7b b3 d5 39 90 77 c3 37 f4 46 b6 3d
       -0.0006235789 0.0004076025 2.3301487e-05 0.08900252
000080 e8 30 1b 3b ec 5d 94 ba ce d7 ac ba 8d c0 1f 3a
       0.0023680273 -0.0011319495 -0.0013186873 0.0006094061
000090 6d 84 ea 39 e3 70 64 bb 5b 73 88 ba 5a e8 9d 3a
       0.00044730623 -0.0034857325 -0.0010410355 0.0012047396
0000a0 a7 79 06 ba c0 47 23 bb e6 ce 46 ba ea 88 82 b9
       -0.0005129822 -0.0024914593 -0.0007583931 -0.0002489754
0000b0 e8 3f 36 3a a8 83 1b 3a 89 67 e4 39 db d8 8b bb
       0.0006952272 0.0005932399 0.00043564689 -0.0042677945
0000c0 05 87 8d ba 14 e0 08 bc 42 a9 83 3a c8 70 b9 37
       -0.0010797685 -0.008354206 0.001004495 2.2106236e-05
0000d0 ac 28 82 3a 3f 31 6b 39
       0.0009930334 0.00022429692

motion_mlp.mlps.1.fc0.fc.weight f4 [50, 50]
000000 f9 9d 73 bd a9 98 38 bd 07 77 83 3d 0f 91 07 bd
       -0.059476826 -0.045067463 0.06419187 -0.033097323
000010 6b 47 19 3c e1 19 2b 3c a2 5f 7d 3c a9 a0 91 bb
       0.009355406 0.010443182 0.015464695 -0.004444201
000020 b0 25 6b bc 21 a4 0d bd 2f 36 b3 3a a9 60 76 3c
       -0.014352247 -0.034580354 0.0013672764 0.015037694
000030 b7 d7 57 3c ad f0 99 bb 63 bb 16 bc c2 9e 20 bc
       0.013173989 -0.0046978802 -0.00919995 -0.009803476
000040 9b df 0b bc 4b e9 e3 bc c3 c5 e6 bc d7 4f a5 bc
       -0.008537198 -0.027821204 -0.028170472 -0.020179672
000050 af 06 73 bd c0 ac 3d bd 03 3b 7a bc 7e 3e 9f b9
       -0.059332546 -0.046307325 -0.015272859 -0.00030373404
000060 85 d3 ed bb 31 83 fb 3b 07 cf bb 3c 65 59 56 3b
       -0.007257881 0.0076755513 0.022925867 0.0032707092
000070 b6 1b 18 bc 71 ff 09 bb 64 91 1e bd 2b 6c a8 bc
       -0.009283951 -0.0021056796 -0.038712874 -0.020559391
000080 15 af 9c bc de bf 94 bc 21 46 fe bc 50 f9 e7 bc
       -0.019126454 -0.018157896 -0.0310393 -0.028317124
000090 f1 36 58 3a 31 61 a7 3c db 85 86 bc f1 88 45 3a
       0.0008247933 0.020432087 -0.01642125 0.00075353595
0000a0 23 94 a5 39 39 43 33 3b a4 de 10 3c c8 3f b6 bc
       0.00031581623 0.00273533 0.008842144 -0.02224721
0000b0 ba ca 9d 3c 81 a7 ff bc a9 2f 70 bc b1 d8 2a bd
       0.019261707 -0.031207802 -0.014659801 -0.04171056
0000c0 2e 32 e6 3c ec 2b 01 bc fc ff c2 39 e0 f0 9e bc
       0.0281001 -0.007884007 0.00037193287 -0.019401968
0000d0 a7 a6 97 3d 6d 6d bb bc 5c 71 df bc d5 15 88 3c
       0.07404833 -0.022879327 -0.027275734 0.016611973
0000e0 f2 ab 65 bd e8 33 5b 3b a8 a0 ba ba 22 80 f9 bc
       -0.056072183 0.0033447687 -0.0014238553 -0.030456606
0000f0 d4 8e a9 bb c4 d6 34 3c 77 a1 ef bb c9 6a 86 3c
       -0.005174497 0.011037532 -0.0073129493 0.016408341
000100 8a 95 a7 3c bd cc 29 bc 4e cf d9 3b 0d d0 0c 3d
       0.020457048 -0.010363755 0.006647027 0.0343781
000110 bd c7 c7 ba f1 ec 23 bc 79 79 96 3d d0 98 55 3c
       -0.0015242022 -0.010005222 0.07347388 0.013036922
000120 77 92 2f 3d df 71 0b bd d5 cc d8 bc e8 b2 9a 3a
       0.04286429 -0.034044143 -0.026464859 0.0011802586
000130 6c 88 64 3d b4 ca ac 3c 77 89 6a bc d5 ac d7 bb
       0.055794165 0.02109275 -0.014315001 -0.0065818825
000140 2f c3 ac bc b0 34 75 bc ae 4b 9b bb 9a 9c fa 3b
       -0.021089165 -0.014966175 -0.0047392463 0.007648063
000150 92 3e b6 bb 06 63 01 3d 42 75 38 3b 4e 7d 82 bc
       -0.005561658 0.031588577 0.0028146063 -0.01592889
000160 bf 26 d3 bb 97 20 03 bc 37 32 ea 3c cd d7 c6 bc
       -0.006443828 -0.0080033755 0.028588397 -0.024272824
000170 48 ad 86 b8 09 c6 25 bb 73 68 9f 3d 98 e9 b8 3c
       -6.421894e-05 -0.002529504 0.07783594 0.022572324
000180 be ea 2e 3c 3a 91 1b bc f3 e0 f2 3c 04 f0 a3 bc
       0.010676084 -0.009495074 0.02964828 -0.02001191
000190 b6 75 a2 ba bf d6 8e bc 54 fd 80 bb 3e a0 ee bc
       -0.00123947 -0.017436383 -0.003936449 -0.029129144
0001a0 2d 4b a3 3b 09 14 c8 3b c1 66 af bc 5e 60 35 ba
       0.004983327 0.006105904 -0.021411302 -0.0006918962
0001b0 99 d7 b0 bc 65 3e 86 3c fc df 49 3c bc 57 46 bc
       -0.02158718 0.016387174 0.012321468 -0.012105878
0001c0 f5 0e 49 bc 5f ce 6b 3c f4 10 4a 3c e1 ad 8a bc
       -0.012271632 0.014392464 0.0123331435 -0.016928615
0001d0 a8 01 ad bb 94 39 28 3c 82 10 6e bb 84 92 c2 bb
       -0.0052797385 0.010267634 -0.0036325757 -0.005937876
0001e0 d7 3b 76 bc e5 b4 80 3c 25 ab 80 be db b4 39 3c
       -0.015028915 0.015711257 -0.25130573 0.011334623
0001f0 bc 98 f3 bb 6b 4c a2 3c a7 8d c5 bc a2 f5 88 bb
       -0.007433979 0.01981183 -0.024115397 -0.0041796723
000200 e0 ca 01 bd f9 ca bf 3b a0 02 c6 bc db 7b eb 3b
       -0.031687617 0.0058530536 -0.024171174 0.0071863956
000210 d5 d1 7d 3c 8a 32 da 3a 42 e7 01 3c 00 7c 58 bd
       0.015491922 0.0016647142 0.007928671 -0.05285263
000220 5c f6 d4 3d d8 09 34 3c 2d ce cb ba ac bd ac bb
       0.10398552 0.010988675 -0.0015549116 -0.005271634
000230 0d e0 c3 bc 80 c3 d0 bc a1 8d db 3c 23 4c 9d 3b
       -0.023910547 -0.025483847 0.026800932 0.004800336
000240 47 8f ac ba 10 9b f7 3b f5 44 03 3b a2 7d 3f 3b
       -0.0013165259 0.0075563267 0.0020030115 0.002921917
000250 a5 ca 18 3b 83 7e 1b 3b 58 fe df bc ee 87 f9 3c
       0.0023314145 0.002372653 -0.02734296 0.030460324
000260 c8 2f eb 3c 1c 79 43 3c fa 92 9d 3c 0f 41 16 3d
       0.028709307 0.01193073 0.019235123 0.03668314
000270 59 1e 4f bd b2 1f c6 3b 8e dd 80 3c 93 5c 33 3c
       -0.05056605 0.006046259 0.015730646 0.010947364
000280 41 d4 99 3b 4b 0a 2a 3c 1a 82 46 3b e8 c0 19 3c
       0.004694492 0.010378431 0.003028995 0.009384371
000290 b4 06 38 3d e6 1c 3c bd 6b ef f6 bb af de d4 3c
       0.044928268 -0.045925997 -0.007535865 0.02598509
0002a0 1c c1 50 bb 2f bb 31 bb f5 64 07 bc 4d 7f a0 3c
       -0.0031853383 -0.0027119627 -0.008263816 0.019591952
0002b0 9d 41 02 bd 36 9f aa bc 8a 5c 31 bc c3 69 43 3a
       -0.031800855 -0.02082787 -0.010825286 0.00074544194
0002c0 05 d6 29 bc d4 74 f2 bb fa 64 dc bc 0b df e6 bc
       -0.010365968 -0.007399181 -0.026903618 -0.028182527
0002d0 24 b0 3f 3d 1d d1 fe 3c fb e5 0c 3d a7 3c 00 3d
       0.04679884 0.031105572 0.034399014 0.031307843
0002e0 9f a9 02 bd 7c 7b 83 bb d3 65 8a 3c 1c 5f 8a bc
       -0.031900045 -0.004012523 0.016894257 -0.016891055
0002f0 ee e3 6f bc 3a a8 d0 bc e6 de 18 3d ed cf 0f 3c
       -0.014641745 -0.025470842 0.037321948 0.008777601
000300 84 f5 ad 38 ef eb 57 3c 44 4b 2f bd 26 e3 45 3c
       8.295014e-05 0.01317881 -0.04279639 0.012078082
000310 99 d2 27 3d 31 18 1a 3d 6f c5 82 bb 03 00 09 3b
       0.040972326 0.037620727 -0.003990821 0.0020904548
000320 5d a4 89 bc 9d 55 93 bc 7c 41 96 bc af ff f9 bc
       -0.016802007 -0.01798516 -0.018341772 -0.030517427
000330 d5 7c 8d bd 4d 24 8c bc 07 53 94 3d 23 09 ec bb
       -0.069085754 -0.017107153 0.07242399 -0.0072032376
000340 fc b3 74 bd 5c 6f a3 3b a6 c0 3f 3c a9 db b2 3b
       -0.05974196 0.0049876403 0.011703646 0.0054583144
000350 58 00 8f bb 48 ab 0d 3c 16 86 c5 3c 55 8e af 3c
       -0.0043640547 0.008646794 0.024111789 0.021430174
000360 44 ca 68 bb 42 6a 70 ba 8d 6e 86 b9 19 50 fc bc
       -0.003552095 -0.0009171107 -0.00025640838 -0.030799912
000370 78 f3 32 bc 7f 18 78 3b da 65 e0 bb fb 0d 89 bc
       -0.010922305 0.0037856398 -0.006848079 -0.0167303
000380 d7 72 10 3d 73 c7 2a 3d 09 75 1a bd 17 9e 2c bd
       0.03526577 0.041694116 -0.03770927 -0.042142954
000390 6b 43 d5 3c b8 3c 0e 3d 5d c0 0a bd fd c6 e4 b9
       0.026033124 0.034725875 -0.03387486 -0.00043635807
0003a0 f3 ea bb bc 64 d8 88 bc 64 fe cf bc d9 3f de bc
       -0.022939181 -0.016704746 -0.025389858 -0.027130054
0003b0 18 51 06 bb f9 6b cc 3b 9b dd dd bb 7b 73 14 3d
       -0.0020495113 0.0062384573 -0.006770802 0.036242943
0003c0 19 49 4f 3c a8 28 8d 3d 2b df 88 bc 06 5e e3 bb
       0.012651705 0.0689252 -0.016707977 -0.0069386987
0003d0 ce 79 2e 3d 26 c3 98 3c 06 f5 8f bc 10 ce 1e bd
       0.04259663 0.018647742 -0.017572891 -0.038770735
0003e0 36 59 af 3c d8 e0 0e 3c c0 4f 1e 3d c4 b8 bf 3c
       0.021404844 0.008720599 0.038650274 0.023403533
0003f0 d3 49 0e bd e1 31 fc 3c 0d 26 48 3c a9 ea 9a bd
       -0.034738373 0.030785503 0.012216103 -0.07564289

motion_mlp.mlps.1.fc0.fc.bias f4 [50]
000000 a1 12 53 b5 74 c4 b4 2e f1 ca 91 36 8c ff 18 b5
       -7.8630734e-07 8.2203494e-11 4.3449622e-06 -5.699628e-07
000010 02 6b ff b5 c8 98 c0 b5 e3 a0 e7 35 85 d7 ca 35
       -1.9030124e-06 -1.434958e-06 1.7257665e-06 1.5112897e-06
000020 1d 57 24 b6 34 11 2a 35 1f 60 f9 b5 83 e4 fe b4
       -2.448861e-06 6.335497e-07 -1.8579921e-06 -4.747745e-07
000030 a9 f8 f3 35 e8 60 5b b6 a1 69 bf 34 5e 7e 10 b6
       1.817728e-06 -3.268995e-06 3.5653377e-07 -2.1531228e-06
000040 f4 15 ca 35 55 a5 40 34 b7 5b 14 36 d7 66 6a 34
       1.5056562e-06 1.7941541e-07 2.2107104e-06 2.1830361e-07
000050 c2 16 22 36 40 4c 4b 35 24 3c 70 35 0c 4d bf b3
       2.4153128e-06 7.573435e-07 8.9494483e-07 -8.908145e-08
000060 66 be b0 35 fd c6 2c b6 71 73 71 b4 fc a5 32 b5
       1.3168435e-06 -2.5745824e-06 -2.2486871e-07 -6.6551706e-07
000070 08 b2 0c 35 98 3f 2a 35 60 fa 14 36 8c 8b 5c 34
       5.2413134e-07 6.3422476e-07 2.2199456e-06 2.0539863e-07
000080 b5 45 9d b5 8d b2 e8 34 53 c5 c9 b5 3a a4 a3 b4
       -1.1717699e-06 4.334328e-07 -1.5033096e-06 -3.0480606e-07
000090 5c 74 2b b5 fa 35 b7 34 2b 9a 45 b6 94 db e0 36
       -6.387179e-07 3.412568e-07 -2.9445025e-06 6.7012825e-06
0000a0 b4 df 20 34 73 fe 9a 34 2a 7c 35 b5 03 a4 26 35
       1.4982544e-07 2.8869871e-07 -6.7608437e-07 6.207849e-07
0000b0 14 11 a6 35 a6 d4 d0 b4 eb bb 58 b4 f9 da 9f b4
       1.2372934e-06 -3.889774e-07 -2.0184932e-07 -2.9775381e-07
0000c0 e2 6e a9 b5 09 3f 6c 35
       -1.2623752e-06 8.800858e-07

motion_mlp.mlps.1.norm0.alpha f4 [1, 54, 1]
000000 3d de 8f 3d d2 d9 6c 3d 58 d4 12 3e eb b2 95 3d
       0.070248105 0.057824917 0.14338815 0.073095165
000010 99 75 81 3d 7c 86 93 3d f3 4b 6b 3d 04 86 94 3d
       0.06321258 0.07203385 0.057445478 0.07252124
000020 9b 1b 61 3d f5 bf ca 3d 95 da f2 3d 3b 0f 74 3d
       0.054957967 0.09899894 0.118580975 0.059584837
000030 a1 27 91 3d ad 7b 8b 3d ad 3a 44 3d 18 3f 99 3d
       0.07087637 0.06810699 0.04790752 0.07482737
000040 a8 0b 83 3d c3 1e 82 3d a0 43 93 3d a6 2f 2a 3e
       0.06398708 0.063535236 0.07190633 0.16619739
000050 b8 65 79 3d 0e 61 94 3d cc 4c 9c 3d 40 71 88 3d
       0.060888022 0.07245074 0.07631835 0.06662226
000060 a7 f6 a4 3d 86 02 93 3d 53 cd 77 3d 82 e7 59 3d
       0.08054858 0.07178216 0.060498547 0.0531993
000070 98 90 62 3d e0 39 8e 3d 35 dc 90 3d 27 b2 ff 3c
       0.055313677 0.069446325 0.07073251 0.03121288
000080 62 01 18 3d ed 9c 52 3d bf e8 a7 3d e0 56 5c 3d
       0.037110694 0.051419187 0.0819869 0.053793788
000090 8a fa 84 3d 04 77 a6 3d 84 3d 6f 3d 54 91 a7 3d
       0.06493099 0.08128169 0.058408275 0.08182016
0000a0 93 17 88 3d 48 24 89 3d 4a 58 96 3d 16 84 82 3d
       0.066451214 0.06696373 0.073410586 0.0637285
0000b0 75 35 89 3d 69 9d 94 3d e7 79 2c 3e b1 e3 83 3d
       0.06699649 0.07256586 0.16843377 0.06439913
0000c0 13 3a 97 3d 28 f1 de 3d 37 ac 85 3d bc da 8f 3d
       0.07384124 0.10885841 0.06526988 0.07024142
0000d0 b9 6e 80 3d ff da c0 3d
       0.06271119 0.0941677

motion_mlp.mlps.1.norm0.beta f4 [1, 54, 1]
000000 1d 18 b5 bb 0c 00 be 3b 48 24 2a 39 85 f8 dd bb
       -0.005526556 0.0057983454 0.00016225979 -0.0067740106
000010 25 03 3d bb bd 4a f7 bb 31 48 ca bb f5 f3 33 bb
       -0.0028840986 -0.0075467513 -0.0061731567 -0.0027458642
000020 ff f5 92 bb e1 ec f7 bc 0c 4b aa 3c 5a bb 82 bb
       -0.0044848914 -0.03026432 0.020787738 -0.003989619
000030 94 c2 f4 ba 4c a3 c8 bb 0b 52 80 3b e4 67 84 3c
       -0.0018673711 -0.006122982 0.0039160303 0.01616282
000040 7c b2 9e 3b e2 09 e7 3b a1 16 70 bc de 96 56 3c
       0.0048430543 0.0070507387 -0.014653833 0.013097493
000050 7a 87 18 3b 71 93 44 bb b7 d9 c0 bb 65 0f 1d bb
       0.002327411 -0.0029995108 -0.0058853286 -0.0023965475
000060 5e 71 5f 3c cf 3d 4b 3c 5b 03 a4 bb 37 9c 18 3a
       0.013637869 0.012404873 -0.005005283 0.00058216177
000070 96 f0 89 ba 09 8d 37 bb df 6e 92 3b bb 91 f0 3b
       -0.0010523971 -0.0028007647 0.0044687833 0.007341591
000080 6d 8f a7 bc 71 0f c8 b9 80 77 a6 bc cb e0 af 3b
       -0.020454133 -0.00038158477 -0.020320654 0.0053673736
000090 53 71 fd 3a 19 a3 56 3d 32 88 c6 39 4e 4f be 3c
       0.0019336141 0.052401636 0.00037866976 0.023231175
0000a0 0d 7b 70 ba e5 36 7a bb 02 29 22 bb e9 d9 05 3a
       -0.00091736094 -0.0038179692 -0.002474368 0.00051060185
0000b0 4c f4 af bb bf ff a5 ba 2f 3a 08 bb 0c 3e 69 bc
       -0.0053696986 -0.0012664719 -0.0020786633 -0.0142359845
0000c0 95 70 37 bb 17 24 98 3c cf 4d e5 ba 03 cf 76 bc
       -0.0027990688 0.018571896 -0.0017494502 -0.015064004
0000d0 5d b6 68 3c 04 89 2b bc
       0.014203635 -0.010469679

motion_mlp.mlps.2.fc0.fc.weight f4 [50, 50]
000000 6a c1 8a bc 1e 7c bf bc 3c 7a 1f 3c 89 28 19 bd
       -0.01693793 -0.023374613 0.009733733 -0.037392173
000010 98 84 8f bb 88 80 98 bb bf 71 21 bd a8 f1 29 bc
       -0.00437982 -0.004653994 -0.039415117 -0.010372557
000020 96 0f db 3c 9f 90 8c bc 90 2a ae bc db 23 ba 3b
       0.02674083 -0.017158804 -0.02126053 0.005680544
000030 c6 35 5f bc 3c 15 14 bb 60 a6 f4 bb 3e e9 90 bd
       -0.01362366 -0.0022595664 -0.0074661225 -0.070757374
000040 64 d5 50 39 dc db 33 bd ac d3 47 3c b4 50 86 3d
       0.0001991592 -0.043910846 0.012196463 0.06558362
000050 9a a5 e3 bc a0 b4 9a bc ae 7c a8 bc 15 92 87 bc
       -0.027788926 -0.018884957 -0.020567264 -0.01654915
000060 5e d9 b8 3c b9 45 e9 38 aa 21 d6 bc d0 94 77 3c
       0.022564586 0.00011123293 -0.0261391 0.015111163
000070 5d 0b a8 bc d0 74 9d bc 18 0e 77 3c 1f 0d f3 bc
       -0.020513231 -0.01922074 0.015079044 -0.029669343
000080 31 3b c8 bb 4d f2 37 3b e4 a4 bb bc b2 86 8b bb
       -0.006110572 0.0028068007 -0.022905774 -0.0042580003
000090 eb f8 24 bd b3 46 f6 bb 3c 34 5f bc b5 2b 57 bc
       -0.04027645 -0.007515752 -0.0136232935 -0.013132979
0000a0 ca 29 8a 3b 5b b0 85 bc 7e a8 d0 3c c8 c9 86 ba
       0.0042164074 -0.016319444 0.025470968 -0.0010283524
0000b0 ad 0c 32 3a df 2d 51 bb d3 7d b3 3c 82 a0 74 bc
       0.000679205 -0.003191821 0.021910584 -0.014930846
0000c0 9f a5 de 3c 26 91 c5 bc cf 8e f1 3a 23 b4 fe bc
       0.027178584 -0.024117064 0.0018429401 -0.031091755
0000d0 5a 15 99 3b 86 89 1e bd a7 06 64 bc 22 eb 91 bc
       0.0046717348 -0.03870537 -0.013917602 -0.017812315
0000e0 27 f1 37 bb 06 f8 cf bc 9c 82 69 bc 7b 5f c3 bc
       -0.0028067322 -0.025386821 -0.014252331 -0.02384924
0000f0 4c ba c7 39 79 e7 b0 3b d4 63 1d bd 70 5c 16 3d
       0.0003809504 0.0053986874 -0.03842528 0.03670925
000100 9e 09 3b bc ed c8 03 bd 53 00 a3 bc 2e fd c6 b9
       -0.011415867 -0.03217404 -0.019897616 -0.00037954136
000110 8a f6 73 bc 8e cd 1d 3d a9 6c 6d bc 57 d5 c7 ba
       -0.014890322 0.03852611 -0.014491239 -0.0015246075
000120 e4 6a 42 bd 16 26 c6 3c 69 4d 97 bc 83 6c 0c 3c
       -0.04746522 0.024188083 -0.01846953 0.008570793
000130 e3 bf 07 bd fd d8 f2 bb 3b 13 18 bd ae d2 47 bc
       -0.03314198 -0.007411121 -0.037127715 -0.012196226
000140 6f 70 9e ba 1c ae 48 3b 9d f4 14 bc 13 b6 8d 3c
       -0.0012087951 0.0030621355 -0.0090915235 0.017298734
000150 21 0e c4 3b 1a f1 d9 ba 6c 2e 85 bc 58 da 13 bb
       0.0059831296 -0.001662764 -0.016257487 -0.0022560563
000160 63 b2 58 bc 26 65 98 bc 29 c6 98 bc df 6f 37 3c
       -0.013226124 -0.018602919 -0.018649178 0.011196106
000170 61 06 ed bc 10 01 85 ba 82 2f e5 3b 41 d6 fc 3b
       -0.028933706 -0.0010147411 0.0069941888 0.0077159707
000180 d3 17 c3 bb 58 e4 a0 39 f3 84 10 3c 23 cc b6 ba
       -0.005953768 0.00030687707 0.00882076 -0.0013946336
000190 3c ca 9f bb fd 07 16 bc 50 33 00 ba 29 1c 58 bc
       -0.004876403 -0.009157178 -0.00048904587 -0.013190308
0001a0 b5 cd 0c bc 63 99 09 3d ae 37 3d bd e5 58 92 bb
       -0.008593966 0.033593547 -0.04619568 -0.0044661635
0001b0 ea 82 22 3c 7d 6b ea bb 47 78 bd bc 5c d9 ac 3b
       0.009918908 -0.007153927 -0.023128642 0.0052749347
0001c0 19 3c f8 3b 09 6e 27 3b 18 8f 4a bb db 56 30 bd
       0.0075755236 0.0025547764 -0.0030908044 -0.04305158
0001d0 80 91 3c bc cf ae 60 3b 01 e4 f3 3b 0f a2 49 3c
       -0.011509299 0.0034283882 0.0074429517 0.012306704
0001e0 69 b2 f8 bd e3 57 b6 bb a4 ac 73 bc 8b af 9a bb
       -0.12143404 -0.005564676 -0.014872704 -0.0047206334
0001f0 30 fa 11 bb 90 76 31 bc fa 95 48 3a 18 dc 14 3c
       -0.0022274368 -0.01083149 0.0007651743 0.009085678
000200 4f 96 83 3a 92 16 bd 3a 47 95 88 3b b7 a6 3c bc
       0.0010039302 0.0014426282 0.004168186 -0.011514357
000210 06 f4 61 bc 1d 54 b0 3b a0 5e 59 3c a7 07 68 bd
       -0.01379109 0.005381121 0.013267189 -0.056647923
000220 76 00 75 bb b8 43 50 bb 49 a1 85 bc 03 b9 20 3e
       -0.0037384308 -0.0031778645 -0.016312258 0.15695576
000230 51 2b ba ba 16 f7 ab 3c ce 50 35 3c a5 9f dc 3c
       -0.0014203583 0.020991843 0.011066629 0.026931593
000240 6f 9e f0 3b 15 c8 d7 3c e1 cf b2 3c d1 13 42 3c
       0.0073431055 0.026340524 0.02182764 0.011845545
000250 5c 51 fe 3a fa ab f3 3c 68 39 a7 3c 8c 96 e8 3c
       0.0019402909 0.02974509 0.020413116 0.028392099
000260 69 31 9a 3c 67 eb 8d bd d4 ac 1f bd 28 f1 49 bc
       0.018822389 -0.06929665 -0.03898318 -0.012325563
000270 69 69 a7 3c f3 0c 79 bb 2b dd a9 3c 90 dc 8b bb
       0.020436006 -0.0038002103 0.020735344 -0.0042682365
000280 9f 37 2e 3c f8 b2 8e bb 18 69 f5 bc 8d 0b 86 3c
       0.010633378 -0.004354831 -0.02995734 0.01636293
000290 54 bd 54 3c a3 11 16 3a 35 f1 ea 3b ab db 7d bc
       0.0129845925 0.0005724674 0.0071698674 -0.015494267
0002a0 86 f5 90 3b 67 48 b2 3c 88 ae 8d 3c 24 8f d8 3a
       0.0044238 0.02176304 0.017295137 0.0016522151
0002b0 f0 2f 94 bc fa 6f 8b 3d 59 fd 93 bc 2f 25 f6 3c
       -0.018089265 0.06808467 -0.018065142 0.030047027
0002c0 65 d0 17 3d 18 d9 68 b9 b2 1f b7 bb 72 8b 92 3c
       0.037063975 -0.00022206118 -0.005588495 0.017888758
0002d0 a5 40 e5 3c d5 9d 34 3c 4c 7d d1 3a ff a6 5f 3c
       0.027984926 0.011023958 0.0015982776 0.013650655
0002e0 c3 6a 91 3b 73 c8 e0 3a 9c 9c b4 3c 79 1a 84 3c
       0.004437776 0.0017149582 0.022047333 0.016125904
0002f0 2a f6 27 3c 66 62 4c 3c e0 3d 98 bc 35 1c 19 bc
       0.010251561 0.012474632 -0.018584192 -0.009345104
000300 91 f9 50 bc 5c e1 a8 3c c0 e3 06 bc 3a 91 cc bc
       -0.012754814 0.020615272 -0.008233011 -0.024971593
000310 f3 e7 2a 3c 22 a3 9e 3b fe bc b1 bb cd 95 3f bb
       0.010431278 0.0048412243 -0.005424141 -0.0029233575
000320 39 3a bd 3c fb 9e c3 ba c7 62 f2 3a 79 63 43 bb
       0.023099052 -0.0014924699 0.0018492573 -0.002981393
000330 35 41 c0 bb 8d d7 e3 bc c8 14 be bc 9a de e6 bc
       -0.0058671483 -0.027812744 -0.023203269 -0.028182317
000340 3c 2d cf 3c a3 53 9f bc 30 9a 8c 3b f5 8f 9d bb
       0.025290124 -0.01944906 0.0042908415 -0.004808421
000350 e5 a3 48 3d 0c 22 08 3c 45 4a 83 bc d0 cc c4 ba
       0.048984427 0.008308899 -0.016026625 -0.0015014652
000360 4e 62 6d 3a 03 61 07 bd d7 22 83 ba 11 be 20 3c
       0.0009055481 -0.033051502 -0.001000489 0.00981094
000370 71 6c d8 bc 80 04 86 3b 44 87 53 bd 7a 64 e9 bc
       -0.026418896 0.004089892 -0.05164267 -0.028490294
000380 9d d6 94 3c 8b 67 bc 3b 27 47 32 3c fa eb f2 3b
       0.018168742 0.005749648 0.010881222 0.0074133845
000390 2f 9f 92 3b ad ec 08 bc f6 25 48 3c f0 09 91 3d
       0.0044745426 -0.008357209 0.012216082 0.070819736
0003a0 0d 01 88 3c c2 b3 e8 bb 2a 70 8b 3c 4f b1 9c bc
       0.016602064 -0.007101507 0.017021257 -0.019127516
0003b0 d7 83 73 bc 4c b5 9c bc 0a 1d 04 3c 26 f4 74 3c
       -0.014862976 -0.019129418 0.008063564 0.014950788
0003c0 f6 23 26 3c da f4 b0 bc 9c f9 a0 3c f2 aa d2 3b
       0.01014041 -0.02160113 0.019650273 0.0064290697
0003d0 50 f1 c5 3c b3 e1 31 3c 65 f8 20 bd 8d a6 ef 3a
       0.024162918 0.010857034 -0.039299387 0.0018283889
0003e0 26 79 39 bb 60 38 9c 3b d2 b1 72 bc 77 bd 68 bd
       -0.002830097 0.0047674626 -0.0148129035 -0.056821313
0003f0 ab e7 65 39 c2 9a 85 3c ec cb 27 bb 07 21 be bc
       0.00021925445 0.016309146 -0.0025603725 -0.023209108

motion_mlp.mlps.2.fc0.fc.bias f4 [50]
000000 b8 ac 3c b4 c2 5f 5b b5 94 0b f3 35 09 3d b9 b4
       -1.7571699e-07 -8.1723203e-07 1.810828e-06 -3.4503344e-07
000010 2f d1 78 b4 70 f8 88 35 e9 44 8f 35 57 ec 45 35
       -2.31729e-07 1.0205094e-06 1.0674386e-06 7.373214e-07
000020 72 0b 1b 36 4f 80 9c 30 45 09 06 34 58 b0 9d 33
       2.3103462e-06 1.1386961e-09 1.2483095e-07 7.342959e-08
000030 85 29 5e 34 a3 0a 3d b5 b1 d1 96 b4 b3 72 45 b5
       2.0690466e-07 -7.0423465e-07 -2.8092248e-07 -7.355513e-07
000040 f3 20 12 b6 32 fa 20 b5 5b 5b 8b 35 70 bf b4 b4
       -2.1774874e-06 -5.9968727e-07 1.0382895e-06 -3.3666902e-07
000050 02 30 7b 34 ef dd e2 b4 65 24 ad b4 66 b5 6c 35
       2.3393662e-07 -4.2257258e-07 -3.2250242e-07 8.818082e-07
000060 5d 64 5a 36 40 f9 99 b5 94 5c 99 b5 53 1b 20 34
       3.254295e-06 -1.147193e-06 -1.1426332e-06 1.4911102e-07
000070 76 f6 7c 33 8f 36 04 34 c8 03 9d b4 67 c9 5e b4
       5.8897477e-08 1.2313306e-07 -2.924628e-07 -2.0748631e-07
000080 4e d2 c6 34 c7 1f 29 35 1f 79 95 34 56 f3 a6 b4
       3.703339e-07 6.300365e-07 2.784154e-07 -3.109696e-07
000090 2c 80 0a 35 8b 4d d3 ad 7b 66 53 35 82 f1 a3 b4
       5.159552e-07 -2.4022359e-11 7.8752754e-07 -3.0536836e-07
0000a0 9a 65 cb 34 2c 83 d2 34 f7 19 40 b5 76 d3 b9 b4
       3.788562e-07 3.9210988e-07 -7.156336e-07 -3.4612793e-07
0000b0 0d 96 22 b4 53 8e 31 b5 98 aa 8b b5 7a b9 c3 34
       -1.5142014e-07 -6.614475e-07 -1.0405956e-06 3.6456532e-07
0000c0 ad b1 be 34 39 4c 69 b4
       3.5519534e-07 -2.1727546e-07

motion_mlp.mlps.2.norm0.alpha f4 [1, 54, 1]
000000 7a 93 71 3d 09 dc 37 3d 24 fe 6a 3d 36 c7 21 3d
       0.058978535 0.044887576 0.057371274 0.039496623
000010 57 27 dc 3c 0e 8c 04 3d f7 a8 d5 3c 3f 73 f2 3c
       0.026874227 0.03236013 0.026081545 0.02959597
000020 cc 30 13 3d 47 85 71 3d b5 7f 7c 3d a1 1a ea 3c
       0.03593521 0.058964994 0.06164523 0.02857715
000030 8c 20 0b 3d 78 c0 14 3d f8 b5 19 3d 64 38 1e 3d
       0.033966586 0.036316365 0.037527055 0.038627997
000040 bf e0 2e 3d 5d 25 f5 3c 6f 58 3f 3d b6 c2 cf 3d
       0.042694803 0.029925043 0.046715196 0.1014456
000050 72 4f e5 3c c7 15 12 3d ab a4 0f 3d ef 08 ef 3c
       0.027991984 0.0356653 0.03506915 0.029179065
000060 a1 57 61 3d df c5 74 3d d3 90 f6 3c ad 48 04 3d
       0.05501521 0.059759017 0.030098354 0.03229587
000070 eb 86 fb 3c d8 96 13 3d b1 ae 0d 3d 3a 31 64 3c
       0.030703982 0.036032528 0.034590427 0.013927752
000080 51 fd e2 3c cd e4 38 3d ca 97 19 3d 27 80 24 3d
       0.027708681 0.045140076 0.037498273 0.040161278
000090 a2 84 21 3d a2 0c 5a 3d cd 4c 18 3d 0f d4 84 3d
       0.03943313 0.053234704 0.037182618 0.064857595
0000a0 95 09 28 3d a7 fb 26 3d 9c db 2b 3d 68 d6 ee 3c
       0.041024763 0.040767338 0.041957483 0.029154971
0000b0 16 b1 fc 3c 53 35 19 3d af 52 c9 3d 19 dc 3d 3d
       0.03084616 0.03740437 0.09830224 0.04635248
0000c0 86 34 55 3d f0 33 9f 3d 73 b6 df 3c b0 8e 74 3d
       0.052052043 0.07773578 0.027308678 0.05970639
0000d0 24 4e 8f 3c 00 40 3d 3d
       0.017493315 0.046203613

motion_mlp.mlps.2.norm0.beta f4 [1, 54, 1]
000000 98 57 b5 bc 01 61 83 ba f3 b9 44 3d 46 92 2a ba
       -0.022136495 -0.0010023416 0.048028897 -0.0006506782
000010 bc 2c 09 bb c6 51 a2 3b 27 79 98 3b 17 06 fd bb
       -0.0020931205 0.004953596 0.0046531144 -0.007721673
000020 82 4b 95 3b 48 2f 2c 3b 39 d4 36 3d ae ba 95 3b
       0.0045561204 0.00262733 0.044635985 0.004569373
000030 a5 c4 08 3b 2f e5 b1 3b 67 6a 98 bb 82 01 04 bc
       0.0020869162 0.005428932 -0.004651356 -0.008057
000040 eb 91 54 bc 6b 72 1b 3b c3 83 26 3a d1 10 6b bc
       -0.012974243 0.0023719321 0.00063520315 -0.014347271
000050 46 8d e7 b8 0c b8 39 ba 0d c8 81 bb 7a b1 80 bb
       -0.000110412526 -0.0007084615 -0.0039606155 -0.003927407
000060 d4 14 3e bc 57 10 03 bb 9b 88 53 3b b3 9d 04 bc
       -0.0116016455 -0.0019998753 0.0032277468 -0.008094239
000070 df 63 e8 bb d4 81 b3 3b 79 d8 16 ba bd 93 c4 bb
       -0.0070919837 0.005478123 -0.0005754303 -0.005999057
000080 25 d1 bc 3c bb 6d 54 3b aa a7 be bc 83 ba fe bb
       0.023048947 0.0032414037 -0.023273308 -0.007773699
000090 b5 9e 3d bb 87 60 23 3d bc 2c 05 bc f9 e9 ff bb
       -0.0028933708 0.039886978 -0.008128341 -0.007809874
0000a0 f2 ab c0 bb 9c c4 03 3c 63 68 33 3c c2 84 41 ba
       -0.0058798725 0.008042481 0.010950181 -0.0007382148
0000b0 2e 37 06 3b c8 64 ec 3a 33 4d 47 3b 69 20 c8 3b
       0.0020479667 0.0018035406 0.0030411005 0.006107379
0000c0 44 84 25 bb 09 55 53 bc 3c a8 2a bb 56 26 a8 bc
       -0.0025255838 -0.012898692 -0.0026040217 -0.020526092
0000d0 b6 9d 78 bb 5a 4c 53 bb
       -0.00379358 -0.0032241554

motion_mlp.mlps.3.fc0.fc.weight f4 [50, 50]
000000 be 1d b6 3a e7 a8 92 bc f2 8e 88 3d c7 81 a7 bc
       0.0013894362 -0.017902805 0.0666789 -0.020447625
000010 bf 1b 1a bc 17 2a a5 bb b7 fd e0 3c 0d 86 ad ba
       -0.009406029 -0.005040418 0.02746473 -0.0013238803
000020 1f 24 0e 3d 27 a8 03 3c 52 3a 48 3a 51 85 c9 bc
       0.034702417 0.008035696 0.0007638085 -0.024599703
000030 d1 0d 5d bb 64 b2 21 3b ac 71 bb 3a cc 77 f8 3c
       -0.003373016 0.002467298 0.0014300845 0.030330561
000040 89 d2 22 3c 43 aa a9 3c 78 e4 68 bc ab 93 52 bc
       0.009937891 0.02071107 -0.014214627 -0.01285259
000050 96 db 4c bc 60 5b eb bb c5 ce 07 bd ed c9 40 bc
       -0.012503525 -0.0071825236 -0.033156175 -0.011766893
000060 be 26 9b 3c 2e 69 75 3c 2a 63 08 3c fe ed 4c b8
       0.018939372 0.01497869 0.008324424 -4.8859038e-05
000070 16 a0 17 bb 3c ff ba 3c fa 40 30 bc f4 96 9a 3b
       -0.002313619 0.022826783 -0.010757679 0.004717702
000080 4f 99 10 3c 0c da c5 3b 61 b3 fc 3c 87 fa 74 bd
       0.008825614 0.006037956 0.030847253 -0.059809234
000090 48 13 4d 3c 6f 83 8d 3c 6f 8f bf bc 34 cb 09 3d
       0.012516804 0.017274586 -0.023383824 0.033641055
0000a0 2d 91 8e 3c 83 64 1d 3c e4 88 e7 3c 6c 59 03 3d
       0.01740321 0.009606483 0.028263517 0.0320677
0000b0 69 83 9f bc 1f 54 92 bc ca 86 83 bc 22 3c 5a 3b
       -0.019471841 -0.017862378 -0.016055483 0.0033300002
0000c0 31 4b c3 bc 25 fa a8 bb 31 1d fc 3b 33 83 88 bd
       -0.023839565 -0.0051567727 0.0076939096 -0.06665649
0000d0 fc c1 77 3c b1 5a 15 bd 2c e5 05 3c 72 7f eb 3b
       0.015121933 -0.036463443 0.008172315 0.0071868235
0000e0 88 96 97 3c 0c 07 7f 3b 44 bb 33 3c c3 71 bc bc
       0.018504396 0.0038914112 0.010969941 -0.023003465
0000f0 e4 01 9b 3b ed 7f e3 3c 59 e6 89 bc 52 26 5e 3c
       0.00473045 0.02777096 -0.016833471 0.013558941
000100 13 0d 02 ba c2 8a c2 3c 67 d9 fb bb 62 55 00 bc
       -0.00049610547 0.023747806 -0.0076858285 -0.007832857
000110 8d e2 bd bb 0c 0d ea 3c e9 10 ba 3c ed 1c 9b bc
       -0.005794829 0.028570674 0.022713142 -0.018934691
000120 0e d1 84 bc 4f ad 6a 3d 23 34 b6 bc 57 45 db ba
       -0.016212966 0.057294186 -0.022241658 -0.0016729039
000130 72 4b e1 bc 0e d6 3d bb f9 5a 34 3b 15 2f 3f 3c
       -0.027501795 -0.0028966698 0.0027520044 0.01166894
000140 36 32 3d bd 53 16 66 bd 66 8d 80 3b 45 2c 9a 39
       -0.046190463 -0.056173634 0.003923106 0.00029406152
000150 2d 6c 8c 3b b8 ff 57 ba e1 f4 8d bc ad ed d7 bc
       0.0042853565 -0.0008239704 -0.017328681 -0.02635845
000160 85 1d 8a 3c 6d 04 32 3a 1a 9f d8 bb 0c d9 4b bc
       0.01685978 0.00067908206 -0.0066107633 -0.012441885
000170 06 c4 49 bb 8d 54 e8 ba c6 fe fd bc d6 ec d5 bc
       -0.0030787005 -0.0017725393 -0.031005275 -0.026113909
000180 dd 19 d0 3c 2b 46 a3 bc 61 b8 ca b9 1f 40 9b bc
       0.025402958 -0.01993092 -0.00038665815 -0.018951474
000190 e1 10 86 ba f5 60 10 bc 0f 2c 1d bd 17 58 73 bc
       -0.0010228419 -0.008812179 -0.038372096 -0.014852545
0001a0 47 a4 9b bb 78 db d8 3c 9a 8c 8f 3c 67 d6 44 bd
       -0.004749808 0.026471838 0.017523099 -0.048056033
0001b0 e4 1f 24 3a 83 bd 61 bc c4 91 24 3b 1b a6 c6 3b
       0.00062608556 -0.013778093 0.0025111297 0.006062282
0001c0 4f bb e6 bb cc 00 44 bd e2 86 af 3c 70 d3 b4 bc
       -0.007041372 -0.047852322 0.021426622 -0.022073478
0001d0 ad b9 d0 bc f1 a2 8a bc 2d 93 a6 3c f8 21 10 bd
       -0.025479162 -0.0169234 0.02033385 -0.035188645
0001e0 cc 1f 7a bc 2d 9b 5f bc 99 ca d0 bc 0d ab b7 bc
       -0.01526637 -0.013647837 -0.025487231 -0.02242043
0001f0 e6 63 05 bc af 2e 12 bd 31 41 4b 3d 21 84 24 bb
       -0.008141493 -0.035689052 0.04962272 -0.002510317
000200 cf af eb bc e4 09 b7 bb 7f 05 2f 3d 92 12 a9 3c
       -0.028770356 -0.005585896 0.04272985 0.020638738
000210 cc d9 9a bc a2 44 36 3c 52 46 3a bc d9 8a 21 bc
       -0.018902682 0.011124762 -0.011369305 -0.009859764
000220 23 ca 77 38 e6 eb f4 3b 10 3e 07 3d 04 4f 6a 3b
       5.9077644e-05 0.0074744103 0.03301817 0.0035752663
000230 8c c2 13 3c 41 b1 03 b9 ae f3 2f bc f6 8e 99 bc
       0.009018552 -0.00012559166 -0.01073925 -0.018744927
000240 8b 15 83 3c 77 94 4b 3a 30 b8 35 ba c2 83 dd bc
       0.016001483 0.00077659584 -0.0006932048 -0.027040366
000250 13 11 b3 bb 06 fb e7 3c ee 97 5a bb 25 c9 08 3c
       -0.005464682 0.02831794 -0.0033354717 0.008348738
000260 36 14 e9 bb fe ad 87 3b e2 3b f2 3a 94 1a f9 bb
       -0.007113005 0.0041406145 0.0018480981 -0.0076020453
000270 0f d3 07 bd e4 4f 9a 3c 2c 4f 58 bc 67 79 7a 3c
       -0.033160266 0.018836923 -0.01320247 0.015287734
000280 52 98 34 3c 89 f2 e8 ba ec 1d b2 3b 2c 07 98 bc
       0.011022644 -0.0017772476 0.005435696 -0.018558107
000290 fb 16 a8 bc 8b 34 5c bc 4c 63 13 3c 09 c6 90 bc
       -0.02051877 -0.013440262 0.008995842 -0.017672556
0002a0 e7 2a 5e 3c b5 cd 37 bd fa e5 70 ba 11 36 07 3b
       0.013560033 -0.044873912 -0.00091895426 0.0020631591
0002b0 fe e5 ba 3c 16 3f da ba 06 88 84 3b 42 65 b8 3c
       0.022814747 -0.0016650881 0.0040445356 0.022509221
0002c0 06 5f 5d bb 5e 8e 90 bd 37 54 09 3d 58 58 1a 3d
       -0.0033778562 -0.070584044 0.03352758 0.037681907
0002d0 14 45 d3 bb fc 97 1a 3d c7 3d cc 3b 5d f1 7e 3b
       -0.0064474437 0.0377426 0.0062329504 0.0038901188
0002e0 16 22 85 3c 63 98 6f 3b 63 10 08 3d ae 9a 14 3c
       0.016251605 0.0036559335 0.033218753 0.009070082
0002f0 48 3c 03 bd ed 43 4e 3c 4c 91 7c 3c 3c d4 bb bc
       -0.03203991 0.012589437 0.015415501 -0.02292835
000300 ce 4c ed bb a2 cf 3f bd 31 d2 8e bb 67 76 e3 3b
       -0.007241822 -0.046828873 -0.004358553 0.006941605
000310 29 ab ee 3c 30 73 b3 bb 4c 70 c9 bc 82 64 52 b9
       0.02913435 -0.005476378 -0.02458968 -0.00020064603
000320 6c c1 06 3d 04 c9 cf bc 5b ed 8d bc b2 09 3f 3a
       0.032899305 -0.025364406 -0.017325094 0.00072875165
000330 d4 e7 5d 3c 21 3e 53 bd 8b 7c 7b 3d 1c 0e 78 3a
       0.013544042 -0.051572923 0.06139807 0.00094625517
000340 28 8b 73 bd ab ce e1 3b ad 0f 09 bb b2 57 d2 bc
       -0.05945888 0.006891092 -0.0020913885 -0.025676582
000350 c5 96 12 bd e1 1f df 3c 07 b3 56 bb 8e 4f ef 3b
       -0.035788316 0.02723688 -0.0032760517 0.007303185
000360 c0 ac 7c 3c 68 d1 af ba cb c7 cc 3c 3a ab 38 3d
       0.015422046 -0.0013413848 0.024997612 0.04508517
000370 4f 5c f7 3c db 48 5d bc 38 d4 07 bc 67 34 8a 3c
       0.030195383 -0.01350614 -0.008290343 0.01687069
000380 0b 27 93 3c 86 9d 9e bc 2b 76 c2 bb b0 9d 67 3c
       0.017962953 -0.019362222 -0.005934497 0.014136717
000390 96 d5 78 bc b8 82 81 bc 03 32 2b bd 7f c7 9b bb
       -0.015187642 -0.015809402 -0.04179574 -0.0047540064
0003a0 95 65 87 bc b3 cd 2e bd a1 a7 07 3d 9a ea e9 3b
       -0.01652793 -0.04267664 0.033118848 0.0071385624
0003b0 df 7b bf bc fd c2 ab 3b b3 ac d9 b9 78 70 01 3d
       -0.023374496 0.0052417503 -0.00041518136 0.0316014
0003c0 3c 5e 74 3c 80 60 29 3d 7f 5a 7d 3b a2 de 2c bc
       0.014915045 0.041351795 0.0038658676 -0.010551127
0003d0 c5 f7 aa bc a1 e9 de 3b 78 c6 ac bc 2f ec b6 3c
       -0.020870099 0.006802753 -0.021090731 0.022329418
0003e0 06 85 57 3b d1 02 3f bc 39 b1 eb 3b 86 a3 82 bc
       0.0032885685 -0.011658386 0.0071927574 -0.015947115
0003f0 b1 86 59 bc 30 d5 65 bc 4f c2 18 bd 9f e2 81 bc
       -0.013276742 -0.014027879 -0.037294682 -0.015855132

motion_mlp.mlps.3.fc0.fc.bias f4 [50]
000000 ea 2e 0f b6 43 1d f6 b5 17 44 3b b4 e7 c4 b0 b4
       -2.1335968e-06 -1.8336945e-06 -1.7440503e-07 -3.292582e-07
000010 3d d6 b1 33 ee a6 27 b5 d3 57 fa b4 78 5b 29 34
       8.2811745e-08 -6.245526e-07 -4.663003e-07 1.5772628e-07
000020 de 64 ec 34 b4 9e 84 b4 d5 50 21 35 2e 90 33 35
       4.4031816e-07 -2.4702388e-07 6.00948e-07 6.6892505e-07
000030 02 40 2b 34 d6 0a 35 b2 be a1 03 b6 37 ce 21 b5
       1.5948902e-07 -1.053805e-08 -1.9614668e-06 -6.0277256e-07
000040 4c f9 cc b5 7b 21 66 35 47 07 fd b4 7d 5b d3 35
       -1.5271739e-06 8.57304e-07 -4.7130217e-07 1.5747352e-06
000050 89 54 df 33 8d aa 16 34 73 49 23 34 0a 20 96 35
       1.03996236e-07 1.4031885e-07 1.5207279e-07 1.1185195e-06
000060 e2 d2 8b b4 b0 8d d9 b5 85 38 a2 b4 a7 44 39 34
       -2.6044205e-07 -1.6208996e-06 -3.0215975e-07 1.7254443e-07
000070 7f b5 cd 35 bb 9b ea 35 b0 b7 18 35 2b 7e d1 b4
       1.5326513e-06 1.7479682e-06 5.6891713e-07 -3.9021083e-07
000080 65 af 9a b5 92 02 6e 35 eb 93 2b b5 e7 86 1d 36
       -1.1524941e-06 8.866565e-07 -6.3917713e-07 2.3473347e-06
000090 18 7e 18 b5 30 21 a4 b4 3c 0d b0 b3 db 97 a3 b3
       -5.6807903e-07 -3.0571528e-07 -8.198046e-08 -7.617901e-08
0000a0 4a 43 13 36 36 b2 60 35 f3 a0 7e b5 0a db 66 35
       2.1943874e-06 8.3705834e-07 -9.4856586e-07 8.600042e-07
0000b0 c2 25 9a 35 c4 25 f3 b2 18 14 58 34 a6 40 25 b5
       1.1484883e-06 -2.8306097e-08 2.0123878e-07 -6.1561366e-07
0000c0 ad a7 1f b5 16 11 86 35
       -5.9476116e-07 9.988751e-07

motion_mlp.mlps.3.norm0.alpha f4 [1, 54, 1]
000000 91 73 57 3d ac bf 6a 3d 6e 3a b9 3d 1e 7d 33 3d
       0.052600447 0.0573117 0.09044348 0.043820493
000010 83 02 e0 3c fa b7 fa 3c 9a f5 8d 3c bc 27 fe 3c
       0.027344948 0.030605305 0.017329026 0.031024806
000020 ba d4 0f 3d 09 28 60 3d d3 a2 d2 3d 5c 80 0a 3d
       0.03511498 0.05472568 0.102849625 0.03381382
000030 c3 cb 2f 3d a4 3e 18 3d e5 b1 51 3d 80 f5 40 3d
       0.04291893 0.037169114 0.051195044 0.047109127
000040 77 27 2c 3d 96 48 13 3d 7d 5b 36 3d f9 2a e6 3b
       0.042029824 0.035957895 0.044520844 0.0070241657
000050 93 9e 3c 3d f3 55 4f 3d 8a ba 29 3d 9f 68 30 3d
       0.046049666 0.050619077 0.041437663 0.043068524
000060 0c dc 63 3d 37 57 9c 3d 6e 9f 1e 3d 40 8b 38 3d
       0.055629775 0.076338224 0.038726263 0.045054674
000070 d0 26 8c 3c 12 9d 5c 3d 87 d1 9c 3c ca ab 5b 3c
       0.017108351 0.05386073 0.01914288 0.013407657
000080 cf d1 41 3d 5d 1c 2b 3c 7c ef a6 3d 13 cb 2c 3d
       0.04731923 0.010443774 0.08151147 0.042185854
000090 ae 6b 02 3d ca c0 9f 3d c8 22 5d 3d ed 6c 65 3d
       0.031840973 0.078004435 0.053988248 0.056012083
0000a0 16 a1 6d 3d 75 0e 67 3d ec 98 24 3d 49 61 71 3d
       0.05801495 0.05641027 0.0401849 0.05893067
0000b0 10 a7 26 3d 92 e9 2b 3c 7d f6 1e 3c 7e 36 25 3d
       0.040686667 0.010492699 0.009702322 0.04033517
0000c0 fe ef 49 3d 15 d6 d5 3d 36 bb 0f 3d 93 11 8e 3d
       0.04930114 0.104412235 0.035090648 0.06936946
0000d0 62 dc a6 3d 3b 8c bc 3c
       0.081475034 0.023016086

motion_mlp.mlps.3.norm0.beta f4 [1, 54, 1]
000000 22 6f 15 3c 04 5b 2e 3b 0f 1a c5 3c 95 d8 7f bb
       0.009120734 0.0026604543 0.024060277 -0.0039039005
000010 fb 77 90 b9 e0 74 98 ba b0 2c 88 bb 22 bf f9 3b
       -0.00027555213 -0.0011631511 -0.004155718 0.0076216618
000020 53 03 a0 ba 76 d4 9c bb ac dc 8d 3b 23 2d 51 bb
       -0.0012208022 -0.0047860695 0.0043292847 -0.0031917773
000030 63 92 31 bb 1d e4 03 bc 53 3b 10 bc ef 32 14 3c
       -0.002709531 -0.008049992 -0.0088032065 0.009045347
000040 e8 81 a4 b9 37 7c 0e bc e3 8e 14 bc 12 0d 92 3c
       -0.00031377305 -0.008696607 -0.00906727 0.017828498
000050 67 96 a0 bb 42 a5 07 3a 62 ef 31 3b 85 89 eb 3a
       -0.004900742 0.00051744666 0.002715074 0.0017970061
000060 93 9a c1 bc e6 ab 5b bc cc 52 a3 3a ea 32 70 3b
       -0.023633277 -0.013407683 0.0012460588 0.003665144
000070 eb 6c 9a 3c 00 94 d9 ba e2 3a 5c 3a f3 50 32 bc
       0.018850764 -0.0016599894 0.0008401108 -0.010883558
000080 53 fc 6c 3c c1 ba 55 bc f0 cd ed 3c 5a e6 39 ba
       0.014464456 -0.013045014 0.029028863 -0.0007091515
000090 ba ff 3e b9 f7 f3 e7 3c c9 24 72 bb d7 b1 02 bc
       -0.00018215078 0.028314574 -0.0036948195 -0.007976971
0000a0 95 0c 97 bb e1 e0 87 bc c5 22 10 bc e9 39 9c ba
       -0.004609654 -0.016586723 -0.008797352 -0.0011919114
0000b0 57 c1 0f ba aa b7 3e bc 70 a9 61 3c b8 d9 47 bc
       -0.0005483827 -0.011640469 0.013773307 -0.012197904
0000c0 f0 fc 1e bc 01 6d b4 bc 85 bd de 39 3e d3 fa 3c
       -0.00970386 -0.022024633 0.00042484343 0.030618306
0000d0 86 11 3a bb 79 b7 64 ba
       -0.0028391792 -0.00087248493
