src/siMLPe/exps/baseline_amass/log/snapshot/model-iter-80000.pth (torch, 604338 bytes, 196 tensors)

motion_mlp.mlps.0.fc0.fc.weight f4 [50, 50]
00000000: 80f6 5cbd 1ec6 c0bd 8f11 ea3c a701 55bd
00000010: eaf7 d13c 654b 9abc 2df1 f93c 9a4f 30bd
00000020: e770 32bb ef7d f3bc 67d2 043a 5287 cfbc
00000030: 6f23 6bbb 5484 b2bc cf43 fcbb 59f7 8cbc
00000040: 3672 12bc 6f60 7dbc 2b3a 18bc e24e 9abc
00000050: 0c10 7ebc 3da1 34bc 1978 37bc c32f 9bbc
00000060: e404 dabb 4949 82bc ab4a 2abc c492 54bc
00000070: 6496 02bc 285c 14bc 4f9c 25bc 387a c5bb
00000080: 425c 09bc eb37 bbbb cffc 02bc 1eee 83bb
00000090: 139c 14bc ad27 30bb a19b 16bc 5dfe 2cba
000000a0: 1f82 febb 275d 98ba 7459 eebb 9c7d 73ba
000000b0: 895c 8dbb f145 93ba 83f8 60bb efc2 50b9
000000c0: 1f2f 30bb 2e87 e9ba 9f20 153b 6772 90bd
000000d0: 0e0c 7e3a 7a9a b1bb d442 fdbc 0d85 babb
000000e0: d011 15bd 5b15 203c 90fc 81bc 72c5 05bd
000000f0: c436 76ba f62f bcbc 31ec 0e3b f653 66bc
00000100: 3d54 10bc 77f2 03bc 8ae0 13bc bfc4 8fbb
00000110: 59fc 0dbc 87eb 16bc f7da 1abc cabe 49bc
00000120: 4b1f f1bb 1328 45bc e209 f5bb eb72 3dbc
00000130: 1b94 02bc 0d61 2fbc a734 04bc 7272 2fbc
00000140: 0d98 1abc ed89 05bc fe05 37bc 840b 0cbc
00000150: b677 33bc cadd 03bc d50a 4dbc 5edf f5bb
00000160: 6270 47bc 0976 febb 7bc4 43bc 71aa 05bc
00000170: a595 3bbc 4381 0fbc caf9 3fbc 734b 0fbc
00000180: 2c5c 2cbc 8776 0ebc ffc5 20bc 5e46 1bbc
00000190: 7544 22bb a378 16bd 1290 633c 890e 3abc
000001a0: 4bb1 b33b 16e7 0abd c9f1 813c ec8b 143b
000001b0: 6089 a63c 3ea5 bcbc f590 9a3c a436 47bc
000001c0: 483b 093d b96d 8a3b 7273 0d3d 713d 2f3c
000001d0: 1d14 c33c 0866 9d3c 1601 153d f16d e53b
000001e0: e9f1 053d 9e31 bc3b f869 cd3c 2ca5 3e3c
000001f0: c72e e23c c31b 283c 7a15 b43c 3725 533c
00000200: cd81 b73c 2a5a a63c b06f 863c a0d4 b73c
00000210: b504 8d3c d5dd be3c b5a9 823c aa72 d23c
00000220: bcaf 743c 5b58 d93c 88d3 733c f547 e53c
00000230: 255e 6b3c d2a4 e33c b6ce 753c 3410 df3c
00000240: 5d91 923c 7113 d53c fcb2 a93c b7b3 ce3c
00000250: 89c0 b93c 23b5 c63c 8eff 17bc f791 183d
00000260: 3c2b cfbc da82 c73c 1327 12bd ccce 2a3d
00000270: c740 cbbc 65f3 333d a29d 7abc 0033 413d
00000280: 9569 b0bc 2246 433d e9ca fabb c9bd 143d
00000290: da4a c53a c352 d63c a7f9 463c 1604 c23c
000002a0: 72a4 303c 06c9 103d d7b8 593c e528 f93c
000002b0: 8af9 6e3c c6e2 fe3c 8967 9d3c 0bb9 023d
000002c0: 3c43 a73c ed35 df3c 5aee 9a3c 673d c83c
000002d0: 61bd a33c 3eff b33c 18e5 ae3c 824d a63c
000002e0: c6eb 9e3c dffb 9c3c dd4c 8f3c b7d4 973c
000002f0: ed63 933c e3d0 853c a7d7 953c 8814 733c
00000300: aefc 8c3c dd2b 653c 02a8 803c 416d 653c
00000310: 45a1 633c 4a33 5b3c c799 673c 6bfd 5f3c
00000320: 2177 783a 2d0e cabc 2c86 bb3c 94f5 4a3c
00000330: 78e0 9fbd 99ca acbc ddd7 65bc 66af e6bc
00000340: 9281 43bc 2e2c 8fbc 4422 84bc baed 7ebc
00000350: d673 f6bc a540 b3bc 65a1 d3bc 0e33 06bc
00000360: 3e1e d3bc 8da6 6ebc 61ba 02bc 6b04 dfbb
00000370: c0ac 64bc 10a4 873b 4055 05bc bb46 d33a
00000380: 9b5d 0cbc 256c 033c f968 dabb 4d39 213c
00000390: 5ef4 97ba 0f49 263c af2b 9c3a b594 e73b
000003a0: 4983 8e3b 0572 103c 075d e93b ca8d 133c
000003b0: 24b6 143c f445 0d3c 3ea5 333c 49f5 213c
000003c0: 88ab 313c 72f9 343c 93ba 393c 753f 593c
000003d0: 030f 633c db61 303c b5e3 5d3c c3b1 503c
000003e0: 97bb 513c d984 5f3c 73cd e43a 868e 50bc
000003f0: a702 343c 43f5 ab3b fb48 a6bb df6b 6ebd
-0.05394602 -0.09412788 0.028572826 -0.05200353 0.02563091 -0.018834779 0.03051051 -0.043044664
-0.002722794 -0.029723136 0.0005066753 -0.02533308 -0.0035879274 -0.021791615 -0.007698513 -0.017207788
-0.008938363 -0.015464886 -0.009291212 -0.018836442 -0.015506756 -0.01102477 -0.011198067 -0.018943673
-0.006653415 -0.015904086 -0.010393779 -0.012974445 -0.007970426 -0.009055175 -0.010108068 -0.0060265325
-0.008383812 -0.005713453 -0.007994845 -0.0040261885 -0.009070414 -0.0026879117 -0.009192378 -0.00065991824
-0.0077669765 -0.0011624441 -0.0072738472 -0.00092884316 -0.0043140096 -0.0011236054 -0.0034327812 -0.00019909044
-0.0026883555 -0.0017816776 0.002275504 -0.070530705 0.00096911273 -0.0054200264 -0.030915655 -0.0056921304
-0.03639394 0.009770717 -0.015867501 -0.032659 -0.0009392316 -0.022972088 0.0021808262 -0.014058104
-0.0088091465 -0.008053414 -0.009025702 -0.0043874676 -0.008666121 -0.0092114275 -0.009451619 -0.012313554
-0.0073584667 -0.01203348 -0.0074779848 -0.011563043 -0.007969881 -0.010704291 -0.008069194 -0.010708438
-0.009435666 -0.00815056 -0.011170862 -0.008547667 -0.010953834 -0.008048484 -0.01251479 -0.007503434
-0.01217279 -0.0077655357 -0.0119487 -0.008158312 -0.011449252 -0.008758846 -0.011717269 -0.008746016
-0.010520022 -0.008695251 -0.009812831 -0.009477226 -0.0024760042 -0.036736142 0.0138893295 -0.0113560045
0.0054837815 -0.033911787 0.015862362 0.0022666408 0.020329177 -0.023028012 0.018867949 -0.012159023
0.0335038 0.0042245057 0.034533925 0.010695801 0.023813302 0.019213691 0.03637799 0.0070016314
0.032701407 0.0057432195 0.025074944 0.01163606 0.027610196 0.010260525 0.021982897 0.012887291
0.022400761 0.020306665 0.016410679 0.022440255 0.017214159 0.023299137 0.015950063 0.025689442
0.014934476 0.026531389 0.014881976 0.027988413 0.0143657075 0.027788553 0.015002897 0.027229406
0.01789158 0.026010247 0.02071523 0.02523218 0.022674816 0.024256295 -0.009277238 0.037248578
-0.02528917 0.024354387 -0.035681795 0.041701123 -0.024811162 0.04393329 -0.015296372 0.047167778
-0.02153472 0.047674306 -0.0076535833 0.036313806 0.0015052215 0.02616251 0.012144483 0.023683589
0.010781394 0.03534796 0.013288698 0.030415008 0.014585862 0.031113993 0.019214408 0.031914752
0.020417802 0.027247394 0.018912483 0.024443341 0.019987764 0.021972295 0.021349475 0.02030063
0.019399535 0.01916307 0.017492706 0.018534048 0.017991984 0.016334957 0.018291308 0.014836438
0.01721033 0.013987509 0.015705112 0.014003099 0.01389343 0.0133789275 0.0141357845 0.013671259
0.0009478201 -0.024664963 0.022891127 0.012387652 -0.07806486 -0.0210927 -0.014028517 -0.028159808
-0.011932747 -0.017477121 -0.01612962 -0.015559608 -0.030084532 -0.02188141 -0.025833795 -0.008190883
-0.025771257 -0.014566076 -0.0079790065 -0.0068059466 -0.013957202 0.004139431 -0.008138001 0.0016119102
-0.008567239 0.008021389 -0.0066653457 0.009840322 -0.0011593213 0.010149254 0.0011914874 0.007067288
0.0043491465 0.008816247 0.0071216854 0.009005973 0.009076629 0.008622635 0.01096469 0.009885141
0.010844119 0.0110458005 0.011335987 0.013259758 0.01385856 0.010765518 0.013543059 0.012737694
0.012801073 0.013642513 0.0017456248 -0.012729293 0.0109869605 0.0052477433 -0.005074618 -0.058208343

motion_mlp.mlps.0.fc0.fc.bias f4 [50]
00000000: 4471 5937 139b c737 16b7 fdb7 d99a 4eb8
00000010: e0bc e2b7 8165 8737 94ec 4bb8 95f8 d3b7
00000020: d319 1cb8 1498 b9b7 31fd 76b5 02ee 5438
00000030: eaad 2cb7 cd5f 2f38 07b1 5bb7 cee8 0638
00000040: 9c8e 7c38 971f a237 6de0 2438 af6f 2a38
00000050: 075e 7e38 e525 c2b7 093f f1b7 2632 10b7
00000060: 1a1c eeb7 97da 7437 3be0 3538 45dd b337
00000070: bf3b 25b8 cc09 8536 96bd b4b7 be8c 3c37
00000080: 692b 09b8 dfbe 6037 27b6 90b7 43d0 5bb7
00000090: acf9 6138 1754 5335 2be9 a737 43c2 23b7
000000a0: 8277 87b7 de8b 2838 22d6 5eb8 46e3 7c37
000000b0: a113 2138 2960 3738 60fe 3ab8 872e c9b5
000000c0: 8bf4 c9b7 82ba ddb5
1.296058e-05 2.379486e-05 -3.0245206e-05 -4.925844e-05 -2.7029251e-05 1.614052e-05 -4.8619302e-05 -2.5268915e-05
-3.721735e-05 -2.2124535e-05 -9.2010583e-07 5.07664e-05 -1.0292491e-05 4.1812473e-05 -1.3094635e-05 3.2164906e-05
6.0214297e-05 1.9326615e-05 3.930966e-05 4.0635172e-05 6.064589e-05 -2.3144248e-05 -2.8758792e-05 -8.594745e-06
-2.8384897e-05 1.4594428e-05 4.3362594e-05 2.14415e-05 -3.939471e-05 3.9648494e-06 -2.1545955e-05 1.1238442e-05
-3.2703774e-05 1.3395881e-05 -1.7250959e-05 -1.3101907e-05 5.3876705e-05 7.872599e-07 2.0016529e-05 -9.760787e-06
-1.6148904e-05 4.0184583e-05 -5.312835e-05 1.5073287e-05 3.8403672e-05 4.3720156e-05 -4.458276e-05 -1.4989208e-06
-2.4074941e-05 -1.6520064e-06

motion_mlp.mlps.0.norm0.alpha f4 [1, 54, 1]
00000000: b513 de3d 3d3f e83d 23b9 d73d 6148 dc3d
00000010: 9ece 1d3e 2aec 9e3d 0883 123e 3703 e13d
00000020: 2ca0 143e 5551 273e 0e9a d33d c512 2f3e
00000030: 2dbd 313e 8f97 103e a774 f73d 0746 0a3e
00000040: 4471 f93d fb2a ea3d 1275 1e3e c71b 2e3e
00000050: 0c8b 193e 3ab9 233e ff8c 303e d59b 323e
00000060: bf06 e83d 3630 e33d 305b 533e 25c0 283e
00000070: b94a 223e e72f 1d3e 519f 1f3e 9da7 48bb
00000080: 8109 0a3e 1616 c23d 1afb f83d 4e69 073e
00000090: d87f da3d 2814 453e 0799 e93d 8255 d33d
000000a0: 3c38 0d3e 887a de3d 554c 143e d9f9 f13d
000000b0: 019a 3b3e 7bf5 063e be05 2f3e cd76 d83d
000000c0: c7eb d43d dab3 ea3d 9ec5 3e3e 8037 da3d
000000d0: de6e 5b3e 89bb 1a3e
0.108436026 0.11340187 0.10533359 0.10755993 0.1541085 0.077598885 0.14307797 0.10986941
0.14514226 0.1633962 0.10332118 0.17097004 0.17357321 0.14120315 0.120827965 0.13503276
0.12179807 0.11433979 0.15474346 0.17002784 0.14994448 0.15988627 0.17241286 0.17442258
0.11329412 0.1109318 0.20640254 0.16479547 0.15848817 0.15350305 0.15588118 -0.0030617483
0.13480188 0.09476869 0.12157269 0.13223764 0.106689155 0.1924597 0.11406141 0.10319044
0.13790983 0.10863215 0.14482243 0.11815233 0.18320467 0.13179581 0.17092034 0.105695345
0.103965335 0.11460085 0.18630072 0.10655117 0.21429011 0.15110601

motion_mlp.mlps.0.norm0.beta f4 [1, 54, 1]
00000000: ed65 90ba d08a ea3a b950 213c 2069 69b9
00000010: b605 173a 1d94 a2ba fadd 893a 6a79 cf39
00000020: 3d8b a6ba 40b2 f338 1714 013c 7f8e 853a
00000030: 7cbd d639 8ef8 4fb9 2cba 9239 105f 743a
00000040: fa55 803a e641 ebb7 b53c 0e3b b7d6 af3a
00000050: fe55 4b39 860c 8cb7 229a d6b7 2e9c 813a
00000060: 5708 46bb 9cad 02bb 2ab6 553b 38ea 6239
00000070: 9bf7 3dbb 8e15 823a ca48 a439 1f2f ae3d
00000080: 5ee0 f93a 9fde edba 76ca b1ba b041 d739
00000090: 57a9 9439 8c51 dfbb 1795 feb7 4465 bf3a
000000a0: f2c7 bdb9 e3ca faba 7764 17ba 9505 c9b9
000000b0: 85ca 383a 88a3 19ba 1e55 823a 440d 8dbb
000000c0: 9e74 4cba 82e3 bcbb fe62 213a d34e 9339
000000d0: 6c90 bb3a d3ac f939
-0.0011016704 0.0017894153 0.009845906 -0.00022259774 0.0005761044 -0.001240376 0.0010518425 0.00039572577
-0.0012706291 0.000116203446 0.007878325 0.0010189562 0.00040958438 -0.00019833652 0.00027986 0.0009322027
0.0009791248 -2.804487e-05 0.0021703665 0.001341543 0.00019391623 -1.6695132e-05 -2.5582562e-05 0.0009888464
-0.0030217373 -0.0019939905 0.00326098 0.00021640293 -0.0028986696 0.0009924637 0.0003133475 0.085050814
0.0019064059 -0.0018148011 -0.0013564366 0.00041056937 0.00028354928 -0.006815141 -3.0348585e-05 0.0014602323
-0.0003619786 -0.0019133951 -0.00057751633 -0.00038341866 0.0007049221 -0.0005860855 0.000994358 -0.00430456
-0.000779936 -0.0057644257 0.00061564136 0.00028096754 0.0014310009 0.00047621745

motion_mlp.mlps.1.fc0.fc.weight f4 [50, 50]
00000000: fde1 6dbd 4562 1ebd 1905 5b3d a5b2 fcbc
00000010: 798c 313c 735b 1e3b d059 253c 2f85 55bb
00000020: a8c7 62bb 0d27 02bd 51d1 b33b 1c30 8c3c
00000030: 5b4f 8c3c 2b85 bdba 222e 35bc 1ece 0abc
00000040: 44a1 3abc 200d b5bc 55dd e0bc 91f1 9bbc
00000050: 73d4 89bd b94b 58bd 896b fdbc 5e89 263b
00000060: dc02 88bb b5f1 743a 0c67 b03c 3503 c239
00000070: 0ed3 f6bb 76e1 a63b 1090 fbbc bc33 94bc
00000080: 694e aebc e28f c8bc 6c89 c2bc b27d e9bc
00000090: d8bb d6bb 4def 543c e1a8 b3bc b45f 5dbb
000000a0: 8323 aa3b 940b 033b be86 2fba cd52 ddbc
000000b0: d96f 873c 2189 08bd 4afa 89bc ac84 1cbd
000000c0: 62dd de3c 6453 ffbb 737f bcbb 3b77 a1bc
000000d0: 84e4 9e3d 3f28 dabc 2e1d b0bc 20f4 733c
000000e0: 8ba8 77bd 59fa 383b 58c6 293a efef dfbc
000000f0: 403f d8bb da07 8e3c 08a3 19bc 9943 783c
00000100: 2f1c bc3c b6bd 14bc dadd 2d3b 4ef3 b43c
00000110: 32f3 d93b 828d 48bc 1c72 833d 14e2 2a3c
00000120: 2ca0 3d3d 9922 19bd 58e0 9fbc 203b 113b
00000130: 0f18 763d 9f7b c43c f768 a9bb 3640 d2bb
00000140: c7e8 65bc f043 99bc e517 f3b9 5bb4 713c
00000150: 71e2 20bc 21be f73c 7489 1f3c b095 a1bc
00000160: 6836 0ebb c165 4c3b 9a69 d83c 6f2d c3bc
00000170: c28f 523b 82a1 4ebc d441 a03d d297 063d
00000180: 3f2f 0b3c 26be b0bb cbe4 0c3d 62a6 b4bc
00000190: 73e9 5539 7d7c 3bbc e9b7 2dbc 690b aabc
000001a0: 7bc3 e73b 528d 793b 80f4 afbc cdf4 853a
000001b0: 5954 b6bc 49ec 9a3c 1dd5 373c fe2e 6fbc
000001c0: 1439 41bc 5bb8 523c 08ff 6e3c c5c1 7dbc
000001d0: 59e0 a2bb 0b9e 113c e546 68bb baf2 0dbc
000001e0: cd7a f6bc b119 b53c 110b 7abe 41ef 803c
000001f0: 4a1a 64bc 5f7d 933c 73e2 dabc c6e0 d5bb
00000200: e427 e5bc 492e ab3b 3329 f6bc c29e f43b
00000210: 0d0a 803c 15da e23b 94bd db3b a525 87bd
00000220: e846 ad3d 594b 203c 5f56 7eba e776 41bb
00000230: bb7a e5bc 26fd e4bc 247f b43c 1a83 033c
00000240: 1c6b a7bb ca6c 2e3c eee9 1c3b 1a4d bd3b
00000250: 7094 453b d429 3a3b c19c 9dbc 050d 063d
00000260: 8cff 133d 54ca a13c ae4f c13c 3f65 163d
00000270: 9341 70bd 0d40 8f38 49e4 9e3c ecad 593c
00000280: 5c89 b5ba 364f 4f3c 39d1 4e3b 3aa1 bb3b
00000290: 463b 523d c8a9 10bd af0b 57bc 6fa5 e53c
000002a0: 32ae 0abb 00b7 9cbb a424 80bc 6a25 a33c
000002b0: 3f8e fbbc 8188 dcbc faf8 ccbb 7311 4b3b
000002c0: 8f5f 3bbc 0e3d bfbb 14b3 adbc 4214 d8bc
000002d0: 3eaa 213d e188 dd3c 7ef4 f83c d32f 203d
000002e0: 6fe6 c5bc 22ad 1ebc 42eb e03c f916 6abc
000002f0: 3c52 d1bb 6f58 b2bc 639f c03c 97b7 143c
00000300: 307a 9dba 64f6 713c cc60 20bd 375f 913c
00000310: d727 273d 15af 1d3d 2968 74bb 6a3b 59bb
00000320: 5552 a8bc c41b 3ebc 9fef d4bc e650 0fbd
00000330: bb2e 69bd 7194 53bc d62d 913d b774 c53a
00000340: b588 7dbd ff2a d83b a06e 6b3c 19d7 fa3b
00000350: cfaa a2bb 09c5 823c 1d46 ac3c 10c4 d33c
00000360: 093c f4bb 4861 53bb 0312 df3a a345 cbbc
00000370: c387 0fbc ad5d b73a 304a 21bc 3c71 96bc
00000380: e307 243d 37d6 3c3d 2eb7 24bd 8bdd 27bd
00000390: d18a fc3c 439c 313d 5966 ecbc 4e99 493a
000003a0: dafb a1bc 6c81 1fbc 08cf cbbc bd14 f5bc
000003b0: 9756 dcbb 1adf 1d3c 4fe5 7bbb 3e08 323d
000003c0: 9198 a33c bfbe 8f3d 6c5e 8bbc bb88 adbb
000003d0: 882b 093d 47f5 763c 97cd 8cbc 79b9 27bd
000003e0: 7c98 0f3c f957 713b a2b5 0b3d a6ee c73c
000003f0: c27e d1bc 56ef c53c 8b1f 6a3c 562d 8abd
-0.058076847 -0.038667936 0.05347166 -0.030846903 0.010836714 0.0024163395 0.010092214 -0.0032580604
-0.0034603868 -0.031775523 0.005487599 0.017112784 0.017127683 -0.0014459243 -0.011058362 -0.008471994
-0.011390988 -0.022100985 -0.02744929 -0.019036086 -0.067299746 -0.05280659 -0.030935066 0.0025411467
-0.0041507315 0.00093438785 0.021533512 0.00037004953 -0.007532484 0.005092795 -0.030708343 -0.018091075
-0.021277623 -0.024482671 -0.023747168 -0.028502319 -0.0065531544 0.012996507 -0.021931114 -0.0033778967
0.0051922216 0.0019995915 -0.00066957984 -0.027017022 0.016532825 -0.0333339 -0.01684298 -0.038212463
0.027205173 -0.0077919234 -0.005752498 -0.019710174 0.0775843 -0.026630519 -0.021498289 0.014889747
-0.06046347 0.002822539 0.0006476394 -0.027336089 -0.006599337 0.017337728 -0.009377249 0.015152835
0.022962658 -0.009078434 0.002652994 0.022088673 0.0066513056 -0.012240769 0.06418249 0.010429878
0.04629533 -0.03738651 -0.019516155 0.0022160485 0.060081538 0.023984728 -0.0051699835 -0.006416346
-0.014032549 -0.018709153 -0.00046366375 0.014752473 -0.009819613 0.030242028 0.009737361 -0.019724697
-0.002169991 0.003118858 0.026417542 -0.023825375 0.0032129143 -0.012611749 0.07825056 0.03285963
0.008495151 -0.005393761 0.03439788 -0.022051994 0.0002040023 -0.011443255 -0.01060293 -0.020757394
0.0070728636 0.0038078618 -0.021478891 0.0010220051 -0.022257017 0.018911498 0.011220244 -0.014598606
-0.011793394 0.012861337 0.014587171 -0.015488093 -0.004970592 0.008887778 -0.0035442647 -0.008663828
-0.030087853 0.022106977 -0.24418284 0.015739085 -0.013922283 0.018004118 -0.026719308 -0.006527039
-0.027973123 0.0052240235 -0.030048942 0.0074652145 0.015629793 0.00692297 0.006705949 -0.06598977
0.0846079 0.009783589 -0.00097022014 -0.0029520334 -0.028012624 -0.027952742 0.022033282 0.0080268625
-0.005109204 0.0106460545 0.0023943144 0.0057770135 0.003014829 0.002840628 -0.019239785 0.03272726
0.03613238 0.019749798 0.023597565 0.03671765 -0.058656286 6.830702e-05 0.019395964 0.013286095
-0.001385014 0.012653163 0.0031557812 0.005726007 0.05132606 -0.035318166 -0.013125344 0.028032986
-0.0021160957 -0.0047825575 -0.015642472 0.019915301 -0.030707477 -0.026920559 -0.0062552663 0.0030985742
-0.011436357 -0.0058361357 -0.021203555 -0.026376847 0.039468996 0.027042808 0.03039002 0.03910811
-0.02415773 -0.009684833 0.02745593 -0.014287704 -0.006387977 -0.021770684 0.023513502 0.009076974
-0.0012014564 0.014768217 -0.039154813 0.017745597 0.04080948 0.03849705 -0.003729353 -0.0033146986
-0.020547071 -0.0116032995 -0.025993166 -0.03498926 -0.05692933 -0.012913809 0.07088821 0.0015064691
-0.061897952 0.0065969224 0.014369637 0.007655036 -0.0049642096 0.015963094 0.021029526 0.025850326
-0.007453446 -0.003225403 0.0017018918 -0.024813479 -0.008760395 0.001398971 -0.009844348 -0.018364541
0.040046584 0.04610273 -0.040213756 -0.040982764 0.030827912 0.043361913 -0.028857397 0.00076903857
-0.019773412 -0.009735446 -0.024878994 -0.029917115 -0.0067241895 0.009635711 -0.003843624 0.04346489
0.01997021 0.07018804 -0.017012797 -0.0052958406 0.03348878 0.015073127 -0.017187877 -0.040948365
0.008764382 0.0036826117 0.034108765 0.024405789 -0.025573138 0.024161976 0.014289747 -0.067469284

motion_mlp.mlps.1.fc0.fc.bias f4 [50]
00000000: 2646 60b6 6b64 0035 d4d5 0bb7 e85e 9b36
00000010: d032 a6b6 265b 9f36 1618 c135 ffc9 9bb5
00000020: 18b1 7b36 64ad c536 a83e e8b6 0884 7636
00000030: accc 42b7 2d04 64b7 6bb3 a936 d999 8a35
00000040: e8fe 55b6 b89c 5bb6 5e86 07b6 a3e9 7a36
00000050: 110a bfb7 cca6 32b7 0ff5 b3b6 3d48 e435
00000060: 2f63 88b6 4562 6f35 9e41 aa36 7e31 a335
00000070: 0af4 80b7 a768 e1b6 de63 a836 60f9 a237
00000080: ca52 55b6 9764 eeb6 3489 6837 ef98 5c37
00000090: c265 ba36 cb38 c936 cda2 e6b5 a98d 99b7
000000a0: c4f3 5d35 a500 7436 aeba de35 ac19 b536
000000b0: 4b01 4837 4acd e2b5 4ae1 bd36 b711 9e34
000000c0: ab4d 4b35 d289 5736
-3.3419433e-06 4.7829843e-07 -8.334831e-06 4.6304085e-06 -4.953101e-06 4.7491803e-06 1.438663e-06 -1.1607189e-06
3.7504997e-06 5.891243e-06 -6.921433e-06 3.6733709e-06 -1.1610955e-05 -1.3590831e-05 5.0574795e-06 1.0326577e-06
-3.1887848e-06 -3.2724765e-06 -2.019478e-06 3.7388897e-06 -2.2773662e-05 -1.0648462e-05 -5.3631443e-06 1.7008348e-06
-4.0646623e-06 8.917744e-07 5.0740337e-06 1.215885e-06 -1.5372429e-05 -6.7177057e-06 5.0184162e-06 1.942803e-05
-3.1787663e-06 -7.104663e-06 1.3860223e-05 1.31486295e-05 5.555078e-06 5.9968784e-06 -1.7183717e-06 -1.8304987e-05
8.268364e-07 3.6359208e-06 1.659462e-06 5.397209e-06 1.192123e-05 -1.6898059e-06 5.658866e-06 2.9442683e-07
7.5736415e-07 3.2117719e-06

motion_mlp.mlps.1.norm0.alpha f4 [1, 54, 1]
00000000: 5ec7 993d 8d9d 803d d952 263e 6646 a63d
00000010: 80d9 8b3d 0113 a23d 954d 703d 2400 9c3d
00000020: 954b 6d3d 8a85 d43d 84f2 053e 449e 743d
00000030: 5c74 903d 304f 953d 8b60 543d 04e4 a33d
00000040: eb78 923d cdab 903d 7c09 a63d 1cec 393e
00000050: e890 843d cde7 8e3d 5e85 a73d e3cd 933d
00000060: 6e02 b53d 57d7 a23d 810c 863d c0be 6c3d
00000070: 91e6 793d 609c 903d 1598 9b3d 102b f63c
00000080: bf4e 293d 2f67 613d 25a4 bf3d 846f 7c3d
00000090: 6359 7f3d 22cb b73d b187 823d da22 b53d
000000a0: ccd2 943d 6c63 943d 974f a33d 9236 8a3d
000000b0: 153b 973d 66ae a63d 599c 403e e38f 8f3d
000000c0: f485 a93d 8865 fa3d 35c6 8f3d c928 9a3d
000000d0: 4013 8a3d 2a0e d43d
0.075087294 0.062800504 0.16242541 0.08118896 0.06828594 0.07913781 0.058667738 0.07617214
0.05793341 0.10377033 0.13080794 0.059721246 0.07053444 0.072904944 0.051849883 0.08002475
0.071519695 0.070640184 0.08107278 0.18156475 0.06472951 0.06977806 0.08179735 0.07217004
0.08838354 0.07951229 0.06545354 0.0577991 0.0610109 0.07061076 0.07597367 0.03004983
0.041334864 0.055030044 0.0935748 0.061629787 0.062341105 0.089742914 0.06373537 0.08844538
0.07266769 0.07245526 0.07974165 0.0674869 0.07384316 0.081387326 0.18809642 0.07009866
0.08277503 0.12226397 0.07020227 0.075273104 0.06741953 0.10354264

motion_mlp.mlps.1.norm0.beta f4 [1, 54, 1]
00000000: d1ad 10bc 5413 673c eb9f adba d051 11bb
00000010: 8777 54ba 02d4 8dbb 8b50 b6bb 0b38 91bb
00000020: fe11 7ebb 24ab eabc afc7 c53c 0947 80bb
00000030: fcb4 1fbb be4b dabb c237 0c3b 1b9b bf3c
00000040: d00f 533c bfc1 023c fe0e aabc b082 f53b
00000050: 1f57 27ba 830f 71bb ee85 a8bb 7131 a0bb
00000060: 9622 853c 4c4e 463c f188 9ebb 3870 333b
00000070: 6af2 933a 59ee f83a 4f94 bf3a 9914 f53b
00000080: 5336 88bc b961 3f3b 7cb7 cfbc 24d5 523b
00000090: ed61 203b 953b 5e3d b35c 35bb 5c50 c43c
000000a0: 7ff9 3bb9 0caf a7bb 3d0f 1abb 0a6e 12bb
000000b0: e15d 87bb 24a3 523b c770 77bb ded3 46bc
000000c0: 1c41 38bb 7a4d 713c 23fd 66ba 2b68 43bc
000000d0: 0fee 573c bf51 27bc
-0.008830504 0.014103729 -0.0013246512 -0.0022174008 -0.0008104969 -0.004328252 -0.0055638007 -0.0044317297
-0.0038768048 -0.02864606 0.024143068 -0.003914718 -0.002436935 -0.006661861 0.002139554 0.02338939
0.012882188 0.007980763 -0.020759102 0.007492386 -0.00063835265 -0.0036782927 -0.005142919 -0.0048887064
0.016251843 0.012103628 -0.004838102 0.002738012 0.0011287455 0.0018991932 0.0014616343 0.007479262
-0.016627466 0.0029202534 -0.025356047 0.0032170499 0.002447243 0.05425604 -0.0027673661 0.0239641
-0.00017926654 -0.0051173028 -0.0023507618 -0.002234342 -0.0041310643 0.0032140696 -0.003775643 -0.012135474
-0.002811498 0.0147279445 -0.0008811524 -0.011926691 0.013179316 -0.010212361

motion_mlp.mlps.2.fc0.fc.weight f4 [50, 50]
00000000: 98f8 bcbc 0930 a5bc b430 fd3b 9c4c 03bd
00000010: 98cd 5abb f1d3 58bb cd6d 18bd 7a99 4bbc
00000020: 0940 d03c f781 4abc 26a1 59bc 5234 b13b
00000030: 2f5a 9fbc 839f 12bb 9ed7 8bbb 3945 96bd
00000040: 9a89 3fbb a62c 1cbd 21fd 6b3b b2b8 813d
00000050: c0c3 d3bc 07c1 96bc 1f53 a0bc 2913 b3bc
00000060: 8105 113d 737b 3fbb dba2 d0bc ffb4 c73c
00000070: 5e22 b0bc 651a 5fbc 17da 5d3c 26cb e9bc
00000080: dcb1 41bc f19b b3bb d6f0 d4bc 0e35 29bc
00000090: 4cdc 2ebd 18c9 babc 5797 8bbc 244f 96bc
000000a0: b62d 593c 1408 29bc bb9a c03c c078 a4bb
000000b0: d504 68b9 810a fa38 dc4c 063d 4d34 a6bc
000000c0: 6b45 c63c 65a9 86bc 6e8a 613b 3efd cdbc
000000d0: f5bb e0b9 743f fcbc 0740 9abc d2ff 9dbb
000000e0: 1022 2bbc 50fd 17bd 97a0 6fbc 9fe3 8fbc
000000f0: 9d97 03bc 499f 4a3b 710d 3cbd 8ea7 f93c
00000100: cf25 debc 4ba3 17bd 614f 93bc 13c6 62ba
00000110: bdba 09bc 55ad 083d 7c65 4dbc 08f6 cebb
00000120: b446 15bd 1ee2 6c3c 2dbd bcbc 47fb 29bb
00000130: bf65 0ebd 9e7d 76bc c09c 16bd 5ac4 9cbc
00000140: 6ca9 15bb ad55 8d3b 7510 8abc 078f b23c
00000150: eace 843a e193 1abc 8b9c bdbc 1d88 453b
00000160: 1aa0 b1bc e69f 33bc f8e4 2dbc 122e 2d3c
00000170: 5a5b e9bc cb46 06bb 6411 f43b 62ad 2a3c
00000180: 8235 83bc 90fa 85bb 8931 7c3c f885 b5bb
00000190: 6091 9bba 9207 57bc 1620 ad3b af32 4ebc
000001a0: 9306 4dbc 2c9c 2d3d 07d3 45bd 9f84 b8bb
000001b0: 8bf5 bb3b 25a6 6f3b 79be d7bc 2ce4 5d3b
000001c0: e38a 233c b16f 063c 48c5 e8bb 5198 32bd
000001d0: 0f40 3dbc 1ac0 9aba 3747 123c 2025 483c
000001e0: aa7c e9bd 5990 3dbc d52c c8bc 875f 6bbb
000001f0: e805 e8bb fa57 4cbc e6cb f2ba 3120 523c
00000200: 1196 2cbb b049 d33b 1869 a6ba b2db 17bc
00000210: f6e4 0d3a eeab 8e3b d7be d53c a772 58bd
00000220: 9a7d 44bc dea4 1c3b 825c ddbc f847 153e
00000230: 9cbc c9bb 900a 8b3c 8665 353c c032 d03c
00000240: 9f63 743b 7b07 b43c d408 8a3c cbc2 2a3c
00000250: a404 473b 6f19 053d 82d6 563c 94d2 003d
00000260: 42b1 b43c 0832 86bd 85d9 22bd cfc1 4cbc
00000270: c300 c03c 6dcd 1ebb 7024 c23c ae92 14bb
00000280: f25a a13c 7913 feba 0f75 d8bc 2aa5 e83b
00000290: 03c2 563c 7785 d13a 081b d03b a11f 13bc
000002a0: f345 9a3b 9201 543c 4edc bf3b ac4c e8bb
000002b0: 7d3f 92bc 0c49 8f3d c509 9ebc 2b0b f13c
000002c0: b26b 123d 4124 ad3b 3f31 aabb 7119 a73c
000002d0: 07a2 f33c 690a 703b 2406 3b3c 01da c83b
000002e0: 223a 373c e125 513b 9589 9b3c aa12 3e3c
000002f0: 4915 ab3c 0248 b83c 1824 b7bc 99e4 37bc
00000300: b11f e1bb 2b97 933c 2521 5dbc 2b2c 2abd
00000310: 50cd 6a3c d9bd 9e3b dc5b d5ba 643b 683b
00000320: 0dc5 d73c fe77 3c3c 2c45 1abb 79e4 243c
00000330: 8965 dfbc 0a09 07bd e82d 38bc e5e8 abbc
00000340: cf86 b23c c969 1fbc fb75 8eba 4a10 b6bb
00000350: 469e 583d 0d38 fa3b 3aad a5bc 08ec a03a
00000360: 449b b83b ad92 03bd 88c3 66bb 359f 663c
00000370: 4cd2 babc aeee 913b 90e4 57bd 59c5 cfbc
00000380: 175d e03c 4620 123c 6832 bf3b 882f 933c
00000390: e953 083c 5277 2abc 5100 373c 76d9 893d
000003a0: bfef b03c 9def 8dbb ef5e 443c 8207 09bd
000003b0: 4f3d 99bc 8830 41bc fbe2 463c d9a4 673c
000003c0: a9d0 97ba 9cef e5bc 66bf 873a 5c00 5c3c
000003d0: cbce d13c 85dd 0f3b 31db 00bd 69e0 cdbb
000003e0: d8a7 84bb facd 26bb c444 29bc f53c 6ebd
000003f0: b28c bbb9 eef6 933c 42bd 083c 80cc d8bc
-0.023067757 -0.020164507 0.007726753 -0.032055482 -0.0033386704 -0.0033085311 -0.03721409 -0.012426728
0.02542116 -0.012360088 -0.01328305 0.0054078484 -0.019452183 -0.0022372908 -0.004267647 -0.07337422
-0.0029226304 -0.038128518 0.003600903 0.06334056 -0.025850177 -0.01840259 -0.019570885 -0.021859722
0.03540564 -0.0029217869 -0.02546828 0.024378298 -0.021500763 -0.013617133 0.013540766 -0.028539252
-0.01182219 -0.005481236 -0.025993746 -0.010327591 -0.04269056 -0.022800967 -0.017039938 -0.018348284
0.013255527 -0.010316867 0.023511281 -0.0050192773 -0.00022127044 0.000119228855 0.032788143 -0.02028861
0.024203023 -0.016438195 0.0034414786 -0.02514517 -0.00042864648 -0.030791976 -0.018829359 -0.004821756
-0.010445133 -0.037106812 -0.01462569 -0.017564593 -0.008031753 0.0030917695 -0.045911256 0.030475404
-0.027117638 -0.037020963 -0.017982187 -0.0008650731 -0.008406338 0.033368427 -0.012536403 -0.0063159503
-0.03644438 0.014458207 -0.023039425 -0.0025937126 -0.034765 -0.015044598 -0.036770582 -0.019136596
-0.002283658 0.004313192 -0.01685355 0.021796716 0.0010132466 -0.009434671 -0.023145935 0.0030140944
-0.021682788 -0.010963416 -0.010613672 0.010570066 -0.028485943 -0.0020488973 0.007448362 0.010417314
-0.016016725 -0.0040887073 0.0153926695 -0.005539652 -0.0011868887 -0.0131243635 0.005283366 -0.012585326
-0.012513774 0.042385265 -0.048296954 -0.005631044 0.005736058 0.0036567536 -0.026335942 0.0033857925
0.009981844 0.00820534 -0.007103596 -0.04360229 -0.011550917 -0.0011806518 0.008928112 0.012215883
-0.11400731 -0.01157006 -0.02443544 -0.0035915093 -0.007080782 -0.012472147 -0.0018523901 0.012825058
-0.0026334564 0.006447993 -0.0012696115 -0.009268688 0.0005412841 0.0043539917 0.026091976 -0.052843716
-0.011992836 0.002390198 -0.02702165 0.14578235 -0.006156517 0.01697281 0.011071568 0.025414824
0.0037290824 0.021976223 0.016849913 0.010422419 0.0030367756 0.03249496 0.013112666 0.031450823
0.02205718 -0.065525115 -0.039758224 -0.012497379 0.023437863 -0.002423133 0.023699015 -0.0022670436
0.019696686 -0.0019384465 -0.026423005 0.007099767 0.013107779 0.001598521 0.0063508786 -0.008979709
0.0047080456 0.0129398275 0.00585512 -0.007089218 -0.01785254 0.069963545 -0.019291768 0.02942427
0.035747238 0.005283863 -0.005193859 0.020397874 0.029740347 0.0036627299 0.011415038 0.0061295037
0.011183294 0.0031913447 0.018986503 0.01160113 0.020884173 0.022495274 -0.022356078 -0.0112239355
-0.006870233 0.018016418 -0.013496672 -0.041546028 0.014331177 0.004844409 -0.0016277987 0.003543579
0.026339078 0.011503218 -0.0023539765 0.010064238 -0.027270095 -0.032967605 -0.011241414 -0.020985076
0.021792797 -0.009729811 -0.0010868901 -0.005556141 0.052885316 0.0076360763 -0.020224202 0.0012277374
0.0056337435 -0.032122303 -0.003521176 0.014076044 -0.022805355 0.0044535017 -0.05270821 -0.025362657
0.027388139 0.008918827 0.0058348663 0.017967 0.008320787 -0.010404425 0.011169509 0.067309305
0.021598695 -0.0043315426 0.011985525 -0.033454426 -0.018705992 -0.011791356 0.012139077 0.014138424
-0.0011582571 -0.028068356 0.0010356724 0.01342782 0.025611302 0.0021952104 -0.031459037 -0.0062828553
-0.004048329 -0.0025452361 -0.010331336 -0.058163602 -0.00035772246 0.018062081 0.008345904 -0.0264647

motion_mlp.mlps.2.fc0.fc.bias f4 [50]
00000000: 425e 1e37 086d fa35 5e36 94b4 185b b5b6
00000010: 6821 33b5 d617 08b6 ad58 18b7 edfa 2935
00000020: 27d8 6136 f5fb 04b7 3596 d1b3 a5a1 0ab6
00000030: a083 07b5 9595 88b5 210e 2f34 8a3d 4b35
00000040: 6baa d8b5 01aa 03b7 6654 8a33 464c a6b5
00000050: f0d8 0b36 a0af 96b5 dfee ccb5 c6a1 feb5
00000060: 7252 0d37 d835 a2b5 0c0c 15b4 58f5 2136
00000070: 9eb9 b235 3fa7 f935 a1c9 70b6 cb82 61b6
00000080: 7e73 5f35 6502 d534 4ccd beb5 e24d 9435
00000090: 7b40 d135 56fe 83b6 bcc1 8336 9ea1 83b6
000000a0: b592 4835 27cc 14b7 2b82 bbb5 da83 5236
000000b0: b0c9 26b6 476c 5334 4621 41b4 7841 3d33
000000c0: 3806 d736 60a4 7836
9.43948e-06 1.8658184e-06 -2.7606706e-07 -5.404825e-06 -6.673131e-07 -2.0279454e-06 -9.080552e-06 6.332255e-07
3.365343e-06 -7.926476e-06 -9.7596434e-08 -2.0657692e-06 -5.048296e-07 -1.0176324e-06 1.6303285e-07 7.5712944e-07
-1.6142852e-06 -7.847791e-06 6.441478e-08 -1.2390162e-06 2.0838888e-06 -1.1226984e-06 -1.5268705e-06 -1.8971557e-06
8.423451e-06 -1.2085611e-06 -1.3881089e-07 2.4133678e-06 1.3316055e-06 1.8600621e-06 -3.588015e-06 -3.3603744e-06
8.3242037e-07 3.9676084e-07 -1.4215852e-06 1.1049526e-06 1.559048e-06 -3.933713e-06 3.926658e-06 -3.922919e-06
7.471929e-07 -8.86902e-06 -1.397047e-06 3.1369186e-06 -2.4853325e-06 1.9690297e-07 -1.798663e-07 4.4064535e-08
6.4082233e-06 3.7050559e-06

motion_mlp.mlps.2.norm0.alpha f4 [1, 54, 1]
00000000: 9fac 803d 4f80 533d 3dcf 833d 90c5 463d
00000010: ebcd ab3c e3be 353d c6fb eb3c f878 0b3d
00000020: 9aeb 213d 1f87 6f3d 2250 8f3d f71d d63c
00000030: 3f29 173d 4171 103d 1c5f 213d 4c4d 313d
00000040: 4bca 4b3d cc0f fb3c 0bba 573d 8116 e13d
00000050: f504 093d a831 193d a73b 1c3d 6086 ea3c
00000060: 865b 793d c219 873d 2eef ff3c 33dd 073d
00000070: 6367 e63c 768f ff3c 5e86 0c3d 1b12 883c
00000080: 2dc0 f53c a25c 563d 1b06 3c3d b50a 273d
00000090: 5dd8 0e3d fdc2 6e3d e4cc 183d 3c8a 913d
000000a0: 8e29 283d 207f 2e3d 836d 3d3d e303 f73c
000000b0: 7305 fc3c 534d 283d 8b12 dc3d 7696 3e3d
000000c0: 7ea9 6a3d e6f5 ae3d 16d6 043d 67a0 873d
000000d0: e3ae 693c 3061 4a3d
0.06282925 0.051636036 0.06436012 0.048528254 0.020972213 0.044371497 0.028806578 0.03405091
0.039531328 0.05847847 0.06997706 0.026137335 0.03690457 0.035264257 0.039397344 0.043286607
0.04975347 0.030647181 0.05266766 0.109906204 0.033451993 0.03740087 0.038142826 0.028628528
0.0608783 0.0659671 0.03124198 0.033169936 0.02812547 0.031196337 0.03430783 0.016610196
0.029998863 0.052334435 0.04590426 0.040781695 0.03487431 0.058291424 0.037304774 0.07106444
0.041055255 0.042601705 0.046247017 0.03015322 0.030764317 0.041089367 0.10745724 0.04653021
0.057290547 0.08542995 0.03243073 0.06622391 0.014262888 0.04940909

motion_mlp.mlps.2.norm0.beta f4 [1, 54, 1]
00000000: 9731 75bc c3af 17b9 3132 473d 8e8b e73a
00000010: 61ed 1bbb 389e 243b 9ed1 a83b d9ea 88ba
00000020: f65a aaba 8a35 153c 6565 333d 4551 1ebb
00000030: 47a4 093b afe2 1a3c 79a1 0ebc 1ba2 2abc
00000040: 6799 83bc a10e d3ba 05e4 f43b 64e6 aabc
00000050: b72d 9737 ac26 52ba 83e0 76bb e120 3eba
00000060: 4fbd 87bc e258 f9bb 39f9 2cbb e3e7 36bc
00000070: cd4d a9bb ea95 d63a 53a5 613b e63d b4bb
00000080: 0299 933c c1a7 623b e345 c1bc d88c 86bb
00000090: 592a 85bb d60e 373d 969d 5cbc 1434 3dbc
000000a0: d353 a6bb a74a 5f3b 2a39 c53b 0ee9 5abb
000000b0: 33b2 1dba 00aa 32ba 9318 743b 1b4d 743c
000000c0: 5f93 9eb9 f2a2 33bc e0b9 69bb 710f 86bc
000000d0: 5fcf 7dbb 91ea efbb
-0.014965436 -0.00014465959 0.04863185 0.0017665492 -0.0023792612 0.002511872 0.0051519414 -0.0010445967
-0.0012997079 0.009107003 0.04379787 -0.0024157327 0.0021002458 0.00945346 -0.00870549 -0.0104146255
-0.016064359 -0.0016102382 0.007473471 -0.020861812 1.802189e-05 -0.0008016627 -0.003767044 -0.0007252824
-0.016569762 -0.0076094726 -0.0026393665 -0.011163685 -0.0051667453 0.0016371582 0.0034430816 -0.005500543
0.018017296 0.0034584852 -0.023592895 -0.0041061454 -0.004063886 0.044691883 -0.013465306 -0.011548061
-0.0050759106 0.0034071596 0.0060187774 -0.0033403072 -0.00060156285 -0.0006815493 0.0037246093 0.0149109615
-0.00030245908 -0.010964142 -0.0035663769 -0.016364785 -0.003872834 -0.0073216637

motion_mlp.mlps.3.fc0.fc.weight f4 [50, 50]
00000000: 5603 2ebb e9e5 ffbc 9f5c 853d 23e1 8cbc
00000010: 9aab 01bb 488b 22b9 1348 093d 9c29 c6bb
00000020: 4ddf 183d 8dac bfb8 1e20 a33b 4340 9ebc
00000030: e6ec a1bb 2e00 4ebb 76f8 b0b9 be6b 123d
00000040: 573d 413c beca a03c 9920 74bc 4e5d 39bc
00000050: 8684 bbbc 42a8 11bc d25c 03bd 3035 b8bb
00000060: 955a c93c 9fba 943c c49e 003c 8aef 8eba
00000070: 5ab0 f93a 3c8e b03c e112 e4bb 9ea0 c33b
00000080: d98c 143c 7bb2 a03b 9240 a23c 301b 81bd
00000090: b86b 0fbc e268 8c3c 2070 d7bc 6c2f 1f3d
000000a0: fe96 893c c7dd 9e3c 1204 c33c 0386 ea3c
000000b0: 31d4 96bc 891c cebc a562 94bc cc79 a73b
000000c0: 3f65 c1bc 13b7 3abb 2025 423b 98e3 8cbd
000000d0: 1613 283c e30d eebc d236 d43c ee0b 1a3b
000000e0: c9b5 563c 98a6 f7bb 3979 083c f1ad 8abc
000000f0: fa02 ae3b fa88 f43c 334a 82bc ee95 8c3c
00000100: 1489 44bb 76fa 9d3c 6ea8 f7bb 1d99 17bb
00000110: 0015 c6bb 1567 dc3c 61b4 943c b1ff d2bc
00000120: f01f b8bc 9754 823d 7e4b 8bbc 9b83 6a3b
00000130: ba90 ecbc 2ded 9b3b 2df9 813b b49e 783c
00000140: 7d43 43bd e5e1 60bd 96c9 433c 916f 82bc
00000150: afce bebb 0b31 debb 9aa1 41bc 579a bcbc
00000160: 5f8b 6a3b 3a6a 12bc 1fd3 3abc 17fa 81bc
00000170: 6042 4238 b09e 25bb 1226 11bd 9686 cbbc
00000180: 0b55 a43c 0555 7bbc f96b c93b 6175 59bc
00000190: cf3b 4aba 4d02 893a 4a28 50bd e3b3 34bc
000001a0: b98e 7ebb 74d1 003d ca6f d23c c395 42bd
000001b0: 2d01 673b 6c9d b9bc 5111 c93a 6e63 753c
000001c0: adee 0abc 7eb8 40bd 7946 673c 42b3 fbbc
000001d0: be57 37bc 15a3 ccbc f869 8f3c d378 f5bc
000001e0: d09f f3bc e43d 15bc e3ac 4cbc 3ca9 0dbd
000001f0: a653 86bb ee84 cdbc 35f5 4b3d 10ad c43b
00000200: 0ca4 b4bc c822 b5bb 2348 333d faf4 213c
00000210: 6005 c1bc fe67 4b3c 693c 11bc ce44 9cbb
00000220: b3c5 523b 92b2 fb3b 991a 133d b249 f33b
00000230: 2104 3d3b 3b8b bb3b 732d 67bc 4f2d 84bc
00000240: eb16 2e3c b3f7 f1bb 1e4c 1cbc e48f 23bd
00000250: 8010 a93a f61f 013d 7d7c f7bb 0719 873c
00000260: 68e9 e0bb e247 a53b f46a 223c a73e cebb
00000270: 687e 35bd 0f80 f03c 1fa3 04bc 1798 943c
00000280: da75 433c a225 b2bc db89 a53b bfd7 dcbc
00000290: d285 8bbc ebc3 73bc 3bff 5f3c cbdc 13bc
000002a0: 0854 a03c c57b 2dbd 0d3c 4dbc 8291 81ba
000002b0: b599 e13c 4d1e e1bb dcee 0e3c fc1a a93c
000002c0: 5e30 28bb 89ff 86bd 50fe e33c 6a09 1f3d
000002d0: f4dd 84bb 3cfc 293d 3b7f 213a be0d 9c3b
000002e0: cd03 123c 48eb 493c ae1b 013d 80a5 703c
000002f0: a5d6 1abd 712d 323b 39e5 7d3c c79e 84bc
00000300: 5340 7bbc 6c85 26bd 79f9 aabc 563e d6bb
00000310: 2253 223d 7fb3 3fbb 5e47 a1bc 924d 433a
00000320: e76c eb3c 0edc b4bc 9694 9abc 5a56 23bc
00000330: 5340 cc3c f89a 74bd 9915 7c3d 9d4c 533c
00000340: 0bd9 7bbd 5ab3 d13b bd6b 20bb 987e 14bd
00000350: 1835 0fbd 6800 8f3c 3e95 3fbb d384 4b3c
00000360: 9bbd af3c 7faa ddbb d925 683c 3ddf 1a3d
00000370: 7cd5 073d d651 a6bc 1415 1abc becf 9f3c
00000380: a1e9 d53c 142f 46bc 6eed d1bb ff61 a83c
00000390: 0a2f 47bc edb4 abbc 19ff 17bd 29d6 0b3b
000003a0: a7ca a9bc 2046 3abd 135e fc3c ac38 613b
000003b0: c26d 05bd 7654 2d3c b775 643b 90d6 063d
000003c0: c1ed 323c 3059 3a3d fac4 2d39 d9e0 71bc
000003d0: f7a2 69bc 0818 e3b9 eac0 14bc 1ff3 963c
000003e0: c0d4 6d3b e072 79bc 272a 6c3c b15e 8fbc
000003f0: 132f cdbb 70f3 d3bb 269a 0abd f727 c7bc
-0.0026552281 -0.03123756 0.06511807 -0.017197197 -0.001978612 -0.0001550141 0.033516 -0.0060474407
0.03732233 -9.13973e-05 0.004978194 -0.019317752 -0.0049415706 -0.0031433213 -0.00033754454 0.035747282
0.01179441 0.019627925 -0.01490035 -0.0113137495 -0.02289034 -0.008890213 -0.032070942 -0.005621575
0.024579326 0.018155394 0.007850353 -0.0010905128 0.0019049749 0.021552198 -0.0069602584 0.005970075
0.009066784 0.004904089 0.01980618 -0.06304014 -0.0087537095 0.017139856 -0.026298583 0.038863584
0.016795631 0.019392861 0.023805652 0.028628355 -0.018411728 -0.025160091 -0.018113444 0.005110955
-0.023607848 -0.0028490468 0.002962418 -0.068793476 0.010258457 -0.029059356 0.025905047 0.0023505646
0.013104864 -0.0075577013 0.008329683 -0.016928645 0.0053104134 0.029850472 -0.015904522 0.017161336
-0.0029988931 0.019284468 -0.00755792 -0.0023132034 -0.006044984 0.026904622 0.018152418 -0.025756689
-0.022476166 0.063637905 -0.01700377 0.003578401 -0.028877605 0.004758498 0.0039664716 0.0151745565
-0.047671784 -0.05490293 0.011949917 -0.01592234 -0.0058229784 -0.0067807487 -0.011818314 -0.023022814
0.0035788638 -0.008936459 -0.011402874 -0.015866322 4.631502e-05 -0.0025271587 -0.035436697 -0.024844449
0.020060083 -0.015340094 0.0061469045 -0.013272614 -0.00077146007 0.0010452956 -0.050819673 -0.011029216
-0.0038842394 0.03144975 0.02568807 -0.047506105 0.0035248504 -0.022658072 0.0015340244 0.014977319
-0.008479756 -0.047050945 0.014115923 -0.030725125 -0.011190353 -0.024980107 0.017506585 -0.02996484
-0.02973929 -0.009108994 -0.012492391 -0.034585223 -0.004099327 -0.0250878 0.049794395 0.006002076
-0.02205088 -0.005527828 0.043769967 0.009885067 -0.023562133 0.01241493 -0.008864501 -0.0047689443
0.0032161295 0.0076811993 0.035914037 0.0074245567 0.0028841572 0.0057233847 -0.014109957 -0.016134886
0.010625581 -0.0073842644 -0.009539632 -0.039932147 0.0012898594 0.03152462 -0.007552682 0.016491426
-0.0068637617 0.0050439695 0.009913195 -0.00629409 -0.044310004 0.029357938 -0.008095532 0.018138928
0.0119299535 -0.02174646 0.005051834 -0.026958345 -0.017031584 -0.014878253 0.0136716915 -0.009024809
0.01957132 -0.042354364 -0.012526524 -0.0009885284 0.027539114 -0.006870067 0.008723941 0.02064275
-0.0025663595 -0.06591708 0.027831227 0.038827337 -0.004054779 0.041500315 0.00061606214 0.0047623804
0.008912039 0.012324162 0.031520538 0.014687896 -0.037802357 0.002718773 0.0154965455 -0.016188992
-0.01533516 -0.040654585 -0.020870911 -0.0065381927 0.039630063 -0.0029251275 -0.01968735 0.00074502185
0.028738452 -0.022077587 -0.01886968 -0.009969318 0.024933016 -0.059718102 0.061544035 0.012896684
-0.061486285 0.006399554 -0.002447828 -0.03625354 -0.034962744 0.017456248 -0.0029233242 0.0124218045
0.021452716 -0.0067647095 0.01416918 0.037810553 0.03316258 -0.020302694 -0.0094044395 0.019508239
0.02611238 -0.012096185 -0.0064064777 0.02055454 -0.012157211 -0.020960296 -0.037108514 0.0021337366
-0.020726515 -0.045477033 0.030806577 0.0034366054 -0.032575376 0.010579219 0.0034860203 0.032919466
0.010920943 0.045495212 0.00016571945 -0.0147630805 -0.014260045 -0.0004331472 -0.009079197 0.018426476
0.003629014 -0.015225142 0.014414347 -0.017501207 -0.006261715 -0.006468229 -0.033838414 -0.024311049

motion_mlp.mlps.3.fc0.fc.bias f4 [50]
00000000: 358f d836 103c a536 bd3f ec36 b9f5 9db5
00000010: 2ad8 8fb6 b24e b7b5 592f 1937 00ef 2336
00000020: c118 4236 e99c ba36 a105 39b6 f82d 53b6
00000030: 108c ccb5 ad37 6136 8c7f 1f36 592b 7cb6
00000040: 373d 6a35 c1a0 f536 1de4 1d37 6a1a 01b7
00000050: 86c3 13b7 fb93 ed36 699e 3eb6 41be f135
00000060: e245 cab5 9d46 9fb5 4af1 4d37 e8d2 7235
00000070: 3bd9 f335 459c cdb6 81f6 58b6 6c1f 9235
00000080: 3787 68b6 50d5 42b3 d9bd 02b7 85e7 e1b6
00000090: 3032 4736 a1eb 8a36 61d9 5635 e2e3 57b6
000000a0: 6f85 9134 79c0 9b35 3d9b d1b5 b58f 8536
000000b0: 5225 97b6 5401 c2b5 8a2b fdb5 4460 c5b6
000000c0: a95a db36 0776 8fb6
6.453973e-06 4.9243754e-06 7.040768e-06 -1.1768926e-06 -4.286897e-06 -1.3657466e-06 9.130535e-06 2.442801e-06
2.8922661e-06 5.5614987e-06 -2.7570425e-06 -3.1468207e-06 -1.5239948e-06 3.356002e-06 2.3767088e-06 -3.7576158e-06
8.726087e-07 7.320283e-06 9.411041e-06 -7.695149e-06 -8.807407e-06 7.0803776e-06 -2.8404413e-06 1.801127e-06
-1.5070511e-06 -1.1866974e-06 1.2275132e-05 9.0458934e-07 1.8168133e-06 -6.1276683e-06 -3.2329992e-06 1.0886993e-06
-3.46494e-06 -4.536315e-08 -7.792806e-06 -6.732475e-06 2.9682524e-06 4.1401513e-06 8.003754e-07 -3.2170142e-06
2.710544e-07 1.1604417e-06 -1.5616894e-06 3.9804386e-06 -4.5044953e-06 -1.4454513e-06 -1.886264e-06 -5.8822643e-06
6.537263e-06 -4.2754723e-06

motion_mlp.mlps.3.norm0.alpha f4 [1, 54, 1]
00000000: 2062 743d 9a53 833d e6b0 c73d 3b09 393d
00000010: 47d7 083d 1808 153d 1868 9d3c 9e99 133d
00000020: a07c 263d a003 783d 907e e63d ed7c 203d
00000030: 1473 473d a020 2d3d c92b 673d 1e4b 563d
00000040: 4b07 563d 33bb 1d3d 2651 3c3d 00aa f33b
00000050: 2aaa 543d dd8c 543d 9fa0 353d c8b6 383d
00000060: ecf7 853d c4df b73d c1ac 233d c97c 4a3d
00000070: 8e06 9f3c a02c 673d 0a44 c23c 2a70 ac3c
00000080: b0e6 543d 4396 343c d17c bb3d b11b 3c3d
00000090: ea7d 003d 2d76 aa3d 53e4 713d 907c 813d
000000a0: 37d2 883d 9f35 813d 8792 303d 5df2 823d
000000b0: 56ec 2b3d 859a 5b3c f423 403c 1f90 243d
000000c0: ea5e 653d e613 ea3d 475b 203d 1ab3 9c3d
000000d0: b4e1 ae3d a166 cb3c
0.05966389 0.0641243 0.097505376 0.04517482 0.03340843 0.036384672 0.019214675 0.036035173
0.040646195 0.060550332 0.11254609 0.03918164 0.04869373 0.04226744 0.05643824 0.05231773
0.05225305 0.038508605 0.045975827 0.007436037 0.051920094 0.05189215 0.044342633 0.04509619
0.06541428 0.08978227 0.039959673 0.04943541 0.019412305 0.056439042 0.023714084 0.021049578
0.051977813 0.011022153 0.09154666 0.045924846 0.03137008 0.083233215 0.059055638 0.063225865
0.0668072 0.063090555 0.04310849 0.063938834 0.041973434 0.01340354 0.011727322 0.040176507
0.05599872 0.114295766 0.03914955 0.076513484 0.08539143 0.02482921

motion_mlp.mlps.3.norm0.beta f4 [1, 54, 1]
00000000: 2b52 123c 9e10 b03a 2777 bc3c dbbc a6bb
00000010: 0d7f f4ba 82ee f4ba 7da0 70ba d3e3 013c
00000020: ec94 1bbb b6b3 07bc 00c9 85bb ae03 54bb
00000030: 937b e13a 8adc 19bc e66b 27bb 29bd e73b
00000040: 67fe c3ba e239 87bb 18e0 b4bb c8b8 bb3c
00000050: b14d 7ebb a819 d4ba bb9a cf3b eb9e d33a
00000060: 5468 a6bc 4c4d 07bc ac53 303b a751 e8ba
00000070: c1c7 873c ba4a 1f3a 6ad4 08bb cfdf b8bb
00000080: 697b 513c f06c 5cbc ff14 e33c dcb1 bfbb
00000090: 8839 ea3b e674 c03c 0d46 b73b 874e 0aba
000000a0: 3357 28bb 56f6 10bc f730 49bc bb54 353a
000000b0: 7f88 00b9 0553 0fbc 6fd0 1b3c 7aec 15bc
000000c0: 06aa 05bc e927 b2bc fc00 b73a a20c cd3c
000000d0: 71ae d238 fff1 09bb
0.008930723 0.0013432687 0.023006035 -0.0050884313 -0.0018653587 -0.0018686804 -0.0009179188 0.007927853
-0.0023739887 -0.0082825925 -0.004082799 -0.0032350826 0.0017202966 -0.0093909595 -0.002554649 0.00707211
-0.0014953137 -0.004126773 -0.005519878 0.022915259 -0.0038803632 -0.0016181963 0.006335584 0.0016145384
-0.02031342 -0.008258175 0.002690534 -0.001772453 0.016574742 0.0006076504 -0.0020878562 -0.0056419144
0.012785771 -0.013453707 0.027719973 -0.00585006 0.0071479715 0.023493242 0.0055930675 -0.0005275984
-0.002568674 -0.008847794 -0.012279741 0.0006917228 -0.0001225788 -0.008747821 0.009510144 -0.009150619
-0.0081582125 -0.021747546 0.0013962085 0.025030438 0.000100460726 -0.0021048782

motion_mlp.mlps.4.fc0.fc.weight f4 [50, 50]
00000000: 6cd8 77bc a6be cf3c 2934 12bb 5725 2e3d
00000010: bcc2 033c 51cd 41bc 5be6 e7bd 44ec afbc
00000020: a127 2c3d 4728 bbbb c2fa 973b 70d2 25bc
00000030: fac1 363c 45c4 713c 2e4e e9bb c580 0ebd
00000040: a48e f63b 0374 983b 2457 09bc c452 95bc
00000050: 82f1 b1bc b00c f53c 0a6b b13c ced4 05bb
00000060: 7df9 1abd 5da0 653c 5eb3 8b3c 8a35 0e3d
00000070: 15f3 1cb8 50df 263d 4ba8 b33b b0e4 f8bc
00000080: 4ec0 3abb 3943 6f3b 1dfa 88bc 9d80 d3bb
00000090: fe79 25bb c103 223d 70b6 c8bc 32df 6bbc
000000a0: aceb c73c 3133 0cbd 1440 05b9 0e03 113b
000000b0: 8a5b 343c 8fe8 863c 7a49 f6bc cc38 113c
000000c0: 11b0 6b3c 75b3 a4bd 0fd9 fc3c 200c 9d3b
000000d0: 993c 0fbb 3972 81bd 0d94 7d3c 31c9 2fbc
000000e0: 2177 4bbc 566a 96bb 4777 e33c 34e1 1c3b
000000f0: afa0 243d 3993 f63b 8acd e7bb 349f e5bb
00000100: c59b 413c 3884 bf3c ccae 27bc 2c9c e2bc
00000110: fd78 a63c 37eb 98bc 6102 973c df30 e6bb
00000120: d824 d33b 25f2 1fbc 3315 813c 6b40 8d3c
00000130: 42d5 b8bc 6780 11bd 11c0 4cbc d9e0 43bd
00000140: a286 12bc 6cf4 1abd 6fa6 3c3c 71e9 0cbd
00000150: 3885 1d3d e5eb 9c3c 5384 c4bc c3fa de3c
00000160: 7886 66bb fcd7 d4bc 0d02 ea3c 017a 113d
00000170: 5394 96bc 8de3 7cbb 5b4c 0c3d 456b 96bc
00000180: 53b6 953b b4b7 bbbc ced0 d4bc 03d7 97bb
00000190: 6123 3abc 1bdf 5e3c a422 9e3c 345c 0dbd
000001a0: 848e 3abb aec9 5cbc e799 0e3d 1216 ca3c
000001b0: 07d7 e63c 8a5d 853b b33e 223a 7ae7 943c
000001c0: 51ea ae3c 0f8a a43c cd8c 07bd f059 a93c
000001d0: b9d4 013a 3379 383c 0538 283d a445 f63a
000001e0: 38a8 2c3d d5d8 883c 66f6 263c 2252 68bc
000001f0: 468d 1f3a ba5d b73c 21c5 063d b334 57bd
00000200: 4053 3f3d 52a9 ab3b 2da8 80bc 9ba2 243b
00000210: acec 813c 1e9c f6bb 8b30 08bc 3670 1abc
00000220: 306f 883b d6bd 2fbc 58c3 023d 6969 2c3d
00000230: b439 1ebc ae50 59bc 2cbc d73c 115f d3bb
00000240: 2949 d4bc f027 51ba 5304 143d dcf2 f33c
00000250: 456d c53b 949a 293c fc1d 62bc 610d c03c
00000260: c0f5 b23c 7097 d5bc dccf 72bd 34fc babc
00000270: ef65 2abc 8467 44bd e32f 1d3d da1a 153d
00000280: 8636 603c 2009 3b3d 1c25 6fbc b3e2 d03a
00000290: 9b43 833b 838d dcbc 29fc 3dbd f7cc 7e3a
000002a0: 44a6 ac3c cc87 e03b e548 653a af32 4bba
000002b0: 27e4 dcbb e61f 7d3c fc8c a1bc 37d9 dc3b
000002c0: e140 223d fe9d 2e3d 9491 c6bc c962 86b8
000002d0: 658c acbc 05ac 2abd 9498 2dbc 3cdc 253d
000002e0: 780e a53c 4e53 b03c edc6 bb3c 763a 103d
000002f0: ee8d 56bc 34ab 1cbc 52c1 62bc 0c5e b4bb
00000300: 2a43 943c cdd2 44bb e87d 21bb a4d0 053c
00000310: 87ad c93c 44e6 d43c 0dc3 3ebc 9704 b73c
00000320: e3c5 25bd aa31 2c3c 78c8 c7ba 67b1 303d
00000330: 7e44 79bb f682 88bb 0c1c 063d 8f96 19bc
00000340: 3da2 fa3a cdc5 a5bc 380d 313c c318 b1bc
00000350: 5fe3 cfbc ac90 7e3c c7e1 a03b f0dc f9bc
00000360: d0eb 94bc 44ab c3bc acc4 46bc a290 dcbc
00000370: de69 813c 08bd 1b3c fa0f abbc 3141 e03c
00000380: 107a 233c 1cd8 5e3d 85cb a3bc 2a92 d2bc
00000390: 7b66 57bd 2bc6 ab3b cbb4 25bc a7da 40bc
000003a0: bd5b b7bb 8bee 8d3c a502 f53c 57e9 173d
000003b0: 2ab3 a83b b643 4d3a d779 063c cd25 6f3b
000003c0: a616 f9bc 6e31 e6ba 7171 08bd 3ed6 85bc
000003d0: d7c7 b73c 0c3a 03bd 1182 e5bb 5a09 02bc
000003e0: 6f1d 12bd 00ee 2dbd 6ab0 b23c 84bb bebc
000003f0: 165e 9639 650a 0c3c ecf1 993b 98f1 68bd
-0.015127283 0.025359463 -0.0022308922 0.04251608 0.008042034 -0.011828736 -0.11323234 -0.021474965
0.04202998 -0.0057115885 0.004638047 -0.010120973 0.011154646 0.014756267 -0.0071199154 -0.034790773
0.0075243283 0.0046525015 -0.008382592 -0.018227942 -0.021721605 0.029913276 0.021657486 -0.002042103
-0.037835587 0.014015284 0.017053302 0.034719028 -3.7419686e-05 0.04074031 0.0054827086 -0.030382484
-0.002849597 0.0036508574 -0.016720826 -0.006454541 -0.0025249715 0.03955436 -0.024501055 -0.014396476
0.02440437 -0.034228507 -0.0001270774 0.0022127065 0.011008153 0.016468314 -0.030064333 0.008863639
0.014385239 -0.08042041 0.03086522 0.004792705 -0.0021856187 -0.06320614 0.015477193 -0.01072912
-0.012418539 -0.004590313 0.027766837 0.0023937942 0.040192302 0.0075248745 -0.0070740627 -0.007007504
0.0118169235 0.023378477 -0.010234546 -0.02766236 0.020321364 -0.018666847 0.018433752 -0.007024869
0.006443601 -0.009762322 0.015757179 0.017242631 -0.022562627 -0.035522845 -0.012496964 -0.047821853
-0.008943232 -0.037830755 0.01151429 -0.034402315 0.038457125 0.019155452 -0.023988878 0.027219182
-0.0035175364 -0.025981896 0.028565431 0.035516743 -0.018381273 -0.003858778 0.034252506 -0.018361697
0.004568854 -0.022914745 -0.025978472 -0.0046337857 -0.011360974 0.013602997 0.019303627 -0.03451176
-0.0028466294 -0.013475819 0.03481474 0.024668727 0.028178705 0.0040699886 0.00061891525 0.018176783
0.021351965 0.020085363 -0.033093262 0.020672768 0.00049526576 0.011259365 0.04106905 0.0018789065
0.042152613 0.016704956 0.010190582 -0.014179738 0.000608642 0.02238356 0.03290284 -0.052540492
0.046710253 0.0052386904 -0.015705192 0.0025121334 0.015859924 -0.007525935 -0.008312355 -0.009426167
0.004163645 -0.010726413 0.031924576 0.042092714 -0.009657312 -0.013263864 0.026334845 -0.006450542
-0.025913792 -0.00079786684 0.036136936 0.02977889 0.006024989 0.010351796 -0.013801094 0.02344388
0.021845698 -0.026073188 -0.05928026 -0.022825338 -0.010400279 -0.047950283 0.038375746 0.03640256
0.013684874 0.045663 -0.01459625 0.0015936702 0.004005862 -0.026922947 -0.046383057 0.0009719873
0.021075375 0.0068521257 0.0008746519 -0.0007751388 -0.006741065 0.0154495 -0.019720547 0.006739761
0.039612655 0.04263114 -0.024239339 -6.408018e-05 -0.02106304 -0.041667957 -0.0105954595 0.040493235
0.0201485 0.021524098 0.022922004 0.035212003 -0.013095362 -0.009562302 -0.0138400365 -0.0055043753
0.018098433 -0.0030032874 -0.0024641696 0.00816742 0.024618877 0.025988705 -0.011643183 0.022341056
-0.040471923 0.010509888 -0.001524224 0.043137934 -0.003803521 -0.0041660024 0.03274159 -0.009374275
0.0019121837 -0.02023592 0.010806374 -0.021618253 -0.025376974 0.015537422 0.0049097273 -0.030500859
-0.01817885 -0.023885377 -0.012131851 -0.026924435 0.015797552 0.009505518 -0.020881642 0.027374836
0.009977832 0.054405317 -0.019994507 -0.025704462 -0.052587967 0.0052421293 -0.010113905 -0.011770881
-0.005595653 0.01732566 0.029908488 0.037087765 0.005148311 0.0007830219 0.00820776 0.0036491037
-0.030406307 -0.0017562339 -0.03331131 -0.01633751 0.022434158 -0.03203778 -0.0070040305 -0.0079368
-0.0356726 -0.042463303 0.021812636 -0.023282774 0.0002868033 0.0085474 0.004698029 -0.056871027

motion_mlp.mlps.4.fc0.fc.bias f4 [50]
00000000: d88a fcb5 1ba1 8535 a46b 2ab6 2c2d 0937
00000010: 91d1 24b6 530f 00b7 8b56 f636 482b 15b6
00000020: 5792 f335 58a3 56b5 d303 b435 6886 a5b5
00000030: 2cb7 d6b5 5872 22b5 7ce6 4335 4756 bfb4
00000040: 5994 5135 a849 b4b5 9b81 96b6 270b 20b6
00000050: b0a3 e133 0ab7 7c32 8bd0 58b6 7499 30b1
00000060: b943 bfb5 e861 1536 70fc 92b5 e4b9 8636
00000070: 6db7 1536 b5ee 8fb6 87ed 10b5 7183 bc35
00000080: fadd beb6 9e5f ab35 6bca bc35 8b95 60b6
00000090: 9e8e 9fb6 fa49 13b7 0c71 1ab6 b37a 6636
000000a0: 3e8c 2ab6 8522 04b6 8521 aa35 a0a1 0fb4
000000b0: 8de3 96b6 8854 fd35 e4f0 28b6 4edb b936
000000c0: ca89 09b6 7e4e 9036
-1.8815872e-06 9.95616e-07 -2.539463e-06 8.176354e-06 -2.4559888e-06 -7.6329625e-06 7.3414462e-06 -2.2227923e-06
1.8147501e-06 -7.995891e-07 1.3412158e-06 -1.2332575e-06 -1.5997553e-06 -6.0516095e-07 7.297856e-07 -3.5639297e-07
7.807444e-07 -1.3432482e-06 -4.4854364e-06 -2.384835e-06 1.05071535e-07 1.4709949e-08 -3.2307896e-06 -2.5698599e-09
-1.4250319e-06 2.225972e-06 -1.0951317e-06 4.0151517e-06 2.2309498e-06 -4.2895213e-06 -5.398983e-07 1.4045346e-06
-5.6882827e-06 1.2768321e-06 1.4066003e-06 -3.3465647e-06 -4.755172e-06 -8.779107e-06 -2.301359e-06 3.434409e-06
-2.5413606e-06 -1.9689626e-06 1.2675742e-06 -1.3376712e-07 -4.4968388e-06 1.8874571e-06 -2.5174168e-06 5.53896e-06
-2.0494795e-06 4.300672e-06
