src/siMLPe/exps/baseline_amass/log/snapshot/model-iter-85000.pth (torch, 604338 bytes, 196 tensors)

motion_mlp.mlps.0.fc0.fc.weight f4 [50, 50]
00000000: 8eda 61bd 42b7 c0bd 52b4 ec3c 46d5 54bd
00000010: 0e81 c93c bcea 87bc ba4c fe3c c8c2 3ebd
00000020: ce46 acba fd3b 07bd cc3d c0bb f7a9 d6bc
00000030: a1bc a4bb b378 b6bc dafa 29bc 2a67 5dbc
00000040: 4e40 4abc bdae 7fbc c736 0bbc 215e adbc
00000050: eb71 8abc 70a4 21bc aa76 46bc 7b65 acbc
00000060: daee 02bc 5602 8dbc 7a2d 36bc e06c 53bc
00000070: 4547 17bc f961 15bc 88f2 33bc c32d f2bb
00000080: 1069 14bc d578 f2bb c468 0dbc e330 94bb
00000090: 01d0 23bc 473e 5bbb 2208 28bc ee16 17bb
000000a0: ba58 fbbb af76 15bb ca3c fbbb c123 f9ba
000000b0: b54f a1bb 482f 14bb 5dc8 82bb 95ab 7aba
000000c0: 2b3a 63bb 5572 26bb 0fd3 b23a 3a2c 9bbd
000000d0: 1b09 ff3a bd20 8dbb 72a4 ffbc 01ea d7bb
000000e0: 0b6c 0cbd 1d64 403c 0aec 97bc 54e7 bbbc
000000f0: c630 dabb c734 e1bc df7f 8f3b 8477 eabb
00000100: 7781 0cbc 7796 23bb 1b56 27bc 65aa b1bb
00000110: 24e4 21bb 08c8 3abc 39a1 c4bb 76e4 51bc
00000120: 3e43 adbb d581 30bc 6510 a0bb aa7a 2abc
00000130: 3382 c4bb 6a7e 1cbc 6ee7 f7bb 25e5 14bc
00000140: 2c82 febb 0c6e dfbb 4104 28bc 9fcc f9bb
00000150: 0cf0 28bc debf efbb d0d6 37bc f7cd e2bb
00000160: 43db 43bc 52e2 d6bb 0326 36bc 1491 ffbb
00000170: fa7f 2dbc c2ce ebbb 1f08 33bc e2e0 02bc
00000180: e25c 21bc 38ee 07bc 8122 13bc 5449 0fbc
00000190: 2da7 21ba 69d1 17bd c4ab 5b3c 518f 42bc
000001a0: a0dc b03b b8d5 08bd fa33 483c fb99 cf3b
000001b0: 7a50 a33c 0589 d0bc 30cd c33c 0a47 86bc
000001c0: 4d0b f13c 2e21 843a 892f 0e3d ae79 573c
000001d0: 22e1 cf3c 853c 743c de09 123d 291d f33b
000001e0: 967a 033d 27c1 073c 227d cc3c 25cb 373c
000001f0: 822c df3c 501c 083c b7f5 af3c 0228 563c
00000200: eeb2 bd3c 8f2d b13c 7f7b 893c 06ca bd3c
00000210: c764 913c 2609 c03c 1c98 853c 6f73 df3c
00000220: cbfb 733c 8074 e33c a8e2 773c 5b89 ee3c
00000230: 15b1 793c 35c2 ef3c 3abe 883c 7b05 e83c
00000240: d7bc 9e3c 84d1 de3c 0a00 b03c f1fe db3c
00000250: 9e8b c73c e6b4 d43c 7037 14bc 1377 1d3d
00000260: 0078 d2bc 5841 c03c c502 15bd cff9 373d
00000270: 8a36 cebc 7deb 3c3d 13b0 75bc 985d 3d3d
00000280: 73ae a4bc 3284 463d 3a41 1fbc 361e 0f3d
00000290: 346c 883a 329e de3c f3ec 133c 1894 d23c
000002a0: f4b7 3c3c d578 143d 8576 4c3c b5ad f23c
000002b0: 8046 723c defd 043d af62 9e3c a125 033d
000002c0: 2a40 9e3c 03c8 df3c e747 913c 5f21 c63c
000002d0: 03d2 a13c a29f b13c 8195 a63c 797a 9e3c
000002e0: abc2 9d3c 57a6 903c eab6 883c 4527 8e3c
000002f0: d92d 903c e9ba 7b3c 0a48 903c 9a3d 5a3c
00000300: 91a3 853c c4f0 573c f1e7 6b3c 0c23 4d3c
00000310: 9c87 543c d35a 423c 821f 533c c282 443c
00000320: f8e2 4b3a a4be ddbc 894d b03c 6e4d 6f3c
00000330: bdf0 9cbd 756c b5bc 3bd0 5bbc 961d c5bc
00000340: 89ff 7fbc 5714 84bc ede9 90bc 3031 abbc
00000350: c472 07bd fa2a adbc a9e6 00bd 018b 60bc
00000360: c9c2 cbbc bf2a 5ebc 4a52 00bc 5f9c e9bb
00000370: 7eae 4fbc 8770 813b e2c9 d9bb 0886 d13a
00000380: 5b0e 10bc 2541 f33b b672 92bb bd1d 2b3c
00000390: e08e 34ba 3ab8 293c 7231 f23a 3538 f23b
000003a0: 4ee4 bb3b 1cfb 1d3c e5f5 eb3b 312b 213c
000003b0: 794b 153c 3d15 223c dff4 483c c737 313c
000003c0: 5e43 383c d9ba 3d3c fb6f 3c3c f28a 523c
000003d0: f664 663c 69f5 3c3c 1263 6a3c 9951 5f3c
000003e0: 207a 643c 4845 6c3c d345 6d3b 38dd 4bbc
000003f0: 810d 553c fa2d e53b 5901 28bc 60c3 7ebd
-0.05514007 -0.09409954 0.028894577 -0.051961206 0.02459767 -0.016591422 0.031042445 -0.046572477
-0.001314366 -0.033016194 -0.0058667418 -0.026204092 -0.005027369 -0.02227435 -0.010374749 -0.013513366
-0.012344433 -0.015605626 -0.008496947 -0.021163048 -0.016900023 -0.009865865 -0.012113253 -0.021044483
-0.007991517 -0.017213028 -0.011119241 -0.012904376 -0.009233301 -0.009117597 -0.010983117 -0.007390709
-0.009058252 -0.007399658 -0.008630935 -0.0045224293 -0.009998322 -0.0033453868 -0.010255845 -0.0023054439
-0.007670489 -0.0022806337 -0.0076671587 -0.0019007848 -0.004922832 -0.002261119 -0.0039911703 -0.0009562311
-0.0034672122 -0.0025397737 0.0013643223 -0.07576795 0.001945767 -0.004306881 -0.031206343 -0.0065891747
-0.034282725 0.011742619 -0.01854517 -0.022937454 -0.0066586463 -0.027490987 0.004379257 -0.0071553607
-0.008575789 -0.002496151 -0.0102134 -0.005421924 -0.0024702633 -0.01140023 -0.0060006646 -0.012810817
-0.005287557 -0.010773142 -0.004884767 -0.010405222 -0.0059969663 -0.009551624 -0.0075654304 -0.009087835
-0.0077669825 -0.0068185385 -0.01025492 -0.0076232697 -0.010311138 -0.0073165735 -0.011220649 -0.0069215256
-0.011954132 -0.006557741 -0.011117461 -0.007799277 -0.010589594 -0.0071962783 -0.010927229 -0.007988187
-0.009848805 -0.008296542 -0.008980394 -0.00874551 -0.0006166574 -0.037064943 0.013407651 -0.01187499
0.0053973943 -0.033406943 0.012219423 0.0063354946 0.019935835 -0.025455961 0.023901552 -0.016391296
0.029424334 0.0010080689 0.0347133 0.013151569 0.025375906 0.014907007 0.03565394 0.0074192476
0.03209933 0.008285797 0.024962012 0.011217867 0.027242903 0.0083075315 0.02147947 0.013071062
0.02315661 0.02162817 0.01678252 0.023167621 0.01774825 0.023441862 0.016307883 0.027276723
0.014891575 0.027765512 0.015129723 0.02911823 0.015239974 0.02926741 0.01669227 0.028322926
0.019377155 0.027199514 0.021484394 0.026854964 0.024358567 0.025965165 -0.00904642 0.038443636
-0.025691986 0.023468658 -0.036379594 0.04491597 -0.02517249 0.046123017 -0.014995593 0.046231836
-0.020102715 0.048465915 -0.009720141 0.03494092 0.0010408224 0.027175043 0.009028661 0.025705382
0.011518467 0.036248047 0.012479429 0.029623846 0.014787316 0.03246867 0.019334165 0.032018308
0.019317705 0.027317053 0.017734481 0.024185834 0.019753462 0.021682564 0.02033496 0.019345509
0.019257864 0.017657442 0.016688783 0.01735271 0.017599987 0.015364387 0.017612476 0.013320351
0.016313346 0.013179962 0.014398561 0.012520563 0.012971785 0.0118624745 0.01288593 0.011994066
0.00077776564 -0.027068444 0.021521347 0.014605863 -0.07663105 -0.022146443 -0.013416345 -0.02406196
-0.015624889 -0.01612298 -0.01768967 -0.020897478 -0.033068433 -0.021138657 -0.031469975 -0.013705016
-0.024873154 -0.013559996 -0.007832119 -0.0071292366 -0.0126758795 0.003950182 -0.0066463808 0.0015985379
-0.008792485 0.0074235373 -0.004469241 0.010444102 -0.0006887745 0.010358864 0.0018477871 0.0073919543
0.005734003 0.009642389 0.007200944 0.009836958 0.009112232 0.009892759 0.012265413 0.010816521
0.01124653 0.0115801925 0.011501308 0.01285051 0.014062157 0.01153312 0.014305847 0.013630294
0.0139451325 0.014420815 0.0036204949 -0.012442879 0.013003708 0.006994006 -0.010254228 -0.062198043

motion_mlp.mlps.0.fc0.fc.bias f4 [50]
00000000: 0bba 8d38 1ccf 05b7 b5bb fab7 09ad 2538
00000010: 7c99 6d38 7c7e 8b35 8d3d 7038 d87c 8936
00000020: 2bbf d1b8 aff6 abb7 25f9 4137 4179 4038
00000030: 2ed3 7336 3f73 eab6 c266 a9b7 e555 c6b7
00000040: 0bd2 eab7 e46d d837 56cc 4ab8 1d8b 4238
00000050: 14da 00ba 5e4e 2ab7 189a a738 6dd0 c137
00000060: 3950 96b5 e713 6c38 4035 2f37 5d3e 82b6
00000070: 7f46 ca34 59de 30b8 7d7d ba37 773d 4338
00000080: d459 f9b7 475d 27b8 d94e a737 3720 3cb8
00000090: 1d4b 7636 98b5 6736 c29f 1e36 bcf9 3138
000000a0: 73f6 4237 d350 16b8 db5e 1838 1ac6 02b7
000000b0: 274e 6b38 afd1 64b6 7f24 cd37 c751 d8b6
000000c0: 79c1 14b7 ae7f abb6
6.758057e-05 -7.975639e-06 -2.988973e-05 3.9500217e-05 5.6648147e-05 1.0393119e-06 5.7277783e-05 4.097452e-06
-0.000100015044 -2.049966e-05 1.1561705e-05 4.5889294e-05 3.6332744e-06 -6.98716e-06 -2.019422e-05 -2.3643437e-05
-2.7992783e-05 2.5800378e-05 -4.8350856e-05 4.6382764e-05 -0.00049153087 -1.0151036e-05 7.991883e-05 2.3104449e-05
-1.1199219e-06 5.628532e-05 1.0443211e-05 -3.881562e-06 3.7676725e-07 -4.2168747e-05 2.2231363e-05 4.6548867e-05
-2.9724943e-05 -3.9902774e-05 1.9944668e-05 -4.4852695e-05 3.6700578e-06 3.4527384e-06 2.3636826e-06 4.243267e-05
1.1620682e-05 -3.583806e-05 3.6327965e-05 -7.794728e-06 5.610115e-05 -3.40967e-06 2.44549e-05 -6.4468218e-06
-8.866534e-06 -5.111061e-06

motion_mlp.mlps.0.norm0.alpha f4 [1, 54, 1]
00000000: 00f3 da3d 08ad df3d 93f1 cf3d cb14 e03d
00000010: 1671 1d3e 909d 943d 204d 0d3e aa96 e13d
00000020: 81fb 113e 4a91 1d3e 9bc7 ca3d 085a 2c3e
00000030: 1e16 323e cfce 0d3e a18a f73d b311 093e
00000040: c2b4 f03d 14e7 e33d 1ada 1d3e 3f82 2a3e
00000050: cb45 1a3e 43ea 1f3e 31d8 2d3e 9a30 2d3e
00000060: 7a34 e13d ef90 df3d 61c4 573e 3d7f 293e
00000070: ad5d 1c3e 108c 183e 2cc7 1e3e b31d 98ba
00000080: 66d9 093e 525e be3d 16b5 f13d bf71 073e
00000090: 08a3 d43d 179c 413e 0e9d ec3d 1c49 d13d
000000a0: 8d98 0a3e c579 d83d c748 113e eb64 ef3d
000000b0: 188e 383e e487 063e eded 273e 10a0 d83d
000000c0: a6b7 d23d 3fc2 e03d 4895 3f3e 61b7 dc3d
000000d0: e701 5a3e 3568 163e
0.1069088 0.10921675 0.101534985 0.10941466 0.1537517 0.07256615 0.13798952 0.11015065
0.14256097 0.15387455 0.09901353 0.16831219 0.1739125 0.13848422 0.12086988 0.13385658
0.11753227 0.11128059 0.1541523 0.16651247 0.15065686 0.15616708 0.16977002 0.16913071
0.10996337 0.10916316 0.21071006 0.16552444 0.1527011 0.1489718 0.15505666 -0.0011605531
0.13461837 0.09295334 0.118021175 0.13226984 0.10382658 0.189072 0.11553393 0.10219023
0.13534756 0.10570101 0.14187919 0.116891704 0.18022954 0.13137776 0.16399355 0.105774045
0.102889344 0.109745495 0.1870929 0.10777164 0.21289788 0.1468819

motion_mlp.mlps.0.norm0.beta f4 [1, 54, 1]
00000000: b3c2 e2ba 4b4b db3a cdfc 313c 2e4f 2cba
00000010: ac7d 083a 4343 28bb fa24 873a 0d36 99b9
00000020: 3045 c539 bec4 b839 8eb3 eb3b 0ba1 383a
00000030: 4b48 4139 c74b 3e38 b2e7 1c3a 1a32 b83a
00000040: ed28 123b 3d83 ad39 775c 0b3b 21f1 b73a
00000050: ee50 703a d0a2 313a fb01 9db9 dedf 8b3a
00000060: a4d3 68bb 2adc 3fba 2350 2f3a 2a3b 033a
00000070: b510 da39 b7f0 293a 27eb b8b9 1c19 b43d
00000080: 45f5 3c3b b2b6 b6ba 64bc a6ba f612 0b3a
00000090: 3fe2 39ba 76f7 b7bb aa7d abb9 96bd a63a
000000a0: 4ac2 253a 489b feba 8183 71b9 77c2 cc39
000000b0: 3275 743a af4b 843a fece a63a df8c 8bbb
000000c0: 86db c6ba c777 f4bb c3d9 fa3a a007 4bb8
000000d0: fdd3 e03a 1268 103a
-0.0017300457 0.0016730813 0.010863495 -0.0006573078 0.0005206715 -0.0025674857 0.0010310702 -0.00029222705
0.00037626317 0.000352418 0.0071930354 0.000704304 0.00018432846 4.5370103e-05 0.0005985453 0.0014053017
0.0022302226 0.00033094911 0.002126483 0.0014033654 0.0009167333 0.0006776275 -0.0002994685 0.0010671576
-0.0035526538 -0.0007318879 0.00066876615 0.00050060696 0.00041592648 0.00064827077 -0.00035270417 0.08793852
0.0028832715 -0.0013939945 -0.001272094 0.00053052546 -0.0007090903 -0.0056142164 -0.0003270929 0.0012721296
0.0006323202 -0.001942494 -0.0002303254 0.000390548 0.0009325325 0.0010093356 0.0012726483 -0.0042587365
-0.0015171624 -0.0074605676 0.0019138384 -4.8406073e-05 0.0017153021 0.0005508672

motion_mlp.mlps.1.fc0.fc.weight f4 [50, 50]
00000000: 9f17 71bd f352 28bd c33a 643d ac83 ffbc
00000010: 2ae0 463c d1ab a73b 5c68 4d3c 3c19 99bb
00000020: 08c1 ccbb 00b4 0fbd a945 cd3b 4647 9a3c
00000030: b78d 783c 8a8f 0fbb 8402 32bc ea00 0dbc
00000040: 945a 54bc 559f bdbc 10f1 d7bc 9885 9ebc
00000050: 101d 89bd 166d 58bd 0f56 d6bc 2a13 033b
00000060: bebe c6bb 0749 4e3b 91cf bc3c ec8f 9bb9
00000070: 52ce ffbb 6e08 993b a67e 07bd d4d9 9abc
00000080: ce98 a3bc 2f2b bbbc daa8 d1bc 7373 ddbc
00000090: 9cd0 8bbb 40b9 953c d768 9fbc bcf7 ddba
000000a0: 8487 963b ba14 4a3a 46a8 d93a 72dc e7bc
000000b0: 346e 8b3c abfa f7bc 7a30 8ebc 0a88 1fbd
000000c0: 8fea f13c 8ef5 01bc e64c b2bb bc3f 81bc
000000d0: bdd0 9d3d 87cc b5bc 2772 c1bc 94b2 7c3c
000000e0: 9d00 76bd bbb8 3c3b b011 29ba dcc3 ebbc
000000f0: 0952 d6bb 2250 823c 8e18 07bc be73 543c
00000100: 5c81 ad3c 1ab3 e7bb 4e78 b93b caed c73c
00000110: b95e 823b eff4 6bbc ef8e 8b3d 3f78 253c
00000120: 53a2 483d aaa7 19bd c0f5 b9bc 85e3 3c3b
00000130: 02e5 723d f86d b73c 55bf f1bb e26a b4bb
00000140: 45fa 81bc ee79 93bc b79b 3dbb 0c17 483c
00000150: 1f0d 13bc 7b06 003d ed9b c13b 55a8 9ebc
00000160: dbe8 93bb f5ca fbb6 80d6 d93c 8732 d0bc
00000170: cf22 5db9 ba8b 1dbc 9053 a13d 85ae f03c
00000180: 34a9 103c 4e01 0abc 83c8 033d aef9 95bc
00000190: f429 8fb9 1661 49bc 7855 1cbc 1bbb b3bc
000001a0: f773 f13b 2641 783b 5328 acbc 745b 553a
000001b0: 8b98 babc 03b2 973c 0285 3a3c cd9d 6cbc
000001c0: 4966 3ebc 9980 793c 482c 6b3c b56d 83bc
000001d0: 6fa8 44bb 1632 153c 6f0a a9bb f0a4 17bc
000001e0: 4937 ffbc 5fb8 a53c c638 7ebe f1e9 823c
000001f0: 3a63 58bc 1d86 993c 70d5 cebc b375 cbbb
00000200: 89b1 f8bc ab9d a73b 73bc e1bc 5c60 0b3c
00000210: 63c5 8c3c b916 ac3b 5e16 a73b fd74 80bd
00000220: e93d be3d f53b 323c 6990 9fba ee13 3abb
00000230: 3b2b eabc 8150 cfbc 40ea b93c bd2a d63b
00000240: 43bf 5fbb d2c9 203c bba5 f03a a037 b53b
00000250: 46be 283b 3ae6 a73a b0b4 98bc 5061 0c3d
00000260: 727b 0c3d f437 953c 50c3 b83c 7aea 1c3d
00000270: 3df2 68bd 58a8 383b f6a4 a23c f5df 663c
00000280: 3eac 95b9 5c08 313c 8c67 773b 1e05 073c
00000290: d715 453d bfec 1dbd e4be 50bc cb12 ef3c
000002a0: b4c1 7c3a 7bd0 57bb 6bef 57bc c9a4 a43c
000002b0: acc2 05bd a381 c5bc dc0d f4bb 7f75 803a
000002c0: 9ed3 4bbc e585 dcbb 4ed1 ccbc 6aa0 ebbc
000002d0: f5ba 293d 0ed7 e83c f4c9 023d 546b 1f3d
000002e0: 8a2f c8bc a908 15bc edf8 da3c 6b83 61bc
000002f0: ff80 1cbc d894 c5bc 1af8 d33c 3edc cc3b
00000300: 595b d4ba 37ba 6b3c 028d 2cbd 4b55 7d3c
00000310: b229 243d eb02 273d a710 c2bb 3e6d 56b9
00000320: 6c2d 90bc e926 6dbc 5928 d0bc 7fff 01bd
00000330: 45a7 81bd c8ec 89bc 89c3 923d 0e87 573a
00000340: 966b 81bd 7eb7 ee3b 252c 2d3c 61c9 c03b
00000350: bc98 84bb f8ac 7d3c 97a7 b93c 780d c63c
00000360: cb1e dcbb 6e30 9aba 5104 b73a 5d23 e9bc
00000370: c212 3dbc c686 a53a 85c8 44bc bb9a a4bc
00000380: 5654 1c3d 76e5 2e3d 9b26 26bd 3d28 29bd
00000390: a84b e43c 2208 2b3d 8307 02bd ead9 4bba
000003a0: bc47 b9bc 3964 4abc 180f dfbc 9c4e fdbc
000003b0: d442 62bb 7bdd 363c fc89 08bc 9bf2 323d
000003c0: e09e 973c 7d53 8a3d 3d63 9dbc f63a b9bb
000003d0: 9ce0 103d ce7e 793c 7d72 9bbc a8e6 2cbd
000003e0: c5c5 303c 7b20 8c3b 60d4 183d 4b18 bc3c
000003f0: 59e5 01bd 0fca e03c 45f8 293c 21d0 8cbd
-0.058860417 -0.04109473 0.055720102 -0.031190716 0.012138406 0.0051169177 0.012537088 -0.0046721976
-0.006248597 -0.03508377 0.0062644077 0.018832814 0.015170506 -0.0021905624 -0.010864858 -0.008606175
-0.012961049 -0.023147264 -0.026360065 -0.019350812 -0.06694996 -0.052838407 -0.026164083 0.0020000436
-0.0060652187 0.0031476633 0.023048194 -0.00029671134 -0.0078065777 0.0046701944 -0.033079766 -0.018902697
-0.019970324 -0.02284774 -0.02559321 -0.02703259 -0.0042668115 0.01827681 -0.019459171 -0.0016934793
0.0045937914 0.0007708777 0.0016605936 -0.028303359 0.017020322 -0.030270895 -0.0173571 -0.038948096
0.029530792 -0.00793208 -0.005441296 -0.015777461 0.07705829 -0.022192253 -0.023614002 0.015423436
-0.06005918 0.0028796631 -0.0006449474 -0.028779916 -0.006540541 0.01590735 -0.0082456 0.012967048
0.021179847 -0.007070911 0.0056600934 0.024405379 0.003978577 -0.014401658 0.06814372 0.01009947
0.04898293 -0.037513413 -0.02270019 0.0028822136 0.05930043 0.022391304 -0.007377545 -0.0055059055
-0.015866408 -0.018002477 -0.0028931925 0.012212526 -0.008975296 0.03125618 0.0059084804 -0.019367376
-0.0045138425 -7.5040102e-06 0.02659154 -0.025414718 -0.0002108917 -0.009615833 0.078772664 0.029380092
0.008829404 -0.008423163 0.032173645 -0.018307533 -0.00027306343 -0.0122912135 -0.009541862 -0.021939805
0.0073685604 0.0037880628 -0.021015322 0.0008138933 -0.022777816 0.0185175 0.011384251 -0.0144419195
-0.011621066 0.015228414 0.014353819 -0.016043523 -0.003000762 0.00910618 -0.0051587145 -0.009255633
-0.031154292 0.020229517 -0.24826345 0.015980693 -0.013207251 0.018740708 -0.02524826 -0.006209099
-0.030358093 0.005115231 -0.02755568 0.008506861 0.017183965 0.005251732 0.005099102 -0.06272314
0.09289152 0.010878553 -0.0012173775 -0.0028393227 -0.028585067 -0.025306942 0.022694707 0.0065358565
-0.00341411 0.009813743 0.0018359938 0.0055303127 0.0025748177 0.0012809702 -0.018640846 0.034272492
0.034297414 0.018215157 0.02255407 0.03830955 -0.05687164 0.0028176513 0.01985405 0.014091481
-0.00028547825 0.010805216 0.0037750928 0.008240966 0.04811653 -0.038555857 -0.012740824 0.029183766
0.0009641901 -0.003293066 -0.01317964 0.020098107 -0.032656357 -0.024109667 -0.007447941 0.0009800642
-0.01244059 -0.0067298287 -0.025002148 -0.028763015 0.04143806 0.028422859 0.03193088 0.038920715
-0.02443673 -0.009096303 0.026730025 -0.013764243 -0.009552239 -0.024118826 0.02587514 0.006251841
-0.001620154 0.014387659 -0.042126663 0.01546223 0.040078826 0.040774267 -0.0059223953 -0.00020449326
-0.017599784 -0.014474609 -0.025409864 -0.0317378 -0.06330732 -0.016836539 0.071662016 0.0008221724
-0.063193485 0.0072850576 0.010569607 0.0058833812 -0.0040465277 0.0154831335 0.02266292 0.024176344
-0.006717538 -0.0011763701 0.0013963078 -0.028459245 -0.011540117 0.0012628667 -0.012010698 -0.020093312
0.038166367 0.0426993 -0.04056416 -0.04129814 0.027868107 0.041755803 -0.031745445 -0.0007776307
-0.022617213 -0.0123529965 -0.027228877 -0.030921273 -0.0034524696 0.0111612035 -0.008333679 0.043688398
0.018508375 0.067542054 -0.01921236 -0.0056527806 0.035370454 0.0152279865 -0.01897549 -0.04221216
0.010789339 0.004276333 0.03731191 0.022960803 -0.031712864 0.027440099 0.0103741335 -0.06875635

motion_mlp.mlps.1.fc0.fc.bias f4 [50]
00000000: c2a4 93b6 ad6d ef36 30b7 d8b6 0107 7eb7
00000010: df06 a936 55e3 8d36 e7d0 bfb6 c61f 2eb6
00000020: 3e1d cc36 980e 4436 8c7a 58b7 8258 1537
00000030: 8a84 eab3 e03a fbb5 1071 3735 2676 f9b6
00000040: b506 4935 c73d 40b7 af96 bd36 b431 98b5
00000050: e8c2 41b7 b71a dc36 11d6 6eb6 6174 a936
00000060: 8897 91b5 0adf f536 904e 93b6 67e2 abb7
00000070: 4321 3536 6be8 02b7 e316 0637 e09d 4237
00000080: 2cf0 a036 9d7d 45b6 4b0c e836 19be b1b7
00000090: b9cd 08b5 dd73 98b6 a475 3337 8d55 99b7
000000a0: abee 9333 c269 c236 4236 1736 388d 4c36
000000b0: 2599 b7b6 6498 15b6 ff58 7a36 86b3 c436
000000c0: 8cd1 61b6 4ef9 1334
-4.4001217e-06 7.135523e-06 -6.4586275e-06 -1.51412105e-05 5.0373924e-06 4.2285924e-06 -5.716563e-06 -2.5946515e-06
6.083078e-06 2.921477e-06 -1.2903136e-05 8.901699e-06 -1.0920583e-07 -1.8718092e-06 6.833734e-07 -7.4345326e-06
7.4888095e-07 -1.14584755e-05 5.650181e-06 -1.1339348e-06 -1.1549077e-05 6.559621e-06 -3.5589367e-06 5.0501408e-06
-1.0847443e-06 7.327534e-06 -4.3900873e-06 -2.0490215e-05 2.6990463e-06 -7.802718e-06 7.992351e-06 1.1600059e-05
4.7963313e-06 -2.9428404e-06 6.91557e-06 -2.1188565e-05 -5.0963314e-07 -4.5434413e-06 1.0696622e-05 -1.8278859e-05
6.8886344e-08 5.7939624e-06 2.2532336e-06 3.048057e-06 -5.4716534e-06 -2.2291433e-06 3.7304706e-06 5.8621545e-06
-3.3649585e-06 1.3781138e-07

motion_mlp.mlps.1.norm0.alpha f4 [1, 54, 1]
00000000: 3312 983d 6e5e 7f3d 4672 203e 41c5 9e3d
00000010: 396f 883d c62b a33d 8490 713d 8b0f a03d
00000020: 47e5 6c3d 3269 d53d 35c4 023e a85b 773d
00000030: 3bd5 8f3d e391 973d acff 543d f114 9f3d
00000040: abc7 8b3d 9e5a 8b3d 737e a33d 1696 353e
00000050: eb00 843d 946c 943d 5253 a03d d2f9 8d3d
00000060: d8e6 b43d c6c4 9f3d 7ba6 8b3d 558a 713d
00000070: 7698 7a3d 9fb1 8d3d 0854 943d 4d57 b03c
00000080: 0076 283d 4e85 5b3d 7854 b93d 2cde 6b3d
00000090: 9ac9 813d 95f7 b33d a9b5 823d 1714 b13d
000000a0: d36a 8e3d 49d0 923d 6eb2 9b3d 214a 853d
000000b0: 5dad 913d 825e a53d 3e11 3b3e 2c08 8a3d
000000c0: ea1a a23d 58fa f03d daa5 873d 5b39 973d
000000d0: 539c 863d 96d9 d03d
0.07425346 0.062345915 0.15668592 0.07752467 0.06661839 0.079673335 0.05897571 0.078154646
0.057835843 0.10420455 0.1277016 0.060390145 0.07023092 0.074008726 0.05200164 0.07767666
0.06825193 0.06804393 0.07983103 0.17733034 0.064454876 0.07247272 0.07828392 0.06932415
0.088330925 0.078012034 0.06818863 0.058969814 0.061180554 0.06918644 0.0724259 0.021526003
0.04112816 0.053593926 0.09049314 0.057584926 0.063372806 0.08787457 0.06382305 0.0864641
0.06953969 0.071686335 0.07602392 0.065082796 0.071131445 0.080746666 0.18268296 0.0673984
0.0791529 0.11766499 0.066234306 0.073839866 0.06572785 0.10197751

motion_mlp.mlps.1.norm0.beta f4 [1, 54, 1]
00000000: eb02 19bc d346 5f3c 85d5 5cba d3e3 60bb
00000010: 7745 e03a 2bf0 eebb 546d c9bb 4071 81ba
00000020: f0e9 41bb e9f7 edbc 06ad bc3c c98b caba
00000030: a9eb 21bb df47 91bb 9e5d 4d3b 31fc ac3c
00000040: baff 223c 4cc3 b53b afeb 84bc ce60 403c
00000050: 7057 ca3a eb46 adba 55d2 53bb 4f8d 4dbb
00000060: fcdc 883c 5c2d 233c cde3 1cbb bca6 c53a
00000070: 1daa 1abb 4e12 07bb f72c a03b 6467 eb3b
00000080: 9869 8ebc 6f58 24ba d7ab b3bc 34e7 963b
00000090: fa25 fe3a a4fc 633d 2c73 203a d5ef c03c
000000a0: cb8e 553b 94b4 a1bb 02ee 20bb 159a 913a
000000b0: 3d7a 73bb cf61 133b 9aab 94bb faf7 72bc
000000c0: 64d1 b3bb 56bf 783c cb5b 8eba a254 76bc
000000d0: 66bc 343c fd8e 36bc
-0.009339075 0.013627726 -0.0008424151 -0.0034315481 0.0017110546 -0.007291814 -0.006147066 -0.000987567
-0.00295889 -0.029048877 0.023031723 -0.0015453036 -0.0024707115 -0.0044336165 0.0031336318 0.021116348
0.009948665 0.005546963 -0.016225664 0.01174183 0.0015437435 -0.0013219988 -0.0032321413 -0.0031364744
0.016706936 0.009959545 -0.002393949 0.0015079598 -0.002359993 -0.0020610276 0.0048881727 0.007183956
-0.017384335 -0.0006269281 -0.021932526 0.0046051983 0.001938998 0.05566086 0.00061206776 0.02355186
0.0032586332 -0.0049348567 -0.0024555926 0.0011108542 -0.0037151717 0.0022488718 -0.004537058 -0.01482963
-0.005487608 0.015182337 -0.0010861097 -0.0150348265 0.011031246 -0.0111424895

motion_mlp.mlps.2.fc0.fc.weight f4 [50, 50]
00000000: 8ab1 b2bc 9a7f c8bc 3f07 ee3b 8c8b 13bd
00000010: e49c 82bb d55d 3fbb 90c9 19bd 0e58 36bc
00000020: fb3a e03c 92bc 66bc a8f2 52bc c3de b03b
00000030: 0148 7cbc df59 57ba b41a 93bb 39aa 98bd
00000040: 13db fe39 aa8d 1ebd 8d6f dd3b e8a2 8c3d
00000050: 13cc d5bc 828b 84bc ee02 96bc da78 acbc
00000060: 7df1 103d 1291 2ebb 0838 d0bc 0d58 c03c
00000070: 6341 babc 8f56 8bbc 1b36 673c c6e7 f1bc
00000080: 355e 50bc 1eef 2638 8f22 aabc 2231 12bc
00000090: 91ee 27bd 917f 8bbc 180a 9abc e765 70bc
000000a0: b9cc 573c 2527 14bc d801 c33c 28be 34bb
000000b0: c9b7 a4ba 075e c7ba 94bb 013d 6a03 85bc
000000c0: 6585 ba3c a9bc 9bbc 326a d43b 3c8f d9bc
000000d0: 5118 f839 28a4 08bd f72a 73bc 51c5 8fbb
000000e0: 677c fbbb b5d2 1abd 8253 48bc 137d a3bc
000000f0: e9f7 0dbc 9e13 973b e54f 33bd 6b42 003d
00000100: 62d7 c2bc 648f 22bd 7c0b a4bc baf6 e0b9
00000110: 18c0 a3bb 8c36 193d 617e 57bc 3228 bebb
00000120: 7f50 26bd d953 7a3c 688e a6bc 5c79 3a3b
00000130: 8441 0fbd 8710 67bc 6bdc 17bd b0f9 8abc
00000140: 20e1 46bb 2daa db3b 02be 54bc 5cc0 963c
00000150: d114 eb3b abaa 31bc ce1a c5bc 2bf1 16ba
00000160: ec4d a4bc 625f 4bbc ac09 28bc 48cb 0d3c
00000170: a445 d7bc 49b4 76b8 4609 b13b d840 4e3c
00000180: 129d 27bc af67 43bb 3d0c 763c 07aa 90bb
00000190: 218e 0bbb 8e92 2ebc f2da 2f3b 20f8 40bc
000001a0: 68bc 47bc 9d1e 253d 4cf4 48bd 25f7 98bb
000001b0: 56a1 cf3b 4070 003b bf9f bdbc 4b4b 853b
000001c0: 4f9e 143c 2c5f de3b 596a e5bb bcb6 3abd
000001d0: 2fb4 41bc 3438 a43a 70bc 323c e7e8 673c
000001e0: 4435 f6bd 863f 1cbc 8989 b1bc adf2 3abb
000001f0: 91b1 ccbb 7847 44bc d9dc 3abb 40f5 283c
00000200: 8dcf 9d3a f81d 933b e883 7936 8d99 f2bb
00000210: 475c 1cbb df72 993b 5fc7 ae3c 1022 5abd
00000220: d014 12bc ba61 b53a a220 b5bc c963 173e
00000230: 5914 35bb 3b3a 9f3c e6bd 333c ed9b cc3c
00000240: 798f d43b f286 b93c eda5 9e3c a038 2d3c
00000250: 4746 003b 3483 033d 6f72 b53c 8926 e03c
00000260: 8f71 b13c 9c83 87bd 0e52 febc 134f 46bc
00000270: ef35 e43c ce5b 63bb 2982 b53c bf47 e3ba
00000280: f63f 883c e325 9bbb 6606 03bd d35f f43b
00000290: 33eb 553c 7502 21ba 717b 813b c360 2cbc
000002a0: 83d6 f13b f04d 493c 0ca6 d63b bf94 d5bb
000002b0: f0bc 8fbc 545b 943d 327b b9bc 6371 f63c
000002c0: e0db 143d d4c5 5eba 48e4 b2bb 1e38 943c
000002d0: 1fc2 fe3c 3a80 e23b 14e5 293c 1f0f da3b
000002e0: 56b5 223c 4e01 df3a 330d a43c b576 2b3c
000002f0: 004a 743c dda7 8f3c 55d4 a7bc 6f9b 1abc
00000300: 33f6 50bc 6d06 a53c b027 1ebc cc9a 19bd
00000310: 48ba 653c 46b8 893b bed2 ee39 bf59 233b
00000320: 9c59 e23c aa2b e33b 2d1c 73b9 4f42 af3b
00000330: 63ae 97bc d6e2 14bd d19a 2cbc 36d4 a2bc
00000340: 1814 b93c d9b8 31bc b4af 3c3b faeb f3bb
00000350: 1338 593d 35ba 2f3c 469f a2bc 558a 2c39
00000360: 4ffe bd3b 1f1f 02bd 348f c0bb 333f 633c
00000370: 7ebb c2bc 3f69 bc3b c360 5ebd 15da b5bc
00000380: f38d d13c 337c 373c 4beb e93b d420 6b3c
00000390: 00b4 da3b 6052 2dbc e6a7 493c ec67 893d
000003a0: d157 a13c d25a fbbb 3ec3 623c 267f 01bd
000003b0: d11d 8bbc 5731 42bc be96 eb3b a7c6 7c3c
000003c0: 8bd3 4b3b 6566 f7bc 7fee 823b c1c5 473c
000003d0: 14e5 ea3c fd8d dc3b 7ea3 1fbd 4d54 82bb
000003e0: 236c ffbb 0ead 85bb d83b 1bbc a86a 68bd
000003f0: 5804 603a ef7b b23c 0195 8e3b 6b48 bbbc
-0.021813173 -0.024474908 0.0072640474 -0.036021754 -0.003985988 -0.0029200215 -0.03754574 -0.011129392
0.027371874 -0.014083045 -0.012875237 0.005397649 -0.015398026 -0.0008214991 -0.0044892672 -0.074543424
0.00048609878 -0.03870932 0.0067576827 0.068670094 -0.026098287 -0.016179804 -0.018311944 -0.02105372
0.03538655 -0.0026636762 -0.025417343 0.023479486 -0.022736257 -0.017009048 0.014112021 -0.029529463
-0.012717773 3.980018e-05 -0.020768432 -0.008922847 -0.040999 -0.017028602 -0.018803641 -0.014672733
0.013171368 -0.009042536 0.02380459 -0.0027579162 -0.0012566979 -0.0015210517 0.03167303 -0.01623698
0.022768686 -0.019010859 0.006482386 -0.026557557 0.00047320363 -0.033359677 -0.014841787 -0.0043875356
-0.007674742 -0.037798602 -0.012226941 -0.019957101 -0.008665063 0.004610493 -0.043777365 0.03131334
-0.023784343 -0.03968753 -0.020025007 -0.00042908435 -0.0049972646 0.037405536 -0.01315269 -0.0058031315
-0.04060411 0.01527878 -0.020331576 0.0028453683 -0.03497459 -0.0141030615 -0.03707544 -0.016964763
-0.0030346587 0.006703636 -0.0129847545 0.018402271 0.0071741124 -0.010843913 -0.024060633 -0.0005757983
-0.020056687 -0.012412878 -0.010256212 0.008654423 -0.026278324 -5.8818874e-05 0.005402717 0.012588702
-0.01023032 -0.002981644 0.015017566 -0.0044148 -0.0021294432 -0.010655059 0.0026833382 -0.011777908
-0.012190916 0.0403124 -0.049061105 -0.004668134 0.0063363714 0.0019598156 -0.023147462 0.0040678135
0.009070947 0.0067862477 -0.007001203 -0.045584425 -0.011822744 0.0012528957 0.010909185 0.014154649
-0.12021878 -0.00953663 -0.021672027 -0.0028525994 -0.0062467535 -0.01197993 -0.0028512983 0.010312378
0.0012040004 0.0044896565 3.718067e-06 -0.0074035586 -0.0023858713 0.004682883 0.021335302 -0.05325514
-0.008916095 0.0013838329 -0.022110287 0.14784159 -0.0027630536 0.019436946 0.010970568 0.024976695
0.00648683 0.022647355 0.019366229 0.0105725825 0.0019573139 0.032107547 0.022149293 0.027362125
0.021660594 -0.06616899 -0.031044986 -0.012103814 0.027857749 -0.003469217 0.022156792 -0.0017340108
0.016632061 -0.004734741 -0.031988524 0.007457712 0.013056564 -0.0006142029 0.003951483 -0.010521117
0.007380308 0.012286648 0.006550556 -0.006517976 -0.017546147 0.07243982 -0.022641752 0.030083364
0.0363425 -0.00084981066 -0.005459342 0.018093165 0.031098424 0.0069122585 0.010369558 0.0066546346
0.009930929 0.0017013939 0.020025825 0.010465314 0.014910221 0.017536098 -0.02048699 -0.009436472
-0.012754011 0.020144666 -0.009653017 -0.03750114 0.014021464 0.0042028753 0.00045551913 0.002492532
0.02763062 0.0069326954 -0.00023184782 0.005348481 -0.018515771 -0.03634914 -0.010534958 -0.01987658
0.02259259 -0.010847294 0.002879125 -0.007443902 0.053031992 0.010725548 -0.019851338 0.00016454731
0.005798138 -0.03176796 -0.005876446 0.013870048 -0.023771044 0.005749851 -0.054291498 -0.022198716
0.025580382 0.011199045 0.007138645 0.014351089 0.0066742897 -0.010578722 0.0123080965 0.06709275
0.019695194 -0.0076707387 0.013840495 -0.0316154 -0.016981991 -0.011852584 0.0071896007 0.015428222
0.0031101431 -0.030200193 0.003995716 0.012193144 0.028673686 0.0067307935 -0.038974278 -0.0039773346
-0.0077948733 -0.0040794676 -0.009474717 -0.05674234 0.0008545569 0.021787612 0.0043512587 -0.02286168

motion_mlp.mlps.2.fc0.fc.bias f4 [50]
00000000: 1e10 2836 01f6 9fb5 d88d 53b7 857f f1b6
00000010: 3e0e 5fb5 5f13 6db6 cb39 2e37 fd45 02b6
00000020: fbe1 5536 18a0 95b6 6bfd 4d34 cd95 4f35
00000030: 1646 e0b5 d8c0 6036 5fdc a835 9332 61b6
00000040: 5b01 1f35 bf98 78b6 4617 cbb5 8b74 0b36
00000050: ab1c 35b6 feed 9eb6 5fd3 8cb6 23e7 99b6
00000060: d993 e6b5 dc59 b235 364b e7b6 d535 b936
00000070: 3be7 8bb6 61f4 8fb4 de25 0bb5 f60e 6fb6
00000080: e041 52b6 0977 7eb6 8f3a 9236 35de 54b6
00000090: 603a 07b6 d163 ae36 4367 bbb6 70f0 1b36
000000a0: 0314 a8b5 a482 b735 4fe6 8f36 ea92 7834
000000b0: 27ec c5b5 c035 79b6 7bcf ddb5 27b4 bb35
000000c0: 184e ea35 c086 20b6
2.5043332e-06 -1.191802e-06 -1.2609606e-05 -7.197205e-06 -8.30947e-07 -3.5327027e-06 1.0384664e-05 -1.9412248e-06
3.1871011e-06 -4.4591834e-06 1.9184306e-07 7.73315e-07 -1.6709698e-06 3.349085e-06 1.2581112e-06 -3.355705e-06
5.923409e-07 -3.704379e-06 -1.5131452e-06 2.078045e-06 -2.6987789e-06 -4.736473e-06 -4.196932e-06 -4.586663e-06
-1.7179365e-06 1.3288186e-06 -6.893092e-06 5.5196965e-06 -4.1694416e-06 -2.6813635e-07 -5.183664e-07 -3.5622484e-06
-3.1330783e-06 -3.7918237e-06 4.357956e-06 -3.1719803e-06 -2.0150546e-06 5.1972243e-06 -5.5850555e-06 2.3236753e-06
-1.25228e-06 1.3672584e-06 4.2885436e-06 2.3150247e-07 -1.4746373e-06 -3.7135178e-06 -1.6526168e-06 1.3985017e-06
1.7457087e-06 -2.3920293e-06

motion_mlp.mlps.2.norm0.alpha f4 [1, 54, 1]
00000000: ad35 7d3d 7313 533d 0482 793d 507e 353d
00000010: ed2c af3c af5a 313d 974c df3c 1976 113d
00000020: d2d2 1c3d 1845 6e3d 79b3 883d 10c5 ee3c
00000030: b86a 143d 2fb1 163d 4f93 113d 7157 293d
00000040: b4e7 393d 6e93 fa3c a493 583d 495f dc3d
00000050: 6215 e73c 925f 0f3d 495b 0d3d 1de1 fc3c
00000060: 6ecc 693d c9b8 843d b5d7 043d 1fa6 0d3d
00000070: a838 003d 777b 1a3d d73e 043d 356b 533c
00000080: 6b50 e73c 11c1 4c3d d8c9 223d b3a8 313d
00000090: 2ac6 1a3d 5424 6d3d 25c9 093d 740b 953d
000000a0: d76b 243d 0c14 2b3d 54df 303d 4f8f dc3c
000000b0: 8c56 023d 3ca8 263d dd42 d43d 31d7 3c3d
000000c0: 9fc8 633d 6157 a93d 8e01 f53c f792 853d
000000d0: 9db3 533c 6b67 473d
0.061818767 0.05153222 0.06091501 0.044309914 0.021383727 0.043299373 0.0272582 0.035513017
0.03828699 0.05817136 0.06674857 0.029146701 0.036234587 0.03679007 0.035540875 0.041343156
0.045386985 0.030587878 0.052875176 0.10760362 0.028208438 0.035003252 0.034510884 0.030869061
0.057079725 0.064805575 0.032432277 0.034582254 0.03130403 0.0377154 0.03228649 0.012903978
0.028236588 0.04998881 0.039743274 0.043373775 0.03778664 0.057895973 0.033639092 0.07277575
0.040141907 0.041767165 0.043181732 0.026923804 0.03182082 0.040687785 0.10364316 0.04610366
0.05561125 0.08268619 0.029907968 0.06522172 0.012921241 0.04868261

motion_mlp.mlps.2.norm0.beta f4 [1, 54, 1]
00000000: 311c 82bc b662 afba df2d 473d 754a ff39
00000010: 4d20 3739 bdae 8f3b b492 663b 5a13 8cbb
00000020: f0a6 4b3b 7bd5 c83b 4bc6 373d 0005 893a
00000030: c05d 103b 2733 fa3b 5c0d 12bc 452d 50bc
00000040: a8fe 74bc c8df 54ba 41f9 0e3c f92e 9dbc
00000050: b44b 4f3a 0c47 67ba 1ec4 c8bb eb02 aeba
00000060: 7fec 90bc 841d efbb 7cc1 3cbb 38e5 dcbb
00000070: 680b 8dbb 30f0 0d3b f864 8f3a 7b93 6dbb
00000080: 8773 8d3c 7e5d 773b fac7 d9bc 0a9b 51bb
00000090: c36a 8abb 1ddf 313d 4f2b 26bc c4fe c2bb
000000a0: 6a83 ddbb d994 613b c495 2b3b 60f4 abba
000000b0: e9bc 663a 7f6c 433a 3a14 193b 0f0b 473c
000000c0: a800 20bb f0b7 31bc 29e0 71bb 240d 96bc
000000d0: 9a0f fdbb 6176 06bc
-0.015882583 -0.0013380859 0.04862773 0.00048692865 0.00017464273 0.004384844 0.0035182657 -0.004274768
0.0031074844 0.0061289645 0.04486684 0.0010453761 0.0022028536 0.0076354924 -0.008914318 -0.012706106
-0.014953293 -0.0008120504 0.008726419 -0.019187437 0.0007907704 -0.00088225375 -0.0061268946 -0.0013276016
-0.017690895 -0.0072972197 -0.002880185 -0.006741192 -0.0043043382 0.0021658055 0.0010940125 -0.0036251235
0.017267002 0.0037744935 -0.026584614 -0.003198328 -0.004224153 0.043425668 -0.0101421615 -0.0059507806
-0.0067600505 0.0034420996 0.0026181797 -0.0013119094 0.00088019535 0.0007454827 0.0023358003 0.012148633
-0.0024414454 -0.010847077 -0.0036907292 -0.018316813 -0.007722807 -0.008206935

motion_mlp.mlps.3.fc0.fc.weight f4 [50, 50]
00000000: a457 c4ba c4b3 ebbc 89c0 893d 9d51 93bc
00000010: cefd 02bc 88e7 c3ba ef37 f23c 59ec 68bb
00000020: 56e9 163d 35b3 f43b 3aec a73b 25d5 a1bc
00000030: 718f 63bb c15a 89ba c20d 83ba c460 223d
00000040: 18eb 1c3c 598b b03c b2db 67bc e8f0 30bc
00000050: c18f a1bc 1b6c 07bc 8a2e 02bd 8864 f4bb
00000060: f3d7 a33c b70f 853c c665 f03b d874 12bb
00000070: 24db e93a af37 bd3c 0fc3 1cbc 1476 9d3b
00000080: 8948 143c d25e a03a 4710 9a3c cc1a 83bd
00000090: 1d06 1bbb 9161 563c ecb1 cfbc cd4c 373d
000000a0: 2fa1 8b3c b65a 953c fa19 ae3c deaa fc3c
000000b0: b69b aebc b81e bebc 792e 8fbc fb38 083b
000000c0: 2691 bbbc 79fd 4fb9 a6cf b03b 6a23 91bd
000000d0: 9e52 323c c5a8 ffbc 3031 9f3c 17b2 043c
000000e0: 5e73 963c 15d4 a5bb fa47 133c b912 a9bc
000000f0: 5dad 633b 35c6 053d 4df6 6fbc 53ee 8c3c
00000100: e72c 5cbb ff65 b63c 7c13 03bc a9cb 61bb
00000110: 94c7 25bc aa5d ce3c 69ee 913c 7371 b3bc
00000120: c3f2 a7bc fcc7 813d aa33 bcbc 1503 4639
00000130: bc8e e4bc 82c7 63bb 3daf b93b 3176 3a3c
00000140: ed41 3fbd 0a3d 6bbd bdeb 043c 431b 38bc
00000150: 6c9a b5bb c61d 8dbb 7095 7bbc 256e d9bc
00000160: 4e46 233c 67c6 2dbb da96 eabb 8b82 87bc
00000170: 0c83 e4ba 8224 44bb 556b 11bd 7b41 eabc
00000180: 2df8 a83c 46aa 97bc a0df 6b3b e973 5fbc
00000190: 0d38 a0ba 18e5 0b39 03a7 4fbd 8338 35bc
000001a0: 120d babb cb49 023d 94d9 bc3c 8cb1 4abd
000001b0: 78d1 9c3b 952f 91bc fe27 f13b 6e73 1c3c
000001c0: 49e4 f5bb 5e8e 4ebd 8af0 7d3c 05b6 e0bc
000001d0: c377 78bc cdc7 b1bc dbe4 713c b311 08bd
000001e0: f2c4 d6bc 5818 20bc ad53 8bbc 63cf f2bc
000001f0: 8fd9 68bb 8bff cebc 03d2 523d d99c ec3a
00000200: a902 c6bc 5cb3 65bb d56e 2d3d 7a8e 6a3c
00000210: 6452 b5bc f5a8 2f3c 8ec3 27bc 8ebe c9bb
00000220: 343a 3d3b 870e e63b 4da3 133d 4b91 eb3b
00000230: 6333 203c b735 fe3b cdc5 72bc 613b 8abc
00000240: 84e1 313c b53a a6bb cc46 37bc 7152 0cbd
00000250: 9cb0 8a3b 2ca2 f83c 4e41 ebbb 9f3d 2d3c
00000260: 2461 edbb 3e9b 8d3b 2e26 233c c75b 03bb
00000270: e49f 2bbd 3e3b ba3c 31f3 17bc 92db 873c
00000280: 7df1 5a3c 9a75 89bc 3556 b2b9 1e9e c0bc
00000290: 12c6 a6bc 0b7f 5abc b32b 1b3c 63cf 59bc
000002a0: e133 bd3c 3d0e 1abd 47a1 06bc a61a febb
000002b0: 2462 e63c 39c9 f5bb aacb 9d3b d5c3 c73c
000002c0: ba3c 79bb e4ae 98bd 5140 f23c 8aa8 1f3d
000002d0: fda7 c9bb df12 2c3d ff9d 1a3c 6deb de3b
000002e0: ba41 613c 63ee 4b3c c0d3 ee3c 8d60 2a3c
000002f0: 7ced 16bd 80d4 9a3b 107e 3f3c 3056 c9bc
00000300: 39f7 9dbc 7bba 32bd 2b9f a3bc bdf1 26bb
00000310: eb77 0c3d 2f9d b0bb 897e b0bc 8a13 143a
00000320: d183 043d 7311 dcbc 66c8 92bc 54f7 f4bb
00000330: 88a0 bd3c ebcb 76bd 9c41 823d a532 ef3b
00000340: 3d62 71bd e991 ff3b f6b0 83bb 961b 02bd
00000350: 53b5 06bd 56e6 b33c 8712 ffba b9e3 fc3b
00000360: 2fa4 b83c 1309 03bc 7aec aa3c 3916 2b3d
00000370: e998 123d 32c7 b1bc f22c d6bb f46e a63c
00000380: af0c d33c 0d6c 81bc 5d2d d5bb cc26 923c
00000390: 1ac8 4bbc 3eac 8cbc c1c1 19bd ed80 90ba
000003a0: e1e1 9abc 2a82 33bd eb4a 073d 2b79 043c
000003b0: 1422 e3bc c81b 063c 22bd 813b 048f 173d
000003c0: 870c 843c 0312 2f3d 1154 c13b 1c6d 4bbc
000003d0: 14f9 79bc 58b1 7f3a 5715 57bc bfb2 a13c
000003e0: 2066 273c fdd3 26bc b8f4 3b3c 321c 94bc
000003f0: fb00 0cbc 132b a7bb 7461 00bd 6994 a9bc
-0.0014979732 -0.028772242 0.06726176 -0.017983252 -0.007995082 -0.0014946321 0.029567687 -0.0035541265
0.03684362 0.007467652 0.005124596 -0.019754956 -0.003472295 -0.0010479317 -0.0009998607 0.039643064
0.009577535 0.021550821 -0.014151501 -0.010799624 -0.019721868 -0.00826552 -0.031782664 -0.0074582733
0.020000434 0.016242845 0.007336351 -0.0022347476 0.0017841798 0.023097841 -0.00956799 0.004805336
0.009050497 0.001223529 0.01880659 -0.064015955 -0.0023654767 0.013084785 -0.025353394 0.044750977
0.017044632 0.01823173 0.021252621 0.030843195 -0.021314483 -0.023208007 -0.017478215 0.0020785916
-0.02289636 -0.00019835484 0.0053958474 -0.07086833 0.010883955 -0.031208405 0.019432634 0.008099101
0.018365558 -0.0050606825 0.0089893285 -0.02063881 0.0034740784 0.032659728 -0.014646125 0.017203486
-0.00335961 0.022265432 -0.008000251 -0.0034453666 -0.010118384 0.025191147 0.017813878 -0.021904683
-0.0205015 0.06336972 -0.022973854 0.000188839 -0.027900092 -0.0034756367 0.005666642 0.011380718
-0.04669373 -0.05743126 0.008112845 -0.011236968 -0.00554209 -0.004306528 -0.015355453 -0.026541779
0.009965492 -0.0026515962 -0.007159096 -0.01654174 -0.0017434075 -0.0029928987 -0.03550275 -0.028595677
0.020626152 -0.01851381 0.0035991445 -0.013638475 -0.0012223736 0.00013341417 -0.050696384 -0.011060837
-0.0056778276 0.031808656 0.023052968 -0.04948573 0.004785713 -0.017722884 0.007359504 0.009549005
-0.0075040204 -0.05042874 0.0154992435 -0.027430544 -0.015165272 -0.021701718 0.014764036 -0.033220004
-0.026216958 -0.009771429 -0.017007673 -0.029639905 -0.0035530066 -0.025268337 0.051469814 0.0018052115
-0.02417119 -0.0035049533 0.042342026 0.014316196 -0.022134013 0.010721435 -0.010239495 -0.006156749
0.0028873803 0.0070207748 0.036044408 0.007188951 0.009777877 0.007757868 -0.014817667 -0.016874017
0.01085699 -0.0050729164 -0.011186313 -0.03425831 0.0042324793 0.030350767 -0.007179416 0.010573774
-0.007244246 0.004321485 0.009957833 -0.0020043717 -0.04190053 0.022733327 -0.00927429 0.016584191
0.013363239 -0.01677971 -0.00034015035 -0.023512896 -0.02035812 -0.0133359535 0.009470868 -0.013294074
0.023096027 -0.037611235 -0.008217162 -0.0077546416 0.028122969 -0.0075007943 0.0048155384 0.024385372
-0.003803058 -0.07455233 0.029571684 0.03897909 -0.006154059 0.042010184 0.009437083 0.0068029673
0.013748581 0.012446973 0.029153705 0.010398996 -0.036847576 0.004725039 0.0116877705 -0.02457723
-0.019282924 -0.043634873 -0.019973358 -0.0025473677 0.03429405 -0.0053898315 -0.021544712 0.00056486635
0.032352272 -0.02686379 -0.017917823 -0.007475773 0.023147836 -0.060253065 0.0636017 0.0072997385
-0.058931578 0.0077993763 -0.004018898 -0.03176459 -0.032887768 0.021960419 -0.0019460478 0.0077175763
0.022539226 -0.007997769 0.020864714 0.04176924 0.035790358 -0.021701429 -0.0065361196 0.020316578
0.025762884 -0.015798593 -0.006505652 0.017840765 -0.012437845 -0.017171975 -0.037538294 -0.0011024751
-0.018906536 -0.043825306 0.03303043 0.008085529 -0.02772621 0.0081853345 0.003959314 0.037001625
0.016119255 0.042741787 0.005899914 -0.01241615 -0.015257139 0.00097539043 -0.013127646 0.019738553
0.01021722 -0.010182378 0.01147192 -0.01807985 -0.008545156 -0.0051015704 -0.03134294 -0.02070065

motion_mlp.mlps.3.fc0.fc.bias f4 [50]
00000000: 0717 29b7 aa4b 7bb6 12b4 05b6 1955 bdb4
00000010: bf55 bb36 1a91 0c36 4181 f8b3 8a91 f9b6
00000020: db66 f4b5 5e94 00b7 8b29 79b6 e754 7d36
00000030: 4c7f 8d36 e71d 8236 ef6e f5b5 f022 f9b6
00000040: b5ac 9b35 79dd 81b6 90ac 1236 7f3d 8235
00000050: edc1 e533 7bcb bab4 6af6 cd35 594a 8b36
00000060: 3efd 86b5 e60c 91b6 c650 2837 232d af36
00000070: 79e5 05b6 13c8 a135 82a0 d736 adfa 8c35
00000080: 0c47 8d36 df76 8bb6 1cd0 b9b5 cd2d 9cb6
00000090: 8675 0636 ba7f cfb6 eab3 87b6 7d76 ccb4
000000a0: 634c a036 05e7 ca34 9f0b e035 2027 3ab7
000000b0: 33b7 1637 bd3d 2537 8a67 db36 2d12 5736
000000c0: 1de5 2d36 f38a 4a36
-1.0078546e-05 -3.7445957e-06 -1.992336e-06 -3.526591e-07 5.5830164e-06 2.0946086e-06 -1.1571911e-07 -7.4377213e-06
-1.8209352e-06 -7.663939e-06 -3.7128073e-06 3.7749357e-06 4.2169468e-06 3.877783e-06 -1.8286208e-06 -7.4248455e-06
1.1598664e-06 -3.8702824e-06 2.185614e-06 9.703652e-07 1.06989184e-07 -3.479325e-07 1.5345406e-06 4.151178e-06
-1.0057481e-06 -4.3228383e-06 1.0032387e-05 5.220661e-06 -1.9952115e-06 1.2053664e-06 6.426185e-06 1.0503769e-06
4.2103984e-06 -4.1563612e-06 -1.3844142e-06 -4.654494e-06 2.0035964e-06 -6.18395e-06 -4.0442583e-06 -3.8084173e-07
4.777264e-06 3.779352e-07 1.6692683e-06 -1.1095573e-05 8.983351e-06 9.849141e-06 6.538762e-06 3.2048076e-06
2.591237e-06 3.0181225e-06

motion_mlp.mlps.3.norm0.alpha f4 [1, 54, 1]
00000000: eab5 6b3d 9713 7f3d 9162 c53d 6dc8 323d
00000010: 2665 043d 7735 273d 541a 923c a999 103d
00000020: 10a8 1d3d b1e6 663d 4bef e03d 4b78 293d
00000030: bfd1 443d e647 2f3d ca8a 6e3d 06d9 563d
00000040: 890f 4a3d a863 273d f44f 3d3d a210 f83b
00000050: d93d 543d 2102 5d3d 5863 2f3d e3f9 3c3d
00000060: 01b2 733d befa b23d c68d 333d 3156 503d
00000070: a6a2 933c ce3e 623d c378 c23c 1392 813c
00000080: 3a2d 553d bfa0 2d3c 325e b33d 6fdc 323d
00000090: 5a02 f83c f365 ac3d 7eee 703d 3a43 7c3d
000000a0: d711 863d 5d12 7d3d 602b 2d3d 7df8 823d
000000b0: b645 393d 906f 2a3c 57c4 303c 1a92 2a3d
000000c0: 6efe 623d 425b e23d df34 1e3d b76a 993d
000000d0: 7c1b b93d 6aa6 c23c
0.057546534 0.06227454 0.09637941 0.043648172 0.032323025 0.040822472 0.01783482 0.03530279
0.038490355 0.05637235 0.109831415 0.041374486 0.048051592 0.042793177 0.05823783 0.052453063
0.04933122 0.040866524 0.046218827 0.007570342 0.051816795 0.05395711 0.04281935 0.046136748
0.05949593 0.087392315 0.043836378 0.05086345 0.018021893 0.055235676 0.023739224 0.015816724
0.052045085 0.010597407 0.08758201 0.043667253 0.030274559 0.08417883 0.058821194 0.06158755
0.065463714 0.06178509 0.042277694 0.06395052 0.045232497 0.010402575 0.010788999 0.04164324
0.055418424 0.11052562 0.03862464 0.07491057 0.09038445 0.023760993

motion_mlp.mlps.3.norm0.beta f4 [1, 54, 1]
00000000: 0080 fb3b b6be 7f3b cb6d c03c d6c0 cdbb
00000010: c4f0 30ba d651 dc3a 35bc 2abb ace7 173c
00000020: 2b40 4bbb adce 06bc 1008 b7ba e8c2 51bb
00000030: ce8a ffba 65a5 a3bb ee84 96bb b026 af3b
00000040: 83eb 433b 9a16 37bc 85c5 1dbc a56c a23c
00000050: 7503 47bb d42f 85bb 2143 043b d039 3a3b
00000060: 848f adbc 4d10 0abc a3f6 2eb9 aa85 5a39
00000070: 325a 6d3c d34c 89ba 1c02 90bb c79f a1bb
00000080: 3f3b 573c d254 29bc 7412 ec3c 0341 d7bb
00000090: df52 963b ac6b d53c 10e9 40b9 3ad9 19bb
000000a0: 7bb4 44bb 3ad5 4ebc 2378 d1bb 3148 fdba
000000b0: 6346 323a 655f 3cbc 9523 263c 4284 09bc
000000c0: 8915 dabb 7a53 aebc 21f9 523a ba71 d73c
000000d0: 927e 81ba 13f3 283b
0.007675171 0.0039023585 0.023489853 -0.0062790914 -0.0006749744 0.0016809057 -0.0026052122 0.0092715435
-0.003101359 -0.008227986 -0.0013964195 -0.0032007042 -0.0019496323 -0.004994082 -0.004593483 0.005345188
0.0029895015 -0.011174822 -0.009629612 0.019827196 -0.003036705 -0.0040645394 0.0020181614 0.0028415807
-0.021186598 -0.008426738 -0.00016685812 0.00020839894 0.014486836 -0.0010475166 -0.0043947827 -0.004932377
0.013136684 -0.010335164 0.028817393 -0.0065690293 0.0045875157 0.026052319 -0.0001839737 -0.0023475424
-0.0030014801 -0.012624079 -0.0063924952 -0.0019323883 0.00068006496 -0.011497353 0.010140319 -0.008393349
-0.006655399 -0.02128004 0.00080479874 0.026299346 -0.000987964 0.002577965

motion_mlp.mlps.4.fc0.fc.weight f4 [50, 50]
00000000: 1b14 8bbc 5031 d53c 4576 d0ba 5a24 3b3d
00000010: fcbd e53b 4c35 01bc 23e2 e4bd 30d3 94bc
00000020: 147f 233d 0597 3eba f0c6 6c3b cf4a 35bc
00000030: 0e53 5c3c aa12 8e3c d548 baba cd30 0bbd
00000040: 3dd0 033c 8fc5 523b 99d5 e2bb 440e 8cbc
00000050: b198 9fbc e79d f23c d543 b03c c423 06bc
00000060: 0fc2 1ebd 053e 633c ffa6 913c 92d1 0f3d
00000070: 8c19 9c3b a238 243d 96c6 a53b c1cd 07bd
00000080: b873 ddba 440d f13b d5e5 84bc 43e8 f8bb
00000090: 9456 91bb d55b 193d faf2 96bc 4793 5dbc
000000a0: bb8c e23c 65f5 18bd 57f2 95ba 3841 673b
000000b0: 1815 543c 5cdb 673c 1fa5 04bd a4e3 a13b
000000c0: 2a7d 6a3c 5a16 a1bd 7aa9 093d 94ad b53b
000000d0: 7f0f 57bc da77 80bd 44b7 463c e389 22bc
000000e0: 6e58 45bc 08db 74bb a210 c53c f45b d93b
000000f0: fdb2 193d 2c24 433c 5804 21bb 7c6a 91bb
00000100: 9cfa 203c 44f8 b93c 588f 23bc 1bf5 e8bc
00000110: ef70 793c 4430 8fbc 4057 aa3c 46eb d7bb
00000120: 9d5e 8a3b 0ce4 4bbc dd77 4e3c b6dd 943c
00000130: 381d c3bc a931 28bd fcd8 3ebc fc73 47bd
00000140: d65e dbbb 4aef 13bd 3796 373c bcb4 06bd
00000150: 1cc5 1b3d 47b6 a93c d854 99bc 38b7 e13c
00000160: 2596 91bb 561a afbc bf5c 0b3d 3c92 253d
00000170: bf23 70bc 998d a1bb c272 063d c1fa 8dbc
00000180: b13d 473b 585a ddbc 912b c4bc 2def 12bb
00000190: e387 26bc bcc4 113c 326d 893c 8b4e 0abd
000001a0: 8094 28bb 25f1 c3bb 63d9 1c3d d8d4 e43c
000001b0: 3533 e93c 0ad7 853b b932 3abb c1ed 9f3c
000001c0: 9fde a13c e002 423c feac 17bd 4e57 ba3c
000001d0: 724d aa39 516c 483c ae86 1d3d 6840 943b
000001e0: 51a9 273d cb27 863c 5f07 cf3b cee2 87bc
000001f0: ede8 8c3a e076 bd3c e10a 0d3d 7c39 48bd
00000200: a06b 3d3d 4f98 c53b 0719 7bbc 37ef 913b
00000210: f322 713c 5c4e ddbb fb67 c6bb ab20 03bc
00000220: 3b62 0c3c c1bb 8cbc 22f0 103d cb55 323d
00000230: d449 73bc d894 84bc 8b07 fc3c 67de 25bb
00000240: 7b46 d6bc b081 fbba 0bb6 143d 88dc de3c
00000250: e040 0c3c 38ff 803b 01bc 54bc 8689 b93c
00000260: 0ada 8e3c 07b4 07bd dfc8 7ebd cc88 adbc
00000270: 372b 19bc 5421 32bd d62a 1d3d d252 1b3d
00000280: d3f8 293c 34cb 3f3d c445 7bbc 4804 0bba
00000290: e34c 2b3c e507 bcbc c3f1 59bd 583f 1abb
000002a0: 9996 8b3c f491 653b 253c 783b 15b5 02bc
000002b0: 2c8f eaba 8817 a93c 64ec 8abc a1b0 d23b
000002c0: 4e56 1f3d 9649 393d 9876 b2bc c328 42bb
000002d0: 367b 8ebc 5ae0 31bd c09b 30bc 02a2 1f3d
000002e0: 2e25 a23c 6572 a33c b0a0 8c3c 42a9 213d
000002f0: fad6 62bc 1872 d8bb 196a 89bc da7c 98ba
00000300: ca99 2e3c a17d 0abc d509 c0bb ea3a b13b
00000310: 2f98 003d e49d db3c d6ac f2bb 4531 ac3c
00000320: f1ba 21bd ba65 e53a 1b46 833a 98b7 2f3d
00000330: ed9c a1bb a493 8ab9 6e8d 1d3d ef3e 02bc
00000340: 596c 393b b165 7cbc 3da4 5c3c 6484 cebc
00000350: b875 94bc 9a95 823c 7d07 fc3a 07fc fdbc
00000360: 1a3e c8bc d51b acbc 5543 52bc e43c d2bc
00000370: f553 643c 9c1d 0b3c 95ab c8bc 361f d73c
00000380: 0209 813c 7654 613d b609 c9bc 6675 9dbc
00000390: 03e7 28bd ae54 263c 21d1 30bc 1e79 23bc
000003a0: 2a94 8eb9 8187 943c aff1 123d 8c32 1e3d
000003b0: 1730 8b3b 42ca bdba a9ed 223c 394c 64b9
000003c0: 7670 11bd f49f 20ba 4f01 15bd dc13 6dbc
000003d0: 407f b33c a0d3 0ebd c0f1 f5bb fb6e 81bb
000003e0: fec8 10bd 9559 2abd c507 c83c 5968 b7bc
000003f0: c169 54bb f5b6 ed3b 9ec9 6c3b 04cc 5dbd
-0.01697736 0.02602449 -0.0015904388 0.045688964 0.0070111733 -0.007886242 -0.11175945 -0.018167108
0.039916113 -0.00072704285 0.0036129318 -0.011065199 0.013447536 0.017342884 -0.001421238 -0.033982087
0.008045253 0.003216121 -0.0069224355 -0.017096646 -0.019481989 0.02961631 0.02151672 -0.008187238
-0.038759287 0.013869767 0.017779825 0.03511197 0.0047637876 0.04009307 0.0050590737 -0.033155207
-0.0016895449 0.0073563177 -0.016222874 -0.007596047 -0.0044353697 0.037441093 -0.018426407 -0.013523883
0.027654996 -0.0373434 -0.0011440021 0.0035286676 0.012944482 0.01415142 -0.032384034 0.004940467
0.014312068 -0.07865591 0.03360889 0.0055443738 -0.013126253 -0.0627286 0.012128655 -0.00992057
-0.012045009 -0.0037361998 0.024055783 0.006633276 0.037524212 0.0119104795 -0.002456924 -0.0044377428
0.009825375 0.02270139 -0.009982906 -0.028437188 0.015224679 -0.01747907 0.020793557 -0.006589326
0.0042227046 -0.012444507 0.01260182 0.018172126 -0.023817644 -0.041062985 -0.011648413 -0.048694596
-0.006694655 -0.036116876 0.011205248 -0.032887205 0.038029775 0.0207168 -0.018717214 0.027553186
-0.0044429475 -0.021374863 0.034023996 0.040422663 -0.01465696 -0.00493021 0.032824285 -0.017331483
0.0030401761 -0.027020618 -0.023946555 -0.0022420392 -0.010164234 0.008897003 0.016775701 -0.03376631
-0.0025723279 -0.0059796744 0.038293254 0.027933523 0.0284668 0.0040844725 -0.002841158 0.01952255
0.019759474 0.011841506 -0.037030213 0.022746708 0.00032482628 0.012232856 0.03845852 0.0045242794
0.040932957 0.016376397 0.0063180174 -0.016587641 0.001075057 0.023127973 0.034434203 -0.048882946
0.046245217 0.0060301195 -0.015325791 0.0044535655 0.014717805 -0.006753726 -0.006054876 -0.008003394
0.008568342 -0.017179372 0.03538526 0.04353885 -0.014849145 -0.016184255 0.030765316 -0.0025309564
-0.026156655 -0.001918843 0.036306422 0.027204767 0.008560389 0.0039366744 -0.012984277 0.022648584
0.017437954 -0.03313067 -0.062203284 -0.021183394 -0.009348682 -0.043488815 0.03837093 0.03792078
0.010374266 0.04682465 -0.015336458 -0.0005303067 0.010455343 -0.022952983 -0.053209078 -0.002353629
0.017039584 0.0035029622 0.0037877646 -0.007977744 -0.0017895452 0.020641103 -0.016958423 0.006429747
0.038900666 0.045236193 -0.021785066 -0.0029626347 -0.017392736 -0.04342685 -0.010779321 0.038972862
0.01979312 0.019952009 0.017166466 0.039468057 -0.0138452 -0.006605398 -0.016774224 -0.0011633888
0.010656783 -0.008452804 -0.005860547 0.0054086344 0.031395134 0.026808687 -0.0074058576 0.021019587
-0.03948492 0.001750163 0.00100154 0.042899698 -0.004932037 -0.00026431412 0.038464956 -0.007949575
0.002829334 -0.0154051045 0.013466892 -0.025209613 -0.018122539 0.015940476 0.0019228306 -0.031003965
-0.024443675 -0.021009365 -0.012833436 -0.0256638 0.013936033 0.008490946 -0.02449588 0.02626
0.015751366 0.05501219 -0.024540763 -0.019221019 -0.041235935 0.010152025 -0.010792048 -0.009977607
-0.0002719474 0.01813102 0.03587502 0.038622424 0.004247676 -0.0014479833 0.009944358 -0.0002177217
-0.03550764 -0.00061273505 -0.0363782 -0.014470067 0.021911263 -0.03486979 -0.0075056255 -0.0039499975
-0.03534793 -0.04158934 0.024417767 -0.022388624 -0.0032411667 0.007254476 0.0036130915 -0.054149643

motion_mlp.mlps.4.fc0.fc.bias f4 [50]
00000000: bbbe 2837 3d52 b936 3464 35b5 ef37 edb5
00000010: c30b e536 0fde 75b5 1320 3737 d644 43b6
00000020: 2c35 71b5 a6e3 d9b5 b0b6 6cb6 0093 d436
00000030: 6ae0 00b5 b969 3c35 30b8 9ab6 da84 97b4
00000040: 5cbe 1236 296c aab4 6bc6 c7b6 d119 dab6
00000050: 99b3 95b5 8f80 8535 0d73 4236 f587 db34
00000060: ba42 d634 26de 80b6 308a 1036 29b5 4335
00000070: c249 a2b6 906f 86b6 4c23 17b6 9a02 6bb6
00000080: 4462 a035 d596 9a36 8870 9a33 bfaa bb35
00000090: fccd 56b5 4352 b236 4b78 afb5 2d84 9cb4
000000a0: ebe9 89b5 c4a4 9a36 ff37 d3b6 199d bc36
000000b0: 1907 8735 1db0 0e36 b30a 85b5 62ce 63b6
000000c0: 62b0 3db6 21f7 4e36
1.0057988e-05 5.5230034e-06 -6.757357e-07 -1.7674155e-06 6.826101e-06 -9.159275e-07 1.0915118e-05 -2.9097332e-06
-8.985687e-07 -1.6234014e-06 -3.5273079e-06 6.3352054e-06 -4.801028e-07 7.0189304e-07 -4.611e-06 -2.8222604e-07
2.18665e-06 -3.1743664e-07 -5.953761e-06 -6.4999117e-06 -1.1153635e-06 9.946688e-07 2.897522e-06 4.089085e-07
3.9909156e-07 -3.8405587e-06 2.1538108e-06 7.2906784e-07 -4.8365628e-06 -4.006499e-06 -2.25213e-06 -3.5019243e-06
1.1949528e-06 4.607117e-06 7.191653e-08 1.3982279e-06 -8.002096e-07 5.31439e-06 -1.3073526e-06 -2.9153435e-07
-1.0275375e-06 4.608739e-06 -6.294809e-06 5.621125e-06 1.006035e-06 2.126216e-06 -9.912386e-07 -3.3945767e-06
-2.8265863e-06 3.084024e-06
