src/siMLPe/exps/baseline_amass/log/snapshot/model-iter-65000.pth (torch, 604338 bytes, 196 tensors)

motion_mlp.mlps.0.fc0.fc.weight f4 [50, 50]
0	0xbd3c5b75	-0.045985658
1	0xbdb9bf77	-0.09069722
2	0x3d0cada6	0.03434529
3	0xbd49bfa2	-0.04925502
4	0x3cb15768	0.021648124
5	0xbc97f9c9	-0.018551724
6	0x3cda1ada	0.026624132
7	0xbd0fda6e	-0.03512042
8	0xbbbe703f	-0.0058117206
9	0xbd0349a6	-0.03205266
10	0xba57455c	-0.00082119345
11	0xbc9269e6	-0.017872762
12	0xbb1b4247	-0.0023690627
13	0xbcc00f01	-0.023444654
14	0xbbf162ad	-0.0073664994
15	0xbc82785e	-0.015926536
16	0xbc0500f3	-0.008117902
17	0xbc907f93	-0.017638957
18	0xbb9e165f	-0.004824444
19	0xbca8575c	-0.020549469
20	0xbc4c6893	-0.012476104
21	0xbc661bd1	-0.014044718
22	0xbc19a424	-0.009377513
23	0xbcc31b02	-0.02381659
24	0xbbf5c59a	-0.0075003626
25	0xbc9bc009	-0.019012468
26	0xbc40d462	-0.011769386
27	0xbc6bbd35	-0.014388372
28	0xbc1e770b	-0.009671937
29	0xbc23ccd7	-0.009997568
30	0xbc56d592	-0.013112443
31	0xbbd21cde	-0.0064121326
32	0xbc2336e2	-0.009961816
33	0xbbc1151e	-0.00589241
34	0xbc45a1bb	-0.012062485
35	0xbb477670	-0.0030435584
36	0xbc435d21	-0.011924059
37	0xbb1bdc78	-0.0023782533
38	0xbc33da4d	-0.01097734
39	0xba8e1e86	-0.0010842837
40	0xbc180968	-0.009279586
41	0xb9bc7d2c	-0.00035951415
42	0xbc10ca62	-0.008837314
43	0xb988ad16	-0.000260689
44	0xbbae351a	-0.005316389
45	0xba15d3bf	-0.00057154516
46	0xbb980196	-0.004638861
47	0xb8e8484a	-0.00011076087
48	0xbb749131	-0.0037317986
49	0xbafa1a48	-0.0019081319
50	0x3bec2f94	0.00720782
51	0xbd699025	-0.057022233
52	0xbb0af28c	-0.0021201698
53	0xbb9d2706	-0.0047959117
54	0xbcdbc377	-0.026826603
55	0xbc8f0b59	-0.017461466
56	0xbd039a05	-0.032129306
57	0x3c76840a	0.015046129
58	0xbc55da82	-0.013052585
59	0xbce498c6	-0.02790488
60	0x3b956512	0.0045591677
61	0xbcd4e804	-0.02598954
62	0xbb5bf149	-0.0033560565
63	0xbc0d0e80	-0.008609414
64	0xbc5a2b25	-0.0133159505
65	0x39add036	0.0003315226
66	0xbc89bfb4	-0.016815044
67	0xbba43423	-0.005011098
68	0xbbf2b0ea	-0.0074063437
69	0xbc04269a	-0.008065844
70	0xbc0fdbf7	-0.008780471
71	0xbc6a0e13	-0.014285582
72	0xbc389660	-0.011266321
73	0xbc5b11f8	-0.013370983
74	0xbc1a5dd3	-0.0094217835
75	0xbc57799d	-0.013151553
76	0xbc363d64	-0.011123035
77	0xbc31caf0	-0.010851607
78	0xbc102b78	-0.008799426
79	0xbc53bc56	-0.012923321
80	0xbc2e68fa	-0.010645146
81	0xbc191220	-0.0093427
82	0xbc5cca9d	-0.013476041
83	0xbc2125ae	-0.009835644
84	0xbc64cdd5	-0.01396509
85	0xbc1904da	-0.009339536
86	0xbc777819	-0.015104317
87	0xbc129c6b	-0.008948426
88	0xbc6c5436	-0.014424374
89	0xbc184589	-0.009293922
90	0xbc67f282	-0.014156939
91	0xbc25dce8	-0.010123469
92	0xbc5ca3e2	-0.013466807
93	0xbc2b0f83	-0.01044071
94	0xbc5adc4a	-0.013358185
95	0xbc31b6dd	-0.010846821
96	0xbc5023fa	-0.01270389
97	0xbc38974a	-0.011266539
98	0xbc4598ae	-0.012060327
99	0xbc3be442	-0.011467995
100	0xbb58f3d2	-0.0033104313
101	0xbd0a7021	-0.03379834
102	0x3c9c7131	0.019096943
103	0xbc3113fd	-0.010807988
104	0x3935fc23	0.00017355433
105	0xbd10079f	-0.035163518
106	0x3c675fef	0.014121993
107	0x3bc975dd	0.0061480836
108	0x3c9e0fd7	0.019294662
109	0xbcab5d77	-0.020918591
110	0x3ce6e1a3	0.028183764
111	0xbc164e20	-0.0091739
112	0x3cfcfb59	0.03088157
113	0xbb26534a	-0.0025379234
114	0x3d05d8eb	0.032677572
115	0x3bfa474b	0.0076378933
116	0x3cc93df4	0.024565674
117	0x3ca5aad6	0.020223062
118	0x3d13d3a4	0.036090508
119	0x3c1f158a	0.009709725
120	0x3d01d208	0.031694442
121	0x3c11583f	0.008871137
122	0x3cc23762	0.02370805
123	0x3c565a88	0.013083108
124	0x3cddd080	0.02707696
125	0x3c19b2d4	0.009381015
126	0x3cae3bf3	0.02126882
127	0x3c688e0d	0.014194024
128	0x3caf853b	0.021425834
129	0x3c971195	0.018441001
130	0x3c82bda0	0.01595956
131	0x3cb046c4	0.021518119
132	0x3c9274a7	0.01787789
133	0x3cbd94d4	0.023142256
134	0x3c51d198	0.012806319
135	0x3cd94bb7	0.026525361
136	0x3c6a6718	0.014306806
137	0x3cd532c0	0.026025176
138	0x3c7d2268	0.015450098
139	0x3cd39575	0.025828103
140	0x3c6f7058	0.014614187
141	0x3cdaeaf4	0.026723363
142	0x3c721b0e	0.014776958
143	0x3cd953fb	0.026529303
144	0x3c92abe8	0.017904237
145	0x3cc4d9e9	0.024029689
146	0x3ca5a5d5	0.020220676
147	0x3cc103c7	0.023561371
148	0x3ca9cd86	0.020727884
149	0x3cbe96bb	0.023265233
150	0xbc155f65	-0.009116982
151	0x3d0e2404	0.034702316
152	0xbcce0c7c	-0.025152437
153	0x3cd61f7f	0.026138065
154	0xbd068903	-0.03284551
155	0x3d0a9731	0.033835594
156	0xbcc7378d	-0.02431848
157	0x3d401fa7	0.046905186
158	0xbc8c60a5	-0.017135927
159	0x3d5434a2	0.051808007
160	0xbc910cac	-0.017706238
161	0x3d32b0ca	0.04362563
162	0xbbd64512	-0.0065389955
163	0x3d0436b9	0.03227875
164	0x3b84a8f9	0.0040484634
165	0x3cc0f213	0.02355293
166	0x3c5f7492	0.013638632
167	0x3cb48dff	0.022040365
168	0x3c48c294	0.012253422
169	0x3d1c1b46	0.038111947
170	0x3c70344b	0.014660905
171	0x3cfaaa6a	0.030598838
172	0x3c682f1c	0.014171388
173	0x3cff64ad	0.031175936
174	0x3c9fb39c	0.019494824
175	0x3cff30dd	0.03115123
176	0x3ca935a9	0.02065547
177	0x3ccfbb39	0.02535783
178	0x3ca470fd	0.020073408
179	0x3ccc1af0	0.024915189
180	0x3c9e177b	0.019298306
181	0x3cb656fe	0.022258278
182	0x3caa9656	0.020823639
183	0x3ca4e0f6	0.020126801
184	0x3ca71399	0.020395087
185	0x3ca8d126	0.020607542
186	0x3c8ce3a6	0.017198395
187	0x3c9bf265	0.019036481
188	0x3c93eecc	0.018058203
189	0x3c8f3148	0.017479554
190	0x3c931ebf	0.017958997
191	0x3c80bb01	0.01571417
192	0x3c8dbd90	0.017302305
193	0x3c73e517	0.014886162
194	0x3c80ef73	0.015739178
195	0x3c7565bb	0.014977868
196	0x3c724434	0.014786769
197	0x3c6991ba	0.014255935
198	0x3c724600	0.014787197
199	0x3c67599f	0.014120488
200	0x3ab2188b	0.0013587637
201	0xbcc6d8b6	-0.024273258
202	0x3cb5af02	0.022178177
203	0x3c4b60be	0.012413202
204	0xbd8c37f0	-0.06846607
205	0xbcaaaa0d	-0.02083304
206	0xbc462928	-0.012094773
207	0xbceba582	-0.028765444
208	0xbc048246	-0.0080877
209	0xbcdc870a	-0.02691986
210	0xbc9663ae	-0.018358078
211	0xbcac4290	-0.021027833
212	0xbcd766f3	-0.026294207
213	0xbcc68552	-0.024233494
214	0xbcd13bfe	-0.025541302
215	0xbc878df7	-0.016547186
216	0xbca47f78	-0.020080313
217	0xbc2b758e	-0.010465039
218	0xbc50fcf2	-0.012755619
219	0xbb8eed48	-0.004361782
220	0xbc8b2881	-0.016987087
221	0x3b87a41d	0.004139437
222	0xbc129537	-0.008946708
223	0x3bcafe81	0.00619489
224	0xbc271032	-0.010196732
225	0x3c4cd458	0.012501799
226	0xbbb625d4	-0.0055587087
227	0x3c3c7f8a	0.011505017
228	0xbafdee3f	-0.0019373371
229	0x3c38cf9a	0.011279965
230	0x3b0f0624	0.0021823728
231	0x3c183d90	0.009292021
232	0x3ba2e1c1	0.0049707596
233	0x3c1b0191	0.009460823
234	0x3c14fc99	0.009093427
235	0x3c0037f6	0.007825842
236	0x3c3e088c	0.011598717
237	0x3c001be2	0.007819148
238	0x3c36d548	0.011159249
239	0x3c2afe59	0.010436618
240	0x3c3ef9c3	0.0116562275
241	0x3c2c7a5d	0.010527221
242	0x3c598f6e	0.013278825
243	0x3c52c7c1	0.012865008
244	0x3c60884e	0.013704373
245	0x3c2ce79a	0.010553265
246	0x3c613f0c	0.013747942
247	0x3c56952c	0.013097089
248	0x3c596413	0.013268488
249	0x3c5988f0	0.013277277
250	0x3ad11089	0.0015950362
251	0xbbf8296b	-0.007573297
252	0x3c3e9afc	0.011633631
253	0x3b9608fc	0.0045787077
254	0xbbae2649	-0.0053146225
255	0xbd48caf0	-0.04902166

motion_mlp.mlps.0.fc0.fc.bias f4 [50]
0	0xb80a19a2	-3.2925636e-05
1	0x37914e54	1.7321821e-05
2	0xb6b0cad8	-5.268823e-06
3	0x36a0d296	4.792887e-06
4	0xb8a27d30	-7.74808e-05
5	0xb61d1398	-2.3406228e-06
6	0x384bf046	4.8622744e-05
7	0x364b30ff	3.0277877e-06
8	0x39019380	0.00012357347
9	0xb68013a3	-3.8169833e-06
10	0xb741cd12	-1.1551443e-05
11	0xb7833a86	-1.5643669e-05
12	0xb718a2b0	-9.097785e-06
13	0x36f0faaf	7.181741e-06
14	0x36966e18	4.483165e-06
15	0x37ab52b8	2.0423307e-05
16	0x36f02555	7.1569034e-06
17	0x36a124c8	4.802456e-06
18	0xb792f74b	-1.7519711e-05
19	0xb8578e4a	-5.139251e-05
20	0x3a631c1b	0.0008663551
21	0x380cb7cf	3.3549786e-05
22	0x393f163d	0.00018223464
23	0x37efba51	2.857778e-05
24	0x37d5ab9d	2.5471492e-05
25	0x387ec7b8	6.074432e-05
26	0x388544b8	6.354734e-05
27	0xb7b39e49	-2.141217e-05
28	0x36fd1c96	7.5433154e-06
29	0x3823a64c	3.9017104e-05
30	0x3816ee20	3.5984558e-05
31	0x38413695	4.606562e-05
32	0x369c0572	4.649796e-06
33	0xb78528b7	-1.5873795e-05
34	0x36986291	4.5414276e-06
35	0xb87f2dd8	-6.0839433e-05
36	0xb9039c1b	-0.00012551287
37	0x3714c139	8.866476e-06
38	0x37ae223b	2.0758356e-05
39	0x37e6fcb5	2.7535812e-05
40	0xb7d3b8a8	-2.5239147e-05
41	0xb8165ae4	-3.5847435e-05
42	0xb8391c3b	-4.413373e-05
43	0x35b0c2d0	1.316972e-06
44	0xb8410314	-4.6017652e-05
45	0xb7aa9e7a	-2.0339376e-05
46	0x37bca35d	2.2487418e-05
47	0x380e535d	3.3933076e-05
48	0xb75339b1	-1.2590012e-05
49	0x380c9e0e	3.35258e-05

motion_mlp.mlps.0.norm0.alpha f4 [1, 54, 1]
0	0x3df3ed30	0.11910474
1	0x3df58691	0.11988557
2	0x3df56c6e	0.11983572
3	0x3ded375d	0.11582825
4	0x3e21c666	0.15798339
5	0x3db67861	0.08909679
6	0x3e1cafe8	0.15301478
7	0x3df094b0	0.1174711
8	0x3e216a06	0.15763101
9	0x3e33281b	0.17495768
10	0x3df326ea	0.11872657
11	0x3e344434	0.17604142
12	0x3e34a450	0.17640805
13	0x3e1401c8	0.14453804
14	0x3dfde8df	0.12397932
15	0x3e1b1569	0.15144886
16	0x3e01cb93	0.12675314
17	0x3e04d330	0.12971187
18	0x3e2088a2	0.15677121
19	0x3e459397	0.19294582
20	0x3e1f545c	0.15559524
21	0x3e2c4cd9	0.1682619
22	0x3e3cbb81	0.18430902
23	0x3e33cc03	0.17558293
24	0x3dfdce3b	0.12392851
25	0x3e01066f	0.1260011
26	0x3e5753d3	0.2102807
27	0x3e280798	0.16409147
28	0x3e3b4542	0.18288139
29	0x3e27041b	0.1631016
30	0x3e2c2cb9	0.16813935
31	0xba3203b4	-0.0006790713
32	0x3e0f47c3	0.13992219
33	0x3dd9e984	0.10640243
34	0x3e02297e	0.1271114
35	0x3e0cebae	0.1376178
36	0x3df1e45b	0.118111335
37	0x3e58a447	0.21156417
38	0x3e02f622	0.12789205
39	0x3de063ab	0.1095651
40	0x3e10f3de	0.14155528
41	0x3df704c4	0.12061456
42	0x3e2150aa	0.15753427
43	0x3e04a58d	0.12953778
44	0x3e38320f	0.17987846
45	0x3e119c4a	0.14219776
46	0x3e482b55	0.1954778
47	0x3de20cf9	0.110376306
48	0x3ddcd30b	0.10782441
49	0x3e070371	0.13184907
50	0x3e483e18	0.19554937
51	0x3de6e666	0.11274414
52	0x3e5fb107	0.21844874
53	0x3e2a1fd0	0.16613698

motion_mlp.mlps.0.norm0.beta f4 [1, 54, 1]
0	0xba65b983	-0.00087633
1	0x3b0e9c5b	0.0021760676
2	0x3c178f73	0.00925051
3	0xba02c9b5	-0.0004989163
4	0xba07bd80	-0.0005178079
5	0xb99252f0	-0.00027909083
6	0x3959c8de	0.00020769562
7	0x3a900d3f	0.0010990276
8	0xba6dc8c0	-0.00090707466
9	0x3ae796a1	0.0017668792
10	0x3bee0d6f	0.007264785
11	0xb9495d35	-0.00019203576
12	0x3999bf95	0.00029325174
13	0x39adc8de	0.0003314679
14	0x39b76962	0.00034982996
15	0xb80be0c5	-3.3349515e-05
16	0x3affa6c2	0.0019504654
17	0xbafe5b63	-0.0019405897
18	0x3ae63b10	0.001756521
19	0x3ae76418	0.0017653732
20	0xb920265a	-0.00015273076
21	0x3a1f87ec	0.00060856226
22	0xb934d437	-0.00017245194
23	0x3a89a748	0.0010502124
24	0xbb19f4f1	-0.0023491944
25	0xbaf791a6	-0.0018888011
26	0x3ab07b23	0.0013464432
27	0x3a05a3c1	0.00050979486
28	0x3ad6bdf7	0.0016383518
29	0x3a9fcaa7	0.0012191132
30	0x3967b911	0.0002209882
31	0x3daa6e30	0.08321798
32	0x3ae59c8b	0.0017517967
33	0x3a49bfee	0.0007696141
34	0xbade5f00	-0.0016965568
35	0x398b4387	0.00026562458
36	0x39ba68d4	0.00035554788
37	0xbbb1c314	-0.0054248665
38	0x39e0c271	0.0004286948
39	0x3af41305	0.0018621391
40	0x3981a4c3	0.00024727554
41	0xbac69c0b	-0.0015152706
42	0xb9f5bb18	-0.00046869437
43	0xb936e8de	-0.00017443622
44	0x3a717aae	0.0009211701
45	0xb994a195	-0.00028349148
46	0x3a88215d	0.001038592
47	0xbb976684	-0.004620375
48	0xba4575f8	-0.00075325323
49	0xbbbe94ea	-0.005816092
50	0x3a99c38d	0.0011731252
51	0xba104726	-0.0005503766
52	0x3b0aa8a5	0.002115765
53	0xba1d11df	-0.00059917377

motion_mlp.mlps.1.fc0.fc.weight f4 [50, 50]
0	0xbd537e53	-0.051634144
1	0xbd026f7a	-0.031844594
2	0x3d48fa7c	0.049067006
3	0xbcfb9410	-0.03071025
4	0x3c1074e8	0.008816935
5	0xbc00bf8f	-0.007858171
6	0x3bad77e8	0.005293835
7	0xba368553	-0.0006962616
8	0x3b2420ae	0.0025043893
9	0xbce3fe18	-0.027831122
10	0x3bacf58b	0.0052782944
11	0x3c9a89ae	0.018864479
12	0x3c885395	0.016641418
13	0x3b96dd95	0.0046040514
14	0xbc13e454	-0.009026606
15	0xbc1c93f7	-0.009556762
16	0xbc4420f3	-0.011970746
17	0xbcab912a	-0.020943243
18	0xbcdcc595	-0.026949683
19	0xbc8f05be	-0.017458793
20	0xbd8c6bcd	-0.06856499
21	0xbd57442d	-0.052555252
22	0xbd0d480c	-0.034492537
23	0x3bb93a5d	0.0056527094
24	0xbb3001a0	-0.0026856437
25	0xba8ab6c3	-0.0010583032
26	0x3ca48d61	0.020086946
27	0x3a9f30a1	0.001214523
28	0xbbe9163e	-0.007113247
29	0x3c2176f5	0.009855022
30	0xbc9cd1b3	-0.019142961
31	0xbc866d40	-0.016409516
32	0xbcb973ad	-0.022638166
33	0xbcdcae69	-0.026938634
34	0xbc998678	-0.018740878
35	0xbcdcc22a	-0.026948053
36	0xbc9682ce	-0.01837292
37	0x3c8b8127	0.017029358
38	0xbcca8102	-0.024719719
39	0xbadc1c3b	-0.0016793081
40	0x3b29c37d	0.0025903874
41	0x3b814e94	0.003946135
42	0xbbbdcbf4	-0.0057921354
43	0xbcd4909a	-0.025947858
44	0x3c901e63	0.017592615
45	0xbd14caaa	-0.036326088
46	0xbc9b9236	-0.018990617
47	0xbd0fe181	-0.035127167
48	0x3cc161a5	0.02360613
49	0xbc20380a	-0.009778986
50	0xbc068eaf	-0.008212729
51	0xbccc0fcc	-0.024909876
52	0x3d9bd4ae	0.07608925
53	0xbd05b4be	-0.032643072
54	0xbc91ac50	-0.01778236
55	0x3c280ec5	0.010257428
56	0xbd7cfb33	-0.061763
57	0x3b8ef4a0	0.0043626577
58	0x3b4726b3	0.0030388057
59	0xbcc4449d	-0.023958499
60	0xba0883ac	-0.0005207609
61	0x3ccc0764	0.024905868
62	0xbb8423a9	-0.0040325713
63	0x3c609a1a	0.013708616
64	0x3ce3ca3a	0.02780639
65	0xbc7b39d7	-0.015333614
66	0x3b0f3921	0.002185412
67	0x3c98a7b4	0.018634655
68	0x3bc57bd7	0.0060267258
69	0xbc553234	-0.013012458
70	0x3d6b5922	0.05745805
71	0x3b506648	0.0031799246
72	0x3d21129f	0.0393244
73	0xbd0d9348	-0.034564286
74	0xbc0cce21	-0.008594067
75	0x3baf13a7	0.005342919
76	0x3d694976	0.056954823
77	0x3cc3150a	0.023813743
78	0x3b1a72aa	0.002356688
79	0xbb8772af	-0.0041335444
80	0xbcb1b726	-0.021693777
81	0xbc94ed05	-0.018179426
82	0xbb130d1b	-0.0022438231
83	0x3c92735f	0.017877279
84	0xbc9960b2	-0.018722866
85	0x3ca66965	0.020313928
86	0x3c87a330	0.016557306
87	0xbc50bbd4	-0.012740094
88	0xbb80a316	-0.0039256914
89	0x3c310dff	0.01080656
90	0x3cc1c5ce	0.023653891
91	0xbca28ec2	-0.019843463
92	0x3ba6b117	0.0050870287
93	0xbc5c3d01	-0.013442279
94	0x3da93364	0.08261755
95	0x3ce802f8	0.028321728
96	0x3b585209	0.003300788
97	0xbc256f67	-0.010097361
98	0x3d2450a8	0.040115982
99	0xbc87fe1b	-0.01660066
100	0xba13cec8	-0.0005638418
101	0xbbdd880c	-0.006760603
102	0xbc62814b	-0.013824771
103	0xbc8cecdf	-0.017202793
104	0x3c04a145	0.00809509
105	0x3ac40ee2	0.0014958049
106	0xbcb2e3d1	-0.021837147
107	0x3abcabeb	0.0014394497
108	0xbcacdc0b	-0.021101018
109	0x3cb194ee	0.02167746
110	0x3c1a6694	0.009423871
111	0xbc8161d5	-0.01579372
112	0xbc57463c	-0.013139304
113	0x3c10e6c5	0.008844082
114	0x3c377100	0.011196375
115	0xbc83ddd3	-0.016096985
116	0xbb99a13d	-0.0046884106
117	0x3bf69c07	0.007525924
118	0xbb952353	-0.00455133
119	0xbc0dbee5	-0.00865147
120	0xbd16dca7	-0.036831524
121	0x3cceecb7	0.025259359
122	0xbe76762c	-0.24068516
123	0x3c7c754d	0.015408826
124	0xbc87c29c	-0.01657229
125	0x3c82a4dd	0.015947754
126	0xbce43d98	-0.027861401
127	0xbc06cb70	-0.008227214
128	0xbca33551	-0.019922884
129	0x3b4ac3da	0.003093949
130	0xbcf97ddd	-0.030455524
131	0x3bf912f7	0.0076011377
132	0x3c7b0833	0.015321779
133	0x3c2f1bbd	0.010687766
134	0x3b70bb30	0.0036732666
135	0xbd9f2780	-0.07771206
136	0x3d5d21af	0.0539872
137	0x3bff04b7	0.0077825445
138	0x3a9b0eba	0.001182995
139	0xbad62b55	-0.0016339818
140	0xbcd579e3	-0.026059097
141	0xbcd81222	-0.026375834
142	0x3caa55e8	0.020792916
143	0x3c07bb38	0.0082843825
144	0xbc08e62e	-0.00835566
145	0x3c4458f4	0.011984099
146	0x3b501095	0.0031748165
147	0x3bd2c50c	0.006432181
148	0x3b45dc28	0.0030191038
149	0x3b814acd	0.0039456845
150	0xbc465d0c	-0.012107145
151	0x3ca5eb87	0.02025391
152	0x3d30c944	0.04316069
153	0x3cc4952d	0.023996914
154	0x3cd9261a	0.026507426
155	0x3d20771d	0.039176095
156	0xbd73c212	-0.05951125
157	0xbbeb909d	-0.00718887
158	0x3c9eab72	0.01936886
159	0x3c5803ef	0.013184532
160	0xbbb0786b	-0.0053854487
161	0x3c0cd6a9	0.008596101
162	0x3bbf78a1	0.0058432375
163	0x3a4816b8	0.000763278
164	0x3d4df4c8	0.05028227
165	0xbcf29103	-0.029610163
166	0xbc53f5f3	-0.012937057
167	0x3cb06e54	0.021536984
168	0x3b37e099	0.0028057455
169	0xba1ba7ac	-0.0005937766
170	0xbcafaaf8	-0.021443829
171	0x3c95d2f5	0.018289069
172	0xbcc88bdd	-0.024480755
173	0xbcb2c244	-0.021821149
174	0x39ad5c39	0.00033065843
175	0x3b4ce604	0.003126503
176	0xbbfa5d82	-0.0076405415
177	0x3abc229e	0.0014353578
178	0xbc8f1b4d	-0.017469073
179	0xbcaf7797	-0.02141933
180	0x3d181a8e	0.0371347
181	0x3caa2ce1	0.020773353
182	0x3cf35429	0.029703217
183	0x3d2b161a	0.041769125
184	0xbca05604	-0.019572265
185	0xbc9f5db7	-0.019453866
186	0x3d1991c6	0.037492536
187	0xbc4cefab	-0.012508313
188	0xbbc5559a	-0.0060221674
189	0xbcb7553f	-0.022379516
190	0x3c8aa5a4	0.016924687
191	0x3c265eb5	0.010154416
192	0xbacf3617	-0.0015808967
193	0x3c618bfe	0.013766287
194	0xbd096259	-0.033541057
195	0x3c903528	0.017603472
196	0x3d1f746f	0.0389294
197	0x3d1f02b1	0.038820926
198	0xbb30d414	-0.0026981877
199	0xbb6d3108	-0.0036192555
200	0xbcaf88a2	-0.021427456
201	0xbbb6530b	-0.0055640987
202	0xbcd22aa1	-0.025655093
203	0xbd1b90b2	-0.03797979
204	0xbd624f7f	-0.055251595
205	0xbc22ec4b	-0.009944032
206	0x3d8e1b0a	0.06938751
207	0x3c30ea54	0.010798056
208	0xbd79fe55	-0.061033566
209	0x3ae75936	0.0017650488
210	0x3c410f2c	0.011783402
211	0x3b3d0883	0.0028844185
212	0xbbc7e403	-0.006100179
213	0x3cc42ccc	0.023947142
214	0x3c83a663	0.01607055
215	0x3ce763df	0.028245864
216	0xbbf5211f	-0.007480755
217	0xbb8e201b	-0.0043373234
218	0x3980b566	0.00024549215
219	0xbcc43a8c	-0.023953699
220	0xbb9ea088	-0.004840914
221	0xb814791e	-3.539875e-05
222	0xbc0c23d7	-0.008553467
223	0xbc975335	-0.018472293
224	0x3d19ea95	0.03757723
225	0x3d393b7a	0.045222737
226	0xbd11d719	-0.035605524
227	0xbd243505	-0.040089626
228	0x3cd36bfc	0.025808327
229	0x3d467d52	0.04845936
230	0xbced420c	-0.028962158
231	0xbb17cb45	-0.002316193
232	0xbcb6c0c9	-0.022308724
233	0xbbb8ea12	-0.0056431377
234	0xbcf0b071	-0.029381009
235	0xbcf2892f	-0.02960643
236	0xbc41b8e3	-0.011823866
237	0x3c5635ce	0.0130743515
238	0xbbba4888	-0.005684916
239	0x3d2db4b4	0.04240866
240	0x3ce9f110	0.02855733
241	0x3d85facc	0.06541976
242	0xbc4ea091	-0.012611524
243	0xbb91a662	-0.004444883
244	0x3cde440f	0.027132062
245	0x3c4b9479	0.012425535
246	0xbca0e2c0	-0.019639373
247	0xbd2b0971	-0.04175705
248	0x3b3891f9	0.0028163178
249	0x3bbca306	0.0057567386
250	0x3d04c96b	0.03241865
251	0x3c92f867	0.017940713
252	0xbcc3e3a9	-0.023912268
253	0x3ccc6713	0.024951493
254	0x3c2c09c3	0.010500374
255	0xbd6f1fd2	-0.058379956

motion_mlp.mlps.1.fc0.fc.bias f4 [50]
0	0x37010e21	7.692289e-06
1	0xb651b14d	-3.124663e-06
2	0x37985110	1.815756e-05
3	0xb6f086f5	-7.1682684e-06
4	0x36d0173f	6.2015893e-06
5	0xb5906181	-1.0757213e-06
6	0x36732e17	3.623665e-06
7	0x35bf13f6	1.4236418e-06
8	0xb6188408	-2.2726617e-06
9	0x35b9222b	1.3793518e-06
10	0xb66f94f7	-3.5700484e-06
11	0x370a6a1d	8.250147e-06
12	0x3697cbbe	4.5238694e-06
13	0x3690894f	4.3075192e-06
14	0xb75d229e	-1.3180686e-05
15	0xb6622ad3	-3.3701551e-06
16	0xb4470adf	-1.8537274e-07
17	0xb6cda059	-6.128143e-06
18	0x370efd47	8.52283e-06
19	0x36a5aa79	4.937229e-06
20	0x36692469	3.47409e-06
21	0xb5cf868f	-1.5461864e-06
22	0x3691d670	4.3463006e-06
23	0x3724c51c	9.821055e-06
24	0xb6874f40	-4.0325394e-06
25	0x3669678f	3.4779985e-06
26	0xb4baeb58	-3.4816435e-07
27	0x36813908	3.851139e-06
28	0x362100aa	2.3991256e-06
29	0x362ceb7b	2.5767065e-06
30	0xb7063525	-7.999396e-06
31	0xb788bec9	-1.6301305e-05
32	0xb663c077	-3.3937665e-06
33	0x37109753	8.618302e-06
34	0x36e7c79f	6.9075754e-06
35	0x382955b6	4.0372564e-05
36	0x369d2517	4.6832824e-06
37	0xb734c1e8	-1.0773983e-05
38	0x36a33750	4.8642178e-06
39	0xb8a98c18	-8.0846425e-05
40	0x359e7b54	1.180781e-06
41	0xb6142f69	-2.2081315e-06
42	0xb6cae65b	-6.046886e-06
43	0x3774fa64	1.4601832e-05
44	0xb548b554	-7.4769673e-07
45	0x368122c4	3.848547e-06
46	0x370631db	7.99863e-06
47	0xb5e39ed7	-1.6959046e-06
48	0x37165e93	8.9627165e-06
49	0x36ede10d	7.0893498e-06

motion_mlp.mlps.1.norm0.alpha f4 [1, 54, 1]
0	0x3da77f4d	0.081785776
1	0x3d8de126	0.06927709
2	0x3e3d3ed3	0.18480997
3	0x3db4d56d	0.0882977
4	0x3d9355eb	0.07194122
5	0x3db1f6f3	0.0868968
6	0x3d7d320b	0.061815303
7	0x3d9fe9f5	0.07808296
8	0x3d7d164f	0.061788853
9	0x3de7c5d0	0.113170266
10	0x3e1197d2	0.14218071
11	0x3d80975c	0.062788695
12	0x3d9f463f	0.0777707
13	0x3dac291a	0.08406277
14	0x3d739a0c	0.059473082
15	0x3db560fc	0.08856389
16	0x3da46f51	0.080290444
17	0x3d98bf8f	0.07458412
18	0x3db49d99	0.08819122
19	0x3e4b5873	0.1985796
20	0x3d90a53e	0.070627674
21	0x3da0bf8d	0.078490354
22	0x3dbe7adb	0.093007766
23	0x3d99d2bb	0.07510897
24	0x3dc9c9da	0.09852953
25	0x3dbfe9d8	0.09370774
26	0x3d94936f	0.07254683
27	0x3d803a14	0.062610775
28	0x3d84e784	0.064894706
29	0x3d96a1ea	0.073551014
30	0x3da809d0	0.082049966
31	0x3cb7a933	0.022419548
32	0x3d3ce06a	0.046112455
33	0x3d7a15de	0.06105601
34	0x3dd81064	0.10550001
35	0x3d8b313b	0.06796499
36	0x3d8271fb	0.06369396
37	0x3dcf1c5a	0.101128295
38	0x3d922eda	0.071378425
39	0x3dca3de5	0.09875087
40	0x3da69816	0.08134477
41	0x3da5f5fc	0.081035584
42	0x3db0c72e	0.086317405
43	0x3d9b409e	0.07580684
44	0x3daeaaeb	0.08528694
45	0x3dbe035c	0.092779845
46	0x3e527a96	0.20554575
47	0x3d9b6355	0.075873055
48	0x3dbc3307	0.0918942
49	0x3e09b07f	0.13446234
50	0x3d930f70	0.07180679
51	0x3daed4be	0.08536671
52	0x3da406be	0.080090985
53	0x3dea5e93	0.1144382

motion_mlp.mlps.1.norm0.beta f4 [1, 54, 1]
0	0xbc09306d	-0.008373362
1	0x3c8af242	0.01696122
2	0xbb0ec642	-0.0021785651
3	0xbb73ec1d	-0.0037219592
4	0xba2a80ff	-0.0006504207
5	0xbb701042	-0.0036630784
6	0xbb3ee35d	-0.0029127218
7	0x39c6a439	0.00037887858
8	0x3b90a7d7	0.0044145393
9	0xbd24164e	-0.040060334
10	0x3ce85fbd	0.028365964
11	0xba17f1d5	-0.00057962287
12	0x3a809804	0.0009810929
13	0x3b02edc7	0.0019978152
14	0x3b816627	0.003948945
15	0x3cddb48a	0.027063627
16	0x3c375095	0.011188646
17	0x3b8893d4	0.004168013
18	0xbcc056d2	-0.0234789
19	0x3afe5ab1	0.001940569
20	0x3acdfae9	0.0015715036
21	0x3a25ddf7	0.0006327326
22	0x3aabe23d	0.0013113689
23	0x3b8b8e3e	0.0042589
24	0x3c434673	0.011918652
25	0x3c2acb12	0.010424392
26	0x3b88fa05	0.0041801953
27	0x3b4d73cf	0.0031349545
28	0x3b1f1881	0.002427608
29	0x3b4ad160	0.003094755
30	0x3bc5f514	0.0060411785
31	0x3ab6f49c	0.0013958397
32	0xbcb4e4a6	-0.022081684
33	0xb98e46c3	-0.00027137072
34	0xbcd2bdd5	-0.025725285
35	0x3b0df0cb	0.0021658416
36	0xba26fe83	-0.00063703227
37	0x3d5c2e52	0.053755112
38	0x3ac840a9	0.0015278059
39	0x3ccef6bb	0.025264135
40	0x3a89ad34	0.0010503889
41	0xbb929c7d	-0.0044742213
42	0xbae3b29a	-0.0017371953
43	0x38b4c9a4	8.620627e-05
44	0xbb251300	-0.0025188327
45	0x3c025199	0.007954025
46	0xbb9e72b1	-0.0048354496
47	0xbc99bb56	-0.018766087
48	0xbaf18428	-0.0018426226
49	0x3ca7d1a4	0.020485707
50	0xbb3899f5	-0.0028167937
51	0xbc2859dd	-0.010275331
52	0x3b8aaaf8	0.004231807
53	0xbc474a19	-0.012163662

motion_mlp.mlps.2.fc0.fc.weight f4 [50, 50]
0	0xbcd165ac	-0.025561176
1	0xbc78f5d9	-0.015195333
2	0x3c07ac37	0.008280805
3	0xbcf9403a	-0.030426133
4	0xb93bdfd7	-0.00017917097
5	0x3b12e35e	0.0022413353
6	0xbd068d93	-0.03284986
7	0xbc5d816a	-0.013519624
8	0x3cb044f3	0.021517253
9	0xbc799f43	-0.015235725
10	0xbc0e7b7b	-0.008696432
11	0x3b87d08a	0.004144733
12	0xbc986bd7	-0.01860611
13	0x3a8a9504	0.0010572975
14	0xbb9730d9	-0.0046139774
15	0xbd9117eb	-0.0708464
16	0xbb21146a	-0.0024578818
17	0xbd07b7c1	-0.033134226
18	0xbc053dbc	-0.008132394
19	0x3d779235	0.06044217
20	0xbcfb1a4c	-0.030652188
21	0xbc82bb88	-0.015958562
22	0xbc9724dd	-0.018450195
23	0xbcc039ab	-0.023464998
24	0x3d08f2df	0.033434745
25	0xbba17ba4	-0.004928069
26	0xbcbedf2e	-0.02329978
27	0x3cdec203	0.027192121
28	0xbcbf3514	-0.02334074
29	0xbc5fa8ee	-0.013651116
30	0x3c1bad21	0.009501726
31	0xbccc0b21	-0.02490765
32	0xbc880774	-0.016605116
33	0xbc07f62a	-0.008298436
34	0xbcc40dbc	-0.02393233
35	0xbc8b7135	-0.017021755
36	0xbd3d99a1	-0.04628909
37	0xbc991f3d	-0.018691653
38	0xbc8f664f	-0.01750484
39	0xbc5d7f03	-0.0135190515
40	0x3c5fb24a	0.013653347
41	0xbbab4729	-0.005226989
42	0x3ca58ab6	0.020207744
43	0xbc520eee	-0.012820942
44	0x3908ece1	0.00013058215
45	0x3b099e02	0.002099872
46	0x3d011c14	0.031520918
47	0xbcaeef43	-0.021354323
48	0x3cdb46da	0.026767183
49	0xbc63c169	-0.013901093
50	0xbb147403	-0.0022652156
51	0xbc400544	-0.011720005
52	0xba5abe10	-0.00083443616
53	0xbcd6bab3	-0.026212072
54	0xbc9def79	-0.019279229
55	0xbc173f2e	-0.009231372
56	0xbca45300	-0.020059109
57	0xbd190e5a	-0.037367202
58	0xbb5f9a44	-0.003411905
59	0xbca5de2b	-0.02024754
60	0xbc31530a	-0.010823021
61	0x388b8e27	6.6545144e-05
62	0xbd34eb0d	-0.044169474
63	0x3cc9a12f	0.024612991
64	0xbce8b847	-0.028408183
65	0xbcfb4e41	-0.030676963
66	0xbc98e2a8	-0.018662766
67	0xbb581b8c	-0.0032975404
68	0xbb78db27	-0.0037972422
69	0x3cda573d	0.026652927
70	0xbc66ffc1	-0.014099062
71	0xbbffbaac	-0.0078042354
72	0xbcd6304e	-0.02614608
73	0x3ca21175	0.019783715
74	0xbcd0011e	-0.025391158
75	0xbc273fa1	-0.010208041
76	0xbd1161bc	-0.035493597
77	0xbc59f1ca	-0.013302276
78	0xbd190ae9	-0.03736392
79	0xbcbb9a86	-0.022900831
80	0xbaf75de5	-0.0018872587
81	0x3bec04f9	0.007202741
82	0xbcabf25d	-0.020989591
83	0x3c848e29	0.016181068
84	0xbc02a423	-0.007973704
85	0xbc2563d2	-0.0100946
86	0xbcbae239	-0.02281295
87	0x3c4c55e1	0.012471647
88	0xbc9f0497	-0.019411368
89	0xbc7f0956	-0.015566191
90	0xbc4800d8	-0.012207232
91	0x3c687374	0.014187682
92	0xbc916bae	-0.017751541
93	0xbb1a5d14	-0.0023554014
94	0x3c0c1c57	0.008551679
95	0x3bb9c422	0.005669133
96	0xbca54819	-0.02017598
97	0xbc017caa	-0.007903257
98	0x3cc35d79	0.023848282
99	0xbc2f8e84	-0.010715131
100	0xba17de88	-0.00057933526
101	0xbc247553	-0.010037738
102	0x3bc7fcf3	0.006103152
103	0xbc494d7d	-0.012286541
104	0xbc604e9c	-0.013690617
105	0x3d467b19	0.04845724
106	0xbd45a158	-0.048249573
107	0xba5fb13a	-0.0008533184
108	0xbb555389	-0.0032551012
109	0x3c4d86b9	0.012544327
110	0xbcce72fc	-0.025201313
111	0x3b56e89e	0.003279246
112	0x3c280dec	0.0102572255
113	0x3c09e32e	0.00841598
114	0xbbb8437a	-0.005623278
115	0xbd2256c1	-0.039633516
116	0xbc40b97d	-0.011762974
117	0xbb3c7878	-0.0028758328
118	0x3c148347	0.009064502
119	0x3c75d17b	0.015003557
120	0xbdd2e197	-0.10296934
121	0xbc70b1ff	-0.014690875
122	0xbcdfd7ba	-0.027324546
123	0xbb844e97	-0.004037689
124	0xbc0800e8	-0.008300997
125	0xbc652761	-0.013986439
126	0xbb6399ca	-0.0034729117
127	0x3c455d2e	0.012046142
128	0xbbbc32c2	-0.0057433555
129	0x3be7eaaf	0.007077537
130	0xbba057ef	-0.004893295
131	0xbc0dab81	-0.008646847
132	0x3bf4ebae	0.0074743843
133	0x3bae0062	0.005310104
134	0x3d15f465	0.036610026
135	0xbd4d2dfb	-0.05009268
136	0xbc800eaf	-0.015632002
137	0x3c2cbac3	0.010542574
138	0xbd1c93f0	-0.03822702
139	0x3e0bb59a	0.13643494
140	0xbc3eabe7	-0.011637664
141	0x3c8af31e	0.01696163
142	0x3c553189	0.013012298
143	0x3ce6b1e9	0.028161006
144	0x3affe0fa	0.0019522004
145	0x3cc2ec86	0.023794424
146	0x3c67783b	0.014127786
147	0x3be9becb	0.00713334
148	0x3bcebbbd	0.0063090012
149	0x3cf8dc8b	0.0303786
150	0x3c900a30	0.017582983
151	0x3d0d4ee3	0.03449906
152	0x3cd628ad	0.026142443
153	0xbd6d9d3b	-0.058011275
154	0xbd05536e	-0.032550268
155	0xbc2e6f86	-0.010646706
156	0x3cb521aa	0.022110779
157	0xbbd33ecd	-0.0064466954
158	0x3ca65819	0.02030568
159	0x3b2b88cf	0.0026174074
160	0x3cb5cf39	0.022193538
161	0xbc3462cc	-0.011009883
162	0xbcd8ae59	-0.026450323
163	0xba84c5dc	-0.0010129767
164	0x3c4b4b83	0.01240814
165	0x3c22de60	0.009940714
166	0x3c0761a8	0.008263029
167	0xbba0208f	-0.004886694
168	0x3c814cbe	0.015783664
169	0x3c6b1831	0.014349029
170	0x3b7de855	0.0038743217
171	0xbbeafd7c	-0.007171331
172	0xbc898ecd	-0.016791726
173	0x3d883193	0.066500805
174	0xbc9c455c	-0.019076042
175	0x3c98ee6b	0.018668374
176	0x3d0a4625	0.0337583
177	0x3b16219c	0.0022908216
178	0xbab1c222	-0.0013561884
179	0x3c9d922a	0.019234736
180	0x3d0e71a8	0.03477636
181	0xb95f899e	-0.00021318204
182	0x3ca0e72c	0.019641481
183	0x3bc7f979	0.0061027375
184	0x3c21a078	0.009864919
185	0x3a6b8cf2	0.0008985541
186	0x3ca7ee5a	0.020499397
187	0x3b9d9d03	0.004809977
188	0x3cb62a65	0.022237012
189	0x3ca5dc54	0.020246662
190	0xbca4f229	-0.020135002
191	0xbb998b4e	-0.004685796
192	0xbc116b6a	-0.008875707
193	0x3c5d90a6	0.013523256
194	0xbc2cdaa9	-0.0105501795
195	0xbd19da3a	-0.037561633
196	0x3cd77eca	0.026305575
197	0x3bba6779	0.0056886044
198	0xbb3886c1	-0.0028156491
199	0x3c10e11d	0.008842734
200	0x3ca7a85d	0.020466024
201	0x3c96aa67	0.018391801
202	0xbb78a345	-0.0037939113
203	0x3c725693	0.014791149
204	0xbd0c5b72	-0.034266897
205	0xbd181e87	-0.03713849
206	0xbb8f77e5	-0.004378306
207	0xbc8f2633	-0.01747427
208	0x3c3a2211	0.011360661
209	0xbc8bb4b4	-0.01705394
210	0xbc137604	-0.009000305
211	0xbc580e05	-0.013186936
212	0x3d44d7a6	0.04805722
213	0x3baba3c6	0.005238029
214	0xbc7707ff	-0.01507759
215	0x3bde9f9d	0.0067939297
216	0x3c6b1f82	0.014350774
217	0xbd0dd445	-0.034626264
218	0xbc8fc941	-0.01755202
219	0x3c4f8498	0.01266589
220	0xbcabaf5c	-0.020957641
221	0x3bf22030	0.007389091
222	0xbd3d28fb	-0.04618166
223	0xbcaa5e81	-0.020797016
224	0x3d142329	0.036166344
225	0x3b4b4bd0	0.003102053
226	0x3c400389	0.011719593
227	0x3ca8492c	0.020542704
228	0x3bfcbb97	0.007712792
229	0xbc074959	-0.008257234
230	0x3b8f2e54	0.0043695364
231	0x3d839e19	0.06426639
232	0x3cb28986	0.021794092
233	0x3ae11f27	0.0017175422
234	0x3b897689	0.0041950387
235	0xbd29106e	-0.041275434
236	0xbc8da243	-0.017289286
237	0xbc344c5a	-0.011004532
238	0x3b97dc32	0.0046344036
239	0x3c634e9f	0.013873725
240	0xbc06ca2b	-0.008226912
241	0xbcd79e57	-0.02632062
242	0x39a0517d	0.00030578292
243	0x3c81a94d	0.0158278
244	0x3c9156c7	0.017741574
245	0xba4c6fa7	-0.000779862
246	0xbcd6cdbc	-0.026221149
247	0xbc976090	-0.018478662
248	0xba4de619	-0.00078544166
249	0xbb57e8e2	-0.0032945205
250	0xbc2b119d	-0.010441211
251	0xbd452ec9	-0.04814032
252	0x3a184d38	0.00058098463
253	0x3cb35bbc	0.021894328
254	0x3c828d33	0.01593647
255	0xbd032513	-0.03201778

motion_mlp.mlps.2.fc0.fc.bias f4 [50]
0	0xb4fb54a4	-4.6813977e-07
1	0x35848c47	9.875592e-07
2	0xb7273321	-9.96588e-06
3	0xb55b063a	-8.159292e-07
4	0xb609aaac	-2.0513935e-06
5	0x360dd5fe	2.1135197e-06
6	0xb42c7b36	-1.6063572e-07
7	0xb5489ff4	-7.473857e-07
8	0x367a325a	3.7282211e-06
9	0xb6a323d6	-4.8619504e-06
10	0xb6927591	-4.3648256e-06
11	0xb34f45ff	-4.8259604e-08
12	0x36221166	2.4150008e-06
13	0xb613413e	-2.1942683e-06
14	0x3586a303	1.0031221e-06
15	0xb605effb	-1.9958231e-06
16	0x358f8d7c	1.0695508e-06
17	0x369c4c9d	4.6580813e-06
18	0x365ab6a2	3.2590838e-06
19	0x36489000	2.9886141e-06
20	0xb6346f49	-2.6886867e-06
21	0xb5ea4963	-1.7455717e-06
22	0x36b7f88d	5.48276e-06
23	0xb6543007	-3.1618417e-06
24	0xb531a7d4	-6.618186e-07
25	0xb68bfb9a	-4.171813e-06
26	0x358c90b4	1.0472927e-06
27	0xb56e2ab0	-8.872403e-07
28	0x34972941	2.8155958e-07
29	0xb6f369cd	-7.254281e-06
30	0xb6904811	-4.299924e-06
31	0x365adef9	3.2614319e-06
32	0xb6a438fe	-4.8942156e-06
33	0xb65fdbda	-3.335756e-06
34	0x36b05f57	5.2563078e-06
35	0xb617a3ce	-2.25961e-06
36	0x3543b65a	7.290852e-07
37	0xb6a1ce66	-4.822202e-06
38	0x362d6d0d	2.5842485e-06
39	0xb6215266	-2.4038832e-06
40	0x365e307e	3.3108804e-06
41	0xb60a9962	-2.0652883e-06
42	0x35443c46	7.31034e-07
43	0xb6099713	-2.0502528e-06
44	0x358b30bb	1.037049e-06
45	0xb63805d7	-2.7421536e-06
46	0x32fd209c	2.9467905e-08
47	0xb334b63e	-4.2075264e-08
48	0x35b688d7	1.3599882e-06
49	0x362ddeb8	2.5908648e-06

motion_mlp.mlps.2.norm0.alpha f4 [1, 54, 1]
0	0x3d960b1e	0.07326339
1	0x3d6eef75	0.058333833
2	0x3d9044cb	0.07044371
3	0x3d523a44	0.051325098
4	0x3cc112d9	0.023568558
5	0x3d45a01f	0.048248406
6	0x3cea711c	0.028618388
7	0x3d2477d6	0.040153347
8	0x3d20a0bc	0.03921579
9	0x3d8878f9	0.06663699
10	0x3d9be32e	0.076116905
11	0x3cc69800	0.024242401
12	0x3d1533be	0.0364263
13	0x3d26a383	0.04068328
14	0x3d289acf	0.041163262
15	0x3d3f1c0d	0.04665761
16	0x3d4b6ec4	0.04966618
17	0x3d09fec4	0.03369023
18	0x3d759437	0.0599558
19	0x3df1c311	0.11804784
20	0x3d0b1911	0.033959452
21	0x3d1641d2	0.036683865
22	0x3d158f18	0.036513418
23	0x3cf33ebf	0.029693006
24	0x3d84be79	0.06481642
25	0x3d9716d2	0.073773995
26	0x3d07ddc3	0.033170473
27	0x3d1ba1df	0.03799617
28	0x3ce871df	0.02837461
29	0x3d10503a	0.03523276
30	0x3d17b15c	0.037034377
31	0x3c89f665	0.016841123
32	0x3d0cceb4	0.034376815
33	0x3d5f2e1f	0.054487344
34	0x3d4bfeb3	0.049803447
35	0x3d390650	0.045172036
36	0x3d19a791	0.03751332
37	0x3d878281	0.066166885
38	0x3d16ee13	0.03684814
39	0x3da395fb	0.07987591
40	0x3d3a4e98	0.04548511
41	0x3d36ae74	0.044599965
42	0x3d3f2e8f	0.04667526
43	0x3d01fef4	0.031737283
44	0x3d13e7b0	0.036109626
45	0x3d21570a	0.039389648
46	0x3deeb48f	0.116555326
47	0x3d50b98b	0.050958198
48	0x3d7e5690	0.06209427
49	0x3dc3f6fc	0.09568593
50	0x3cedcaef	0.02902743
51	0x3d98c46c	0.074593395
52	0x3cd9a8c9	0.02656974
53	0x3d5a0b63	0.053233515

motion_mlp.mlps.2.norm0.beta f4 [1, 54, 1]
0	0xbc5cd758	-0.013479076
1	0xbbe3da7e	-0.0069535365
2	0x3d44c53d	0.048039664
3	0x3934177a	0.00017174883
4	0x3b324713	0.0027203008
5	0x3ae7fd63	0.0017699416
6	0x3b85d935	0.004084731
7	0xbbb5f14d	-0.005552447
8	0xbb061039	-0.0020456447
9	0x3bf6bfca	0.0075301873
10	0x3d30752c	0.043080494
11	0xbafaa8d6	-0.0019123803
12	0xba50c61c	-0.0007964091
13	0x3bcd3d42	0.006263406
14	0xbc03d27d	-0.00804579
15	0xbbf351ae	-0.0074255085
16	0xbc202f1f	-0.00977686
17	0x3b2fe895	0.002684151
18	0x3bcf2b19	0.0063222763
19	0xbcb9d986	-0.022686731
20	0x3b9d4123	0.0047990247
21	0xb9a03c06	-0.000305623
22	0xbb2a882b	-0.0026021104
23	0xbb434afd	-0.0029799335
24	0xbc42b77b	-0.011884565
25	0xbbd44156	-0.006477515
26	0xbb22ed20	-0.0024860576
27	0xbbc7870f	-0.0060890983
28	0xbc75d0dc	-0.015003409
29	0xbace90e3	-0.0015759732
30	0x3ace5839	0.0015742845
31	0xbbd7fa56	-0.0065911217
32	0x3c78ddb8	0.015189581
33	0x3bbc2b99	0.005742502
34	0xbcb63451	-0.022241743
35	0xbb5b7c29	-0.0033490753
36	0xbb5b2de7	-0.0033444108
37	0x3d4e1b94	0.05031927
38	0xbbf946d4	-0.0076073203
39	0xbc66c9de	-0.014086215
40	0xbbaaa8a9	-0.005208094
41	0xba6976f1	-0.0008905968
42	0x3bac0be1	0.0052504395
43	0xb9b275e5	-0.00034038644
44	0xba6a358b	-0.000893437
45	0xbb813cc2	-0.0039440105
46	0x3c016163	0.007896754
47	0x3c8a0490	0.016847879
48	0xbb08950b	-0.002084079
49	0xbc5dd1f7	-0.013538829
50	0xbbc7b33b	-0.006094364
51	0xbc7d5410	-0.015461937
52	0x39755e9b	0.00023400264
53	0xbbcdc52a	-0.0062796073

motion_mlp.mlps.3.fc0.fc.weight f4 [50, 50]
0	0xbb8db183	-0.0043241396
1	0xbd04ba52	-0.03240425
2	0x3d7169a1	0.058938626
3	0xbc929714	-0.017894305
4	0x3b8341e9	0.00400566
5	0xbbd826ef	-0.006596438
6	0x3cf165a1	0.029467406
7	0xbb3f0957	-0.0029149854
8	0x3d06d74a	0.03292016
9	0xbb812cc0	-0.003942102
10	0x3bea4d05	0.0071502947
11	0xbcc79cca	-0.024366755
12	0x3b6d1f39	0.003618194
13	0xbb40a09b	-0.0029392603
14	0xbb3781e8	-0.0028001014
15	0x3d1b3158	0.037888855
16	0x3bf23606	0.007391694
17	0x3c82eb6d	0.0159814
18	0xbc3c7366	-0.0115021225
19	0xbba9c533	-0.0051809787
20	0xbccd524e	-0.02506366
21	0xbc79f0b2	-0.01525514
22	0xbd08a2bd	-0.033358324
23	0xbc1c4608	-0.009538181
24	0x3cbf1806	0.023326885
25	0x3c9d0c7e	0.019170996
26	0x3beac40f	0.0071644853
27	0x3b43bab7	0.002986593
28	0xba92bb64	-0.0011194763
29	0x3cbb256e	0.022844996
30	0xbb85628c	-0.0040705856
31	0x3afc2642	0.0019237476
32	0x3be7e6c1	0.0070770686
33	0x3b1d1e0a	0.0023974204
34	0x3c92d32b	0.017922958
35	0xbd881906	-0.06645398
36	0xbc6ec5ad	-0.014573497
37	0x3c744edf	0.014911382
38	0xbd073354	-0.033007935
39	0x3d4a2031	0.049347106
40	0x3bf8dee4	0.00759493
41	0x3cbb4ede	0.022864755
42	0x3c4ed94e	0.012625052
43	0x3d051869	0.032493982
44	0xbca0475f	-0.019565282
45	0xbc98745e	-0.018610176
46	0xbca00d1e	-0.019537505
47	0x3c01e1fb	0.007927413
48	0xbcab12cb	-0.020882985
49	0xbb955327	-0.0045570317
50	0xbaee253e	-0.0018169058
51	0xbd8130b0	-0.063081145
52	0x3bab094e	0.005219615
53	0xbcfdeb32	-0.030995939
54	0x3c972a1e	0.0184527
55	0x3c0e6619	0.008691334
56	0x3c6ee8b2	0.014581846
57	0xbc69dd5e	-0.014273969
58	0x3b3d3c59	0.0028875081
59	0xbcbc09fb	-0.022953978
60	0x3c54c755	0.012986978
61	0x3d09a13f	0.033601042
62	0xba978f17	-0.001156303
63	0x3c7336d6	0.014844617
64	0xbbdcd1c4	-0.006738873
65	0x3cb582f3	0.022157168
66	0xbbe9bcb6	-0.007133092
67	0xba8853fa	-0.0010401004
68	0xbc6b5bc5	-0.014365141
69	0x3cd75600	0.026286125
70	0x3c7015cd	0.014653635
71	0xbcfb40fb	-0.030670634
72	0xbca5bd5d	-0.020231897
73	0x3d6e84fa	0.058232285
74	0xbce7e23f	-0.028306125
75	0x3bfc14b0	0.007692896
76	0xbcc7f811	-0.02441028
77	0x3bdc58e9	0.006724466
78	0x3b540daa	0.0032356777
79	0x3c81b26d	0.01583215
80	0xbd411b5a	-0.047145225
81	0xbd3f61d0	-0.04672414
82	0x3c40315f	0.011730521
83	0xbcc06c29	-0.023489075
84	0xbb048bfb	-0.0020225036
85	0xbc4b9fa3	-0.012428197
86	0xbc9eba40	-0.01937592
87	0xbcb67896	-0.022274297
88	0x3bc90569	0.006134678
89	0xbc78d4d6	-0.015187463
90	0x3a528ee1	0.0008032155
91	0xbca761e5	-0.020432422
92	0x3a36be57	0.0006971112
93	0xbbb3d326	-0.0054878173
94	0xbcdc67a4	-0.026904888
95	0xbcbce283	-0.023057228
96	0x3c9ac3df	0.018892227
97	0xbc9b21ed	-0.018937076
98	0x3c3e4358	0.011612736
99	0xbc2febb6	-0.01073735
100	0x3a8a998a	0.0010574323
101	0x3b6ce66c	0.0036148084
102	0xbd6b0d3d	-0.057385672
103	0x3a30748e	0.0006731235
104	0xbbce2adb	-0.00629173
105	0x3ceeee85	0.02916647
106	0x3cdf7ce0	0.027281225
107	0xbd45e813	-0.048317026
108	0xbad029c2	-0.0015881585
109	0xbcb1d6e7	-0.021708919
110	0x3b29964b	0.0025876935
111	0x3c194cd7	0.009356699
112	0xbbf17dfe	-0.007369756
113	0xbd3b1406	-0.045673393
114	0x3bcbd945	0.006220969
115	0xbcba03b7	-0.02270685
116	0xbb8fb94b	-0.0043861023
117	0xbd06b23d	-0.032884825
118	0x3c0c0df4	0.008548249
119	0xbcf5dcde	-0.030012544
120	0xbd0b9ecf	-0.034087
121	0xbc4a5a94	-0.012350697
122	0xbb4e63a1	-0.003149249
123	0xbd1ef32e	-0.038806133
124	0xbb2997a0	-0.002587773
125	0xbca4a050	-0.020095974
126	0x3d599165	0.053117175
127	0x3bba13ee	0.0056786453
128	0xbc8dab86	-0.017293703
129	0xbb56e537	-0.0032790431
130	0x3d2680da	0.040650226
131	0x3c219323	0.00986174
132	0xbcb3068c	-0.021853708
133	0x3c40466c	0.01173554
134	0xbc2824d3	-0.010262686
135	0xbbadd8ce	-0.005305386
136	0xbb23895a	-0.0024953694
137	0x3b6f6841	0.0036530646
138	0x3d1a14c2	0.037617452
139	0x3b9a329d	0.0047057406
140	0xbc02c92e	-0.007982535
141	0x3bff5ac6	0.0077928035
142	0xbc8fb8f8	-0.017544255
143	0xbc0ad2b7	-0.00847309
144	0x3b4eb7a2	0.003154256
145	0xbc859681	-0.016307117
146	0xbc3c5df1	-0.011497007
147	0xbd1bc23d	-0.038027037
148	0x3baec357	0.005333345
149	0x3ce64bac	0.028112255
150	0xbc0512cf	-0.00812216
151	0x3c85983f	0.016307948
152	0xbc5261b7	-0.01284068
153	0x3968608a	0.00022161208
154	0x3cb673a5	0.02227194
155	0xbc0f9f02	-0.008765938
156	0xbd6d23fd	-0.05789565
157	0x3cea2d4c	0.028586052
158	0xbb98ebda	-0.0046667876
159	0x3c0cab7d	0.008585808
160	0x3be47b5e	0.0069727143
161	0xbc61035a	-0.013733709
162	0x3c91ee00	0.017813683
163	0xbc876555	-0.016527811
164	0xbc6b7515	-0.014371176
165	0xbca41177	-0.02002786
166	0xbb829944	-0.003985556
167	0xbb582072	-0.0032978323
168	0x3c7f88a1	0.01559654
169	0xbcfaf8c1	-0.030636193
170	0xbc5ed942	-0.013601603
171	0x3ad35097	0.001612204
172	0x3cdaa86d	0.02669164
173	0xbc42a5ca	-0.0118803475
174	0x3cc2344e	0.023706581
175	0x3c5fa2eb	0.0136496825
176	0xbb0a9f42	-0.0021152054
177	0xbd89d4b0	-0.0673002
178	0x3ccd46b0	0.02505812
179	0x3d10b9e8	0.035333544
180	0xb9c3e3a3	-0.000373629
181	0x3ce7ef03	0.028312212
182	0xbc13328b	-0.008984218
183	0x3c9f450a	0.0194421
184	0x3c512874	0.012765992
185	0x3c7d46f1	0.015458808
186	0x3cc70345	0.024293551
187	0x3c85b334	0.016320802
188	0xbd312e26	-0.0432569
189	0x3b1eac46	0.002421157
190	0x3cb07fdd	0.021545345
191	0xbc91f56a	-0.017817218
192	0xbc64f9c2	-0.0139755625
193	0xbd1b7320	-0.03795159
194	0xbc7ba6e7	-0.015359617
195	0xbbdf9714	-0.00682343
196	0x3d2da35c	0.04239212
197	0x391fe41c	0.00015248399
198	0xbc38aabc	-0.011271175
199	0xbb53a3ae	-0.0032293606
200	0x3cb47a94	0.022031106
201	0xbcbb810f	-0.022888688
202	0xbcc039c2	-0.023465041
203	0xbb25da87	-0.0025307254
204	0x3cfd7c85	0.030943165
205	0xbd58a518	-0.05289182
206	0x3d5bc83f	0.053657766
207	0x3ca11416	0.019662898
208	0xbd6113a4	-0.05495037
209	0xbbfc66a8	-0.0077026673
210	0x3a811975	0.0009849506
211	0xbd005071	-0.031326715
212	0xbd0e2bf8	-0.0347099
213	0x3c0628a7	0.008188403
214	0xbbd70586	-0.0065619377
215	0x3c7184ba	0.014741117
216	0x3d084c0a	0.03327564
217	0xbc352886	-0.011057025
218	0x3ba972b9	0.0051711467
219	0x3cfb76f1	0.030696364
220	0x3d1a5be7	0.0376853
221	0xbcb65114	-0.022255458
222	0xbc5ad9f7	-0.013357631
223	0x3c93f511	0.018061193
224	0x3cefeeab	0.02928861
225	0xbc472153	-0.012153941
226	0xbbe46f8b	-0.006971305
227	0x3c93d4e7	0.018045856
228	0xbbbaa4b9	-0.005695906
229	0xbcd57e4c	-0.0260612
230	0xbd0b175d	-0.033957828
231	0x3bf237ea	0.0073919194
232	0xbc932507	-0.017961992
233	0xbd25d5e9	-0.040487204
234	0x3d01c887	0.03168538
235	0x3b1ce8e3	0.0023942522
236	0xbcf721be	-0.030167457
237	0x3c457a24	0.012053046
238	0x3c0c0c0f	0.008547797
239	0x3d09122a	0.03346459
240	0x3c36cb48	0.011156864
241	0x3d2f4213	0.042787623
242	0x3b95f14b	0.0045758835
243	0xbc79063d	-0.015199241
244	0xbc454347	-0.012039966
245	0x3b2bdab7	0.0026222894
246	0xbb861659	-0.0040920195
247	0x3d00251c	0.03128539
248	0x3c221cea	0.009894589
249	0xbc765e10	-0.015037075
250	0x3c79eaa2	0.015253695
251	0xbc8a9e0e	-0.01692107
252	0xbb44d498	-0.0030033942
253	0xbbf8c8ba	-0.007592288
254	0xbd02c432	-0.031925388
255	0xbcb9b551	-0.022669466

motion_mlp.mlps.3.fc0.fc.bias f4 [50]
0	0xb6a61e9e	-4.95075e-06
1	0x368f9e49	4.280159e-06
2	0xb6154ee9	-2.2248662e-06
3	0xb69c2f1d	-4.654647e-06
4	0xb5973cae	-1.1268037e-06
5	0x36189a00	2.2739405e-06
6	0xb621920f	-2.4075887e-06
7	0xb62c5049	-2.567673e-06
8	0xb69b9f2c	-4.63789e-06
9	0x35d9614a	1.6196075e-06
10	0x35064350	5.001684e-07
11	0x348f1fe4	2.665903e-07
12	0x36fd7729	7.5538596e-06
13	0x36008656	1.915168e-06
14	0x370fa52c	8.561921e-06
15	0xb6e51fb9	-6.828425e-06
16	0xb56ec04e	-8.894175e-07
17	0x36cf2dea	6.174426e-06
18	0x366ba4eb	3.5113724e-06
19	0x3634f198	2.6962716e-06
20	0xb6c34904	-5.819953e-06
21	0xb689799a	-4.0970745e-06
22	0xb6966e60	-4.4831977e-06
23	0x3596f837	1.1248111e-06
24	0xb65f0c28	-3.3236665e-06
25	0x34b28170	3.3249262e-07
26	0xb68b3bba	-4.149476e-06
27	0x3695235f	4.444664e-06
28	0x35830cdf	9.764007e-07
29	0x33a8a7bb	7.8536196e-08
30	0x36607a85	3.3449917e-06
31	0x36389fa0	2.751105e-06
32	0x3648b491	2.9907426e-06
33	0xb6cde1d2	-6.135765e-06
34	0x35a149b2	1.2016883e-06
35	0xb69a2d88	-4.594858e-06
36	0xb66262f9	-3.3734234e-06
37	0x3687f25e	4.051529e-06
38	0x34128e80	1.3649151e-07
39	0xb65dd2c7	-3.3054255e-06
40	0xb606c5f1	-2.0082773e-06
41	0xb6d2d38d	-6.2831155e-06
42	0x3696b605	4.491538e-06
43	0x36ccf8bf	6.1086316e-06
44	0xb688a357	-4.072131e-06
45	0xb5b0e9a3	-1.3181019e-06
46	0x35bbba1e	1.3986753e-06
47	0xb618f53a	-2.2792506e-06
48	0xb6381787	-2.7431831e-06
49	0xb61dfd10	-2.3542125e-06

motion_mlp.mlps.3.norm0.alpha f4 [1, 54, 1]
0	0x3d855f08	0.065122664
1	0x3d978879	0.07399077
2	0x3ddd2333	0.10797729
3	0x3d400a35	0.046884734
4	0x3d10a71c	0.035315618
5	0x3d2479cc	0.040155217
6	0x3cc1a516	0.02363829
7	0x3d1e4db1	0.03864831
8	0x3d416b1b	0.047221284
9	0x3d82b885	0.063828506
10	0x3defbf23	0.11706378
11	0x3d36d1cb	0.044633668
12	0x3d62568a	0.05525831
13	0x3d45afee	0.048263483
14	0x3d796982	0.060891636
15	0x3d64aa04	0.055826202
16	0x3d545cbf	0.051846262
17	0x3d366b4a	0.044535913
18	0x3d48b590	0.049001276
19	0x3c443c46	0.011977261
20	0x3d5161f8	0.05111882
21	0x3d4d1a50	0.05007392
22	0x3d479c52	0.048733063
23	0x3d4c0d3f	0.04981732
24	0x3d8e0465	0.06934432
25	0x3dcbb96f	0.09947478
26	0x3d419de7	0.047269728
27	0x3d58817b	0.052857857
28	0x3cb04aa7	0.021519972
29	0x3d701f49	0.058623586
30	0x3cd2aeeb	0.025718173
31	0x3cba5e3b	0.02275001
32	0x3d672b42	0.05643774
33	0x3c62a2fd	0.013832805
34	0x3dd23f7e	0.102660164
35	0x3d4dd976	0.050256215
36	0x3cf71214	0.030159988
37	0x3dbb1468	0.091347516
38	0x3d6b7f65	0.05749454
39	0x3d8f7306	0.07004361
40	0x3d9166fd	0.070997216
41	0x3d887468	0.06662828
42	0x3d4306db	0.04761396
43	0x3d8a6c6b	0.0675896
44	0x3d2c4b1f	0.04206383
45	0x3c58d258	0.013233744
46	0x3c7d1725	0.015447413
47	0x3d4aa38a	0.04947237
48	0x3d7a1d51	0.061063115
49	0x3dfd32d8	0.12363213
50	0x3d24562b	0.04012124
51	0x3daeade8	0.08529264
52	0x3d9f8bb0	0.07790315
53	0x3ce67851	0.028133543

motion_mlp.mlps.3.norm0.beta f4 [1, 54, 1]
0	0x3c45ec17	0.012080214
1	0x3b7b9e76	0.003839401
2	0x3cc4f789	0.024043815
3	0xba21e769	-0.00061761454
4	0xbae6bdfb	-0.0017604226
5	0xbaa3d15a	-0.0012498305
6	0xba0fed6b	-0.0005490395
7	0x3c5379fc	0.012907501
8	0xbaddaaca	-0.0016911861
9	0xbb2418b4	-0.0025039138
10	0xbbefc365	-0.007316994
11	0xbb4f798f	-0.0031658148
12	0x396ee438	0.00022782467
13	0xbbd07977	-0.006362136
14	0x3b478918	0.0030446704
15	0x3b7537c5	0.0037417274
16	0xbba752d4	-0.0051063094
17	0xbc007150	-0.007839516
18	0xbbcf5443	-0.0063271835
19	0x3cb88139	0.022522556
20	0xbb07dda8	-0.0020731483
21	0xbb359662	-0.0027708043
22	0x3bbc5aa5	0.0057481104
23	0x3a349ded	0.0006889988
24	0xbcacc472	-0.021089766
25	0xbc097ac3	-0.008391085
26	0xbae900cb	-0.0017776726
27	0xbb632054	-0.003465672
28	0x3c60ab63	0.013712737
29	0xbb146fe8	-0.002264971
30	0xbbb8660f	-0.0056274007
31	0xbb94e17c	-0.0045434814
32	0x3c6fcc7c	0.014636155
33	0xbc10bb24	-0.00883368
34	0x3cfdea1d	0.030995423
35	0xbb88fe59	-0.004180711
36	0x3bd38cfd	0.006456016
37	0x3ce641b2	0.028107498
38	0x3b8af366	0.004240441
39	0x3b052afd	0.0020319812
40	0xbb5293ce	-0.0032131555
41	0xbb809e8b	-0.00392515
42	0xbc5f954e	-0.013646437
43	0x38c80f0b	9.539545e-05
44	0xba9f8fd8	-0.0012173606
45	0xbb98407b	-0.0046463585
46	0x3bb8eba9	0.0056433273
47	0xbb2e258b	-0.002657267
48	0xbad74673	-0.0016424194
49	0xbcd9525d	-0.026528532
50	0x3b12c613	0.0022395893
51	0x3cc81692	0.024424825
52	0x3b1c4e96	0.0023850552
53	0x39ceb10e	0.00039423298
