src/siMLPe/exps/baseline_amass/log/snapshot/model-iter-15000.pth (torch, 604338 bytes, 196 tensors)

motion_mlp.mlps.0.fc0.fc.weight f4 [50, 50]
0	0xbc4481b1	-0.0119938115
1	0xbd393d28	-0.04522434
2	0x3cb79b9d	0.02241307
3	0xbcc4325c	-0.023949794
4	0x3c1afe14	0.009459991
5	0xbc4a1c95	-0.012335916
6	0x3c5d9909	0.013525256
7	0xbcfb49fc	-0.030674927
8	0x3b890e5f	0.0041826214
9	0xbc6c694b	-0.014429401
10	0xbc31dc56	-0.010855755
11	0xbcc2e04c	-0.023788594
12	0xbb8ba21b	-0.004261268
13	0xbcd17fda	-0.02557366
14	0xbc29bbea	-0.010359744
15	0xbcd55230	-0.026040167
16	0xbbbc6071	-0.0057488014
17	0xbcf154b4	-0.029459335
18	0xba0b3cde	-0.0005311499
19	0xbcf70a13	-0.030156171
20	0x3afc593e	0.001925267
21	0xbce2e66e	-0.027697768
22	0x3ab90692	0.0014116338
23	0xbce51f61	-0.027969064
24	0xba1203ab	-0.00055700046
25	0xbcc563f0	-0.024095505
26	0xbb312a0f	-0.0027033126
27	0xbc87a39c	-0.016557507
28	0xbbb5aadf	-0.005544051
29	0xbc419b7f	-0.011816858
30	0xbc2fc8e5	-0.010729049
31	0xbb6d3004	-0.003619195
32	0xbc4ce0a4	-0.01250473
33	0xb9ad55f6	-0.00033061177
34	0xbc73cfa2	-0.0148810465
35	0x3b1f583a	0.0024314062
36	0xbc590db1	-0.013247893
37	0x3b416069	0.0029506928
38	0xbc5153a2	-0.012776287
39	0x3b8e3a6c	0.0043404605
40	0xbc2836c5	-0.010266964
41	0x3b8fee21	0.004392401
42	0xbc135a64	-0.008993719
43	0x3b905c19	0.00440551
44	0xbbc269d3	-0.0059330254
45	0x3b687139	0.0035467877
46	0xbb861573	-0.0040919124
47	0x3af09b8c	0.0018356903
48	0xbae54b27	-0.0017493711
49	0x39d716cf	0.0004102499
50	0x3beaa6c8	0.007160995
51	0xbc604764	-0.013688896
52	0x3bb34b5d	0.0054716305
53	0xbc18f855	-0.009336551
54	0xbb7475ea	-0.0037301728
55	0xbc1aebfc	-0.009455677
56	0xbc447a96	-0.011992117
57	0x3b6a07e4	0.003571027
58	0xba04ee22	-0.0005070885
59	0xbbf24096	-0.007392953
60	0xbb190c3e	-0.0023353244
61	0x3c80b9fb	0.015713682
62	0xbc154b21	-0.00911215
63	0x3c49e9de	0.012323825
64	0xbb3755c5	-0.0027974707
65	0x3c3305d0	0.010926679
66	0x3b440b37	0.002991391
67	0xbb7204ee	-0.0036929208
68	0x3b9909cf	0.0046703587
69	0xbba52dc9	-0.0050408584
70	0x3b9d116f	0.004793338
71	0xbc0188a5	-0.007906114
72	0x3aed2f7c	0.0018095816
73	0xbc216fdc	-0.0098533295
74	0xb9fd9292	-0.00048365124
75	0xbc1c6c3c	-0.009547289
76	0xbb979104	-0.0046254415
77	0xbc0368a1	-0.008020551
78	0xbbc74885	-0.006081643
79	0xbbd6f3d8	-0.00655983
80	0xbc1920da	-0.009346211
81	0xbb817c86	-0.003951612
82	0xbc39321e	-0.011303453
83	0xbba6892e	-0.005082271
84	0xbc39ee45	-0.011348312
85	0xbbae5443	-0.0053201034
86	0xbc53da63	-0.012930485
87	0xbba6a600	-0.0050857067
88	0xbc50a8af	-0.01273553
89	0xbbaf2b1a	-0.0053457143
90	0xbc49e625	-0.012322937
91	0xbbc84117	-0.006111275
92	0xbc4bc28e	-0.012436522
93	0xbbd57a3c	-0.0065148156
94	0xbc3b4e08	-0.011432178
95	0xbc022e24	-0.007945571
96	0xbc379e00	-0.011207104
97	0xbc083998	-0.008314513
98	0xbc2d53a4	-0.0105790235
99	0xbc1e615e	-0.009666769
100	0xbbc1f341	-0.0059188907
101	0xbc6a2bf5	-0.014292707
102	0x3c8a258b	0.016863605
103	0xbbc3fa49	-0.005980764
104	0x3a0b3428	0.0005310201
105	0xbbe89e87	-0.007098976
106	0x3b9b7ff1	0.0047454764
107	0x37806337	1.530499e-05
108	0xbbbe09b4	-0.0057994965
109	0x3c4f7d71	0.012664185
110	0x3a477cec	0.00076098624
111	0x3c8f4d91	0.017493041
112	0xbc1226ce	-0.008920385
113	0x3d000aa0	0.031260133
114	0xbb81ef11	-0.0039652665
115	0x3d088e43	0.033338796
116	0xbb4a032e	-0.003082465
117	0x3cde4312	0.027131591
118	0x3c1af3fd	0.009457585
119	0x3caa8b17	0.020818276
120	0x3c5fb464	0.013653848
121	0x3c99b36d	0.018762315
122	0x3c47d6d8	0.012197219
123	0x3c61d81c	0.013784435
124	0x3c516f0d	0.012782824
125	0x3c6bdf52	0.014396505
126	0x3c045592	0.008077042
127	0x3ca0c4ff	0.019625185
128	0x3bb9e4b2	0.0056730146
129	0x3cbef13a	0.023308385
130	0xb924bcc9	-0.00015710587
131	0x3ce41dcf	0.027846245
132	0xbb1aab23	-0.002360054
133	0x3ce9e6ae	0.02855238
134	0xbb3b28fa	-0.002855836
135	0x3cf24416	0.029573482
136	0xbb2a6ecd	-0.0026005984
137	0x3cf37926	0.029720854
138	0xbab243da	-0.0013600544
139	0x3ce47365	0.027887056
140	0x3a9a4d59	0.0011772319
141	0x3ccd0409	0.025026338
142	0x3b73350b	0.0037110473
143	0x3cc53513	0.02407316
144	0x3bd68047	0.0065460536
145	0x3ca960f9	0.020676123
146	0x3c0f9e7f	0.008765816
147	0x3c9604a5	0.018312762
148	0x3c4935bc	0.012280878
149	0x3c83156f	0.016001431
150	0xbbda447a	-0.006660995
151	0x3c288e30	0.010287806
152	0xbc0b1512	-0.00848891
153	0x3c52c010	0.012863174
154	0xbc6b8970	-0.014376029
155	0x3ca6f394	0.020379819
156	0xbcc9dc6b	-0.024641236
157	0x3d2b1d16	0.041775785
158	0xbca9fcd1	-0.020750435
159	0x3d1dfc64	0.038570777
160	0xbc5bf9e4	-0.013426278
161	0x3ccdeabd	0.025136346
162	0x3b053bcb	0.002032983
163	0x3cae49ed	0.021275485
164	0x3b2b0e42	0.0026101028
165	0x3cbb3c7c	0.02285599
166	0x3c13372b	0.008985321
167	0x3c934203	0.017975813
168	0x3c295087	0.010334141
169	0x3ca3352d	0.019922817
170	0x3c3f8096	0.011688372
171	0x3c977650	0.018489033
172	0x3c6b2ae3	0.014353487
173	0x3c83d607	0.016093267
174	0x3c658823	0.014009508
175	0x3c8924cc	0.016741179
176	0x3c3fef9b	0.011714841
177	0x3c843f63	0.016143506
178	0x3c2e5c91	0.010642187
179	0x3c713cdb	0.014723982
180	0x3c44fed2	0.0120236445
181	0x3c777b77	0.01510512
182	0x3c3f26a7	0.01166693
183	0x3c6dfedb	0.014526094
184	0x3c4c7cc2	0.012480916
185	0x3c5cc169	0.013473847
186	0x3c3fba28	0.011702098
187	0x3c546868	0.0129643455
188	0x3c3d788e	0.011564387
189	0x3c46ee90	0.012141839
190	0x3c46ff83	0.01214588
191	0x3c36eee6	0.011165356
192	0x3c3db4a1	0.01157871
193	0x3c33cac2	0.010973634
194	0x3c3de4d8	0.011590205
195	0x3c38ed2d	0.011287016
196	0x3c39b59f	0.011334806
197	0x3c35e1cd	0.011101198
198	0x3c383339	0.011242681
199	0x3c39f759	0.011350476
200	0xb9d40885	-0.0004044214
201	0xbc7f3c31	-0.015578316
202	0x3ca54e99	0.02017908
203	0x3c2ade4c	0.010428976
204	0xbd3f8b74	-0.046763852
205	0xbcbb4dff	-0.02286434
206	0x3a8ff84e	0.0010984035
207	0xbcae9e77	-0.021315796
208	0xbc3095a8	-0.010777868
209	0xbc0ccd3f	-0.008593856
210	0xbc8ff4f2	-0.017572854
211	0xbc4ebd52	-0.01261838
212	0xbc5c1d7f	-0.013434767
213	0xbbb95e9a	-0.0056570293
214	0xbc92ba43	-0.017911082
215	0x3bc1a2c9	0.005909298
216	0xbcab6647	-0.020922793
217	0xba1b71e7	-0.00059297535
218	0xbc84bb2a	-0.016202528
219	0x3bca678d	0.006176895
220	0xbc873488	-0.016504541
221	0x3bde1716	0.0067776544
222	0xbc3bdbe4	-0.011466
223	0x3b5dbf9a	0.0033836127
224	0xbc000755	-0.007814248
225	0x3b15c125	0.0022850719
226	0xbb25462e	-0.0025218832
227	0x3b1013d1	0.0021984468
228	0xbaa2a3a3	-0.0012408387
229	0x3a65a259	0.00087598484
230	0x3acb9d24	0.0015534502
231	0x3ac5143d	0.0015035939
232	0x3b0eeceb	0.0021808695
233	0x3ae11de9	0.0017175052
234	0x3b5b6562	0.0033477177
235	0x3aeb87de	0.0017969569
236	0x3ba4c043	0.005027802
237	0x3ae8e238	0.0017767614
238	0x3bb97eca	0.0056608664
239	0x3b3321fb	0.0027333486
240	0x3bb446e0	0.005501613
241	0x3b457d0a	0.0030134344
242	0x3bb7fe0e	0.0056150025
243	0x3b867e0c	0.0041043814
244	0x3bcf6e66	0.006330299
245	0x3b8dc321	0.0043262397
246	0x3bbf3e36	0.0058362735
247	0x3ba66770	0.0050782487
248	0x3bcb0887	0.006196085
249	0x3bcef96b	0.006316354
250	0x3a98c1ae	0.0011654401
251	0xba58db66	-0.0008272439
252	0x3b923c2a	0.0044627385
253	0x3ba1baaa	0.004935582
254	0xb98a0896	-0.00026327808
255	0x3b2f8d1b	0.0026786986

motion_mlp.mlps.0.fc0.fc.bias f4 [50]
0	0x383c3c07	4.4878598e-05
1	0xb6de3e0c	-6.623339e-06
2	0xb6609078	-3.3462693e-06
3	0x373edbfd	1.13761025e-05
4	0xb7b6655c	-2.174329e-05
5	0xb76243c7	-1.348643e-05
6	0xb7d6ac0a	-2.55909e-05
7	0x37997043	1.8291297e-05
8	0x38d0d6e7	9.9582416e-05
9	0xb7054205	-7.942789e-06
10	0xb88e01cf	-6.7714245e-05
11	0xb8168809	-3.588948e-05
12	0x37c3cc9e	2.3341094e-05
13	0x37ca3f3d	2.4109724e-05
14	0xb7b14945	-2.1134163e-05
15	0xb78ad1b2	-1.6548529e-05
16	0x3700634c	7.652514e-06
17	0xb5763658	-9.172122e-07
18	0x36943b8e	4.417677e-06
19	0x3741d338	1.1552875e-05
20	0x38334f03	4.275051e-05
21	0xb5da4e06	-1.6264974e-06
22	0xb9b988a9	-0.0003538777
23	0x38a99b7f	8.0875114e-05
24	0xb6e9994c	-6.961787e-06
25	0xb6ef077a	-7.1236254e-06
26	0x389bf35a	7.436304e-05
27	0xb82ea6bb	-4.1640113e-05
28	0x371935ca	9.132034e-06
29	0x373dcb41	1.1312602e-05
30	0xb811ab4e	-3.4730234e-05
31	0xb6e8e676	-6.940968e-06
32	0x3802d7af	3.1195286e-05
33	0x373a3338	1.1098389e-05
34	0x37eabc77	2.7982735e-05
35	0xb9ad6949	-0.00033075575
36	0x379c5055	1.8634057e-05
37	0x38100ccf	3.4344204e-05
38	0x37435752	1.1643237e-05
39	0xb80cc08b	-3.355792e-05
40	0xb79b544b	-1.8516692e-05
41	0x37b44c85	2.1493304e-05
42	0x362c7f5d	2.5704132e-06
43	0x37865d28	1.6017424e-05
44	0xb7247a20	-9.803596e-06
45	0xb65d5cef	-3.298566e-06
46	0xb7932588	-1.7541242e-05
47	0x38220553	3.862877e-05
48	0xb80553ed	-3.1787833e-05
49	0xb7a1f904	-1.9308653e-05

motion_mlp.mlps.0.norm0.alpha f4 [1, 54, 1]
0	0x3e9d27ae	0.30694336
1	0x3ea2e91b	0.3181847
2	0x3ee2021e	0.4414224
3	0x3e95999a	0.2921875
4	0x3e6bbc32	0.2302101
5	0x3ea8268e	0.32841915
6	0x3e9d1f3e	0.30687898
7	0x3e63298d	0.22183819
8	0x3e9c4242	0.305193
9	0x3ef27272	0.4735294
10	0x3ec2dd61	0.38059524
11	0x3e4e9722	0.2017484
12	0x3e941c18	0.28927684
13	0x3e96b6c5	0.29436317
14	0x3e7002f2	0.23438624
15	0x3ec6ae11	0.38804677
16	0x3e99e455	0.30057016
17	0x3e78d05e	0.24298236
18	0x3eb0e664	0.34550774
19	0x3f19d3b9	0.6008869
20	0x3ea0e941	0.3142796
21	0x3ea4642f	0.32107684
22	0x3eb14b56	0.3462779
23	0x3e723f4e	0.23656961
24	0x3eb0dffd	0.3454589
25	0x3eba75dd	0.36418048
26	0x3e7f91d8	0.24957979
27	0x3e8e1593	0.27750835
28	0x3ec304d4	0.3808962
29	0x3e877cda	0.26462442
30	0x3e81f9a9	0.25385788
31	0x3bea6e71	0.007154279
32	0x3e982c31	0.29721215
33	0x3eb97630	0.36222982
34	0x3eac004c	0.33593976
35	0x3e8abf72	0.27099186
36	0x3e99b856	0.3002345
37	0x3ee55aa5	0.4479572
38	0x3e9a68cd	0.30158082
39	0x3e9b5834	0.3034073
40	0x3e8f3881	0.27972797
41	0x3e9ccfaf	0.306272
42	0x3e95688c	0.29181325
43	0x3e7b8261	0.24561454
44	0x3ed34452	0.41263062
45	0x3eaa5204	0.33265698
46	0x3f219837	0.63122886
47	0x3e85a3fb	0.2610167
48	0x3e90912f	0.28235766
49	0x3ece29ca	0.40266258
50	0x3e74a950	0.23892713
51	0x3e8d76a7	0.27629587
52	0x3e7a46c4	0.24441057
53	0x3ebdfeb0	0.37108374

motion_mlp.mlps.0.norm0.beta f4 [1, 54, 1]
0	0xb83c5e79	-4.4910677e-05
1	0xbaca7035	-0.0015444817
2	0x3bdfce1c	0.00682999
3	0x3b656e7f	0.0035008488
4	0x39d07f42	0.00039767666
5	0x3a1219e2	0.0005573315
6	0x39398358	0.00017691904
7	0xbad96479	-0.0016585729
8	0x393eade3	0.0001818459
9	0xba80dcff	-0.0009831487
10	0x3c088ae0	0.008333892
11	0xbb8856d7	-0.0041607427
12	0xba95ac7f	-0.0011419206
13	0x3aa4bfec	0.0012569404
14	0x3885ac3a	6.374014e-05
15	0xba8e5c46	-0.001086124
16	0xbb02bd42	-0.0019949232
17	0xbb14b0b0	-0.0022688322
18	0x3b829d27	0.003986019
19	0x3a1f9c36	0.0006088646
20	0xb9158523	-0.00014259345
21	0x3ac34073	0.0014896527
22	0x3b04f87b	0.0020289707
23	0xba923287	-0.0011153974
24	0x3a244b51	0.00062673265
25	0xba9e078a	-0.001205669
26	0xb8cf995d	-9.899095e-05
27	0xbabafaec	-0.0014265454
28	0x3b93262d	0.004490635
29	0xbb1e91b9	-0.0024195744
30	0xb985fcd2	-0.00025556103
31	0x3c3dd214	0.011585731
32	0x3afaaf49	0.0019125725
33	0xbaaa1260	-0.0012975447
34	0xbaa1c140	-0.0012340918
35	0x3ad13267	0.0015960456
36	0xbb7ff6d3	-0.003905703
37	0xbb347b46	-0.0027539297
38	0xbb3e0f2a	-0.0029000738
39	0x3b9ae6ff	0.004727244
40	0xba4ec6ba	-0.0007887889
41	0xbb1ea5f7	-0.002420781
42	0xba8ca0d8	-0.0010729088
43	0xb9bdc70e	-0.00036197196
44	0xb98e5237	-0.00027145605
45	0x3ac3587f	0.0014903693
46	0x3a87ed46	0.0010370396
47	0x3a785752	0.0009473461
48	0xb9810f8f	-0.0002461639
49	0xbba43c1b	-0.005012048
50	0xbaecaf6c	-0.0018057651
51	0xb9bad4b4	-0.0003563516
52	0xb92f797d	-0.00016734558
53	0xbad4ba3d	-0.001622982

motion_mlp.mlps.1.fc0.fc.weight f4 [50, 50]
0	0xbbf7a576	-0.0075575663
1	0xbc3ef546	-0.011655157
2	0x3ce052eb	0.027383288
3	0xbb66a9d9	-0.0035196452
4	0x3b851dd1	0.0040623923
5	0xbc725175	-0.014789929
6	0x3b0f45b1	0.0021861608
7	0x3c2a0251	0.010376529
8	0x3bfbd88d	0.007685727
9	0xbca0704c	-0.019584797
10	0x3b8d202d	0.004306814
11	0x3c49d8bf	0.012319743
12	0xbb93117d	-0.0044881687
13	0x3c6cc8ce	0.014452172
14	0x3b03f679	0.0020135923
15	0xbb5f6ccd	-0.003409195
16	0x3c0df286	0.008663779
17	0xbc15e836	-0.009149602
18	0xbc082b94	-0.008311171
19	0xbc2b0023	-0.010437044
20	0xbd05516d	-0.032548357
21	0xbd177001	-0.03697205
22	0xbc115d12	-0.008872287
23	0xb9c09ee2	-0.0003673947
24	0xbb9b8f1d	-0.004747285
25	0xbb8b9274	-0.004259402
26	0x3c92fcf0	0.017942876
27	0x3b7f9f55	0.0039004881
28	0xbbd8a155	-0.006611029
29	0x3b1cc3e7	0.0023920478
30	0x3cb65029	0.02225502
31	0xbc031b8c	-0.008002173
32	0xbcbeaf7e	-0.02327704
33	0xbcc1833b	-0.023622146
34	0xbc2400ab	-0.010009925
35	0xbc184c9a	-0.009295607
36	0xbcbd99d3	-0.023144638
37	0x3bf15877	0.007365282
38	0xbc0a9445	-0.008458202
39	0xbb889d03	-0.004169108
40	0xbc392f11	-0.011302725
41	0xbb02e83d	-0.001997485
42	0xbb00610b	-0.0019589092
43	0xbbf48748	-0.007462416
44	0x3c7d3ff8	0.015457146
45	0xbd0d0881	-0.034431938
46	0xbcc9e799	-0.024646567
47	0xbca97ffd	-0.020690912
48	0x3c2695a4	0.010167513
49	0xb7a9a9b2	-2.022539e-05
50	0x3c0e7a04	0.008696083
51	0xbc4b69df	-0.012415378
52	0x3d316ceb	0.043316763
53	0xbba79a6a	-0.005114843
54	0xbb5db7e4	-0.0033831531
55	0xbbbcd4bf	-0.005762666
56	0xbd1c4fee	-0.038162164
57	0xbc18875d	-0.009309617
58	0x3c956aa3	0.018239325
59	0xbc3c3c9a	-0.011489058
60	0xba4c3d63	-0.000779113
61	0x3d084bb2	0.033275314
62	0x3c0db6e1	0.008649559
63	0x3b50fa77	0.003188757
64	0x3cd18822	0.025577608
65	0x3a8cc38d	0.0010739431
66	0x3c32ac9b	0.01090541
67	0x3ccf879e	0.025333222
68	0xba95d3ed	-0.0011430957
69	0xbcaa91a2	-0.020821396
70	0x3b93fe93	0.0045164316
71	0xbb8b06e5	-0.0042427653
72	0x3d4c7dbe	0.049924605
73	0x3b9d8a5d	0.004807754
74	0xbbae0258	-0.005310338
75	0x3cd02d2f	0.02541217
76	0x3c8f3739	0.017482387
77	0x3c94ed51	0.018179568
78	0x3920081d	0.00015261811
79	0xba72ad89	-0.0009257426
80	0x3bba648f	0.005688257
81	0xbc80caf2	-0.015721772
82	0xbc05ea21	-0.008173496
83	0xbba38067	-0.004989672
84	0x3bdfbee2	0.006828175
85	0x3c2906d0	0.010316566
86	0x3c4a52f1	0.012348876
87	0xba71a34f	-0.0009217755
88	0x3be8e5e5	0.0071074837
89	0x3aeeaa5a	0.0018208728
90	0x3c840598	0.016115949
91	0xbb65920a	-0.0035029673
92	0x3b5681b1	0.003273111
93	0xbbf1f1c3	-0.0073835566
94	0x3d0858b3	0.033287715
95	0xbb320330	-0.0027162544
96	0xbc67c23d	-0.014145431
97	0x3ae62cf1	0.0017561001
98	0xbb944986	-0.0045253662
99	0xbc0ea32c	-0.008705895
100	0x3793dabd	1.7625624e-05
101	0xbab748a6	-0.0013983443
102	0xbc31557c	-0.010823604
103	0xbb92a823	-0.00447561
104	0x3b9eb76d	0.0048436434
105	0xbbf44fa6	-0.007455784
106	0xbc60a3fe	-0.013710974
107	0xb90fc8cf	-0.0001371235
108	0xbbadc9f8	-0.0053036176
109	0x3c077a3f	0.008268892
110	0x3a40b84d	0.00073516817
111	0xbc39c78e	-0.011339081
112	0xbc1f4993	-0.009722131
113	0xbb62223e	-0.0034505273
114	0xba3dcc78	-0.0007240246
115	0xbbaea5dd	-0.005329831
116	0xbb18afbf	-0.0023298112
117	0x3b80a4fc	0.0039259177
118	0xbb8a4ad5	-0.0042203465
119	0x3b16fe04	0.0023039589
120	0xbdb5f6d1	-0.08884967
121	0x3c3ba1f3	0.011452186
122	0xbe16d6e9	-0.14730419
123	0x3bd14187	0.0063859853
124	0xbb97eeef	-0.0046366374
125	0x3be8c408	0.007103447
126	0xbc9bdaf8	-0.01902531
127	0xbb820ef2	-0.003969067
128	0x3b19742c	0.002341519
129	0xbae59b77	-0.0017517646
130	0xbcaeacb3	-0.021322584
131	0xbab28588	-0.0013620118
132	0xbb1c1fba	-0.0023822621
133	0x3bb74ebd	0.005594103
134	0xbb62e0c3	-0.0034618832
135	0xbd8082ed	-0.06274972
136	0xbcf44deb	-0.02982231
137	0x3a6fc0ac	0.0009145837
138	0xbb007561	-0.0019601213
139	0xbba654c2	-0.005076022
140	0xbba19642	-0.004931242
141	0xbc1699eb	-0.00919197
142	0x3afc315c	0.0019240784
143	0x3bc38de9	0.0059678447
144	0xbbe098a0	-0.006854132
145	0xbb1391e5	-0.002251738
146	0x39e98951	0.00044543532
147	0x3b27adf6	0.0025585867
148	0x3b0e9e49	0.0021761826
149	0x3b699003	0.0035638816
150	0x3c2339bd	0.009962496
151	0x3bc5ff26	0.006042379
152	0x3ce0153d	0.027353877
153	0x3c7ddb90	0.015494242
154	0x3d2c6f2c	0.04209821
155	0x3c9eeb16	0.019399207
156	0xbcf3dbe8	-0.029767945
157	0xbcff6d74	-0.031180121
158	0x3c045744	0.008077446
159	0x3c1ef102	0.009701015
160	0x3b8752f9	0.004129764
161	0x3c04aa99	0.008097314
162	0x3b8f9d1b	0.004382742
163	0xbcc1a0c6	-0.023636233
164	0x3d0cf16a	0.034409918
165	0xbb9e68d8	-0.0048342757
166	0xbc867ec5	-0.01641787
167	0x3af1b627	0.0018441126
168	0x3b0d6086	0.0021572425
169	0xbc85b558	-0.016321823
170	0xbce2672b	-0.027637085
171	0x3c72db98	0.014822863
172	0xbd1c6f20	-0.038191915
173	0x39ec9829	0.00045126796
174	0x3c0776e6	0.008268094
175	0xb84807e3	-4.769106e-05
176	0xbc34058c	-0.010987651
177	0x3c024beb	0.007952671
178	0x396721fe	0.0002204254
179	0xbc213631	-0.00983958
180	0x38878c33	6.463416e-05
181	0x3c6db83f	0.01450926
182	0x3c3fcb84	0.011706237
183	0x3cb639f5	0.022244433
184	0xbc4437d1	-0.011976198
185	0xbd1cb057	-0.03825411
186	0x3cb6f2ef	0.022332637
187	0xb9bf1b7b	-0.00036450833
188	0xbc1c3f3f	-0.009536563
189	0x3a3262b4	0.0006804869
190	0xbc2af5f2	-0.0104346145
191	0x3c9c5aa6	0.019086193
192	0xbc3d2ac9	-0.011545845
193	0x3c0a2ff0	0.008434281
194	0xbcd07a72	-0.025449011
195	0x3c16d8f9	0.009207004
196	0x3c9132ea	0.017724473
197	0x3c4d1c82	0.012519004
198	0xbc5d9fd1	-0.013526873
199	0x3c18dcb8	0.009329967
200	0xbc590ab3	-0.01324718
201	0x3c312a33	0.010813284
202	0xbca817a7	-0.02051909
203	0xbca25320	-0.019815028
204	0xbd06a438	-0.032871455
205	0xbbdfd050	-0.0068302527
206	0x3d0b0884	0.033943668
207	0x3cd20973	0.025639271
208	0xbd1ab7ee	-0.037773065
209	0xbb8006f4	-0.003907079
210	0x3bef016f	0.007293872
211	0xbbfaa3c6	-0.007648918
212	0xbc5a2d1b	-0.013316418
213	0x3c97d59e	0.018534478
214	0x3b3e4ad2	0.0029036296
215	0x3c7e56d9	0.015523636
216	0xbbe96113	-0.007122168
217	0xbb647f31	-0.003486585
218	0x3ba4b7bf	0.005026787
219	0x3b9381f4	0.0045015756
220	0xbcb04af1	-0.02152011
221	0x3c12f381	0.008969189
222	0xbd078c8e	-0.033093028
223	0xbc9d5f67	-0.01921053
224	0x3c41aa00	0.011820316
225	0x3c34b5fb	0.011029716
226	0xbcf63c05	-0.030057916
227	0xbd0d2eb2	-0.03446836
228	0x3bb81f71	0.0056189825
229	0x3ca0dedd	0.01963752
230	0xbcf42e58	-0.029807255
231	0xbc681859	-0.014165961
232	0xbc5ca335	-0.013466646
233	0x3b97be1f	0.0046308185
234	0xbc7b3df3	-0.015334594
235	0xbc81d381	-0.015847923
236	0xbcee940a	-0.029123325
237	0x3c324531	0.010880754
238	0x3abb06d8	0.0014269007
239	0x3c82bd24	0.01595933
240	0x3cfc1171	0.030770035
241	0x3cb41c4d	0.021986151
242	0x3bf726db	0.0075424737
243	0x3bf40758	0.0074471645
244	0x3b1bd2db	0.0023776803
245	0x3b8c2d2a	0.004277845
246	0xbc7041ac	-0.014664095
247	0xbcb3512c	-0.021889292
248	0xbc80f53d	-0.015741939
249	0x39cd2095	0.00039124922
250	0x3c2e9849	0.010656425
251	0xbb557c93	-0.0032575473
252	0xbc1e381b	-0.009656931
253	0x3c6a896b	0.01431499
254	0xb9a924ca	-0.00032261602
255	0xbccf9441	-0.025339248

motion_mlp.mlps.1.fc0.fc.bias f4 [50]
0	0xb69abb0f	-4.611334e-06
1	0x36468b39	2.9585337e-06
2	0xb77a566f	-1.4921286e-05
3	0xb645511c	-2.94025e-06
4	0x36dc16b9	6.559156e-06
5	0x365b6e19	3.2697628e-06
6	0xb653e741	-3.1576058e-06
7	0xb6227995	-2.4210651e-06
8	0x359f6e74	1.1878569e-06
9	0x358c819e	1.0468536e-06
10	0x3387a71f	6.3168265e-08
11	0x35f58a30	1.829414e-06
12	0xb58e9530	-1.0623244e-06
13	0xb700717f	-7.65582e-06
14	0xb411b3fe	-1.3569658e-07
15	0x3598d785	1.1387607e-06
16	0x34a3c058	3.0501064e-07
17	0x3665272b	3.4146458e-06
18	0xb5c386b6	-1.4567838e-06
19	0x358b2072	1.036575e-06
20	0xb7003e54	-7.643906e-06
21	0x3655f214	3.1880381e-06
22	0x370374a1	7.835363e-06
23	0x34c939ad	3.7481132e-07
24	0xb5e77b72	-1.7246768e-06
25	0x35eb9f50	1.755523e-06
26	0x36493b95	2.9986015e-06
27	0xb4cb1477	-3.7826587e-07
28	0x35d8507a	1.6116676e-06
29	0xb6e10220	-6.70577e-06
30	0x36baee47	5.570971e-06
31	0x3693d137	4.405297e-06
32	0xb6792f3a	-3.713138e-06
33	0xb5977b0a	-1.1286186e-06
34	0x368e56c2	4.2420297e-06
35	0x36860b3b	3.9948186e-06
36	0xb4f83dbc	-4.6238517e-07
37	0x35b80553	1.3710618e-06
38	0xb72c8838	-1.0283715e-05
39	0xb6e2e4c9	-6.761959e-06
40	0x340154f0	1.2044961e-07
41	0xb549efa7	-7.5227075e-07
42	0x35af579c	1.3064014e-06
43	0xb661c668	-3.36431e-06
44	0xb713f3b2	-8.8186225e-06
45	0x3349c660	4.697938e-08
46	0x35991b4e	1.1407335e-06
47	0x36243d28	2.4473502e-06
48	0x36bd7ecc	5.6474e-06
49	0xb64419db	-2.9221326e-06

motion_mlp.mlps.1.norm0.alpha f4 [1, 54, 1]
0	0x3e85b2f2	0.26113087
1	0x3e6a9b6f	0.22910856
2	0x3f08ca08	0.53433275
3	0x3e74302a	0.23846498
4	0x3e214274	0.15748006
5	0x3eaad3ae	0.33364624
6	0x3e12b94c	0.14328498
7	0x3e295578	0.1653651
8	0x3e1b82a5	0.15186556
9	0x3ed84522	0.42240244
10	0x3ee5a118	0.44849467
11	0x3df40fcc	0.119170755
12	0x3e6773ab	0.22602718
13	0x3e6fdc31	0.2342384
14	0x3e47a9dc	0.1949839
15	0x3e954e15	0.29161134
16	0x3e62fe24	0.2216726
17	0x3e52cee3	0.20586734
18	0x3e79f617	0.24410282
19	0x3f1efb6c	0.6210239
20	0x3e7a6fbb	0.24456684
21	0x3e71d738	0.23617256
22	0x3e6e9f99	0.23303069
23	0x3e0ea50f	0.13930152
24	0x3e96ec88	0.29477334
25	0x3ec0b2eb	0.37636504
26	0x3e457295	0.19281991
27	0x3e32fde3	0.17479663
28	0x3e2ff9c6	0.17185125
29	0x3e3fd9aa	0.18735376
30	0x3e319c31	0.17344739
31	0x3c19583f	0.009359418
32	0x3e2ff13a	0.17181864
33	0x3e6d92b0	0.23200488
34	0x3eb52433	0.3537918
35	0x3e6be718	0.23037374
36	0x3e4665c5	0.1937476
37	0x3ec0f388	0.376858
38	0x3e5dbb0e	0.21653387
39	0x3ec18cd7	0.37802765
40	0x3e52bf13	0.20580702
41	0x3e78525c	0.24250168
42	0x3e6584bd	0.22413917
43	0x3e2815fd	0.16414638
44	0x3e9ce72e	0.30645126
45	0x3e67936b	0.22614829
46	0x3f2bcfda	0.6711403
47	0x3e64c0bd	0.22339149
48	0x3e6aa72c	0.22915334
49	0x3ef0efac	0.47057855
50	0x3e195f06	0.14977655
51	0x3e81d54f	0.25358054
52	0x3e408d46	0.18803892
53	0x3e95c7db	0.2925404

motion_mlp.mlps.1.norm0.beta f4 [1, 54, 1]
0	0xbc01924d	-0.007908416
1	0x3cc5d744	0.024150498
2	0x3b4a302c	0.0030851467
3	0xbcad0ab0	-0.02112326
4	0x3b9b486a	0.004738857
5	0xbc0163c6	-0.007897323
6	0xbb8ec656	-0.0043571396
7	0xba42cd3c	-0.0007431095
8	0xba879554	-0.0010344186
9	0xbd45dbb7	-0.04830524
10	0x3db0976d	0.08622632
11	0xbb0ec65c	-0.0021785712
12	0x3d036230	0.03207606
13	0x3b815dbb	0.003947941
14	0x3c683449	0.014172622
15	0x3d01d3d0	0.03169614
16	0x3b9bb464	0.004751729
17	0xbc5588a9	-0.013033071
18	0xbcb7a14d	-0.022415781
19	0x3ba57679	0.0050495234
20	0xbcd9b3ea	-0.026575048
21	0xbd24629c	-0.040133104
22	0xbc6d76fd	-0.014493701
23	0xbbdf3613	-0.006811866
24	0xbbd12924	-0.006383078
25	0xbc8cb92b	-0.017178139
26	0xbbfd7f95	-0.007736156
27	0xbbc68894	-0.006058762
28	0x3c008b61	0.0078457305
29	0x3c68d715	0.014211436
30	0xbb89b713	-0.0042027324
31	0x3ada93b5	0.00166761
32	0xbccbeda2	-0.024893586
33	0xbc4ded4b	-0.012568782
34	0x3c521c49	0.0128241265
35	0xbb7349d0	-0.0037122853
36	0xbb5c514f	-0.00336178
37	0x3d1ea41d	0.03873073
38	0xb98de81c	-0.0002706655
39	0x3cc4e89d	0.0240367
40	0xba2bf166	-0.00065591035
41	0x3c6e65ba	0.014550621
42	0xbbb24322	-0.0054401318
43	0xbb24d7c1	-0.0025153013
44	0xbbae8178	-0.0053254925
45	0xbb980bda	-0.0046400847
46	0xbb2dd6e5	-0.0026525792
47	0xbca17602	-0.01970959
48	0xbc3b0062	-0.0114136655
49	0x3a71935d	0.0009215379
50	0x3bbc210b	0.0057412437
51	0x3c91b87d	0.017788166
52	0x3b264672	0.0025371579
53	0xbc92deb5	-0.01792846

motion_mlp.mlps.2.fc0.fc.weight f4 [50, 50]
0	0xbb1aaa76	-0.0023600138
1	0xbb873e74	-0.004127318
2	0x3b92c22e	0.0044787144
3	0xbbc2e26f	-0.005947403
4	0x3c2a639e	0.010399727
5	0xbc5d867a	-0.013520831
6	0x3b4a7dde	0.0030897777
7	0xbbd9ab96	-0.006642769
8	0xb982e9d7	-0.00024969756
9	0xbc1ee582	-0.009698274
10	0xbbcc1826	-0.0062284647
11	0xb9f63068	-0.00046956842
12	0xbc02bd18	-0.007979654
13	0x3b40c9f3	0.0029417246
14	0xbb7fd9ae	-0.003903966
15	0xbcef6b32	-0.02922592
16	0x3b611fe4	0.0034351284
17	0xbcbb9f34	-0.022903062
18	0xbbe379f5	-0.0069420286
19	0x3d126554	0.035741165
20	0xbcc260a3	-0.02372772
21	0xbc67cf16	-0.014148494
22	0xbc8efcdc	-0.017454557
23	0xbc769740	-0.015050709
24	0x3b83abb2	0.0040182704
25	0xbc6a0c87	-0.014285213
26	0xb974f73d	-0.00023361757
27	0x3bff4b46	0.0077909557
28	0xbc762427	-0.015023268
29	0xbc2ee436	-0.010674527
30	0x3baea6e7	0.005329955
31	0xbb9ade4d	-0.0047262073
32	0xbc6aed26	-0.014338767
33	0xbbab84a4	-0.005234318
34	0xbc6eb846	-0.014570301
35	0xbc2b9b10	-0.0104739815
36	0xbd171b50	-0.03689128
37	0xbc50493a	-0.012712771
38	0xbb1689a9	-0.0022970235
39	0xbcc9a8dd	-0.024616653
40	0xbc9949e8	-0.018711999
41	0xbc073d39	-0.008254343
42	0x3bc55226	0.0060217557
43	0xbb4bb687	-0.0031084137
44	0xbc79e637	-0.015252641
45	0xbc2d32e1	-0.0105712125
46	0xbb8a4522	-0.004219667
47	0xbcc057aa	-0.023479301
48	0x3be4dcdb	0.006984336
49	0xbc1b7700	-0.009488821
50	0x3b4b2f91	0.0031003694
51	0xbc97f72e	-0.018550482
52	0x37c0aa5b	2.2967512e-05
53	0xbc0f09a3	-0.008730325
54	0x3aadbe61	0.001325559
55	0xbbf4f964	-0.0074760187
56	0xbc9154b4	-0.017740585
57	0xbbe670f6	-0.007032509
58	0xbaa970bf	-0.0012927278
59	0xbc594e58	-0.0132633075
60	0xbbc82eb1	-0.0061090817
61	0xbc1c0c51	-0.009524421
62	0xbce39100	-0.027779102
63	0x3c69f2d8	0.01427909
64	0xbca5b641	-0.020228507
65	0xbd163a56	-0.036676727
66	0xbc946539	-0.018114673
67	0xbba6eb90	-0.005093999
68	0xbbc4c8ce	-0.006005383
69	0x3bbbf9db	0.005736572
70	0xbca4261b	-0.020037701
71	0xbc2e10fe	-0.010624168
72	0xbc2e22f2	-0.010628449
73	0x3c7a417a	0.0152744
74	0xbc87875c	-0.016544037
75	0xbb2bf96c	-0.0026241196
76	0xbc1b489d	-0.009477762
77	0x3b9c2283	0.0047648563
78	0xbbda5829	-0.0066633415
79	0xbc0f70bc	-0.008754905
80	0x38edaa69	0.00011332782
81	0x3a0109f3	0.0004922442
82	0xbb2752b1	-0.0025531466
83	0xbc9f2df0	-0.019431084
84	0x3b8cc507	0.0042959484
85	0xbcb218ea	-0.021740396
86	0xbcb8b11d	-0.022545392
87	0x3c6254a3	0.013814124
88	0xbc88618e	-0.01664808
89	0xbc7173d8	-0.014737092
90	0xbc0ad309	-0.008473166
91	0x3c4e48c0	0.012590587
92	0xbbcd861d	-0.006272091
93	0xbc8217d0	-0.015880495
94	0x3c53016c	0.012878757
95	0xbb9d902d	-0.004808447
96	0xbc4725c1	-0.012154997
97	0xba86dc3c	-0.0010289024
98	0xbb9f231e	-0.004856481
99	0xbb75c576	-0.003750173
100	0x3a1c00a9	0.0005951026
101	0xbae4b53a	-0.0017449029
102	0x3d18780b	0.037223857
103	0xbc279276	-0.01022779
104	0xbb20c6a9	-0.0024532473
105	0x3c6fa802	0.0146274585
106	0xbc6ebcda	-0.014571393
107	0x3a7924ac	0.0009504061
108	0xbb0a0506	-0.0021060123
109	0x3bbf44fd	0.0058370815
110	0xb9957c8a	-0.00028512283
111	0xbb85cc93	-0.004083225
112	0xbb96bc46	-0.0046000807
113	0x3ca6e24c	0.020371579
114	0x3bd1d965	0.0064040893
115	0x3b9122a6	0.0044291792
116	0x3c45582c	0.012044948
117	0x3a74b260	0.0009334441
118	0x3b250b0b	0.0025183584
119	0x39cb8ce5	0.00038824152
120	0xbc997049	-0.0187303
121	0xbafbc2d9	-0.0019207849
122	0xbceb10ba	-0.0286945
123	0xbb556cea	-0.0032566139
124	0x3ac2fae4	0.0014875797
125	0x3b2b5590	0.0026143529
126	0xba9301b8	-0.0011215722
127	0x3bfac9b4	0.0076534394
128	0x3be62b76	0.007024224
129	0x3c7457fd	0.014913556
130	0xbbb28b4d	-0.005448735
131	0xbc353c86	-0.011061793
132	0x3c9ef18c	0.019402288
133	0xbb938ff7	-0.004503246
134	0x3c70c67a	0.014695758
135	0xbd202d13	-0.039105486
136	0xbc882b8e	-0.016622331
137	0xb95db67e	-0.00021144186
138	0xbdb4426e	-0.08801733
139	0x3d2b9fbc	0.04190038
140	0xbc20d8d8	-0.009817325
141	0x3ac6721d	0.001514021
142	0x3c73156f	0.014836653
143	0x3b89058d	0.00418157
144	0xbb267967	-0.0025401951
145	0x3cf36994	0.02971343
146	0x3c06545c	0.008198824
147	0x3c0f852d	0.008759779
148	0x39897134	0.0002621502
149	0x3c006f01	0.007838965
150	0x3be56114	0.007000098
151	0x3c30c770	0.010789737
152	0xbc30b6e2	-0.01078579
153	0xbcf1aa22	-0.029500071
154	0xbc520d38	-0.012820534
155	0x3c19277f	0.0093477955
156	0x3d2448bc	0.040108427
157	0xbb8f8d3e	-0.004380851
158	0x3b8c0b2f	0.004273794
159	0x3b849a06	0.0040466813
160	0x3ca7b992	0.020474229
161	0x3cb444b2	0.022005413
162	0xbaa4989c	-0.0012557688
163	0xbb099eef	-0.0020999273
164	0x3c114176	0.008865705
165	0x3c1bac5f	0.009501546
166	0x3c4d087b	0.012514229
167	0x3b9cc923	0.0047847196
168	0x3cb85256	0.022500198
169	0x3c7587f1	0.014986024
170	0xbb8e4984	-0.00434226
171	0xbc22a7ca	-0.009927699
172	0xbbc071ca	-0.0058729397
173	0x3cb9d8ee	0.022686448
174	0x3c283832	0.010267304
175	0x3b683164	0.003542983
176	0x3c140eb5	0.00903671
177	0xbc0968b1	-0.008386777
178	0x3be5487e	0.006997167
179	0x3ca3d504	0.019999035
180	0x3c38826d	0.011261565
181	0x3af08db0	0.0018352773
182	0x3d042d9f	0.03227007
183	0xbc49936a	-0.012303213
184	0x3c253345	0.010083024
185	0xbc83f6bd	-0.016108865
186	0x3cc34283	0.023835426
187	0xbd1fe964	-0.039040938
188	0x3c48e42d	0.012261433
189	0x3c0f901e	0.008762388
190	0x3b473e3a	0.003040208
191	0x3b3ed10e	0.0029116306
192	0x3c0570e0	0.008144587
193	0x3b370776	0.002792803
194	0x3a231eda	0.0006222554
195	0xbbdca150	-0.006733097
196	0x3cfec905	0.031101713
197	0x3bee7228	0.007276792
198	0xbc1ef1f1	-0.009701238
199	0x3cd20254	0.025635876
200	0x3bc92615	0.006138573
201	0x3cfa0595	0.03052024
202	0xbc04a732	-0.008096503
203	0x3c95a11b	0.018265298
204	0xbd09a501	-0.033604626
205	0xbceb7eef	-0.02874705
206	0xbc7ceac4	-0.015436832
207	0x3c09a21f	0.008400469
208	0x3bbc370a	0.005743866
209	0xbc834c05	-0.01602746
210	0xbad2631b	-0.0016051264
211	0x3c2372a2	0.009976061
212	0x3c612d64	0.013743732
213	0xba4eb5a3	-0.00078853423
214	0x3c3775cb	0.011197518
215	0x3beec968	0.007287193
216	0x3c94b72a	0.018153746
217	0xbcae5570	-0.021280974
218	0xbc1e7fe4	-0.009674046
219	0x3c74b8da	0.01493665
220	0xbc53e9a1	-0.012934119
221	0xbb78b5d8	-0.0037950184
222	0xbd0f88b5	-0.035042483
223	0xbb67aa3b	-0.0035349268
224	0xbc468b99	-0.012118244
225	0x3b5cc05f	0.0033683998
226	0x3c890153	0.016724264
227	0x3c1422a7	0.009041465
228	0x3adf1039	0.0017018385
229	0xbc6b4577	-0.014359823
230	0xbbc97f18	-0.006149184
231	0x3ce29eab	0.02766355
232	0x3b8428c9	0.0040331823
233	0xb858eed6	-5.1720846e-05
234	0xbad27738	-0.0016057258
235	0xbca931b0	-0.020653576
236	0xbc59fb09	-0.01330448
237	0xbc67a118	-0.014137529
238	0x3c334353	0.010941344
239	0xbbede2dc	-0.0072597098
240	0xbc8d8eeb	-0.017280063
241	0xbc581a87	-0.013189918
242	0xba17fe9f	-0.00057981344
243	0x3c18bc61	0.009322257
244	0x3bb543a1	0.0055317436
245	0xbc0b8ed4	-0.00851794
246	0xbca5ba31	-0.020230385
247	0xbcf401fb	-0.0297861
248	0x3c1057ab	0.008809964
249	0xbc307485	-0.010769968
250	0xbcbbe0e8	-0.022934392
251	0xbac7a84a	-0.0015232649
252	0xbbeff5d6	-0.007323007
253	0x3b3f23f1	0.002916571
254	0x3c0ef24c	0.00872476
255	0xbcb08333	-0.021546936

motion_mlp.mlps.2.fc0.fc.bias f4 [50]
0	0xb5a8b50b	-1.2569666e-06
1	0x337edfee	5.9342646e-08
2	0x35e21c93	1.6846628e-06
3	0xb57c1933	-9.3913985e-07
4	0x35ceb076	1.5399553e-06
5	0xb3c82025	-9.319073e-08
6	0x35de53bb	1.6564658e-06
7	0x3532f755	6.667008e-07
8	0x360bc871	2.0829286e-06
9	0x35ee93ad	1.7775361e-06
10	0x363b61f3	2.7922185e-06
11	0x349f4368	2.9665102e-07
12	0x3467383f	2.1534014e-07
13	0xb65559c2	-3.179172e-06
14	0xb3f76f0d	-1.1522034e-07
15	0xb46f691a	-2.2296845e-07
16	0x35c51984	1.468507e-06
17	0x35121f45	5.443474e-07
18	0xb46eca19	-2.2239e-07
19	0x3505df9a	4.9871744e-07
20	0xb44d9359	-1.9145718e-07
21	0xb4221422	-1.509475e-07
22	0x3584f73f	9.906724e-07
23	0x34f3c144	4.5402896e-07
24	0xb5376c8f	-6.8330786e-07
25	0x35a9be3c	1.2646847e-06
26	0x351e1175	5.888499e-07
27	0xb62f4c66	-2.6121502e-06
28	0x3328674d	3.92095e-08
29	0x3389f4d0	6.424091e-08
30	0xb60553c4	-1.9867302e-06
31	0x35ba2141	1.3867758e-06
32	0xb5eb9b28	-1.7554021e-06
33	0x3524b566	6.135873e-07
34	0xb562a109	-8.44259e-07
35	0xb52deeab	-6.479483e-07
36	0xb51fde4c	-5.95556e-07
37	0xb578f88f	-9.27489e-07
38	0xb56aa7e0	-8.7416083e-07
39	0x3316fcb4	3.515443e-08
40	0xb5a13d28	-1.2013234e-06
41	0x3495fba8	2.7936517e-07
42	0xb4401cea	-1.7891912e-07
43	0xb4de939c	-4.1458122e-07
44	0xb46f43a8	-2.2283223e-07
45	0x355eb7d9	8.296898e-07
46	0x3618d08b	2.2771153e-06
47	0xb51f0e08	-5.9252534e-07
48	0xb543e614	-7.297797e-07
49	0x34a01197	2.981512e-07

motion_mlp.mlps.2.norm0.alpha f4 [1, 54, 1]
0	0x3e4e3450	0.20137143
1	0x3e68a37f	0.22718619
2	0x3e8b90ce	0.27258915
3	0x3e1489c7	0.14505683
4	0x3d480b50	0.048838913
5	0x3e1b1192	0.15143421
6	0x3d3c067d	0.045904625
7	0x3d6bd34b	0.05757455
8	0x3dc5493c	0.09633109
9	0x3e81ff22	0.25389963
10	0x3e8e27ee	0.2776484
11	0x3d7d8cf3	0.061901998
12	0x3dcec870	0.10096824
13	0x3e07714f	0.13226818
14	0x3dab9d35	0.08379594
15	0x3e1740c8	0.14770806
16	0x3e266fe1	0.16253616
17	0x3ddaa064	0.10675123
18	0x3e2c2407	0.16810618
19	0x3ec3eb32	0.38265377
20	0x3df225d9	0.11823625
21	0x3dd7476e	0.10511671
22	0x3db995fc	0.090618104
23	0x3d2c6095	0.042084295
24	0x3e3c1fff	0.1837158
25	0x3e82f48d	0.25577202
26	0x3da1546d	0.07877431
27	0x3d9a663e	0.075390324
28	0x3d89afb9	0.067229696
29	0x3daeb0ed	0.0852984
30	0x3d5e568c	0.054281756
31	0xbba6126b	-0.0050681136
32	0x3dbbc613	0.09168639
33	0x3e3a6d28	0.18205702
34	0x3e59f3a9	0.21284355
35	0x3dd4d57f	0.10392284
36	0x3ddad384	0.10684875
37	0x3e721257	0.23639809
38	0x3dd1d1b0	0.10245073
39	0x3e6726e5	0.22573431
40	0x3dba5068	0.090973675
41	0x3e2369e4	0.15958363
42	0x3df77aa8	0.12083942
43	0x3d880ebd	0.06643436
44	0x3e2264d6	0.15858778
45	0x3da4a1ad	0.0803865
46	0x3ebe4f8d	0.37170067
47	0x3ddbf81e	0.10740684
48	0x3e2ac0e0	0.16675138
49	0x3eab8aa6	0.33504218
50	0x3d52d4c7	0.05147245
51	0x3e7085c7	0.23488532
52	0x3d98107d	0.0742502
53	0x3e049c55	0.12950261

motion_mlp.mlps.2.norm0.beta f4 [1, 54, 1]
0	0xbcb4db29	-0.02207716
1	0xbca41955	-0.02003161
2	0x3d5b0fb7	0.053481784
3	0x3bced2bb	0.006311742
4	0x3b2ea1eb	0.0026646804
5	0xbafe61ef	-0.0019407849
6	0xbbeeee77	-0.007291611
7	0xbb3a629a	-0.0028440119
8	0x3c0a8e04	0.008456711
9	0xbd27afd2	-0.04093916
10	0x3d3f3e69	0.04669038
11	0x3a89da88	0.0010517398
12	0xbc09f967	-0.008421279
13	0xbb473e94	-0.003040229
14	0xbc8fc509	-0.017550008
15	0x3c6b7f4c	0.014373612
16	0x3c189fa9	0.00931541
17	0xbb0ed455	-0.002179404
18	0x3c14cc68	0.009081937
19	0xbc3ad4ef	-0.011403306
20	0x3c36300a	0.011119852
21	0x3cc56cde	0.024099763
22	0x3c2ae523	0.010430607
23	0x3a55f87d	0.0008162333
24	0xbd370ee0	-0.04469192
25	0xbab1c313	-0.0013562165
26	0x3c0422bd	0.008064923
27	0xbcb2b8a9	-0.021816568
28	0xbc7a013d	-0.015259084
29	0x3b8d6d76	0.0043160273
30	0xbb5943a4	-0.003315189
31	0x3a70111e	0.0009157824
32	0x3b9f2f49	0.0048579318
33	0xbae873ab	-0.0017734667
34	0xbd81646d	-0.06317983
35	0x3cbd2d6d	0.02309295
36	0x3a833265	0.0010009526
37	0x3db7b2d7	0.08969658
38	0xbc3cbf38	-0.0115201995
39	0xbc892087	-0.016739143
40	0x3b486e4c	0.003058332
41	0x3b76974e	0.0037626806
42	0xbb2e8368	-0.0026628617
43	0xbc758cf1	-0.014987216
44	0x3bc5a442	0.006031544
45	0x3c0a9781	0.008458973
46	0x3c843678	0.016139254
47	0x3ccd0f25	0.025031636
48	0x3c9fd6f8	0.019511685
49	0xbc7db995	-0.015486141
50	0xbc3574c3	-0.011075201
51	0xbc9e1bc7	-0.019300355
52	0xb9c8612d	-0.00038219374
53	0x3c23e767	0.010003901

motion_mlp.mlps.3.fc0.fc.weight f4 [50, 50]
0	0xbb44c73b	-0.0030025977
1	0x3ab955b4	0.0014139921
2	0x3ce63aa1	0.028104128
3	0x3ba99130	0.0051747784
4	0xbc4ee088	-0.012626775
5	0x39c21a2e	0.0003702207
6	0x3cbfe20a	0.023423214
7	0x3c938165	0.018006036
8	0x3bd477ee	0.0064840233
9	0xbb22068e	-0.0024723145
10	0x3a85a8dd	0.001019742
11	0xbc5cc146	-0.013473814
12	0xbc0430d9	-0.008068287
13	0x3c30521d	0.010761765
14	0x3b54a5df	0.00324475
15	0x3c8f97ba	0.017528404
16	0x3c6d1222	0.014469655
17	0xbbcf5560	-0.006327316
18	0x3c2e5f09	0.010642775
19	0xbaf79b02	-0.00188908
20	0xbc7e58c5	-0.015524094
21	0xbc47dba2	-0.012198361
22	0xbbbee0bf	-0.0058251317
23	0x39081725	0.00012978593
24	0x3d2d63c5	0.042331476
25	0x3c47af64	0.0121878125
26	0x3beac616	0.007164727
27	0x3a668709	0.00087939255
28	0x3b20b081	0.0024519267
29	0xba5694f6	-0.0008185649
30	0x3afa876d	0.0019113846
31	0xbad5a0bc	-0.0016298513
32	0xbba75b8b	-0.0051073483
33	0xbbc6efc3	-0.0060710623
34	0x3c880b0a	0.016606826
35	0xbd3f65b0	-0.046727836
36	0xbc0741a4	-0.008255396
37	0xbc155b71	-0.00911604
38	0xbd06922e	-0.03285425
39	0x3cf92942	0.030415181
40	0xbc369ae3	-0.011145326
41	0x3c4f33f9	0.012646669
42	0x3ab1afe0	0.0013556443
43	0x3c8b1190	0.016976148
44	0xbc08084b	-0.008302758
45	0x3b14d4e3	0.0022709898
46	0xbbce0d29	-0.00628819
47	0xbbc5b58c	-0.006033605
48	0xbb2969eb	-0.0025850486
49	0xbb120699	-0.0022281765
50	0x3b8fb4f0	0.004385583
51	0xbc51c33d	-0.012802896
52	0x3ba784bb	0.0051122583
53	0xbb9d317d	-0.004797159
54	0xbbf1091c	-0.0073558223
55	0xbc19fc75	-0.009398569
56	0x3bb55c97	0.005534719
57	0xbb9292ac	-0.004473051
58	0x3b4b80d6	0.0031052134
59	0xbc95b967	-0.018276883
60	0xbbdb5fd4	-0.006694773
61	0x3c2cc1b9	0.010544234
62	0xbc61a20d	-0.013771546
63	0xb9ab4e06	-0.00032673794
64	0xbbe1749b	-0.0068803555
65	0xbbd7ece2	-0.006589518
66	0xbb94bb18	-0.004538905
67	0x3baeecd0	0.005338289
68	0xbc9a4f06	-0.01883651
69	0x3cc9cf14	0.024634875
70	0x3c0ac8d6	0.008470735
71	0xbd13af45	-0.036055822
72	0xbc8fbd59	-0.017546343
73	0xbae47c03	-0.0017431978
74	0xbc65225c	-0.013985243
75	0xbbb12653	-0.00540618
76	0xbc20f245	-0.009823387
77	0xbc61a5e6	-0.013772463
78	0xbc273aec	-0.010206919
79	0xba8ddb4c	-0.0010822802
80	0xbc6a8fd7	-0.014316521
81	0xbc519d66	-0.012793874
82	0xbb35fc28	-0.0027768705
83	0xbc5d8dd3	-0.013522583
84	0xbbbfc66a	-0.00585251
85	0xbc5423fe	-0.012948034
86	0xbc8edf35	-0.017440418
87	0xbbb778ec	-0.005599132
88	0xbc1eb556	-0.009686789
89	0xbc6174bd	-0.013760743
90	0xbbc4eb6b	-0.0060095093
91	0xbb826496	-0.003979276
92	0x3b558e12	0.0032585901
93	0x3b9db7d4	0.004813174
94	0x3c40a23e	0.011757432
95	0xbc29583d	-0.010335979
96	0x3c93c19b	0.018036654
97	0xbcbaa96c	-0.022785865
98	0x3c2119b4	0.009832788
99	0xba85f92b	-0.0010221353
100	0xbc1111c0	-0.00885433
101	0xbb9f0fa1	-0.004854158
102	0xbd2fa287	-0.042879608
103	0x3c616f0d	0.013759387
104	0xbc92e0e5	-0.017929504
105	0xbbbb574f	-0.005717195
106	0x3bd9dad3	0.0066484003
107	0xbbafba47	-0.005362782
108	0xbb4935e6	-0.0030702292
109	0x3aa8b3bf	0.0012870951
110	0x3c2f1189	0.010685333
111	0x3c6ea9e7	0.014566875
112	0x3af19c44	0.0018433412
113	0xbccf48d0	-0.025303274
114	0xbc0fe016	-0.008781454
115	0xbbbbe3c1	-0.0057339375
116	0x3b7a383e	0.0038180496
117	0xbcb0c421	-0.021577897
118	0x3b5bc678	0.0033535045
119	0xbc1a1a66	-0.009405708
120	0xbc9855a6	-0.018595528
121	0xbc916d44	-0.017752297
122	0xbb0d30a3	-0.0021543882
123	0xbc80d0a0	-0.01572448
124	0xbc061ac1	-0.00818509
125	0xbc7b117b	-0.015323992
126	0x3c4ba0c9	0.012428471
127	0xbb86a625	-0.0041091614
128	0xbba1c3cc	-0.004936671
129	0x3c2319e0	0.0099549
130	0x3d054754	0.032538727
131	0x3bb7881b	0.005600942
132	0xbc968838	-0.018375501
133	0xbb1a25b5	-0.002352101
134	0x3be51ef1	0.006992214
135	0xbc10aec7	-0.008830733
136	0xbcc7b571	-0.02437851
137	0xbcbad69d	-0.022807414
138	0x3cd18a82	0.025578741
139	0x3ac6b053	0.001515875
140	0xbbfba6d8	-0.0076798014
141	0xbb720f35	-0.0036935334
142	0xba6021c6	-0.00085499545
143	0xbb576be6	-0.003287071
144	0x3bac1354	0.0052513275
145	0x3bff2836	0.007786776
146	0x39dd3bc2	0.00042196928
147	0x3c4eee91	0.012630121
148	0xb997508d	-0.0002886098
149	0xbb2f79d2	-0.0026775491
150	0xbc1513ea	-0.009098986
151	0x3c1c0895	0.0095235305
152	0xbbefbc20	-0.0073161274
153	0xbca6258e	-0.02028158
154	0x39a73cf2	0.0003189813
155	0xbc53b366	-0.01292119
156	0xbd05767c	-0.0325837
157	0xbbc56258	-0.0060236864
158	0xbc233cbf	-0.0099632135
159	0x3d20ecdc	0.039288387
160	0x3cbcb483	0.023035293
161	0xbc2d9959	-0.010595643
162	0xbbc58592	-0.0060278857
163	0x3b6a713d	0.0035773062
164	0xbc656e6a	-0.014003376
165	0xbb8f976f	-0.004382066
166	0xbb889055	-0.0041675963
167	0x3b9dd823	0.0048170253
168	0xbc664679	-0.014054888
169	0xbc85fc11	-0.016355546
170	0xbb81ec61	-0.003964946
171	0xbbca5ede	-0.00617586
172	0xb9c6569b	-0.0003783003
173	0x3cacab72	0.021077845
174	0x3c37cb28	0.01121787
175	0x3c098d8b	0.008395563
176	0xbc04eb76	-0.008112779
177	0xbd26b72c	-0.04070203
178	0x3b5c6a13	0.003363256
179	0x3c95334e	0.01821294
180	0x3b4f8f28	0.003167102
181	0x3c35d1bf	0.011097371
182	0x3bcab858	0.0061865263
183	0xbb2d0edb	-0.002640656
184	0x3a865eb5	0.0010251614
185	0xbaa94602	-0.0012914541
186	0x3cf2797a	0.02959894
187	0x3c5b503a	0.013385827
188	0xbd11d1b9	-0.035600398
189	0xbb43342e	-0.002978574
190	0xbc3f0ebf	-0.011661231
191	0xbc1c1532	-0.009526538
192	0xbb6e8e70	-0.0036400817
193	0x3bd8dc01	0.0066180234
194	0xbcafeeb0	-0.02147612
195	0x3bad4f34	0.0052889828
196	0x37d4df2c	2.5376292e-05
197	0xbaa94f0b	-0.0012917233
198	0xbc739d96	-0.014869114
199	0xbcba1c29	-0.022718506
200	0x3a7e0ba8	0.0009691068
201	0xbc98203a	-0.018570054
202	0xbba15b56	-0.004924218
203	0x3b9229cc	0.004460549
204	0x3cc4465d	0.023959333
205	0xbcabd54a	-0.020975728
206	0x3d5414e2	0.051777728
207	0x3c6465cf	0.013940289
208	0xbc828b1b	-0.015935471
209	0xbbffa1af	-0.0078012566
210	0xbb1e7808	-0.002418043
211	0xbcb9e776	-0.022693377
212	0xbcb5aaff	-0.022176264
213	0x3b838a63	0.0040142997
214	0x3c7f6ef0	0.015590414
215	0x3c12710a	0.008938083
216	0x3d410182	0.04712058
217	0xbcb9bbfb	-0.022672644
218	0xbc9af2e2	-0.018914644
219	0x3c4a4147	0.012344665
220	0x3ca9b60f	0.020716695
221	0xbba5de87	-0.0050619277
222	0xbadc0665	-0.0016786574
223	0xbc3c1bf8	-0.011481278
224	0xbbf65da7	-0.0075184884
225	0xbc83590a	-0.016033668
226	0x3b60f66d	0.0034326569
227	0x3cb69081	0.022285702
228	0xba1f956c	-0.0006087634
229	0xbd068c1c	-0.032848462
230	0xb8e16987	-0.00010748492
231	0x3bc6e002	0.0060691843
232	0xba8e21ef	-0.0010843853
233	0xbcc86ac7	-0.024464978
234	0xbcac487b	-0.021030655
235	0x3c1c3e64	0.009536359
236	0xbcbfa270	-0.023392886
237	0x3b435692	0.0029806239
238	0x3bbeb78f	0.0058202217
239	0x3c297b4c	0.010344338
240	0x3b075662	0.0020650853
241	0x3c61d793	0.013784307
242	0xbc2fb814	-0.01072504
243	0xbc829470	-0.015939921
244	0xbbff5c01	-0.00779295
245	0xba2249af	-0.0006190789
246	0x3b1e3e31	0.0024145956
247	0x3b6ab195	0.0035811414
248	0x3b7105f1	0.0036777223
249	0xbcacee7d	-0.021109814
250	0x3bb4062b	0.0054938993
251	0xbc84cad4	-0.016209997
252	0x3c0c64bd	0.00856894
253	0xbca3b4aa	-0.019983608
254	0xbc7f048c	-0.015565049
255	0xbd00026a	-0.031252302

motion_mlp.mlps.3.fc0.fc.bias f4 [50]
0	0x3511afb2	5.427238e-07
1	0x3596ef19	1.1245457e-06
2	0xb6292d41	-2.5209304e-06
3	0x35ce2dc9	1.5361521e-06
4	0x34449064	1.8306451e-07
5	0xb6103b1e	-2.1492083e-06
6	0x34f92ed9	4.641395e-07
7	0x35faff44	1.8700744e-06
8	0x35e7c3ba	1.7267805e-06
9	0xb58a4263	-1.0301122e-06
10	0xb63ff513	-2.860387e-06
11	0x35269591	6.2057467e-07
12	0x35bbee5a	1.4001955e-06
13	0xb591d576	-1.0865467e-06
14	0xb65479d7	-3.1661382e-06
15	0xb57317e6	-9.055933e-07
16	0x32ee8746	2.7768362e-08
17	0xb60c00fd	-2.08622e-06
18	0x3598028e	1.1325626e-06
19	0x35062055	4.996594e-07
20	0xb65ea01d	-3.3173776e-06
21	0xb4057fb4	-1.2433048e-07
22	0x33ef917b	1.11557675e-07
23	0x35590346	8.0843563e-07
24	0x35cbae0a	1.5175331e-06
25	0x35bc5344	1.4031325e-06
26	0xb5a599fa	-1.2338271e-06
27	0xb53897f6	-6.8766474e-07
28	0x3557b511	8.035723e-07
29	0xb5630d5c	-8.458353e-07
30	0xb5c5008d	-1.4677804e-06
31	0x35ee44e0	1.7752427e-06
32	0x3526f5fc	6.2197773e-07
33	0xb5543e2c	-7.9066626e-07
34	0x354a44be	7.5350897e-07
35	0x3665c28b	3.4236898e-06
36	0xb4280fe3	-1.5651999e-07
37	0xb460d588	-2.0939308e-07
38	0x33a8c950	7.859728e-08
39	0xb4e96df6	-4.347964e-07
40	0xb4a4cb13	-3.0695136e-07
41	0xb585eac8	-9.977603e-07
42	0x33ecac4b	1.1020946e-07
43	0xb5aaad7f	-1.2716481e-06
44	0xb69b0efd	-4.621105e-06
45	0xb4de3d88	-4.1395492e-07
46	0x3457b333	2.0088628e-07
47	0x3589ec69	1.02761e-06
48	0x3603eba7	1.965769e-06
49	0xb514711f	-5.529891e-07

motion_mlp.mlps.3.norm0.alpha f4 [1, 54, 1]
0	0x3e57c431	0.21070935
1	0x3e8b6c0f	0.2723088
2	0x3e9b2e5b	0.30308804
3	0x3e1e38f5	0.15451415
4	0x3d91d7d8	0.07121247
5	0x3e342025	0.17590387
6	0x3db7d9f8	0.08977121
7	0x3d8d09ea	0.068866566
8	0x3df8e11f	0.121523134
9	0x3e58fba6	0.21189746
10	0x3ea5d004	0.32385266
11	0x3d64c4c4	0.055851713
12	0x3e0b8651	0.13625456
13	0x3e1ab4be	0.1510801
14	0x3dff2cbf	0.124597065
15	0x3e16c049	0.14721788
16	0x3e20dbff	0.15708922
17	0x3dc9426e	0.098271236
18	0x3e296d91	0.16545703
19	0x3dca8bf3	0.098899744
20	0x3e08a638	0.13344657
21	0x3df320d9	0.118714996
22	0x3dbf333a	0.093359426
23	0x3dbba6f1	0.09162701
24	0x3e54d814	0.20785552
25	0x3e8f54e1	0.27994445
26	0x3df049e9	0.11732847
27	0x3deb0f93	0.1147758
28	0x3d708508	0.05872062
29	0x3de40b01	0.11134911
30	0x3dbba4d2	0.09162296
31	0x3ba39c49	0.004992996
32	0x3e32c21f	0.17456864
33	0x3d9411fd	0.072299935
34	0x3e9d9ce9	0.30783775
35	0x3e01620a	0.12635055
36	0x3d870f1c	0.06594679
37	0x3e7e66f4	0.24843961
38	0x3e0fdd01	0.1404915
39	0x3e79e7fd	0.24404903
40	0x3e0d4d09	0.13798918
41	0x3e320baa	0.17387262
42	0x3e119334	0.1421631
43	0x3ddde83e	0.10835312
44	0x3dd6bec5	0.10485605
45	0x3d27d9e6	0.04097929
46	0x3dba673e	0.09101723
47	0x3de9b31c	0.114111155
48	0x3e32c003	0.17456059
49	0x3ebc02e3	0.36720952
50	0x3dc7393c	0.097277135
51	0x3e82c94e	0.25544208
52	0x3de3ebb9	0.11128945
53	0x3dd6e0fa	0.104921296

motion_mlp.mlps.3.norm0.beta f4 [1, 54, 1]
0	0x3c77fb63	0.015135619
1	0x3c38d645	0.011281555
2	0x3d86dabc	0.06584689
3	0xbcc98151	-0.024597796
4	0xbc48d43e	-0.012257634
5	0x3b4a0cfd	0.0030830496
6	0x3bc32383	0.005955161
7	0xb935a5f3	-0.00017323326
8	0xbbc22005	-0.005924227
9	0xbd1a6e1e	-0.037702672
10	0xbbc73aad	-0.0060799927
11	0xbc206f26	-0.009792125
12	0xbd05f610	-0.032705367
13	0xbcfec4ab	-0.031099638
14	0x3bf44f71	0.007455759
15	0x3cb7b3da	0.022424627
16	0xbd2525fd	-0.04031943
17	0xb9167be8	-0.00014351273
18	0x3cff794f	0.031185774
19	0xbc2704e6	-0.010194039
20	0xbc650b99	-0.013979816
21	0x3c1e9b92	0.009680646
22	0xbc50b869	-0.012739279
23	0xb9a1a622	-0.00030832092
24	0xbc31d46c	-0.010853868
25	0xbc74744c	-0.014920305
26	0xbb2f4a65	-0.0026747223
27	0x3c0d760a	0.0086341
28	0x39defa20	0.00042529497
29	0xbcd3c045	-0.025848517
30	0x3b552a56	0.0032526455
31	0x38eac1f9	0.0001119412
32	0x3c1dda70	0.009634599
33	0x3c8c1092	0.017097745
34	0x3d864727	0.0655654
35	0xbc56dccd	-0.013114166
36	0x3c1d62f0	0.009606108
37	0x3d2bcae1	0.041941527
38	0x3c2ef6d0	0.010678962
39	0x3d527b0f	0.05138689
40	0xbb9aa2e4	-0.004719125
41	0xbb524f71	-0.0032090808
42	0x3c6e3eb3	0.014541316
43	0xbb887265	-0.0041640275
44	0xbc03e0ff	-0.008049249
45	0x3a041a37	0.00050393067
46	0xbc37f1c7	-0.011227078
47	0xb9526643	-0.00020065256
48	0xbc70b3af	-0.014691277
49	0xbd53cdb3	-0.051709842
50	0xbbb0e207	-0.0053980383
51	0x3a83b696	0.0010048922
52	0xbb777fe2	-0.0037765433
53	0xbb425f04	-0.0029658685
