src/siMLPe/exps/baseline_amass/log/snapshot/model-iter-60000.pth (torch, 604338 bytes, 196 tensors)

motion_mlp.mlps.0.fc0.fc.weight f4 [50, 50]
0	0xbd2eee35	-0.04270764
1	0xbdb35b1a	-0.087576106
2	0x3d051876	0.03249403
3	0xbd4d8cb1	-0.050183002
4	0x3cba899a	0.022770692
5	0xbc8be139	-0.017075168
6	0x3cc32c11	0.023824723
7	0xbd0731d3	-0.0330065
8	0xba9d0f96	-0.0011982794
9	0xbce4c1fa	-0.027924526
10	0xbb883f75	-0.0041579553
11	0xbcbef8f2	-0.023312066
12	0xbb9fbb21	-0.0048746024
13	0xbcb6f30c	-0.02233269
14	0xbc0fd0d0	-0.008777812
15	0xbc9f97e3	-0.019481605
16	0xbc2ea943	-0.010660472
17	0xbc9e62a1	-0.01933414
18	0xbbc38ab1	-0.005967461
19	0xbcaabdb5	-0.020842412
20	0xbc5d5815	-0.01350977
21	0xbc713ad5	-0.014723499
22	0xbc3ceaaa	-0.011530558
23	0xbcca64af	-0.024706213
24	0xbbe39a3b	-0.006945876
25	0xbca68d20	-0.020330966
26	0xbc4c2e0d	-0.012462151
27	0xbc837f95	-0.016052047
28	0xbc30d53a	-0.010793025
29	0xbc31386a	-0.010816673
30	0xbc69af82	-0.014263036
31	0xbc01ea02	-0.007929327
32	0xbc379b72	-0.011206495
33	0xbbdc05be	-0.0067145517
34	0xbc5dd597	-0.013539693
35	0xbb6869d8	-0.0035463478
36	0xbc53720b	-0.012905608
37	0xbb4c6c73	-0.003119257
38	0xbc4dfa66	-0.012571907
39	0xba63fa66	-0.0008696675
40	0xbc304385	-0.010758285
41	0xba9222fe	-0.0011149345
42	0xbc207563	-0.009793612
43	0xba54e82f	-0.0008121756
44	0xbbbc0670	-0.005738072
45	0xba1354d8	-0.00056202477
46	0xbbb11536	-0.00540414
47	0xba26f8cb	-0.00063694705
48	0xbb968277	-0.0045931893
49	0xbafc81c6	-0.001926475
50	0x3c04094a	0.008058855
51	0xbd57591b	-0.052575212
52	0xba2a211d	-0.00064899196
53	0xbb900ce5	-0.0043960684
54	0xbcddb6d5	-0.02706472
55	0xbc92f2f3	-0.017938113
56	0xbcb929c9	-0.022602933
57	0x3c38b30a	0.011273155
58	0xbc84df73	-0.01621983
59	0xbcd8990c	-0.026440166
60	0xbb069c8d	-0.002054009
61	0xbccf7f0a	-0.025329132
62	0x3aaec3e5	0.0013333528
63	0xbc549213	-0.01297428
64	0xbc445b1d	-0.011984614
65	0xb9890d00	-0.00026140362
66	0xbc9809a4	-0.018559285
67	0xbb833e2e	-0.004005215
68	0xbc14f071	-0.009090529
69	0xbc0bbf27	-0.008529461
70	0xbc36bf2c	-0.011153977
71	0xbc5e1fd1	-0.01355739
72	0xbc253e84	-0.010085706
73	0xbc5a5247	-0.0133252805
74	0xbbfdf652	-0.007750311
75	0xbc7f3461	-0.015576453
76	0xbc284f41	-0.010272802
77	0xbc2cf57e	-0.010556577
78	0xbc1ff88d	-0.009763849
79	0xbc5b0c53	-0.013369638
80	0xbc4159b2	-0.01180117
81	0xbc24f19b	-0.010067369
82	0xbc6dc54a	-0.014512369
83	0xbc24bfc0	-0.010055482
84	0xbc6b6759	-0.014367902
85	0xbc1b65f0	-0.009484753
86	0xbc814489	-0.01577975
87	0xbc1fac36	-0.009745648
88	0xbc75c5ea	-0.0150008
89	0xbc2dc988	-0.010607131
90	0xbc777a2c	-0.015104812
91	0xbc345b85	-0.011008148
92	0xbc669824	-0.014074359
93	0xbc33b55d	-0.010968533
94	0xbc6a0c01	-0.0142850885
95	0xbc41d146	-0.01182968
96	0xbc5dc7a8	-0.013536371
97	0xbc40ded6	-0.011771878
98	0xbc574679	-0.013139361
99	0xbc4f40e4	-0.0126497485
100	0xbb922bf0	-0.004460804
101	0xbd081177	-0.03321978
102	0x3ca34d4c	0.019934319
103	0xbc26137d	-0.010136482
104	0xba762e98	-0.0009391098
105	0xbd090502	-0.03345204
106	0x3c63fa47	0.013914651
107	0x3aee6db7	0.0018190657
108	0x3ca2a589	0.019854324
109	0xbc760bd6	-0.01501747
110	0x3cbfdd4e	0.023420956
111	0xbc843f18	-0.016143367
112	0x3ce71ad7	0.02821104
113	0xbb8109af	-0.003937922
114	0x3d0e54ff	0.034749027
115	0x3bed9c1d	0.007251276
116	0x3cc2b997	0.023770137
117	0x3c894f59	0.016761469
118	0x3d0b2dfc	0.0339794
119	0x3c3e494e	0.011614157
120	0x3d02d8bb	0.03194497
121	0x3c2fcc66	0.010729885
122	0x3cb8c771	0.022556039
123	0x3c6ba613	0.014382857
124	0x3cf12856	0.029438179
125	0x3c18b8ce	0.009321405
126	0x3cba6d26	0.022757124
127	0x3c7641e5	0.015030359
128	0x3cb2c1e9	0.02182098
129	0x3ca4a04a	0.020095963
130	0x3c91473b	0.01773416
131	0x3cb15bf8	0.0216503
132	0x3c9ccd9d	0.019141013
133	0x3cc02339	0.023454295
134	0x3c5f1b22	0.013617309
135	0x3cd30b72	0.025762293
136	0x3c789fc1	0.015174807
137	0x3cd9e4e7	0.026598407
138	0x3c7e2f56	0.015514215
139	0x3ce1223c	0.027482145
140	0x3c7156db	0.014730181
141	0x3cddc30b	0.027070543
142	0x3c77dc68	0.015128233
143	0x3cdf089b	0.027225783
144	0x3c9b7bc1	0.018979909
145	0x3ccef679	0.025264012
146	0x3ca5c5e6	0.020235967
147	0x3cc3d834	0.023906805
148	0x3cb177e2	0.02166361
149	0x3cc710b3	0.024299955
150	0xbc16d2ad	-0.009205502
151	0x3d06a012	0.0328675
152	0xbcb81cee	-0.022474732
153	0x3cd10871	0.02551672
154	0xbd094d1d	-0.033520807
155	0x3cf0887b	0.029361954
156	0xbcc6251b	-0.024187615
157	0x3d572c0b	0.052532237
158	0xbca47a01	-0.020077707
159	0x3d58a5bb	0.052892428
160	0xbc9b4b29	-0.018956738
161	0x3d36919b	0.044572454
162	0xbbb25543	-0.005442293
163	0x3d051071	0.032486383
164	0x3b8e993f	0.0043517645
165	0x3cc09d8f	0.02351263
166	0x3c5c73b8	0.013455324
167	0x3cc6aef7	0.024253352
168	0x3c55132a	0.013005057
169	0x3d1c25af	0.038121875
170	0x3c649be2	0.013953181
171	0x3cf6c4b4	0.030123092
172	0x3c7587c2	0.0149859805
173	0x3cf44396	0.029817384
174	0x3c9b391d	0.018948132
175	0x3cfff29f	0.03124362
176	0x3ca56031	0.02018747
177	0x3cce1c65	0.025160024
178	0x3ca5b5e5	0.020228336
179	0x3cce53d5	0.025186459
180	0x3ca528b7	0.020161016
181	0x3cbe4235	0.02322493
182	0x3cad786a	0.021175582
183	0x3ca96f1e	0.020682868
184	0x3ca869d9	0.020558285
185	0x3ca7385f	0.020412622
186	0x3c93d6b2	0.01804671
187	0x3c9ff532	0.019526098
188	0x3c98d777	0.01865743
189	0x3c90873d	0.017642612
190	0x3c9c5a85	0.019086132
191	0x3c86c586	0.016451608
192	0x3c93ae49	0.018027442
193	0x3c80a467	0.015703393
194	0x3c831f25	0.016006062
195	0x3c7eead1	0.015558914
196	0x3c801c9b	0.01563864
197	0x3c778fa1	0.015109927
198	0x3c7b9b22	0.015356811
199	0x3c707676	0.014676681
200	0x3a6e1ce7	0.0009083286
201	0xbcc4ac9d	-0.02400809
202	0x3ca5da8e	0.020245817
203	0x3c3cf7df	0.011533706
204	0xbd87048c	-0.06592664
205	0xbc84e07a	-0.01622032
206	0xbc2449e2	-0.010027381
207	0xbcf7861d	-0.030215317
208	0xbc2265bb	-0.00991195
209	0xbcc44dc8	-0.02396287
210	0xbc359469	-0.011082747
211	0xbc9f8891	-0.0194743
212	0xbceac55e	-0.028658565
213	0xbcd23591	-0.025660308
214	0xbcd3a9c1	-0.02583778
215	0xbc89c85d	-0.016819173
216	0xbc9c2cc1	-0.01906431
217	0xbc3d880a	-0.011568079
218	0xbc4d1940	-0.012518227
219	0xbb3fb880	-0.0029254258
220	0xbc8b6cad	-0.017019594
221	0x3bb1470d	0.0054100812
222	0xbbec8620	-0.0072181374
223	0x3c13bf43	0.009017768
224	0xbc5abf80	-0.013351321
225	0x3c80caa2	0.015721623
226	0xbb5942c5	-0.003315137
227	0x3c468890	0.01211752
228	0xb934ad81	-0.00017230773
229	0x3c561e76	0.013068786
230	0x3b77d967	0.003781879
231	0x3c20f530	0.009824082
232	0x3bcde5e3	0.006283508
233	0x3c399168	0.011326171
234	0x3c1c9a64	0.009558294
235	0x3c1897fa	0.009313578
236	0x3c46f516	0.012143394
237	0x3c129c8c	0.0089484565
238	0x3c51cb6e	0.012804849
239	0x3c3c5581	0.011494995
240	0x3c5188a1	0.0127889225
241	0x3c44bdeb	0.012008171
242	0x3c6b99db	0.014379944
243	0x3c5b010b	0.013366948
244	0x3c604587	0.013688452
245	0x3c48e52e	0.012261672
246	0x3c77ef87	0.015132791
247	0x3c63faaf	0.013914748
248	0x3c758c4f	0.014987065
249	0x3c756961	0.014978738
250	0x3b296fa3	0.0025853894
251	0xbbe55d6b	-0.0069996617
252	0x3c4d6cc1	0.012538136
253	0x3ba871db	0.0051405258
254	0xbb72940a	-0.0037014508
255	0xbd257864	-0.040398017

motion_mlp.mlps.0.fc0.fc.bias f4 [50]
0	0xb7bbe578	-2.2398992e-05
1	0xb7819f75	-1.5452251e-05
2	0x37b6582b	2.1737147e-05
3	0xb8157791	-3.5635723e-05
4	0x37b2fd59	2.1337228e-05
5	0xb6e19362	-6.72268e-06
6	0xb75dffb8	-1.3232166e-05
7	0x36c71853	5.933494e-06
8	0xb891dca8	-6.955239e-05
9	0x377dfe9c	1.5139256e-05
10	0x34d50ae1	3.9682257e-07
11	0x36eab15f	6.994392e-06
12	0xb70596be	-7.962515e-06
13	0x382e3fad	4.1544135e-05
14	0xb8e9c915	-0.0001114776
15	0x37c6eba9	2.3713177e-05
16	0x36e5ecb8	6.8522895e-06
17	0xb834008f	-4.2915864e-05
18	0x3852818c	5.018855e-05
19	0x368f5831	4.271999e-06
20	0xba165514	-0.00057347235
21	0x3299a7a5	1.788778e-08
22	0xb7adaa81	-2.0702604e-05
23	0x372b5e64	1.0214371e-05
24	0x36a20eb8	4.8296897e-06
25	0x3801f0bf	3.098021e-05
26	0x3864ebb4	5.457895e-05
27	0x37e80445	2.7658543e-05
28	0xb76c94a5	-1.4101305e-05
29	0xb739c71c	-1.1073218e-05
30	0x381c5ce3	3.7279806e-05
31	0x359c04d3	1.162431e-06
32	0xb812676c	-3.490543e-05
33	0x37b9e68f	2.216108e-05
34	0xb72f6256	-1.04537085e-05
35	0xb90c7d5c	-0.0001339814
36	0xb924b1c8	-0.00015706487
37	0x3790b6fa	1.7251343e-05
38	0xb7107830	-8.611052e-06
39	0xb6065715	-2.0018244e-06
40	0xb612a7e9	-2.1853432e-06
41	0x37f854a3	2.9603316e-05
42	0xb78faccb	-1.7127391e-05
43	0x37977517	1.8055127e-05
44	0x3823ff83	3.9100192e-05
45	0x377c8bcb	1.5052919e-05
46	0xb6f7b15e	-7.381822e-06
47	0xb7df8940	-2.6647584e-05
48	0xb832cc73	-4.2628915e-05
49	0x372c8604	1.0283202e-05

motion_mlp.mlps.0.norm0.alpha f4 [1, 54, 1]
0	0x3dfcbb58	0.123404205
1	0x3dfc17b0	0.123092055
2	0x3e00b65a	0.12569562
3	0x3df54074	0.11975184
4	0x3e282879	0.16421689
5	0x3dc3b7bf	0.09556531
6	0x3e22116c	0.15826958
7	0x3dfca33f	0.12335824
8	0x3e2b65e1	0.16738082
9	0x3e4007c9	0.1875297
10	0x3e02aee8	0.12762034
11	0x3e369c02	0.1783295
12	0x3e3060a5	0.17224367
13	0x3e139ca2	0.1441522
14	0x3e04bf2e	0.12963554
15	0x3e1f1572	0.15535524
16	0x3e045e4b	0.12926595
17	0x3e0d88da	0.13821736
18	0x3e26e46d	0.16298075
19	0x3e537775	0.20651038
20	0x3e243943	0.16037469
21	0x3e2f18e2	0.17099336
22	0x3e3ac1ca	0.18237987
23	0x3e31c665	0.17360838
24	0x3e03586d	0.128267
25	0x3e0802a9	0.13282265
26	0x3e58a7e0	0.21157789
27	0x3e2665f7	0.16249834
28	0x3e4200ad	0.1894557
29	0x3e249ff5	0.16076644
30	0x3e303107	0.17206202
31	0xba60e393	-0.0008578833
32	0x3e11a8cd	0.14224549
33	0x3de9cd13	0.11416068
34	0x3e082210	0.13294244
35	0x3e0dcd55	0.13847859
36	0x3dfd1aed	0.12358651
37	0x3e60d12f	0.21954797
38	0x3e07ad20	0.13249636
39	0x3de77a26	0.11302595
40	0x3e16dbc1	0.14732267
41	0x3e045870	0.12924361
42	0x3e2773de	0.16352794
43	0x3e094cae	0.13408157
44	0x3e349790	0.17635942
45	0x3e1604e6	0.14650306
46	0x3e549fa8	0.20764029
47	0x3dec2704	0.11530879
48	0x3de72f22	0.11288287
49	0x3e0d013f	0.13770007
50	0x3e4535d3	0.19258814
51	0x3def3149	0.11679322
52	0x3e60046d	0.21876688
53	0x3e31408a	0.17309776

motion_mlp.mlps.0.norm0.beta f4 [1, 54, 1]
0	0xba5e66fa	-0.00084839726
1	0x39f8626b	0.00047375573
2	0x3c13ede2	0.009028884
3	0xb908c019	-0.00013041533
4	0x3a5c3655	0.000840043
5	0x3a8704ac	0.0010301075
6	0x3a067630	0.00051293056
7	0x39bfe64c	0.00036601943
8	0xba9e385a	-0.0012071237
9	0x3a947be3	0.0011328425
10	0x3beb6530	0.0071836933
11	0x3a47ba14	0.00076189754
12	0x399fd2f2	0.0003048401
13	0xb9e34af1	-0.0004335265
14	0xb8aec889	-8.334319e-05
15	0x38889cc1	6.514183e-05
16	0x3ae3a2d6	0.0017367254
17	0xbab13191	-0.00135188
18	0x3b10feb7	0.0022124478
19	0x3ac399ef	0.0014923195
20	0x3a151e11	0.0005688379
21	0x3934c6cb	0.00017240194
22	0xb911733f	-0.0001387121
23	0x3a8c0ae1	0.0010684395
24	0xbb253b10	-0.0025212206
25	0xbaaf3548	-0.001336732
26	0x390db4fa	0.00013514227
27	0x3a9d44df	0.0011998675
28	0xba6ab3a4	-0.000895316
29	0x3a4eb89a	0.0007885784
30	0xb88542c9	-6.354374e-05
31	0x3da4540c	0.08023843
32	0x3b38ec91	0.0028217176
33	0xba1b8b7e	-0.0005933567
34	0xbafda8e1	-0.0019352698
35	0x3a4f23e4	0.00079017715
36	0x3a1fb697	0.00060925767
37	0xbba08f04	-0.0048998613
38	0xb9f4e6c2	-0.00046711235
39	0x3ad36a1d	0.0016129647
40	0x39b0f9df	0.00033755504
41	0xb9f67406	-0.0004700722
42	0xb911f02d	-0.0001391775
43	0xba261fdb	-0.00063371443
44	0x39893a2a	0.00026174012
45	0x3b1e0271	0.0024110342
46	0x3a8c0971	0.0010683966
47	0xbb964d07	-0.004586819
48	0xb99ed7c0	-0.00030296855
49	0xbb9ca24f	-0.004780091
50	0x3b009e1c	0.001962549
51	0xba0e407c	-0.0005426479
52	0x3a054757	0.0005084178
53	0xb924968e	-0.00015696345

motion_mlp.mlps.1.fc0.fc.weight f4 [50, 50]
0	0xbd452c9c	-0.048138246
1	0xbcdda2e2	-0.027055208
2	0x3d455808	0.048179656
3	0xbcfac4ad	-0.03061136
4	0x3c1f2296	0.009712836
5	0xbbff3f54	-0.0077895317
6	0x3bc67e4b	0.0060575358
7	0x396cd190	0.00022584782
8	0x3b9bbcd8	0.0047527365
9	0xbcdfdb64	-0.027326293
10	0x3be7f385	0.0070785903
11	0x3c9fe455	0.019518057
12	0x3c90e6e5	0.017688224
13	0x3bd2aa97	0.0064290273
14	0xbc500421	-0.012696297
15	0xbc1eb107	-0.009685761
16	0xbc242b6c	-0.010020118
17	0xbcad3298	-0.021142289
18	0xbcd32aa6	-0.025777172
19	0xbc78a776	-0.015176645
20	0xbd81b1ea	-0.063327625
21	0xbd5908f0	-0.05298704
22	0xbd163bf3	-0.036678266
23	0x3be78f36	0.0070666326
24	0xbaccec25	-0.0015634341
25	0xbb846ccf	-0.0040412913
26	0x3c9fe05a	0.019516159
27	0x3997242a	0.0002882791
28	0xbbe02a04	-0.006840946
29	0x3c3e5608	0.011617191
30	0xbc7dcccc	-0.015490722
31	0xbc865796	-0.016399186
32	0xbcb56284	-0.022141702
33	0xbcd658b8	-0.026165351
34	0xbc972ddb	-0.018454483
35	0xbcdc510a	-0.026894111
36	0xbcb147be	-0.021640655
37	0x3c985c12	0.01859859
38	0xbcea1f22	-0.028579298
39	0xbb182e5f	-0.0023220999
40	0xba17f381	-0.0005796478
41	0x3b0dd51d	0.0021641918
42	0xbbcf7ea4	-0.0063322354
43	0xbca9fb00	-0.020749569
44	0x3c931079	0.01795219
45	0xbd14f226	-0.036363743
46	0xbcaabf39	-0.020843135
47	0xbd12737d	-0.03575467
48	0x3cc7da08	0.024395958
49	0xbb8e2d1e	-0.0043388745
50	0xbc060efc	-0.0081822835
51	0xbcbba270	-0.022904605
52	0x3d9af4af	0.07566201
53	0xbd0e6d9d	-0.034772504
54	0xbc9fd1fd	-0.01950931
55	0x3c22f5bd	0.009946284
56	0xbd7535e4	-0.059865847
57	0x3b722134	0.003694606
58	0x3b8da832	0.004323029
59	0xbcbe2afa	-0.023213852
60	0xbb49097d	-0.0030675821
61	0x3cd7b8c0	0.026333213
62	0xbb83dcc9	-0.0040241224
63	0x3c828560	0.015932739
64	0x3cd7ff0f	0.026366739
65	0xbc8ddb39	-0.017316448
66	0x3bbd1956	0.0057708425
67	0x3c8fd169	0.01755591
68	0x3b7abd59	0.0038259833
69	0xbc3b3775	-0.011426796
70	0x3d773641	0.060354475
71	0x3af6c4ec	0.0018826998
72	0x3d2da08a	0.04238943
73	0xbcf12dfe	-0.029440876
74	0xbb3f51cc	-0.0029193042
75	0x3bff009e	0.007782056
76	0x3d640240	0.05566621
77	0x3cc4784d	0.023983145
78	0x3b898e03	0.0041978373
79	0xbb57cc5f	-0.003292821
80	0xbca74287	-0.020417465
81	0xbc857529	-0.016291218
82	0xbb323382	-0.0027191346
83	0x3cab5583	0.020914799
84	0xbcbf1693	-0.023326194
85	0x3c9e2494	0.019304551
86	0x3c8db825	0.017299721
87	0xbc30c9ea	-0.010790328
88	0xbba3a95d	-0.004994555
89	0x3c37f038	0.011226706
90	0x3cb9d3ef	0.022684066
91	0xbc845c6b	-0.01615735
92	0x3be6dd66	0.0070454357
93	0xbc4fd3c6	-0.012684768
94	0x3dac9d75	0.0842847
95	0x3cdd4270	0.027009219
96	0x3a2451ce	0.00062682934
97	0xbc61674b	-0.013757537
98	0x3d24bc9c	0.040218934
99	0xbc8fb96b	-0.017544469
100	0xbadae98a	-0.001670168
101	0xbc06cef5	-0.008228053
102	0xbc5fe50d	-0.01366545
103	0xbc82248a	-0.015886564
104	0x3c0d94fb	0.008641477
105	0xbb225704	-0.0024771104
106	0xbcac3735	-0.021022419
107	0x3b2a0ea1	0.002594866
108	0xbcaadcd1	-0.020857247
109	0x3cb609bf	0.022221444
110	0x3c08327c	0.008312818
111	0xbc8364bb	-0.016039243
112	0xbc563d4a	-0.013076136
113	0x3c224710	0.009904638
114	0x3c2a8389	0.010407337
115	0xbc7d19ed	-0.015448076
116	0xbbad8eb7	-0.005296554
117	0x3be4b67b	0.006979761
118	0xbba8df2d	-0.0051535578
119	0xbbff5079	-0.0077915755
120	0xbd371acf	-0.0447033
121	0x3cd23eb3	0.025664663
122	0xbe768335	-0.24073489
123	0x3c624196	0.013809582
124	0xbc80b190	-0.015709668
125	0x3c880328	0.016603068
126	0xbce495cd	-0.027903462
127	0xbc11c7cf	-0.008897736
128	0xbc8ff993	-0.017575061
129	0x3b6c0d2d	0.0036018596
130	0xbd004e08	-0.031324416
131	0x3bc81ba6	0.0061068116
132	0x3c572bf3	0.013133037
133	0x3c389be4	0.011267636
134	0x3b489449	0.0030605963
135	0xbd9f624a	-0.07782419
136	0x3d266cac	0.04063098
137	0x3c0612b9	0.008183175
138	0x3a30bbdd	0.0006741861
139	0xbb05ff94	-0.0020446526
140	0xbccfdd1f	-0.025373993
141	0xbcdac8e9	-0.02670713
142	0x3c9ccf58	0.019141838
143	0x3c1e494f	0.009661033
144	0xbc0997d1	-0.008398012
145	0x3c2bd308	0.0104873255
146	0x3aa2ed27	0.0012430296
147	0x3bc1d905	0.0059157633
148	0x3b2e2386	0.0026571467
149	0x3b8cb72c	0.0042942967
150	0xbc3d7702	-0.011564018
151	0x3c98f881	0.018673183
152	0x3d2b059e	0.041753404
153	0x3cd279b7	0.025692804
154	0x3d045df1	0.032316152
155	0x3d0c3f7f	0.034240242
156	0xbd66ed7c	-0.056378826
157	0xbc0adbf7	-0.008475295
158	0x3c9455bc	0.018107288
159	0x3c5a19a5	0.013311778
160	0xbb6411e9	-0.0034800714
161	0x3c0611d9	0.008182966
162	0x3c29b54b	0.010358165
163	0xbbccf45c	-0.006254716
164	0x3d50e32e	0.050997905
165	0xbcce1c93	-0.02516011
166	0xbc57d784	-0.0131739415
167	0x3ca9954a	0.02070107
168	0x3b43bdc4	0.0029867748
169	0x38b7dade	8.766887e-05
170	0xbcd3c1bb	-0.025849214
171	0x3ca58267	0.020203782
172	0xbcfbf914	-0.030758418
173	0xbc9f2c0e	-0.019430187
174	0x3998c044	0.00029134948
175	0x3b9d279e	0.0047959825
176	0xbbd71757	-0.0065640616
177	0x3a913ecf	0.001108134
178	0xbc5ee359	-0.013604009
179	0xbc944672	-0.018099997
180	0x3d01d277	0.031694856
181	0x3ca9334d	0.020654345
182	0x3cefb7b5	0.029262403
183	0x3d20778a	0.0391765
184	0xbc8b96d3	-0.017039692
185	0xbcc8182e	-0.024425592
186	0x3d3752a0	0.04475653
187	0xbc4b7a3b	-0.012419279
188	0xbbe54815	-0.0069971182
189	0xbcb131ae	-0.021630134
190	0x3c72cfd7	0.014820061
191	0x3c1e8213	0.009674567
192	0xbb78d1ab	-0.0037966769
193	0x3c324d73	0.010882723
194	0xbd0cfe59	-0.034422252
195	0x3c9c4bf4	0.019079186
196	0x3d1ce638	0.03830549
197	0x3d29c557	0.041447964
198	0xbb2b562d	-0.0026143894
199	0xbb66c525	-0.0035212722
200	0xbcb9fba0	-0.022702992
201	0xbb8a6943	-0.004223974
202	0xbcd031c6	-0.025414359
203	0xbd23af0c	-0.03996186
204	0xbd65e88d	-0.05612998
205	0xbbe65a13	-0.0070297807
206	0x3d8ccdc1	0.06875182
207	0x3c5fc9f5	0.01365899
208	0xbd79ae97	-0.060957517
209	0x376989c5	1.3919959e-05
210	0x3c3e05a9	0.011598029
211	0x3b309647	0.002694504
212	0xbbe84e17	-0.007089387
213	0x3cbc7aa9	0.023007708
214	0x3c96ebf4	0.018423058
215	0x3cd8da42	0.026471261
216	0xbc277679	-0.010221117
217	0xbb6e11c7	-0.0036326514
218	0x3b73028a	0.003708037
219	0xbcb91ba9	-0.022596197
220	0xbc2b5e56	-0.010459503
221	0x3a343688	0.0006874581
222	0xbc516cb9	-0.012782269
223	0xbca36c2f	-0.019949047
224	0x3d194120	0.037415624
225	0x3d3663ee	0.044528894
226	0xbd0c0406	-0.034183525
227	0xbd16a8b7	-0.036781993
228	0x3ce66f37	0.028129203
229	0x3d46c68f	0.048529204
230	0xbce374ee	-0.027765717
231	0xbb463af1	-0.0030247534
232	0xbcb2c08b	-0.021820327
233	0xbb73e2e3	-0.0037214092
234	0xbce21bf6	-0.027601223
235	0xbcf907d3	-0.030399239
236	0xbc387fc7	-0.011260933
237	0x3c4d808d	0.012542856
238	0xbb572f90	-0.0032834746
239	0x3d24d12d	0.040238548
240	0x3d10f2b4	0.03538771
241	0x3d830aaf	0.06398522
242	0xbc38077b	-0.011232252
243	0xbba39623	-0.004992263
244	0x3cbcd023	0.023048466
245	0x3c39a69f	0.0113312295
246	0xbca70236	-0.020386796
247	0xbd2bbf80	-0.041930676
248	0xba7fec93	-0.00097627303
249	0x3b277f9c	0.002555824
250	0x3d02ba6f	0.03191608
251	0x3c3ba8bf	0.011453806
252	0xbcb3ab38	-0.02193223
253	0x3cc01b88	0.023450628
254	0x3c84e472	0.016222212
255	0xbd6ccd60	-0.05781305

motion_mlp.mlps.1.fc0.fc.bias f4 [50]
0	0xb68b6e77	-4.1553826e-06
1	0x3685b61a	3.9849083e-06
2	0xb78a2081	-1.6466018e-05
3	0x33a1ff57	7.543593e-08
4	0xb7127204	-8.7288245e-06
5	0x36ddb88e	6.6077982e-06
6	0x36ba13cf	5.545538e-06
7	0xb6d3e115	-6.314493e-06
8	0x36500119	3.0995054e-06
9	0xb6a60aaa	-4.948427e-06
10	0x35d7cbad	1.6078026e-06
11	0xb573c0a0	-9.080486e-07
12	0xb6454801	-2.93972e-06
13	0x36e03c0e	6.6827115e-06
14	0xb68e4e63	-4.241055e-06
15	0xb68a63fe	-4.124361e-06
16	0xb713a521	-8.80033e-06
17	0xb70299f2	-7.784447e-06
18	0x36d4c7a1	6.341332e-06
19	0xb5fb5948	-1.8726942e-06
20	0xb78adc8d	-1.6553584e-05
21	0xb7300f54	-1.0493986e-05
22	0xb6be5116	-5.671881e-06
23	0x36863ce5	4.0006003e-06
24	0x370f1acf	8.529706e-06
25	0xb6633670	-3.3857323e-06
26	0x3706d1ae	8.035842e-06
27	0xb71d8bbd	-9.390465e-06
28	0x33cd9abf	9.5742045e-08
29	0x368907cb	4.0838254e-06
30	0x35af205c	1.3047934e-06
31	0xb53f9ff2	-7.1385796e-07
32	0x3553204d	7.865063e-07
33	0x36f3ec7b	7.2694943e-06
34	0x36ba5ac0	5.5537967e-06
35	0x35ec0c9a	1.7587038e-06
36	0x35327957	6.648674e-07
37	0xb7902f2b	-1.7188102e-05
38	0xb6dddb99	-6.611878e-06
39	0xb8785519	-5.920706e-05
40	0x3525657e	6.161498e-07
41	0xb651cc78	-3.1262443e-06
42	0xb720be49	-9.581047e-06
43	0x35d2702b	1.5678864e-06
44	0xb72b8f68	-1.0225784e-05
45	0x3684e52b	3.960585e-06
46	0x372bde0b	1.0244093e-05
47	0xb643becd	-2.9168325e-06
48	0xb735a666	-1.0827183e-05
49	0xb6876682	-4.035247e-06

motion_mlp.mlps.1.norm0.alpha f4 [1, 54, 1]
0	0x3dacf204	0.08444598
1	0x3d9ab8eb	0.075548016
2	0x3e46661c	0.19374889
3	0x3db4379e	0.08799671
4	0x3d978928	0.07399207
5	0x3db6d7c0	0.0892787
6	0x3d822dda	0.06356402
7	0x3d9f2839	0.07771344
8	0x3d7d9bdd	0.06191622
9	0x3df51e26	0.11968641
10	0x3e1b7025	0.15179498
11	0x3d775950	0.06038791
12	0x3da6800a	0.0812989
13	0x3dac07af	0.08399903
14	0x3d80c82d	0.062881805
15	0x3dbf15b6	0.09330313
16	0x3da9bc42	0.082878605
17	0x3d9e50b2	0.07730235
18	0x3db473b7	0.08811133
19	0x3e515de2	0.2044597
20	0x3d98bd99	0.07458038
21	0x3da0e10c	0.07855424
22	0x3dc4f4fa	0.09617038
23	0x3d9bf431	0.07614935
24	0x3dd885d4	0.10572401
25	0x3dc9406c	0.098267406
26	0x3d958bc9	0.073020525
27	0x3d890cb4	0.06691876
28	0x3d890ca6	0.066918656
29	0x3da2b4f9	0.07944674
30	0x3daa13c9	0.08304555
31	0x3c8998b4	0.016796447
32	0x3d42d75b	0.04756866
33	0x3d78194c	0.060571
34	0x3de0703c	0.10958907
35	0x3d92811b	0.07153531
36	0x3d8606a5	0.06544236
37	0x3dd9cafc	0.10634419
38	0x3d942711	0.07234014
39	0x3dd3b2ef	0.10336863
40	0x3dae2e0f	0.08504879
41	0x3db01a15	0.08598725
42	0x3db75bec	0.089530796
43	0x3d9ca332	0.076483145
44	0x3dbbf177	0.09176915
45	0x3dc4c0a0	0.09607053
46	0x3e5d2b83	0.2159863
47	0x3d9e1ed9	0.077207275
48	0x3dc024fc	0.09382054
49	0x3e0e26b8	0.13881958
50	0x3d95c2e7	0.07312565
51	0x3db35de7	0.08758145
52	0x3dae1867	0.08500748
53	0x3df32021	0.118713625

motion_mlp.mlps.1.norm0.beta f4 [1, 54, 1]
0	0xbc17a751	-0.0092562
1	0x3ca23a99	0.019803332
2	0xba660879	-0.0008775066
3	0xbbad0830	-0.005280517
4	0xb9a926a7	-0.0003226299
5	0xb97709d7	-0.00023559421
6	0xbbbeb8fd	-0.005820392
7	0xbb6d391d	-0.0036197372
8	0x3b88cf7c	0.0041751247
9	0xbd11765a	-0.03551326
10	0x3cfdac6d	0.030966008
11	0xbb502d77	-0.003176538
12	0xba190342	-0.0005836972
13	0xbb86f431	-0.0041184654
14	0x3b9f7660	0.0048664063
15	0x3cea3f37	0.028594596
16	0x3c72ba64	0.014814947
17	0x3bb3435a	0.0054706754
18	0xbca80ac8	-0.020512953
19	0x3bcdcd39	0.006280568
20	0xba2e5dab	-0.0006651531
21	0x3a88d8c7	0.0010440581
22	0xbb09e019	-0.0021038114
23	0xbb188a4f	-0.0023275798
24	0x3c284b81	0.010271908
25	0x3c21a94e	0.009867026
26	0x3a6c7bb0	0.00090211164
27	0x3b43337f	0.0029785333
28	0x3afcf014	0.0019297623
29	0x3b125823	0.0022330366
30	0x3b77a228	0.0037785862
31	0x3b264a1b	0.002537376
32	0xbcaf2620	-0.021380484
33	0xba9fd40e	-0.0012193935
34	0xbcd464c6	-0.025926959
35	0x3b23a5c3	0.0024970628
36	0x3b725170	0.003697481
37	0x3d55f759	0.052237842
38	0x3926372d	0.00015851548
39	0x3cde27c3	0.02711857
40	0xb9d52876	-0.00040656672
41	0xbc194ca8	-0.009356655
42	0x3b3398fc	0.0027404418
43	0x3a53a5fb	0.0008073744
44	0xbb851fdb	-0.0040626354
45	0x3b5b5d96	0.003347253
46	0xbb981afa	-0.0046418877
47	0xbcc28e73	-0.023749566
48	0xbbd681b3	-0.006546223
49	0x3c9fbb64	0.019498535
50	0x3b34cfa0	0.0027589574
51	0xbc08fdac	-0.008361261
52	0xb7ad31a8	-2.064633e-05
53	0xbc18c6f9	-0.0093247825

motion_mlp.mlps.2.fc0.fc.weight f4 [50, 50]
0	0xbccb085a	-0.024784256
1	0xbc483b4e	-0.012221171
2	0x3bea7863	0.0071554645
3	0xbd012910	-0.0315333
4	0x3ac22848	0.001481303
5	0x3bb3661e	0.00547482
6	0xbcfd4db0	-0.030920833
7	0xbc8b07f3	-0.016971564
8	0x3ca11d31	0.01966724
9	0xbc87287e	-0.0164988
10	0xbc0ed7c7	-0.0087184375
11	0x3b82a270	0.003986649
12	0xbc843227	-0.016137196
13	0x3b67b2b3	0.0035354316
14	0xbb308e2e	-0.0026940214
15	0xbd91d15d	-0.07120011
16	0xbb703a59	-0.0036655872
17	0xbd083286	-0.033251308
18	0xbbe87c75	-0.0070949146
19	0x3d5cf7ae	0.053947143
20	0xbcfce937	-0.030872924
21	0xbc790971	-0.015200005
22	0xbca63954	-0.020291008
23	0xbcbb9d1c	-0.022902064
24	0x3d17d985	0.037072677
25	0xbba125f0	-0.0049178526
26	0xbcafb9e2	-0.02145094
27	0x3cdba9fe	0.026814457
28	0xbcc309a5	-0.02380831
29	0xbc2721b1	-0.010200904
30	0x3be0a3b1	0.006855451
31	0xbccee1b4	-0.025254108
32	0xbc933d65	-0.017973611
33	0xbc354cf8	-0.011065714
34	0xbcee5066	-0.029091071
35	0xbc862119	-0.016373204
36	0xbd49d1a7	-0.049272206
37	0xbc92e2a2	-0.017930333
38	0xbc8f06e6	-0.017459344
39	0xbc8a6788	-0.01689507
40	0x3c3d5045	0.011554782
41	0xbbdf9359	-0.006822985
42	0x3c914b8b	0.017736217
43	0xbc6a75ff	-0.014310359
44	0xbaa97c55	-0.0012930731
45	0xba83d5b5	-0.0010058196
46	0x3cff18f2	0.031139825
47	0xbcc71906	-0.024303924
48	0x3ce3f8bd	0.027828569
49	0xbc384e8e	-0.011249198
50	0xbb611c93	-0.0034349307
51	0xbb658344	-0.0035020867
52	0x3b098820	0.0020985678
53	0xbcc639cb	-0.02419748
54	0xbc92da72	-0.017926428
55	0xbc24d1b8	-0.0100597665
56	0xbcc5f830	-0.024166197
57	0xbd165c33	-0.03670902
58	0x3a41a982	0.00073876244
59	0xbcaa4a18	-0.020787284
60	0xbc513af3	-0.012770402
61	0xba771980	-0.0009426102
62	0xbd59024e	-0.052980714
63	0x3cab0097	0.020874305
64	0xbcfb07fe	-0.03064346
65	0xbce44447	-0.027864588
66	0xbc878484	-0.01654268
67	0xbb9c8ffd	-0.004777907
68	0x3b5d7633	0.0033792376
69	0x3cdbefd3	0.026847756
70	0xbc92102d	-0.017829979
71	0xbb37f73a	-0.0028070942
72	0xbcdb8820	-0.026798308
73	0x3c9c5339	0.019082652
74	0xbca78ae1	-0.020451965
75	0xbc318445	-0.010834758
76	0xbd046245	-0.03232028
77	0xbbb4e3dc	-0.005520327
78	0xbd130cb0	-0.03590077
79	0xbcb12b28	-0.021627024
80	0x3ae89caf	0.0017746891
81	0x3c07e240	0.008293688
82	0xbcc41236	-0.023934465
83	0x3c4bbc5f	0.012435048
84	0xbc1cf1f5	-0.009579171
85	0xbc313f7a	-0.010818357
86	0xbcd88fa5	-0.026435683
87	0x3c60e4c1	0.013726414
88	0xbc92984a	-0.017894883
89	0xbc506fed	-0.012721998
90	0xbc6b1de8	-0.014350392
91	0x3c82c2d2	0.015962038
92	0xbc757684	-0.01498187
93	0xbb376176	-0.0027981675
94	0x3bdd6c44	0.006757291
95	0x3b30523f	0.0026904491
96	0xbc928a2a	-0.017888147
97	0xbc49f216	-0.012325784
98	0x3cb79372	0.022409175
99	0xbc503afd	-0.012709376
100	0xb9f7290f	-0.00047142102
101	0xbc315300	-0.010823011
102	0x3bfc1e62	0.0076940516
103	0xbbef66c5	-0.0073059523
104	0xbc6817bc	-0.014165815
105	0x3d3994d7	0.04530796
106	0xbd47e85c	-0.04880558
107	0x3b3490dd	0.0027552166
108	0xba95741f	-0.0011402405
109	0x3c69ee2b	0.014277975
110	0xbce8b710	-0.028407604
111	0x3b840e6e	0.0040300405
112	0x3c1e68f2	0.009668576
113	0x3c2c21c8	0.010506101
114	0xbb90277b	-0.0043992377
115	0xbd175342	-0.036944635
116	0xbc3a9a07	-0.011389262
117	0xbb8572e4	-0.004072534
118	0x3c1291e1	0.008945913
119	0x3c7a43fe	0.015275
120	0xbdcb625c	-0.0993087
121	0xbc5faf33	-0.013652611
122	0xbcfce8ff	-0.03087282
123	0xbb945143	-0.0045262887
124	0xbc0536b4	-0.008130718
125	0xbc4210d3	-0.0118448315
126	0xbb0f3c01	-0.0021855833
127	0x3c61d403	0.013783458
128	0xbbea69e5	-0.007153737
129	0x3c085646	0.00832135
130	0xbbc9674b	-0.0061463467
131	0xbc02fe0a	-0.007995138
132	0x3c414195	0.011795421
133	0x3b925646	0.004465851
134	0x3d22c6c0	0.039740324
135	0xbd4e0c94	-0.050304964
136	0xbc9088db	-0.017643383
137	0x3c20920f	0.009800448
138	0xbd3c0501	-0.04590321
139	0x3e04d48e	0.12971708
140	0xbc6c3b4b	-0.014418433
141	0x3c648e72	0.013949977
142	0x3c41b6c1	0.011823357
143	0x3ce71ca4	0.0282119
144	0x3a8c6b06	0.0010713048
145	0x3cdd1b76	0.026990633
146	0x3c44f200	0.012020588
147	0x3bf36acc	0.0074285027
148	0x3becb685	0.0072239065
149	0x3d033a20	0.032037854
150	0x3cb501f6	0.022095662
151	0x3d08a72e	0.03336256
152	0x3ca67081	0.020317318
153	0xbd6d3364	-0.057910338
154	0xbcf7546d	-0.030191625
155	0xbc5c56e2	-0.013448449
156	0x3cb6c733	0.022311782
157	0xbc00ac1e	-0.007853536
158	0x3c76c684	0.015061978
159	0x3a266fc5	0.00063490524
160	0x3cc32eb1	0.023825975
161	0xbb8cbf1a	-0.004295242
162	0xbcbaf4b5	-0.022821764
163	0xbc0b9ddd	-0.008521524
164	0x3c62812c	0.013824742
165	0x3c0503bf	0.008118569
166	0x3c4c37c9	0.012464472
167	0xbba07cd2	-0.0048976922
168	0x3c614dd2	0.013751464
169	0x3c825dc8	0.015913859
170	0x3b69fbde	0.0035703103
171	0xbbdcd9fa	-0.006739852
172	0xbc88d049	-0.01670088
173	0x3d80089b	0.06251641
174	0xbc995db0	-0.018721431
175	0x3c819cd8	0.01582186
176	0x3d0e6289	0.03476194
177	0x3b49f195	0.003081416
178	0x3bc30ce4	0.0059524644
179	0x3cbe09da	0.023198057
180	0x3d215e98	0.039396852
181	0xbb776724	-0.0037750686
182	0x3ca28380	0.019838095
183	0xbac1ea21	-0.0014794507
184	0x3c2f1316	0.010685703
185	0x3b92ffe7	0.0044860723
186	0x3cabf526	0.02099092
187	0x3b4d8410	0.0031359233
188	0x3cf273a4	0.029596157
189	0x3c8bb332	0.01705322
190	0xbca8fd89	-0.020628707
191	0xbbdb2ceb	-0.0066887042
192	0xbbf7cf09	-0.0075625223
193	0x3c164434	0.009171534
194	0xbc3d2232	-0.011543797
195	0xbd0d2dc6	-0.03446748
196	0x3cf7451d	0.030184323
197	0x3b9a0f95	0.0047015646
198	0x3a42337e	0.00074081856
199	0x3bf5ce49	0.0075013977
200	0x3c871788	0.016490713
201	0x3cb02df9	0.021506296
202	0xbab7e1b7	-0.001402906
203	0x3c8b6362	0.017015163
204	0xbd17b2ab	-0.037035625
205	0xbd1816c5	-0.03713109
206	0xbb394f84	-0.0028276155
207	0xbc88d511	-0.01670316
208	0x3c0e8905	0.00869966
209	0xbc848550	-0.01617685
210	0xbc4450c8	-0.01198215
211	0xbc47a9ba	-0.012186462
212	0x3d4f1aed	0.050562788
213	0x3bad74a7	0.005293447
214	0xbc22b79a	-0.009931469
215	0x3c14421c	0.009048965
216	0x3c7fc83c	0.015611704
217	0xbd10f9bd	-0.03539442
218	0xbc6f494c	-0.014604878
219	0x3c80d86e	0.015728202
220	0xbcad4dcc	-0.02115526
221	0x3c0b8347	0.008515186
222	0xbd36409e	-0.044495218
223	0xbc8d2e63	-0.017234033
224	0x3d0cad8e	0.034345202
225	0x3a91dbab	0.0011128088
226	0x3c35f1ee	0.011105044
227	0x3caa307e	0.020775076
228	0x3c030440	0.007996619
229	0xbc07bcc8	-0.008284755
230	0x3b3d7615	0.0028909494
231	0x3d79ecca	0.061016835
232	0x3cc5fccc	0.024168395
233	0x3a83c72e	0.0010053867
234	0x3b0f144e	0.002183217
235	0xbd2d2074	-0.042267278
236	0xbc72b156	-0.014812788
237	0xbc879a02	-0.016552929
238	0x3c0d3f6a	0.008621076
239	0x3c82d00b	0.015968343
240	0xbc1df3d4	-0.009640653
241	0xbcf5c8e3	-0.030003017
242	0x3b2553c1	0.0025226923
243	0x3c945455	0.018106619
244	0x3c68e462	0.014214607
245	0x3a81a997	0.0009892461
246	0xbc9b46e9	-0.018954711
247	0xbc952b58	-0.018209144
248	0x3b3db8ba	0.0028949217
249	0xbb353d40	-0.0027654916
250	0xbc0d7034	-0.008632708
251	0xbd468f40	-0.048476458
252	0xbb07f5b1	-0.0020745809
253	0x3c9d05f2	0.019167874
254	0x3c81e892	0.015857968
255	0xbd0063f8	-0.031345338

motion_mlp.mlps.2.fc0.fc.bias f4 [50]
0	0xb599a5d9	-1.1447656e-06
1	0x348c05ca	2.6081244e-07
2	0x34ca51f7	3.768507e-07
3	0x3615ec08	2.2340118e-06
4	0x361ff359	2.3834493e-06
5	0xb5ab0c1a	-1.2744015e-06
6	0xb6eaa099	-6.9924395e-06
7	0xb687160a	-4.025879e-06
8	0xb69f9a02	-4.756498e-06
9	0xb69bfc75	-4.64875e-06
10	0x3539d55b	6.9228344e-07
11	0xb61504e7	-2.2205584e-06
12	0xb61b62b7	-2.315426e-06
13	0x35f8dfd5	1.8542584e-06
14	0x3607bceb	2.0226532e-06
15	0xb4f1b2cd	-4.5019843e-07
16	0x365017bb	3.1008228e-06
17	0xb70b6260	-8.30795e-06
18	0xb63b4337	-2.7904296e-06
19	0xb53ce971	-7.037516e-07
20	0xb67c0e66	-3.7559307e-06
21	0xb5c99062	-1.5017688e-06
22	0x356a6c3b	8.732929e-07
23	0x3669a647	3.4816492e-06
24	0xb790351d	-1.719087e-05
25	0xb696413e	-4.4779435e-06
26	0x36aa8da9	5.082886e-06
27	0x36b5231c	5.3983076e-06
28	0xb5ab7f3e	-1.2777525e-06
29	0x36a9d704	5.0616236e-06
30	0xb61416bd	-2.2066954e-06
31	0xb6a6ee48	-4.974925e-06
32	0x35e7b6f3	1.7264086e-06
33	0xb50a54dc	-5.153249e-07
34	0xb5a68125	-1.240555e-06
35	0x35c51cc3	1.4686015e-06
36	0x368e488c	4.2403753e-06
37	0x3691b589	4.34247e-06
38	0x360f760c	2.1377373e-06
39	0x36481dbc	2.981963e-06
40	0x368afb4a	4.1419744e-06
41	0x35b80772	1.3711235e-06
42	0xb598add6	-1.1375475e-06
43	0xb4618bcb	-2.1005614e-07
44	0xb5d6898a	-1.5984272e-06
45	0x3600b781	1.91803e-06
46	0x359461f7	1.1055371e-06
47	0x3654a7e8	3.1688196e-06
48	0x36c7c3ed	5.953471e-06
49	0x361938e1	2.2831885e-06

motion_mlp.mlps.2.norm0.alpha f4 [1, 54, 1]
0	0x3d9dff1c	0.07714674
1	0x3d756bba	0.05991719
2	0x3d969c8b	0.07354077
3	0x3d603a52	0.05474312
4	0x3caa9d0c	0.020826839
5	0x3d523bf0	0.051326692
6	0x3ceb49b4	0.028721668
7	0x3d220ce9	0.039563093
8	0x3d26712c	0.040635273
9	0x3d900a0f	0.070331685
10	0x3da5cb5e	0.0809543
11	0x3cdc2a94	0.026875772
12	0x3d1fbf4d	0.039000798
13	0x3d2d373c	0.042289004
14	0x3d3cd674	0.046102956
15	0x3d43c54f	0.04779559
16	0x3d5a8d36	0.053357325
17	0x3d125be3	0.03573216
18	0x3d700cdb	0.05860601
19	0x3dfd44cf	0.1236664
20	0x3d120f1e	0.035658948
21	0x3d1ff973	0.039056253
22	0x3d117cd0	0.03551942
23	0x3d137093	0.03599603
24	0x3d8d8fcd	0.069121934
25	0x3d9fa050	0.07794249
26	0x3d127768	0.035758406
27	0x3d18d4a6	0.037312172
28	0x3cf280cc	0.02960243
29	0x3d0fd72a	0.035117306
30	0x3d1c164a	0.038107194
31	0x3c6f1b1f	0.0145938685
32	0x3d067990	0.032830775
33	0x3d5ee7af	0.05442017
34	0x3d5803c1	0.052737955
35	0x3d402d27	0.04691806
36	0x3d191932	0.037377544
37	0x3d8f5014	0.069976956
38	0x3d2584d1	0.040409867
39	0x3daa2016	0.08306901
40	0x3d4b69bc	0.049661383
41	0x3d474aab	0.048655193
42	0x3d3ea6ec	0.046545908
43	0x3d004eee	0.031325273
44	0x3d3034e3	0.043019187
45	0x3d26f496	0.0407606
46	0x3dfa1fd3	0.12213101
47	0x3d4ac937	0.0495083
48	0x3d7cf9e1	0.06176174
49	0x3dc998d5	0.098436035
50	0x3d15ecec	0.0366029
51	0x3d9d3e25	0.07677869
52	0x3cef704a	0.029228348
53	0x3d5f685a	0.054542877

motion_mlp.mlps.2.norm0.beta f4 [1, 54, 1]
0	0xbc90a4d1	-0.017656716
1	0xbc09a04a	-0.008400032
2	0x3d49925f	0.049211856
3	0x3af90d14	0.001900109
4	0xbada7b8c	-0.00166689
5	0x3ace3943	0.0015733618
6	0x3b817169	0.003950287
7	0xbb34c56d	-0.0027583495
8	0xbbf48c64	-0.007463025
9	0x393536a4	0.0001728186
10	0x3d34258e	0.043981127
11	0xbb31051d	-0.0027011104
12	0x39e8beda	0.00044392684
13	0x3b6e73d1	0.003638495
14	0xbc06812b	-0.008209507
15	0xbbcd69d9	-0.0062687215
16	0xbbe951b7	-0.007120337
17	0x3b8bde52	0.004268446
18	0x3c03454f	0.00801213
19	0xbcbc8945	-0.023014674
20	0x3b6bd543	0.0035985268
21	0x3a6ac1ce	0.0008955271
22	0xbb9b30f4	-0.0047360603
23	0xbaf13332	-0.0018402098
24	0xbc650a48	-0.013979502
25	0xbb80e36d	-0.0039333613
26	0xbb5dd8ce	-0.003385115
27	0xbbd6189a	-0.0065336945
28	0xbc9247e3	-0.017856544
29	0xb9d39a08	-0.00040359818
30	0x3b3df807	0.0028986947
31	0xbaefbbb3	-0.0018290192
32	0x3c9de1e1	0.019272747
33	0x3b9bcaef	0.004754416
34	0xbcbd2bf8	-0.023092255
35	0xbb93aa1c	-0.0045063626
36	0xba0ac4f4	-0.00052936305
37	0x3d568065	0.05236854
38	0xbbd4f182	-0.0064985165
39	0xbc82c489	-0.015962856
40	0xbb38ddf0	-0.0028208457
41	0xbb88f1b1	-0.0041792025
42	0x3c07d0f0	0.008289561
43	0x3b146ab7	0.0022646615
44	0xbb01328b	-0.0019713964
45	0xbba7676d	-0.005108765
46	0x3c0b4c83	0.0085021285
47	0x3c88523f	0.01664078
48	0xbae77005	-0.0017657286
49	0xbc8aa4a5	-0.016924212
50	0xbba84309	-0.0051349443
51	0xbc3f5300	-0.011677504
52	0xba856d2b	-0.0010179629
53	0xbb308dc4	-0.0026939968

motion_mlp.mlps.3.fc0.fc.weight f4 [50, 50]
0	0xbb9a694b	-0.004712259
1	0xbd07014e	-0.03296023
2	0x3d738160	0.059449553
3	0xbc80a8db	-0.015705517
4	0x3b7ce80c	0.003859046
5	0xbb00395a	-0.0019565434
6	0x3d00aa0d	0.031412173
7	0x3a388672	0.0007039077
8	0x3d076c8b	0.0330625
9	0xbb11c957	-0.0022245252
10	0x3c1fe8f8	0.009760134
11	0xbcb9881e	-0.022647914
12	0x3b938ef7	0.0045031267
13	0xbb8409e4	-0.0040294994
14	0xbaf1e8f7	-0.001845627
15	0x3d192a6a	0.037393965
16	0x3c052863	0.008127305
17	0x3c7672eb	0.015042047
18	0xbb963eb3	-0.004585111
19	0xbbf468fe	-0.007458805
20	0xbce6c658	-0.02817075
21	0xbc4ef05c	-0.012630548
22	0xbd0119e0	-0.031518817
23	0xbbbd6e48	-0.005780969
24	0x3cf497bb	0.029857507
25	0x3c94a512	0.018145118
26	0x3bbaefc3	0.0057048514
27	0xbb35cda8	-0.002774099
28	0xb905358c	-0.00012703816
29	0x3cac9fba	0.021072257
30	0xbb9e1ba7	-0.0048250738
31	0x3ad11a5e	0.0015953293
32	0x3bbe9e8e	0.005817241
33	0x3b09aefe	0.0021008844
34	0x3c6febe4	0.014643643
35	0xbd85ef81	-0.06539822
36	0xbc6532fa	-0.013989205
37	0x3c57941c	0.013157871
38	0xbd0c7fb1	-0.034301464
39	0x3d4b4336	0.049624644
40	0x3c10eff3	0.008846271
41	0x3cbbff6e	0.022948947
42	0x3c128e6e	0.008945091
43	0x3ce7e4f4	0.028307416
44	0xbcce8ae3	-0.02521271
45	0xbc95d939	-0.018292056
46	0xbca38e30	-0.019965261
47	0x3bb5924f	0.005541123
48	0xbcac3d4d	-0.021025324
49	0xbb9f19ba	-0.0048553618
50	0xbbbe39d3	-0.005805233
51	0xbd81c79c	-0.063369006
52	0x3b9df0ae	0.004819951
53	0xbce9661b	-0.02849107
54	0x3cbe7434	0.02324877
55	0x3c1e1454	0.009648401
56	0x3c449811	0.011999146
57	0xbc8da8f5	-0.017292479
58	0xba070e3e	-0.00051519636
59	0xbc903d43	-0.017607337
60	0x3c787acd	0.015165997
61	0x3d15e7d0	0.036598027
62	0xbb1ae7a3	-0.0023636601
63	0x3c7dc5af	0.015489026
64	0xbbe5af58	-0.007009428
65	0x3caf3b33	0.021390533
66	0xbb8d2f2a	-0.004308601
67	0x3b3c31ea	0.0028716275
68	0xbc699402	-0.014256479
69	0x3cc34e10	0.023840934
70	0x3c5df5c5	0.013547366
71	0xbcc050b2	-0.023475979
72	0xbca6227a	-0.020280112
73	0x3d4fb094	0.050705507
74	0xbcdf7220	-0.027276099
75	0x3c25f23e	0.010128556
76	0xbcc6f5cb	-0.024287125
77	0x3b5663f1	0.0032713378
78	0xbb6004c6	-0.0034182533
79	0x3c2e7c91	0.010649816
80	0xbd3cf693	-0.04613359
81	0xbd44e62b	-0.048071068
82	0x3ca1afc4	0.019737132
83	0xbcc79c36	-0.02436648
84	0xbb595e2d	-0.0033167705
85	0xbc8857fc	-0.016643517
86	0xbc872e66	-0.016501617
87	0xbca6b2b1	-0.020348879
88	0x3c188d9a	0.009311104
89	0xbc98f31b	-0.01867061
90	0x3ade843c	0.0016976665
91	0xbca65df8	-0.02030848
92	0xbb3c8fac	-0.0028772159
93	0xbbaf3967	-0.005347419
94	0xbcb670a7	-0.022270514
95	0xbce80751	-0.028323801
96	0x3cafe158	0.021469757
97	0xbcd033a3	-0.025415247
98	0x3c5a26c3	0.013314906
99	0xbc2b46c5	-0.0104538845
100	0xbac873c4	-0.001529329
101	0xbab0b9d0	-0.0013483111
102	0xbd7f7309	-0.062365565
103	0x3b9cade0	0.0047814697
104	0xbbe64191	-0.007026859
105	0x3cd5e18f	0.026108531
106	0x3ce78354	0.028260864
107	0xbd302ec1	-0.043013338
108	0xbbfb521d	-0.007669701
109	0xbc9dda39	-0.019269096
110	0xba77ee93	-0.00094578526
111	0x3c5a854f	0.013337447
112	0x3b42a941	0.0029702934
113	0xbd312a33	-0.043253135
114	0x3b0fdc06	0.0021951213
115	0xbcb8aab0	-0.022542328
116	0xbb3eed31	-0.0029133076
117	0xbd0dfea4	-0.034666672
118	0x3c0c09bc	0.008547243
119	0xbd05dd05	-0.032681484
120	0xbd041f1f	-0.032256242
121	0xbc81378a	-0.015773553
122	0xba2b483f	-0.0006533898
123	0xbd175740	-0.036948442
124	0xbbf2be48	-0.007407937
125	0xbcc2ccc3	-0.023779279
126	0x3d54d28a	0.0519586
127	0x3ba7ff88	0.0051268972
128	0xbc90b54e	-0.017664578
129	0xbbcad23c	-0.0061896127
130	0x3d2121d5	0.039338905
131	0x3c197d32	0.009368228
132	0xbcacba2e	-0.021084871
133	0x3b8cd37d	0.0042976723
134	0xbc37891d	-0.011202124
135	0xbbe5290b	-0.006993418
136	0xb9fc2ade	-0.00048097124
137	0x3b0a01f7	0.00210583
138	0x3d14cc96	0.03632792
139	0x3bc103ca	0.0058903443
140	0xbc9b8c0d	-0.01898768
141	0x3b84aeb9	0.004049149
142	0xbc8adb99	-0.016950415
143	0xbbdeac3c	-0.0067954343
144	0x3bc38dba	0.005967823
145	0xbc8c3b8c	-0.017118238
146	0xbc21da45	-0.0098787
147	0xbd1213a9	-0.03566328
148	0x3b0a61bd	0.0021115385
149	0x3cba0a42	0.02270997
150	0xbc36585d	-0.011129466
151	0x3c805ea1	0.015670123
152	0xbc8df23e	-0.017327424
153	0x3ba74e74	0.005105788
154	0x3cb541e3	0.022126144
155	0xbb6b65c6	-0.0035918816
156	0xbd6e78c3	-0.058220636
157	0x3cad31e8	0.021141961
158	0xbbd91cfb	-0.006625769
159	0x3bb427bb	0.0054979003
160	0x3c147457	0.009060941
161	0xbc956129	-0.018234806
162	0x3ca8630b	0.02055504
163	0xbc825d92	-0.015913758
164	0xbc75030c	-0.01495434
165	0xbc93f84b	-0.018062731
166	0xbb85372c	-0.004065415
167	0x3b01fe7a	0.0019835518
168	0x3bfe1cb4	0.0077548865
169	0xbd044350	-0.032290757
170	0xbca14692	-0.01968697
171	0x3b4e9974	0.003152457
172	0x3cd34dee	0.025793996
173	0xbc826a3e	-0.0159198
174	0x3c9dd4d9	0.019266533
175	0x3c297429	0.010342636
176	0xbb31637f	-0.002706736
177	0xbd85ab00	-0.06526756
178	0x3cc10366	0.02356119
179	0x3d11adbe	0.035566084
180	0xbb18a113	-0.0023289367
181	0x3cf44554	0.029818214
182	0xbc04301a	-0.008068109
183	0x3ccdfe4c	0.025145672
184	0x3c816cc2	0.01579893
185	0x3c8b6ce0	0.01701969
186	0x3ccee3ca	0.025255103
187	0x3c889846	0.016674172
188	0xbd435c39	-0.047695372
189	0x3b4a4f6e	0.0030870098
190	0x3c7a6b55	0.015284379
191	0xbc669dd0	-0.014075711
192	0xbc6027d6	-0.013681373
193	0xbd054953	-0.03254063
194	0xbc88663a	-0.016650308
195	0xbbe2b824	-0.006918924
196	0x3d2784a3	0.040897977
197	0x3ab2a57d	0.0013629642
198	0xbbcf0031	-0.0063171615
199	0xb91b1ec8	-0.00014793419
200	0x3c8f8262	0.017518226
201	0xbcac7d1a	-0.021055747
202	0xbc9a26d6	-0.018817347
203	0xbbc8b7ec	-0.006125441
204	0x3d1486e3	0.03626145
205	0xbd57aaf6	-0.052653275
206	0x3d58f52f	0.0529682
207	0x3ca5304a	0.020164628
208	0xbd5eaf42	-0.054366358
209	0xbc3f0cb2	-0.011660742
210	0xbacf1e61	-0.00158019
211	0xbd020c54	-0.03175004
212	0xbcfe742b	-0.031061253
213	0x3c4331c8	0.011913724
214	0xbb9fc02a	-0.0048752027
215	0x3c5b8e27	0.013400591
216	0x3d170b2c	0.03687589
217	0xbc625367	-0.01381383
218	0x3b5c92b2	0.0033656773
219	0x3ce542df	0.027985988
220	0x3d07bbaa	0.033137955
221	0xbca2417c	-0.019806616
222	0xbc5ae2a5	-0.0133597
223	0x3c690892	0.014223235
224	0x3cc433d9	0.023950504
225	0xbc860011	-0.016357454
226	0xbbe43517	-0.0069643366
227	0x3c615163	0.013752314
228	0xbbf1503b	-0.0073643005
229	0xbd00054d	-0.031255055
230	0xbd0325b4	-0.03201838
231	0x3bebc581	0.007195175
232	0xbca6b801	-0.020351412
233	0xbd250bc7	-0.040294435
234	0x3cb743d4	0.02237121
235	0x3ae69d07	0.0017594405
236	0xbcc622f0	-0.024186581
237	0x3c592fd6	0.013256034
238	0x3c0b47eb	0.008501033
239	0x3d007c62	0.03136862
240	0x3c431d2a	0.011908809
241	0x3d3fc3dc	0.046817645
242	0x3b4116f9	0.0029463156
243	0xbc6a7516	-0.014310142
244	0xbba41fcc	-0.0050086733
245	0x3bdb5fde	0.006694778
246	0xbbac849a	-0.005264831
247	0x3d075a1d	0.033044923
248	0x3c3c22c3	0.011482897
249	0xbc9ec56d	-0.01938125
250	0x3c92e5b9	0.017931806
251	0xbc8571b6	-0.016289573
252	0xbac7cdc5	-0.0015243819
253	0xbb3431ca	-0.0027495497
254	0xbcdfd8c5	-0.027325043
255	0xbcb8adb6	-0.02254377

motion_mlp.mlps.3.fc0.fc.bias f4 [50]
0	0x35dde328	1.6531894e-06
1	0xb5db5894	-1.6342551e-06
2	0xb64d5da5	-3.0601889e-06
3	0xb53bea08	-7.000349e-07
4	0x37005f9a	7.6516535e-06
5	0xb66e58fa	-3.5516555e-06
6	0xb5f5d3a4	-1.8315518e-06
7	0x36efda6f	7.148184e-06
8	0x36690c58	3.472689e-06
9	0x3692900f	4.3679097e-06
10	0xb5fce3c3	-1.884175e-06
11	0x36cbc28b	6.072519e-06
12	0xb6bf20f5	-5.6960803e-06
13	0xb6166bde	-2.2414529e-06
14	0xb5227ea6	-6.0534e-07
15	0xb6193fc1	-2.2835886e-06
16	0x36255d61	2.464127e-06
17	0xb4ace6e2	-3.2205486e-07
18	0xb5e63579	-1.7151898e-06
19	0x36d0eb3e	6.226269e-06
20	0x352fbd20	6.5467793e-07
21	0x356f5f5b	8.91732e-07
22	0x3649351f	2.9982255e-06
23	0xb576f979	-9.200517e-07
24	0xb55e5fd4	-8.2840893e-07
25	0x359f2a50	1.1858738e-06
26	0xb4d66c4e	-3.9939408e-07
27	0x362c098a	2.563555e-06
28	0x37014aae	7.706387e-06
29	0x36377f25	2.7343133e-06
30	0x358ac3b7	1.0338762e-06
31	0x369355ff	4.3909527e-06
32	0x36363a1e	2.7153942e-06
33	0xb5f22e4c	-1.8043879e-06
34	0x35939aa4	1.099736e-06
35	0x3713ba01	8.80519e-06
36	0xb67e8bdb	-3.7930356e-06
37	0x35aef308	1.3034742e-06
38	0xb5a175a6	-1.2029675e-06
39	0xb4d04755	-3.879492e-07
40	0xb61424d4	-2.2075155e-06
41	0x3683a28c	3.923027e-06
42	0x348a1806	2.5721982e-07
43	0xb6181c2e	-2.2666168e-06
44	0x35e48bab	1.7027972e-06
45	0xb6848a38	-3.9499973e-06
46	0x35972f8f	1.1264218e-06
47	0x3695499a	4.4491144e-06
48	0xb73b6223	-1.1168918e-05
49	0x363a66f8	2.7776096e-06

motion_mlp.mlps.3.norm0.alpha f4 [1, 54, 1]
0	0x3d883720	0.06651139
1	0x3d97a096	0.07403676
2	0x3de330aa	0.11093266
3	0x3d477afb	0.048701268
4	0x3d1dda7e	0.03853845
5	0x3d39b35b	0.045337062
6	0x3cda1325	0.026620457
7	0x3d233870	0.039848745
8	0x3d3ecea8	0.0465838
9	0x3d9542f4	0.07288161
10	0x3df7a7db	0.12092563
11	0x3d273acd	0.04082756
12	0x3d6a1713	0.05715091
13	0x3d4d0722	0.05005563
14	0x3d810187	0.062991194
15	0x3d600587	0.05469277
16	0x3d5d1dd8	0.05398354
17	0x3d388589	0.045049224
18	0x3d4c90e5	0.04994287
19	0x3c2c089b	0.010500099
20	0x3d620955	0.05518468
21	0x3d602896	0.054726206
22	0x3d3db03d	0.046310652
23	0x3d3d83ab	0.046268146
24	0x3d95fd35	0.07323686
25	0x3dce6fdb	0.100799285
26	0x3d42a2dd	0.0475186
27	0x3d638f86	0.055556796
28	0x3c9bd8be	0.01902425
29	0x3d767eb0	0.060179412
30	0x3cd25779	0.025676476
31	0x3cc1976f	0.02363178
32	0x3d6dc03e	0.058044665
33	0x3c747d7a	0.014922494
34	0x3ddb939f	0.10721516
35	0x3d492343	0.049105894
36	0x3cd08bef	0.02545735
37	0x3dc07e20	0.093990564
38	0x3d809542	0.06278469
39	0x3d97ef49	0.07418687
40	0x3d99c870	0.075089335
41	0x3d8f569b	0.069989406
42	0x3d4d3025	0.050094742
43	0x3d8ce9c7	0.06880527
44	0x3d312088	0.043243915
45	0x3c56a173	0.013100016
46	0x3c6a4423	0.014298472
47	0x3d51eb46	0.051249765
48	0x3d805e8b	0.06268033
49	0x3e037f03	0.1284142
50	0x3d35f7e6	0.044425867
51	0x3db48636	0.08814661
52	0x3d8df04c	0.069305986
53	0x3cd6a61b	0.026202252

motion_mlp.mlps.3.norm0.beta f4 [1, 54, 1]
0	0x3c31b8fe	0.010847328
1	0x3adc0a36	0.0016787711
2	0x3cda8a72	0.026677344
3	0xb99641c1	-0.0002865922
4	0xbb6bef53	-0.0036000803
5	0xbb031156	-0.0019999347
6	0x3993912d	0.0002814619
7	0x3c10df08	0.008842237
8	0xb9bd6308	-0.00036122673
9	0xbb8884df	-0.00416623
10	0xbb9d0c2f	-0.004792712
11	0xbb30f3d9	-0.0027000813
12	0xbab2565d	-0.001360606
13	0xbb4afbbb	-0.0030972797
14	0x3b2c42ab	0.0026284854
15	0x3b9a9c06	0.0047183065
16	0xbbd3d587	-0.0064646634
17	0xbbda39e1	-0.0066597317
18	0xbb2669d8	-0.0025392678
19	0x3cb11cc8	0.02162017
20	0xbb443d69	-0.002994383
21	0xbbd95f1a	-0.0066336514
22	0x3c0ce54c	0.0085995905
23	0x3b1cb9d8	0.0023914482
24	0xbcbdc5ad	-0.023165548
25	0xbc08b11b	-0.0083430065
26	0xbb8e0b26	-0.004334825
27	0xbb71cd96	-0.003689622
28	0x3c564176	0.013077131
29	0xbb3f370c	-0.0029177098
30	0xbb8942a9	-0.0041888547
31	0xbb83c696	-0.004021476
32	0x3c5a49e8	0.013323285
33	0xbbe3bfee	-0.00695037
34	0x3d099ce9	0.033596907
35	0xbb544d20	-0.0032394603
36	0x3c06b1ea	0.008221129
37	0x3d00b418	0.03142175
38	0x3baa25e2	0.0051925043
39	0x3b3780a0	0.002800025
40	0xbb887ded	-0.004165402
41	0xbb6b9e34	-0.003595245
42	0xbc81bc44	-0.015836842
43	0xbaf34a8c	-0.0018561645
44	0xb94aa09e	-0.00019324056
45	0xbb2db49c	-0.0026505357
46	0xba2f7663	-0.0006693361
47	0xbbc0c129	-0.0058824015
48	0x39aa10a1	0.00032437316
49	0xbcddfe68	-0.02709885
50	0x3b16f6c4	0.0023035267
51	0x3cb88cab	0.022528013
52	0x3a5b0aed	0.0008355815
53	0x39143f07	0.0001413786
