src/siMLPe/exps/baseline_amass/log/snapshot/model-iter-55000.pth (torch, 604338 bytes, 196 tensors)

motion_mlp.mlps.0.fc0.fc.weight f4 [50, 50]
000000 13 33 22 bd bc 98 ac bd b6 3f 0a 3d e4 53 48 bd
       -0.03959949 -0.08427569 0.033752166 -0.04890813
000010 b2 20 a2 3c e2 39 8d bc 00 5b ba 3c b8 d5 02 bd
       0.019790981 -0.017239515 0.02274847 -0.0319421
000020 12 c4 9b bb 84 25 d8 bc ea c6 cf bb ef dc b5 bc
       -0.004753598 -0.026385076 -0.006340851 -0.022200076
000030 03 06 04 bb 81 ca c3 bc a1 d4 23 bc 3b b1 a5 bc
       -0.0020145185 -0.023900272 -0.009999425 -0.020226112
000040 5c 9e 3f bc c6 19 a3 bc 75 70 e6 bb 5f 79 ba bc
       -0.011695471 -0.01990975 -0.007032449 -0.022762952
000050 29 6c 6c bc 84 cb 8c bc 41 c7 48 bc 5b 12 db bc
       -0.014430084 -0.017186888 -0.012254537 -0.026742151
000060 0e a1 ec bb 23 60 aa bc 30 bb 5a bc 61 c3 90 bc
       -0.0072213477 -0.020797795 -0.013350293 -0.017671289
000070 ab 83 36 bc 05 d1 58 bc 0e 76 80 bc f0 07 13 bc
       -0.0111397905 -0.013233428 -0.015681293 -0.00897406
000080 b3 d2 54 bc a7 9c f2 bb c5 76 7c bc 7b 61 6e bb
       -0.012989688 -0.0074039283 -0.015409176 -0.003637402
000090 ba 9e 71 bc 28 a0 7c bb 37 fc 6b bc 7c c0 ee ba
       -0.014747316 -0.003854761 -0.014403394 -0.0018215324
0000a0 00 2e 41 bc 8f f2 b4 ba a8 9f 34 bc c6 bf df ba
       -0.011790752 -0.0013805198 -0.011024393 -0.0017070703
0000b0 fd 8f ed bb 83 fa 95 ba e5 4c dd bb 5a 37 af ba
       -0.0072498308 -0.0011442456 -0.0067535513 -0.0013367936
0000c0 33 39 c3 bb d5 35 47 bb 4a cb 1f 3c 82 2d 3d bd
       -0.0059577464 -0.0030397077 0.009753058 -0.046185978
0000d0 d2 bb c2 b8 36 c7 f6 bb a0 78 cd bc 36 83 94 bc
       -9.285625e-05 -0.007531072 -0.025081933 -0.018128973
0000e0 8a 67 f8 bc 08 0a 32 3c 73 5e 85 bc d0 05 c6 bc
       -0.030322809 0.010866649 -0.016280388 -0.024172693
0000f0 bb 57 38 b9 d8 f1 f5 bc c6 04 d6 39 a5 a9 85 bc
       -0.0001758029 -0.030022547 0.00040820817 -0.016316244
000100 a2 cf 74 bc 1f 12 80 37 a4 55 4b bc b3 e4 e1 bb
       -0.014942082 1.5267227e-05 -0.012410555 -0.006893718
000110 f9 e8 0b bc 98 68 27 bc 09 f3 16 bc 80 ba 4f bc
       -0.008539432 -0.010217808 -0.0092132175 -0.012678742
000120 b2 15 32 bc 11 98 53 bc 88 f2 0d bc 64 ff 6a bc
       -0.01086943 -0.012914673 -0.008663781 -0.014343116
000130 c3 01 3a bc 77 a2 2f bc d7 91 19 bc 1f d7 5a bc
       -0.011352959 -0.010719887 -0.00937315 -0.013356953
000140 bc 64 45 bc 11 3d 20 bc 9e ef 5b bc ff 46 42 bc
       -0.012047943 -0.009780184 -0.013423828 -0.011857747
000150 09 4f 70 bc d7 ca 1e bc c8 ee 86 bc 05 1b 26 bc
       -0.014667281 -0.0096919155 -0.016471282 -0.010138278
000160 e8 51 81 bc 52 4d 26 bc 63 0b 81 bc 0e 91 37 bc
       -0.015786126 -0.010150271 -0.0157525 -0.011204017
000170 92 d1 72 bc 46 20 38 bc 2c 2d 7b bc 0d 7a 4b bc
       -0.014820473 -0.011238163 -0.015330594 -0.012419236
000180 23 19 5d bc 0e 75 43 bc 88 a8 64 bc c5 94 62 bc
       -0.013494763 -0.0119297635 -0.013956197 -0.013829415
000190 61 4f 83 bb 69 92 07 bd 78 19 a5 3c 1e 72 30 bc
       -0.0040072654 -0.033098612 0.020153746 -0.010769395
0001a0 13 ef c6 ba 0c 0f 0c bd 62 5e 85 3c 73 af 02 3b
       -0.0015177451 -0.034194037 0.016280357 0.0019941002
0001b0 6b fe 90 3c 04 b9 9b bc 76 ae b7 3c f5 33 85 bc
       0.017699441 -0.01900912 0.022422057 -0.016260127
0001c0 50 20 f6 3c 37 2c 3b bc 6b 48 f0 3c 71 0b 06 3c
       0.030044705 -0.011424116 0.029331407 0.008181439
0001d0 87 0b 9f 3c 72 c8 94 3c a1 89 fd 3c e8 c3 54 3c
       0.019414676 0.018161986 0.030949416 0.012986161
0001e0 71 e8 f0 3c 0d e8 2c 3c bf 37 bc 3c e2 d5 60 3c
       0.029407712 0.010553372 0.0229758 0.013722869
0001f0 b9 07 f5 3c 26 bb 25 3c fc 8a ad 3c ee 98 51 3c
       0.029910909 0.01011542 0.021184437 0.012792809
000200 cc 06 be 3c b0 14 a7 3c 1b 78 8c 3c 55 a2 b4 3c
       0.0231966 0.020395607 0.017147115 0.022050062
000210 b4 99 99 3c 98 dc be 3c 3c 63 6f 3c 41 b6 db 3c
       0.01875005 0.023298547 0.014611062 0.026820304
000220 5e 2b 7c 3c ac a9 d1 3c 5a 38 71 3c 3c b0 de 3c
       0.015391199 0.025593601 0.014722908 0.027183644
000230 88 5a 71 3c d3 18 de 3c 7c 24 82 3c bf 20 d5 3c
       0.014731057 0.027111446 0.015886538 0.026016591
000240 b0 46 99 3c fa bb d2 3c 27 54 a7 3c 57 51 c5 3c
       0.018710464 0.0257244 0.02042587 0.024086637
000250 45 4e ab 3c 1c 10 c4 3c c6 b6 1c bc 20 2a fe 3c
       0.020911345 0.023933463 -0.009565061 0.031025946
000260 5c e7 b8 bc 6e 33 d9 3c c0 f6 f6 bc dc 7d e1 3c
       -0.022571258 0.026513781 -0.030146956 0.027525835
000270 bc 6e be bc d5 55 52 3d 26 87 af bc 8e b0 45 3d
       -0.023246162 0.051351387 -0.021426748 0.04826408
000280 2c de 7c bc dd 18 26 3d 0c f3 ad bb 9c 31 02 3d
       -0.015433829 0.040551055 -0.0053085145 0.031785592
000290 e1 bc 2e 3b 73 22 cd 3c 3a c5 70 3c c1 6f ce 3c
       0.0026662874 0.02504084 0.01469546 0.025199773
0002a0 1b 1c 3e 3c 7a 6e 1f 3d c9 c5 82 3c 9e f1 03 3d
       0.011603381 0.038923718 0.015963452 0.032212846
0002b0 55 e1 81 3c f7 d6 f7 3c 48 80 9e 3c 93 31 01 3d
       0.015854517 0.03025387 0.019348279 0.03154142
0002c0 0c 0a ab 3c e3 03 d1 3c b2 31 ac 3c 5a 8a d5 3c
       0.020878814 0.025514549 0.02101979 0.026066948
0002d0 d9 9a b4 3c 94 05 c2 3c dd 2d b5 3c 60 c2 b2 3c
       0.022046493 0.0236843 0.022116596 0.0218212
0002e0 53 2d b2 3c 5c e7 ab 3c c8 46 99 3c 1e 31 a9 3c
       0.021750128 0.020984344 0.018710509 0.020653304
0002f0 cd 97 a3 3c 13 af 9d 3c 6f 01 9e 3c 04 cd 91 3c
       0.019969845 0.019248521 0.019287793 0.017797954
000300 7e bc 9a 3c 27 62 8c 3c e6 8c 8a 3c db 5c 86 3c
       0.018888708 0.017136646 0.016912889 0.016401699
000310 fc 0f 87 3c 17 a4 82 3c 65 84 8b 3c a1 52 7d 3c
       0.016487114 0.015947385 0.017030904 0.015461595
000320 d7 3f 03 3b 51 5f c9 bc 42 fb b1 3c a3 66 50 3c
       0.0020027065 -0.024581583 0.021726254 0.012719783
000330 be e8 88 bd 42 7a a6 bc 90 5d 48 bc 01 f7 dc bc
       -0.06685017 -0.020321969 -0.012229338 -0.02697325
000340 4a 44 9f bb b7 d1 d9 bc 85 4b 80 bc 83 c3 ac bc
       -0.0048604356 -0.026589258 -0.01566101 -0.021089321
000350 55 e2 f0 bc ed 14 d8 bc c1 17 dd bc bf 9a 8d bc
       -0.029404799 -0.026377166 -0.026988866 -0.017285703
000360 aa 83 a6 bc fa 75 23 bc da 71 19 bc 9e d6 0f bb
       -0.020326454 -0.009976858 -0.009365523 -0.002194799
000370 40 cc 8d bc 23 aa b9 3b 1d 44 06 bc e7 2f e0 3b
       -0.017309308 0.005666034 -0.00819495 0.006841648
000380 72 7c 29 bc ba 29 5a 3c 99 6e 0b bb 6c d0 54 3c
       -0.0103446115 0.013315612 -0.0021275638 0.012989145
000390 c4 59 de ba 85 90 46 3c 01 71 54 3b f2 08 12 3c
       -0.0016964008 0.012119417 0.0032415988 0.008913266
0003a0 1b 99 b2 3b fe 06 49 3c 08 e1 f4 3b 63 12 1d 3c
       0.0054503805 0.0122697335 0.007473115 0.009586903
0003b0 a1 c3 3f 3c f4 c6 16 3c 0f 25 3b 3c e8 8e 2e 3c
       0.011704356 0.009202708 0.01142241 0.010654189
0003c0 82 4f 47 3c 95 2c 2e 3c 28 a9 68 3c fc 85 52 3c
       0.012164952 0.010630746 0.014200486 0.012849327
0003d0 dd 48 6a 3c 39 9f 41 3c f1 f3 65 3c 7d b3 5e 3c
       0.0142995985 0.011817747 0.014035211 0.013592598
0003e0 8d fd 5a 3c 0e 90 72 3c 0d f5 87 3b a0 cd 89 bb
       0.013366115 0.014804853 0.0041490854 -0.0042054206
0003f0 b4 70 37 3c b4 ba 69 3b 0a 37 9c bb bc a9 12 bd
       0.011196304 0.0035664262 -0.0047673034 -0.035806403

motion_mlp.mlps.0.fc0.fc.bias f4 [50]
000000 86 f2 2b b7 c1 ec 52 b7 ec 32 12 37 0e 13 82 38
       -1.0248861e-05 -1.2572099e-05 8.714134e-06 6.202432e-05
000010 50 de 83 b8 f2 74 7f b7 16 48 52 b4 09 76 d5 36
       -6.287976e-05 -1.5226413e-05 -1.9583999e-07 6.3616358e-06
000020 b0 34 76 37 2c 1a b9 b5 13 85 40 38 c7 eb 9e b7
       1.467501e-05 -1.3791191e-06 4.5900302e-05 -1.894486e-05
000030 a4 67 ad b7 eb 0d 8c b8 73 53 b3 b7 74 5c cb 35
       -2.0671469e-05 -6.678313e-05 -2.1377322e-05 1.5151586e-06
000040 07 ac b4 b7 42 4e 4a 36 a9 6c 5f b6 57 c3 a0 b7
       -2.1537779e-05 3.0145898e-06 -3.3292838e-06 -1.9164449e-05
000050 a3 70 81 b7 c4 4c 43 b7 5c 72 42 b9 6c bb ac 34
       -1.5430449e-05 -1.1640779e-05 -0.00018543884 3.2173864e-07
000060 50 2e 98 b7 dd 7f 5b 36 5c c0 74 b8 ef 1a 13 b8
       -1.8141378e-05 3.270797e-06 -5.8353282e-05 -3.5072615e-05
000070 b4 83 68 38 c9 23 86 37 e9 e2 64 38 74 63 d4 37
       5.543577e-05 1.5990709e-05 5.4570763e-05 2.531868e-05
000080 4f d9 0a b8 4a 8f 76 37 e8 75 3b 37 a3 97 90 38
       -3.310415e-05 1.4696105e-05 1.1173521e-05 6.8946996e-05
000090 a3 b3 37 b9 bf 2c 97 37 0d 3d c6 36 f6 7f 23 b8
       -0.0001751916 1.802144e-05 5.907967e-06 -3.89814e-05
0000a0 26 56 55 b8 9b e2 17 b7 1c 2f d5 37 ed f5 d5 37
       -5.086339e-05 -9.053062e-06 2.5413516e-05 2.5506097e-05
0000b0 cc 66 33 b8 23 7b 12 b7 10 89 d7 37 b7 ae 67 b7
       -4.2772663e-05 -8.730948e-06 2.5693822e-05 -1.3809352e-05
0000c0 26 d4 8e 38 19 e8 b1 37
       6.8106034e-05 2.1208123e-05

motion_mlp.mlps.0.norm0.alpha f4 [1, 54, 1]
000000 18 57 04 3e cd 6e 07 3e 83 e1 09 3e a1 2d fe 3d
       0.12923849 0.13225861 0.13464932 0.12411047
000010 89 76 2a 3e 02 72 cb 3d 66 1a 28 3e 63 fa 02 3e
       0.1664678 0.09933855 0.1641632 0.12790827
000020 2e 42 32 3e 8f f1 46 3e cd a7 0b 3e 68 e5 37 3e
       0.17408058 0.19428085 0.1363823 0.17958605
000030 27 56 34 3e 12 99 0d 3e ff 5f 0c 3e 85 13 2b 3e
       0.1761099 0.13827923 0.13708495 0.16706665
000040 ca 08 0b 3e 0e 42 11 3e 9f 5e 2d 3e aa 2d 61 3e
       0.13577572 0.14185354 0.16930626 0.21990076
000050 48 09 2a 3e d4 a9 2b 3e 94 60 3c 3e 9d 6d 36 3e
       0.16605103 0.16764003 0.18396217 0.17815252
000060 ee ce 07 3e c9 a2 13 3e a7 66 5b 3e 05 57 29 3e
       0.13262531 0.14417566 0.21425878 0.16537102
000070 f1 ba 4e 3e 29 54 29 3e 6b 5c 32 3e d0 13 01 bb
       0.201885 0.16536011 0.17418067 -0.0019695647
000080 72 c4 1b 3e b7 75 f8 3d 31 a4 11 3e ce 4a 0f 3e
       0.15211657 0.12131827 0.1422279 0.1399338
000090 2d 56 05 3e 28 fa 6b 3e ed a1 10 3e 4c ad f0 3d
       0.13021155 0.23044646 0.1412427 0.11751804
0000a0 85 e8 20 3e 02 b2 0c 3e 82 d5 2f 3e 26 e4 0c 3e
       0.15713699 0.1373978 0.1717129 0.13758907
0000b0 67 ed 33 3e c5 e1 1c 3e a7 80 65 3e 19 44 f6 3d
       0.1757103 0.15320499 0.22412358 0.12024707
0000c0 43 a8 e9 3d 17 56 16 3e 96 de 4c 3e 87 b0 f7 3d
       0.114090465 0.14681278 0.20006785 0.12094217
0000d0 f6 79 51 3e a3 9a 38 3e
       0.2045668 0.18027739

motion_mlp.mlps.0.norm0.beta f4 [1, 54, 1]
000000 68 b2 20 b9 b3 65 a1 3a 1d 32 16 3c 28 c7 4b 3a
       -0.0001532525 0.0012313634 0.009167221 0.0007773512
000010 7b 9c 8c b7 3d 78 fa b9 f1 18 cc 39 8e 65 16 b7
       -1.6762167e-05 -0.000477733 0.00038928495 -8.964342e-06
000020 21 50 a8 39 5d 9a 40 3a 9f 31 e4 3b ab b8 b5 39
       0.00032103158 0.00073472207 0.006963923 0.000346606
000030 ca 3d 94 b9 91 6d 64 ba ba ed e9 39 6f 27 e1 ba
       -0.00028274796 -0.00087138364 0.00044618343 -0.001717789
000040 09 f7 83 3a de 5d 18 ba 51 5c c1 3a ff db 00 3b
       0.0010068129 -0.0005812327 0.0014752244 0.0019662378
000050 6d d6 87 3a bd 49 71 39 8b 6f b2 39 6b 17 fa 39
       0.0010363586 0.0002301102 0.00034033912 0.00047701164
000060 e3 43 25 bb d8 a9 b9 ba 94 75 10 3a e6 a7 ae 3a
       -0.0025217466 -0.0014164997 0.00055106846 0.0013325184
000070 1b 62 8f 3a 01 ee bc 39 8e 06 87 3a ba 3b a0 3d
       0.0010939272 0.0003603548 0.0010301636 0.07823892
000080 05 8e 7c 3a 16 39 d5 b9 9e e4 35 bb b1 c4 30 3a
       0.00096341997 -0.00040669058 -0.0027754675 0.00067431765
000090 4c 8b 99 b9 d6 d0 d5 bb a4 f7 2b b9 98 37 05 3b
       -0.00029286218 -0.0065251393 -0.00016400084 0.0020327326
0000a0 3c c6 94 39 c7 e3 88 ba 3b 13 42 ba 23 3e 54 ba
       0.00028376456 -0.001044386 -0.0007403378 -0.00080964173
0000b0 b8 97 dd b7 91 20 47 ba f7 a1 aa 3a dd f5 42 bb
       -2.6415903e-05 -0.00075961003 0.001301824 -0.0029748597
0000c0 80 26 95 ba 07 cd a6 bb 77 87 b7 3a 07 15 ec 39
       -0.0011379272 -0.005090359 0.0014002164 0.00045029094
0000d0 4e 88 b6 39 95 6e a9 b9
       0.000348153 -0.00032316582

motion_mlp.mlps.1.fc0.fc.weight f4 [50, 50]
000000 5f ea 3b bd b1 53 ba bc db 35 47 3d 43 b3 f3 bc
       -0.04587781 -0.022744985 0.048635345 -0.029748565
000010 7c 5c d4 3b 23 e9 24 bc 30 a8 ab 3b 0a 6f 17 3b
       0.0064807516 -0.01006535 0.0052385554 0.0023106956
000020 39 a6 bc 3b 3f 13 db bc 1e c2 de 3b 08 98 a8 3c
       0.00575712 -0.026742576 0.006798043 0.020580307
000030 6e 9e 94 3c 54 44 14 3c 70 28 2b bc e4 db 0c bc
       0.018141951 0.009049494 -0.010446653 -0.008597348
000040 a1 12 1d bc 40 d4 97 bc 09 45 ca bc 08 8a 6c bc
       -0.009586961 -0.018533826 -0.024691122 -0.014437206
000050 3d 02 76 bd b8 d2 54 bd a4 c0 16 bd be f0 be 3b
       -0.06006073 -0.05195877 -0.03680481 0.0058270385
000060 76 0c cb ba 9b 94 a4 bb 14 d0 94 3c 3d 91 b8 b9
       -0.0015491385 -0.005022598 0.018165626 -0.00035203426
000070 c8 5a b3 bb d4 ca 61 3c c5 f4 33 bc 7b db 86 bc
       -0.0054734685 0.013781268 -0.010983651 -0.016462078
000080 38 cb bc bc f3 05 cd bc b1 0f 96 bc b1 e7 c8 bc
       -0.023046121 -0.02502725 -0.01831803 -0.024524542
000090 80 e2 c6 bc 58 16 9e 3c e6 19 fb bc 54 ef 05 bb
       -0.024277925 0.019297764 -0.030651998 -0.002043684
0000a0 49 f3 79 ba cb c9 b7 3a e2 e0 03 bc 76 fe aa bc
       -0.00095348485 0.0014021931 -0.008049222 -0.02087329
0000b0 55 27 ad 3c d5 25 0e bd 08 1d b7 bc 8b ea 14 bd
       0.021136919 -0.03470405 -0.02235271 -0.03635649
0000c0 f8 b7 cf 3c 68 4d 29 bc cc 6f 1b bc 50 e0 da bc
       0.025356278 -0.0103333965 -0.009487104 -0.026718289
0000d0 66 04 98 3d 0a 4f 07 bd c0 25 66 bc 5d 63 2c 3c
       0.07422714 -0.033034362 -0.014047086 0.010521737
0000e0 3b 92 76 bd 7b 9f 06 3b 2f f3 d3 3b ba 6f c4 bc
       -0.06019805 0.0020541835 0.0064681987 -0.023979057
0000f0 a2 c1 cd bb 23 04 02 3d 96 71 a2 bb 73 55 85 3c
       -0.0062791863 0.031742226 -0.004957388 0.016276097
000100 b5 76 ea 3c e6 12 95 bc d6 e5 6f 3b 87 2c ac 3c
       0.028621057 -0.018197488 0.0036605499 0.021017326
000110 e8 d9 70 3b 2c 58 0e bc 81 65 67 3d 6f 1b 80 3b
       0.0036750976 -0.008688014 0.056493286 0.0039095203
000120 69 38 31 3d 0a 39 d5 bc 38 32 82 bb 9e aa c4 3b
       0.043266688 -0.026028175 -0.0039732717 0.0060017845
000130 9c e8 62 3d 34 b3 d1 3c 0e 02 b5 3b 13 14 9f bb
       0.055397615 0.025598146 0.0055239266 -0.004854688
000140 2d 1a 9f bc 2d 4d 8c bc e4 be 2f bb 0a 52 a6 3c
       -0.019421661 -0.017126644 -0.002681666 0.020302791
000150 61 fc c7 bc 90 35 8d 3c 86 e7 75 3c 99 6c 09 bc
       -0.024412336 0.017237455 0.015008813 -0.008387708
000160 ef 19 5c bb fc ec 44 3c c9 09 cf 3c 45 7d 8a bc
       -0.0033584794 0.012019392 0.02527322 -0.016905436
000170 33 59 12 3c ac c5 39 bc 65 1d a6 3d 1b 4c c3 3c
       0.0089324 -0.011338633 0.08111075 0.02384
000180 8a a4 aa ba 98 85 63 bc 73 2b 2f 3d ab 84 8d bc
       -0.0013019007 -0.013886832 0.042766046 -0.017275175
000190 8b 04 33 bb 4a 12 ff bb 8c 50 70 bc e3 e3 69 bc
       -0.002731594 -0.0077841626 -0.014667641 -0.014275524
0001a0 4d fe 1a 3c 22 72 a5 bb 50 56 b1 bc 95 04 37 3b
       0.009460044 -0.005049006 -0.021647602 0.0027926315
0001b0 0d 27 a4 bc 32 35 be 3c e3 7b 56 3c 80 6f 8b bc
       -0.020038152 0.023218725 0.01309106 -0.01702094
0001c0 ec 9c 61 bc af 22 1e 3c 6c 28 2a 3c de b2 83 bc
       -0.013770323 0.009651824 0.010385614 -0.016076501
0001d0 21 62 de bb 2f c5 b4 3b ed 33 b8 bb fa 46 11 bc
       -0.0067866 0.00551667 -0.0056214244 -0.00886702
0001e0 88 f1 35 bd aa 2d d1 3c 60 c1 73 be e8 5e 58 3c
       -0.044419795 0.02553447 -0.23804235 0.013206221
0001f0 c7 5d 80 bc 3a f1 82 3c 0d 98 de bc 49 aa 17 bc
       -0.015669717 0.015984166 -0.027172113 -0.009256908
000200 9b 2b 64 bc b6 e1 4b 3b 52 fa fd bc ad fa 90 3b
       -0.013926412 0.0031109876 -0.031003151 0.004424414
000210 83 72 45 3c e9 70 55 3c 0a 58 e8 3a 4e da a1 bd
       0.0120512275 0.013027408 0.0017726433 -0.079029664
000220 0f c1 ed 3c 57 c6 eb 3b 98 10 a7 3a 48 28 ac ba
       0.029022722 0.007195275 0.0012746034 -0.0013134563
000230 a8 f2 c3 bc 29 5c da bc 08 cb 94 3c f4 06 1b 3c
       -0.023919418 -0.026655274 0.01816322 0.009462107
000240 9f 37 43 bc 8f 06 33 3c 08 68 9b 3a b3 88 b4 3b
       -0.011915117 0.010926857 0.0011856565 0.00550946
000250 af 15 df 3a 6b ef 98 3b e3 51 fd bb 2f 15 7e 3c
       0.0017020012 0.0046672127 -0.007730709 0.01550798
000260 ac 5e 1f 3d 59 b9 e3 3c 67 6d 18 3d f6 fd 0e 3d
       0.038908646 0.027798342 0.03721371 0.034910165
000270 b7 e2 63 bd b8 4d 42 bc 44 12 88 3c 27 56 93 3c
       -0.055636134 -0.01185935 0.016610272 0.017985417
000280 08 cc ef ba 42 ab 3a 3c d3 f9 01 3c a8 d4 03 bc
       -0.0018295059 0.01139337 0.007933098 -0.008046307
000290 b3 0f 60 3d aa 10 bd bc ce 3e 99 bc 9f 8f a5 3c
       0.054702472 -0.023079235 -0.018706705 0.020210085
0002a0 87 08 ad 3b 84 bc f3 ba 9d cf e5 bc 1d 74 b6 3c
       0.0052805576 -0.0018595611 -0.0280531 0.022272164
0002b0 a4 64 1b bd 6d 4f 9e bc c1 95 8d ba b6 f6 c6 3b
       -0.037937775 -0.019324983 -0.0010802076 0.0060718907
0002c0 20 d0 f8 bb 6d b4 62 3b a3 5e 42 bc a6 08 8e bc
       -0.00759317 0.0034592405 -0.011863383 -0.017338108
0002d0 c4 36 d9 3c 58 f4 8f 3c aa 5a f3 3c 3f 5c 19 3d
       0.026515372 0.017572567 0.029706318 0.03744149
0002e0 42 fc 6b bc 5f 82 c5 bc 0c 1c 3a 3d 31 97 79 bc
       -0.014403405 -0.024110017 0.045436904 -0.015233801
0002f0 90 eb ea bb 4f a6 a0 bc 3c 7a 66 3c 80 bf 1f 3c
       -0.0071691945 -0.019610552 0.014067229 0.009750247
000300 25 8e 91 bb 32 25 10 3c fc d2 07 bd b4 75 98 3c
       -0.004441994 0.008797931 -0.033160195 0.018610813
000310 64 69 19 3d ab 5f 26 3d a0 7a 04 bc 4b 74 c3 ba
       0.037454024 0.04061858 -0.008085877 -0.0014911977
000320 5e 62 d1 bc 9f 2e c4 ba d1 4d e0 bc 97 c8 1c bd
       -0.0255596 -0.0014967507 -0.027380856 -0.038277235
000330 2e d0 6c bd 0e 1b 60 bb f4 9d 88 3d 6b 39 87 3c
       -0.057815723 -0.0034195813 0.06670752 0.016506871
000340 12 80 6c bd 50 b1 f1 ba 69 24 99 3c 8a 8b 45 3b
       -0.057739325 -0.0018439684 0.01869412 0.0030142986
000350 a7 04 de bb fd 01 ab 3c 10 50 76 3c 7e f0 d2 3c
       -0.006775457 0.020874972 0.015033737 0.025749441
000360 5f 16 d4 bb 59 3c 89 bb 1f 39 58 3b de 9c a9 bc
       -0.0064723934 -0.004188102 0.0032993031 -0.020704683
000370 8d bd 45 bc b5 cd f4 38 2e 10 1f bc de e1 9c bc
       -0.012069118 0.000116731426 -0.009708447 -0.01915067
000380 9b 1b 13 3d 77 6d 34 3d a4 66 0a bd 1f 68 17 bd
       0.035915 0.044049706 -0.033789292 -0.036964532
000390 36 cb db 3c 0a ef 42 3d e5 03 e3 bc e3 58 92 bb
       0.026830297 0.047591247 -0.027711818 -0.0044661625
0003a0 3a f5 b7 bc a7 16 6d bb fd ec d7 bc 81 d2 fd bc
       -0.0224558 -0.0036176832 -0.026358122 -0.030984165
0003b0 cd 2b 5e bc c1 80 60 3c 95 01 9f ba c5 f7 20 3d
       -0.013560248 0.013702572 -0.0012131209 0.03929879
0003c0 96 d9 15 3d 27 41 8a 3d f5 d1 1d bc d7 90 93 bb
       0.03658446 0.06750708 -0.009632577 -0.0045033502
0003d0 10 aa 98 3c 5c b9 19 3c c3 37 ae bc fb 2c 29 bd
       0.01863578 0.009382572 -0.021266824 -0.041302662
0003e0 ff 0f a8 bb 9e 4e 5c 3b 75 25 00 3d 2a 86 83 3c
       -0.00512886 0.0033616195 0.03128572 0.016055185
0003f0 15 51 a4 bc 3d 15 b1 3c ce 30 82 3c d2 2b 6c bd
       -0.020058194 0.021616573 0.015892413 -0.057658978

motion_mlp.mlps.1.fc0.fc.bias f4 [50]
000000 2c 6f ec b5 af 09 00 b7 14 3a aa 37 a3 bf 78 36
       -1.7615725e-06 -7.631649e-06 2.0292624e-05 3.7066427e-06
000010 03 47 b9 36 29 37 e8 b6 28 50 4e b5 10 61 a0 b6
       5.5216965e-06 -6.9205603e-06 -7.6857623e-07 -4.779671e-06
000020 27 5c cd 34 43 7e 24 b7 08 40 56 b6 7b b2 34 37
       3.8251275e-07 -9.804559e-06 -3.1925756e-06 1.0770392e-05
000030 85 95 8f 36 eb fe 09 b7 9e f8 04 36 61 50 3c 37
       4.2791385e-06 -8.225189e-06 1.9814247e-06 1.1224388e-05
000040 ec 01 9f 36 7a 22 02 b4 20 4d e3 36 32 be 29 b6
       4.738793e-06 -1.2119736e-07 6.7741057e-06 -2.529367e-06
000050 78 f0 13 b7 9a 72 98 b5 d5 d0 2f b6 cd f6 e9 34
       -8.817871e-06 -1.1358236e-06 -2.6198588e-06 4.3579203e-07
000060 86 6e 81 36 1d 14 96 b6 b2 40 e0 b5 93 90 b2 b6
       3.857366e-06 -4.47269e-06 -1.6708129e-06 -5.321644e-06
000070 00 24 e2 b6 82 36 b3 35 6f da 00 b7 2c 19 dc b7
       -6.739516e-06 1.3352403e-06 -7.680253e-06 -2.6237765e-05
000080 54 f0 1c 36 85 1a 20 b5 00 a8 93 b6 7c 40 05 b7
       2.33857e-06 -5.9643236e-07 -4.400499e-06 -7.942432e-06
000090 9c e1 ee 35 30 c0 76 b7 ec 98 97 37 1e 4c 38 b6
       1.7798043e-06 -1.470749e-05 1.8071813e-05 -2.7462443e-06
0000a0 0f d1 01 b6 4a 32 7f 36 60 87 b4 35 d9 95 7f 37
       -1.9344186e-06 3.8027233e-06 1.3450444e-06 1.52340735e-05
0000b0 64 ac 28 b7 ce bb 2e b6 c7 b1 c3 36 07 c0 4c 36
       -1.0053718e-05 -2.6037337e-06 5.832149e-06 3.0510143e-06
0000c0 91 84 af 35 ca a5 cd b5
       1.3077098e-06 -1.5321941e-06

motion_mlp.mlps.1.norm0.alpha f4 [1, 54, 1]
000000 80 8c be 3d d8 fc a0 3d 53 e4 50 3e c8 ad c2 3d
       0.09304142 0.07860726 0.20399599 0.095058024
000010 0f 8f 93 3d 38 3e c7 3d 43 e9 85 3d 3e 27 ab 3d
       0.07205021 0.09728664 0.06538632 0.08357094
000020 20 33 8a 3d 7a 89 00 3e 39 85 26 3e a0 c8 82 3d
       0.067480326 0.12552443 0.16261758 0.063859224
000030 f3 ab b2 3d 83 e1 b1 3d 67 31 84 3d ea 4e c8 3d
       0.08724203 0.08685591 0.06454735 0.09780677
000040 63 5a b1 3d 13 a5 a4 3d 14 75 c0 3d 6f ce 5e 3e
       0.08659818 0.08039298 0.09397331 0.21758436
000050 46 80 9e 3d c8 ba aa 3d b4 ca ce 3d 09 94 9c 3d
       0.0773931 0.08336407 0.10097256 0.07645423
000060 b4 af e1 3d 58 98 cf 3d 1f c1 96 3d 05 c9 91 3d
       0.11019841 0.10136479 0.07361054 0.071184196
000070 39 28 91 3d c9 29 a9 3d 26 00 aa 3d 4a a5 86 3c
       0.0708775 0.08259923 0.083008096 0.016436238
000080 d3 d3 45 3d d9 a6 83 3d d1 f7 ed 3d e3 47 9c 3d
       0.048297714 0.06428308 0.11619533 0.07630899
000090 80 fc 8e 3d 58 e5 e7 3d c1 34 9d 3d 35 67 e1 3d
       0.06981754 0.11323041 0.07676078 0.11006013
0000a0 31 05 b6 3d e9 54 b5 3d 73 1d bd 3d 72 8e a4 3d
       0.08887709 0.08854086 0.092341326 0.08034982
0000b0 ca cd ca 3d 32 3f c8 3d 2a 42 68 3e 91 d7 a9 3d
       0.099025324 0.097776785 0.2268149 0.08293069
0000c0 b9 68 c9 3d 3a d3 18 3e 3f 68 9d 3d 31 00 bd 3d
       0.098344274 0.14924327 0.07685899 0.09228552
0000d0 ca a1 b2 3d 09 77 00 3e
       0.08722265 0.12545408

motion_mlp.mlps.1.norm0.beta f4 [1, 54, 1]
000000 40 a3 1f bc 6b c9 91 3c af fc 80 39 2f f8 bb bb
       -0.009743512 0.017796239 0.00024602326 -0.005736373
000010 66 ba 47 3b fd e2 42 bb bc 3e a4 bb 67 25 89 bb
       0.0030476092 -0.0029737346 -0.0050123613 -0.004185367
000020 92 9a 9c 3b 0c 52 13 bd 7f 8b 0d 3d 91 cc 3f bb
       0.0047791684 -0.035966918 0.034556862 -0.0029266218
000030 d2 ab 9f 39 da b1 a8 bb 0d d9 ee 3b 9e 0a cf 3c
       0.0003045486 -0.0051481547 0.007289058 0.025273617
000040 91 a6 55 3c 4f a0 72 3b a9 ab b2 bc f1 2d 79 3b
       0.013040201 0.003702182 -0.02181037 0.0038021768
000050 81 dc cd 3a 2f 40 fc b9 04 9a cd bb b2 48 44 ba
       0.0015705974 -0.00048113006 -0.0062744636 -0.0007487639
000060 e0 be 25 3c 99 ae 0e 3c c5 4a b1 3a 6b 03 45 3b
       0.010116309 0.0087086195 0.0013526311 0.0030061852
000070 a8 36 a8 3b a0 e5 32 3b 0d 7a 63 3b 02 74 83 ba
       0.0051334687 0.0027297512 0.00347102 -0.001002908
000080 f1 9d da bc ea f1 7a bb a7 a6 cc bc 34 1e 07 bb
       -0.02668664 -0.0038291165 -0.02498181 -0.0020617368
000090 da 35 ad 39 ff e0 6b 3d 4e b7 f2 ba 8c 65 e4 3c
       0.00033037254 0.05758762 -0.0018517764 0.027880453
0000a0 82 6f e3 ba dc 76 0e bc ab d5 b2 ba fe c7 31 ba
       -0.0017351958 -0.0086953305 -0.0013644 -0.00067818153
0000b0 6a 8c 83 bb 53 c1 6f 3b 30 03 e7 bb f2 2f ad bc
       -0.0040145414 0.0036583736 -0.0070499405 -0.021141026
0000c0 18 8d 83 bb a6 2d b3 3c 4e 16 cd 39 d3 98 e8 bb
       -0.0040146224 0.021872353 0.00039117265 -0.007098296
0000d0 ac 0e c3 38 db f9 2f bc
       9.3010574e-05 -0.0107407225

motion_mlp.mlps.2.fc0.fc.weight f4 [50, 50]
000000 15 29 be bc 5c a1 3c bc 9d cb e2 3b ef be 01 bd
       -0.023212949 -0.01151308 0.0069212453 -0.03167623
000010 08 bf 51 3b 81 d9 9e 3b d6 a6 ce bc 0f 94 8e bc
       0.0032004733 0.004847706 -0.025226038 -0.017404584
000020 28 5a 90 3c 47 fe 7f bc 1a 06 06 bc 7b 62 d5 3b
       0.017621115 -0.015624589 -0.008180166 0.006511984
000030 c5 f4 76 bc bc 7b 96 b9 7c ed c2 ba 0c 39 8a bd
       -0.015073006 -0.0002870242 -0.0014871801 -0.06749162
000040 99 3c 23 bb 20 55 02 bd e4 9c 4b bc 1e 46 60 3d
       -0.0024907945 -0.031819463 -0.012427542 0.05475437
000050 f6 c1 f7 bc e3 0e 81 bc 75 93 b4 bc 5e 4c d1 bc
       -0.030243855 -0.015754169 -0.02204297 -0.02554911
000060 ae 56 15 3d 98 30 e8 bb e9 4d 9d bc 79 ee e4 3c
       0.036459617 -0.007085871 -0.01920219 0.027945744
000070 81 81 bf bc 39 01 09 bc df 2c b2 3b 94 54 c3 bc
       -0.023377182 -0.008362108 0.005437478 -0.02384404
000080 0b 8f a1 bc 6c d3 52 bc 71 40 08 bd 33 49 a4 bc
       -0.019721529 -0.01286779 -0.03326458 -0.020054435
000090 4a f3 4a bd a4 27 b0 bc 6a 08 8c bc 62 53 81 bc
       -0.049548425 -0.021503277 -0.017093856 -0.01578683
0000a0 cb 64 59 3c 32 97 f6 bb 47 d6 99 3c 32 8c 86 bc
       0.01326866 -0.007525348 0.018778933 -0.016424272
0000b0 59 2b 11 bb 42 c6 47 bb b4 6d cb 3c 1e 0b d5 bc
       -0.0022151081 -0.003048316 0.024832584 -0.026006278
0000c0 e4 4a f1 3c c3 88 29 bc 4f d3 97 ba 39 36 40 bb
       0.029454656 -0.010347548 -0.0011583361 -0.0029329194
0000d0 da 09 c3 3a 7a d8 b5 bc 20 33 88 bc 3d 49 3b bc
       0.0014880255 -0.02219795 -0.01662594 -0.011431036
0000e0 4a 6f d1 bc b5 37 1a bd a2 0d eb 39 08 e3 b8 bc
       -0.025565762 -0.037650783 0.0004483285 -0.022569194
0000f0 ce 0a 26 bc e1 08 df ba af 9b 68 bd 35 7f 8d 3c
       -0.010134412 -0.0017016196 -0.056789096 0.017272571
000100 bf 61 06 bd d1 0c 07 bd e0 ae 02 bc 31 fe 8c bb
       -0.03280806 -0.032971207 -0.007976264 -0.004302763
000110 b9 c6 0b ba 52 c5 d6 3c 37 83 8c bc 05 34 58 bb
       -0.0005332041 0.026217137 -0.017152412 -0.003298999
000120 38 34 b9 bc a8 b2 9b 3c 00 2d 64 bc ec f8 5d bc
       -0.022607908 0.019006088 -0.013926744 -0.013548117
000130 b9 21 f0 bc 37 27 67 bb c5 6e 06 bd 44 5e c8 bc
       -0.029312955 -0.0035271177 -0.03282048 -0.024459012
000140 c2 23 0d ba 6c cf 15 3c 08 a5 c5 bc 99 87 e4 3b
       -0.00053840515 0.0091436915 -0.024126545 0.0069741723
000150 37 e5 41 bc cd 6e 24 bc 40 df ee bc 82 d5 62 3c
       -0.011834434 -0.010036183 -0.029159188 0.01384485
000160 a7 56 81 bc ef 62 f7 bb 83 44 15 bc 33 5b a3 3c
       -0.01578839 -0.0075496356 -0.009110573 0.019940948
000170 61 5b 49 bc 30 4c 7e bb 0b 7c c9 38 04 ce 55 bb
       -0.012289853 -0.0038802736 9.607532e-05 -0.0032624016
000180 e5 be 7f bc e0 9d 3a bc ac 04 cf 3c d8 c8 54 bc
       -0.015609478 -0.011390179 0.025270782 -0.012987338
000190 87 2d 34 b9 42 17 39 bc fe 04 22 3c 07 33 16 bc
       -0.00017183098 -0.011297049 0.009888886 -0.009167439
0001a0 53 9c 41 bc 22 c7 34 3d ed 1e 4a bd 70 2c 62 3b
       -0.011817056 0.04413522 -0.0493459 0.003451135
0001b0 17 31 34 bb ff 18 69 3c 26 38 e3 bc 1e 85 08 3b
       -0.002749508 0.014227151 -0.027736735 0.0020831297
0001c0 15 46 08 3c d6 b6 57 3c 79 dd 8f bb a0 04 0f bd
       0.00831749 0.01316615 -0.0043904153 -0.03491652
0001d0 b0 05 1b bc ea 5e 9f bb a1 fc 18 3c 49 30 4e 3c
       -0.009461805 -0.0048636096 0.009337575 0.012584754
0001e0 d1 92 c2 bd c9 72 69 bc 72 67 03 bd 71 cd c5 bb
       -0.09500659 -0.014248558 -0.032081075 -0.0060364534
0001f0 9d d8 21 bc 3d 66 61 bc ba b1 18 bb 7e fd 0c 3c
       -0.009878305 -0.013757286 -0.0023299293 0.008605359
000200 8d f6 e3 bb 1f 0e 1d 3c d0 e4 d6 bb a9 38 e4 bb
       -0.0069568814 0.009585886 -0.0065580383 -0.006964762
000210 a8 e8 4c 3c 65 b5 62 3b a3 52 25 3d 2e 05 49 bd
       0.012506641 0.0034592983 0.04036201 -0.049077205
000220 15 8b ac bc fa b6 13 3c cd 15 40 bd 3f 5b 01 3e
       -0.021062413 0.009015793 -0.04689579 0.12632464
000230 25 38 78 bc c2 82 72 3c 02 0c 72 3c d6 d9 cd 3c
       -0.015150105 0.014801683 0.014773371 0.025128286
000240 4c 49 f5 3a 2a 42 ff 3c 03 7c 3c 3c 39 6b 72 3b
       0.0018713861 0.03115948 0.011504176 0.003699018
000250 ca af c1 3b 20 6e fb 3c 3a 1e 9c 3c 20 c6 e7 3c
       0.0059108483 0.03069216 0.019057382 0.028292716
000260 2f cd 97 3c 89 32 6d bd 3b 11 d6 bc 8f 83 6e bc
       0.018530456 -0.057909522 -0.026131263 -0.014557733
000270 d1 0d 88 3c 8a 68 ec bb ff 44 8a 3c bc 5a 64 3b
       0.01660815 -0.0072146105 0.016878603 0.003484412
000280 66 ea d3 3c 66 fb 31 ba bd d8 ce bc 18 00 01 bc
       0.025868606 -0.00067894754 -0.025249833 -0.0078735575
000290 96 4a 4b 3c 52 e8 29 3c 34 4b 43 3c 6d 22 54 bb
       0.012407919 0.010370331 0.011919785 -0.0032369152
0002a0 0a f7 9f 3c 06 b4 8f 3c 02 58 92 3a 43 2b df bb
       0.019526977 0.017541897 0.0011165144 -0.006810577
0002b0 8b fb 91 bc f3 63 72 3d 45 26 c4 bc 4d 85 8a 3c
       -0.01782014 0.05917735 -0.02394403 0.016909266
0002c0 5d 01 11 3d 9a 58 c7 39 55 91 c8 3b b3 4d f2 3c
       0.03540169 0.0003802225 0.0061208406 0.029578065
0002d0 8d 0b 21 3d 7c 49 d6 bb 05 6f f0 3c b3 7e 93 bb
       0.039317656 -0.0065395217 0.029349813 -0.0045011877
0002e0 a1 3c 48 3c 68 03 1e ba 8e a0 c4 3c 74 87 3a 39
       0.012221486 -0.0006027729 0.02400234 0.00017788803
0002f0 e3 5c e1 3c 3e 6b 49 3c 8e 0a 91 bc ea 63 dc bb
       0.027510112 0.012293635 -0.017705228 -0.006725778
000300 35 be 29 bc b6 06 34 3c 2a 35 bd bb f9 f6 fd bc
       -0.01036029 0.010987928 -0.00577416 -0.031001555
000310 ef 70 06 3d af 14 f8 3b ae 1f d9 ba 48 8a 3c 3c
       0.032822546 0.007570825 -0.0016565227 0.011507578
000320 1a ac 77 3c 12 09 bf 3c 25 3b 32 bb 9b 12 9a 3c
       0.015116716 0.023319755 -0.0027195897 0.0188077
000330 6f 10 35 bd 3e 79 31 bd 9d 41 b7 b9 8d c6 37 bc
       -0.044205125 -0.043328516 -0.00034953366 -0.011216772
000340 bb 7b 27 3c a5 a2 93 bc f5 42 39 bc c9 ed 50 bc
       0.010222371 -0.01802189 -0.011307468 -0.012752005
000350 09 5b 36 3d fa 6d 76 3b 76 b9 fd bb 56 64 34 3c
       0.04452041 0.0037602172 -0.007743056 0.01101025
000360 66 f4 94 3c 9e 72 15 bd 30 fb 85 bc 40 c0 a2 3c
       0.018182945 -0.03648626 -0.016355127 0.019867063
000370 1a d1 a7 bc 8f 4d 2d 3c da d5 36 bd 96 43 69 bc
       -0.02048545 0.010577573 -0.04463754 -0.014237305
000380 36 da e1 3c d1 96 39 3b d3 0f 5e 3c 9d f8 ce 3c
       0.027569871 0.0028318653 0.0135535775 0.025265032
000390 75 16 1c 3c 3c e4 1c bc 00 08 78 3b c1 b3 69 3d
       0.009526839 -0.0095759 0.0037846565 0.057056192
0003a0 f4 9c ac 3c ee 5b 07 3b df 55 82 3b 2b dc 24 bd
       0.021070935 0.002065416 0.003977522 -0.04024903
0003b0 06 b3 69 bc 54 0f 90 bc 44 59 39 3c ab 1e 74 3c
       -0.014263874 -0.017585434 0.0113127865 0.01489989
0003c0 82 6a 53 bc b4 36 ee bc 17 cf 80 bb 0d 46 ba 3c
       -0.012903811 -0.029078819 -0.003930937 0.022738481
0003d0 f5 2b 6b 3c ca df 44 bb ce 16 c8 bc a5 20 b7 bc
       0.014353742 -0.0030040615 -0.024424937 -0.022354433
0003e0 f5 59 23 ba 1b c4 74 bb 52 79 f6 bb 16 26 33 bd
       -0.0006231361 -0.0037348333 -0.0075217867 -0.043737493
0003f0 87 1c 09 bb c6 9c 88 3c e5 a4 47 3c e5 3e 09 bd
       -0.0020921545 0.016676318 0.01218531 -0.033507247

motion_mlp.mlps.2.fc0.fc.bias f4 [50]
000000 74 c7 19 36 ba 2d 39 b6 2b db ad b4 b3 ff 0e b6
       2.2914874e-06 -2.7593765e-06 -3.2383227e-07 -2.1308485e-06
000010 a9 07 2d 35 3e 32 25 b6 c7 b5 0c b7 d8 51 88 36
       6.445867e-07 -2.461616e-06 -8.386974e-06 4.0626437e-06
000020 ca 9e 32 36 35 0e 5b 36 04 0f 3b 36 a5 44 85 b6
       2.6616494e-06 3.2641813e-06 2.7873912e-06 -3.9717e-06
000030 b6 3e 42 36 b8 3b 5a b5 fe 21 58 b6 41 48 25 36
       2.8944755e-06 -8.129823e-07 -3.2206294e-06 2.4628973e-06
000040 d5 83 c2 b5 89 f8 f2 b5 82 59 1d b6 4a c5 1b b6
       -1.4492495e-06 -1.8102738e-06 -2.3446923e-06 -2.3211637e-06
000050 43 0a 89 b5 b0 aa 65 b6 87 f9 c6 36 3c c8 00 36
       -1.0210282e-06 -3.4223012e-06 5.9299086e-06 1.9190038e-06
000060 66 40 f9 36 fb e1 01 b6 eb e6 bd b5 33 5b 8e 36
       7.4282752e-06 -1.9354036e-06 -1.4148803e-06 4.2425468e-06
000070 2a ca 34 b6 6e 45 fb b5 74 b9 db 33 04 cb a2 36
       -2.6939765e-06 -1.8721164e-06 1.0231716e-07 4.8516104e-06
000080 d3 5a 1c 36 0c b3 07 b6 90 2b 0e b6 8f 70 04 36
       2.3298678e-06 -2.0220787e-06 -2.1185006e-06 1.973505e-06
000090 72 47 ae b6 c7 33 3b b5 ec 47 97 b6 da 7e f5 b5
       -5.1939214e-06 -6.9738275e-07 -4.5085235e-06 -1.8290841e-06
0000a0 cc f2 19 35 a6 eb 2e 36 13 bb 5f b5 e5 75 44 35
       5.735026e-07 2.6065186e-06 -8.33462e-07 7.318725e-07
0000b0 e7 c8 84 36 4b 14 67 b6 34 57 39 36 df 71 41 b6
       3.9572947e-06 -3.4433494e-06 2.7617907e-06 -2.8825523e-06
0000c0 9a 13 52 36 31 8f 35 35
       3.1303848e-06 6.7636125e-07

motion_mlp.mlps.2.norm0.alpha f4 [1, 54, 1]
000000 b4 dc 9f 3d 25 9a 84 3d 40 23 a1 3d ac c3 68 3d
       0.07805768 0.06474713 0.078680515 0.056827232
000010 f8 45 cb 3c 37 a0 50 3d 86 70 ee 3c 60 e2 33 3d
       0.024813637 0.050934043 0.02910639 0.04391706
000020 bd 52 31 3d fb 48 a5 3d 6e ff ae 3d 68 57 dc 3c
       0.043291796 0.080705605 0.08544813 0.026897147
000030 d0 9f 1d 3d de ab 33 3d d2 97 2f 3d 7f e3 4e 3d
       0.038482487 0.043865077 0.042869397 0.050509926
000040 4b ff 60 3d 5c df 1e 3d b9 d2 7d 3d 99 59 05 3e
       0.054930966 0.03878723 0.06196854 0.1302246
000050 47 40 0b 3d 08 2c 13 3d e4 1e 19 3d 94 8c ec 3c
       0.033996847 0.035930663 0.037382975 0.028875627
000060 64 df 8d 3d 6b d7 a1 3d 6b 77 13 3d 1b 38 1c 3d
       0.06927374 0.07902416 0.036002558 0.038139444
000070 79 88 f0 3c 53 1b 0c 3d 48 f2 10 3d 3e c9 43 3c
       0.02936195 0.034205746 0.035387307 0.011949835
000080 70 b9 08 3d b5 97 5e 3d 51 73 68 3d 0b af 3f 3d
       0.033379972 0.054343898 0.0567506 0.046797793
000090 6d 5a 06 3d ed fc 94 3d ee 63 1b 3d 10 98 b3 3d
       0.03280108 0.07274804 0.037937097 0.08769238
0000a0 9d 8a 36 3d 72 7a 3a 3d 3d e0 53 3d 27 7d 00 3d
       0.044565786 0.04552693 0.051727522 0.031369355
0000b0 54 b1 40 3d 96 2c 24 3d 2d 5c 02 3e a5 cc 4c 3d
       0.047044113 0.040081583 0.12730475 0.04999985
0000c0 fe 17 85 3d 7b 50 d2 3d 69 8f 0d 3d 9f 72 a3 3d
       0.06498717 0.10269257 0.034560595 0.079808466
0000d0 9a 94 f3 3c 45 ab 6e 3d
       0.029733945 0.058268804

motion_mlp.mlps.2.norm0.beta f4 [1, 54, 1]
000000 7b d1 99 bc 87 7d 22 bc 2a 21 43 3d 25 b9 5c bb
       -0.018776646 -0.009917623 0.04763905 -0.003367969
000010 1e 52 cc 39 96 5c 9b 3b dd a0 b4 3b 63 01 45 bb
       0.00038971094 0.0047412617 0.0055123405 -0.003006064
000020 3d b3 31 bc 5b 08 25 b9 22 4c 41 3d b0 6b 75 3a
       -0.010845956 -0.00015738739 0.047191747 0.0009362055
000030 1d 52 b7 39 2a f9 c1 3b 7e 3d db bb fc 7e b3 bb
       0.0003496566 0.0059195952 -0.00669068 -0.005477784
000040 5c dd 01 bc b9 f8 cf 37 9e 12 09 3c 2e 7b ba bc
       -0.007926311 2.4792143e-05 0.008366255 -0.022763815
000050 41 3d 92 3b 7c 56 98 3b d4 c7 44 bb 3f 96 5c bb
       0.0044628684 0.0046489816 -0.0030026333 -0.003365889
000060 3b 6d 5a bc dd 87 a0 ba f0 5f 26 bb f0 b5 30 bc
       -0.013331707 -0.0012247522 -0.0025386773 -0.010785565
000070 06 23 76 bc f1 1b 53 bb 72 2f a1 3b 9e e3 2c bc
       -0.015022999 -0.00322127 0.004918986 -0.010552315
000080 39 d9 98 3c e8 7c c5 3b 4c 2e d1 bc 23 01 fd bb
       0.018658267 0.006026853 -0.025534771 -0.007721083
000090 d8 fd 0f bb f8 11 69 3d bb c1 f8 bb 96 65 8e bc
       -0.002197137 0.056901902 -0.007591454 -0.017382424
0000a0 b6 a5 66 39 dd c6 d4 ba f9 e2 b2 3b 42 9b 39 3b
       0.00021996241 -0.0016233582 0.005459186 0.00283213
0000b0 ff 5c 44 ba 86 0a a0 bb 33 3f c0 3b 19 68 93 3c
       -0.0007490664 -0.004884067 0.005866909 0.017993974
0000c0 f6 0c 92 b9 82 06 93 bc a7 5b 9b bb 07 c9 70 bc
       -0.00027856947 -0.01794744 -0.0047411504 -0.014696366
0000d0 64 a6 38 3a 1d 4d 92 bb
       0.0007043837 -0.004464759

motion_mlp.mlps.3.fc0.fc.weight f4 [50, 50]
000000 e1 84 db bb ca b5 ff bc be 94 63 3d b8 ec 82 bc
       -0.00669919 -0.031214613 0.055561773 -0.015982017
000010 c7 04 30 3b d5 2e 43 bb ae 64 11 3d 6d f6 9c 3b
       0.0026858316 -0.0029782553 0.035496406 0.0047901184
000020 28 80 ff 3c 86 63 b1 bb 26 46 d3 3b c9 84 bd bc
       0.03118904 -0.0054134754 0.0064475713 -0.023134606
000030 6b b0 96 3a fb 9c 62 bb c9 da 42 bb d3 82 0b 3d
       0.0011496668 -0.003457843 -0.0029732457 0.03406031
000040 da f8 11 3c ce 3e 66 3c e2 14 ce ba 5d e2 0d bc
       0.0089094285 0.01405306 -0.0015722776 -0.008659926
000050 12 ec fc bc b9 a3 32 bc 4e 45 fd bc c0 6f db bb
       -0.030874286 -0.010903292 -0.030916836 -0.0066966712
000060 31 fa 0b 3d af ff 93 3c fd 03 b4 3b d8 ac c7 37
       0.034174148 0.018066255 0.0054936395 2.3803135e-05
000070 db 9c eb ba f4 07 9e 3c 13 90 ac bb b7 91 1d 3a
       -0.0017975824 0.019290902 -0.0052661984 0.0006010788
000080 e4 d6 f4 3b 6b d9 a3 3b 24 fb 9b 3c 77 a7 87 bd
       0.007471906 0.0050002835 0.019040652 -0.06623738
000090 4b a5 65 bc f4 16 41 3c df 7a 1d bd e4 06 3a 3d
       -0.01401646 0.011785258 -0.038447257 0.045416728
0000a0 12 ba ae 3b 7f 29 b8 3c bb 59 72 3c 9c b9 00 3d
       0.00533224 0.022480724 0.014791901 0.03142701
0000b0 01 f4 a4 bc e1 c0 87 bc 89 2a b6 bc 19 d1 08 3c
       -0.020135881 -0.016571464 -0.02223708 0.008350634
0000c0 f2 e3 a6 bc 55 87 42 bb 25 b9 15 bc fa a8 7e bd
       -0.020372365 -0.0029682715 -0.00913838 -0.062172867
0000d0 6e ce 02 ba 0c 5e f9 bc dc f7 e6 3c 57 74 ab 3b
       -0.0004989867 -0.030440353 0.02819436 0.0052323746
0000e0 20 7e 80 3c d7 31 9e bc 9d 92 66 ba 48 7d ca bc
       0.015685141 -0.019310875 -0.0008795651 -0.024717942
0000f0 b5 c6 47 3c 6c b4 19 3d 36 cc 30 3b d5 0a 08 3c
       0.012193372 0.03752558 0.0026977188 0.008303364
000100 1f 34 36 bc 56 f1 a6 3c 7e 27 c8 ba e4 ea d6 3b
       -0.011120825 0.02037875 -0.0015270559 0.006558763
000110 dc 86 19 bc 08 88 ab 3c e5 7c 1b 3c 85 37 cc bc
       -0.009370532 0.020938888 0.009490226 -0.024928818
000120 11 20 ae bc ae 7e 56 3d fa de fb bc 62 80 42 3c
       -0.021255525 0.052366905 -0.030745972 0.011871429
000130 27 dc c0 bc 8d 1b a4 3a a2 c6 45 bb bb a6 06 3c
       -0.023542477 0.0012520418 -0.0030178209 0.008218463
000140 fb 67 39 bd 8c ad 32 bd e2 eb 9c 3c 40 42 c7 bc
       -0.04526518 -0.04362254 0.019155446 -0.024323583
000150 bc 92 f8 ba 53 48 8b bc 7d 5f bb bc 6c 92 b1 bc
       -0.0018964629 -0.01700226 -0.02287268 -0.021676265
000160 20 70 f3 3b e6 65 7d bc 53 be 1f bc 2e 1b ab bc
       0.007429138 -0.015466189 -0.009749967 -0.020886984
000170 63 4e 32 bb e4 b6 b1 bb e3 7f ac bc 7f b4 aa bc
       -0.0027207367 -0.0054234136 -0.021057075 -0.02083802
000180 7e 57 b2 3c 0d dc dd bc 89 fb 80 3c f8 f9 3f bc
       0.021770235 -0.027082467 0.015744941 -0.011717312
000190 19 3d 3d ba 35 89 31 3b e6 b4 7c bd 41 4a f5 3b
       -0.0007218882 0.0027089838 -0.061695956 0.0074856584
0001a0 62 30 bb bb 5e 94 a9 3c 74 ca fc 3c 58 42 36 bd
       -0.005712555 0.02070063 0.030858256 -0.044496864
0001b0 6a d3 16 bc c4 ec a2 bc 10 2c 78 3b 2a 22 77 3c
       -0.0092056785 -0.01988829 0.003786806 0.015083829
0001c0 3b 02 c7 ba 45 3c 39 bd c3 9c da ba fa 16 ba bc
       -0.001518316 -0.045223493 -0.0016678799 -0.022716034
0001d0 6e a2 37 ba c6 cb 10 bd 2d 2b 68 3c 77 83 f4 bc
       -0.00070051 -0.035350583 0.01417045 -0.029847844
0001e0 d2 2d 0a bd 95 da 68 bc 95 98 c3 bb 26 cf 01 bd
       -0.033735104 -0.01421227 -0.005969117 -0.031691693
0001f0 2d ff b8 ba 5e 40 bf bc ce 73 4a 3d 0f 5f b6 3b
       -0.0014114134 -0.023346122 0.049426846 0.005565531
000200 c0 c4 91 bc c3 43 b8 bb 86 14 21 3d 15 a7 29 3c
       -0.017794013 -0.005623312 0.039326213 0.010354777
000210 15 29 c4 bc 75 46 66 3b a9 71 5e bc d4 fd 33 bc
       -0.02394537 0.003513721 -0.013576903 -0.01098581
000220 3a 38 ba bb 30 95 e7 ba b5 35 0f 3d df 5d 36 3c
       -0.0056829723 -0.0017668363 0.03496333 0.011130779
000230 50 86 a5 bc 3b 47 72 3b 01 34 87 bc 7f 68 8b bb
       -0.020205647 0.0036968726 -0.01650429 -0.0042544003
000240 1e 6d a9 3b 45 a1 ae bc 73 c7 96 bb 52 1c 2a bd
       0.0051704785 -0.021317134 -0.004601413 -0.041530915
000250 92 d6 6d 3a b6 2e b2 3c c5 c1 bf bb 31 b2 73 3c
       0.0009072806 0.02175079 -0.0058519566 0.014874027
000260 84 4e 9c bc 90 86 d6 3b 68 98 ba 3c 6c 43 6d bb
       -0.019080408 0.006546803 0.022777751 -0.0036203517
000270 cf 6f 54 bd c2 b4 8e 3c ca d5 16 bc a8 f3 79 3c
       -0.05186444 0.017420176 -0.009206245 0.015255846
000280 5e db 08 3c ea 2d 84 bc 68 54 bc 3c 7d 2e 8d bc
       0.008353082 -0.016135175 0.022989467 -0.017234081
000290 fb 14 5a bc 7d ab c8 bc 72 16 2a bb cf 72 06 3b
       -0.013310666 -0.024495834 -0.002595332 0.0020515209
0002a0 0a 8c 4f 3b b3 df d1 bc 6e 59 9e bc 76 fa d0 3b
       0.0031669163 -0.025619363 -0.019329753 0.0063775135
0002b0 11 51 bc 3c 03 df a7 bc e0 3d 98 3c 78 39 37 3c
       0.022987874 -0.020492082 0.018584192 0.011183135
0002c0 93 35 2d bb 80 96 90 bd 43 f2 b1 3c 3d 4b 09 3d
       -0.0026429638 -0.070599556 0.021721965 0.03351902
0002d0 95 12 a5 3a 43 85 fc 3c c2 d9 31 bc 20 88 cd 3c
       0.0012594039 0.030825263 -0.01085514 0.025089324
0002e0 0d 2b 80 3c 45 43 ac 3c ca 14 ce 3c 97 55 8b 3c
       0.015645528 0.02102817 0.025156397 0.017008586
0002f0 c2 28 4c bd 45 bc 12 3b 1a 1a 36 3c 32 bd 7c bc
       -0.049843557 0.002239005 0.011114622 -0.015425967
000300 e4 c7 37 bc 4b 12 fd bc 42 7d 49 bc a9 49 42 bc
       -0.011217091 -0.030892512 -0.01229793 -0.011858382
000310 d7 24 15 3d 9e e1 f8 bb 86 2d 1b bc e4 d8 cd 39
       0.036412086 -0.007595255 -0.009471303 0.00039262243
000320 33 2a 78 3c b3 ca 9d bc 8c e9 9a bc 0a bf 1a bc
       0.01514678 -0.019261694 -0.018910192 -0.009444961
000330 a6 ca 2c 3d cb ce 55 bd ae 30 64 3d 9b 42 ad 3c
       0.042185448 -0.052199166 0.055710487 0.021149924
000340 56 33 5c bd e4 9a 96 bc 4a 39 07 bb 46 c0 e0 bc
       -0.053759895 -0.018384404 -0.0020633512 -0.027435433
000350 58 4b fa bc e1 ef 66 3c a3 38 e8 bb 5f 4f 82 3c
       -0.030553505 0.0140952775 -0.0070868297 0.015906988
000360 eb cb 2b 3d df 81 82 bc 77 c4 99 3b 27 d6 d5 3c
       0.04194252 -0.015931068 0.00469261 0.026103092
000370 86 33 0d 3d 61 db 8d bc 85 84 1e bc 29 9c 31 3c
       0.034472965 -0.017316522 -0.00967515 0.010840454
000380 95 02 cc 3c a5 80 8d bc 70 81 82 bb e5 eb 56 3c
       0.024903575 -0.017273257 -0.0039827153 0.013117765
000390 86 77 24 bc 99 44 f7 bc e6 d3 fd bc 5f 35 32 3b
       -0.010038262 -0.030184077 -0.03098483 0.0027192456
0003a0 b3 d3 ab bc c0 9b 1d bd 5f 29 9b 3c 97 99 0b 3a
       -0.02097497 -0.038478613 0.018940626 0.0005325316
0003b0 fa c6 c3 bc 36 2d 52 3c 06 d6 4f 3b e7 75 d4 3c
       -0.02389859 0.012828162 0.0031713261 0.025935126
0003c0 2c df 2d 3c 84 27 3d 3d 39 fc b9 ba 49 ec 3d bc
       0.01061229 0.046180263 -0.0014189548 -0.011591979
0003d0 af 67 01 bc 4b d0 b3 ba 0d 00 fe bb 97 58 ed 3c
       -0.007898255 -0.0013718692 -0.007751471 0.028972907
0003e0 39 cb e2 3b 7d 14 88 bc 31 56 90 3c f0 d0 c8 bc
       0.0069211987 -0.016611332 0.017619224 -0.024513692
0003f0 84 84 34 bb 36 f4 90 bb cb f7 b8 bc 4f c8 e2 bc
       -0.0027544806 -0.0044236435 -0.022579094 -0.027683405

motion_mlp.mlps.3.fc0.fc.bias f4 [50]
000000 3c a6 85 b6 56 f1 68 36 7e b1 38 b3 d8 cc 54 35
       -3.983061e-06 3.471117e-06 -4.3002267e-08 7.927424e-07
000010 a9 d0 5a b6 70 0e 6c b6 90 97 c2 b4 ce 52 76 b6
       -3.2605988e-06 -3.5175144e-06 -3.6245592e-07 -3.6705055e-06
000020 1e 98 98 36 f2 3e c0 35 fd 08 f5 35 ed 59 35 b6
       4.547662e-06 1.4323434e-06 1.8256538e-06 -2.7023445e-06
000030 c0 7b e6 b5 94 7d ad b5 5b a2 b0 35 03 8d b5 35
       -1.7172351e-06 -1.2926052e-06 1.3160274e-06 1.3526591e-06
000040 23 08 7f 36 c7 c6 77 35 93 84 5d b5 84 a8 57 36
       3.8002697e-06 9.230393e-07 -8.2521836e-07 3.2135586e-06
000050 fa bd 95 36 bd bd 01 37 b6 29 c8 b5 97 a2 b6 35
       4.462662e-06 7.733176e-06 -1.4913301e-06 1.3607377e-06
000060 0a 26 bd 35 16 6c 0d b7 5b 13 7c b6 c6 e6 5f b6
       1.4092668e-06 -8.429421e-06 -3.7562193e-06 -3.3363917e-06
000070 e9 f1 6a 35 e6 32 6e b6 28 ae 08 36 d7 1b d2 35
       8.752382e-07 -3.549439e-06 2.0366952e-06 1.5654322e-06
000080 34 7f 82 b6 fd 7f 6f 36 40 3c 71 36 8a ea ed 35
       -3.8891103e-06 3.5688274e-06 3.5946869e-06 1.7726136e-06
000090 9e 91 b9 35 36 38 ff 36 6f a7 07 b6 7f 2e 8f 36
       1.3825954e-06 7.606136e-06 -2.0214027e-06 4.267145e-06
0000a0 02 74 52 b6 9a 03 81 b5 2c 05 12 35 ff b1 cf b6
       -3.1359964e-06 -9.612297e-07 5.4396764e-07 -6.189802e-06
0000b0 cb e6 13 b5 ef 37 30 b5 cb a6 76 35 50 4e 92 35
       -5.5097615e-07 -6.5646503e-07 9.1884857e-07 1.090064e-06
0000c0 5f fd d4 b6 dd 46 28 36
       -6.3475886e-06 2.5075199e-06

motion_mlp.mlps.3.norm0.alpha f4 [1, 54, 1]
000000 23 ab 91 3d 01 17 a7 3d 88 db ed 3d c6 8f 4d 3d
       0.0711272 0.081586845 0.11614138 0.05018594
000010 01 ae 29 3d d1 65 41 3d 88 45 c0 3c 68 1e 2a 3d
       0.04142571 0.04721624 0.023470655 0.041532904
000020 39 fe 3e 3d 99 10 97 3d f3 5d 01 3e c5 69 23 3d
       0.046629164 0.073762126 0.12633495 0.03989579
000030 6c 77 61 3d b1 96 5e 3d f0 61 83 3d e8 44 6d 3d
       0.05504553 0.05434293 0.064151645 0.057927042
000040 bc 7c 67 3d e5 03 2f 3d c9 73 52 3d 20 bc 35 3c
       0.05651544 0.042728323 0.051379953 0.011092216
000050 d3 c3 67 3d ac e1 61 3d 70 8e 3f 3d 77 2d 51 3d
       0.056583237 0.055146858 0.0467667 0.05106875
000060 48 15 98 3d a8 1a dd 3d 72 e4 47 3d de 75 63 3d
       0.07425934 0.107961 0.048801847 0.05553233
000070 d8 5b 94 3c 85 f7 72 3d ed c6 da 3c e7 f6 98 3c
       0.0181102 0.059318084 0.026706183 0.01867242
000080 70 e0 6f 3d 23 a9 9d 3c 67 04 de 3d ba d0 55 3d
       0.05856365 0.01924569 0.108406834 0.05220101
000090 2a 96 c3 3c c2 35 c2 3d 70 b9 83 3d 8e 16 a0 3d
       0.023875315 0.0948291 0.06431854 0.07816802
0000a0 1f c9 99 3d d5 b2 8d 3d 8d 41 58 3d 86 f2 89 3d
       0.07509064 0.06918875 0.05279689 0.06735711
0000b0 c5 6f 2e 3d 67 5c 43 3c 36 f5 81 3c 7e e3 4c 3d
       0.04258706 0.011923886 0.015863996 0.05002164
0000c0 ee b2 7e 3d b6 8e 09 3e bd 63 2f 3d 09 50 bd 3d
       0.06218236 0.13433346 0.042819727 0.09243781
0000d0 d2 1c 81 3d d7 a7 e1 3c
       0.06304325 0.027545853

motion_mlp.mlps.3.norm0.beta f4 [1, 54, 1]
000000 83 2f 4f 3c 9b 6b 16 3b bc ed e7 3c 36 86 df 3a
       0.012645605 0.0022952321 0.028311603 0.0017053548
000010 85 41 9f bb 10 fe a9 3a be d8 e0 ba 2c 55 95 3b
       -0.0048601055 0.0012969393 -0.0017154438 0.0045572724
000020 b8 bf 15 bb 82 cd a6 bb 24 88 54 bb d1 f2 38 bb
       -0.002284987 -0.0050904164 -0.003242978 -0.0028220902
000030 40 8f 95 bb 35 73 7b bb 7c 3d 3c 3a d4 ba 63 3b
       -0.004564196 -0.003836823 0.0007180793 0.003474881
000040 bf 57 ff bb f8 e9 bb 39 26 df 67 bb dd a5 a9 3c
       -0.0077924426 0.0003584174 -0.003538081 0.020708973
000050 84 f1 3c bb 5e 0d ef bb cf 33 09 3b 7f f6 cb 3a
       -0.0028830478 -0.0072952947 0.0020935421 0.0015561132
000060 15 fd ba bc 67 16 c0 bb d7 e1 b4 bb 5f c4 64 ba
       -0.022825757 -0.0058620456 -0.0055200863 -0.00087267713
000070 78 38 45 3c d5 b3 92 bb cc b0 e0 bb d5 b8 4a bb
       0.012037389 -0.004477004 -0.0068570133 -0.0030932922
000080 7b cb 4d 3c 0b 99 63 bb ad 95 0e 3d 13 62 82 3a
       0.012560721 -0.0034728672 0.03481071 0.0009947441
000090 47 cd 35 3b a7 d3 05 3d de ff ec 3a 72 40 54 3b
       0.0027740763 0.03267255 0.0018081625 0.0032387045
0000a0 85 83 9c bb 59 d5 90 bb 12 70 27 bc 8e 6c 81 bb
       -0.0047764205 -0.0044199643 -0.010219591 -0.0039497083
0000b0 21 70 c4 bb 84 cf a0 bb a9 d3 9d 3b 99 85 7c bb
       -0.005994812 -0.0049075503 0.0048164916 -0.003853178
0000c0 03 98 9d bb 5e 22 e4 bc af 81 73 3b 45 76 ac 3c
       -0.004809381 -0.027848419 0.0037156155 0.021052489
0000d0 09 4c b6 38 f3 37 c1 ba
       8.692599e-05 -0.0014741406
