src/siMLPe/exps/baseline_amass/log/snapshot/model-iter-45000.pth (torch, 604338 bytes, 196 tensors)

motion_mlp.mlps.0.fc0.fc.weight f4 [50, 50]
0	0xbd0846d9	-0.03327069
1	0xbda4ca5d	-0.0804641
2	0x3d04dcb4	0.03243704
3	0xbd343d92	-0.04400403
4	0x3c9a0a5e	0.018803772
5	0xbc887f10	-0.01666215
6	0x3cd61a88	0.026135698
7	0xbd01259b	-0.031530004
8	0xbb7732c5	-0.003771947
9	0xbccbdd59	-0.02488582
10	0xbbf53601	-0.0074832444
11	0xbcba14cd	-0.022714997
12	0xbaab95fb	-0.0013090962
13	0xbcab3a2e	-0.020901766
14	0xbc40aaca	-0.011759469
15	0xbccb8385	-0.024842987
16	0xbc6042cb	-0.0136878
17	0xbca96345	-0.020677218
18	0xbbe6963f	-0.0070369537
19	0xbccc1bbe	-0.024915572
20	0xbc4479de	-0.011991946
21	0xbc9fe094	-0.019516267
22	0xbc48bb9f	-0.012251764
23	0xbcefc106	-0.029266845
24	0xbbd389de	-0.006455644
25	0xbcc5acc5	-0.024130234
26	0xbc45ed76	-0.012080541
27	0xbc991c99	-0.018690394
28	0xbc37f512	-0.011227863
29	0xbc7a19af	-0.0152649125
30	0xbc866322	-0.016404692
31	0xbc2ba183	-0.010475519
32	0xbc69b5b4	-0.014264513
33	0xbbe81c77	-0.0070834714
34	0xbc8bf1eb	-0.017083129
35	0xbb80803b	-0.0039215363
36	0xbc8867be	-0.01665103
37	0xbb8d86c2	-0.004319043
38	0xbc7a0636	-0.01526027
39	0xbafb7794	-0.0019185417
40	0xbc5bb2d5	-0.013409336
41	0xb930648b	-0.00016822123
42	0xbc521202	-0.012821676
43	0xba18ef46	-0.00058339944
44	0xbc09c0c7	-0.008407778
45	0xba87aa6e	-0.0010350475
46	0xbbef9f56	-0.0073126955
47	0xbab76635	-0.0013992252
48	0xbbaecd9f	-0.0053345705
49	0xbb6a683e	-0.00357677
50	0x3c2e408e	0.010635508
51	0xbd17549f	-0.036945935
52	0x3a243abd	0.0006264856
53	0xbc194ce2	-0.009356709
54	0xbcc59d4a	-0.024122853
55	0xbc8f41a1	-0.017487349
56	0xbcfc2aeb	-0.030782184
57	0x3c226eb0	0.009914085
58	0xbc5d49f0	-0.013506398
59	0xbcdeeddd	-0.027213031
60	0x3881ec9e	6.195273e-05
61	0xbc93ded0	-0.018050581
62	0x3b2b2ad3	0.0026118055
63	0xbc422836	-0.011850407
64	0xbbe694dd	-0.007036789
65	0x3a2568db	0.0006309875
66	0xbc13b7c8	-0.009015985
67	0xbbc97a4d	-0.0061486126
68	0xbc06bee8	-0.008224227
69	0xbc099283	-0.0083967475
70	0xbbd297d1	-0.0064267893
71	0xbc352e43	-0.011058393
72	0xbbeebfb1	-0.007286035
73	0xbc43508d	-0.01192106
74	0xbbf11887	-0.00735766
75	0xbc71d06b	-0.014759163
76	0xbc373dae	-0.011184139
77	0xbc35c383	-0.011093977
78	0xbc0dd92e	-0.008657737
79	0xbc57ee77	-0.013179413
80	0xbc5a5ae0	-0.01332733
81	0xbc1ff03c	-0.009761866
82	0xbc7d8d57	-0.015475593
83	0xbc46077f	-0.012086748
84	0xbc77651d	-0.015099791
85	0xbc3129b8	-0.010813169
86	0xbc8f8fb0	-0.01752457
87	0xbc39c98d	-0.011339557
88	0xbc93d86c	-0.018047534
89	0xbc2e6049	-0.010643073
90	0xbc8b6551	-0.017016085
91	0xbc3e853d	-0.011628446
92	0xbc8fe87b	-0.01756691
93	0xbc4a06e2	-0.012330743
94	0xbc8d8b9f	-0.01727849
95	0xbc56acb5	-0.0131027
96	0xbc8239c2	-0.015896682
97	0xbc6362f0	-0.013878569
98	0xbc7e2bd9	-0.015513384
99	0xbc755cdf	-0.0149757555
100	0xbbb85269	-0.0056250584
101	0xbcf2aeef	-0.02962443
102	0x3cbee6a4	0.023303337
103	0xbc349c9b	-0.011023666
104	0xbb8a0424	-0.0042119194
105	0xbd041c2a	-0.03225342
106	0x3c6a7f0c	0.014312517
107	0x3b8845fb	0.004158733
108	0x3c743d8a	0.01490725
109	0xbc8bf016	-0.017082255
110	0x3ca39d90	0.019972593
111	0xbc5e05b5	-0.013551165
112	0x3ccef14c	0.025261544
113	0xbb88106f	-0.0041523497
114	0x3ce9fe35	0.028563598
115	0x3c611191	0.013737098
116	0x3cb7a8b7	0.022419317
117	0x3cbb2a48	0.02284731
118	0x3ceebd93	0.02914313
119	0x3c8e5811	0.017375978
120	0x3cdeb1fd	0.02718448
121	0x3c833498	0.01601629
122	0x3cd0cb2d	0.025487507
123	0x3c80485f	0.01565951
124	0x3cee416a	0.029083926
125	0x3c3817e8	0.011236168
126	0x3cbd7de8	0.023131326
127	0x3c715c65	0.014731501
128	0x3cbfdce6	0.023420762
129	0x3ca53933	0.020168876
130	0x3c8fb436	0.017541986
131	0x3cb462f8	0.022019848
132	0x3c955ac9	0.018231766
133	0x3cc79b76	0.024366122
134	0x3c622c57	0.013804517
135	0x3cd5584a	0.026043076
136	0x3c6c8fda	0.014438594
137	0x3cd43b74	0.025907256
138	0x3c6b8aa7	0.014376319
139	0x3cd3b8b6	0.025844913
140	0x3c65da7b	0.014029141
141	0x3cde1267	0.027108384
142	0x3c741825	0.014898335
143	0x3cd51dd2	0.026015196
144	0x3c8f56b5	0.0174974
145	0x3cc97b06	0.024594795
146	0x3c9d9cc2	0.019239787
147	0x3cc2a331	0.023759456
148	0x3ca8c978	0.02060388
149	0x3cb96c38	0.02263461
150	0xbc2fc3eb	-0.010727863
151	0x3ce841aa	0.028351624
152	0xbc9f3de9	-0.0194387
153	0x3cd37ce9	0.025816398
154	0xbcef69bb	-0.02922522
155	0x3cbe0946	0.023197781
156	0xbcb579a9	-0.022152739
157	0x3d4c33d7	0.049854126
158	0xbca9685d	-0.020679647
159	0x3d3b1a73	0.04567952
160	0xbc8ebd45	-0.017424235
161	0x3d1ad73e	0.037802927
162	0xbb284536	-0.0025676019
163	0x3cfba5cd	0.030718708
164	0xbb141d43	-0.002260045
165	0x3ce0ef25	0.027457783
166	0x3c39809c	0.011322167
167	0x3cf038fb	0.029324045
168	0x3c222768	0.0098970905
169	0x3d215ef4	0.039397195
170	0x3c5316eb	0.012883882
171	0x3d0870ab	0.033310574
172	0x3c833cf5	0.016020278
173	0x3cf407c4	0.02978886
174	0x3caaa0bb	0.020828595
175	0x3d00fdcb	0.031492036
176	0x3ca846f3	0.020541644
177	0x3cd55b42	0.026044492
178	0x3ca9c680	0.020724535
179	0x3cd0ee71	0.025504323
180	0x3cb9b612	0.022669826
181	0x3cc47bb7	0.023984773
182	0x3cae5d6c	0.021284781
183	0x3cb85b92	0.022504602
184	0x3cafa543	0.021441108
185	0x3cb05591	0.021525176
186	0x3c9e3c90	0.019315988
187	0x3cafff54	0.021484055
188	0x3c97aead	0.01851591
189	0x3ca7f398	0.020501897
190	0x3c9eed31	0.019400211
191	0x3c98b2fd	0.018640036
192	0x3c9db6f3	0.019252276
193	0x3c8eb2a5	0.017419169
194	0x3c8e9bbb	0.017408242
195	0x3c8b3880	0.016994715
196	0x3c8ac0d1	0.016937645
197	0x3c84eb67	0.01622553
198	0x3c8da120	0.017288744
199	0x3c88ea0d	0.016713167
200	0x3ad6efaf	0.0016398336
201	0xbccafb15	-0.024777928
202	0x3caf088a	0.021366376
203	0x3c5be77d	0.01342189
204	0xbd90b9e0	-0.07066703
205	0xbccd5ce1	-0.025068702
206	0xbc11a61e	-0.008889703
207	0xbcda0735	-0.026614765
208	0xbb9b8d3c	-0.004747061
209	0xbcc568ae	-0.024097767
210	0xbb6464dd	-0.0034850158
211	0xbca8ae03	-0.020590788
212	0xbd0afc83	-0.03393222
213	0xbcbbffc9	-0.022949116
214	0xbcd28520	-0.025698245
215	0xbc86077e	-0.016360994
216	0xbcaef23b	-0.021355739
217	0xbc6f7994	-0.014616389
218	0xbc595c68	-0.01326666
219	0xbaa411fe	-0.0012517569
220	0xbcab77f6	-0.020931225
221	0x3c071dd6	0.00824686
222	0xbc630057	-0.0138550615
223	0x3bd01403	0.006350042
224	0xbc535c1d	-0.0129003795
225	0x3c6115ce	0.013738109
226	0xbbddaab6	-0.006764735
227	0x3c55b97a	0.013044709
228	0xbb761774	-0.00375506
229	0x3c302991	0.010752098
230	0x3aa87656	0.001285265
231	0x3c279278	0.010227792
232	0x3b478000	0.0030441284
233	0x3c2d1766	0.010564661
234	0x3bb55f06	0.0055350093
235	0x3c215f4c	0.009849381
236	0x3c222aed	0.00989793
237	0x3c143168	0.0090449825
238	0x3c3565f7	0.011071674
239	0x3c23ec41	0.010005058
240	0x3c3e8727	0.0116289025
241	0x3c14a704	0.009073023
242	0x3c6582f2	0.014008271
243	0x3c3c9dfa	0.011512274
244	0x3c5f6064	0.013633821
245	0x3c25b258	0.010113321
246	0x3c6e1215	0.014530678
247	0x3c582701	0.013192893
248	0x3c4cdce7	0.012503839
249	0x3c6e3ef6	0.014541378
250	0x3b3e6e57	0.0029057467
251	0xbb15dec4	-0.0022868374
252	0x3c26170f	0.010137334
253	0x3bbb8141	0.0057221954
254	0xbb58be72	-0.0033072499
255	0xbcb57b49	-0.022153514

motion_mlp.mlps.0.fc0.fc.bias f4 [50]
0	0x35ca7973	1.5085519e-06
1	0x371e0943	9.41969e-06
2	0xb81abf4b	-3.6894617e-05
3	0xb7e618ed	-2.7429744e-05
4	0x38451043	4.6983605e-05
5	0xb731b5c0	-1.0592339e-05
6	0xb8437477	-4.660009e-05
7	0x34fc08b5	4.6944993e-07
8	0xb69b1d06	-4.6227387e-06
9	0x378e3451	1.695208e-05
10	0xb7d2eca0	-2.5144138e-05
11	0x37dc89b7	2.6290172e-05
12	0x380d1cdb	3.3643893e-05
13	0xb7ad545c	-2.066249e-05
14	0xb78bb492	-1.6654176e-05
15	0x37939dfa	1.759733e-05
16	0xb7ef9fbb	-2.85654e-05
17	0xb8725521	-5.777658e-05
18	0x37a2f01b	1.9423713e-05
19	0xb6da8c32	-6.513227e-06
20	0xb994b2f9	-0.00028362105
21	0xb77c8f26	-1.50537e-05
22	0x39bf6494	0.00036505295
23	0x382d63f9	4.133952e-05
24	0xb7c9893a	-2.4024968e-05
25	0xb7b50034	-2.1576976e-05
26	0x38d1e7f7	0.000100091034
27	0xb7966fe8	-1.7933504e-05
28	0xb7abd8df	-2.0485777e-05
29	0x35c92b54	1.4988277e-06
30	0x38ee394d	0.000113593975
31	0x38990143	7.2958435e-05
32	0x37e21bd4	2.6954258e-05
33	0xb58ef1ee	-1.0650235e-06
34	0xb63fa878	-2.855928e-06
35	0x38d26550	0.00010032451
36	0x39ce50c5	0.0003935156
37	0x37dd547c	2.6384594e-05
38	0xb4b75507	-3.4148272e-07
39	0xb5729731	-9.037204e-07
40	0xb81b19e2	-3.6978985e-05
41	0x36b0ee2e	5.2729365e-06
42	0xb7b185d4	-2.1162363e-05
43	0x3712682f	8.726535e-06
44	0x388390ab	6.273513e-05
45	0x37aae940	2.0374195e-05
46	0xb81b53e8	-3.7033024e-05
47	0x370138bd	7.70221e-06
48	0xb819b280	-3.6644284e-05
49	0x371ae07b	9.231381e-06

motion_mlp.mlps.0.norm0.alpha f4 [1, 54, 1]
0	0x3e15e3ce	0.14637682
1	0x3e0ff939	0.14059915
2	0x3e25aef0	0.16180015
3	0x3e0ea506	0.13930139
4	0x3e395752	0.18099716
5	0x3deef7f2	0.116683856
6	0x3e35dbb4	0.17759591
7	0x3e118fad	0.14214964
8	0x3e498045	0.19677837
9	0x3e5dc470	0.21656966
10	0x3e289101	0.16461565
11	0x3e4225ca	0.18959728
12	0x3e3c6df3	0.18401317
13	0x3e0ce329	0.1375853
14	0x3e18d6d3	0.14925699
15	0x3e40fa9c	0.188456
16	0x3e20e8e1	0.15713836
17	0x3e25c1f6	0.16187271
18	0x3e40d862	0.18832543
19	0x3e83bd99	0.2573059
20	0x3e3876f1	0.18014123
21	0x3e32adaf	0.17449068
22	0x3e4c6feb	0.19964568
23	0x3e34bfc4	0.17651278
24	0x3e1eebff	0.15519713
25	0x3e2ffd84	0.17186552
26	0x3e5341e8	0.2063061
27	0x3e2e5c76	0.17027459
28	0x3e67505e	0.22589251
29	0x3e308645	0.1723872
30	0x3e40f1b0	0.18842196
31	0xbb3818f1	-0.0028091038
32	0x3e218698	0.15774
33	0x3e12b220	0.14325762
34	0x3e28161d	0.16414686
35	0x3e1695f6	0.14705643
36	0x3e18f7b3	0.1493824
37	0x3e87a059	0.26489523
38	0x3e238f39	0.15972604
39	0x3e011da3	0.12608962
40	0x3e2d56c0	0.16927624
41	0x3e18f577	0.14937387
42	0x3e3c1d02	0.1837044
43	0x3e18c5aa	0.14919153
44	0x3e45fc49	0.1933452
45	0x3e31000f	0.17285179
46	0x3e8a0940	0.26960182
47	0x3e054106	0.13013086
48	0x3e090012	0.13378933
49	0x3e330ff1	0.1748655
50	0x3e48792e	0.19577476
51	0x3e0bcf10	0.13653207
52	0x3e484b68	0.19560015
53	0x3e4e924d	0.20172997

motion_mlp.mlps.0.norm0.beta f4 [1, 54, 1]
0	0xbaaa3739	-0.0012986428
1	0x3b0ca1ce	0.0021458748
2	0x3c23f689	0.010007509
3	0x3a915d2b	0.0011090388
4	0xba0ade6d	-0.0005297426
5	0x374630ba	1.1813065e-05
6	0x3a17c281	0.0005789176
7	0x3a4d6be9	0.0007836209
8	0xb97d1ae3	-0.00024137976
9	0xba8c7e3f	-0.0010718777
10	0x3bd8a396	0.006611298
11	0x3ab2e289	0.0013647835
12	0xb953c270	-0.00020194962
13	0xbb254a39	-0.0025221242
14	0xba1cf96b	-0.0005988094
15	0x3b33626d	0.0027371899
16	0x3b08d223	0.0020877204
17	0xba989a43	-0.0011642653
18	0x3a1b7f69	0.00059317664
19	0x3acbf614	0.0015561008
20	0xba00da6c	-0.000491536
21	0x39850728	0.0002537307
22	0x399a2b33	0.00029405355
23	0x3992d83a	0.0002800839
24	0xbb681812	-0.0035414738
25	0xbaaa0504	-0.0012971465
26	0x39d4997f	0.00040550155
27	0x3ad612af	0.0016332472
28	0x3a835075	0.0010018485
29	0x384d569b	4.8956466e-05
30	0x3a403903	0.0007332714
31	0x3d95e14e	0.07318364
32	0x3a450c8f	0.0007516825
33	0x3a1370e0	0.00056244247
34	0xbab1649e	-0.0013534015
35	0xb9002786	-0.00012221755
36	0xba94a8cf	-0.0011341813
37	0xbbd85883	-0.0066023483
38	0x3a4618fc	0.00075568235
39	0x3aedda8c	0.0018146797
40	0x389f9492	7.609384e-05
41	0xb9d3e9b8	-0.0004041919
42	0xb991a4ec	-0.00027779432
43	0xbaa5af53	-0.0012640752
44	0xb8c61c24	-9.446617e-05
45	0x39e81286	0.0004426429
46	0x3aa68592	0.0012704602
47	0xbbaa87cb	-0.005204176
48	0xb998a9f5	-0.00029118327
49	0xbb8c89c3	-0.0042888834
50	0x3a261f50	0.00063370634
51	0x3a7383e3	0.0009289367
52	0x399c4509	0.00029806074
53	0x3999e786	0.00029354932

motion_mlp.mlps.1.fc0.fc.weight f4 [50, 50]
0	0xbd22e2ed	-0.039767195
1	0xbcc73b79	-0.024320351
2	0x3d469e9f	0.048491117
3	0xbcd96f7e	-0.026542421
4	0x3bc866f0	0.0061157867
5	0xbc954877	-0.01822303
6	0x3a78082e	0.0009461668
7	0x3b91e436	0.0044522537
8	0x3c086bad	0.008326453
9	0xbce36b1e	-0.027761038
10	0x3c476e99	0.012172365
11	0x3cabf116	0.020988982
12	0x3c9699ac	0.018383823
13	0x3c1aa91f	0.009439736
14	0xbc071281	-0.008244158
15	0xbbefac4d	-0.007314241
16	0xbc0b3961	-0.008497567
17	0xbc78734f	-0.01516421
18	0xbcb97aad	-0.022641504
19	0xbc5e4e92	-0.013568537
20	0xbd5af531	-0.05345649
21	0xbd47da0f	-0.04879194
22	0xbd222b46	-0.03959205
23	0x3b8df8bb	0.0043326295
24	0xba9699f4	-0.0011489973
25	0xbbea4a71	-0.0071499874
26	0x3c8aaa0c	0.016926788
27	0x39ba83df	0.00035574936
28	0xbb988e37	-0.004655625
29	0x3c82717a	0.01592325
30	0xb9573897	-0.00020525079
31	0xbc8346c0	-0.016024947
32	0xbcc3aeb4	-0.023887016
33	0xbcd46f9e	-0.02593213
34	0xbc87f15e	-0.016594585
35	0xbca5bf93	-0.020232951
36	0xbcf93fbd	-0.0304259
37	0x3cac201c	0.021011405
38	0xbccd65aa	-0.025072891
39	0xba8c7d16	-0.0010718431
40	0xbb8670aa	-0.004102786
41	0x3b74eacc	0.0037371395
42	0xbc1842a8	-0.009293236
43	0xbcaa713e	-0.020805951
44	0x3ca660dd	0.02030986
45	0xbd098fba	-0.033584334
46	0xbcd3c481	-0.025850536
47	0xbd0eb077	-0.03483626
48	0x3cea4556	0.028597515
49	0xbc333fad	-0.010940474
50	0xbbcef6d0	-0.0063160434
51	0xbd141a26	-0.03615775
52	0x3d9769ed	0.073932506
53	0xbcea948c	-0.028635286
54	0xbc838dcc	-0.016058825
55	0x3bebe995	0.007199476
56	0xbd81d163	-0.063387655
57	0x3abd915d	0.0014462877
58	0x3ba8022c	0.005127212
59	0xbca82b6d	-0.02052852
60	0xbbaf2915	-0.0053454735
61	0x3d01d43e	0.03169655
62	0xbb92dc31	-0.0044818153
63	0x3c723d00	0.014785051
64	0x3d0285a6	0.03186574
65	0xbc87539c	-0.01651936
66	0x3ba8f038	0.0051555894
67	0x3cd6a06f	0.026199548
68	0x3b8645ad	0.0040976615
69	0xbbf273bf	-0.007399052
70	0x3d511f99	0.051055524
71	0x3bb82e43	0.005620749
72	0x3d251f50	0.040313065
73	0xbca66169	-0.02031012
74	0x3b4114e0	0.0029461905
75	0x3b53d92d	0.0032325492
76	0x3d43dfff	0.04782104
77	0x3cda05c2	0.026614074
78	0x3b93783a	0.004500416
79	0xbb4d035a	-0.0031282515
80	0xbca138d8	-0.019680426
81	0xbc7835b0	-0.015149519
82	0xbb977472	-0.0046220357
83	0x3ca1e4e6	0.019762468
84	0xbcb1f6b4	-0.021724083
85	0x3c81659c	0.015795521
86	0x3c9bc303	0.019013887
87	0xbb9faaf1	-0.0048726727
88	0xbab8cc95	-0.0014099056
89	0x3c397da8	0.011321463
90	0x3cd81a68	0.026379779
91	0xbc56be9e	-0.01310697
92	0x3c1d1316	0.00958707
93	0xbc28d992	-0.010305779
94	0x3da629f5	0.081134714
95	0x3c8a6f55	0.01689879
96	0xbbb2916a	-0.0054494636
97	0xbc7cf587	-0.015439398
98	0x3d146a85	0.036234397
99	0xbc572d1b	-0.013133313
100	0xb98412a0	-0.0002519088
101	0xbc046c27	-0.008082426
102	0xbc8241ab	-0.015900454
103	0xbc49b1e5	-0.01231048
104	0x3be5418a	0.0069963383
105	0xbc490139	-0.012268358
106	0xbca23aff	-0.019803522
107	0x3b1566ed	0.0022796944
108	0xbc90330a	-0.017602462
109	0x3cc6261e	0.024188098
110	0x3c58d889	0.01323522
111	0xbc87aff9	-0.016563402
112	0xbc3a5ecc	-0.01137514
113	0x3bc3f0f8	0.0059796534
114	0x3c05739d	0.00814524
115	0xbc81b0ed	-0.015831435
116	0xba45bbdc	-0.0007542947
117	0x3ba33e90	0.0049818233
118	0xbbab3173	-0.0052244007
119	0xbbee6752	-0.0072755003
120	0xbd88fbda	-0.06688662
121	0x3cd906c4	0.026492484
122	0xbe69499f	-0.2278199
123	0x3c6ee120	0.014580041
124	0xbc5b1407	-0.013371474
125	0x3c635e7d	0.013877508
126	0xbce433e5	-0.027856776
127	0xbc37ab96	-0.011210343
128	0xbbf0ad05	-0.0073448443
129	0x3a94a538	0.0011340743
130	0xbcfba45e	-0.030718025
131	0x3b8467f9	0.004040715
132	0x3c182c9d	0.00928798
133	0x3c51a4d0	0.012795642
134	0x3a85fbe2	0.0010222162
135	0xbda73cf2	-0.08165921
136	0x3bae3088	0.005315844
137	0x3bb0f148	0.0053998567
138	0x3b487be5	0.0030591425
139	0xbbb0caa8	-0.0053952523
140	0xbc9b5b57	-0.018964453
141	0xbcdb9f4b	-0.026809355
142	0x3c760c53	0.015017587
143	0x3c2e7634	0.010648299
144	0xbc5686fa	-0.013093704
145	0x3c15a5a7	0.009133733
146	0x3a47cb1e	0.00076215144
147	0x3bd377f9	0.006453511
148	0x3b4f4740	0.0031628162
149	0x3bbe7b05	0.005813005
150	0xbac7a8b8	-0.0015232777
151	0x3c8e58fc	0.017376415
152	0x3d15333f	0.036425825
153	0x3cf11790	0.02943018
154	0x3d3215e1	0.043477897
155	0x3d03b6d4	0.03215678
156	0xbd6abd98	-0.057309717
157	0xbc863903	-0.016384607
158	0x3c8f4232	0.01748762
159	0x3cabcf44	0.020972855
160	0xbabdda4b	-0.0014484612
161	0x3c41f226	0.011837518
162	0x3c1a6f6f	0.009425982
163	0xbc958a25	-0.018254349
164	0x3d47f203	0.048814785
165	0xbcb9fba7	-0.022703005
166	0xbc77c533	-0.0151227
167	0x3c78e073	0.015190232
168	0x3c012027	0.007881201
169	0xbb2786c5	-0.0025562507
170	0xbd014edd	-0.03156935
171	0x3ca5215f	0.020157514
172	0xbd3522a2	-0.04422248
173	0xbc2885d0	-0.01028581
174	0x3b3b230e	0.002855483
175	0x3c1d4d27	0.009600914
176	0xbb852d09	-0.0040642065
177	0x3b18aac7	0.002329515
178	0xbc19a069	-0.009376624
179	0xbc8c8801	-0.017154695
180	0x3ca88e43	0.020575648
181	0x3c5dc3cc	0.013535451
182	0x3ce90838	0.028446302
183	0x3d0a8f82	0.033828266
184	0xbc62b502	-0.013837101
185	0xbccc5ea0	-0.024947464
186	0x3d334bcb	0.043773454
187	0xbc653bb8	-0.013991289
188	0xbc12031e	-0.008911876
189	0xbc8a1364	-0.01685495
190	0x3c0de082	0.008659484
191	0x3c42812f	0.01187162
192	0xbc015a2c	-0.007895034
193	0x3beba2ec	0.0071910527
194	0xbd037d13	-0.032101702
195	0x3c9f9268	0.019478992
196	0x3d27fd09	0.041012798
197	0x3d11d408	0.0356026
198	0xbbc6a1ff	-0.006061792
199	0x3bce10e8	0.0062886365
200	0xbcc265b2	-0.023730133
201	0x3ba30188	0.004974548
202	0xbcd83207	-0.026391042
203	0xbd0a8591	-0.033818785
204	0xbd638165	-0.055543322
205	0xb9dba68a	-0.00041895016
206	0x3d850ef6	0.06496994
207	0x3cb89e31	0.022536369
208	0xbd7f6e8f	-0.062361296
209	0xbb66e097	-0.003522908
210	0x3c59f317	0.013302586
211	0x398f1ae0	0.0002729511
212	0xbbe4edca	-0.0069863545
213	0x3cb78095	0.02240018
214	0x3c55afc1	0.013042391
215	0x3cd3accf	0.025839237
216	0xbb20ca80	-0.0024534762
217	0xbb13c71d	-0.00225491
218	0x3b6137f1	0.003436562
219	0xbc96755b	-0.018366506
220	0xbc94ee6f	-0.0181801
221	0x3a9a8b39	0.0011790759
222	0xbbc6592a	-0.0060531097
223	0xbc795eeb	-0.015220384
224	0x3cf2fb64	0.029660888
225	0x3d2081ec	0.039186403
226	0xbd1efb3b	-0.03881381
227	0xbd152333	-0.03641052
228	0x3cae01f2	0.021241162
229	0x3d37d04d	0.044876385
230	0xbd03b02c	-0.032150432
231	0xbbd79610	-0.006579168
232	0xbca6d2d2	-0.020364199
233	0x3932f1e0	0.00017065508
234	0xbce7da3b	-0.028302303
235	0xbcf3884a	-0.029728074
236	0xbc931514	-0.017954387
237	0x3c72a394	0.014809508
238	0xbb2b8caa	-0.0026176372
239	0x3d182040	0.03714013
240	0x3d22d911	0.039757792
241	0x3d843bd8	0.06456727
242	0xbba6313f	-0.0050717886
243	0xbb4eb084	-0.0031538317
244	0x3c4a2143	0.012337032
245	0x3c499dd6	0.012305697
246	0xbcb9eb60	-0.022695243
247	0xbd1ef69d	-0.038809408
248	0xbc5ff5f1	-0.013669477
249	0x3b455e4c	0.003011602
250	0x3d0463c0	0.03232169
251	0x3c5ad3bf	0.013356148
252	0xbc82f24c	-0.015984677
253	0x3c84fd7d	0.016234154
254	0x3be46199	0.0069696424
255	0xbd4ad5cd	-0.049520303

motion_mlp.mlps.1.fc0.fc.bias f4 [50]
0	0xb75bd95c	-1.3104025e-05
1	0xb63b7926	-2.793569e-06
2	0x3555904e	7.9558674e-07
3	0x3614eb26	2.2190593e-06
4	0xb624a8ee	-2.4536234e-06
5	0x3656e5d1	3.2022256e-06
6	0x37117414	8.6697e-06
7	0x36aa85f5	5.0819895e-06
8	0xb747aae8	-1.19011165e-05
9	0xb6ad1eb6	-5.159377e-06
10	0x36a96aca	5.0490244e-06
11	0x36d4c2e7	6.340782e-06
12	0x36025634	1.9421686e-06
13	0x3664fb34	3.4120867e-06
14	0x34d61692	3.9877028e-07
15	0x36e1f0b3	6.7335436e-06
16	0xb6bfd078	-5.7165125e-06
17	0xb6a1b296	-4.818964e-06
18	0x36a74c50	4.985872e-06
19	0x3668c4fe	3.4685359e-06
20	0xb6a08708	-4.7840913e-06
21	0xb5bd3158	-1.4095958e-06
22	0xb493002d	-2.7381012e-07
23	0xb6b2ae47	-5.325102e-06
24	0xb51cef5e	-5.8462854e-07
25	0x35c32b32	1.4541204e-06
26	0xb6c547db	-5.8794226e-06
27	0xb555c817	-7.963985e-07
28	0xb669bbbb	-3.482898e-06
29	0x363401dc	2.6823172e-06
30	0x3639c955	2.768434e-06
31	0xb742fbd2	-1.1621933e-05
32	0x362a7f6c	2.5406143e-06
33	0x34131e87	1.3701548e-07
34	0x36613b0e	3.3561987e-06
35	0x3689eb75	4.110329e-06
36	0xb5b707d3	-1.363684e-06
37	0xb5e4d4b2	-1.7049226e-06
38	0xb71c2ed5	-9.3092285e-06
39	0x38091cde	3.269023e-05
40	0xb6cf0a10	-6.170252e-06
41	0x34c253a7	3.619618e-07
42	0xb651f902	-3.1288369e-06
43	0xb6ad040a	-5.156272e-06
44	0xb6e8a3a7	-6.9331904e-06
45	0xb6407374	-2.8677432e-06
46	0xb591e369	-1.0869527e-06
47	0xb69d7b84	-4.6933437e-06
48	0x36aaffa9	5.0961576e-06
49	0xb69461ac	-4.422114e-06

motion_mlp.mlps.1.norm0.alpha f4 [1, 54, 1]
0	0x3ddfe593	0.1093246
1	0x3db39218	0.087680995
2	0x3e70cccb	0.23515622
3	0x3dd7955f	0.10526537
4	0x3db06139	0.08612294
5	0x3de40430	0.11133611
6	0x3d904250	0.07043898
7	0x3dbb9a19	0.09160251
8	0x3d9628c8	0.07331997
9	0x3e17a211	0.14807917
10	0x3e42d5d8	0.19026887
11	0x3d99f903	0.07518198
12	0x3dc62c7d	0.09676454
13	0x3dcefce4	0.10106829
14	0x3d9b0c3c	0.07570693
15	0x3de09b6f	0.109671466
16	0x3dc31d6a	0.09527095
17	0x3db4f52c	0.08835825
18	0x3dde99d8	0.10869187
19	0x3e7e3687	0.24825488
20	0x3db25681	0.087079056
21	0x3dbd90c1	0.09256125
22	0x3dded136	0.108797476
23	0x3da710bf	0.08157491
24	0x3e01234b	0.1261112
25	0x3e029101	0.12750627
26	0x3da7a264	0.081852704
27	0x3dab77d1	0.083724625
28	0x3daa175b	0.08305236
29	0x3dc5a2af	0.0965017
30	0x3dc205c0	0.09473753
31	0x3c452466	0.012032604
32	0x3d692ada	0.056925632
33	0x3d929f8d	0.07159338
34	0x3e0ccfd7	0.1375116
35	0x3dbb5b3a	0.091482595
36	0x3d9ddc49	0.07708032
37	0x3e081b96	0.13291773
38	0x3dba3220	0.09091592
39	0x3e0564b2	0.13026693
40	0x3dcf8149	0.10132081
41	0x3dcbf280	0.099583626
42	0x3dc9572c	0.0983108
43	0x3dbc42dc	0.0919244
44	0x3de830fe	0.113374695
45	0x3ddb5a2c	0.10710558
46	0x3e862bfd	0.26205435
47	0x3dc4873d	0.09596107
48	0x3dd64c8e	0.104638204
49	0x3e319701	0.1734276
50	0x3daa8815	0.08326737
51	0x3dd7bc1a	0.105339244
52	0x3db953c7	0.090491824
53	0x3e11fe8a	0.14257255

motion_mlp.mlps.1.norm0.beta f4 [1, 54, 1]
0	0xbbe19f86	-0.0068854718
1	0x3cf0efee	0.029411282
2	0x399f68ef	0.00030405025
3	0xbb9f3ad1	-0.0048593064
4	0x3b9f44ac	0.0048604812
5	0xbb574e20	-0.0032852963
6	0xbbcf3785	-0.006323757
7	0xbb611b38	-0.00343485
8	0x3badf43f	0.0053086574
9	0xbd1a37d3	-0.037650894
10	0x3d2aa8c7	0.041664865
11	0xbb676e97	-0.003531372
12	0x3aa479df	0.0012548527
13	0xbb83faf7	-0.00402772
14	0x3beaa352	0.0071605826
15	0x3cebf150	0.02880159
16	0x3c400713	0.011720437
17	0x3b092af8	0.0020930152
18	0xbcc89802	-0.024486545
19	0x3ac339b6	0.0014894519
20	0xbb8640a1	-0.00409706
21	0xba08a94e	-0.00052132166
22	0xbbe5a442	-0.0070081064
23	0x3b7233ef	0.0036957224
24	0x3c2d6adf	0.010584562
25	0x3c2b5983	0.010458353
26	0xbab270b5	-0.0013613912
27	0x3bb2efca	0.005460714
28	0xbb34092f	-0.0027471294
29	0x3beeae19	0.0072839377
30	0xbb9d5162	-0.0048009614
31	0xbae9926b	-0.0017820125
32	0xbce0189c	-0.027355485
33	0xbbeef4a5	-0.0072923475
34	0xbce7f42f	-0.028314678
35	0xbb90d832	-0.0044203037
36	0x3b4cfe3a	0.003127946
37	0x3d781571	0.060567323
38	0xb9959a69	-0.0002853454
39	0x3cef0551	0.02917734
40	0xba0ed81c	-0.0005449073
41	0xbbe0536e	-0.006845883
42	0x39e587bc	0.00043779414
43	0x3b08bc13	0.0020864054
44	0xbab5fd49	-0.0013884689
45	0x3c3710a6	0.011173403
46	0xbbf149ab	-0.0073635182
47	0xbca1ab46	-0.01973499
48	0xbc20f673	-0.009824383
49	0x3c93cec5	0.018042931
50	0xbadf2320	-0.0017024018
51	0xbbda27d1	-0.0066575785
52	0xbb8332db	-0.004003865
53	0xbc559010	-0.013034835

motion_mlp.mlps.2.fc0.fc.weight f4 [50, 50]
0	0xbca3d9b8	-0.020001277
1	0xbc63706a	-0.013881782
2	0x3be7e3d5	0.0070767202
3	0xbd044886	-0.032295726
4	0x3b8e55c7	0.0043437215
5	0x3bf373bb	0.0074295676
6	0xbc846541	-0.016161563
7	0xbc91cbc5	-0.01779736
8	0x3c4681c1	0.012115897
9	0xbc8ef61b	-0.017451337
10	0xbc2ffddb	-0.010741676
11	0x3b0626fc	0.0020470014
12	0xbc8d7c18	-0.017271087
13	0x3b853fc0	0.0040664375
14	0x3ac371dd	0.0014911253
15	0xbd804362	-0.06262852
16	0xbb8c6bb3	-0.0042852997
17	0xbcfbee9f	-0.030753432
18	0xbc4a0f10	-0.012332693
19	0x3d6a4722	0.057196744
20	0xbcd3e33b	-0.025865188
21	0xbc77cc1b	-0.015124346
22	0xbcbed526	-0.023294996
23	0xbcced842	-0.025249604
24	0x3d0a84f1	0.03381819
25	0xbc1687aa	-0.009187618
26	0xbc89da4b	-0.016827723
27	0x3cd919df	0.026501594
28	0xbcd0b770	-0.025478095
29	0xbc22d0ed	-0.009937507
30	0x3a776291	0.000943699
31	0xbc993868	-0.018703654
32	0xbcb8f018	-0.022575423
33	0xbc3e7f9a	-0.011627102
34	0xbd1b4c6e	-0.037914686
35	0xbca69cf6	-0.020338517
36	0xbd4bec64	-0.049785987
37	0xbce49597	-0.027903361
38	0xbc7432d4	-0.0149046965
39	0xbcb899ac	-0.022534214
40	0x3c6705e5	0.014100526
41	0xbbd64caf	-0.006539903
42	0x3c815944	0.015789635
43	0xbc979535	-0.018503765
44	0xbbdbeb04	-0.0067113657
45	0xba91840c	-0.0011101975
46	0x3c8b3cb4	0.016996719
47	0xbd017e67	-0.031614687
48	0x3cee2c16	0.029073756
49	0xbc513392	-0.012768643
50	0xba9fa7c0	-0.0012180731
51	0x3ad1124e	0.001595089
52	0xbb3b74cd	-0.0028603554
53	0xbca90c43	-0.02063573
54	0xbc5a430c	-0.013321649
55	0xbc0d1f74	-0.008613456
56	0xbd026c5c	-0.03184162
57	0xbcf16d7f	-0.029471157
58	0x3b32ad43	0.0027263917
59	0xbcc642c0	-0.02420175
60	0xbc1f29ef	-0.009714588
61	0xbb23d025	-0.002499589
62	0xbd632a26	-0.055460118
63	0x3c96a992	0.018391404
64	0xbd0f5798	-0.034995645
65	0xbd10b0ba	-0.03532479
66	0xbbbc8a3e	-0.0057537844
67	0xbb58e616	-0.0033096126
68	0x3ab2dfa8	0.0013646977
69	0x3cb11873	0.021618104
70	0xbc98de31	-0.018660637
71	0x3b181d32	0.002321076
72	0xbc8cc663	-0.017184442
73	0x3cbea397	0.023271365
74	0xbc58a8b3	-0.013223815
75	0xbc392705	-0.011300807
76	0xbcc8d5a2	-0.02451593
77	0xb9429f8f	-0.00018560722
78	0xbd0aadbf	-0.033857103
79	0xbcc60153	-0.024170553
80	0xba2df4f0	-0.0006635925
81	0x3c09b990	0.008406058
82	0xbc8b5a8f	-0.017010955
83	0xbb2d9b17	-0.0026490146
84	0xbc51e747	-0.0128114885
85	0xbc310e85	-0.010806684
86	0xbcf0ace4	-0.029379316
87	0x3c84ef3f	0.016227363
88	0xbbf732bd	-0.0075438903
89	0xbb7526c9	-0.003740715
90	0xbc068b67	-0.008211947
91	0x3cad4780	0.021152258
92	0xbc05791b	-0.00814655
93	0xbc389692	-0.0112663675
94	0xbb9c5344	-0.004770668
95	0xbbc0ca81	-0.0058835153
96	0xbc5e1790	-0.013555422
97	0xbc52c9fd	-0.012865541
98	0x3ca7062b	0.020388683
99	0xbc88cc1d	-0.016698891
100	0x3af30844	0.0018541892
101	0xbc1fdf2d	-0.009757799
102	0x3c1fc590	0.009751692
103	0xbc0bbb14	-0.00852849
104	0xbc65ce60	-0.014026254
105	0x3d18eb48	0.037333757
106	0xbd55b574	-0.052175
107	0x3be72c10	0.007054813
108	0xbba06625	-0.004894989
109	0x3c84c93c	0.016209237
110	0xbcd477a2	-0.025935952
111	0x3a1c10d3	0.0005953435
112	0x3bef5240	0.007303506
113	0x3c85acf6	0.016317826
114	0xbb996e3f	-0.004682332
115	0xbcd09eba	-0.025466312
116	0xbbb9302c	-0.0056514945
117	0xbb41c279	-0.0029565378
118	0x3c3f85ab	0.011689584
119	0x3c547102	0.012966396
120	0xbda6d733	-0.08146515
121	0xbc58fdbe	-0.013244091
122	0xbd1790c7	-0.037003305
123	0xbbaccd00	-0.0052734613
124	0xbc64835d	-0.013947335
125	0xbc6000f2	-0.0136721
126	0xbabb561a	-0.0014292628
127	0x3c1725b9	0.009225302
128	0xbbdd8096	-0.0067597134
129	0x3c655db2	0.0139993895
130	0xbc0c4705	-0.008561854
131	0xbc3ae4c2	-0.011407079
132	0x3c75ed6d	0.01501022
133	0xbb149c21	-0.0022676068
134	0x3d194e21	0.037428025
135	0xbd4a7c17	-0.049434748
136	0xbcb0f0a5	-0.021599123
137	0x3c15d45c	0.009144869
138	0xbd7ace8a	-0.061232127
139	0x3deb45e4	0.1148794
140	0xbc49e73a	-0.012323195
141	0x3c2a31e4	0.010387871
142	0x3c5a6386	0.013329392
143	0x3cd99eae	0.026564922
144	0xba56f9a8	-0.0008200654
145	0x3d0fb512	0.03508479
146	0x3c07a02a	0.008277932
147	0x3b96ec99	0.0046058414
148	0x3c0a3a93	0.008436817
149	0x3cc053d8	0.02347748
150	0x3c8e8840	0.017398953
151	0x3cd95998	0.02653198
152	0x3c1f42ec	0.009720545
153	0xbd41329a	-0.047167398
154	0xbc980ac7	-0.018559827
155	0xbc8749d1	-0.01651469
156	0x3cb05092	0.021522794
157	0xbb850069	-0.004058887
158	0x3c5ff2e0	0.013668746
159	0x3c4b76bd	0.012418446
160	0x3cc6adc0	0.024252772
161	0xba14252a	-0.000565129
162	0xbcc0ac17	-0.023519559
163	0xbc5b1a9d	-0.013373044
164	0x3cbdbbc8	0.02316083
165	0x3c88d85c	0.01670473
166	0x3c48a491	0.012246267
167	0x3aca2514	0.0015422427
168	0x3ca52f57	0.020164175
169	0x3ca31df7	0.01991175
170	0xbac77856	-0.0015218358
171	0xbb973302	-0.004614235
172	0xbc6c4f84	-0.014423255
173	0x3d755fa9	0.05990568
174	0xbc93aaea	-0.018025834
175	0x3ca3b08d	0.019981647
176	0x3d1ed597	0.038777914
177	0xbb792949	-0.0038018993
178	0x3c3ed1d2	0.011646705
179	0x3ce78c0c	0.028265022
180	0x3d1b957a	0.03798435
181	0xbbf6cf2a	-0.00753202
182	0x3d18456c	0.03717558
183	0xbc1aad3a	-0.0094407145
184	0x3c53619a	0.012901688
185	0xba95f19b	-0.0011439802
186	0x3cfc65a2	0.030810181
187	0xbc0c6df9	-0.008571141
188	0x3ced4e41	0.028967978
189	0x3c0757d2	0.008260684
190	0xbc1cfc00	-0.009581566
191	0xbb7c8f37	-0.003853751
192	0xbc3598ff	-0.01108384
193	0x3bcfe871	0.006344848
194	0xbbd96921	-0.006634847
195	0xbcc530ce	-0.024071123
196	0x3d0ea7f0	0.034828126
197	0x3c21cbca	0.009875247
198	0x3abb6980	0.0014298409
199	0x3cb91ac6	0.022595774
200	0x3c4ddc60	0.0125647485
201	0x3cf28bfa	0.029607762
202	0xba4505bb	-0.00075158075
203	0x3ca3d45c	0.019998722
204	0xbd588d32	-0.05286903
205	0xbd2fc936	-0.0429165
206	0xbbb9c48f	-0.0056691836
207	0xbba4333b	-0.00501099
208	0x3c5da2e6	0.013527608
209	0xbcc556ca	-0.024089236
210	0xbbdab83d	-0.006674795
211	0xbc5b84b2	-0.013398336
212	0x3d21c6f7	0.03949639
213	0x3b74f51b	0.003737754
214	0xbb0ca3d7	-0.002145996
215	0x3c6f0061	0.014587493
216	0x3ca2f047	0.019889964
217	0xbd106956	-0.035256706
218	0xbc357abe	-0.011076627
219	0x3cbb89c6	0.022892844
220	0xbcb5704e	-0.022148278
221	0x3c3d4570	0.0115522
222	0xbd3d9287	-0.046282317
223	0xbc2aaf16	-0.01041772
224	0x3c91d0f2	0.017799828
225	0x3b3a59dd	0.002843491
226	0x3c6294e3	0.013829443
227	0x3cb50341	0.022096278
228	0x3c656b8e	0.014002694
229	0xbc10cb3c	-0.008837517
230	0xbacff763	-0.0015866574
231	0x3d3cc3cd	0.046085168
232	0x3cb72392	0.022355828
233	0x3b8a8522	0.0042272964
234	0x3c33cab0	0.010973617
235	0xbd3437fb	-0.0439987
236	0xbc7896c6	-0.015172666
237	0xbc8c5e98	-0.01713495
238	0x3c763a2b	0.015028517
239	0x3c77fbeb	0.0151357455
240	0xbbf072f9	-0.0073379246
241	0xbcfc4a5a	-0.030797172
242	0x391dd812	0.00015053179
243	0x3ca78360	0.020448387
244	0x3c777a8b	0.0151049
245	0x3bf9fa6c	0.0076287296
246	0xbce528b1	-0.027973505
247	0xbcc4bcac	-0.024015747
248	0x3ba6ffe1	0.005096421
249	0xbbd27b00	-0.006423354
250	0xbc2ff856	-0.01074036
251	0xbd08962c	-0.03334634
252	0xbab888f5	-0.0014078902
253	0x3c979563	0.01850385
254	0x3c3e8139	0.011627489
255	0xbd17bb4a	-0.037043847

motion_mlp.mlps.2.fc0.fc.bias f4 [50]
0	0xb69f8505	-4.7540548e-06
1	0xb603cb67	-1.9638917e-06
2	0xb58f0358	-1.0655303e-06
3	0xb50fbe41	-5.3548507e-07
4	0x33e78788	1.0781429e-07
5	0x357f84e3	9.518828e-07
6	0xb7141fd2	-8.828896e-06
7	0xb58ae0d8	-1.0347239e-06
8	0x35d110b3	1.5576574e-06
9	0x34cb3da8	3.7856557e-07
10	0x36c3cf41	5.8355804e-06
11	0x36bdab18	5.652557e-06
12	0x35ad206a	1.2898938e-06
13	0x362a877b	2.5410834e-06
14	0xb66f9d96	-3.5705502e-06
15	0xb63dc058	-2.8275153e-06
16	0xb60440ab	-1.9707174e-06
17	0x367d712b	3.776581e-06
18	0x35dbc0bb	1.6372863e-06
19	0x35e5f2f3	1.7132537e-06
20	0x365dcd1e	3.305096e-06
21	0xb41d68bd	-1.4659868e-07
22	0x36bfbb60	5.714057e-06
23	0xb61021b6	-2.1477294e-06
24	0x3688cc30	4.0768864e-06
25	0x350d9ad1	5.275188e-07
26	0x3429ef9c	1.5826521e-07
27	0xb5ebe049	-1.757414e-06
28	0xb53204f2	-6.6317364e-07
29	0x34b68d03	3.400274e-07
30	0xb604b894	-1.9776971e-06
31	0xb625cb7c	-2.470536e-06
32	0xb6648b37	-3.4055681e-06
33	0x34bf0972	3.5583395e-07
34	0xb64a9d5a	-3.0191936e-06
35	0x326bf699	1.373487e-08
36	0xb640c29b	-2.8723505e-06
37	0xb64a7fc1	-3.0174708e-06
38	0x34d1ef70	3.9103497e-07
39	0x369b3895	4.625947e-06
40	0x35d58712	1.5909047e-06
41	0x34e9f8ef	4.3580755e-07
42	0xb591eb2f	-1.0871789e-06
43	0x3687ce54	4.0473333e-06
44	0x369d8f5f	4.695655e-06
45	0xb4a43ddc	-3.059239e-07
46	0x350b7d34	5.196373e-07
47	0x352f95e6	6.541071e-07
48	0x36195992	2.2850913e-06
49	0x35fb0747	1.8703075e-06

motion_mlp.mlps.2.norm0.alpha f4 [1, 54, 1]
0	0x3da99921	0.0828116
1	0x3d8adaa2	0.06779982
2	0x3dbb9102	0.091585174
3	0x3d7f0257	0.06225809
4	0x3cc85aa4	0.024457283
5	0x3d7f8e3c	0.062391505
6	0x3d08aade	0.033366077
7	0x3d3f4422	0.046695836
8	0x3d36bdcb	0.044614594
9	0x3db7a44c	0.08966884
10	0x3dcb7caf	0.09935891
11	0x3d06feef	0.032957967
12	0x3d172b50	0.03690654
13	0x3d3b4591	0.04572064
14	0x3d35fd6f	0.044431146
15	0x3d572cbc	0.052532896
16	0x3d76c751	0.060248677
17	0x3d0c814e	0.034303002
18	0x3d8f5ee5	0.070005216
19	0x3e1a09b0	0.15042758
20	0x3d23fccc	0.040036008
21	0x3d207a93	0.039179396
22	0x3d2a33bc	0.041553244
23	0x3cfaec27	0.030630184
24	0x3da2bc94	0.07946125
25	0x3dac2192	0.084048405
26	0x3d1c6dc4	0.03819062
27	0x3d2b195e	0.04177224
28	0x3d094e3f	0.033521887
29	0x3d106184	0.03524925
30	0x3d1a39e9	0.037652884
31	0x3b8ad25a	0.0042365016
32	0x3d229d27	0.039700653
33	0x3d91b759	0.07115049
34	0x3d889064	0.06668165
35	0x3d41ec65	0.047344584
36	0x3d27a950	0.040932953
37	0x3da6571c	0.081220835
38	0x3d2aa808	0.041664153
39	0x3dccf62d	0.10007892
40	0x3d4eaab0	0.05045575
41	0x3d537f02	0.051634796
42	0x3d65a225	0.056062836
43	0x3cfa85b3	0.03058133
44	0x3d640969	0.055673037
45	0x3d318d6e	0.04334777
46	0x3e1770ad	0.14789076
47	0x3d5245e7	0.051336195
48	0x3d93826c	0.072026104
49	0x3df71ab5	0.12065641
50	0x3d28f13d	0.041245688
51	0x3db9bafb	0.09068867
52	0x3d1b6783	0.037940513
53	0x3d82ae2d	0.06380878

motion_mlp.mlps.2.norm0.beta f4 [1, 54, 1]
0	0xbcb8bdae	-0.022551384
1	0xbcb42e26	-0.021994662
2	0x3d492057	0.049103107
3	0xbbffe27c	-0.0078089815
4	0x3bf55d2f	0.007487915
5	0x3bb0eb68	0.0053991564
6	0x3b78a44b	0.0037939723
7	0x3b332bfc	0.002733945
8	0xbc1675ff	-0.009183406
9	0xbc14cbd5	-0.0090818005
10	0x3d3df894	0.04637964
11	0x3bcbe913	0.006222853
12	0x3b0a63ad	0.002111654
13	0x3bec5a7e	0.007212936
14	0xba39e87f	-0.00070918346
15	0xbbc252e9	-0.005930294
16	0xbbd28afb	-0.006425259
17	0xba6ac982	-0.00089564186
18	0x3bc64dc6	0.006051752
19	0xbccc84cc	-0.024965666
20	0x3ba03aa0	0.004889801
21	0x3b9b3c5c	0.00473742
22	0x3b5b363f	0.0033449081
23	0xbb6b57c2	-0.0035910462
24	0xbc0c46f8	-0.008561842
25	0xbbbbc140	-0.0057298243
26	0xb9a60c87	-0.0003167132
27	0xbbb360f4	-0.005474204
28	0xbc6bb49f	-0.014386325
29	0xba8360b2	-0.0010023324
30	0x3b656d4f	0.003500778
31	0xbbab11a4	-0.005220609
32	0x3c963b48	0.018338814
33	0xba2d6e91	-0.0006615902
34	0xbd0cc07a	-0.034363247
35	0xbbc4f92f	-0.0060111503
36	0x3c2e2e80	0.010631204
37	0x3d88ead7	0.06685417
38	0xbc0138bb	-0.007887061
39	0xbc8db1fa	-0.01729678
40	0x3acf9204	0.0015836363
41	0x3b2ac391	0.0026056508
42	0x3c0b4e23	0.008502516
43	0xbac2eb17	-0.0014871088
44	0x3be8ce78	0.007104691
45	0xbbca55b9	-0.0061747697
46	0x3b84eab0	0.0040562972
47	0x3c81be1a	0.015837718
48	0x3b70e0fd	0.0036755197
49	0xbcc13d33	-0.023588752
50	0xbb380dca	-0.002808439
51	0xbc5e8cac	-0.0135833435
52	0x3b698190	0.0035630204
53	0x39c6bbed	0.0003790552

motion_mlp.mlps.3.fc0.fc.weight f4 [50, 50]
0	0xbb85f42d	-0.004087946
1	0xbceaedf8	-0.028677925
2	0x3d47e8e4	0.048806086
3	0xbcadbc37	-0.021207912
4	0x3b805b4e	0.0039171344
5	0xbad0a0b0	-0.0015917029
6	0x3d184e0a	0.0371838
7	0x3bd24956	0.0064174337
8	0x3cd6b725	0.026210377
9	0xbc00331b	-0.0078246845
10	0x3bb64c88	0.0055633225
11	0xbc9e4779	-0.01932119
12	0x3b24a931	0.002512526
13	0x3ae7f0bf	0.0017695649
14	0xba4fdb15	-0.0007929069
15	0x3d1b649b	0.03793774
16	0x3c207436	0.009793332
17	0x3bc80f24	0.0061053205
18	0xb9f320fd	-0.0004637315
19	0xbc0ae4c6	-0.008477395
20	0xbd01c88c	-0.031685397
21	0xbc4a5d96	-0.012351414
22	0xbcd38b52	-0.025823269
23	0xb966e4fd	-0.00022019814
24	0x3d1d5988	0.03841546
25	0x3c7d6039	0.015464836
26	0x3bd7ffbb	0.0065917647
27	0xbb7d5fa3	-0.003866174
28	0xbb24e04f	-0.0025158112
29	0x3c871c68	0.016493037
30	0xbb7d6788	-0.0038666446
31	0xbb507109	-0.0031805655
32	0xba2b0450	-0.0006523775
33	0x3b433f48	0.0029792357
34	0x3cbc333d	0.022973651
35	0xbd94711d	-0.07248137
36	0xbc7f653a	-0.015588099
37	0x3bdb0bb2	0.006684744
38	0xbd1ce295	-0.038302023
39	0x3d46d574	0.04854341
40	0x3c9e2005	0.019302377
41	0x3ccb628c	0.024827264
42	0x3b8c3f10	0.0042799786
43	0x3d081049	0.033218656
44	0xbcc99266	-0.024605941
45	0xbc44178b	-0.011968504
46	0xbcae122e	-0.021248903
47	0x3c58cfbc	0.0132331215
48	0xbcaa5e07	-0.020796789
49	0x387742d5	5.895163e-05
50	0xbc29f2f0	-0.010372862
51	0xbd7be2ed	-0.06149571
52	0xbb963d32	-0.004584932
53	0xbcb09f4a	-0.02156033
54	0x3cc87971	0.02447197
55	0x3a714f81	0.00092052674
56	0x3c4bdc59	0.012442672
57	0xbcf997c1	-0.03046787
58	0x3c1a59b3	0.0094208
59	0xbcc49b13	-0.023999726
60	0x3b477542	0.0030434881
61	0x3d025503	0.031819355
62	0x3c3005d6	0.010743579
63	0x3c6f9c44	0.014624659
64	0xbc355527	-0.011067665
65	0x3c9fc96b	0.019505223
66	0x39dc6b99	0.00042041836
67	0x3c277489	0.010220655
68	0xbb92a599	-0.004475307
69	0x3cc3f1e6	0.023919057
70	0x3c161d21	0.009162218
71	0xbcf4f781	-0.029903175
72	0xbcaeb649	-0.021327155
73	0x3d275afb	0.04085825
74	0xbd0a9920	-0.033837438
75	0x3c26e6fc	0.010186907
76	0xbcb51f7f	-0.022109745
77	0xbbe9a26d	-0.0071299584
78	0xbbfea98c	-0.0077716764
79	0x3c3fdb53	0.011710006
80	0xbd307478	-0.043079823
81	0xbd1e43c6	-0.038638853
82	0x3cbdfb78	0.023191199
83	0xbce5b25f	-0.028039156
84	0xbc75f2a8	-0.015011467
85	0xbc488ee9	-0.012241104
86	0xbc98890c	-0.018620037
87	0xbcc0dc69	-0.0235426
88	0x3a94a60d	0.0011340991
89	0xbcaf5bff	-0.021406172
90	0xbbc27289	-0.005934064
91	0xbce15858	-0.027507946
92	0xba24bd1f	-0.0006284285
93	0x3b97ae0a	0.0046289014
94	0xbc1e169e	-0.009648947
95	0xbc43227c	-0.011910077
96	0x3c5a1b48	0.013312168
97	0xbc9ddea1	-0.019271197
98	0x3c7c76f6	0.015409222
99	0xbbecbf6f	-0.007224969
100	0x3a14f21c	0.0005681829
101	0xba868cee	-0.0010265389
102	0xbd925f78	-0.071471155
103	0x3ba14476	0.0049214913
104	0xbb984dcc	-0.004647946
105	0x3c21b600	0.009870052
106	0x3cde3d4c	0.027128838
107	0xbd1ecb4a	-0.03876809
108	0xbc2008c4	-0.009767715
109	0xbc8d37a1	-0.01723844
110	0x3ba9ff2b	0.005187889
111	0x3cb9a37f	0.022660969
112	0xbb81ff54	-0.003967205
113	0xbd1c4c4c	-0.0381587
114	0xbb6ca53b	-0.0036109227
115	0xbcad65c6	-0.021166693
116	0xb91d0e50	-0.00014978019
117	0xbd00047d	-0.03125428
118	0x3c85a0b5	0.016311983
119	0xbcd5b015	-0.026084939
120	0xbcdfd20d	-0.02732184
121	0xbc559253	-0.013035375
122	0xbc032cc8	-0.008006282
123	0xbd16a0a1	-0.03677428
124	0xbc1bc1e9	-0.009506681
125	0xbcc3837f	-0.023866413
126	0x3d38184a	0.04494504
127	0x3b38583a	0.002812876
128	0xbcb94acf	-0.02261868
129	0xbbe5bc5b	-0.007010979
130	0x3d25cb14	0.040476874
131	0x3c499780	0.012304187
132	0xbcd75799	-0.026286887
133	0x3be546bf	0.006996959
134	0xbc4816fe	-0.012212513
135	0xbc04223d	-0.008064804
136	0xbbac11b2	-0.005251133
137	0xbc014a7e	-0.0078912955
138	0x3d04d155	0.032426197
139	0xba9f5ffc	-0.0012159343
140	0xbc86bfb7	-0.016448839
141	0x3b81e7c2	0.0039643953
142	0xbc87b94f	-0.016567854
143	0xbbf3cd96	-0.0074402792
144	0x3b9191e3	0.00444244
145	0xbc571662	-0.013127895
146	0xbb00d12d	-0.0019655928
147	0xbd0b753c	-0.03404735
148	0x3a9fb96f	0.0012186001
149	0x3c60d918	0.013723634
150	0xbb0b35a7	-0.0021241696
151	0x3c948ef0	0.018134564
152	0xbc8ab94b	-0.016934058
153	0x3c3e500e	0.011615766
154	0x3cf8b7f6	0.030361157
155	0xbbb78d47	-0.0056015584
156	0xbd7c5e11	-0.061613146
157	0x3c9db567	0.019251538
158	0xbc09d814	-0.008413333
159	0x3cb75b33	0.022382354
160	0x3c5db18d	0.013531101
161	0xbca104c6	-0.019655596
162	0x3ce03c88	0.027372614
163	0xbc4db24a	-0.012554714
164	0xbc924c85	-0.017858753
165	0xbcde9f7e	-0.027175661
166	0x3b1615b2	0.0022901115
167	0x3b3d040b	0.002884152
168	0xbb9be276	-0.004757221
169	0xbca1866c	-0.019717418
170	0xbc86f532	-0.01647434
171	0x3a13fb4e	0.00056450523
172	0x3c8fa8c5	0.01753653
173	0xbc6ee7ba	-0.014581615
174	0x3c8145c0	0.01578033
175	0x3c35abc2	0.011088314
176	0xbb94ae74	-0.004537398
177	0xbd8cd86b	-0.06877216
178	0x3c6753c4	0.014119092
179	0x3d14ec29	0.036358032
180	0xbb0c445f	-0.0021403057
181	0x3d0253d1	0.031818215
182	0xbb02063e	-0.0019840146
183	0x3c807889	0.015682476
184	0x3c89aa48	0.01680483
185	0x3caa46cc	0.020785712
186	0x3cad686c	0.021167956
187	0x3c215bd5	0.009848555
188	0xbd4891bc	-0.048967108
189	0x39fe5ae3	0.0004851437
190	0x3be605b6	0.0070197238
191	0xbc9dde59	-0.019271063
192	0xbbf1dbd8	-0.0073809437
193	0xbcca5c27	-0.024702145
194	0xbc2cc094	-0.010543961
195	0xbc079ef9	-0.008277648
196	0x3cb9e86c	0.022693835
197	0xbbf37c9d	-0.0074306265
198	0xbc6aff59	-0.014343106
199	0xbb3d23cf	-0.0028860455
200	0x3c08baaf	0.00834529
201	0xbcc6cef0	-0.024268597
202	0xbca62465	-0.020281026
203	0xbc57e518	-0.013177179
204	0x3d4a6720	0.049414754
205	0xbd3b7b33	-0.04577179
206	0x3d591e51	0.053007428
207	0x3cc16eb1	0.023612352
208	0xbd542524	-0.051793233
209	0xbcc9ef67	-0.024650289
210	0xbc339b1a	-0.010962272
211	0xbd00c91c	-0.031441793
212	0xbcde7f25	-0.027160237
213	0x3c82b812	0.015956912
214	0xbc312179	-0.010811203
215	0x3c261510	0.010136858
216	0x3d3ffeab	0.04687373
217	0xbc84ebcb	-0.016225716
218	0xbb8ec35b	-0.0043567843
219	0x3ca0cd63	0.019629186
220	0x3ced13ee	0.028940167
221	0xbc86f4ab	-0.016474089
222	0xbc4249e8	-0.011858441
223	0x3c4a5f47	0.012351817
224	0x3cde1ff7	0.027114851
225	0xbcb43453	-0.021997606
226	0xbb746c5a	-0.0037296028
227	0x3c777f56	0.015106043
228	0xbbf481e5	-0.0074617737
229	0xbcbe8eb3	-0.023261404
230	0xbccaecbd	-0.024771089
231	0x3b52fcb5	0.0032194082
232	0xbca1d6fb	-0.019755831
233	0xbd308f8f	-0.04310566
234	0x3bc8d612	0.006129035
235	0xb957a754	-0.00020566332
236	0xbce0bdc7	-0.027434243
237	0x3c602a4b	0.013681958
238	0x3c0f237e	0.008736489
239	0x3cc93203	0.02455998
240	0x3c5ad648	0.013356753
241	0x3d3938d3	0.045220207
242	0x384f221b	4.938441e-05
243	0xbc10f4d1	-0.008847431
244	0xbc2805d7	-0.010255299
245	0x3c2820be	0.010261713
246	0xbc0b6bda	-0.008509601
247	0x3cee0b48	0.029058114
248	0x3b51abb3	0.003199321
249	0xbcad8faa	-0.021186668
250	0x3c8d8c7c	0.017278902
251	0xbd0472e0	-0.032336116
252	0x3b0c33da	0.002139321
253	0xbc4ad0e1	-0.012378902
254	0xbcb47c7a	-0.022032011
255	0xbcd22f17	-0.02565722

motion_mlp.mlps.3.fc0.fc.bias f4 [50]
0	0xb4cec37b	-3.851272e-07
1	0x3599f60a	1.1470995e-06
2	0xb57b4458	-9.360424e-07
3	0xb631b867	-2.6482392e-06
4	0xb5e2d24e	-1.6899519e-06
5	0xb637f3dc	-2.741107e-06
6	0x36c6f38e	5.9292133e-06
7	0xb548c92b	-7.4798544e-07
8	0x34175241	1.4092895e-07
9	0x365ca43e	3.2878156e-06
10	0x36ac6aa6	5.138415e-06
11	0x3582a3c5	9.733418e-07
12	0xb691d604	-4.3462514e-06
13	0xb5820063	-9.685867e-07
14	0xb721b983	-9.639541e-06
15	0x36c49bec	5.859407e-06
16	0xb680e41b	-3.8412522e-06
17	0x35e9006c	1.7359976e-06
18	0xb5d34b98	-1.5742726e-06
19	0x36497084	3.0016827e-06
20	0xb6bc0f4a	-5.6046165e-06
21	0xb5eca50b	-1.7631404e-06
22	0x3600b37b	1.9177958e-06
23	0x365cf960	3.292771e-06
24	0xb5a40697	-1.222087e-06
25	0xb59d08e4	-1.1699999e-06
26	0xb6493e47	-2.9987584e-06
27	0xb548419e	-7.460129e-07
28	0xb67cff24	-3.7699438e-06
29	0x34f3876f	4.5360818e-07
30	0x3570f3f8	8.976199e-07
31	0xb49e229d	-2.9454978e-07
32	0x36a67431	4.960712e-06
33	0xb6a666e1	-4.959162e-06
34	0x363d9a5c	2.8253044e-06
35	0xb57fb362	-9.525594e-07
36	0x366e282e	3.5488151e-06
37	0xb6576020	-3.2093449e-06
38	0x3687b046	4.0438345e-06
39	0xb65c3845	-3.2815308e-06
40	0x36ea0ad5	6.9750045e-06
41	0xb593de64	-1.1017078e-06
42	0x3588ca68	1.0191698e-06
43	0xb11ee30c	-2.3121087e-09
44	0xb65785a1	-3.2115279e-06
45	0xb5274b84	-6.232224e-07
46	0x36086128	2.0322132e-06
47	0xb616739f	-2.2419042e-06
48	0x3688a5a0	4.072397e-06
49	0xb68e35f6	-4.2382117e-06

motion_mlp.mlps.3.norm0.alpha f4 [1, 54, 1]
0	0x3daa3461	0.08310772
1	0x3dc160bb	0.09442278
2	0x3e067ec3	0.13134293
3	0x3d55863e	0.052129976
4	0x3d2fc640	0.042913675
5	0x3d58fa78	0.05297324
6	0x3ce7be09	0.028288858
7	0x3d308491	0.043095175
8	0x3d632c83	0.05546237
9	0x3db4647a	0.08808227
10	0x3e12e391	0.14344622
11	0x3d31c12d	0.043397117
12	0x3d817d05	0.06322674
13	0x3d84e5f9	0.06489176
14	0x3d8f9d79	0.070124574
15	0x3d81d387	0.06339174
16	0x3d7b746c	0.061390325
17	0x3d454029	0.04815689
18	0x3d808368	0.06275064
19	0x3c8381ef	0.016053168
20	0x3d8570a8	0.06515628
21	0x3d74a511	0.059727732
22	0x3d53ac45	0.05167796
23	0x3d6bf426	0.057605885
24	0x3daf562f	0.0856136
25	0x3df28844	0.11842397
26	0x3d5095c9	0.050924096
27	0x3d7d1a86	0.061792873
28	0x3ca852bf	0.020547269
29	0x3d87623a	0.06610532
30	0x3d03580b	0.032066386
31	0x3c848e9a	0.016181279
32	0x3d8edd8e	0.06975852
33	0x3cab7b2b	0.020932755
34	0x3dfd3770	0.123640895
35	0x3d674d07	0.056469943
36	0x3ce833d9	0.028345035
37	0x3ddaf4e2	0.10691239
38	0x3d8a9af3	0.067678355
39	0x3dbbf3ea	0.09177382
40	0x3d9a263d	0.075268246
41	0x3d9603aa	0.073249176
42	0x3d681455	0.056660015
43	0x3d974f24	0.07388142
44	0x3d306564	0.043065444
45	0x3c6846e6	0.01417706
46	0x3c9def61	0.019279184
47	0x3d5818e8	0.052758127
48	0x3d902f7e	0.070403084
49	0x3e1baf39	0.15203561
50	0x3d4f6835	0.05063649
51	0x3dd7df76	0.10540669
52	0x3d8c0b85	0.06838135
53	0x3d0d6b46	0.034526132

motion_mlp.mlps.3.norm0.beta f4 [1, 54, 1]
0	0x3c74df59	0.014945828
1	0x3c1256a8	0.008931793
2	0x3d075ec0	0.033049345
3	0x3a5e83ca	0.0008488266
4	0xbc021456	-0.007939419
5	0xbb054f48	-0.0020341445
6	0x3a7dce46	0.0009681921
7	0xbb1ff7bb	-0.0024409133
8	0xb9424a6f	-0.0001852901
9	0xba377a22	-0.0006999095
10	0xbb59cc3f	-0.0033233312
11	0xbb9c3c6d	-0.0047679455
12	0xbb9f23c7	-0.00485656
13	0xbbdb9380	-0.006700933
14	0xb9d52276	-0.000406522
15	0x3be8db8f	0.0071062515
16	0xbc84f8a8	-0.01623185
17	0xba99f949	-0.0011747266
18	0x3995a91f	0.000285455
19	0x3c4eb27b	0.012615795
20	0x390f1606	0.00013645747
21	0xbb87040c	-0.0041203555
22	0x3ba1d20a	0.0049383687
23	0x3b941350	0.004518904
24	0xbcfb3664	-0.030665584
25	0xbc3866d2	-0.011254983
26	0xbb8a28ae	-0.004216275
27	0xbba6f44a	-0.0050950395
28	0x3bbd3485	0.005774083
29	0xbbacdd02	-0.0052753696
30	0xbb0ceeed	-0.0021504716
31	0x3a81989d	0.0009887401
32	0x3c83f852	0.01610962
33	0x3a540063	0.0008087216
34	0x3d228bd3	0.039684128
35	0x3b8faa22	0.004384295
36	0x3c014a88	0.007891305
37	0x3d27eb8c	0.04099612
38	0x3b06f25a	0.002059123
39	0x3c07f603	0.0082984
40	0xbb912e43	-0.0044305637
41	0xbbff0145	-0.0077821338
42	0xbc74e3a3	-0.014946851
43	0xb99fbbf5	-0.00030466882
44	0xbc37ea32	-0.01122527
45	0xbbb57d98	-0.0055386536
46	0x3b911d38	0.004428532
47	0xbbc251cd	-0.0059301616
48	0xbb3e53a3	-0.002904155
49	0xbd06f5d4	-0.032949284
50	0x3aeb92d0	0.0017972831
51	0x3cc7433f	0.024324058
52	0x3b9eeb0a	0.004849796
53	0x3b5aa264	0.0033360953
