src/siMLPe/exps/baseline_amass/log/snapshot/model-iter-25000.pth (torch, 604338 bytes, 196 tensors)

motion_mlp.mlps.0.fc0.fc.weight f4 [50, 50]
000000 55 97 ac bc db 90 78 bd 1e 5e d8 3c 5f 25 0d bd
       -0.021068254 -0.06068502 0.026412066 -0.034459468
000010 70 07 6c 3c 80 b6 53 bc ac e7 b0 3c 0d 3f e2 bc
       0.01440607 -0.012921929 0.021594845 -0.027617956
000020 ff 3a c7 bb 0c 7a 98 bc 0f af 82 bc 8a 0c b2 bc
       -0.006080031 -0.018612884 -0.015952615 -0.021734495
000030 a3 a7 6c bc 26 95 a9 bc 14 02 4e bc 09 1a f6 bc
       -0.014444265 -0.020701002 -0.012573738 -0.030041711
000040 c7 5a 68 bc a7 7e de bc 29 60 19 bc 7d 93 fa bc
       -0.014181799 -0.027160002 -0.009361305 -0.030587906
000050 70 d7 f1 bb 10 f7 e9 bc 00 7f 00 bc c4 67 09 bd
       -0.0073804185 -0.028560191 -0.007842779 -0.033546224
000060 a9 5a 89 bb 36 2a e7 bc 11 2c 38 bc 3f c2 b3 bc
       -0.0041917157 -0.02821837 -0.011240975 -0.02194321
000070 13 77 27 bc cb 02 8d bc e2 b0 84 bc 91 8a 16 bc
       -0.010221261 -0.017213246 -0.016197626 -0.00918831
000080 af 2b 88 bc 8e 96 9c bb 8c 35 9a bc 3a f3 00 bb
       -0.016622392 -0.0047786897 -0.018824361 -0.0019676224
000090 c7 76 93 bc ea 24 72 38 ad 05 8e bc b8 d1 d0 3a
       -0.018000973 5.7731675e-05 -0.01733669 0.0015931642
0000a0 f9 82 7f bc 23 51 10 3b d7 00 64 bc 86 54 1c 3b
       -0.015595191 0.0022021018 -0.013916216 0.002385409
0000b0 ed 5d 17 bc ed 7c 9d 3a 29 7f d9 bb 59 dd 19 3a
       -0.009238702 0.001201538 -0.006637473 0.000586947
0000c0 28 d4 86 bb 35 00 02 bb b0 18 e2 3b 85 8c 84 bc
       -0.0041146465 -0.001983655 0.0068999156 -0.016180286
0000d0 f1 46 af 3a 53 61 06 bc 91 a1 62 bc 0e 10 4f bc
       0.0013372583 -0.008201915 -0.013832466 -0.012638105
0000e0 3f 4f a2 bc 0e 0c 5c 3c ff 9f 85 ba f1 cd 8a bc
       -0.019813178 0.013430608 -0.0010194777 -0.016943904
0000f0 b0 ec 82 bb 54 26 49 3c e9 65 03 3b f3 6a 15 3c
       -0.0039955005 0.012277205 0.0020049757 0.009119737
000100 f2 42 d7 ba a8 f1 8b 3c 0a 3d 3a 3b 14 01 a0 3b
       -0.001642315 0.017083004 0.002841773 0.004882941
000110 e5 f2 d8 3b 5c cf 41 bb e6 58 fa 3b 03 0c ea bb
       0.006620752 -0.0029573059 0.007639992 -0.007142545
000120 de 11 23 3c ce 10 13 bc e8 b6 9e 3b 79 5b 2c bc
       0.00995299 -0.0089761745 0.0048435815 -0.010519856
000130 a5 81 e4 b9 21 08 fd bb f5 a3 90 bb b7 f5 e5 bb
       -0.00043584142 -0.0077219163 -0.0044140765 -0.007017817
000140 41 cc 0d bc c0 87 12 bb 08 08 4b bc c2 6f c5 bb
       -0.008654655 -0.0022358745 -0.0123920515 -0.0060252855
000150 4b fa 5b bc 15 b6 9f bb 4c aa 8b bc f9 6e 79 bb
       -0.013426374 -0.004874001 -0.017048977 -0.003806053
000160 c4 ae 8c bc b7 38 a8 bb e2 8a 93 bc 9f e3 d8 bb
       -0.017173178 -0.005133714 -0.01801056 -0.0066189314
000170 76 d9 87 bc d0 c4 00 bc ca c5 86 bc b4 d2 1d bc
       -0.016583186 -0.007859424 -0.016451735 -0.009632755
000180 2c bb 84 bc 63 0f 34 bc 3a a4 72 bc 19 01 5b bc
       -0.016202532 -0.010989997 -0.0148096625 -0.013366961
000190 78 2a a2 bb fa 2c a2 bc 04 78 b5 3c 10 20 25 bc
       -0.0049489103 -0.019796837 0.022151954 -0.010078445
0001a0 75 6a 70 bb 89 b5 ad bc 7e 35 b4 3b 5a 94 05 bb
       -0.0036684547 -0.021204727 0.005499541 -0.0020382614
0001b0 9d 1b b3 3b 01 5d 1e bb 6f 9d 36 3c 10 1a d4 bb
       0.0054659382 -0.0024164321 0.0111459335 -0.0064728335
0001c0 4c 3c b9 3b c1 41 76 3c 07 00 9b 3b 32 98 c4 3c
       0.00565294 0.015030325 0.004730228 0.023998354
0001d0 e7 d8 a9 3b 32 82 df 3c a4 b1 aa 3c fa 77 bd 3c
       0.0051833275 0.027283762 0.020836659 0.023128498
0001e0 76 59 c1 3c 96 81 a0 3c 45 8b b3 3c 2f 7e 93 3c
       0.023602229 0.019593041 0.021916995 0.018004505
0001f0 c5 e0 d5 3c 55 56 81 3c ce 33 a8 3c 88 fd 8e 3c
       0.026108155 0.015788237 0.020532515 0.017454877
000200 43 de a0 3c ee 67 c3 3c c4 76 47 3c 31 1e dc 3c
       0.019637233 0.023853268 0.012174312 0.026869865
000210 3f e7 37 3c bd 5c f2 3c 41 f3 10 3c 6a 4d 01 3d
       0.011224567 0.029585237 0.008847059 0.03156797
000220 60 73 fc 3b a8 31 09 3d 88 86 07 3c 4f 15 02 3d
       0.0077041835 0.03349462 0.008271821 0.031758603
000230 c8 34 07 3c 78 6c fc 3c 7f e9 24 3c 22 70 ec 3c
       0.00825233 0.03081344 0.010065435 0.028862063
000240 8d 6b 62 3c 8d 05 e2 3c e7 bd 86 3c a9 ca cf 3c
       0.013819587 0.027590537 0.016447974 0.02536519
000250 2f 2e 9b 3c 7d 79 b7 3c 04 9d f9 bb 02 16 95 3c
       0.01894292 0.022396797 -0.0076175947 0.01819897
000260 ec d6 5c bc e8 27 a5 3c 8b 16 ac bc fc b8 9d 3c
       -0.013478976 0.02016063 -0.021006843 0.019253246
000270 c9 1f ba bc 84 06 62 3d c6 87 d9 bc 60 e9 26 3d
       -0.022720234 0.055181995 -0.026554 0.040749907
000280 e1 db 76 bc c9 09 b6 3c 8f 2f 71 3b 4e 2f ca 3c
       -0.015067072 0.022221463 0.0036802029 0.02468076
000290 22 52 87 3b 93 01 f8 3c a9 7d 04 3c 4a a0 f7 3c
       0.004129664 0.030274188 0.0080866 0.030227799
0002a0 cc 8c 0c 3c 80 7e 12 3d e3 1a 69 3c 59 a0 e3 3c
       0.0085784905 0.03576517 0.014227602 0.02778642
0002b0 50 7d 9f 3c bc 6c d0 3c e7 c5 ad 3c 7a 8b c8 3c
       0.019468933 0.025442474 0.021212531 0.02448057
0002c0 6f e0 a8 3c a4 4d c3 3c 92 71 9f 3c 61 7d c9 3c
       0.02061483 0.023840733 0.019463334 0.024595918
0002d0 29 52 a5 3c c1 67 c2 3c 88 2e a0 3c c5 42 bd 3c
       0.020180779 0.023731114 0.019553438 0.023103127
0002e0 4f b3 9b 3c 3c c5 b8 3c e8 08 93 3c b3 bb ad 3c
       0.0190064 0.022554986 0.017948583 0.021207666
0002f0 22 a1 90 3c 86 be a7 3c 66 fa 9a 3c 15 d8 99 3c
       0.01765496 0.02047659 0.018918227 0.018779794
000300 66 44 98 3c 42 8e 90 3c ed dd 97 3c f4 78 92 3c
       0.018587302 0.017645959 0.01853844 0.01787994
000310 73 4d 8f 3c 62 97 8e 3c 1e 2b 8f 3c c2 43 92 3c
       0.017492985 0.01740617 0.017476615 0.017854575
000320 65 ad b3 3a 76 d4 9e bc fe cc a8 3c 23 01 36 3c
       0.0013708292 -0.019388419 0.02060556 0.011108669
000330 56 99 68 bd e5 91 9c bc 1b 98 11 bc 23 49 c8 bc
       -0.056786858 -0.019112537 -0.008886362 -0.024448937
000340 e4 4c 59 bb 6a e8 88 bc 90 3f 14 bc db 7e b1 bc
       -0.0033157403 -0.016712386 -0.009048358 -0.021666935
000350 b0 66 92 bc 48 ee ae bc bb 61 b3 bc 94 30 e2 bb
       -0.01787123 -0.021353856 -0.021897187 -0.0069027636
000360 a3 40 bf bc c9 8c b8 bb 5c 9d 86 bc a2 d1 d1 3b
       -0.02334625 -0.0056320173 -0.016432457 0.006403164
000370 59 17 be bc b7 bb 42 3c 02 3c 66 bc 76 c6 1f 3c
       -0.023204492 0.011885575 -0.014052393 0.009751907
000380 79 f0 40 bc 36 aa 45 3c cc 92 9a bb 1a bc 2a 3c
       -0.011776083 0.012064507 -0.0047172066 0.0104208235
000390 e7 df 75 bb ee 49 1a 3c 20 55 77 3b 88 24 fe 3b
       -0.003751749 0.00941704 0.0037739947 0.0077558197
0003a0 9c 60 a4 3b b2 45 0f 3c 8f e6 ec 3b e2 ac 08 3c
       0.0050163995 0.008744644 0.007229633 0.008342
0003b0 d1 24 24 3c aa 7d fb 3b df 5e 31 3c 46 20 17 3c
       0.010018543 0.0076748924 0.010825842 0.009224003
0003c0 b2 7c 36 3c aa c6 14 3c ed 69 44 3c 0b c8 2c 3c
       0.011138128 0.009080568 0.011988145 0.010545741
0003d0 80 1e 4e 3c 88 77 1b 3c a8 57 58 3c 6c b5 2c 3c
       0.012580514 0.009488948 0.013204493 0.010541301
0003e0 36 16 4c 3c 32 45 4b 3c 23 92 bc 3a f7 83 e6 ba
       0.012456467 0.012406634 0.0014386814 -0.0017586936
0003f0 d8 a9 8a 3b e6 ef 90 3b 3b 34 59 bb c2 37 1c ba
       0.0042316727 0.0044231294 -0.0033142704 -0.00059592363

motion_mlp.mlps.0.fc0.fc.bias f4 [50]
000000 e5 52 2a 38 0f 22 d7 b7 9d 76 ca b5 fe 13 c1 36
       4.060836e-05 -2.5645857e-05 -1.5084694e-06 5.7541756e-06
000010 34 40 8b b7 7b 27 cb 37 2c e3 96 38 28 8e 1e 38
       -1.6599988e-05 2.421787e-05 7.1948714e-05 3.780253e-05
000020 c5 ce 77 b8 40 ae 8e b6 57 7e 10 b8 6d 72 0b b8
       -5.9081958e-05 -4.252215e-06 -3.444994e-05 -3.324675e-05
000030 83 53 8f 38 ea 17 c0 b7 35 67 4b b6 15 e4 34 b8
       6.8343266e-05 -2.289932e-05 -3.0309432e-06 -4.3127762e-05
000040 64 cb 3a 36 02 c9 42 38 3e 76 79 37 94 98 2a 38
       2.7834549e-06 4.6440407e-05 1.4869087e-05 4.0673258e-05
000050 51 17 c1 b6 4d 03 de b6 f4 04 94 b9 f8 c5 8e b7
       -5.7545626e-06 -6.6165e-06 -0.0002823245 -1.7019905e-05
000060 0e be 0d b8 82 2d f8 37 90 14 af b7 67 03 57 b7
       -3.3794022e-05 2.9585095e-05 -2.08712e-05 -1.2815791e-05
000070 2c 7c 79 34 4a 04 ec b7 f1 fb 73 b8 00 1e 26 38
       2.3235106e-07 -2.813539e-05 -5.8170353e-05 3.9605424e-05
000080 ba 44 2d b7 2b bc 30 b8 8d e9 21 37 8a 60 46 38
       -1.0327605e-05 -4.2136915e-05 9.650726e-06 4.7296788e-05
000090 dc 40 2f 37 a5 18 54 37 ef 50 a7 b6 4c de 1a 38
       1.0445914e-05 1.2641923e-05 -4.9864097e-06 3.692349e-05
0000a0 47 7e f8 37 fb 6b 4b b8 c9 1a 4d 37 9a 73 29 b8
       2.9622706e-05 -4.8499536e-05 1.2225189e-05 -4.0400402e-05
0000b0 9a 5e 7b b7 f7 0d c5 b7 31 3d f3 b7 0c de dd b6
       -1.4982792e-05 -2.3490733e-05 -2.8996352e-05 -6.612163e-06
0000c0 ae 3c 84 37 e8 7a a6 b6
       1.5763882e-05 -4.9614937e-06

motion_mlp.mlps.0.norm0.alpha f4 [1, 54, 1]
000000 ff 0f 60 3e bd f0 54 3e f7 92 93 3e 4c 91 4c 3e
       0.21881102 0.2079496 0.28823063 0.19977301
000010 43 5e 51 3e ba 46 40 3e 32 7b 61 3e c1 ee 32 3e
       0.20446114 0.1877698 0.22019652 0.1747389
000020 cb 54 88 3e fb 20 b0 3e 75 c1 8b 3e 50 85 4e 3e
       0.26627192 0.34400162 0.27296034 0.20168042
000030 ab 19 5a 3e e7 4f 43 3e 2b 7b 31 3e 23 55 8c 3e
       0.21298854 0.19073449 0.17332141 0.27408704
000040 9d 9a 69 3e 05 96 3c 3e d5 48 81 3e 57 eb d9 3e
       0.22812887 0.18416603 0.2525088 0.42562363
000050 d3 d6 73 3e 7c e2 56 3e 10 f7 72 3e 99 28 55 3e
       0.23812418 0.20984834 0.2372706 0.20816268
000060 32 61 6a 3e b0 4a 86 3e 08 fd 58 3e 58 be 4f 3e
       0.2288864 0.26228857 0.21190274 0.20287454
000070 31 54 9e 3e bc 0b 58 3e cc e7 53 3e cf 2e 95 bb
       0.30923608 0.21098226 0.20693892 -0.004552699
000080 d5 44 5a 3e 7c 2e 79 3e 57 88 78 3e a9 ec 3d 3e
       0.2131532 0.24334139 0.2427076 0.1854731
000090 c0 45 69 3e 48 5b b8 3e 4b 1d 66 3e f4 ef 34 3e
       0.22780514 0.36007142 0.22472112 0.1766966
0000a0 24 f7 5d 3e a2 b2 47 3e 3c a2 67 3e 5f eb 49 3e
       0.21676308 0.19501737 0.22620481 0.19718693
0000b0 f5 fd 96 3e 13 63 81 3e 98 16 e8 3e 30 71 3f 3e
       0.2949063 0.252709 0.45329738 0.18695521
0000c0 b0 89 4f 3e b8 70 92 3e cb 3c 4c 3e 9e d0 4a 3e
       0.20267367 0.28601623 0.19945066 0.19806144
0000d0 67 f1 5a 3e f7 57 96 3e
       0.2138115 0.29363987

motion_mlp.mlps.0.norm0.beta f4 [1, 54, 1]
000000 aa 8f 37 b8 df 17 6f b9 e8 9a 1e 3c fd 41 60 3a
       -4.3764398e-05 -0.00022801709 0.009680487 0.0008554755
000010 50 bd 86 b9 fe 8f a6 3a 63 31 ab 3a 2b d6 a9 3a
       -0.0002569952 0.0012707708 0.0013060983 0.0012957504
000020 c1 50 48 3b e4 9b 9b ba d8 24 00 3c 31 43 63 ba
       0.0030565711 -0.001187202 0.007821284 -0.0008669375
000030 e7 df af ba a8 88 44 bb 83 e0 81 ba 97 f4 66 39
       -0.0013418169 -0.002998868 -0.0009908829 0.00022025626
000040 12 d0 4f b9 f0 77 a3 ba 3c 4c a3 3a c9 7e 22 39
       -0.0001981857 -0.0012471657 0.0012458633 0.00015496755
000050 d3 41 32 ba 36 07 16 bb 07 0f 4c 3a 4c c2 05 bb
       -0.00067999697 -0.0022892482 0.00077842217 -0.002041
000060 6f 25 7f bb 9f 86 04 bb 59 ce 80 b9 03 8b 13 3a
       -0.0038932224 -0.0020221842 -0.00024567803 0.00056283193
000070 6a 17 1e 3b 2e 82 38 39 da 90 28 ba 09 11 66 3d
       0.0024122843 0.00017596103 -0.0006430276 0.05616859
000080 51 6a 11 3b 47 1e c4 39 a6 e4 25 bb 34 eb 73 ba
       0.0022188614 0.00037406592 -0.0025313287 -0.00093047624
000090 c5 bd 13 bb 7d e7 d9 ba 8f 75 72 ba 77 f9 8e 3b
       -0.0022543531 -0.0016624775 -0.0009249085 0.0043632346
0000a0 54 23 68 b9 ba e7 c8 3a 03 81 79 b9 54 3f a2 ba
       -0.00022138405 0.0015327849 -0.00023794551 -0.0012378492
0000b0 56 66 0f b9 46 97 51 ba e8 43 34 3a 10 30 9b bb
       -0.00013675666 -0.0007995259 0.0006876574 -0.004735954
0000c0 9d 06 8a 3a 57 3d b9 bb 9d 67 1a b9 d0 92 bb 3a
       0.0010530535 -0.005653064 -0.00014725183 0.0014310721
0000d0 f7 12 0f 3a e8 ac cb b9
       0.0005457843 -0.00038848002

motion_mlp.mlps.1.fc0.fc.weight f4 [50, 50]
000000 31 15 93 bc 02 fb 8f bc c0 35 31 3d 52 1f 4b bc
       -0.01795444 -0.017575745 0.04326415 -0.012397604
000010 7f c3 a3 3b 99 0a d1 bc c5 65 b5 3a ca 68 12 3c
       0.00499767 -0.025517749 0.0013839534 0.0089361165
000020 24 f0 10 3c 5b ba c5 bc 9b 7c 65 3c 5b 71 92 3c
       0.0088463165 -0.024136713 0.014006759 0.017876318
000030 69 06 a1 3b 81 c7 52 3c 1d 17 52 3b 79 7a ec bb
       0.004914094 0.012864948 0.0032057234 -0.0072167483
000040 49 8e a7 3b 96 fe 12 bc d0 e0 8f bc 94 34 65 bc
       0.0051133973 -0.008971831 -0.017563254 -0.013989586
000050 44 4c 4e bd f7 3d 5c bd 5b de e1 bc 8a 86 b3 b9
       -0.0503657 -0.05377003 -0.027571848 -0.0003424178
000060 c6 a9 85 bb 29 1e 09 bc 0a 80 8c 3c f6 96 2d 3b
       -0.0040790765 -0.008369007 0.017150898 0.0026487685
000070 d5 24 ed bb 6e 9e 15 3c 6e fe 97 3c 12 a1 30 bc
       -0.0072370567 0.009132011 0.018553939 -0.01078059
000080 3b e6 e2 bc 2d c1 e7 bc 2e bf 84 bc d3 9a 50 bc
       -0.027697673 -0.028290356 -0.016204443 -0.0127322255
000090 f9 0e 13 bd 72 92 92 3c c4 b7 92 bc 32 f6 ff ba
       -0.03590295 0.017892096 -0.017909892 -0.0019528328
0000a0 51 71 59 bc 0a e2 6a 3b 1f b2 ff bb 9e 15 6e bc
       -0.013271646 0.0035840296 -0.007803216 -0.014531521
0000b0 38 0a 94 3c 37 bd 21 bd 6d 44 00 bd 36 2a fb bc
       0.018071279 -0.03948709 -0.031315256 -0.030659776
0000c0 72 bd b5 3c a4 c8 e0 bb e9 32 1f 3c ec 59 01 bd
       0.022185061 -0.0068598557 0.009716728 -0.031579897
0000d0 26 d7 96 3d 36 91 4f bc 59 21 8d bc 1b 5f e1 ba
       0.07365255 -0.012668898 -0.017227815 -0.0017194481
0000e0 14 9a 57 bd df 06 10 bc 35 a1 d2 3b 7f bd 97 bc
       -0.052637175 -0.008790701 0.006427909 -0.018522976
0000f0 19 21 06 bc 01 fb 35 3d 94 5b 03 3b a1 c4 f4 3a
       -0.008186602 0.04442883 0.0020043598 0.0018674323
000100 dd f9 f0 3c 4c c6 4d bb e9 a5 1a 3c da 0e fc 3c
       0.02941602 -0.0031398712 0.00943897 0.0307688
000110 10 3e 85 3b 35 67 55 bc 8f 3b f7 3c 0c ff ab 3b
       0.0040662363 -0.013025095 0.030179767 0.00524891
000120 42 cd 4a 3d d2 e9 6f b9 47 c0 65 bb f6 51 27 3c
       0.049512155 -0.00022879921 -0.0035057233 0.010212412
000130 e5 bf f0 3c e3 2c b1 3c 1b 21 f3 3b 99 f2 63 bb
       0.029388377 0.021627849 0.007419718 -0.003478205
000140 c7 84 ad bb 1f ee 8d bc 4f bb 94 bb 77 44 14 3c
       -0.0052953693 -0.017325459 -0.0045389305 0.009049526
000150 c6 3b a8 bb 0a 0e 71 3c d6 c4 8f 3c 0e c3 98 bb
       -0.0051340787 0.01471282 0.017549913 -0.004661924
000160 ff a8 0b 3c aa 75 07 3c dc 98 d8 3c bc e2 88 bb
       0.0085241785 0.008267799 0.026440077 -0.0041774195
000170 eb cc 18 3c 2a 03 4a bc fa ba 75 3d a2 d5 b9 3b
       0.0093262 -0.012329856 0.059992768 0.005671219
000180 db a7 61 bc 9d b1 d8 39 9f 29 98 3b b7 9c 84 bc
       -0.01377293 0.00041331063 0.0046436335 -0.016188009
000190 fa 61 8a 3a a0 8b 1a bb 93 9e 68 bc c4 f3 05 bc
       0.0010557764 -0.0023581758 -0.014197963 -0.008175794
0001a0 66 bd 9b 3b 72 36 87 bc 66 a9 95 bc 6d 32 ac 3a
       0.0047528027 -0.016505454 -0.018269252 0.0013137587
0001b0 bc 53 25 bc 28 17 93 3c 0f 03 db ba 48 eb 7f bc
       -0.010090765 0.017955378 -0.0016709286 -0.01562006
0001c0 5b 5d f4 bb 6e 10 06 3b 00 2c 87 3b 00 8e 0d bc
       -0.007457418 0.002045657 0.0041251183 -0.0086398125
0001d0 ea 20 a1 ba ad 36 3d 3b 3b b1 a8 bb 71 cb 69 bb
       -0.0012293134 0.00288717 -0.0051480806 -0.003567424
0001e0 e1 72 db bd 35 61 a2 3c 68 ad 3f be e9 8f 22 3c
       -0.10715271 0.019821743 -0.18718493 0.009922006
0001f0 92 3d 06 bc d4 22 de 3b 93 8a be bc eb 6c 05 bc
       -0.00819339 0.006779054 -0.023259437 -0.008143644
000200 da fc ae b9 64 8f 1b bb e7 c5 ef bc 8e 37 f3 3a
       -0.00033376255 -0.002373659 -0.029269172 0.0018555985
000210 1c 6e 18 3b 95 1a 26 3c 85 d8 8a bb c3 93 9e bd
       0.002325899 0.010138174 -0.004237237 -0.07743027
000220 a5 c0 dc bc 6e 4b a2 b7 3d e2 a4 39 8e d3 15 bc
       -0.026947329 -1.934703e-05 0.00031449078 -0.009144677
000230 51 7f 2a bc df 1c af bc 85 84 f0 3b ed 59 42 3c
       -0.010406331 -0.021376071 0.0073400163 0.01186226
000240 a9 1b 28 bc e5 7d d8 b9 f0 75 e1 3a 94 76 cd 3b
       -0.010260501 -0.0004129253 0.0017201286 0.006270239
000250 c1 dd 03 3b 07 fd 1d 3c 11 d1 0b 3c 16 57 9b 3b
       0.002012119 0.009642846 0.008533732 0.004740606
000260 24 1c 0c 3d e1 cd dc 3c 38 dc 40 3d e9 c5 ce 3c
       0.034206524 0.02695364 0.047085017 0.025240855
000270 fa f5 42 bd 6f 00 f0 bc c9 0b 37 3c 35 54 86 3c
       -0.047597863 -0.029297082 0.011172243 0.016397575
000280 56 6e ff 3a a4 e2 72 3c 7a 47 02 3c 2f 11 c9 bc
       0.0019487839 0.014824543 0.007951612 -0.024544327
000290 f0 f3 44 3d b0 5e 58 bc cc 9a 94 bc 07 74 28 3c
       0.0480842 -0.013206169 -0.01814022 0.010281569
0002a0 f0 73 ec 3b c5 e9 bb bb 8b 14 18 bd 9f f2 b8 3c
       0.0072159693 -0.0057346546 -0.037128966 0.022576628
0002b0 9d 88 2f bd cc cd f3 bb 70 98 1f 3c 1a 68 85 ba
       -0.042854894 -0.0074403044 0.009740934 -0.0010178119
0002c0 b6 c8 16 bc 2d 62 b7 3b f0 d8 62 bb 11 58 45 bc
       -0.009203127 0.0055964203 -0.0034614168 -0.012044922
0002d0 2d 6c 38 3b ed 3d 7d 3c c9 19 9b 3c a9 52 f6 3c
       0.002814065 0.015456659 0.018933194 0.030068712
0002e0 c1 d3 67 bc c4 df 16 bd a0 23 16 3d 94 28 0d bc
       -0.014149607 -0.036834493 0.03665507 -0.008615632
0002f0 f5 c7 06 bc 11 17 1b bc 88 6d f9 bb d2 12 1b 3c
       -0.008226384 -0.009465949 -0.007611934 0.009464936
000300 b6 2f 2f bc 2b a2 3b 3c ef 24 08 bd da fe 6f 3c
       -0.0106925275 0.011452238 -0.033238348 0.014648164
000310 5e 1c 01 3d 2a ac b3 3c d4 09 d4 bb d4 70 75 3c
       0.031521194 0.02193268 -0.006470898 0.014980514
000320 da 3c 46 bc 38 37 46 3c 40 55 db bc 4b 28 e1 bc
       -0.012099469 0.012098126 -0.026774049 -0.027485033
000330 20 98 3b bd 72 36 f1 ba a0 09 55 3d 97 0f e6 3c
       -0.045799375 -0.0018403067 0.052011132 0.028083606
000340 fc 92 5c bd 28 1d 0e bc bc e1 81 3c 35 12 02 ba
       -0.053851113 -0.008673944 0.015854709 -0.00049618195
000350 dd c9 59 bc d4 6a ba 3c 8a 15 b4 3a 28 be 94 3c
       -0.013292757 0.022756018 0.0013739329 0.01815708
000360 b0 4d b3 bb 84 6c 00 bb 42 16 c4 3b 1e af 16 bc
       -0.0054719076 -0.001959593 0.0059840987 -0.009197025
000370 5d bf 82 bc 68 4d be 3b 5e 12 c1 bc d0 d5 bc bc
       -0.01596039 0.0058075674 -0.023568328 -0.023051172
000380 2d 82 9e 3c 43 da ac 3c 52 61 18 bd 0d ae 1d bd
       0.019349182 0.021100169 -0.037202187 -0.038496066
000390 50 b2 a2 3c 54 b3 0f 3d 62 76 15 bd 45 f4 69 bc
       0.019860417 0.03508313 -0.03648985 -0.01427943
0003a0 6c dd 9c bc 77 11 5c 3a cb ee b4 bc bd e8 b9 bc
       -0.01914855 0.00083949364 -0.022086522 -0.022693986
0003b0 13 dc e0 bc cb e6 81 3c 87 50 24 bb 2a 65 d8 3c
       -0.02744869 0.015857121 -0.0025072412 0.026415426
0003c0 89 f0 36 3d a4 9f 2f 3d e0 68 2a 3b 69 c0 cf 3a
       0.044662986 0.042876855 0.0026002452 0.0015850189
0003d0 e9 21 02 3c 98 1f 41 3c 04 e0 bf bc 07 08 09 bd
       0.007942655 0.011787318 -0.023422249 -0.03345492
0003e0 e9 63 a3 bc 7f 23 dc b8 31 26 30 3c 5c d3 15 3c
       -0.019945102 -0.00010497029 0.010751293 0.00914463
0003f0 68 57 20 bc f5 7b 95 3c 40 06 d2 3b 87 53 29 bd
       -0.009786464 0.018247584 0.0064094365 -0.041339424

motion_mlp.mlps.1.fc0.fc.bias f4 [50]
000000 96 15 40 b6 44 7d de 36 e3 9c 51 b7 15 82 a2 b5
       -2.8622794e-06 6.6306984e-06 -1.2493899e-05 -1.2107799e-06
000010 3c a2 9f 36 15 62 8d b6 40 38 29 36 14 2e c1 b6
       4.757456e-06 -4.2135457e-06 2.5215704e-06 -5.7572124e-06
000020 8b 1f 0c b6 86 f2 1b b6 60 77 65 b5 10 76 7f b6
       -2.0879986e-06 -2.3237967e-06 -8.548286e-07 -3.8066682e-06
000030 94 58 b6 b6 d3 f8 32 37 61 bd 39 36 94 23 e0 b5
       -5.4343345e-06 1.0667561e-05 2.7677381e-06 -1.6699655e-06
000040 1e c7 24 36 d5 e9 1c 36 f0 9a a9 34 86 2c 31 b6
       2.4553806e-06 2.338192e-06 3.1591435e-07 -2.6400971e-06
000050 c4 e6 9e b5 e6 b9 4b b6 2f a5 75 36 33 8f 45 b6
       -1.1839079e-06 -3.0357564e-06 3.6603994e-06 -2.943864e-06
000060 d5 8f 84 b5 91 4c 20 36 93 ce 0b 36 87 16 e6 35
       -9.876627e-07 2.3886425e-06 2.0832856e-06 1.7142892e-06
000070 7e 45 d2 35 1c 77 97 b5 22 9e 52 b6 e0 42 0e 37
       1.5666444e-06 -1.1285042e-06 -3.1384484e-06 8.47943e-06
000080 3d 3c 0e 35 c3 0f 21 b6 5b fb 32 b7 b3 4e eb b7
       5.298678e-07 -2.4000044e-06 -1.066815e-05 -2.805083e-05
000090 cb f2 d5 b5 e2 0e 2d 36 53 d1 85 37 d4 f2 e9 b6
       -1.5940399e-06 2.5787672e-06 1.595231e-05 -6.97221e-06
0000a0 4a f8 86 36 97 1d 03 36 6a 3b c5 36 f2 63 0b b6
       4.022416e-06 1.9537745e-06 5.877974e-06 -2.077079e-06
0000b0 06 f5 a3 b6 2c e6 c1 36 90 7f 68 b5 c7 bb bc 35
       -4.886303e-06 5.7786438e-06 -8.661236e-07 1.4061742e-06
0000c0 7e 37 d3 35 a2 c5 f1 34
       1.5736875e-06 4.5033545e-07

motion_mlp.mlps.1.norm0.alpha f4 [1, 54, 1]
000000 b9 e1 37 3e b4 4e 14 3e b1 8b bd 3e 49 26 2b 3e
       0.179572 0.14483148 0.3702064 0.16713823
000010 16 5b f5 3d c7 8d 45 3e 17 82 cb 3d 10 9e 08 3e
       0.11980264 0.19292365 0.09936922 0.13341546
000020 67 5e e6 3d ff 22 82 3e 27 f5 9f 3e 55 a1 d3 3d
       0.112484746 0.25417325 0.31241724 0.10333506
000030 4b 59 10 3e a1 1c 1e 3e 57 90 f1 3d 65 41 36 3e
       0.14096563 0.15440609 0.11795109 0.17798384
000040 d6 78 11 3e 13 02 02 3e a2 9b 26 3e 39 72 d5 3e
       0.14206252 0.12696104 0.16270307 0.41688707
000050 9a 82 0a 3e f4 c0 13 3e 33 31 22 3e 3d 56 d1 3d
       0.13526383 0.14429075 0.1583908 0.10221527
000060 7e 3d 4a 3e 3f 5b 72 3e 12 44 f9 3d aa 88 07 3e
       0.1975002 0.2366762 0.121711865 0.13235727
000070 16 69 f9 3d 48 18 03 3e 63 e9 fc 3d e1 ff 85 b9
       0.12178247 0.12802231 0.123492025 -0.00025558381
000080 36 90 b8 3d c3 79 04 3e fa 99 6c 3e 85 59 11 3e
       0.09011881 0.12937073 0.23105612 0.14194305
000090 fe 60 f7 3d 36 ca 67 3e 97 32 0d 3e 02 01 64 3e
       0.12079047 0.22635731 0.1378883 0.2226601
0000a0 be 74 16 3e ca 6f 19 3e e0 3c 18 3e 45 30 ef 3d
       0.14692971 0.1498405 0.14866972 0.116791286
0000b0 20 ae 44 3e e7 4c 23 3e a3 86 e1 3e 1f 19 1b 3e
       0.19207048 0.15947305 0.44048032 0.15146302
0000c0 e0 67 24 3e d0 af 99 3e da bc f2 3d 4f 09 35 3e
       0.1605525 0.30016947 0.11852427 0.17679332
0000d0 2c 2d 06 3e e6 99 65 3e
       0.13103169 0.22421989

motion_mlp.mlps.1.norm0.beta f4 [1, 54, 1]
000000 32 ee 96 bc aa eb 06 3d 4a 30 87 3b 93 a8 54 bc
       -0.018424127 0.03293959 0.0041256296 -0.012979644
000010 80 f8 4e 3b 75 11 3f bc 24 26 4c 3b 0c 40 72 3b
       0.0031581223 -0.011661877 0.0031150663 0.0036964444
000020 5e cc 9f bb 58 e5 3d bd c8 0f 8e 3d 12 a2 5c bb
       -0.0048766574 -0.046361297 0.06936604 -0.0033665937
000030 10 33 28 3c 33 68 03 bb 94 63 e3 3b d8 e8 16 3d
       0.0102660805 -0.0020051121 0.006939361 0.03684315
000040 fd fe 79 3c aa 55 00 ba 1d 0b 21 bd b6 d0 4a 3b
       0.015258548 -0.00048955774 -0.03931724 0.0030947155
000050 b8 d0 0c bc 8e 8e 32 bc 1d 94 dc bb e9 ca aa ba
       -0.008594684 -0.0108982455 -0.0067315237 -0.0013030443
000060 53 06 2f 3b b8 95 34 38 0a 87 67 bb 2d 88 1e 3b
       0.002670665 4.305478e-05 -0.0035328292 0.0024190054
000070 36 38 c3 3b 02 df 5f 3c 53 3d 0b bc df df 3f bb
       0.0059576286 0.013664009 -0.008498508 -0.0029277725
000080 34 dc 03 bd d6 b8 cb bb ec 96 29 bc 67 38 04 bc
       -0.032192424 -0.0062171025 -0.010350924 -0.008070088
000090 2a 96 f6 3a d3 f7 75 3d 38 6d 2d 3a 45 8d d2 3c
       0.0018813063 0.060050797 0.0006615701 0.025702128
0000a0 19 00 d1 bb ca c8 41 3b 0a bb a9 bb 45 47 20 3c
       -0.0063781855 0.0029569142 -0.0051797675 0.009782617
0000b0 37 e3 26 bc 96 12 56 3b 46 85 19 bc ba 97 b8 bc
       -0.010186008 0.0032664887 -0.009370154 -0.022533286
0000c0 9e ef 2d bc 9a d1 3e 3c c5 98 b3 3b 2e 12 a6 3b
       -0.010616211 0.011646653 0.005480858 0.005068085
0000d0 c0 cc 07 3a 17 75 ac bc
       0.00051803514 -0.021051927

motion_mlp.mlps.2.fc0.fc.weight f4 [50, 50]
000000 f2 56 11 bc f9 d7 6b bc f6 b4 f3 3b d9 d4 bc bc
       -0.008870827 -0.014394754 0.0074373437 -0.023050712
000010 22 f0 16 3c 4e 1d a4 b9 50 2b 0e bb fa c3 92 bc
       0.009212526 -0.0003130235 -0.0021693297 -0.017915715
000020 7d 67 c6 3b a7 94 8b bc 1f 5b 31 bc bb 87 ce ba
       0.0060548172 -0.017038656 -0.010824948 -0.0015757004
000030 f0 83 31 bc a3 2c 49 3c e3 4d c2 ba e5 da 4c bd
       -0.010834679 0.012278709 -0.0014824237 -0.05001344
000040 ef 52 0f bb 99 c5 eb bc c9 80 2f bc eb 7c 41 3d
       -0.00218695 -0.028780745 -0.010711857 0.04723827
000050 6f 96 b8 bc 9e 1a 8a bc 2a 2f d7 bc 3c 00 c4 bc
       -0.02253267 -0.016858395 -0.026267607 -0.023925893
000060 17 01 b1 3c e9 bc 49 bc 06 a7 db bb 59 88 74 3c
       0.021606965 -0.012313106 -0.0067032604 0.014925086
000070 bc 4d dc bc d3 c1 38 bc 89 ad cb b9 9b 67 54 bc
       -0.026892535 -0.01127668 -0.0003884847 -0.012964155
000080 02 31 85 bc 66 90 ed bb 02 2d f4 bc c3 76 89 bc
       -0.01625872 -0.0072498797 -0.029806618 -0.016780263
000090 de a0 5b bd dd bd a2 bc 8a d9 1c bc 06 fd 03 bd
       -0.05362021 -0.019865924 -0.00957335 -0.032223724
0000a0 df 70 3e bc 6f 52 3b 3a 83 7b 3b 3c 22 eb e9 bb
       -0.01162359 0.00071457674 0.011443022 -0.0071386257
0000b0 42 d2 74 bc 58 9b ef bb df 2e 3b bb ef 7c f0 bc
       -0.0149427075 -0.0073122196 -0.0028561873 -0.029356448
0000c0 72 e9 99 3c c5 ae 41 bc 2a 31 f7 3b b4 34 29 bc
       0.018788073 -0.011821453 0.0075437026 -0.010327507
0000d0 8a 8b 63 3b e3 c2 6f bc d8 7b 30 bc a9 01 08 bb
       0.0034720623 -0.014633867 -0.010771714 -0.0020752943
0000e0 c3 22 cb bc 06 e6 a9 bc cb ca 6d 3a ca 03 b6 bc
       -0.02479685 -0.020739567 0.0009071051 -0.022218604
0000f0 68 6a a1 bc 5e 75 8c 3b cf 3d 2a bd 2e 10 cb 3c
       -0.019704059 0.004286452 -0.04156285 0.024787989
000100 20 25 d5 bc c5 30 48 bd 2e b9 17 bc c2 bc 32 bc
       -0.02601868 -0.048874635 -0.009260459 -0.010909261
000110 4f 51 2f bc 9b 11 de 3b ce 4d 79 bc bf 44 cb bb
       -0.010700538 0.006777001 -0.015216304 -0.0062032635
000120 38 e4 1c bc 55 d5 9e 3c a4 b8 09 bc 8c e3 a5 bb
       -0.009575896 0.019388834 -0.008405838 -0.005062526
000130 db 0f 71 bc c1 2e 67 3c 95 d4 97 bc f1 ea 91 bc
       -0.014713253 0.014110268 -0.018533984 -0.017812224
000140 cc 85 fb b9 7a ae 92 3b 8a e3 2b bb 2b 8b 51 bc
       -0.00047974137 0.0044763656 -0.0026228153 -0.012789528
000150 5f 6a 95 bc 9e 4f 3a bc 46 69 01 bd f0 b9 a6 3c
       -0.018239198 -0.011371521 -0.031594537 0.020352334
000160 85 23 cf bb ef e7 d5 bc fc a3 de bb 90 b0 5b 3c
       -0.006321373 -0.026111571 -0.006794451 0.013408795
000170 e6 44 e6 bb 9f 9f 3f bc f1 0c af bb b9 97 70 bc
       -0.0070272563 -0.0116957715 -0.005342119 -0.014684611
000180 a0 f9 e3 bb ca 8e 89 bc 53 99 4f 3b d2 fa 32 bc
       -0.006957248 -0.01679172 0.0031677082 -0.010924058
000190 96 1c b6 3a 20 67 b3 bb 21 e0 00 3d 40 b9 2b bc
       0.0013894017 -0.00547494 0.031463746 -0.010481179
0001a0 91 db 82 bb ce 8f cd 3c ce c5 25 bd 01 48 d1 3b
       -0.0039934595 0.025092985 -0.040471844 0.0063867574
0001b0 47 dc 76 bb b3 76 68 3c d1 77 2c bc 79 ff c3 ba
       -0.0037667917 0.014188456 -0.010526613 -0.0014953456
0001c0 11 7d b4 3a a6 8c d1 3c 02 c8 8a 3a 8e 47 7d bb
       0.0013770183 0.025579762 0.0010588171 -0.0038647386
0001d0 5b 3e 38 3c 6d 44 23 b9 e0 e8 f6 3b 48 84 ee 3a
       0.011245335 -0.00015570382 0.007535085 0.0018197382
0001e0 1c e6 33 bd 2b bd ab bb d6 fa 11 bd 4f 18 0b 39
       -0.04392062 -0.0052410564 -0.035639606 0.00013265129
0001f0 2c 53 80 bb a8 33 51 bb 65 c4 03 bb 18 8a 11 3c
       -0.003916165 -0.0031921659 -0.0020106074 0.008883022
000200 19 51 b2 3a b5 f3 92 3c 54 01 30 bc 3f e9 68 bc
       0.0013604491 0.017938474 -0.010742504 -0.014215766
000210 11 e4 d3 3c 15 f7 10 bc 2d c2 c1 3c 1e 6f 41 bd
       0.025865586 -0.008847971 0.02365216 -0.04722511
000220 9a f3 a7 bc 25 03 e2 3b 5b e4 b4 bd b7 3c 99 3d
       -0.0205019 0.0068973475 -0.08832618 0.074822836
000230 92 29 69 bc b7 ad 7b 3b ec 5a 69 3c b6 5b 41 3c
       -0.014231103 0.0038403103 0.014242869 0.011801651
000240 a5 03 b8 bb 3e e7 12 3d 31 04 e1 3b 81 0d 0c 3c
       -0.005615669 0.03586506 0.0068669547 0.008548141
000250 a3 bd ab 3b 9b 62 51 3c 1a 96 8d 3c fa f1 20 3c
       0.0052411123 0.012779857 0.017283488 0.009823317
000260 42 5b af 3b 92 37 20 bd b7 9e 76 bc fa 09 fe ba
       0.005351455 -0.039115496 -0.015052489 -0.0019381635
000270 6b 1a e5 3c 0d c1 ae 39 46 5f 33 3c ef df 82 3c
       0.027966699 0.000333317 0.010948008 0.01597592
000280 05 a6 ee 3c 04 98 9d 3c c7 67 b6 bc cc ea 69 bc
       0.029131899 0.019237526 -0.022266282 -0.014277171
000290 ef 73 d8 3c b0 20 21 3c c0 e9 4b 3c 0d e3 0d 3b
       0.026422469 0.009834453 0.012445867 0.0021650225
0002a0 01 c9 9b 3c 45 5f c7 3c 54 b9 9c bb 18 e1 64 bc
       0.019016745 0.02433742 -0.004782835 -0.013969682
0002b0 33 19 13 bc ca 4d 3f 3d 38 dc 8e bb 31 d4 7c 3c
       -0.008978176 0.046705045 -0.004359748 0.01543145
0002c0 23 8f c3 3c 0e 60 39 bc 96 9a 9f 3c b6 dc ce 3c
       0.023871964 -0.011314405 0.019482892 0.025251728
0002d0 49 45 db 3c 1a 4c a8 ba 9f e5 20 3d bf 5c 40 bc
       0.026766436 -0.0012840063 0.039281484 -0.011740862
0002e0 81 e7 8e 3c a7 03 44 bc ff ba 08 3d d0 24 09 bd
       0.017444374 -0.011963761 0.03338146 -0.033482373
0002f0 c4 45 c0 3c 71 cc 45 3c 79 da 3d 3b 48 09 3e 3b
       0.023470767 0.012072668 0.0028969331 0.0028997231
000300 82 f5 84 bb 6a b7 bb 3b bc e0 cb 3a 94 d5 89 bc
       -0.004057587 0.005728652 0.0015554647 -0.016825475
000310 ac 77 b0 3c 39 0a 5c 3c fb eb 5c ba ce 37 30 3d
       0.021541439 0.013430172 -0.0008427498 0.04302197
000320 4e c3 94 3c 79 9d 2f 3d f7 95 9d bb 5e ba aa 3c
       0.018159535 0.042874787 -0.004809137 0.02084082
000330 f0 2f 5c bd bb 8f 14 bd 84 39 9a bc 96 7f 75 3b
       -0.053756654 -0.036269885 -0.018826254 0.003746008
000340 5f e1 2a 3c d7 e4 b1 bc 0b 24 ba bb e8 31 c6 ba
       0.010429709 -0.021715565 -0.005680566 -0.0015121074
000350 74 06 f2 3c b8 ff a2 3b 6b 98 76 3b fb cd 58 3c
       0.029544093 0.0049743317 0.003762747 0.013232703
000360 4d 10 b9 3c 1e d2 cd bc 72 45 92 bc 7d a2 d3 3c
       0.02259078 -0.025124606 -0.01785538 0.025834316
000370 b7 58 88 bc 2c ad 04 ba ec 09 37 bd 3a cc 62 bb
       -0.016643865 -0.0005061205 -0.044687197 -0.0034606592
000380 cc 2b 05 bc 38 c3 3a b9 06 0c 74 3c 3a e8 98 3c
       -0.008128118 -0.00017811067 0.014895445 0.018665422
000390 68 e3 76 3c e4 bd 79 bc 45 85 2b bc 68 97 ff 3c
       0.015068866 -0.015243027 -0.010468786 0.031200126
0003a0 fe cc a7 3c a6 20 2a bb ca cb bf 3b f4 59 10 bd
       0.02048349 -0.0025959401 0.005853151 -0.035242036
0003b0 ff 2d 63 bc c2 bd 82 bc 0a 12 e0 3b ba 8f b6 ba
       -0.013865947 -0.015959624 0.006838088 -0.0013928332
0003c0 b3 f3 54 bc d1 7d 0a bd 8b 9a 19 bc 74 67 91 3c
       -0.012997556 -0.033811394 -0.009375225 0.017749526
0003d0 23 93 05 3c 87 69 5f bb ce d2 5f bc 95 8c e4 bc
       0.008152756 -0.0034089999 -0.0136611 -0.027899066
0003e0 76 fd 18 3c 3d 3f be bb 06 14 df bc bd a0 f2 bb
       0.009337774 -0.0058058784 -0.027231228 -0.0074044154
0003f0 2b a0 20 bb aa 02 c1 3c b5 10 9e 3b 72 6b fa bc
       -0.002450953 0.02356084 0.004823769 -0.030568812

motion_mlp.mlps.2.fc0.fc.bias f4 [50]
000000 44 40 c0 34 4b 76 41 b5 c2 34 d4 35 9b c9 21 b5
       3.5809546e-07 -7.207024e-07 1.5810585e-06 -6.027055e-07
000010 6a 1e ce 35 20 f8 a7 b1 8e dd 8e b4 3f b9 da b5
       1.5357048e-06 -4.8885482e-09 -2.6610763e-07 -1.6296179e-06
000020 4e 7b 07 35 d1 30 66 b6 bd 03 fe 34 29 6f 37 35
       5.047085e-07 -3.4301086e-06 4.7313907e-07 6.833457e-07
000030 55 c0 0d b6 22 cd 16 b6 1a 63 db 35 0b e0 7e b5
       -2.112259e-06 -2.2471145e-06 1.6345614e-06 -9.49484e-07
000040 cd d3 ad 35 7d f8 e6 35 c0 9e 65 35 ab 5a 8d b4
       1.2951147e-06 1.7208655e-06 8.554016e-07 -2.6329266e-07
000050 90 f2 f7 32 3c af 00 b6 09 94 dc b5 43 b8 63 b5
       2.886489e-08 -1.9175486e-06 -1.6434361e-06 -8.4832226e-07
000060 36 c6 10 37 3d 4d 45 b6 6a da 2a b6 2b 65 0d 36
       8.629218e-06 -2.9400246e-06 -2.5459108e-06 2.1069525e-06
000070 d8 9f 93 b4 3c 57 84 34 06 5d cd b4 88 17 fe 35
       -2.7497185e-07 2.4650387e-07 -3.825191e-07 1.8931323e-06
000080 b3 6a 64 b4 1e 69 55 34 14 60 cc 33 b6 e9 ff 35
       -2.1272972e-07 1.9875412e-07 9.516967e-08 1.9066999e-06
000090 71 65 15 35 80 e5 11 36 76 d9 e3 b3 b1 4f 8a b6
       5.565444e-07 2.174027e-06 -1.0610067e-07 -4.121998e-06
0000a0 dc e0 32 b5 22 9d 28 36 de 72 71 34 e5 68 a4 b5
       -6.663738e-07 2.5125414e-06 2.2486662e-07 -1.224948e-06
0000b0 43 92 88 b5 a3 4a 3e b4 a4 00 2e b5 19 19 7d b5
       -1.0175357e-06 -1.7722282e-07 -6.4820983e-07 -9.4286366e-07
0000c0 48 fc 15 b5 57 09 d7 34
       -5.5873943e-07 4.0053666e-07

motion_mlp.mlps.2.norm0.alpha f4 [1, 54, 1]
000000 9e 19 0a 3e 0b c5 f8 3d 7e e4 25 3e fe 36 c8 3d
       0.13486335 0.12146958 0.16200444 0.09776114
000010 f4 47 13 3d 3c 7d c3 3d c0 be 0a 3d ce b2 54 3d
       0.03595729 0.09545371 0.03387332 0.051928334
000020 0a cf 57 3d 57 95 18 3e e7 7e 2e 3e a6 a1 3c 3d
       0.052687682 0.14900719 0.17040597 0.046052597
000030 46 24 53 3d 81 21 a2 3d 00 5d 2a 3d 52 d8 b2 3d
       0.051548265 0.079165466 0.041592598 0.08732666
000040 1b f3 c5 3d 9b 58 52 3d 90 6d d0 3d 98 a8 7a 3e
       0.09665509 0.051354032 0.101771474 0.24478376
000050 4a 2c 58 3d 78 1c 65 3d 7d d0 66 3d 01 cd 1a 3d
       0.052776612 0.055935353 0.056351174 0.037793163
000060 9a d4 00 3e 37 d5 1e 3e 3b a3 32 3d 81 29 4f 3d
       0.12581101 0.15511023 0.0436127 0.05057669
000070 71 90 43 3d ef 83 5e 3d 66 fa 33 3d 85 7e bb bb
       0.047745172 0.05432504 0.04393997 -0.0057218694
000080 cd 44 6e 3d f0 21 e2 3d 83 04 ed 3d e5 5f 71 3d
       0.058171082 0.11041629 0.11573126 0.058929343
000090 d4 76 84 3d 02 c7 10 3e 4a d2 7f 3d 2d 6b 1a 3e
       0.06467977 0.14138415 0.062456407 0.15079947
0000a0 15 7b 84 3d b8 cf af 3d 30 08 a0 3d ae c8 2f 3d
       0.064687885 0.08584541 0.07814062 0.042915992
0000b0 61 c9 c3 3d 0c f9 80 3d 9c 39 79 3e 04 db 84 3d
       0.09559894 0.06297502 0.24338382 0.064870864
0000c0 78 47 e5 3d ba 58 51 3e e4 3d 27 3d a0 37 19 3e
       0.11195272 0.20444003 0.040830508 0.14962626
0000d0 57 ea 28 3d 83 aa c5 3d
       0.04123911 0.09651663

motion_mlp.mlps.2.norm0.beta f4 [1, 54, 1]
000000 c9 b4 26 bd f8 51 54 bc 23 f4 41 3d 83 44 88 3b
       -0.040699754 -0.012958996 0.047351968 0.004158558
000010 92 10 0a 3c ba e6 71 3b 42 13 fe bb c9 87 8f bb
       0.008426802 0.0036911205 -0.0077537606 -0.0043802005
000020 35 cb c9 3b ea aa e4 bc 46 09 4b 3d a2 1a 61 ba
       0.0061582574 -0.02791353 0.04956939 -0.00085870374
000030 91 f7 c0 bb 11 d3 39 3c 3d 61 bc bb de 2f b8 3b
       -0.005888887 0.011341826 -0.0057488964 0.0056209406
000040 4a bc b5 3b 2a 29 24 bb 8c 41 4c 3c b5 a0 ba bc
       0.0055461274 -0.002504895 0.0124667995 -0.02278171
000050 a1 0b 0f 3c f3 16 87 3c 1d 9c 1f 3c d0 15 04 bc
       0.0087308 0.016490435 0.00974181 -0.008061841
000060 3c fb 95 bc 85 bd 13 bc 4d 29 de ba bf 8e 14 bc
       -0.018308274 -0.009017353 -0.0016949564 -0.009067236
000070 38 f4 92 bc 33 ca 0f 3a 8d 49 23 3b 37 d4 81 bb
       -0.017938718 0.0005485147 0.0024915666 -0.0039620656
000080 b9 21 84 3c 93 f4 75 bb f9 a3 5c bd 7f 50 c6 3a
       0.016129361 -0.003752981 -0.053867314 0.0015130191
000090 bd a7 c2 3b c4 30 b5 3d 3b 89 b5 bb 81 7b 8b bc
       0.005940406 0.08847192 -0.005540041 -0.017026665
0000a0 f6 95 b4 3b 1a 61 22 bb 27 fe 95 3b d0 bb df bb
       0.005511041 -0.0024777115 0.0045774165 -0.006827809
0000b0 88 8a 8b 3c d5 ae 59 bb a5 12 15 3c 84 f5 b4 3c
       0.01703383 -0.003321578 0.0090986835 0.022089727
0000c0 8f 87 13 3c 4e 91 aa bc db 9e de bb f4 a8 51 bc
       0.009004488 -0.02082124 -0.0067938394 -0.012796629
0000d0 f1 61 99 ba 5d 87 b2 3b
       -0.0011702162 0.0054482655

motion_mlp.mlps.3.fc0.fc.weight f4 [50, 50]
000000 28 47 ea bb f9 7e e0 bb 7e 2d 29 3d 5a b0 2f bc
       -0.007149596 -0.006851074 0.04130315 -0.010723198
000010 ee cb c2 bb 45 a4 03 3a c5 11 01 3d e6 9e 5b 3c
       -0.0059447205 0.00050217315 0.031511087 0.013404584
000020 78 8f 9b 3c 71 99 12 bc 87 b7 80 3b e6 a0 97 bc
       0.01898931 -0.008947716 0.003928128 -0.01850934
000030 eb c3 07 3a c8 ce 64 3c 83 01 e0 b8 a9 de 12 3d
       0.00051790354 0.013965316 -0.00010681434 0.035856877
000040 e3 b8 43 3c 29 14 9e bb 0f 44 02 3c 69 23 9b bb
       0.011945936 -0.0048241806 0.007950797 -0.004734446
000050 6e 6d e0 bc 45 66 a0 bc b7 fc 53 bc 3d c4 99 ba
       -0.02739593 -0.019580016 -0.01293867 -0.0011731457
000060 6c d0 44 3d 9a d3 8f 3c f4 4b 00 3c ba 77 11 bc
       0.04805033 0.017556954 0.007830609 -0.008878643
000070 17 be 85 b9 90 57 84 3b e9 1c a3 bb 33 f0 22 3b
       -0.00025509365 0.0040387586 -0.0049778116 0.0024862408
000080 14 6d 2e bc 67 3d e2 ba 08 ad f3 3c f5 1b 83 bd
       -0.010646123 -0.0017260731 0.029745594 -0.06401817
000090 ef 6e 43 bc dc 46 44 3b fb 37 06 bd 2a 0e 33 3d
       -0.011928304 0.0029949462 -0.03276823 0.04371468
0000a0 ce e6 35 bb 27 81 8b 3c ea a4 63 bb be 60 d5 3c
       -0.0027755979 0.017029358 -0.0034735748 0.026047107
0000b0 79 9a a3 bc e3 ff e8 ba e9 de 8f bc 09 45 9d bb
       -0.01997112 -0.0017776455 -0.017562347 -0.0047994894
0000c0 cf aa 1f bc 80 a2 01 3b c6 0d 63 3b 2c f5 31 bd
       -0.009745314 0.0019780695 0.003464566 -0.043446705
0000d0 04 3b 46 3b c7 75 4e bc d9 10 3b 3c 9b 9e 12 ba
       0.0030247578 -0.0126013225 0.011417591 -0.0005593092
0000e0 22 53 70 3c f9 d6 8c bc 19 d6 fe 3b 32 71 87 bc
       0.014668258 -0.01719235 0.0077769873 -0.016533468
0000f0 8c a7 0a bc c5 74 0b 3d 81 29 fa bb 4a f5 81 bb
       -0.008462798 0.034046907 -0.007634342 -0.0039660083
000100 8b f2 0f bc 07 0c 58 bb e5 0f c4 3a 44 34 3c 3c
       -0.008785854 -0.0032966153 0.001495835 0.0114870705
000110 04 92 49 bc d2 db 15 3d d3 63 41 3c dd e6 49 bd
       -0.012302879 0.03658659 0.011803585 -0.049292434
000120 b0 d5 41 bc 66 e4 fb bb a4 21 ff bc 12 fd a6 39
       -0.011830732 -0.0076871393 -0.03114397 0.0003185054
000130 47 6e e2 bc 73 81 0a bc 8e 3b a0 bc 7d ab 69 3c
       -0.027640475 -0.008453715 -0.019559648 0.014262077
000140 f6 a8 c7 bc 48 a4 4d bc 3a b5 80 ba a0 a1 05 bd
       -0.024372559 -0.012551375 -0.0009819635 -0.03262484
000150 8a 41 85 bc f9 e8 46 bc 9f 0d 9f bc 73 36 96 bb
       -0.016266603 -0.012140506 -0.019415675 -0.0045841276
000160 05 05 82 bb cf fc c0 bc 7f 4c aa bc 9f 94 96 bc
       -0.0039678835 -0.023558049 -0.02078843 -0.018381415
000170 4d 8c 4b 3c 0d d0 04 3c 91 31 3b 3c f3 ba fc ba
       0.012423587 0.008106244 0.011425392 -0.001928179
000180 48 74 14 3c 8a 15 f5 bc 5f 8b f0 3c b3 00 e0 ba
       0.009060927 -0.029917497 0.029363332 -0.0017090052
000190 9e 54 67 bc 57 89 01 3b a7 75 96 bd 52 1b 85 3c
       -0.014119295 0.0019765699 -0.07346659 0.016248379
0001a0 0f 25 07 bc 2d 2a 26 bc 13 2b 73 3c cc 04 a1 bc
       -0.008248582 -0.010141891 0.014841813 -0.019655608
0001b0 09 7c c9 3a 45 c3 76 bc 4e 8d 73 3c bf c2 80 3c
       0.0015372048 -0.015061204 0.014865233 0.015717862
0001c0 7f ac c5 3b 6d 31 1e bd 33 af 52 bc f3 fd 22 bc
       0.006032526 -0.038621355 -0.012859154 -0.0099482415
0001d0 0c 18 8d 3b c9 16 d1 bc 9e ee a1 3b 28 39 4b bc
       0.004305845 -0.02552356 0.0049417755 -0.012403764
0001e0 3a 96 64 bc d0 99 90 bc ad 8c 3a bc da 48 e3 bc
       -0.013951832 -0.017651469 -0.011386079 -0.0277447
0001f0 68 a9 cb b9 fe 6b e1 bc ff 41 c1 3c 11 e1 00 bb
       -0.00038845395 -0.027517315 0.02359104 -0.00196654
000200 88 09 62 bc 2c e0 f9 3a b1 8f 18 3d 1a ab 74 3c
       -0.013796218 0.0019064001 0.03724641 0.014933372
000210 81 b4 ed bc a6 7e 95 b9 e2 99 52 bb 47 d5 3d bc
       -0.029016735 -0.00028513855 -0.0032135178 -0.011586494
000220 5d ea cc bc 78 b9 bf bc b7 ee f8 3c 94 a7 38 3a
       -0.025014097 -0.023403868 0.030387266 0.0007044014
000230 5b 3c 14 bc ad 14 21 bc 06 71 65 bc 2a 16 35 bc
       -0.009047593 -0.00983159 -0.014003998 -0.011052648
000240 b0 77 4e 3b d3 28 36 3c 1b 28 4e 3b 44 64 ed bb
       0.0031504445 0.011118132 0.003145701 -0.0072446186
000250 5b c3 4c 3a 04 81 f7 3b 51 47 07 bc ee 13 82 3c
       0.00078110927 0.0075532217 -0.008256749 0.015878644
000260 75 ea 3e bc 05 ac e6 ba ed 57 cc 3c 28 1b d7 ba
       -0.011652579 -0.0017598873 0.02494427 -0.0016411291
000270 a9 bf 4f bd 0a f9 ef 3b f1 ef f4 ba 87 25 38 3d
       -0.05071989 0.007323389 -0.0018687231 0.044957664
000280 db 88 e1 3c 13 7d a0 bc 9f 31 a6 3c 6f 3f 4f bc
       0.027531078 -0.01959089 0.020287333 -0.012649401
000290 6b 14 b0 bc 16 ad d4 bc 5c 17 04 3b de d4 53 3c
       -0.021494111 -0.02596144 0.0020155525 0.012929169
0002a0 4d a1 d6 bb e4 4d c4 bc cf 01 3d bc 70 f7 8d bb
       -0.0065499903 -0.023962922 -0.011536076 -0.0043324754
0002b0 c6 c5 ca 3b c3 51 9d 3b 2c b8 90 3c 41 d0 4e 3b
       0.006188127 0.0048010065 0.017665945 0.0031557234
0002c0 35 a2 94 bc cd e2 8e bd 59 a6 66 3a f4 66 f4 3c
       -0.018143753 -0.069768526 0.00087985914 0.029834248
0002d0 56 84 02 bb 0e c9 c1 3c ee 17 54 3c c9 c9 1f bc
       -0.0019915304 0.02365544 0.012945158 -0.009752699
0002e0 f9 cd 8a 3b 37 bb 1a 3b 7a 7d ca 3c f8 a8 8f 3c
       0.0042359796 0.0023610124 0.024718035 0.017536625
0002f0 0b 91 08 bd 9c 6f 8a bb 66 01 ce bb 88 93 88 bc
       -0.03334145 -0.0042247307 -0.006286788 -0.01667191
000300 25 2e 43 bc b6 a6 29 bb c9 a4 57 bc 03 27 6d bc
       -0.011912857 -0.002588672 -0.013161846 -0.014474633
000310 c6 1f 2c 3b 30 c5 c2 3a d7 4c cd bc cf f1 99 bc
       0.0026264056 0.0014859792 -0.025061054 -0.018792061
000320 2a 74 06 3b 31 f6 cd bc 13 3f 80 bc 60 e2 59 bb
       0.0020516017 -0.025141807 -0.015655076 -0.0033246502
000330 c8 8d 34 3d 7e 0e 09 bd bf 78 6f 3d 78 ef b6 3c
       0.044080526 -0.033461086 0.05846476 0.022330984
000340 02 19 34 bd 50 31 d4 bc f8 37 7c bc 76 15 ee bc
       -0.04396916 -0.02590242 -0.015394203 -0.029062968
000350 1b 50 d3 bc 2c 82 4a 3c 1b 4b d9 ba 7b 5a 43 3c
       -0.025795033 0.012360137 -0.0016578169 0.011923428
000360 ad 5c 46 3d 7f ae 8c bc 0a 76 6e bc bc c1 dc 3b
       0.048428226 -0.01717305 -0.01455451 0.006736962
000370 20 56 cc 3c 7d d3 54 bc ac 66 31 bc 07 93 aa bb
       0.024943411 -0.012989876 -0.010827702 -0.0052055153
000380 19 59 44 3c 0b bd ea bc 9f fd 2e 3b 70 dc 9a 3c
       0.011984133 -0.028654596 0.0026701463 0.01890394
000390 7e 31 a2 bb 36 76 f7 bc be 6c 2a bc b2 cd e2 3b
       -0.0049497476 -0.030207735 -0.010401903 0.0069214934
0003a0 0e b3 d2 bb 35 46 30 bd 64 f0 79 bb 8e 69 9c 3a
       -0.0064300364 -0.043035705 -0.0038137669 0.0011933313
0003b0 e8 20 f7 bc cc e9 e8 3b ea ff 3c b8 fa 29 85 3c
       -0.030167058 0.007107949 -4.506103e-05 0.016255368
0003c0 c8 39 ac 3b 4b 31 06 3d 6a cb 3d bc ff ad 64 bc
       0.0052559115 0.032761853 -0.011584142 -0.0139574995
0003d0 b2 c2 49 bc 8b 4b 00 3c 3e 15 3d bc 10 3a ee 3c
       -0.012314485 0.007830511 -0.011540709 0.02908042
0003e0 bd db f7 3b e3 5f a3 bc 32 59 68 3c 9a 80 f8 bc
       0.0075640366 -0.019943183 0.014181422 -0.03033476
0003f0 b9 84 2f 3c 3d 2c 30 bc 3d 6b e9 bc 3c e0 d7 bc
       0.010712796 -0.010752735 -0.028493518 -0.02635204

motion_mlp.mlps.3.fc0.fc.bias f4 [50]
000000 98 fc 3d b6 78 f6 21 35 b6 29 1a 35 99 42 d0 35
       -2.8310224e-06 6.0335833e-07 5.743017e-07 1.551659e-06
000010 65 57 1c b4 78 78 ec b5 b2 b9 85 36 07 8c d1 35
       -1.4560426e-07 -1.7618431e-06 3.9853267e-06 1.5612467e-06
000020 3d 05 ac 35 08 1b 83 b6 7f 58 80 b5 c5 c7 8b b5
       1.2816523e-06 -3.907251e-06 -9.562499e-07 -1.0414448e-06
000030 47 1d a3 35 3e bf 76 b4 5c ec 27 b4 87 1c 6f 35
       1.2152967e-06 -2.2980109e-07 -1.5639074e-07 8.907595e-07
000040 ea b8 2a b6 a8 58 26 b6 93 79 0b b6 d4 3b 24 36
       -2.5439608e-06 -2.4787532e-06 -2.078338e-06 2.447273e-06
000050 41 9d 04 b6 38 fb 7a b6 fe 35 43 b5 4e 75 41 36
       -1.9761067e-06 -3.7399132e-06 -7.272173e-07 2.8827521e-06
000060 83 ad a8 35 5f a6 03 b6 be e0 6d b6 dd aa 47 b3
       1.2567474e-06 -1.9617362e-06 -3.544657e-06 -4.6488697e-08
000070 fc 04 06 35 b2 b0 1c b6 65 5a 42 35 15 d7 7f 36
       4.9926143e-07 -2.3348662e-06 7.2402173e-07 3.8123155e-06
000080 76 66 4a 35 8a be 2c b6 f6 ab 33 b6 f9 0a 93 35
       7.5399964e-07 -2.5740906e-06 -2.6773173e-06 1.0955547e-06
000090 ec 04 9e b5 16 ab 2b b4 5a ec 93 36 62 99 bc b5
       -1.177335e-06 -1.5987857e-07 4.4084563e-06 -1.4051732e-06
0000a0 50 24 b0 b5 ae 0f 96 35 71 ba dd 35 48 7c 03 b5
       -1.312359e-06 1.1180434e-06 1.6520045e-06 -4.8982156e-07
0000b0 c8 95 40 36 60 27 95 b5 74 4e d1 b5 5c b0 25 34
       2.8697414e-06 -1.1112825e-06 -1.5594546e-06 1.5430982e-07
0000c0 66 b4 a7 b6 6a d3 dd 35
       -4.997989e-06 1.6527313e-06

motion_mlp.mlps.3.norm0.alpha f4 [1, 54, 1]
000000 3a 64 04 3e 55 2f 21 3e 22 7f 50 3e 47 ce ae 3d
       0.12928858 0.15740712 0.20360997 0.08535438
000010 9f 44 74 3d d7 b6 b9 3d e0 19 38 3d b6 be 60 3d
       0.059635755 0.09068077 0.04494655 0.054869376
000020 99 ca a1 3d ee cb 06 3e f9 71 63 3e 42 ad 66 3d
       0.078999706 0.1316373 0.22211446 0.056317575
000030 8e c7 be 3d db f3 b8 3d f1 30 ae 3d 4f 4c be 3d
       0.09315406 0.09030887 0.085054286 0.092918985
000040 8d 5d c5 3d e5 92 85 3d c2 52 c8 3d ad fa 38 3d
       0.09636984 0.065221585 0.0978141 0.045160938
000050 2e 1b b9 3d 89 89 9c 3d db 20 82 3d 00 8b 8f 3d
       0.09038387 0.0764342 0.06353923 0.07008934
000060 ba 84 09 3e db 21 39 3e 20 31 a2 3d 8e cf a3 3d
       0.13429537 0.18079321 0.07919526 0.07998572
000070 6f df 2c 3d ac 81 b6 3d 2f 85 74 3d f5 0b 54 3b
       0.04220527 0.08911452 0.059697326 0.003235576
000080 27 af df 3d d9 f4 24 3d 56 5f 3f 3e 20 1c aa 3d
       0.109220795 0.040272567 0.18688712 0.08306146
000090 98 bf 44 3d 46 6d 22 3e fb 25 d2 3d f8 72 17 3e
       0.04803428 0.15861997 0.102611504 0.14789951
0000a0 ca c9 cb 3d e2 11 c9 3d 6a ef af 3d a3 bc ab 3d
       0.099505976 0.09817864 0.085905865 0.08385589
0000b0 a4 c5 88 3d 69 2b 9c 3c 53 ac 32 3d 32 88 a5 3d
       0.06678322 0.019063668 0.043621372 0.08082618
0000c0 ed 30 df 3d 04 66 74 3e cf 10 94 3d 55 c5 27 3e
       0.10898004 0.23867041 0.072297685 0.1638387
0000d0 6d 5c a8 3d ea 7b 7d 3d
       0.08220754 0.06188575

motion_mlp.mlps.3.norm0.beta f4 [1, 54, 1]
000000 9f 23 e4 3c ff 36 a7 ba 91 9e 47 3d 85 fa e5 bb
       0.027849017 -0.0012757479 0.048735205 -0.0070183896
000010 56 8f 3f bc 4f 6a f8 3a 09 49 8c 3b 20 bc 63 bb
       -0.011691889 0.0018952581 0.0042811674 -0.0034749582
000020 28 64 16 bb 5a ed 8e bc d1 36 b3 bb a1 6c db ba
       -0.0022947881 -0.017447162 -0.005469181 -0.0016740748
000030 f9 19 1f bc 92 3e 3e bc 96 02 a8 bb 08 dd ae 3c
       -0.009710782 -0.011611598 -0.0051272614 0.02134563
000040 23 29 e4 bc 83 55 23 bc 98 d9 86 3c 1f d7 39 ba
       -0.027851647 -0.009969118 0.016461179 -0.00070892455
000050 a5 bc 09 b9 aa 4b 1a bc 06 de 2c bc 2e 5c f2 b8
       -0.00013135614 -0.009417454 -0.010550981 -0.00011556629
000060 89 d3 f8 bc e3 e7 b6 bc 51 58 38 3b 28 36 e8 3a
       -0.030374305 -0.02232737 0.0028128813 0.0017716335
000070 4e 00 05 3b 63 ea 39 bc fa b0 ad 3a d4 93 29 3a
       0.002029437 -0.011347386 0.0013251596 0.00064688665
000080 31 e7 87 3c 63 91 5d 3c ff 36 55 3d a9 bc bc 3b
       0.016589733 0.013523432 0.0520544 0.0057597947
000090 54 cf a1 3b 5a ef 4c 3d c5 b0 30 3b f4 31 00 3d
       0.0049380455 0.05003295 0.0026960832 0.03129764
0000a0 2e 2e 17 bb 71 21 03 bc ae bc 97 3a 5e 2d f9 bb
       -0.0023068297 -0.0080035785 0.0011576617 -0.007604285
0000b0 02 e3 87 bc ac d1 d6 bb 52 c8 98 bb 09 93 39 bc
       -0.016587738 -0.0065557566 -0.004662552 -0.01132656
0000c0 4e e4 8d bb 1f 7e 1a bd fd be 00 bc f5 43 a5 3c
       -0.0043301946 -0.037717935 -0.007858035 0.020174006
0000d0 e6 22 a5 3a 8f 9d f0 ba
       0.0012598902 -0.0018357503
