src/siMLPe/exps/baseline_amass/log/snapshot/model-iter-70000.pth (torch, 604338 bytes, 196 tensors)

motion_mlp.mlps.0.fc0.fc.weight f4 [50, 50]
-0.049010366 -0.09129476 0.030512061 -0.051784333 0.02024058 -0.017348986 0.028813412 -0.041904144
-0.009946195 -0.030332705 0.0007330244 -0.025741579 -0.003641407 -0.025828274 -0.008757874 -0.016008755
-0.008511319 -0.017591443 -0.009833231 -0.020685248 -0.016762724 -0.0147043755 -0.012906648 -0.024145909
-0.0082440665 -0.020612234 -0.012241708 -0.01617708 -0.010107325 -0.011824937 -0.013283479 -0.008787236
-0.0106443465 -0.008044093 -0.012139241 -0.00535389 -0.012645534 -0.00411785 -0.01198357 -0.0027482575
-0.0103569785 -0.0025165062 -0.010175271 -0.0020167022 -0.007131261 -0.0023391072 -0.0057800645 -0.0019676597
-0.005107352 -0.0034570375 0.005329556 -0.060256127 -0.0013367675 -0.0034067098 -0.028964914 -0.011233744
-0.03320158 0.01508612 -0.016075162 -0.02898713 -0.0022198958 -0.029158311 -0.006440999 -0.007205283
-0.01454571 -0.0023737221 -0.015616859 -0.0065791053 -0.005643145 -0.012611377 -0.009561181 -0.012921305
-0.00898467 -0.011563816 -0.011276034 -0.0131915 -0.009534387 -0.011850745 -0.008922196 -0.012364374
-0.009978233 -0.009978167 -0.012508778 -0.009021215 -0.012617692 -0.008616723 -0.013915552 -0.008505309
-0.0138618 -0.008549624 -0.013834437 -0.009390289 -0.012982898 -0.009700666 -0.012701389 -0.010194935
-0.012269206 -0.010376194 -0.011503578 -0.011043171 -0.0022875997 -0.034996398 0.016906792 -0.01163287
0.0029742378 -0.035047606 0.015633887 0.007933675 0.018642606 -0.018956592 0.02334837 -0.014326931
0.03139439 -0.001397182 0.036333743 0.010027111 0.023681248 0.016612029 0.034025013 0.007542875
0.03092965 0.009251032 0.023870539 0.012654242 0.026676921 0.009021257 0.021730095 0.014505938
0.022143435 0.018213402 0.016037317 0.021704921 0.017886024 0.022273798 0.013428323 0.026102968
0.014482215 0.02599685 0.015089424 0.026821498 0.01450124 0.026856545 0.014243222 0.026231721
0.016966308 0.024828343 0.020229572 0.02450696 0.02100396 0.023521194 -0.010186179 0.036189053
-0.024200054 0.025048008 -0.03339731 0.03779622 -0.023613948 0.04639033 -0.02077606 0.05153065
-0.019245926 0.045766257 -0.007488806 0.031288393 0.003912054 0.024940237 0.013175396 0.022839652
0.013058743 0.037855994 0.012612653 0.029817559 0.014623016 0.031748515 0.018946256 0.032152854
0.02081109 0.025050081 0.019547496 0.024662197 0.020185461 0.022477783 0.021099327 0.020140678
0.020764112 0.020006355 0.017137466 0.019156713 0.017809303 0.017229052 0.017759858 0.015446608
0.017516084 0.0144676715 0.015803242 0.014667249 0.014260516 0.0135411145 0.014701228 0.01382305
0.0011219565 -0.023970475 0.022010991 0.012689537 -0.06986824 -0.019141521 -0.015317438 -0.030156372
-0.0053388877 -0.020597667 -0.012203978 -0.018352358 -0.03121427 -0.023924125 -0.029958503 -0.014289254
-0.02222062 -0.014310643 -0.009334327 -0.0059755016 -0.015222221 0.0048704953 -0.0067577944 0.005344549
-0.008709597 0.010846171 -0.0065120603 0.012073834 -0.0028611494 0.011658148 0.0027396907 0.008809621
0.0063561783 0.009145917 0.008162055 0.008939779 0.011463563 0.008296397 0.011914162 0.010440749
0.012388764 0.012041617 0.013258764 0.01332839 0.015043286 0.011629039 0.014771359 0.014301848
0.012966087 0.01425783 0.0027582597 -0.009192309 0.012817219 0.0061459267 -0.0039166017 -0.05651971
00000000: 18bf 48bd bff8 babd 6ef4 f93c cf1b 54bd
00000010: 93cf a53c 761f 8ebc 1b0a ec3c aea3 2bbd
00000020: 5ef5 22bc 4b7c f8bc 6f28 403a 01e0 d2bc
00000030: aca4 6ebb d195 d3bc 307d 0fbc cb24 83bc
00000040: 0f73 0bbc ee1b 90bc 8f1b 21bc 1c74 a9bc
00000050: fb51 89bc 9fea 70bc 6876 53bc a4cd c5bc
00000060: 1f12 07bc fdda a8bc 7291 48bc cc85 84bc
00000070: 3299 25bc 61bd 41bc f3a2 59bc 57f8 0fbc
00000080: a065 2ebc 5fcb 03bc abe3 46bc af6f afbb
00000090: 372f 4fbc 08ef 86bb bc56 44bc 1c1c 34bb
000000a0: 51b0 29bc f8eb 24bb 2eb6 26bc a62a 04bb
000000b0: 5aad e9bb b54b 19bb b266 bdbb daf3 00bb
000000c0: 935b a7bb 778f 62bb 8ea3 ae3b 21cf 76bd
000000d0: 7936 afba 1b43 5fbb d447 edbc bd0d 38bc
000000e0: 61fe 07bd c62b 773c 0fb0 83bc 6b76 edbc
000000f0: ac7b 11bb 69dd eebc 040f d3bb 4b1a ecbb
00000100: 2151 6ebc 7390 1bbb dbdd 7fbc 8995 d7bb
00000110: 22ea b8bb f39f 4ebc 80a6 1cbc e2b3 53bc
00000120: 7034 13bc 2976 3dbc 1dbf 38bc 2921 58bc
00000130: 1e36 1cbc a129 42bc 672e 12bc f193 4abc
00000140: be7b 23bc 777b 23bc 9ef1 4cbc b8cd 13bc
00000150: 70ba 4ebc 282d 0dbc 0efe 63bc da59 0bbc
00000160: 9a1c 63bc b913 0cbc d6a9 62bc bad9 19bc
00000170: 39b6 54bc 8bef 1ebc 7d19 50bc a808 27bc
00000180: c804 49bc e900 2abc 8179 3cbc 6bee 34bc
00000190: 8eeb 15bb 6258 0fbd 1d80 8a3c cb97 3ebc
000001a0: 6eeb 423b 148e 0fbd a312 803c 3ffc 013c
000001b0: 61b8 983c db4a 9bbc 1545 bf3c 81bb 6abc
000001c0: 6797 003d a621 b7ba b1d2 143d c048 243c
000001d0: 2dff c13c f315 883c d05d 0b3d 392a f73b
000001e0: 2d60 fd3c a491 173c 268c c33c bd53 4f3c
000001f0: 8f89 da3c e5cd 133c 5003 b23c 50aa 6d3c
00000200: 2666 b53c 4634 953c b160 833c 85ce b13c
00000210: b685 923c 8a77 b63c 7802 5c3c e4d5 d53c
00000220: d046 6d3c 59f7 d43c a239 773c c2b8 db3c
00000230: 9c96 6d3c 4202 dc3c 675c 693c e8e3 d63c
00000240: edfc 8a3c cf64 cb3c 7db8 a53c d2c2 c83c
00000250: 7f10 ac3c 85af c03c eee3 26bc f93a 143d
00000260: 313f c6bc 7b31 cd3c 9ecb 08bd 36d0 1a3d
00000270: 0a72 c1bc c903 3e3d 8e32 aabc ce11 533d
00000280: a2a9 9dbc 6675 3b3d a864 f5bb 4228 003d
00000290: b030 803b 784f cc3c 9edd 573c 391a bb3c
000002a0: 57f4 553c e30e 1b3d 4da5 4e3c f443 f43c
000002b0: 6095 6f3c bb0a 023d 2e35 9b3c b6b2 033d
000002c0: 057c aa3c d435 cd3c 1222 a03c 6008 ca3c
000002d0: fb5b a53c 5423 b83c 7fd8 ac3c 10fe a43c
000002e0: 8019 aa3c 5ee4 a33c df63 8c3c 8aee 9c3c
000002f0: d1e4 913c f123 8d3c 1f7d 913c c513 7d3c
00000300: e47d 8f3c d009 6d3c cd75 813c e74e 703c
00000310: f0a4 693c 8ddb 5d3c 6bdd 703c 137a 623c
00000320: 9d0e 933a bb5d c4bc 6550 b43c c7e7 4f3c
00000330: 1417 8fbd aece 9cbc fef5 7abc 7f0a f7bc
00000340: d6f1 aebb 70bc a8bc 32f3 47bc af57 96bc
00000350: 12b5 ffbc 87fc c3bc 896b f5bc 7a1d 6abc
00000360: 0508 b6bc 3077 6abc 01ef 18bc 24ce c3bb
00000370: 9f66 79bc ad98 9f3b 7d70 ddbb 5421 af3b
00000380: b3b2 0ebc 23b4 313c 1f63 d5bb 55d1 453c
00000390: 1f82 3bbb d101 3f3c 628c 333b 3b56 103c
000003a0: 7d47 d03b c2d8 153c 24ba 053c 2778 123c
000003b0: abd1 3b3c 9ced 073c 9e33 433c ad0f 2b3c
000003c0: 3efa 4a3c 344a 453c 493b 593c 525f 5a3c
000003d0: 1d78 763c ba87 3e3c 9203 723c 4c52 6a3c
000003e0: b66f 543c ac99 693c ebc3 343b 579b 16bc
000003f0: 50ff 513c c563 c93b d656 80bb 3681 67bd

motion_mlp.mlps.0.fc0.fc.bias f4 [50]
3.159142e-05 1.0499824e-05 2.4924866e-05 -2.5308493e-05 4.6637283e-06 1.1403098e-06 3.1633233e-05 2.3314502e-05
-0.00013697708 5.073762e-05 -5.095186e-05 6.5012287e-06 3.6180295e-06 9.056317e-06 -5.35456e-05 2.206946e-05
-1.1096108e-05 4.0170024e-05 2.467988e-05 1.5963227e-05 -0.00036226277 -2.7317003e-05 0.00037267 -9.354717e-06
-2.537311e-05 -5.6575227e-05 -2.7011734e-05 -6.289292e-05 -1.5732456e-05 -4.7331454e-05 -8.116933e-05 -1.7950753e-05
7.022079e-07 5.8242535e-06 2.4500821e-05 -5.5035707e-05 -0.00030365604 -4.0863466e-05 1.6051341e-05 -2.0694817e-05
4.4663675e-06 -3.32102e-05 -5.1972956e-06 -1.1627011e-05 -6.745149e-05 -1.2215911e-05 7.9231995e-06 2.4175615e-06
-2.744278e-05 8.903517e-06
00000000: 0781 0438 6728 3037 be15 d137 934d d4b7
00000010: 1f7d 9c36 bf0c 9935 edad 0438 8393 c337
00000020: 81a1 0fb9 1bcf 5438 25b5 55b8 2125 da36
00000030: 46cd 7236 96f0 1737 2696 60b8 ce21 b937
00000040: 6c29 3ab7 3c7c 2838 a407 cf37 c5e8 8537
00000050: 16ee bdb9 d126 e5b7 ec62 c339 34f2 1cb7
00000060: 57d8 d4b7 304b 6db8 4297 e2b7 61e5 83b8
00000070: 31f9 83b7 c385 46b8 7439 aab8 f394 96b7
00000080: 5c7f 3c35 f56d c336 1d87 cd37 24d6 66b8
00000090: 0634 9fb9 d064 2bb8 fea5 8637 c899 adb7
000000a0: cedd 9536 2e4b 0bb8 6e64 aeb6 a211 43b7
000000b0: be74 8db8 f0f2 4cb7 e2ed 0437 643d 2236
000000c0: ec34 e6b7 5060 1537

motion_mlp.mlps.0.norm0.alpha f4 [1, 54, 1]
0.11508471 0.11844627 0.11354027 0.11309588 0.15425357 0.08289608 0.14949645 0.11390152
0.15314865 0.1716015 0.11320487 0.1695688 0.17478274 0.14726055 0.12556688 0.14439705
0.121341445 0.12496657 0.15528458 0.18457067 0.15820871 0.16329277 0.17883705 0.17077167
0.12156189 0.119448975 0.21010493 0.16326872 0.17096663 0.15021496 0.16315281 -0.0016300404
0.14026505 0.10159344 0.12509204 0.13806094 0.11284241 0.2032284 0.1218575 0.10617937
0.14159538 0.11177436 0.1539943 0.12536392 0.1808767 0.13939331 0.18590401 0.107505634
0.10794518 0.12482036 0.19282018 0.1099541 0.22106875 0.16137421
00000000: 88b1 eb3d f593 f23d cd87 e83d d09e e73d
00000010: a6f4 1d3e 6cc5 a93d 9915 193e 3345 e93d
00000020: 00d3 1c3e 4eb8 2f3e f4d7 e73d 72a3 2d3e
00000030: 3ffa 323e 78cb 163e 9b94 003e d2dc 133e
00000040: dd81 f83d 79ee ff3d ec02 1f3e 1800 3d3e
00000050: 7701 223e 3836 273e 0f21 373e c5de 2e3e
00000060: 71f5 f83d aaa1 f43d bf25 573e ea2f 273e
00000070: e011 2f3e f3d1 193e 8811 273e 14a7 d5ba
00000080: a4a1 0f3e 3910 d03d 2118 003e d95f 0d3e
00000090: ec19 e73d 1b1b 503e 6d90 f93d 9274 d93d
000000a0: 61fe 103e f5e9 e43d afb0 1d3e 665f 003e
000000b0: be37 393e 1fbd 0e3e 9f5d 3e3e ea2b dc3d
000000c0: 5d12 dd3d d1a1 ff3d a772 453e 9d2f e13d
000000d0: d95f 623e 483f 253e

motion_mlp.mlps.0.norm0.beta f4 [1, 54, 1]
-0.0010786754 0.0025079467 0.009114497 -0.000104782266 0.00078629516 5.319584e-05 -0.00015675534 0.0010924038
-0.00095923664 -0.0009183477 0.0069657657 0.00028738994 0.00039772954 0.000120568606 0.0001635387 0.0012704756
0.001898711 -0.00040930894 0.0015005905 0.0015945252 -0.00020731096 -0.0007230739 -0.0006253062 0.0006368274
-0.003287004 -0.0016953564 0.00074886717 0.0017811612 -0.0024094363 0.0012941834 0.0002477266 0.08551194
0.0018985248 -8.060831e-05 -0.0027673326 0.0017078014 0.00021123175 -0.0054178587 0.0006400425 0.0016819161
-0.00017332516 -0.0012837213 -0.00057427434 9.994928e-05 0.00037025785 0.00039078857 -2.8663922e-05 -0.003247077
-0.00034384747 -0.0060622776 0.0017001533 0.0011736156 0.0021184883 -0.00038870762
00000000: 5762 8dba 5d5c 243b f954 153c 8dbe dbb8
00000010: 601f 4e3a 991e 5f38 b15e 24b9 fd2e 8f3a
00000020: 4875 7bba 45bd 70ba 1441 e43b d3ac 9639
00000030: 5b86 d039 c7d9 fc38 967b 2b39 1686 a63a
00000040: 2bde f83a 8498 d6b9 76af c43a 63ff d03a
00000050: 9d61 59b9 ab8c 3dba 97eb 23ba c3f0 263a
00000060: c76a 57bb b936 deba a04f 443a da75 e93a
00000070: a2e7 1dbb 97a1 a93a 4de1 8139 e220 af3d
00000080: ecd7 f83a 420c a9b8 235c 35bb 4ed8 df3a
00000090: 177e 5d39 4b88 b1bb 86c8 273a bd73 dc3a
000000a0: 9ebe 35b9 8a42 a8ba e68a 16ba dc9b d138
000000b0: 2b1f c239 c1e2 cc39 4e73 f0b7 eacc 54bb
000000c0: 6d46 b4b9 12a6 c6bb aed7 de3a 01d4 993a
000000d0: 56d6 0a3b 74cb cbb9

motion_mlp.mlps.1.fc0.fc.weight f4 [50, 50]
-0.054003205 -0.036164775 0.047800418 -0.029786713 0.010562237 -0.0053130677 0.007877254 -0.0016100123
7.3757066e-05 -0.029320793 0.006596463 0.018270751 0.016202802 0.002478415 -0.008318339 -0.008765741
-0.012750846 -0.022743281 -0.02889145 -0.017359385 -0.0672793 -0.05385495 -0.031745937 0.0037291097
-0.0018591491 -0.0002784128 0.02155423 0.0011140557 -0.008143833 0.00834027 -0.02303326 -0.018065063
-0.021237811 -0.027894858 -0.021165479 -0.0265802 -0.015351337 0.016915591 -0.024142737 -0.0009920074
0.0032516636 0.0037031374 -0.005082215 -0.026626123 0.01823347 -0.036923192 -0.017586436 -0.0361682
0.02423311 -0.0059087533 -0.005231632 -0.023994565 0.076761946 -0.031230275 -0.019951431 0.012937027
-0.060605858 0.004760488 0.0021662354 -0.026530009 -0.008470034 0.022012502 -0.0053151 0.014730291
0.023050813 -0.011732056 0.003436015 0.016353184 0.0061612553 -0.010267268 0.064478286 0.0034068793
0.042230297 -0.035299115 -0.011435137 0.0023393056 0.05901296 0.026271228 -0.00035389594 -0.0030974594
-0.017529419 -0.02061697 -0.0021430622 0.015513479 -0.016444763 0.024841003 0.013601909 -0.014717422
-0.0025147041 0.0097128665 0.023542691 -0.020349987 0.0040186453 -0.013151474 0.08159214 0.028970813
0.003257265 -0.008893847 0.041687008 -0.017943844 9.928465e-05 -0.007965024 -0.012392294 -0.01908786
0.006337063 0.0011384045 -0.021387534 0.002468845 -0.021530824 0.019288983 0.010783507 -0.01581635
-0.011823633 0.011725625 0.010686449 -0.015447863 -0.0036450622 0.0064797285 -0.0048555313 -0.0072607975
-0.03408427 0.022352144 -0.24454041 0.01616864 -0.014700067 0.016903995 -0.026249336 -0.008610964
-0.023125857 0.0057227984 -0.03046159 0.0076408586 0.013034116 0.007541482 0.003934607 -0.07485505
0.06400429 0.011292945 -0.00047437803 -0.0015589965 -0.027737359 -0.02703791 0.020731416 0.008803411
-0.005250739 0.010195395 0.0017777218 0.005231519 0.0031221865 0.003774558 -0.01546432 0.023079969
0.039669443 0.024400836 0.022136638 0.039166905 -0.057115216 -0.003262334 0.017025307 0.016075943
-0.00012610912 0.008845948 0.006577883 0.0053181145 0.05034945 -0.031770203 -0.012090891 0.024828134
0.002226298 -0.0021734457 -0.018527642 0.02044864 -0.02896041 -0.02348195 -0.00238645 0.0024074423
-0.010759967 -0.0010026568 -0.016842958 -0.023223463 0.038199455 0.023403555 0.032439757 0.043709308
-0.020871127 -0.017067432 0.036042176 -0.013698377 -0.009224554 -0.021958841 0.017790815 0.008733899
-0.0020908813 0.017352704 -0.038143434 0.016841246 0.039952688 0.040127296 0.00042488822 0.00025011002
-0.023111288 -0.0067118797 -0.024263892 -0.036852647 -0.057166617 -0.009808468 0.06859449 0.0072686668
-0.059193376 0.004151208 0.007592507 0.0029802085 -0.0094940355 0.02501551 0.020303184 0.026757227
-0.008915081 -0.0014057914 -0.00011434354 -0.025457643 -0.0054469416 0.0019762642 -0.007842473 -0.0205432
0.037781045 0.04705381 -0.039223786 -0.039495245 0.027611678 0.045012176 -0.02994049 -0.002087905
-0.020320797 -0.004670237 -0.02986675 -0.028528327 -0.0106759565 0.011061184 -0.008208052 0.041717052
0.027117958 0.06852112 -0.013950715 -0.0024955473 0.02969265 0.013599026 -0.019215314 -0.041811995
0.0036282542 0.006766351 0.031631976 0.02283754 -0.023835383 0.026751863 0.016152114 -0.06321161
00000000: 7732 5dbd 8421 14bd 5fca 433d 4403 f4bc
00000010: 3c0d 2d3c 3e19 aebb 990f 013c 0c07 d3ba
00000020: 06ae 9a38 2932 f0bc 2427 d83b 8bac 953c
00000030: bdbb 843c e76c 223b a449 08bc 2f9e 0fbc
00000040: ede8 50bc 1e50 babc c3ad ecbc 4535 8ebc
00000050: bbc9 89bd 0297 5cbd 0708 02bd 1464 743b
00000060: b1ae f3ba eff7 91b9 7f92 b03c 8205 923a
00000070: b66d 05bc a1a5 083c 3fb0 bcbc 2ffd 93bc
00000080: ebfa adbc c283 e4bc 3a63 adbc b8be d9bc
00000090: 2d84 7bbc 9192 8a3c fdc6 c5bc 3f06 82ba
000000a0: dd19 553b 56b0 723b b688 a6bb 071f dabc
000000b0: 5c5e 953c c63c 17bd 6e11 90bc 1b25 14bd
000000c0: 8484 c63c 379e c1bb 1c6e abbb 4090 c4bc
000000d0: 5e35 9d3d a2d6 ffbc 2f71 a3bc d3f5 533c
000000e0: d93d 78bd defd 9b3b 66f7 0d3b 7655 d9bc
000000f0: e6c5 0abc 9053 b43c 4a2a aebb 5257 713c
00000100: 0fd5 bc3c cf37 40bc c42e 613b 1df7 853c
00000110: 5be4 c93b 0b38 28bc 310d 843d f345 5f3b
00000120: adf9 2c3d ce95 10bd 715a 3bbc 094f 193b
00000130: 93b7 713d c236 d73c 1c8b b9b9 bffe 4abb
00000140: db99 8fbc ebe4 a8bc 9e72 0cbb 3f2c 7e3c
00000150: 2bb7 86bc 5c7f cb3c 8bda 5e3c 5821 71bc
00000160: bccd 24bb b722 1f3c 9adc c03c 04b5 a6bc
00000170: d7ae 833b 4879 57bc c819 a73d 3354 ed3c
00000180: d777 553b 80b7 11bc ffbf 2a3d f8fe 92bc
00000190: 0a37 d038 bb7f 02bc 0c09 4bbc 255e 9cbc
000001a0: 23a7 cf3b 8436 953a e934 afbc 59cc 213b
000001b0: 6961 b0bc ee03 9e3c 4ead 303c 4a91 81bc
000001c0: e9b7 41bc d61c 403c 3716 2f3c 0919 7dbc
000001d0: ffe1 6ebb e753 d43b 261b 9fbb fceb edbb
000001e0: f39b 0bbd d81b b73c cd68 7abe 1974 843c
000001f0: 8dd8 70bc 3f7a 8a3c d908 d7bc 0015 0dbc
00000200: 7072 bdbc 5086 bb3b 968a f9bc 2b60 fa3b
00000210: 0b8d 553c 891e f73b e0ed 803b 9b4d 99bd
00000220: ae14 833d 0b06 393c f1b5 f8b9 3e57 ccba
00000230: 7539 e3bc 9b7e ddbc eed4 a93c 2f3c 103c
00000240: 640e acbb 960a 273c 7202 e93a 2a6d ab3b
00000250: 999d 4c3b 935e 773b 0f5e 7dbc 3412 bd3c
00000260: 6d7c 223d 43e4 c73c e557 b53c 7a6d 203d
00000270: a5f1 69bd e2cc 55bb a878 8b3c b2b1 833c
00000280: 293c 04b9 98ee 103c 488b d73b 9443 ae3b
00000290: 3a3b 4e3d 7921 02bd df18 46bc 5f64 cb3c
000002a0: 15e7 113b 5e70 0ebb 48c7 97bc e883 a73c
000002b0: 623e edbc 385d c0bc fd65 1cbb 2ec6 1d3b
000002c0: 934a 30bc 946b 83ba 3efa 89bc 223f bebc
000002d0: 0877 1c3d d0b8 bf3c 8ddf 043d 8808 333d
000002e0: edf9 aabc 00d1 8bbc f6a0 133d 286f 60bc
000002f0: 9522 17bc 07e3 b3bc 0bbe 913c a118 0f3c
00000300: 2b07 09bb 4227 8e3c 4a3c 1cbd a7f6 893c
00000310: 6ea5 233d 855c 243d 88c3 de39 3321 8339
00000320: e253 bdbc 54ef dbbb 12c5 c6bc cdf2 16bd
00000330: 8b27 6abd b2b3 20bc 457b 8c3d ff2d ee3b
00000340: c174 72bd db06 883b 91ca f83b 9a4f 433b
00000350: df8c 1bbc 54ed cc3c dd52 a63c f931 db3c
00000360: 8f10 12bc 8842 b8ba b8cb efb8 8c8c d0bc
00000370: 427c b2bb 3684 013b b77d 00bc 374a a8bc
00000380: 4cc0 1a3d 7fbb 403d 1fa9 20bd c4c5 21bd
00000390: e331 e23c b05e 383d c245 f5bc 3cd5 08bb
000003a0: cd77 a6bc ca08 99bb 1dab f4bc 3db4 e9bc
000003b0: 35ea 2ebc f839 353c 117b 06bc 80df 2a3d
000003c0: 7b26 de3c cd54 8c3d 8a91 64bc 568c 23bb
000003d0: 003e f33c 73ce 5e3c 6f69 9dbc 0e43 2bbd
000003e0: 01c8 6d3b 44b8 dd3b 8890 013d cb15 bb3c
000003f0: 6c42 c3bc b926 db3c 7051 843c 1775 81bd

motion_mlp.mlps.1.fc0.fc.bias f4 [50]
6.97668e-07 -4.4336134e-06 -3.6695164e-05 -6.991826e-06 -1.8326522e-05 -1.8061126e-05 3.1026943e-06 -7.657453e-06
8.326186e-06 -2.3227867e-06 -9.180785e-06 -1.2863275e-05 -2.9482592e-06 -1.0798924e-05 -4.4971584e-06 -4.5505317e-07
4.017814e-06 -3.4075524e-06 5.8894847e-07 4.8883808e-06 2.8230959e-06 -8.46012e-06 -4.302381e-06 -1.1781718e-06
-1.4479415e-06 5.3033764e-06 -6.746733e-06 -5.012285e-07 -1.4966414e-06 6.289321e-07 -1.9482725e-06 -2.711209e-07
2.378851e-06 -1.8405877e-05 1.1816054e-05 -5.0083463e-06 7.817796e-06 -1.7165982e-07 -9.2583e-07 -1.5569865e-05
3.5430428e-06 -8.988634e-06 -2.9637063e-06 3.2317043e-06 4.1515677e-06 -3.0110882e-06 2.033218e-06 2.5378165e-06
3.3654408e-06 2.996084e-06
00000000: 6147 3b35 73c4 94b6 22e9 19b8 549b eab6
00000010: e8bb 99b7 f981 97b7 e237 5036 8378 00b7
00000020: b2b0 0b37 2ce1 1bb6 2c07 1ab7 58cf 57b7
00000030: b5da 45b6 072d 35b7 4ce6 96b6 084e f4b4
00000040: c2d0 8636 4ead 64b6 3b18 1e35 df06 a436
00000050: 6b74 3d36 f0ef 0db7 2c5d 90b6 ad21 9eb5
00000060: e456 c2b5 a8f3 b136 ff61 e2b6 298c 06b5
00000070: 35e0 c8b5 e3d3 2835 11bf 02b6 938e 91b4
00000080: 59a4 1f36 5266 9ab7 913d 4637 5e0d a8b6
00000090: 2e29 0337 7e51 38b4 8e86 78b5 089c 82b7
000000a0: 03c5 6d36 e4cd 16b7 16e4 46b6 42e0 5836
000000b0: b24d 8b36 1a12 4ab6 6b72 0836 5b4f 2a36
000000c0: d5d9 6136 5510 4936

motion_mlp.mlps.1.norm0.alpha f4 [1, 54, 1]
0.08048049 0.06826833 0.17578243 0.08228143 0.06662992 0.08603904 0.060919765 0.0739618
0.061166998 0.11333006 0.14054468 0.05904209 0.07420472 0.0792961 0.055033367 0.08469167
0.07746412 0.069161214 0.08615112 0.19114073 0.070298426 0.07857051 0.08839948 0.07350733
0.09600755 0.08670547 0.06854426 0.06299726 0.06274578 0.07416382 0.077563636 0.022980677
0.043670595 0.059884664 0.09915937 0.06652468 0.064204365 0.09807135 0.067353725 0.09315265
0.07765701 0.077042006 0.08156646 0.073646784 0.08102612 0.08741046 0.19745727 0.07012908
0.08956365 0.12850642 0.07289242 0.08124461 0.075426936 0.109908246
00000000: f5d2 a43d 44d0 8b3d 4f00 343e 2b83 a83d
00000010: 4475 883d 3c35 b03d 0187 793d 4979 973d
00000020: 3f8a 7a3d 9719 e83d f2ea 0f3e 1ed6 713d
00000030: a5f8 973d fe65 a23d ab6a 613d d472 ad3d
00000040: 82a5 9e3d 65a4 8d3d 0070 b03d 65ba 433e
00000050: 9ff8 8f3d 93e9 a03d c90a b53d 038b 963d
00000060: 9b9f c43d a392 b13d ef60 8c3d b504 813d
00000070: dc80 803d 33e3 973d afd9 9e3d f941 bc3c
00000080: f0df 323d 9f49 753d 1114 cb3d 173e 883d
00000090: 947d 833d a2d9 c83d c0f0 893d d1c6 be3d
000000a0: a30a 9f3d 33c8 9d3d 510c a73d 20d4 963d
000000b0: 06f1 a53d 4104 b33d 3d32 4a3e d69f 8f3d
000000c0: 266d b73d 3097 033e 9f48 953d 9363 a63d
000000d0: 7079 9a3d 9317 e13d

motion_mlp.mlps.1.norm0.beta f4 [1, 54, 1]
-0.008859736 0.01480747 -0.0019653328 -0.0034931554 0.0028240157 -0.00083391595 -0.006097466 -0.0028942383
0.002972646 -0.03151995 0.027937194 0.0013224549 -0.0016075771 -0.0026804341 0.0053531574 0.0228851
0.011305736 0.010145382 -0.022207266 0.0064996 -0.0006411828 -0.0013157923 -0.0057684504 -0.0020466843
0.009943507 0.013260361 -0.0017305685 0.0020296206 0.0005383772 0.00096553203 0.002372823 0.002759179
-0.019786859 0.0005273411 -0.02626804 0.002282283 0.0034594836 0.053375322 -0.0008373081 0.024899548
0.0039416547 -0.0053012082 -7.47854e-05 0.0004346078 -0.002540077 0.0057504377 -0.007839638 -0.013545057
-0.0014079147 0.01628049 0.00047309248 -0.009780363 0.0091813775 -0.01288764
00000000: 6d28 11bc 089b 723c d0cc 00bb 6ced 64bb
00000010: 1f13 393b 279b 5aba 41cd c7bb 43ad 3dbb
00000020: b9d0 423b 101b 01bd 8bdc e43c 3956 ad3a
00000030: 56b5 d2ba 39aa 2fbb 8a69 af3b 8979 bb3c
00000040: b23b 393c d138 263c 03ec b5bc 99fa d43b
00000050: 0d15 28ba aa76 acba 4505 bdbb aa21 06bb
00000060: 17ea 223c fc41 593c 3ed4 e2ba 6203 053b
00000070: e221 0d3a c21b 7d3a 5d81 1b3b 58d3 343b
00000080: 0d18 a2bc 433d 0a3a 1330 d7bc 5b92 153b
00000090: 81b8 623b 15a0 5a3d cc7e 5bba 23fa cb3c
000000a0: ff28 813b c2b5 adbb 1bd6 9cb8 12dc e339
000000b0: 6c77 26bb 2b6e bc3b d371 00bc 16ec 5dbc
000000c0: c789 b8ba aa5e 853c 6609 f839 d13d 20bc
000000d0: 7d6d 163c ae26 53bc

motion_mlp.mlps.2.fc0.fc.weight f4 [50, 50]
-0.025015231 -0.017107682 0.008683871 -0.031711224 0.000110509616 -0.00014952502 -0.03524243 -0.013854593
0.023272855 -0.017167695 -0.01067845 0.0038717473 -0.018540598 -0.00061940326 -0.0049895253 -0.07249798
-0.002857428 -0.03567364 -0.0032243372 0.058048896 -0.028878948 -0.019208511 -0.018253312 -0.02436511
0.03653277 -0.002875749 -0.023374366 0.028835252 -0.021463284 -0.010725816 0.01083294 -0.027146023
-0.017541798 -0.007575239 -0.022941627 -0.015361031 -0.04471253 -0.017032757 -0.016166182 -0.017461717
0.017040618 -0.01042656 0.021350712 -0.012177082 0.0014761119 -0.00016524545 0.029379614 -0.021749994
0.025515052 -0.012696712 9.404062e-05 -0.012057137 -0.0031447688 -0.029059228 -0.023848167 -0.0052468874
-0.017218577 -0.03872387 -0.0046044337 -0.015777202 -0.011810119 -0.0036319469 -0.043683987 0.026200747
-0.029429631 -0.031651307 -0.016940065 -0.0034383684 -0.0068571474 0.031065091 -0.010810511 -0.006318824
-0.03266629 0.0202174 -0.018166043 -0.005391686 -0.033572666 -0.011011222 -0.040034737 -0.020639652
-0.0021001487 0.005088611 -0.019236641 0.022223473 -0.0044439626 -0.008498807 -0.023446666 0.005886491
-0.02099923 -0.017864311 -0.011706944 0.016270319 -0.022408195 -0.00015770641 0.006568843 0.007311763
-0.020558747 -0.005819815 0.019119473 -0.0052856165 -0.00059446704 -0.01201021 0.0065268916 -0.010840953
-0.015265955 0.045529258 -0.04952468 -0.002653345 9.5897325e-05 0.010518466 -0.026505122 0.0053772675
0.010289515 0.008251667 -0.007142329 -0.04125927 -0.010429142 -0.0044802255 0.00925429 0.013498442
-0.1090182 -0.012900476 -0.028586166 -0.0037580263 -0.006753795 -0.012917656 -0.0019799639 0.014860166
-0.006630774 0.0060350006 -0.0035178082 -0.00863962 0.0047671967 0.00670727 0.03343505 -0.05411193
-0.0151113365 0.008160066 -0.03577619 0.13618247 -0.0114175975 0.01795384 0.012172286 0.025943318
0.002403754 0.021293774 0.012740388 0.009712918 0.005672205 0.030935518 0.019312827 0.032270037
0.024280205 -0.061465353 -0.035409983 -0.0081534 0.023864338 -0.008051479 0.017757557 0.0006566594
0.02439843 -0.0054005124 -0.024495076 0.00044444037 0.01370967 0.0039933235 0.007164118 -0.0063660806
0.012018008 0.011487014 0.00338905 -0.007268344 -0.016667921 0.068219386 -0.016360987 0.022927213
0.0343531 -0.005484141 0.0026387733 0.014993953 0.0344964 0.0004081911 0.015111852 0.008131661
0.008172607 0.00074082153 0.019293822 0.005858476 0.01659097 0.019299636 -0.020875735 -0.008939053
-0.0034548459 0.012787002 -0.014592519 -0.040554594 0.03192723 0.003307578 0.0048262593 0.0084174145
0.025846712 0.01825294 -0.0012923806 0.013029642 -0.03332795 -0.03702827 -0.0067446018 -0.020658879
0.016142184 -0.014259883 -0.006648762 -0.009656632 0.048314054 0.005455388 -0.018128753 0.0060210954
0.010308036 -0.032882735 -0.0071735587 0.012184183 -0.020168021 0.0051487056 -0.04568436 -0.022299444
0.032988474 0.0059361784 0.010571832 0.020113004 0.0052001076 -0.0070083775 0.007884077 0.06671716
0.022002317 -0.004391681 0.009155379 -0.042862143 -0.01660458 -0.01062867 0.008316256 0.013487625
-0.003855219 -0.022394422 -0.0009413526 0.015583009 0.016091049 -0.0006866817 -0.0312574 -0.012441461
-0.0042284657 -0.002250852 -0.010704507 -0.05780887 0.00044862492 0.02002838 0.01099034 -0.028615583
00000000: beec ccbc 6925 8cbc cb46 0e3c a1e3 01bd
00000010: 66c1 e738 d1c9 1cb9 5e5a 10bd 60fe 62bc
00000020: b7a6 be3c 44a3 8cbc aaf4 2ebc 24bd 7d3b
00000030: 74e2 97bc 735f 22ba 2c7f a3bb d279 94bd
00000040: b043 3bbb 861e 12bd 674f 53bb aec4 6d3d
00000050: 8b93 ecbc 2b5b 9dbc f887 95bc 5799 c7bc
00000060: 63a3 153d 1077 3cbb 997b bfbc e837 ec3c
00000070: c5d3 afbc 55bb 2fbc a57c 313c 5661 debc
00000080: d1b3 8fbc b639 f8bb 14f0 bbbc d5ac 7bbc
00000090: 7c24 37bd 4888 8bbc f16e 84bc e00b 8fbc
000000a0: c498 8b3c 2ad4 2abc b0e7 ae3c 6282 47bc
000000b0: 197a c13a bd45 2db9 84ad f03c 0b2d b2bc
000000c0: f104 d13c df05 50bc ac37 c538 4c8b 45bc
000000d0: 7718 4ebb 9e0d eebc 3b5d c3bc 15ee abbb
000000e0: f90d 8dbc ec9c 1ebd cae0 96bb 313f 81bc
000000f0: 3b7f 41bc f505 6ebb fbed 32bd f3a2 d63c
00000100: 6916 f1bc cda4 01bd e4c5 8abc 4056 61bb
00000110: ecb1 e0bb 387c fe3c 921e 31bc 230e cfbb
00000120: 16cd 05bd f69e a53c f4d0 94bc beac b0bb
00000130: 7e83 09bd 6a68 34bc 77fb 23bd 7d14 a9bc
00000140: a6a2 09bb 5dbe a63b 2996 9dbc 000e b63c
00000150: a99e 91bb 953e 0bbc 3913 c0bc 77e3 c03b
00000160: 9406 acbc 2d58 92bc 7bce 3fbc 5549 853c
00000170: 6491 b7bc fe5d 25b9 733f d73b 8397 ef3b
00000180: d16a a8bc 26b4 bebb 71a0 9c3c f732 adbb
00000190: 02d6 1bba 79c6 44bc 89df d53b 419e 31bc
000001a0: 0e1e 7abc e37c 3a3d 64da 4abd bee3 2dbb
000001b0: 7c1c c938 a555 2c3c 4521 d9bc ca33 b03b
000001c0: 5b95 283c 0032 073c 330a eabb 7bff 28bd
000001d0: fede 2abc dbce 92bb 4e9f 173c 9228 5d3c
000001e0: ef44 dfbd 855c 53bc 892d eabc 3849 76bb
000001f0: f04e ddbb 94a4 53bc 48c2 01bb 0e78 733c
00000200: f746 d9bb 41c1 c53b 078b 66bb 318d 0dbc
00000210: 2536 9c3b a9c8 db3b 31f3 083d 79a4 5dbd
00000220: 8a95 77bc ccb1 053c 0e8a 12bd 6b73 0b3e
00000230: e010 3bbc ee13 933c 456e 473c 1587 d43c
00000240: 4d88 1d3b 4870 ae3c 0fbd 503c ee22 1f3c
00000250: e7dd b93b 7c6c fd3c ef35 9e3c 962d 043d
00000260: 48e7 c63c 18c3 7bbd 0f0a 11bd d795 05bc
00000270: 257f c33c 5aea 03bc 4c78 913c ab23 2c3a
00000280: 37df c73c c8f6 b0bb e6a9 c8bc c703 e939
00000290: 869e 603c 6dda 823b fac0 ea3b 8e9a d0bb
000002a0: 2ee7 443c 0734 3c3c d31a 5e3b 4a2b eebb
000002b0: 2a8b 88bc 9bb6 8b3d 7a07 86bc dad1 bb3c
000002c0: d6b5 0c3d 4fb4 b3bb 45ef 2c3b 32a9 753c
000002d0: 194c 0d3d 7b02 d639 b497 773c a93a 053c
000002e0: 66e6 053c b133 423a 140e 9e3c 75f8 bf3b
000002f0: c9e9 873c 451a 9e3c 9703 abbc 1b75 12bc
00000300: b26a 62bb 9380 513c 7615 6fbc 931c 26bd
00000310: 21c6 023d f3c3 583b 9925 9e3b 32e9 093c
00000320: 7cbc d33c 3187 953c 1965 a9ba 487a 553c
00000330: e382 08bd f5aa 17bd d201 ddbb cf3c a9bc
00000340: 9d3c 843c 49a2 69bc dcdd d9bb da36 1ebc
00000350: f5e4 453d 1dc3 b23b c082 94bc 9c4c c53b
00000360: 09e3 283c 0cb0 06bd 2c10 ebbb 2ba0 473c
00000370: 6837 a5bc 79b6 a83b 861f 3bbd 53ad b6bc
00000380: ec1e 073d 4684 c23b 7a35 2d3c 07c4 a43c
00000390: aa65 aa3b 88a6 e5bb 372c 013c 02a3 883d
000003a0: 343e b43c 17e8 8fbb 7100 163c 3790 2fbd
000003b0: 5406 88bc e023 2ebc e840 083c 33fb 5c3c
000003c0: d8a7 7cbb 8274 b7bc 1bc5 76ba e14f 7f3c
000003d0: 60d1 833c 6e02 34ba c207 00bd 45d7 4bbc
000003e0: f18e 8abb 0883 13bb f561 2fbc fec8 6cbd
000003f0: 6b35 eb39 8f12 a43c d410 343c 3a6b eabc

motion_mlp.mlps.2.fc0.fc.bias f4 [50]
-6.032081e-06 3.7845423e-06 -9.943043e-06 4.459666e-06 -2.798318e-07 -5.989183e-06 -7.5052153e-06 -1.487651e-06
-1.7809471e-08 2.6036646e-06 -2.275414e-06 -2.5797e-06 6.1397363e-06 -8.0891e-06 2.577037e-06 -2.1489075e-06
4.045969e-06 4.5703646e-06 -2.054065e-07 -3.5219634e-06 7.4899945e-06 -2.1793478e-06 -1.5852174e-06 -9.824972e-07
1.0686292e-05 -4.906522e-06 -3.7657223e-06 -3.0498043e-06 -8.495564e-07 -1.6643125e-06 -2.468077e-06 -2.2217373e-06
-4.4267167e-06 3.3992387e-06 1.373049e-06 -5.9738854e-06 -2.8354705e-07 -4.685533e-06 -1.3857599e-06 -1.1883134e-06
5.1141437e-06 -2.079504e-06 6.5831347e-07 -3.1179068e-06 6.3532148e-06 -3.7473255e-06 1.9429365e-06 -6.7506962e-06
9.318458e-07 -3.1491265e-06
00000000: 2e67 cab6 f1f9 7d36 0bd1 26b7 3da4 9536
00000010: ca3b 96b4 b1f6 c8b6 4fd5 fbb6 4dab c7b5
00000020: 71fb 98b2 9eba 2e36 51b3 18b6 e91e 2db6
00000030: ef03 ce36 6cb6 07b7 29f1 2c36 f335 10b6
00000040: 9cc2 8736 225b 9936 b58d 5cb4 df5a 6cb6
00000050: 9052 fb36 e940 12b6 a8c3 d4b5 59de 83b5
00000060: 4649 3337 b4a2 a4b6 9eb6 7cb6 3dab 4cb6
00000070: 120d 64b5 5861 dfb5 3da1 25b6 2819 15b6
00000080: 3589 94b6 7a1e 6436 9b49 b835 4973 c8b6
00000090: 693a 98b4 6c38 9db6 59fe b9b5 237e 9fb5
000000a0: 299a ab36 9b8d 0bb6 f5b6 3035 3b3d 51b6
000000b0: b32d d536 907a 7bb6 6563 0236 0a84 e2b6
000000c0: f523 7a35 9555 53b6

motion_mlp.mlps.2.norm0.alpha f4 [1, 54, 1]
0.069221415 0.054744136 0.06669945 0.051313527 0.02484127 0.050307225 0.029255277 0.037485424
0.040887192 0.065431565 0.07159422 0.03268579 0.033663232 0.035370264 0.039823342 0.045781005
0.049706496 0.031761814 0.05862159 0.11599162 0.03320243 0.035888057 0.03469982 0.02957583
0.064281136 0.069612205 0.03838624 0.03618392 0.031541254 0.033939574 0.039282355 0.013669708
0.030603562 0.052874476 0.047204204 0.04172367 0.035251383 0.064189576 0.037833445 0.07540604
0.04500549 0.045718677 0.044509847 0.031591356 0.030876923 0.04305445 0.11358835 0.045086905
0.0602242 0.09127048 0.03391815 0.0728875 0.020308962 0.052999243
00000000: f5c3 8d3d 633b 603d b999 883d 222e 523d
00000010: eb7f cb3c f30e 4e3d c3a8 ef3c 518a 193d
00000020: 5479 273d fc00 863d fe9f 923d 89e1 053d
00000030: 75e2 093d 69e0 103d cd1d 233d dd84 3b3d
00000040: 0a99 4b3d ad18 023d 311d 703d 048d ed3d
00000050: 45ff 073d 5bff 123d 6621 0e3d 0349 f23c
00000060: d4a5 833d d890 8e3d e43a 1d3d 9735 143d
00000070: 6731 013d 3904 0b3d 89e6 203d e9f6 5f3c
00000080: 52b4 fa3c e892 583d 3259 413d 70e6 2a3d
00000090: c163 103d d375 833d 3ef7 1a3d 7b6e 9a3d
000000a0: ad57 383d 8243 3b3d f54f 363d f065 013d
000000b0: 9af1 fc3c dd59 303d 02a1 e83d 0cad 383d
000000c0: a7ad 763d 04ec ba3d c2ed 0a3d 0b46 953d
000000d0: fb5e a63c bc15 593d

motion_mlp.mlps.2.norm0.beta f4 [1, 54, 1]
-0.015652837 -0.0019222922 0.048048113 -0.0020073056 0.0010854575 0.002877425 0.0050674384 -0.004596373
-0.0007940597 0.0054389513 0.04499407 0.0024800387 0.0007348165 0.0076659243 -0.01010926 -0.00540776
-0.014140257 -0.0036622428 0.0051156254 -0.021245085 0.0019692932 0.0001650527 -0.0039226306 -0.0027619028
-0.01688474 -0.004723481 -0.0027907873 -0.007126289 -0.013091268 -0.0017189052 0.002418896 -0.0066651544
0.01597553 0.0051100305 -0.02087379 -0.0018680306 -0.005379272 0.047041565 -0.008055083 -0.012263784
-0.0055468897 -0.0026215941 0.007947672 -0.001278516 -0.0014076688 -0.0036616432 0.0079628965 0.017375972
-0.0021889722 -0.014844855 -0.007303548 -0.01513294 -0.0036123733 -0.0013867206
00000000: 613a 80bc 6cf5 fbba 19ce 443d 008d 03bb
00000010: e945 8e3a 2e93 3c3b c10c a63b 2c9d 96bb
00000020: 7228 50ba 3b39 b23b b44b 383d 2588 223b
00000030: b3a0 403a 6f32 fb3b 4fa1 25bc 9433 b1bb
00000040: 89ac 67bc 3d02 70bb faa0 a73b 2c0a aebc
00000050: 420f 013b ff11 2d39 6989 80bb 0a01 35bb
00000060: de51 8abc 6ec7 9abb a4e5 36bb a583 e9bb
00000070: c27c 56bc e34c e1ba 5786 1e3b 5e67 dabb
00000080: 1ddf 823c 0b72 a73b 83ff aabc b5d8 f4ba
00000090: 9b44 b0bb a8ae 403d 78f9 03bc 0aee 48bc
000000a0: afc2 b5bb 0dcf 2bbb f436 023c e193 a7ba
000000b0: 8781 b8ba 2ef8 6fbb cf76 023c 0e58 8e3c
000000c0: dc74 0fbb d637 73bc 9a52 efbb 27f0 77bc
000000d0: 91bd 6cbb 9fc2 b5ba

motion_mlp.mlps.3.fc0.fc.weight f4 [50, 50]
-0.0038968772 -0.03320575 0.061169792 -0.011498902 0.0072683636 -0.0022869173 0.030887123 -0.0061991904
0.03462101 0.0004126223 0.008902108 -0.019276787 -0.00045200548 -0.00020305812 -0.003555251 0.036983643
0.008757502 0.016897501 -0.015150491 -0.010464338 -0.028295234 -0.013669494 -0.033327654 -0.0064188167
0.01788677 0.019498477 0.007272456 0.0019168026 0.0013399449 0.023484714 -0.0045768237 0.008576426
0.00986156 0.0044247387 0.018377641 -0.06306949 -0.007604531 0.017026305 -0.02784392 0.05221805
0.013854705 0.020792004 0.015168673 0.030371226 -0.020144176 -0.021471424 -0.015050582 0.007180467
-0.023763366 -0.0055196905 0.0010289566 -0.06493879 0.0065302686 -0.036079306 0.025319045 0.0093479045
0.014819627 -0.008996694 0.00129906 -0.024715375 0.010388903 0.03089455 -0.003519161 0.013345036
-0.007547144 0.020653378 -0.008012045 -0.0015387812 -0.009084368 0.026917359 0.016454712 -0.027338738
-0.01785595 0.058093827 -0.025312873 0.0054757497 -0.02549481 0.0031115557 0.0010157933 0.015820483
-0.046854116 -0.050071396 0.015788421 -0.018004753 0.0027279202 -0.0065254667 -0.018311579 -0.023196485
0.0020403666 -0.007845823 0.00328234 -0.018885266 0.0024666137 -0.0060827364 -0.0318967 -0.025420135
0.023191111 -0.01712658 0.015306475 -0.008170831 0.0032303142 0.0012093614 -0.055822313 -0.004583557
3.5534315e-06 0.030213568 0.02839101 -0.048167873 -0.00093234814 -0.015836945 -0.0021067148 0.010923729
-0.0042798193 -0.044230916 0.009029735 -0.02519494 -0.006395233 -0.029665565 0.012049168 -0.031516146
-0.036608603 -0.010326814 -0.004846973 -0.03590313 0.0027035626 -0.02022562 0.050507363 0.006964536
-0.019018425 -0.0040621967 0.044461645 0.012998556 -0.021175126 0.010482138 -0.009934052 -0.0061245305
0.002133422 0.0059202574 0.033962853 0.0040828763 -0.004433807 0.0048308684 -0.015537433 -0.0111319255
0.013828221 -0.012716962 -0.014251306 -0.036824774 0.0067817685 0.030439198 -0.010004613 0.013483648
-0.011054468 0.0075079137 0.01845049 -0.003972224 -0.051726155 0.020825762 -0.0030980946 0.009923558
0.012547199 -0.018317387 0.013392828 -0.023127332 -0.0095267175 -0.016818568 -0.0025343245 -0.0051402594
0.01676405 -0.04027566 -0.014673965 0.005750413 0.024132794 -0.010143101 0.019019485 0.017012594
-0.0007337851 -0.06306143 0.02612042 0.03776418 0.0020173367 0.03878068 -0.006470219 0.01648795
0.009812526 0.01424948 0.02144149 0.018313121 -0.045286063 0.0053894 0.014672922 -0.017925648
-0.019225685 -0.04224882 -0.016116386 -0.0026892303 0.03903843 -0.0024785583 -0.019488623 0.0005997628
0.022793313 -0.025381003 -0.019459667 -0.005942825 0.033878587 -0.055962373 0.05956081 0.015491571
-0.058841467 -0.00042404231 0.0030544968 -0.02959587 -0.034270033 0.011556269 -0.003499945 0.012500247
0.031169599 -0.010046269 0.00800691 0.028752422 0.037887957 -0.021203766 -0.008240749 0.019302784
0.026583096 -0.010411645 -0.0067908107 0.019353425 -0.009602108 -0.024599863 -0.035170097 0.0024087667
-0.019120682 -0.043307792 0.03042727 0.0018390322 -0.02744628 0.0119954785 0.005877613 0.032254733
0.008691425 0.04314885 0.0024476591 -0.016193554 -0.009006478 0.0007038455 -0.0067314077 0.026219536
0.010772078 -0.018334998 0.020215591 -0.016977953 -0.0054262597 -0.005337823 -0.031188753 -0.026783602
00000000: c062 7fbb c102 08bd 2d8d 7a3d e465 3cbc
00000010: 742b ee3b 1be0 15bb fe06 fd3c 9422 cbbb
00000020: c3ce 0d3d 3a55 d839 26da 113c 5aea 9dbc
00000030: 26fb ecb9 00ec 54b9 37ff 68bb 297c 173d
00000040: a07b 0f3c a16c 8a3c c439 78bc 9d72 2bbc
00000050: 68cb e7bc 03f6 5fbc 9482 08bd f054 d2bb
00000060: 4787 923c 45bb 9f3c c84d ee3b 393d fb3a
00000070: 17a1 af3a 0463 c03c 2ef9 95bb 2384 0c3c
00000080: 6192 213c 66fd 903b b58c 963c 942a 81bd
00000090: 6e2f f9bb c07a 8b3c ef18 e4bc 98e2 553d
000000a0: d8fe 623c fe53 aa3c 0786 783c 14cd f83c
000000b0: 6605 a5bc d7e4 afbc b796 76bc 1f4a eb3b
000000c0: 64ab c2bc 85de b4bb 0ede 863a a1fe 84bd
000000d0: ddfb d53b e5c7 13bd e369 cf3c f427 193c
000000e0: 05ce 723c df66 13bc 3845 aa3a e677 cabc
000000f0: 3836 2a3c 9116 fd3c b9a1 66bb 23a5 5a3c
00000100: 084e f7bb 4631 a93c f444 03bc eeb0 c9ba
00000110: 9ad6 14bc cb81 dc3c 08cc 863c 7df5 dfbc
00000120: a446 92bc cbf3 6d3d f15c cfbc eb6d b33b
00000130: 7eda d0bc 3eeb 4b3b 5e24 853a f599 813c
00000140: 1aea 3fbd aa17 4dbd b856 813c b47e 93bc
00000150: e8c6 323b 95d3 d5bb 2a02 96bc 8e06 bebc
00000160: acb7 053b c48b 00bc 871c 573b 46b5 9abc
00000170: e9a6 213b b151 c7bb 1da6 02bd e33d d0bc
00000180: 49fb bd3c 0b4d 8cbc 02c8 7a3c f3de 05bc
00000190: aeb3 533b 6f83 9e3a f0a5 64bd aa31 96bb
000001a0: 7d77 6e36 7282 f73c 4394 e83c ad4b 45bd
000001b0: d368 74ba 7bbc 81bc cf10 0abb 71f9 323c
000001c0: ba3d 8cbb 7a2b 35bd 74f1 133c 9e65 cebc
000001d0: 1a8f d1bb 3305 f3bc e069 453c 1317 01bd
000001e0: e7f2 15bd cc31 29bc 5bd3 9ebb 290f 13bd
000001f0: 412e 313b 33b0 a5bc cfe0 4e3d c336 e43b
00000200: 87cc 9bbc 2d1c 85bb 6a1d 363d e5f7 543c
00000210: 7577 adbc 46bd 2b3c 6fc2 22bc 49b0 c8bb
00000220: e2d0 0b3b b8fe c13b a21c 0b3d a6c9 853b
00000230: 7849 91bb 434c 9e3b b890 7ebc ae62 36bc
00000240: c38f 623c ce5a 50bc 4f7e 69bc 93d5 16bd
00000250: 9939 de3b a05b f93c 63ea 23bc 85ea 5c3c
00000260: cd1d 35bc f204 f63b 7b25 973c 6e29 82bb
00000270: cede 53bd ca9a aa3c 6709 4bbb 6b96 223c
00000280: c492 4d3c 580e 96bc 986d 5b3c 8875 bdbc
00000290: f315 1cbc 18c7 89bc e916 26bb 9f6f a8bb
000002a0: c354 893c 17f8 24bd 126b 70bc f66d bc3b
000002b0: 23b2 c53c 402f 26bc c0ce 9b3c ff5d 8b3c
000002c0: 7c5b 40ba 5a26 81bd 7efa d53c 9dae 1a3d
000002d0: 4b35 043b 7ed8 1e3d 2204 d4bb bd11 873c
000002e0: b8c4 203c a776 693c 10a6 af3c 6605 963c
000002f0: e17d 39bd 9099 b03b b266 703c cfd8 92bc
00000300: 2f7f 9dbc 190d 2dbd 8306 84bc cc3d 30bb
00000310: c3e6 1f3d 4f6f 22bb 9ba6 9fbc 6639 1d3a
00000320: 0bb9 ba3c d2eb cfbc e169 9fbc 08bc c2bb
00000330: 46c4 0a3d cd38 65bd 09f6 733d 5cd0 7d3c
00000340: c003 71bd ff51 deb9 f42d 483b 0a73 f2bc
00000350: bc5e 0cbd 8156 3d3c 555f 65bb d6cd 4c3c
00000360: 6357 ff3c 1b99 24bc 6a2f 033c 338a eb3c
00000370: 6730 1b3d 85b3 adbc 3504 07bc df20 9e3c
00000380: cbc4 d93c 9b95 2abc 7385 debb 138b 9e3c
00000390: 2952 1dbc a785 c9bc 850e 10bd 66dc 1d3b
000003a0: faa2 9cbc 8363 31bd 9c42 f93c ae0b f13a
000003b0: 05d7 e0bc af88 443c fe98 c03b 8a1d 043d
000003c0: 7b66 0e3c d9bc 303d e868 203b 58a8 84bc
000003d0: e88f 13bc 4682 383a 2493 dcbb 5aca d63c
000003e0: 5f7d 303c 4733 96bc 2b9b a53c 5915 8bbc
000003f0: c4ce b1bb e8e8 aebb 8e7f ffbc 4969 dbbc

motion_mlp.mlps.3.fc0.fc.bias f4 [50]
-6.7328466e-07 3.2717164e-06 -2.8566853e-06 5.8770615e-07 3.3682013e-06 -1.0929673e-05 6.294707e-06 4.6643017e-06
2.8180618e-06 -4.424205e-06 -1.4587742e-06 -4.485838e-06 -1.23698e-06 3.0399826e-06 -8.560773e-06 -2.601496e-06
-5.642774e-06 -1.2076442e-06 -1.2651427e-06 -2.6961802e-06 -1.0551257e-06 -1.9080046e-08 2.8435152e-06 -4.718555e-06
1.3963942e-06 -1.3212521e-06 7.120185e-06 4.62318e-06 4.2276993e-06 8.069609e-07 -7.430794e-07 6.681826e-06
2.5161046e-06 -2.7385245e-06 -5.426596e-06 -7.4135933e-06 3.558422e-06 -2.1923336e-06 6.1715164e-06 -2.4780327e-06
-3.897429e-06 -3.5198236e-06 -4.7659796e-08 1.2994628e-06 1.4173477e-06 3.8321064e-06 3.5905157e-06 -3.0260608e-07
-3.897257e-06 -1.0650617e-06
00000000: c5bb 34b5 a98f 5b36 7bb5 3fb6 dcc2 1d35
00000010: 4209 6236 975e 37b7 1f37 d336 0c82 9c36
00000020: ef1d 3d36 a273 94b6 1acb c3b5 0e85 96b6
00000030: 4f06 a6b5 8102 4c36 3da0 0fb7 5c95 2eb6
00000040: 0f57 bdb6 5716 a2b5 f9cd a9b5 06f0 34b6
00000050: d89d 8db5 77e5 a3b2 38d3 3e36 1454 9eb6
00000060: bd6b bb35 e055 b1b5 ece9 ee36 d020 9b36
00000070: a9db 8d36 ee9d 5835 0778 47b5 7334 e036
00000080: 59da 2836 7ec7 37b6 1b16 b6b6 48c2 f8b6
00000090: 39cd 6e36 0120 13b6 ec14 cf36 474c 26b6
000000a0: a9c6 82b6 1c36 6cb6 80b2 4cb3 3469 ae35
000000b0: b23b be35 8b95 8036 97f4 7036 dd75 a2b4
000000c0: 2fc5 82b6 3ef3 8eb5

motion_mlp.mlps.3.norm0.alpha f4 [1, 54, 1]
0.06196234 0.07178317 0.10373236 0.047214866 0.034068894 0.043218274 0.023803644 0.035613414
0.04473312 0.06287344 0.115078166 0.044416133 0.050235197 0.041028876 0.06028658 0.050127544
0.05375166 0.043285392 0.046443015 0.00758744 0.052413024 0.049936507 0.045630913 0.045027375
0.068697795 0.09296737 0.04532845 0.05450287 0.020569688 0.05628827 0.021509822 0.019971637
0.056891732 0.011568207 0.096129686 0.050268747 0.024279926 0.089026995 0.06031127 0.06680545
0.070200205 0.065547675 0.044618733 0.063783444 0.039251167 0.01197014 0.011849566 0.044276483
0.05573334 0.12111764 0.04190651 0.08175313 0.08016838 0.027429262
00000000: 39cc 7d3d 0e03 933d a271 d43d 6064 413d
00000010: d38b 0b3d a505 313d dcff c23c 5fdf 113d
00000020: 133a 373d cac3 803d 1aae eb3d b1ed 353d
00000030: 6cc3 4d3d e50d 283d 10ef 763d 8a52 4d3d
00000040: b32a 5c3d 064c 313d 083b 3e3d 0fa0 f83b
00000050: 0aaf 563d 398a 4c3d 7be7 3a3d a06e 383d
00000060: 6eb1 8c3d ad65 be3d 53aa 393d 673e 5f3d
00000070: c381 a83c 878e 663d 5e35 b03c 8f9b a33c
00000080: 4e07 693d 9488 3d3c a4df c43d 9ae6 4d3d
00000090: b2e6 c63c c953 b63d f308 773d 4cd1 883d
000000a0: 20c5 8f3d dc3d 863d 22c2 363d e5a0 823d
000000b0: d5c5 203d 681e 443c af24 423c 425b 353d
000000c0: a548 643d 860c f83d 29a6 2b3d 2f6e a73d
000000d0: 522f a43d 55b3 e03c

motion_mlp.mlps.3.norm0.beta f4 [1, 54, 1]
0.0066853804 0.0006921125 0.023430796 -0.0054344633 -0.0038758891 -0.00044932665 0.0006342476 0.012337388
0.00018232454 -0.01135766 -0.0034116136 -0.0017329911 0.00095467013 -0.007437669 0.0012682641 2.9588218e-05
-0.0050119725 -0.0069084032 -0.0021300663 0.02691512 -0.002526599 -0.004332794 0.0050218976 0.002169465
-0.020598779 -0.010644655 -0.0020169034 -0.002975776 0.016350139 -0.00021182546 -0.005360578 -0.005873373
0.014900998 -0.012422267 0.02893688 -0.0011100228 0.010332508 0.024693528 0.00357009 0.0027417317
-0.0046694768 -0.0032733143 -0.010778783 0.0009834724 -0.00024876138 -0.005300622 0.0049945777 -0.0039023878
-0.006584289 -0.027348174 -0.00054274144 0.026507203 -0.0005032181 0.00084769574
00000000: 0911 db3b e26e 353a f1f1 bf3c 9513 b2bb
00000010: a102 7ebb 9a93 ebb9 a343 263a c122 4a3c
00000020: 5f2e 3f39 7b15 3abc 6195 5fbb 8825 e3ba
00000030: d442 7a3a b1b7 f3bb e23b a63a 3734 f837
00000040: 793b a4bb e35f e2bb 9598 0bbb 197d dc3c
00000050: 4c95 25bb 1cfa 8dbb bb8e a43b 952d 0e3b
00000060: c5be a8bc eb66 2ebc 062e 04bb 3d05 43bb
00000070: baf0 853c 771d 5eb9 caa7 afbb 6c75 c0bb
00000080: 5123 743c c486 4bbc 090d ed3c 2f7e 91ba
00000090: ae49 293c 154a ca3c 2cf8 693b a0ae 333b
000000a0: 6902 99bb 1a85 56bb 7e99 30bc dce7 803a
000000b0: 306c 82b9 d7b0 adbb 8ea9 a33b 34bf 7fbb
000000c0: 05c1 d7bb 4709 e0bc c346 0eba a225 d93c
000000d0: 65ea 03ba e637 5e3a

motion_mlp.mlps.4.fc0.fc.weight f4 [50, 50]
-0.014595986 0.027058635 -0.0026865327 0.04016557 0.007752997 -0.005671484 -0.11176299 -0.023570126
0.04378712 -0.006605775 0.0049723443 -0.014525289 0.011511888 0.016072532 -0.013960846 -0.03522488
0.009832479 0.0039974395 -0.0017493563 -0.022354875 -0.023185411 0.030284233 0.027990317 -0.0056194104
-0.03744921 0.018119413 0.01756307 0.02961022 -0.0050766775 0.04372676 0.0024062563 -0.025999688
-0.0041809697 0.0034906964 -0.021316549 -0.007899152 0.0016008739 0.037655074 -0.02337547 -0.015691495
0.028252002 -0.028730983 0.000116924624 0.0021722878 0.011447119 0.014702042 -0.027435904 0.0053852242
0.009891037 -0.08490896 0.02683314 -1.2508551e-05 -0.0032486932 -0.06361372 0.0072467253 -0.013850519
-0.004810968 -0.005843863 0.032059688 -0.0056313556 0.03642447 0.0079838885 -0.0124556795 -0.011125965
0.013551787 0.01664153 -0.011773204 -0.030033872 0.011347723 -0.010566937 0.016248193 -0.0058682873
0.004060915 -0.005990243 0.00862959 0.013452871 -0.020471754 -0.042584054 -0.010943063 -0.044020668
-0.01470725 -0.038528427 0.015456476 -0.045421924 0.042230383 0.009685964 -0.020109849 0.02310249
0.0015955825 -0.017970355 0.030202826 0.04155697 -0.019982858 -0.008234302 0.032386202 -0.013063965
0.011779406 -0.015440332 -0.027113702 -0.00083341106 -0.011099079 0.016902013 0.020680763 -0.034438856
0.0022369402 -0.012734903 0.03567879 0.023788722 0.034416854 -0.003147134 -0.0033989765 0.011831081
0.02560569 0.0201769 -0.027362691 0.015001987 -0.00091726816 0.008878854 0.031323023 -0.0010416427
0.041878313 0.011273414 0.0073649343 -0.0108253695 0.008004098 0.02060748 0.032692254 -0.051863555
0.054706655 0.011538193 -0.013087704 0.009973186 0.014655815 -0.005181984 -0.0032592262 -0.008084191
0.001982172 -0.0038839646 0.03221436 0.037547592 -0.0111440215 -0.012503987 0.02162956 -0.0038233185
-0.0244396 -0.00096335326 0.039611075 0.0320855 -2.2214848e-05 0.014044118 -0.015927827 0.028578797
0.01704984 -0.028489342 -0.058290042 -0.018440902 -0.007105676 -0.042111702 0.039583106 0.038519476
0.014002503 0.04607067 -0.013358049 -0.0017665401 0.010907023 -0.030494217 -0.04056107 0.00972413
0.021302 -0.002793341 0.0061296336 -0.005584707 -0.010369359 0.016373234 -0.00948867 0.009126683
0.041388463 0.041743074 -0.018677566 0.0038776265 -0.01914428 -0.047199648 -0.0090016965 0.04434462
0.021193558 0.013702271 0.018990139 0.03787327 -0.015536331 -0.00858259 -0.0124696335 0.00060449354
0.0078075756 -0.0016293422 -0.0019897434 0.0073603666 0.02524784 0.0282941 -0.011272897 0.017194584
-0.034715086 0.005802349 0.0028353892 0.04282628 0.0047006668 -0.003143297 0.034214396 -0.0036927059
-0.0047939974 -0.02731356 0.017226648 -0.03252826 -0.026702454 0.00889398 0.0029655704 -0.02950602
-0.019672422 -0.021959046 -0.012472715 -0.025855312 0.008743331 0.005548423 -0.016101252 0.026421852
0.0039662523 0.056155965 -0.016182793 -0.028859949 -0.05204659 0.007670396 -0.01236852 -0.011870192
-0.0034159804 0.020058924 0.021272779 0.02849477 0.0036705858 0.011222328 0.0056951586 0.00033037044
-0.028105628 -0.0028235856 -0.04483221 -0.013220746 0.016596558 -0.044177 -0.001861392 -0.0048243906
-0.02591009 -0.04544145 0.021861175 -0.026658362 -0.0029026344 0.017305821 -0.0060872254 -0.0647321
00000000: 0124 6fbc 12aa dd3c 8a10 30bb a784 243d
00000010: da0c fe3b dbd7 b9bb ffe3 e4bd 2316 c1bc
00000020: 205a 333d 4275 d8bb 0cef a23b 7afb 6dbc
00000030: 5c9c 3c3c 8baa 833c 08bc 64bc f747 10bd
00000040: 6818 213c f4fc 823b a84a e5ba 9221 b7bc
00000050: 55ef bdbc a416 f83c f34b e53c 0823 b8bb
00000060: 5864 19bd 2a6f 943c 6de0 8f3c 2291 f23c
00000070: 425a a6bb d51a 333d 48b2 1d3b 4cfd d4bc
00000080: 8400 89bb 2bc4 643b 0ba0 aebc 726b 01bc
00000090: 6ad4 d13a 353c 1a3d ea7d bfbc 738b 80bc
000000a0: be70 e73c 3d5d ebbc 6e35 f538 f15c 0e3b
000000b0: b28c 3b3c d5e0 703c 43c1 e0bc 8976 b03b
000000c0: 040e 223c c0e4 adbd 2cd1 db3c d1db 51b7
000000d0: 07e8 54bb e947 82bd f075 ed3b 4aed 62bc
000000e0: 53a5 9dbb e07d bfbb 0551 033d 3c87 b8bb
000000f0: d331 153d dbce 023c e812 4cbc ae49 36bc
00000100: 5008 5e3c d153 883c 66e4 40bc 9809 f6bc
00000110: cdeb 393c f220 2dbc ee1a 853c c34a c0bb
00000120: 6d11 853b cd49 c4bb 2063 0d3c 6e69 5c3c
00000130: 61b4 a7bc 9e6c 2ebd 884a 33bc 044f 34bd
00000140: adf6 70bc fccf 1dbd 293d 7d3c 570c 3abd
00000150: c4f9 2c3d e1b1 1e3c 69bd a4bc 6f41 bd3c
00000160: dd22 d13a 9136 93bc eb6b f73c a437 2a3d
00000170: 17b3 a3bc 2ae9 06bc 65a7 043d 3e0a 56bc
00000180: 69fe 403c 72f9 7cbc 8e1d debc 4579 5aba
00000190: e9d8 35bc 1776 8a3c b46a a93c c20f 0dbd
000001a0: a199 123b 0ea6 50bc ec23 123d 91e0 c23c
000001b0: b0f8 0c3d 2640 4ebb 5dc1 5ebb 26d7 413c
000001c0: 06c3 d13c 074a a53c b927 e0bc e5ca 753c
000001d0: d374 70ba 9d78 113c 924c 003d bb87 88ba
000001e0: 9888 2b3d 20b4 383c 8c55 f13b e45c 31bc
000001f0: 9f23 033c 05d1 a83c 50e8 053d e16e 54bd
00000200: 1614 603d b00a 3d3c cf6d 56bc 9366 233c
00000210: f21e 703c a2cd a9bb be98 55bb 8e73 04bc
00000220: 54e7 013b 1d8a 7ebb 34f3 033d 81cb 193d
00000230: 6a95 36bc 86dd 4cbc 7a30 b13c a490 7abb
00000240: 8e35 c8bc 8b89 7cba 393f 223d 166c 033d
00000250: 065a bab7 4d19 663c 137b 82bc 151e ea3c
00000260: 1bac 8b3c 7b62 e9bc 8ac1 6ebd 6011 97bc
00000270: bbd6 e8bb 527d 2cbd e521 223d 99c6 1d3d
00000280: c16a 653c 99b4 3c3d b8db 5abc 408b e7ba
00000290: 5fb3 323c 02cf f9bc 5d23 26bd f551 1f3c
000002a0: 8881 ae3c 7c10 37bb 18db c83b ebff b6bb
000002b0: 3ee4 29bc 2921 863c 5e76 1bbc 1588 153c
000002c0: f386 293d c9fa 2a3d b201 99bc c71f 7e3b
000002d0: 77d4 9cbc 6b54 41bd da7b 13bc b4a2 353d
000002e0: 1d9e ad3c 7d7f 603c 3591 9b3c 0121 1b3d
000002f0: 188c 7ebc fe9d 0cbc 6f4d 4cbc e076 1e3a
00000300: b1d6 ff3b a78f d5ba 5b66 02bb 3b2f f13b
00000310: 8fd4 ce3c 07c9 e73c f5b1 38bc a8db 8c3c
00000320: 6831 0ebd a221 be3b f0d1 393b 9c6a 2f3d
00000330: 0d08 9a3b c6ff 4dbb 6524 0c3d 5301 72bb
00000340: f716 9dbb b0c0 dfbc e61e 8d3c 5a3c 05bd
00000350: 1bbf dabc 0eb8 113c 045a 423b 9cb6 f1bc
00000360: 0f28 a1bc 75e3 b3bc 5c5a 4cbc 85ce d3bc
00000370: 3040 0f3c 8ccf b53b c6e6 83bc a472 d83c
00000380: 56f7 813b cc03 663d c791 84bc b36b ecbc
00000390: ce2e 55bd f257 fb3b 55a5 4abc 327b 42bc
000003a0: a4de 5fbb 9d52 a43c 4044 ae3c dd6d e93c
000003b0: 368e 703b dbdd 373c 749e ba3b 9235 ad39
000003c0: c63d e6bc e80b 39bb fba1 37bd d49b 58bc
000003d0: 81f5 873c f1f2 34bd f4f9 f3ba ec15 9ebb
000003e0: 6641 d4bc d020 3abd 3516 b33c a362 dabc
000003f0: 203a 3ebb f0c4 8d3c 5977 c7bb 4392 84bd

motion_mlp.mlps.4.fc0.fc.bias f4 [50]
5.1098164e-06 9.329717e-07 -2.8785134e-06 4.9045348e-06 5.7488196e-06 -2.4391097e-06 -5.666632e-07 2.3130513e-06
-9.514051e-06 2.4877838e-06 6.0161204e-07 3.2729133e-06 4.646639e-06 4.66072e-06 -2.3055884e-06 3.1467532e-06
-1.1205324e-06 1.3048643e-06 2.236822e-06 -2.766009e-06 -4.0621367e-06 2.7480132e-06 1.9026362e-06 -1.5612009e-06
5.7387656e-06 -2.9738342e-07 4.446956e-06 -9.691891e-06 -9.227164e-07 -9.940054e-07 -6.255511e-07 -3.118166e-07
2.8298653e-06 -4.2735064e-07 -2.81721e-07 4.6531204e-06 3.6699066e-06 -2.2379986e-06 -3.726449e-06 5.198823e-06
-2.7642725e-06 3.6354331e-06 -3.0709525e-06 -3.7894204e-06 3.3562396e-06 -1.6082316e-06 -9.0440903e-07 -1.250853e-06
1.1856101e-06 -6.4251066e-07
00000000: fd74 ab36 5471 7a35 7c2c 41b6 a291 a436
00000010: fce5 c036 96af 23b6 cc1c 18b5 eb39 1b36
00000020: 8a9e 1fb7 cdf3 2636 777e 2135 39a4 5b36
00000030: 53ea 9b36 4863 9c36 b5b9 1ab6 cf2c 5336
00000040: 3365 96b5 cc22 af35 4f1c 1636 ac9f 39b6
00000050: 7d4d 88b6 826a 3836 155e ff35 748a d1b5
00000060: 9f8f c036 11a8 9fb4 1037 9536 5b9a 22b7
00000070: 97b0 77b5 c469 85b5 8beb 27b5 bf67 a7b4
00000080: b7e8 3d36 a06e e5b4 703f 97b4 0022 9c36
00000090: 8448 7636 8630 16b6 e813 7ab6 8d71 ae36
000000a0: d781 39b6 44f8 7336 9016 4eb6 bf4d 7eb6
000000b0: c23b 6136 6bda d7b5 84c6 72b5 fbe2 a7b5
000000c0: 4121 9f35 ff78 2cb5
